backend/stocks/price/pt_models/AAN.pt (torch, 54423 bytes, 9 tensors)

lstm.weight_ih_l0 f4 [128, 1]
000000 ff 37 59 be c8 f2 60 be 0f 69 ef bd e2 51 e6 bd
       -0.21212767 -0.21967614 -0.1168996 -0.11246087
000010 0f b0 44 3d de ed f5 3d c5 b5 f0 bd 02 ba 19 3d
       0.048019465 0.1200826 -0.1175342 0.037530906
000020 e6 ec ac bd 2a bf 8e 3e 00 41 fc 3d 87 ff e2 bd
       -0.08443622 0.27880222 0.12317085 -0.11083894
000030 2f 68 7c be 10 60 8b 3e bc c5 de 3c 4d 6d 08 be
       -0.24649118 0.27221727 0.027193896 -0.13322945
000040 78 93 a0 bd b8 05 3b be 74 24 51 be ad 79 5b be
       -0.078406274 -0.182639 -0.20424062 -0.21433134
000050 ee e9 6c 3d 5c de 0c 3d 89 9d 4a bd 4c cf 11 be
       0.05784028 0.034391746 -0.049466643 -0.14239234
000060 09 9c 0f be 4d 81 13 be 77 3f 6d be b9 d3 d6 3d
       -0.14024366 -0.14404793 -0.23168741 0.10489602
000070 49 39 a1 39 e0 8c d3 bd dd 83 95 bd 75 e9 50 bd
       0.00030750994 -0.10329604 -0.073005415 -0.051003892
000080 58 4e ac be 81 a1 70 be 82 90 5a be 9b 9f 2a bd
       -0.33653522 -0.23499109 -0.21344188 -0.041656118
000090 0b 19 43 bd 43 1f e1 3c 92 1c 26 be b4 8b 3e 3d
       -0.047631305 0.027480727 -0.16221836 0.04651995
0000a0 29 7e 0f 3e b8 9e 77 3e 5b b9 a1 3e c3 b3 ba 3d
       0.1401297 0.2418164 0.31586727 0.09116318
0000b0 d1 62 9b bc aa 01 aa 3e 2b 61 7c be 6b 79 c0 3d
       -0.018968018 0.33204395 -0.24646442 0.09398159
0000c0 7c 84 95 be 9b 38 63 be 0e 38 85 bd c6 f9 88 bd
       -0.2920264 -0.22189562 -0.06504832 -0.066882655
0000d0 d4 9d 03 be 64 e6 3d 3d 39 5c f7 3c 5b f4 ee bd
       -0.12853175 0.046362296 0.030195342 -0.11667701
0000e0 5a c2 43 3d 81 16 57 bd 71 b9 3f bd 57 a7 a8 3d
       0.04779277 -0.052511696 -0.04680771 0.082350425
0000f0 03 be 90 be cb b6 31 be 96 ad 4c be f3 a1 13 3e
       -0.28269967 -0.17354886 -0.19988093 0.14417247
000100 df af ee 3d c8 3d ac bd 90 68 a4 be a2 82 93 be
       0.116546385 -0.08410221 -0.32111025 -0.28810602
000110 b8 44 77 3d d7 55 3a be 17 c8 3c 3e 5a dc ae bd
       0.06036827 -0.18196808 0.18435703 -0.085381225
000120 0c 89 41 3e 23 37 a0 be 5d 41 8c be 4a 8b 97 3e
       0.18899935 -0.31292066 -0.27393618 0.29598457
000130 4c 94 26 be f6 76 80 be 50 79 03 bd d9 66 a5 be
       -0.16267508 -0.2509076 -0.032098114 -0.3230503
000140 ab 05 9c bd 6c 3a e4 bd 96 7f e7 bd dc f6 eb bd
       -0.076182686 -0.111439556 -0.11303632 -0.11521694
000150 2a 51 93 be c1 26 ad be dd 6a 95 bd 02 0c 96 be
       -0.2877286 -0.3381863 -0.07295773 -0.29306036
000160 ec ba e4 3d 2c 59 c3 3d 7d 9c 45 3d 1e e9 10 3e
       0.11168465 0.095384926 0.048244942 0.14151427
000170 dc 9f ab 3e c2 07 a3 be 63 71 71 be db 04 5e 3c
       0.335204 -0.31841856 -0.2357841 0.013550962
000180 f4 ea 8b be 29 5d 6d be e9 b9 e4 bd e3 8b 31 bd
       -0.27327693 -0.23180069 -0.11168272 -0.043346297
000190 e4 c5 50 be c8 c3 6f 3e 98 3e 97 bd 72 bb a1 3e
       -0.2038799 0.23414528 -0.07384986 0.31588322
0001a0 b5 4c 0e bd f5 c6 89 3e 0a ba 8a 3e b7 72 f1 3c
       -0.034741122 0.26909605 0.27095062 0.029473646
0001b0 a1 4b 8a 3d 2f 2c 78 3e 2a d6 7a be 95 26 1c bd
       0.06752706 0.24235605 -0.2449576 -0.038122732
0001c0 79 d7 25 be 1d 05 83 be e6 0a 8e 3c a2 04 4f be
       -0.16195478 -0.2558984 0.017339181 -0.20216611
0001d0 0d 5a 12 bd d6 d4 db bd 35 c1 bd bc 7b d7 55 bd
       -0.03573041 -0.107339546 -0.023163417 -0.05220745
0001e0 f5 92 27 be 37 5a 5f 3c f4 8e 0d be ce ec 3b be
       -0.16364653 0.013632349 -0.13824064 -0.18352053
0001f0 e5 83 b7 3b bd cb c0 bc 8a c0 64 bd e7 ed cf 3d
       0.00560044 -0.02353465 -0.055847682 0.10152798

lstm.weight_hh_l0 f4 [128, 32]
000000 80 29 c3 3d c1 38 84 3c 7c 51 c9 3c 64 60 7a bd
       0.095294 0.016140344 0.024574988 -0.06112708
000010 8b 4e 25 bd 77 18 de 3d b1 bf 9f 3d 9d a0 eb bd
       -0.040358108 0.1084451 0.07800234 -0.11505244
000020 03 95 12 3a 5e 2c 86 3e e7 45 81 bd 13 c1 20 be
       0.00055916625 0.26205724 -0.06312161 -0.15698652
000030 fc f2 07 3e d0 ea 00 3e 13 a1 91 3d 85 f5 99 bd
       0.13276285 0.12589574 0.071108006 -0.07517532
000040 2c 7d 03 be 3e 98 00 3e 93 d7 14 3b f1 9f 4e be
       -0.12840718 0.12558076 0.00227115 -0.201782
000050 ff 6a 6a bd 3b 7d 6c 3e 86 39 55 3d 1d f7 0c 3e
       -0.057230946 0.23094647 0.05205681 0.13766141
000060 ff b8 26 3c cc 1b 16 3d 87 8a ec bb 4d 2c 47 bd
       0.010175942 0.036647603 -0.007218662 -0.048626233
000070 01 2d 23 be c9 19 83 3d 9f 3f 06 be d7 aa e2 bd
       -0.15935136 0.064014025 -0.13110207 -0.11067741
000080 73 d4 42 3e 3b 6b 4d 3d 3e 13 be b9 4c bf e0 39
       0.19026355 0.05015109 -0.0003625396 0.00042867137
000090 4e 45 a3 bc fb 67 fe bd 40 5d 8f 3e ad 1c 05 3e
       -0.019930508 -0.124221765 0.28000832 0.1299922
0000a0 e6 66 a1 bd 32 29 45 3e 07 6e c1 3d 54 79 9f bd
       -0.078809544 0.19253996 0.09444814 -0.077868134
0000b0 ee 5a 3d be 66 84 a1 bd a0 c4 96 3e 4d 88 a3 3d
       -0.18491718 -0.07886581 0.29446888 0.07984982
0000c0 96 53 9e bd 24 fe 7c be 8a ae 88 3e d5 40 d7 3c
       -0.077307865 -0.24706322 0.26695663 0.026276032
0000d0 d9 89 5b bd c5 4a 5c 3c 35 57 59 3d 17 85 ff bc
       -0.05359826 0.013445561 0.053061683 -0.031191392
0000e0 84 eb 70 3e cc ad 87 3e dd b5 af bd 38 23 88 3e
       0.23527342 0.26499784 -0.085796095 0.2658937
0000f0 80 fc 88 3e a7 75 86 bd cc b8 9d 3d 3c 86 66 be
       0.26755142 -0.06565409 0.07701263 -0.22512144
000100 5f c5 16 3d f9 71 99 bd ae 8d ce 3d 0d 06 15 be
       0.03680932 -0.07492442 0.10085617 -0.1455309
000110 c5 ad 07 3d 56 eb 45 bc 64 ed cc bc 06 60 d7 3d
       0.033124704 -0.012080034 -0.02501554 0.10516362
000120 32 c3 30 3e b2 92 ad bd 1a 17 7e bd 06 2a 68 be
       0.17261961 -0.084752455 -0.06203375 -0.2267228
000130 89 fd f8 3d aa 06 b6 bd ac fb f6 3d 59 3a 84 bd
       0.12157733 -0.0888799 0.12059721 -0.064564414
000140 0f ea 84 3d db 77 07 3b a4 2f 70 bd 01 db 04 bd
       0.06489956 0.0020670805 -0.058639184 -0.03243542
000150 ec 95 43 bd 72 de fe 3d 7a 50 09 3e 8f c5 ba 3c
       -0.0477504 0.12444772 0.13409606 0.022799281
000160 ab e6 6e bd 52 88 78 3d a5 3d 83 bd 8e 76 d0 bc
       -0.05832545 0.06067688 -0.06408242 -0.025447156
000170 f5 42 3f 3c e2 1b ca bd f2 e6 70 bd 4e 90 34 3e
       0.011673679 -0.098685995 -0.058813997 0.17633173
000180 50 db fb 3d ce 69 13 3e ba 0a bf bc f1 ba 88 bd
       0.1229769 0.1439583 -0.023320545 -0.06676281
000190 d9 64 32 3c 59 da 9d 3c cf 3f d5 3d 11 79 80 bd
       0.010888302 0.019269155 0.10412561 -0.062730916
0001a0 be 1f 1f 3e 27 6b e0 bd eb 4a b6 bd 5b 0c a7 3d
       0.15539452 -0.10957938 -0.08901008 0.081566535
0001b0 18 a5 3f bc 77 8a 5a be 71 4c 0b be 4b 7d b1 3b
       -0.011697076 -0.21341883 -0.13603379 0.0054165474
0001c0 38 77 4e 3e 77 aa 63 bd b2 05 dc 3c 59 98 50 3d
       0.20162666 -0.05558249 0.026858184 0.05092654
0001d0 e2 d2 42 3d af cb e3 3d e6 8c dd 3c 04 63 0e 3e
       0.047564395 0.11122834 0.027044725 0.13904959
0001e0 c4 e3 e8 3d 67 7a c3 bc c3 df 05 be 13 56 92 3c
       0.11371568 -0.023862077 -0.1307364 0.017863309
0001f0 a3 6d a2 3d 86 43 e5 3d c3 d2 a8 bc 39 1e 19 be
       0.07931068 0.1119452 -0.020608312 -0.14952935
000200 75 25 73 bd 86 38 10 bd ca 91 2b bb c3 b3 58 3d
       -0.059361894 -0.035210155 -0.0026179426 0.05290581
000210 44 a8 fe bd 95 e1 23 be 88 52 c5 bd 89 cc 29 3e
       -0.12434438 -0.16004021 -0.09634882 0.1658193
000220 e5 e3 b1 3d 39 30 ab 3d e5 38 42 3e ae c6 2f bc
       0.086860456 0.08358807 0.18967016 -0.010728521
000230 8e c0 18 be b2 de a8 bd 17 01 15 3e 0b ee d1 3d
       -0.14917204 -0.08245601 0.14551197 0.10250481
000240 38 f6 80 3d 1c bd 13 be c5 6e dc 3c f9 7a 30 be
       0.062969625 -0.14427608 0.026908288 -0.1723441
000250 83 76 9d 3d ed bb 00 be d3 bf 43 3e e3 fd 3a be
       0.0768862 -0.12571688 0.19116144 -0.18260913
000260 59 3e 63 3e 08 62 d1 bd 69 c4 43 bd 58 46 f8 bc
       0.22191752 -0.10223776 -0.047794733 -0.03030698
000270 c5 93 ab 3d 71 c5 ae bd b9 2e 01 be c1 00 84 bc
       0.08377794 -0.08533753 -0.1261548 -0.01611364
000280 76 53 15 bc 83 62 d4 bc 58 2f 59 3b 7b b0 c8 bd
       -0.009114137 -0.02592588 0.0033139791 -0.09799286
000290 74 0c f6 bd fe fd 81 3d bc 8d d7 bd 67 5e 0c bd
       -0.12014094 0.06347273 -0.105250806 -0.034269717
0002a0 ba 71 9f bd a9 b1 0a bd cf 29 e5 bd 4c 84 2d 3e
       -0.077853635 -0.033860836 -0.11189615 0.16944999
0002b0 95 4d 0b bd df e2 c7 bd cf 63 e4 3d cd 41 ca bc
       -0.034009535 -0.09760069 0.111518495 -0.02468958
0002c0 02 65 9e 3d 5c 7d 1c be 50 55 ba 3d 9b 75 14 bc
       0.077341095 -0.15282196 0.09098303 -0.009061242
0002d0 f4 ef 7f 3d 75 2e 01 3c cb bd b2 bc ab 15 68 bc
       0.062484697 0.007884611 -0.021819016 -0.014165322
0002e0 7a d1 85 bd 82 51 9d bd cb f1 b3 3d 52 7d c6 3c
       -0.06534095 -0.07681562 0.08786353 0.02422968
0002f0 c3 3f 2d 3d f1 06 0c 3b c3 a8 9b bd c2 97 d2 bd
       0.042297136 0.0021366442 -0.07600548 -0.10282852
000300 36 45 0e 3d 1c 2b 20 3e cc 97 2e be c4 5e 23 bc
       0.034733973 0.15641445 -0.17050093 -0.009971324
000310 c0 68 d1 bd bb 11 d3 bd 15 dc 52 3d 85 06 4d be
       -0.102250576 -0.10306116 0.051479418 -0.20022018
000320 4d 96 a2 bb e3 d8 76 bc 6e 22 b7 bd 5a a0 d2 3d
       -0.004961765 -0.015066358 -0.08942114 0.10284491
000330 7a 1c 6c 3d 89 a4 ec 3d 4d 44 f2 bb 71 90 f0 bb
       0.057644345 0.1155482 -0.007393396 -0.0073414375
000340 ca 12 c4 3c 91 51 80 3d 5e 92 c7 bd 6f ad b0 3b
       0.02393474 0.062655576 -0.09744714 0.0053917686
000350 97 67 0f 3b 4c 76 bb 3c a7 5c 2b 3d 57 ae e2 bd
       0.0021881813 0.022883557 0.041836407 -0.11068409
000360 86 1d 15 bc 77 65 44 3e e8 ed 4a be 2e dd 10 3e
       -0.009101277 0.19179331 -0.19817317 0.14146873
000370 f8 16 a9 3b e4 33 19 bd 2a e1 fa 3d d0 8a a7 bd
       0.005160209 -0.037403002 0.12249978 -0.08180773
000380 cd 6b 7f 3e ae 06 50 3e e4 02 99 bc 48 d2 e9 3d
       0.24943466 0.20315048 -0.018678136 0.11417061
000390 2b 3c a3 be 37 07 1d 3d c1 aa df bd 92 3f 42 3d
       -0.31881842 0.03833696 -0.109212406 0.047423907
0003a0 5b f1 b8 bc 60 f7 72 bd bc 4a 27 3d 79 ea 4f 3e
       -0.022576025 -0.059317946 0.040842757 0.20304288
0003b0 34 e4 3a bd d5 14 11 bd 40 77 9d 3e b1 3a ff bd
       -0.045627788 -0.035420258 0.30755043 -0.12462366
0003c0 79 9c 82 be c4 23 a1 bd c1 c3 85 3e fa f1 4d be
       -0.25510004 -0.0786815 0.2612591 -0.20111838
0003d0 fb a0 ca bd 07 cc 22 be a6 60 be bc 89 1e 73 be
       -0.09893986 -0.15898143 -0.023239445 -0.23742117
0003e0 94 d6 59 3e 9f e4 8e 3c 96 36 07 bd 4e e8 90 3c
       0.21273261 0.017443 -0.03301104 0.017688897
0003f0 87 7a a3 3e e8 06 91 bd 80 7d 7b bd ab 2a 73 3b
       0.31929418 -0.070813954 -0.061398983 0.003710429

lstm.bias_ih_l0 f4 [128]
000000 ba f5 8c 3d d0 ee e4 bd a6 7d 4e 3e c6 f4 22 3e
       0.06882806 -0.11178362 0.20165119 0.15913686
000010 de da 09 3b b2 09 b5 bd 5d 4e 5e bd f0 6a 6c be
       0.0021034996 -0.0883974 -0.05427395 -0.23087668
000020 47 5e 0c bc fe e6 47 3e 80 7a 7e 3e fb 15 a0 3c
       -0.008567399 0.1952171 0.24851418 0.019541731
000030 3a 6b da 3d 32 3e 8a bc 09 d0 37 be 9c 9b 26 bd
       0.10664983 -0.01687536 -0.17950453 -0.040675744
000040 94 15 4d be 2e 71 1c 3c f9 58 b2 3d 02 47 69 bc
       -0.20027763 0.0095484685 0.087083764 -0.014238121
000050 fd 28 9e 3d dc 08 8b bd fe b9 37 3d 4c 6c 55 3e
       0.07722662 -0.06788799 0.04485511 0.20842093
000060 86 a3 20 be e0 0c 51 bb ad 25 5f 3d 2f 26 c3 bd
       -0.15687379 -0.0031898543 0.05447929 -0.09528767
000070 48 e5 9d bd a0 1b b4 3d 52 20 54 3e 29 0c 41 be
       -0.077097476 0.087943316 0.20715454 -0.18852295
000080 a2 ee f4 3d ae 76 4c be d3 e4 c8 bd b2 02 ac 3d
       0.11959578 -0.19967148 -0.0980927 0.083989516
000090 5f b6 3c be 3b 53 d9 3d e9 da 98 3d 3c 2e 22 bc
       -0.18428944 0.10611578 0.07463629 -0.009898718
0000a0 aa 65 18 3d f8 e3 bd 3d 15 54 be 3c 74 f5 8c bd
       0.03720633 0.09271997 0.023233453 -0.06882754
0000b0 d5 00 f4 3d dd 37 01 be 4c e5 5b be ed 8e a3 bc
       0.11914221 -0.12618966 -0.21474189 -0.019965613
0000c0 b6 6e 83 3d 01 11 c3 3d 14 b7 c6 3d 2f 85 86 bd
       0.06417601 0.095247276 0.09702888 -0.065683715
0000d0 4d 7c 40 3e 52 82 24 3e 2c 2d 5c be 69 17 dd bd
       0.18797417 0.16065338 -0.21501607 -0.10795481
0000e0 b7 c2 37 3d 07 02 a5 bc b8 e3 3d be de 80 ca bd
       0.04486343 -0.020142568 -0.18543899 -0.09887861
0000f0 31 d9 24 3e cb 4c 4b 3d 2d 2c ba 3d 23 38 6c be
       0.16098477 0.049633782 0.09090457 -0.2306829
000100 e2 b2 1e be 61 90 b8 bd 8a 73 16 3e a6 a3 76 bc
       -0.15497926 -0.09011913 0.14692512 -0.015053665
000110 e3 30 b5 3d 34 b1 50 bc 9d 8a be bd 05 f9 8b bd
       0.08847215 -0.012737561 -0.09303782 -0.06834606
000120 1f dc c1 3c 3b 97 3e be 34 fc b6 bd 3f dd 73 3d
       0.023664532 -0.18612377 -0.08934823 0.05953717
000130 2c ea 0d bc c9 a6 a2 3b 7a e3 42 3c 62 4c f9 3b
       -0.008661788 0.00496373 0.011895055 0.0076079825
000140 28 3e b6 3c 21 76 b5 3d 70 38 c2 bd de 80 ac 3d
       0.022246435 0.08860422 -0.09483421 0.08423017
000150 19 63 8b bd 37 09 b6 3d 9c 16 94 3c 82 80 fb bb
       -0.06806011 0.08888476 0.018077187 -0.0076752314
000160 70 9a 8f 3d 7c ab b0 3b 39 e1 1d 3e 25 d5 98 3d
       0.070118785 0.0053915363 0.15417947 0.07462529
000170 6c f2 a4 bd 08 e4 85 3c b8 df 87 bd 05 35 a9 3d
       -0.08054051 0.016344085 -0.06634468 0.08262066
000180 66 df 04 bd 9e 17 5d be b1 c9 15 3e 31 2b 2c 3e
       -0.03243961 -0.2159104 0.1462772 0.16813351
000190 e7 22 2f be d1 9e e1 3c 98 88 03 bd 11 18 95 be
       -0.17103158 0.02754155 -0.032112688 -0.29119924
0001a0 0f 69 8d bd 0f 70 28 bd 81 2a 14 3e fb ae 95 3d
       -0.06904804 -0.041122492 0.14469339 0.073087655
0001b0 10 dd 08 bb 8d dd 38 be 6c bb 2c 3a 8f db 6a 3d
       -0.0020883717 -0.18053265 0.00065892073 0.057338294
0001c0 20 32 0d be cd 4e 09 3e 35 44 23 bd 40 b0 c8 3c
       -0.13788652 0.13408966 -0.03985997 0.024498105
0001d0 93 1a 1e 3d 37 eb 70 3e 50 f1 30 be c8 57 c7 3c
       0.038599562 0.23527227 -0.17279553 0.02433385
0001e0 50 07 82 3d ce aa ed bd 66 c2 0d be 3f 09 6f bd
       0.06349051 -0.11604844 -0.13843688 -0.058358427
0001f0 01 09 ee bd e9 b7 08 3d 78 a5 37 3e a2 20 47 bd
       -0.11622811 0.033378515 0.17934215 -0.048615105

lstm.bias_hh_l0 f4 [128]
000000 4b ba 3d bc 9e 59 5d be c3 dc 68 3c a1 ca 67 bc
       -0.01158006 -0.21616217 0.01421279 -0.014147432
000010 23 72 ae 3c 7d 9d fa 3d 74 14 0c 3b c6 0e 42 3c
       0.021294659 0.1223707 0.0021374496 0.011844343
000020 ff 04 52 bd f7 91 2d bc d1 86 a3 bd 6d 58 37 bd
       -0.051274296 -0.010593883 -0.079846986 -0.044762064
000030 d3 6f 43 be f3 bd 16 3e a7 28 33 be 63 7c 4c 3d
       -0.19085626 0.14720897 -0.17495976 0.049923312
000040 5d 0e ae bd 1f 60 98 3c 56 7e 88 bd 10 6f 0d be
       -0.08498833 0.018600522 -0.06664722 -0.13811898
000050 c0 85 5e 3e ca 75 be 3c 56 66 12 3d 26 2b 2e 3e
       0.21730709 0.023249526 0.035742126 0.17008647
000060 3a a0 4b be 24 b4 0d 3e 12 97 43 3c 3d 07 ec 3d
       -0.1988534 0.1383825 0.011937873 0.11524818
000070 7b 35 17 be 6e 41 d4 3d 73 db c4 bb f9 ec 79 be
       -0.14766495 0.10364042 -0.0060076057 -0.24406804
000080 1c ad 71 bd 63 31 d4 3c 5e 18 17 3d 53 1a 09 be
       -0.05900298 0.025902456 0.036888473 -0.13388948
000090 82 2f 81 3d d4 49 01 be 16 59 d5 3c 1d d7 7f bd
       0.063078895 -0.1262582 0.026043456 -0.062461007
0000a0 8f 45 f2 bd 84 bd 28 3e 5b 6f 8d bd d0 ec 23 3e
       -0.118296735 0.16478544 -0.06906005 0.16008306
0000b0 95 a3 06 be 67 a5 eb 3d 99 05 07 bd 80 ef 40 3e
       -0.13148339 0.11506157 -0.032964323 0.18841362
0000c0 15 53 c3 bd b4 97 cc bd 26 06 05 be 1a d6 bc bd
       -0.09537331 -0.099898726 -0.12990627 -0.09220524
0000d0 48 7a cf bd 0b e6 b0 bc 43 27 e0 bd a0 df 11 3d
       -0.10130745 -0.021594068 -0.109449886 0.035613656
0000e0 8f 00 4b be 23 73 0d 3e 79 b9 a6 3d d7 43 3f bd
       -0.19824432 0.13813452 0.08140845 -0.046695556
0000f0 ce 89 6f bd 70 cc a9 3d 49 07 0b 3d bd 06 56 bd
       -0.05848103 0.082909465 0.033942495 -0.05225252
000100 25 ee 54 3d 6f e0 ad 3d 1a 03 0e be 6c bb 8b bd
       0.051984925 0.08490073 -0.1386837 -0.06822857
000110 d4 8d 54 3d 0c 17 d9 bd 70 ba 08 3e 67 41 59 3d
       0.05189307 -0.10600099 0.1335237 0.05304089
000120 d1 33 fe 3d c5 c6 48 3d f9 3e 33 3a d1 fa a7 bc
       0.12412227 0.049017686 0.0006837692 -0.02050534
000130 05 3f 23 3d 47 5c e0 bd d0 c1 25 be 3a 7d 0e be
       0.039855022 -0.109551005 -0.16187215 -0.13914958
000140 13 17 88 3d da d7 7b bd b4 e3 77 bc e2 46 3d 3d
       0.06645026 -0.06148515 -0.015129972 0.046210177
000150 88 53 d4 3d 27 83 b2 bd 09 77 bc bb e1 d3 67 bd
       0.10367495 -0.087164216 -0.005751495 -0.056598548
000160 e1 8f 89 bd 3d e5 b2 bd cb f7 12 3e b5 58 87 bc
       -0.06716896 -0.0873513 0.14352338 -0.016521791
000170 09 e4 bf bd 6b 41 ad bc 83 b6 9f 3d 91 45 18 bd
       -0.09369666 -0.021149358 0.07798483 -0.03717572
000180 5b 6e 03 3e 89 9b 5d bd e5 a4 21 bd 23 13 c2 3d
       0.12835066 -0.054103408 -0.039463896 0.09476306
000190 ed 14 e2 3d 2c 20 02 be d2 59 2d 3e 06 90 62 be
       0.110391475 -0.12707585 0.16928795 -0.22125253
0001a0 03 48 32 be 87 a3 20 bd ea 95 f1 bc ec 10 7b 3e
       -0.17410283 -0.03921845 -0.02949043 0.24518174
0001b0 f1 4c 3a be 84 b8 9a 3d 7c 20 9b bd cf 89 8f bd
       -0.18193413 0.07554725 -0.07574555 -0.07008707
0001c0 bf e5 fa bd ba 84 77 bd fd 31 84 bd af e3 c6 3d
       -0.12250852 -0.060429312 -0.06454847 0.09711396
0001d0 e4 63 17 3e 3d 26 5c 3c 96 3c 82 bd 79 98 03 3e
       0.14784199 0.013436851 -0.06359212 0.12851132
0001e0 f3 a1 a1 3d c7 a6 1d be d5 94 2b bd 06 27 10 be
       0.078922175 -0.15395652 -0.041889984 -0.14077386
0001f0 ec 92 85 3b ed 9c 3c bd 32 44 a3 bd b7 ea 55 be
       0.0040763523 -0.046048094 -0.079719916 -0.20890318

lstm.weight_ih_l1 f4 [128, 32]
000000 3f 6e 41 3d 05 8d 15 3e f2 5a 12 be c1 1d f0 3c
       0.04722428 0.14604576 -0.14292505 0.029311063
000010 99 85 aa bd 5d c0 1a be 69 95 5a 3e 13 3c ec 3d
       -0.08326263 -0.15112443 0.21346058 0.11534896
000020 1f 4b 66 bc 5c 79 56 3d d4 c0 5d be 90 df 04 be
       -0.014055996 0.05236183 -0.2165559 -0.12975907
000030 0e 35 4a be db 7d a3 3c 70 1d 3a bd ec 08 28 3e
       -0.19746801 0.019957474 -0.04543823 0.16409653
000040 d4 09 90 bd 53 a6 50 3d 74 7f 2a 3e 0c 26 4c bd
       -0.070331246 0.05093987 0.16650182 -0.04984097
000050 b2 b8 71 3d 5f 0a d2 3c bb 2a c0 bd 24 17 00 be
       0.05901403 0.025639711 -0.0938315 -0.12508827
000060 1e 1b 86 3e 81 a1 9c bd f6 a6 52 3d 0a f8 86 3b
       0.26192564 -0.07647992 0.051428758 0.004118924
000070 a9 55 9f bd 64 4a af 3d 43 53 8a 3d fc 50 58 be
       -0.0778001 0.08559111 0.06754162 -0.21124643
000080 b4 87 88 3d 17 5c 5d 3e 57 38 08 3e 76 3e 0f be
       0.06666508 0.2161716 0.13302742 -0.1398867
000090 65 87 60 bd 4b dd 8e 3b e0 2e 17 bb 88 61 dd bd
       -0.054816622 0.0043598763 -0.002306871 -0.10809618
0000a0 1a 3e 8e be f4 bf 2b 3e 86 5e 96 3c e8 15 04 3d
       -0.27781755 0.16772443 0.01835562 0.032247454
0000b0 e4 25 01 be bc 0d 84 3e fd 0b 65 bd e5 4c 14 3e
       -0.1261211 0.25791728 -0.055919636 0.14482458
0000c0 13 40 97 3c a8 22 8a bd ad 46 84 3e 0e 5f 30 3d
       0.01846317 -0.067448914 0.2583517 0.0430594
0000d0 e7 f6 2b 3e af 88 28 bd 19 b6 9e 3e f3 16 b7 bd
       0.16793405 -0.041145977 0.30998304 -0.08939924
0000e0 f4 f6 d6 3d c1 b8 40 bd 23 df f0 bc 95 12 b6 3c
       0.10496321 -0.047051195 -0.029403275 0.022225657
0000f0 8e 76 ab 3d 9d 3f c8 3d d9 ab 4c bd bc 8a 96 bb
       0.08372222 0.09777758 -0.049968574 -0.004594175
000100 40 22 29 3e 2b 15 49 bc 3d bd 64 bd 9d ed ca 39
       0.16516972 -0.012273113 -0.055844534 0.00038705478
000110 19 b3 23 be b7 58 92 3d db 26 10 3e c3 88 74 3d
       -0.15986289 0.07145827 0.14077322 0.05970074
000120 25 3d 4c be cb d7 08 3e 28 1b 8c 3e 87 8a 17 3d
       -0.199452 0.13363568 0.2736447 0.036997344
000130 c2 2f 29 3c 37 17 69 3e cc 29 38 bc dd 86 25 3e
       0.010326328 0.22762762 -0.011240434 0.16164728
000140 b6 41 b0 3d c6 db 49 3d 61 d5 74 bd a9 43 68 be
       0.08606283 0.049281858 -0.059773806 -0.2268206
000150 60 fe 83 3d 74 06 6f 3c 44 a8 93 bd b2 ae c4 3d
       0.064450026 0.014588941 -0.072098285 0.09603633
000160 25 db d6 bb 8f 7e 33 bd 22 a9 6b bd 1b 8c 3b bd
       -0.006556886 -0.043821868 -0.057534344 -0.04578791
000170 79 26 0d be a6 ea 9c bc 88 f5 cf 3b 91 c1 ea bb
       -0.13784207 -0.019154858 0.0063464083 -0.007164188
000180 ac 21 f4 bd 8f 18 7a 3e a2 5e f8 3d 81 5f 09 bb
       -0.11920485 0.24423431 0.12127425 -0.0020961466
000190 9d 89 19 be f9 ce f9 bc 7d 01 d3 3c 2e 66 e8 bd
       -0.14993902 -0.0304942 0.025757546 -0.11347614
0001a0 a4 8f 20 be a7 d6 f9 bd 0f e5 8c 3d 7d e3 f4 3d
       -0.15679795 -0.12199145 0.06879627 0.119574524
0001b0 76 da 96 bd 6a 66 83 3d 89 c9 9c 3c 1a f8 fd 3d
       -0.07365887 0.06416018 0.019139068 0.12400837
0001c0 8b 75 b0 3d cc 9e 51 be e0 8c c0 3b 9b 8c dc bb
       0.086161695 -0.20470732 0.0058761686 -0.0067306287
0001d0 0b 4d c0 bd 6e 74 0b be 6b 29 65 be 19 c1 f1 bd
       -0.09389695 -0.13618633 -0.22379081 -0.118044086
0001e0 04 46 22 bc ad 4b 68 3b e5 3d b5 bd c4 df 4f bd
       -0.009904388 0.0035445497 -0.08849696 -0.05075051
0001f0 08 5e 17 be f7 bf f9 3d 4b 97 fc bd b7 ce 19 be
       -0.14781964 0.121948175 -0.12333544 -0.15020262
000200 6a b2 14 be 70 07 b1 3d e9 62 38 3e 9f f4 00 3e
       -0.14521185 0.08643997 0.18006481 0.12593316
000210 13 32 07 3d c8 9c 0b bd e9 98 01 be 89 89 c7 3d
       0.03300674 -0.034085065 -0.12655987 0.097430296
000220 16 3c 7e bc 9d c7 48 bd b6 29 31 3e e4 48 d5 3c
       -0.015517255 -0.04901849 0.17301068 0.026035734
000230 fc 13 ee 3c 90 51 9e 3d 2d 43 d4 bd 9c e8 9f 3d
       0.029062264 0.077304006 -0.10364375 0.078080386
000240 24 57 29 be ab 4b dd bd af 71 bf bd d3 bd ab bd
       -0.16537148 -0.10805448 -0.09347855 -0.083858155
000250 44 ea 1c 3d af d6 3b 3e 20 17 ca bd f6 bd a0 bc
       0.03830935 0.18343614 -0.09867692 -0.01962183
000260 34 7c 09 be 0e a2 10 3e e9 39 4e 3d 89 26 fc 3d
       -0.13426286 0.14124319 0.050348196 0.123120375
000270 d8 08 01 3d 28 ac 56 3e 59 cd d7 bd fc 8c 0d be
       0.031502575 0.2096411 -0.10537214 -0.13823313
000280 d2 17 13 3d 82 eb 98 bd ce 43 db 3d e2 c7 63 3e
       0.03591139 -0.074667946 0.10706292 0.22244218
000290 2e ed 1a be 52 2e 01 3d a5 97 cc bd de 71 1b bc
       -0.1512954 0.031538315 -0.099898614 -0.009487597
0002a0 be 25 6c 3d fa 95 88 3b fd 6b 2e bd d8 de da bd
       0.05765318 0.004168269 -0.042583454 -0.10687035
0002b0 b9 0e 03 be 92 47 f8 bc be ef 01 be e1 61 09 bd
       -0.12798585 -0.030307565 -0.1268911 -0.03354061
0002c0 b7 71 20 bc 8d 0d 09 be cf 3a 49 bd 7d 03 2d 3e
       -0.009792737 -0.13384075 -0.04912835 0.16895862
0002d0 fd 7d 71 3e 0f 4e 81 3e ea 2e 59 3e da 89 9d 3d
       0.23583217 0.25254866 0.21209303 0.07692309
0002e0 d6 90 90 bd 2a 1b 08 be 25 c6 20 be b9 32 5d bc
       -0.07058875 -0.13291612 -0.15700586 -0.013500863
0002f0 54 9f 1d be e4 1e 8a bd b2 a5 82 3d 90 e7 16 bd
       -0.1539281 -0.06744173 0.0637926 -0.03684193
000300 8b 85 a9 bd 50 98 1e 3e 7d ec ab bd fe 9b d8 3d
       -0.082774244 0.1548779 -0.08394716 0.10576628
000310 ac f2 0a be a1 4a 23 be 60 8a ef 3d 9f d1 3e 3d
       -0.13569134 -0.15946437 0.11696315 0.04658663
000320 3a 85 b5 3d 02 0f 40 3e fd 99 5f 3c 7b 3f 6e be
       0.088633016 0.18755725 0.0136475535 -0.23266403
000330 c5 2c 88 3d f6 1b c5 bd 5f 65 e2 3d b4 f4 7e 3e
       0.06649164 -0.09624474 0.11054491 0.24898034
000340 68 27 9e bd c4 5f bf 3d dc ce 7c 3d 1b 68 c8 3d
       -0.0772236 0.09344438 0.061720714 0.097854815
000350 fb c9 27 3e 10 c7 8f bd eb ef 7d 3d ce bc 93 3c
       0.16385643 -0.0702039 0.06199638 0.018034365
000360 42 fe 2c 3e de 41 2d be 28 aa 8b bc 9c c2 c0 bc
       0.16893867 -0.16919658 -0.01704891 -0.023530297
000370 b8 7c 07 3d c6 06 32 3e 72 f0 01 bc ff 8f c6 3d
       0.033077925 0.17385396 -0.007930862 0.09695434
000380 b4 98 b2 3d 94 64 54 3e 35 62 89 bd 75 af 06 bd
       0.08720532 0.20741493 -0.06708185 -0.032882173
000390 8a f8 02 be a8 a6 04 be bb e0 bc 3c ce bf 02 3e
       -0.12790123 -0.129542 0.023056379 0.1276848
0003a0 1c 94 98 3d f6 32 78 be 67 9d 85 be 40 21 96 bd
       0.074501246 -0.2423819 -0.2609665 -0.07330561
0003b0 41 ae 93 bc 38 3d 83 be 9f 83 2e 3e 91 0c 22 be
       -0.018027427 -0.25632644 0.17042397 -0.15825106
0003c0 34 a1 fe bd 76 be d9 3d 5a ca 1c be 97 58 2b 3d
       -0.12433091 0.10632031 -0.15311566 0.041832533
0003d0 0f 65 28 3d e0 13 b5 bd ae 55 3c be f6 69 da bd
       0.041112002 -0.088416815 -0.18392059 -0.10664742
0003e0 7f 14 cb 3d c1 dd 74 3d 55 13 ae bc 0d ec 07 3d
       0.09916019 0.059781794 -0.021249453 0.0331841
0003f0 da dc 6a 3e 7c ce 73 be 33 01 61 bd 4a 07 96 3d
       0.2293581 -0.23809236 -0.054932784 0.07325609

lstm.weight_hh_l1 f4 [128, 32]
000000 c5 76 b3 bc ee e1 88 bd 1c ea 04 3e eb ba b2 bd
       -0.02190722 -0.06683718 0.1297993 -0.08727058
000010 27 cb 67 3d 32 ff da bd 6c 56 62 be d6 ad 88 3d
       0.056590226 -0.10693206 -0.2210328 0.066737816
000020 54 5e 41 3e 26 f4 90 bd 04 54 55 3e 51 1b 9d be
       0.1888364 -0.070778176 0.2083283 -0.30684903
000030 e4 1b ff bd 3c 34 06 3e 17 fe 61 bd 9e b8 c7 bd
       -0.124564916 0.13105863 -0.05517396 -0.0975201
000040 87 00 f6 bd fd 47 67 3d 4a 07 60 3e 8f 49 d5 bd
       -0.12011819 0.056465138 0.2187778 -0.10414421
000050 30 d2 62 be a4 f5 fa 3c 37 f0 37 be d9 e2 01 3e
       -0.22150493 0.030634709 -0.17962728 0.12684192
000060 a5 e6 34 3d 4a bf 3d bd 16 e3 da 3b e5 8c 87 be
       0.044165272 -0.046325006 0.006679903 -0.26474681
000070 fd f6 54 be 22 0d 16 3f 7f 82 3b be b3 8a 08 bd
       -0.20797344 0.5861379 -0.18311499 -0.0333354
000080 62 30 b7 bd 9c 98 83 bc 9a 26 ab 3d 39 58 79 bd
       -0.08944775 -0.01606398 0.08356972 -0.06087515
000090 a6 86 9e bc 4a 07 a3 3d 30 2b c1 3c e2 9f 8c 3d
       -0.019351315 0.07960375 0.023580164 0.06866433
0000a0 be be 7b bd 4d 11 66 3e b2 e0 8b 3c a4 55 a6 3d
       -0.061461203 0.22467537 0.017074917 0.081218034
0000b0 a0 ca 18 bb aa 22 94 bd 21 6b 5a 3e ee 3e 24 be
       -0.0023314133 -0.07233174 0.21329929 -0.16039631
0000c0 0a da c3 bd bf 30 50 3c ee 6c 5c 3e c3 0d 1e 3d
       -0.09563072 0.0127069345 0.21525928 0.038587343
0000d0 e0 99 b1 3d 2f bb 13 bd a6 92 ca 3d 7c 87 cf bd
       0.086719275 -0.036067184 0.09891252 -0.101332635
0000e0 6d 0a ec bd f0 03 69 3d 79 9e e3 3d a2 d2 46 3e
       -0.11525426 0.05688852 0.11114211 0.19416288
0000f0 07 80 8c 3d f5 23 19 3d 30 f6 7c 3d f5 6c 4f bd
       0.06860357 0.037387807 0.06175822 -0.05064102
000100 8a 62 5c bd 35 d0 69 be 25 2f 4a 3d 25 08 87 3d
       -0.05380491 -0.22833331 0.049361367 0.0659335
000110 71 34 4a 3c a8 87 37 3d cc a2 52 be 43 61 7c bc
       0.012341605 0.044807106 -0.20569915 -0.015404048
000120 27 f2 2a bc e4 37 a2 bd 54 fb 5a 3e a0 24 85 3e
       -0.01043371 -0.079208165 0.21384937 0.26004505
000130 38 f5 6d bd d5 22 91 3c c1 c5 3d 3e 90 2b ae 3c
       -0.058095187 0.017716805 0.18532468 0.021261007
000140 c1 07 02 3e d9 e8 87 3c 67 c1 8b 3d fc 1e b7 39
       0.1269827 0.016590523 0.06823998 0.00034927565
000150 01 f0 38 be eb a9 8e 3d 16 c0 97 bd 68 d8 ed bc
       -0.18060304 0.06966003 -0.07409684 -0.029033855
000160 5d a8 c9 3d 3d 84 a4 3c ff a6 22 3e 40 3b 85 3e
       0.09846566 0.020082587 0.15884016 0.26021767
000170 f7 d6 01 be c0 d9 0f 3d c1 7b fe 3d 53 cf 98 3d
       -0.12679659 0.035119772 0.12425948 0.07461419
000180 a8 6c 84 3c 0b d6 57 be 59 ee 4d bd b3 6e 2b bd
       0.016165093 -0.21077745 -0.050276134 -0.041853618
000190 3c 62 73 3c 62 cd 00 bd 0f 4c 02 3e cb 68 25 bd
       0.014854964 -0.03144587 0.12724327 -0.04038314
0001a0 8a ad e7 3d 57 0a 4d 3c 37 e3 e9 bd ff 2e a1 be
       0.11312397 0.012514672 -0.11420291 -0.31481168
0001b0 42 11 35 3e a9 ea f9 bd 89 9b 6d bc c6 71 e3 bd
       0.17682365 -0.12202961 -0.0145024145 -0.11105685
0001c0 94 f6 69 3d 2f 0a 25 3e 88 33 5c 3e ec 0e d4 be
       0.05711992 0.16117166 0.21504033 -0.41417634
0001d0 7e 97 07 3e d4 f8 11 3e 3e e7 0d be 51 eb 9d bd
       0.13241383 0.14255077 -0.13857743 -0.07710899
0001e0 5b 91 46 3d 0f fb b9 bd 2f a0 05 3e 4a 1f 37 be
       0.048478466 -0.09081089 0.13049386 -0.1788303
0001f0 9d ef 4b be 20 e3 33 3e e7 1c f8 3c 01 e3 80 ba
       -0.19915624 0.1756711 0.03028722 -0.0009833277
000200 78 12 77 3d ea 50 fc bd c6 b0 30 3e 85 e9 02 3e
       0.060320348 -0.12320121 0.17254934 0.12784393
000210 b4 78 b4 3d fa 04 87 3d 0a 48 bb 3d dc 1a 79 bd
       0.08812085 0.06592746 0.091446 -0.06081663
000220 2d ff 02 3e f1 65 2b be 50 96 a5 bd 87 1b 85 3d
       0.12792654 -0.16738106 -0.080853105 0.06499391
000230 1f 2d 00 bd a2 ae 56 3d fe f0 2e be d7 f0 c7 3c
       -0.03129303 0.052412637 -0.17084119 0.024406834
000240 a0 3d 1d 3e 15 1d af 3d b3 61 48 3e 53 64 05 be
       0.1535554 0.08550469 0.1956852 -0.13026552
000250 a2 4c ef bd df 1f 13 3d 75 b2 8c 3d be 31 55 be
       -0.116845384 0.035919067 0.068699755 -0.20819756
000260 bb f7 d8 bd 0a d8 19 be ad 32 0f be 8e f5 a7 ba
       -0.10594126 -0.15023819 -0.13984175 -0.001281427
000270 f7 a7 2f 3e 3e c3 ae 3d 64 ee 02 3d cd b1 0d be
       0.17153917 0.08533333 0.03196563 -0.13837357
000280 37 98 3c bc dc 1f ed bc 9f 92 c9 3d f8 05 64 bd
       -0.0115109 -0.028945856 0.09842419 -0.055669755
000290 d5 26 a4 3d 31 9a 3e bd 7f 90 63 3d 56 e0 7a 3d
       0.08015219 -0.046533767 0.055557724 0.0612491
0002a0 7d 31 2b 3e 46 66 ed 3d 09 50 30 bd 81 b1 27 be
       0.16718097 0.11591773 -0.043045077 -0.16376306
0002b0 8f a5 f0 3c 1c f1 d3 bc 6e 6f 1c 3e b0 f6 5e 3c
       0.02937582 -0.025871806 0.15276882 0.01360862
0002c0 da 4e 13 3e 45 db 61 3d 4b ba 4a bd 95 57 89 be
       0.14385548 0.055140752 -0.04949407 -0.26824632
0002d0 24 8f 21 bc 38 dd 19 bd f7 4e 87 bd 70 7c e6 bd
       -0.009860788 -0.037564486 -0.06606858 -0.11254203
0002e0 7e 49 30 be 6f ec 00 bd d4 b6 d0 bd ad 94 c0 bc
       -0.17215535 -0.03147548 -0.10191122 -0.023508394
0002f0 f6 a3 05 be 89 f4 32 3e b8 2e 42 bd 36 9e 46 3e
       -0.13050827 0.17476095 -0.047407836 0.1939629
000300 9a 4e 61 3d 2b 01 e3 3d 6c 86 bd bd 47 7c fb bd
       0.0550066 0.11084207 -0.092541546 -0.122795634
000310 a7 47 cd bc 82 06 5b 3d 05 4b 13 3e 17 52 58 bd
       -0.02505858 0.053473003 0.14384086 -0.052812662
000320 0a c0 b3 bc 03 f6 09 3e 33 78 16 be 39 48 35 be
       -0.021942157 0.13472752 -0.1469429 -0.17703332
000330 22 52 b2 bc 16 ee 11 3e e9 34 bd bd 7c a8 bd 3d
       -0.02176768 0.14250979 -0.092386074 0.092606515
000340 89 00 2a 3e e5 a1 fe bd 01 e4 93 bc 01 b7 05 bd
       0.16601767 -0.12433223 -0.018053057 -0.03264523
000350 84 9e 00 3e 61 ce 24 3e 2a 8b 10 be ce f0 b9 bd
       0.12560469 0.16094352 -0.14115587 -0.09079133
000360 99 7b 83 bd a4 9b 67 bc 14 6b 9c 3d 76 77 9b bc
       -0.06420059 -0.014136229 0.07637611 -0.018977862
000370 0b fa 8a 3d 82 95 6d 3e 37 06 2c bd 52 24 fe bd
       0.06785973 0.23201564 -0.041998114 -0.12409271
000380 ea e2 12 3e ee 79 8c 3d 4a cc 09 be 85 7d 10 be
       0.14344373 0.06859194 -0.13456836 -0.14110382
000390 4b 9b ff 3d 49 db 05 3e df e4 e4 bc 6e 76 0a 3e
       0.12480792 0.13071932 -0.027941165 0.1352174
0003a0 f0 0c 80 bd 4f 2b 8f bd 3a cb 5b 3e 00 0e 97 3b
       -0.06252468 -0.06990682 0.21464244 0.004609823
0003b0 3d 52 b4 bd ad 8d b7 3d a5 8d bc 3d 53 ea d8 3d
       -0.08804748 0.089625694 0.09206704 0.10591569
0003c0 2c b1 6d 3d f6 5f 8f bc 93 50 4e 3e 06 2d 48 3d
       0.058030292 -0.017501812 0.20147924 0.048871063
0003d0 44 6b 96 3d d9 1d b6 3d 53 ca 9f bb 99 12 24 bc
       0.07344678 0.08892412 -0.004876414 -0.0100142
0003e0 46 5a ce 3d d8 c1 56 3e 17 00 34 3e 44 5b b9 bd
       0.10075812 0.20972383 0.1757816 -0.09050611
0003f0 4a 32 2b 3e 3a 64 6e bd 9e e7 34 be 78 47 82 be
       0.16718403 -0.058201052 -0.1766648 -0.2544515

lstm.bias_ih_l1 f4 [128]
000000 42 54 1f 3c be 3f 70 be f5 24 7c bd 45 52 e3 bd
       0.0097246785 -0.23461816 -0.061558682 -0.11099676
000010 39 c5 98 bd 9e 21 91 3d c5 8c 04 3e f9 33 ef bd
       -0.07459492 0.0708649 0.12944324 -0.11679835
000020 b7 26 36 be 94 9e 82 bc 0b 1a 67 bd 5a 04 25 be
       -0.17788206 -0.015944757 -0.05642132 -0.16114941
000030 58 08 08 3e bf 7a b1 bc a5 18 a5 bd 71 e6 c4 bd
       0.13284433 -0.021664975 -0.08061341 -0.09614266
000040 a8 6c 77 38 9e ff 28 be e7 ab 24 be 1a f5 48 be
       5.8990583e-05 -0.1650376 -0.160812 -0.19624749
000050 f2 76 ac bd dc d2 2e 3e 49 c2 15 3e 12 59 05 3d
       -0.084211245 0.17072624 0.14624895 0.032555647
000060 00 5f 52 3e 72 53 22 3d f0 26 32 3e b3 9d 1d be
       0.20544052 0.03963036 0.17397666 -0.15392189
000070 b2 17 62 bd 26 ac 2c bc fb 2a fa bd 81 02 02 be
       -0.05519838 -0.01053909 -0.12215229 -0.12696268
000080 33 e7 b2 3d d7 06 2e 3d 42 70 33 3d 01 dd 30 3e
       0.08735504 0.04248699 0.04380823 0.17271806
000090 d9 6c 8e 3c a7 f0 b5 3d 7c e0 30 3e 24 26 af 3d
       0.017385887 0.088837914 0.17273134 0.085521966
0000a0 ad f0 40 3c da d4 8e 3b 89 54 b2 3d dd 67 01 be
       0.011776132 0.00435887 0.0870753 -0.12637277
0000b0 39 60 02 3e ef 37 b9 3d df f1 41 3e c2 37 82 bd
       0.12732019 0.090438716 0.18939923 -0.06358291
0000c0 81 6d fb bc b4 a7 f8 bc 2d 38 22 be b3 c1 94 bd
       -0.030691864 -0.030353405 -0.15841742 -0.07263508
0000d0 e9 79 19 3e bb 2c 28 be b8 ae 22 3e af 9f b8 3d
       0.14987911 -0.16423313 0.15886962 0.09014832
0000e0 87 35 4c 3e 80 51 14 be f3 34 06 be 58 dd 7b be
       0.19942294 -0.14484215 -0.13106136 -0.24596155
0000f0 c5 40 52 bd f2 28 23 be ca 07 1f 3d 5a 86 1d be
       -0.0513313 -0.15933588 0.038825788 -0.15383282
000100 92 d1 20 3d f9 85 00 bc 63 31 15 3d 38 19 7a 3d
       0.03926236 -0.007844442 0.036424052 0.061059207
000110 0e a9 3f be b9 77 87 bc 31 0d e1 bc 75 d5 35 be
       -0.18716833 -0.01653658 -0.02747211 -0.17757209
000120 91 fe c9 ba a1 65 c2 bd d2 ba e8 bd 6d 32 3c be
       -0.001541095 -0.094920404 -0.11363758 -0.18378611
000130 cd 4b 2e be f7 fb 56 3d c6 0c 36 be 9e a2 a8 3d
       -0.17021103 0.052486386 -0.1777831 0.08234142
000140 06 e9 3b be 4d cb 39 bd d0 46 0b 3e b4 7e d0 3d
       -0.1835061 -0.0453599 0.13601232 0.10180417
000150 8d a1 0f 3d 04 8c 94 bc df c5 75 3d 9b 79 35 3e
       0.035066176 -0.01813317 0.060003158 0.1772217
000160 50 83 3a 3e b5 91 18 be 48 f5 59 bd d7 74 01 be
       0.18214154 -0.14899333 -0.053212434 -0.12642227
000170 36 89 c8 3c b7 26 27 3d c3 c9 50 bd e7 a8 ac 3d
       0.02447949 0.040808406 -0.050973665 0.08430653
000180 4e 8b c9 bc 27 87 d6 3d 0d 0d 44 be e0 a8 65 bd
       -0.024602558 0.10474997 -0.19145603 -0.056069255
000190 f0 ff 68 bd 00 2b ca 3d d2 35 68 bd 19 15 eb 3c
       -0.056884706 0.09871483 -0.056691952 0.028696584
0001a0 4b 2f 29 be e0 2c 51 3c 71 3b c0 bd cc 9f 56 be
       -0.16521947 0.012767047 -0.093863375 -0.20959395
0001b0 04 bc 9a bd b2 57 08 3e 5e cc 45 bd a4 17 7a bd
       -0.075553924 0.13314703 -0.048290603 -0.0610577
0001c0 96 11 65 3d 8a 35 31 be a9 dc 61 3d aa c3 81 3d
       0.055924974 -0.1730558 0.05514208 0.06336148
0001d0 64 22 fe bc 9d 75 0c bd d5 f8 88 3d 15 60 0f 3b
       -0.031022258 -0.034291852 0.06688086 0.0021877338
0001e0 59 36 ee bc c8 2a fa bd 53 5c 12 3e 60 ce 06 be
       -0.02907865 -0.12215191 0.14293031 -0.13164663
0001f0 35 fc b3 3d 35 d0 85 3d 64 10 7e bd 60 7d bb 3d
       0.08788339 0.06533853 -0.06202735 0.09154773

lstm.bias_hh_l1 f4 [128]
000000 5e 77 e2 3d fe b7 23 be d5 d8 71 bd bf ed 7a 3d
       0.11057924 -0.15988156 -0.059044678 0.06126189
000010 94 44 54 3c b1 84 2a 3e 94 7b c9 3d 26 14 a3 bc
       0.012955803 0.1665218 0.09838024 -0.019907068
000020 da bf b9 3d b5 4f f4 bd c1 a5 2d 3e df 08 3b bd
       0.09069796 -0.119292654 0.16957761 -0.045662757
000030 39 46 d1 bd c1 b8 53 3e fb a8 9b 3c 58 a1 9b 3d
       -0.10218472 0.20675947 0.019001475 0.07599133
000040 e0 0a 42 3e 80 4d 52 bc a1 06 11 be fc 40 9c 3d
       0.18949461 -0.01283586 -0.14162685 0.07629582
000050 74 28 f2 3d ea 30 0d be 47 35 ae bd 8a 15 50 3d
       0.11824122 -0.1378819 -0.085062556 0.05080179
000060 fc 43 85 bd 75 58 cc bd 0c 2a 6e 3d 11 a8 28 be
       -0.065071076 -0.09977809 0.058145568 -0.16470362
000070 ae ac 6b bd 86 4d 76 bd 0d 71 5d bd fe fb 05 bd
       -0.057537727 -0.060132526 -0.05406289 -0.03271102
000080 fb 38 21 be 61 91 82 bd bc b6 62 bd 86 bb 41 3c
       -0.15744393 -0.06375385 -0.05535005 0.011824494
000090 43 be 08 be a4 fb 2f bd 9e 0a ae bc 5d 75 f5 bd
       -0.13353829 -0.042964593 -0.021245297 -0.11985276
0000a0 9a b1 94 3d cb b2 3d 3d 1d 25 d0 bd ed f5 e6 3c
       0.07260437 0.04631309 -0.10163329 0.028193438
0000b0 21 fd 80 bc c9 78 35 bc 39 83 53 3d 61 40 23 3d
       -0.015745701 -0.011076161 0.051638816 0.03985632
0000c0 65 1b d1 3c ec b0 ad bd 5e 10 0d bc 04 6d 45 be
       0.025525758 -0.08481011 -0.008609859 -0.19279867
0000d0 e2 3f 21 bb da d6 f8 bd 36 3e 1d 3d 3d 74 26 bd
       -0.0024604728 -0.12150355 0.038389407 -0.040638197
0000e0 01 24 aa bd 98 2e e7 bd ed 09 dd bc 39 b3 82 bd
       -0.083076485 -0.11288184 -0.026982272 -0.0638184
0000f0 8b cf eb bd 63 ec d3 bd ff 6d 51 3d 59 c5 79 bd
       -0.11514195 -0.103478216 0.05113029 -0.06097922
000100 84 9f 22 bd fc 01 0b bd b8 1d 51 bd e3 d5 4f bd
       -0.039702907 -0.03393744 -0.051053733 -0.050741088
000110 45 fa 4a bc c1 10 ff bd 3c a0 d8 3c b7 9d af 3d
       -0.0123887705 -0.124543674 0.026443593 0.085750036
000120 3f 84 82 bd 07 e6 c1 bd dc 42 df 3c 7b 72 24 3d
       -0.0637288 -0.09467702 0.02725356 0.04014824
000130 89 2d e5 bc bd 10 3a be 8d f0 86 bd 7b d5 71 bc
       -0.027975814 -0.18170448 -0.0658885 -0.01476037
000140 12 29 29 3e de 6c 97 bd 3a 36 11 be c4 e9 9d bd
       0.16519573 -0.07393812 -0.14180842 -0.07710603
000150 d1 3f 92 3d ba 2b d7 bc de 79 ee 3d 21 14 e6 bd
       0.07141078 -0.026265968 0.11644338 -0.11234308
000160 a0 7b d7 bc 77 ca 74 3d 6e 8c 09 be 50 b4 d9 3c
       -0.026304066 0.059763398 -0.13432476 0.026575238
000170 fb 08 ab 3d e0 bc a5 3d aa ea 9b bd 5d 74 d4 bd
       0.08351322 0.08092666 -0.07613118 -0.10373757
000180 18 23 0a 3e 83 c8 84 bd 01 28 68 3d 82 29 5c 3d
       0.1348995 -0.06483557 0.056678776 0.053750522
000190 2d 6c 3e 3e 98 93 89 3d 0e 52 1d be 97 b1 2e be
       0.18595953 0.067176044 -0.15363333 -0.17059933
0001a0 af 32 e1 3c 22 ac a0 bb e6 23 9f bc 94 3a 84 3d
       0.027489988 -0.0049033323 -0.019426297 0.064564854
0001b0 7e ff d4 3d 35 fc ef 3b af c8 2e 3e 73 b9 01 3e
       0.10400294 0.0073237666 0.17068742 0.126684
0001c0 af 3f 2d bd 09 6c 10 3e 33 6c de bd f7 a1 6a 3d
       -0.04229706 0.14103712 -0.10860481 0.057283368
0001d0 2d 79 78 3c c4 ad 01 3e fd cf 8c 3d 34 4c fa bd
       0.015165609 0.12663943 0.06875608 -0.12221566
0001e0 42 f2 0f bd 80 35 1f be 26 97 0f 3e 65 7f 07 be
       -0.035143144 -0.15547752 0.14022502 -0.13232191
0001f0 7a bc 1a 3d b9 0f 53 be bb 68 f8 bd 15 b3 16 be
       0.0377774 -0.20611466 -0.12129351 -0.14716752

fc.weight f4 [1, 32]
000000 d0 fc c2 3d b7 b5 3c 3d 47 b5 11 bd 2f d9 28 3e
       0.095208764 0.046071734 -0.03557327 0.16489099
000010 1c b8 05 3e 3f b5 c9 3d ca 92 38 be 94 ad b5 3b
       0.13058513 0.09849023 -0.18024746 0.0055443738
000020 3d c9 19 3e 5a 93 58 3e d8 37 34 3e 42 7a 96 bd
       0.15018173 0.2114996 0.17599428 -0.073475376
000030 69 9b b3 3d 21 aa 17 3e 63 10 ee 3d f2 c9 24 be
       0.087698765 0.14810993 0.11624219 -0.16092661
000040 9f 5b 33 bd 3e 98 a5 3d e6 38 9c 3d 2a 84 05 be
       -0.04378855 0.080856785 0.0762804 -0.13038698
000050 64 b5 f5 bd 18 7d 09 3e c0 07 b1 bd 0d cc 0c be
       -0.11997488 0.13426626 -0.08644056 -0.13749714
000060 b7 e3 57 be 24 fe bd 3d 80 82 0c 3e 9a b1 c0 3c
       -0.2108296 0.09276989 0.13721657 0.023522187
000070 f9 db 98 bc b0 7d 40 3d 66 49 e8 bc b0 22 c3 bd
       -0.018659579 0.046994865 -0.028355312 -0.095281005
