backend/stocks/price/pt_models/AAON.pt (torch, 54435 bytes, 9 tensors)

lstm.weight_ih_l0 f4 [128, 1]
0	0xbd009199	-0.031388853
1	0x3beff681	0.0073230867
2	0xbdb35309	-0.08756072
3	0xbe0114a5	-0.12605532
4	0xbdde7645	-0.10862402
5	0x3ea05bb2	0.31319958
6	0xbd6ccb1a	-0.05781088
7	0xbd6a8f4f	-0.057265576
8	0xbe37cb33	-0.17948608
9	0x3db54eda	0.0885293
10	0x3e1940f2	0.14966181
11	0x3e1f53b5	0.15559275
12	0xbd8f5699	-0.06998939
13	0x3ed5f38d	0.41787377
14	0xbdea07a4	-0.114272386
15	0x3e9e668f	0.3093762
16	0x3d29d78f	0.04146534
17	0x3d9a8e24	0.075466424
18	0xbe0c0c2d	-0.1367652
19	0x3e700f57	0.23443352
20	0xbe5bf2b0	-0.21479297
21	0xbd8b31ea	-0.0679663
22	0xbd2d46a1	-0.042303685
23	0x3e24b6a9	0.16085304
24	0xbd8e3ecb	-0.069455706
25	0x3e8c0920	0.27350712
26	0xbe2dabb2	-0.16960028
27	0x3d113a6a	0.0354561
28	0x3d127e0f	0.03576475
29	0xbcc2fbdf	-0.023801742
30	0xbe1ce401	-0.15321352
31	0xbe29da12	-0.16587093
32	0xbd9cf470	-0.0766381
33	0xbb9eca83	-0.0048459186
34	0xbe4a30c8	-0.19745171
35	0xbeb77135	-0.35828558
36	0xbe1c1d50	-0.15245557
37	0x3e74ae67	0.23894654
38	0x3e34a74d	0.17641945
39	0x3e3e675c	0.18594116
40	0xbea6792a	-0.32514316
41	0x3d0df026	0.03465285
42	0x3dc70f19	0.097196765
43	0x3e057e0b	0.13036363
44	0x3df567c9	0.11982686
45	0x3cc6ed0d	0.024282956
46	0x3e0273ee	0.12739536
47	0x3e341462	0.175859
48	0x3cbd763b	0.023127666
49	0x3dc2089b	0.094742976
50	0x3dd29f39	0.102842756
51	0x3e6b7037	0.22992025
52	0x3dd6ba03	0.10484698
53	0xbdca9015	-0.09890763
54	0xbd9b7a91	-0.07591737
55	0x3d1d07c3	0.03833748
56	0x3dcd61f7	0.10028451
57	0xbd14bc49	-0.036312375
58	0xbd2ccad4	-0.04218562
59	0x3d8fc553	0.070200585
60	0x3d7a4f45	0.061110754
61	0xbdfe4fc3	-0.12417557
62	0x3e0c9287	0.13727771
63	0xbe81cf6c	-0.25353563
64	0xbe226b6c	-0.1586129
65	0xbda97167	-0.08273583
66	0xbe35aa3d	-0.17740722
67	0xbea81e05	-0.32835403
68	0x3dddd2aa	0.108311966
69	0x3e09a512	0.13441876
70	0xbdd109d6	-0.10206954
71	0xbe4b1cd6	-0.19835219
72	0xbe92673b	-0.28594384
73	0x3e0928a1	0.13394405
74	0x3dcaf587	0.09910112
75	0xbe19eef2	-0.15032557
76	0xbe0d9684	-0.13826948
77	0x3e14bc24	0.14524895
78	0xbe8cfcdf	-0.27536675
79	0xbe3836f7	-0.17989717
80	0xbd7a8b64	-0.06116809
81	0xbd0310f9	-0.03199861
82	0xbe4fe317	-0.20301472
83	0x3d2f2785	0.042762298
84	0xbe551647	-0.2080928
85	0x3cc229c1	0.02370155
86	0x3e4fc955	0.20291646
87	0x3d3958a3	0.045250546
88	0xbd26730f	-0.040637072
89	0xbda94cfc	-0.08266637
90	0xbd8d064a	-0.06885965
91	0xbb162263	-0.002290868
92	0xbe819456	-0.25308484
93	0xbd778580	-0.06043005
94	0x3e86c10c	0.26319158
95	0xbe258aa4	-0.16166168
96	0xbd5cb24c	-0.053880975
97	0x3c1dfaba	0.009642297
98	0x3c0dc9ce	0.008654071
99	0xbec0099e	-0.37507337
100	0xbd0d2148	-0.034455568
101	0x3dbe39d9	0.09288377
102	0x3ce7a9fd	0.028279299
103	0x3d846aaa	0.06465657
104	0xbe483c0b	-0.19554155
105	0xbd9caf4c	-0.07650623
106	0x3e1ca50c	0.15297335
107	0x3da5db14	0.080984265
108	0x3e173797	0.147673
109	0x3eb57517	0.35440895
110	0x3e51d014	0.20489532
111	0x3db658d8	0.08903664
112	0xbc4fceea	-0.0126836095
113	0xbdafaa59	-0.08577413
114	0x3dbe7be5	0.09300975
115	0x3e7888eb	0.2427098
116	0xbe3b5a61	-0.18296196
117	0x3dfa04b0	0.12207925
118	0xbe570b95	-0.21000512
119	0xbd2854e8	-0.041096598
120	0xbe06dede	-0.13170955
121	0xbd46c047	-0.048523214
122	0xbe376fac	-0.17913693
123	0x3dbb375a	0.09141417
124	0xbd979f23	-0.074034
125	0x3e018226	0.12647304
126	0x3e1dfaea	0.15427747
127	0xbc0b6b18	-0.00850942

lstm.weight_hh_l0 f4 [128, 32]
0	0xbe820747	-0.25396177
1	0x3dcf4bf7	0.10121911
2	0x3de1c95f	0.110247366
3	0x3d295109	0.041337047
4	0xbe068e68	-0.13140261
5	0xbcdcffc9	-0.026977437
6	0x3e7d57e1	0.24740554
7	0xbe448c7c	-0.19194216
8	0xbda00dd7	-0.0781514
9	0xbd94d8ef	-0.07267939
10	0x3dc0d7b1	0.0941614
11	0xbcca267b	-0.024676552
12	0xbe7bf685	-0.24605758
13	0x3e19e3fe	0.15028378
14	0xbe79cddc	-0.24394935
15	0xbc51af0d	-0.012798083
16	0x3e85fb2b	0.26168188
17	0x3dfbb0a0	0.12289548
18	0x3cf22514	0.029558696
19	0x3d9a12e4	0.07523134
20	0x3b3daa98	0.0028940793
21	0x3d672d11	0.056439463
22	0x3e3126fa	0.17300025
23	0x3e2acb29	0.16679062
24	0xbd01e7cd	-0.031715203
25	0xbdc2a624	-0.09504345
26	0x3d44ba5e	0.048029296
27	0x3e56c4b8	0.2097348
28	0x3d56c4df	0.052433845
29	0x3e2c7d0b	0.16844575
30	0x3da2528e	0.07925902
31	0x3d96ab67	0.07356911
32	0xbe1b665f	-0.1517577
33	0x3d5e886e	0.05432933
34	0x3d12d590	0.0358482
35	0x3ddbb96b	0.10728725
36	0x3dc7267c	0.09724137
37	0x3db9ccef	0.09072291
38	0x3daec325	0.085333146
39	0x3dff21e8	0.12457639
40	0x3dadeb32	0.084921256
41	0x3d91b9bb	0.071155034
42	0x3d4ddb16	0.050257765
43	0x3e510ba7	0.20414601
44	0xbe15b703	-0.14620595
45	0x3d71338a	0.058887042
46	0xbdc0b8cf	-0.094102494
47	0xbddaad98	-0.10677642
48	0x3dbf2e84	0.09335044
49	0x3d972c74	0.07381526
50	0x3dee277f	0.11628627
51	0x3dc661cb	0.09686621
52	0x3e06af78	0.13152874
53	0x3d6c9df6	0.05776783
54	0x3cb1f52a	0.021723349
55	0xbd6cf77b	-0.057853203
56	0xbe4a796a	-0.19772878
57	0x3d2f5eeb	0.04281513
58	0xbe6631c6	-0.22479925
59	0x3d7e5205	0.06208994
60	0x3daa88ba	0.0832686
61	0xbcce9ede	-0.025222238
62	0x3dad3547	0.084574275
63	0xbe5f1944	-0.21786982
64	0x3dfd5c02	0.12371065
65	0x3cd43491	0.025903972
66	0x3d86dee0	0.06585479
67	0x3de39676	0.111126825
68	0x3ded4854	0.11586061
69	0xbda64e93	-0.081204556
70	0x3d0cd979	0.034387086
71	0xbd003ce6	-0.031308077
72	0x3dd73b00	0.105093
73	0xbdb70496	-0.089364216
74	0xbd1b327f	-0.037889954
75	0x3ddc6cf7	0.10762971
76	0xbde323c8	-0.11090809
77	0xbe27cf7e	-0.16387746
78	0x3d3f29f2	0.04667086
79	0x3e8e30a6	0.2777149
80	0x3d167315	0.036730845
81	0x3e11318d	0.14179058
82	0x3dd223d8	0.10260743
83	0xbe5a185a	-0.21298352
84	0x3af95128	0.0019021379
85	0xbd86d997	-0.06584471
86	0x3dbc4364	0.09192541
87	0xbd661d49	-0.056180272
88	0x3d759192	0.05995328
89	0xbdee56b3	-0.1163763
90	0xbb1bc261	-0.0023766982
91	0x3d689398	0.05678138
92	0x3d8b4bae	0.06801544
93	0xbe1d0d4c	-0.15337104
94	0xbdd6ee4a	-0.10494669
95	0x3c661b0a	0.014044533
96	0xbd360d5f	-0.044446345
97	0xbcb1e9a0	-0.021717846
98	0x3e65bd6a	0.22435537
99	0x3eb2fb18	0.34957194
100	0xbdadb5e2	-0.08481957
101	0xba990f32	-0.0011677502
102	0xbc589521	-0.013219149
103	0x3d828f8e	0.06375037
104	0x3ded6430	0.11591375
105	0xbe475f87	-0.19470035
106	0xbd611386	-0.05495026
107	0xbd18c198	-0.037294
108	0x3e08732a	0.13325182
109	0x3e892315	0.26784578
110	0x3e489251	0.19587065
111	0x3e6a0317	0.22852741
112	0x3deb96e1	0.11503387
113	0xbccba662	-0.024859611
114	0x3e6e6301	0.23279954
115	0xbc9190f4	-0.017769314
116	0xbce3bd6b	-0.027800282
117	0xbdb4c9b3	-0.088275336
118	0x3d3f4a83	0.04670192
119	0xbcfc91a6	-0.03083117
120	0xbd5094d1	-0.050923172
121	0x3df14cb0	0.11782205
122	0x3e0c690d	0.13711949
123	0xbce56446	-0.028001916
124	0x3e49f338	0.19721687
125	0xbe0f6264	-0.14002377
126	0xbd2c5858	-0.04207644
127	0x3ace3712	0.0015732965
128	0x3bcb1a19	0.0061981794
129	0xbddde557	-0.10834759
130	0x3df8edb4	0.12154713
131	0xbe09e404	-0.13465887
132	0xbddc5d38	-0.107599676
133	0xbc5d2092	-0.013496535
134	0xbdf48d0a	-0.119409636
135	0xbe41e6aa	-0.18935648
136	0xbda54afb	-0.08070942
137	0x3d9dc461	0.07703472
138	0x3de935c0	0.11387205
139	0x3e453752	0.19259384
140	0x3d897adc	0.06712887
141	0xbe4236c5	-0.18966205
142	0x3d9198b2	0.071092024
143	0x3e595c07	0.21226512
144	0xbda0d39d	-0.07852862
145	0xbdae6b50	-0.08516562
146	0xbe1d6e57	-0.15374123
147	0xbdf961f5	-0.12176887
148	0x3c92c523	0.017916268
149	0xbe3c5cbd	-0.18394752
150	0x3d0c8c47	0.034313466
151	0x3e535d6a	0.20641103
152	0x3dd8d94c	0.10588321
153	0x3e320102	0.17383197
154	0x3d1ba6ef	0.038000997
155	0xbdf5d7d7	-0.12004059
156	0xbdede350	-0.11615622
157	0x3e2b7e70	0.16747451
158	0xbe09d436	-0.13459858
159	0xbe5c8706	-0.21535882
160	0xbe2ee8e0	-0.17081022
161	0x3e84d75a	0.2594555
162	0xbe72565d	-0.23665757
163	0xbe686459	-0.2269453
164	0xbe5b2e21	-0.21404316
165	0x3da969f1	0.0827216
166	0x3e3dd048	0.18536484
167	0xbe6e84c1	-0.23292829
168	0xbcd85bec	-0.02641102
169	0x3e4e4fa3	0.20147566
170	0x3d3d3234	0.046190456
171	0x3d7b8efa	0.06141565
172	0xbe86eefe	-0.26354212
173	0x3e7d95fd	0.24764247
174	0xbd2b3bfb	-0.04180525
175	0xbdb26879	-0.08711333
176	0x3dcc0b11	0.09963048
177	0x3c85380d	0.016262079
178	0xbe9227a7	-0.28545877
179	0x3e0aa9e5	0.13541372
180	0xbe16fc7f	-0.14744757
181	0xbe10bc64	-0.14134365
182	0x3de78c8d	0.11306105
183	0x3c7d5d65	0.0154641615
184	0x3cd0d5da	0.025492597
185	0x3d1fc120	0.039002538
186	0xbe789438	-0.24275291
187	0x3d2f6e89	0.042830024
188	0xbe939aaf	-0.28828952
189	0x3e26f79e	0.16305396
190	0xbd2b2a0a	-0.04178814
191	0xbe251009	-0.16119398
192	0xbe229aeb	-0.15879409
193	0xbdc98116	-0.09839074
194	0xbe72260a	-0.23647323
195	0x3e4802f1	0.19532372
196	0xbb24b99a	-0.0025135041
197	0xbe2a8563	-0.16652445
198	0x3dffe671	0.12495125
199	0x3d967b70	0.073477626
200	0xbe2e1150	-0.16998792
201	0xbd0ed56d	-0.034871507
202	0x3e1542e1	0.14576294
203	0xbd12ab73	-0.035808038
204	0xbe1dd066	-0.15411529
205	0xbe1ab40d	-0.15107746
206	0xbdad143b	-0.08451124
207	0x3e2d1735	0.16903384
208	0xbccde641	-0.025134208
209	0x3ded9e8c	0.11602506
210	0xbda50241	-0.080570705
211	0xbe21b6ad	-0.15792342
212	0xbdd3847f	-0.10328006
213	0xbe6f9bc2	-0.2339926
214	0x3dcba0ec	0.09942803
215	0xbc97ad3e	-0.018515225
216	0xbe251e3c	-0.16124815
217	0x3e85de85	0.2614633
218	0x3d9fdf5e	0.07806276
219	0x3dee09d7	0.116229706
220	0xbe6031c2	-0.21893981
221	0xbc220c4e	-0.009890629
222	0xbe2e5461	-0.17024375
223	0x3d62b242	0.05534578
224	0xbe644128	-0.2229048
225	0x3e85c03f	0.26123235
226	0xbe5df717	-0.21676289
227	0x3e57b87c	0.21066469
228	0xbe7d841f	-0.24757431
229	0x3e3171f0	0.1732862
230	0x3e0ee45a	0.13954297
231	0xbc2ba2bb	-0.01047581
232	0xbce22677	-0.027606232
233	0x3dd4c9d5	0.10390059
234	0x3e1696be	0.14705941
235	0xbe26464b	-0.16237752
236	0xbe77b356	-0.24189505
237	0x3cee26c9	0.029071229
238	0xbddab958	-0.10679883
239	0xbd914c12	-0.070945874
240	0x3e8cfb8f	0.27535674
241	0x3ca4ed3c	0.020132653
242	0xbe84a61d	-0.25907984
243	0xbe048bd5	-0.12943967
244	0xbe832cf5	-0.25620237
245	0x3c0c6ede	0.008571355
246	0xbdcde3ea	-0.10053237
247	0x3e4eb9ed	0.20188113
248	0xbe51740c	-0.20454425
249	0x3db1de21	0.08684946
250	0xbe56a4b4	-0.20961267
251	0xbd88622b	-0.06659349
252	0x3c8188f2	0.01581237
253	0xbd26e374	-0.04074426
254	0xbe7069bd	-0.23477836
255	0xbe36bbf0	-0.1784513

lstm.bias_ih_l0 f4 [128]
0	0xbe0e19b3	-0.13876991
1	0x3cf0dee0	0.02940315
2	0x3e1c1cac	0.15245312
3	0x3e8fa80a	0.2805789
4	0xbe032577	-0.1280726
5	0xbe4d23bd	-0.20033164
6	0x3c0b8413	0.008515376
7	0xbda0ef9d	-0.078582026
8	0x3dce9d84	0.100886375
9	0xbdff1267	-0.12454682
10	0x3ca9d428	0.020731047
11	0x3cf3f40d	0.029779458
12	0xbe361913	-0.17783003
13	0x3dc8ca26	0.09804182
14	0x3d63ba52	0.05559761
15	0xbdec4e88	-0.11538416
16	0xbe07bb36	-0.13255009
17	0xbcc1ae8c	-0.0236428
18	0xbc99c27a	-0.018769491
19	0xbe033294	-0.12812263
20	0x3e26b25f	0.1627898
21	0x3e08d9a8	0.1336428
22	0x3dc0272e	0.09382473
23	0xbe5d9692	-0.2163947
24	0xbd6efeda	-0.058348514
25	0xbc9c00ac	-0.01904329
26	0x3dc44c79	0.095848985
27	0xbdb34506	-0.087533996
28	0x3e323239	0.17401971
29	0x3dadb3b3	0.084815405
30	0x3e62fb45	0.22166164
31	0xbb881f21	-0.0041541015
32	0x3cb12fd0	0.021629244
33	0xbe223647	-0.15841018
34	0x3cf9efe0	0.03050989
35	0x3d90fe39	0.07079739
36	0xbe0dbb6f	-0.13841031
37	0xbd6437dd	-0.055717338
38	0x3cd44226	0.025910448
39	0xbe5a42f2	-0.213146
40	0xbd618a2c	-0.05506341
41	0xbe3623da	-0.17787114
42	0x3da1d8af	0.07902657
43	0xbbd98392	-0.006637999
44	0x3d41f01f	0.047348138
45	0xbe24a2f1	-0.16077782
46	0x3e14d58d	0.14534588
47	0x3dbe0dd5	0.09279982
48	0xbcda628a	-0.026658315
49	0x3dd19e1d	0.10235236
50	0xbe3344d1	-0.1750672
51	0xbe702e7a	-0.2345523
52	0xbd404ad0	-0.046946347
53	0xbb0106da	-0.0019687922
54	0x3c61db9c	0.013785269
55	0xbc7f40d4	-0.015579421
56	0xbd79da6a	-0.06099931
57	0xbe62fbd6	-0.2216638
58	0xbc76dde6	-0.015067553
59	0xbdf70d7a	-0.12063117
60	0xbd2a8a2d	-0.04163568
61	0x3dd5ce88	0.10439783
62	0x3de562bc	0.11200473
63	0x3dda3948	0.10655457
64	0xbe1192b8	-0.14216125
65	0xbda2a38e	-0.07941352
66	0x3e1f7981	0.15573694
67	0xbd29aafb	-0.041422825
68	0x3e0aa9b0	0.13541293
69	0xbd06af6e	-0.032882147
70	0xbd857cd2	-0.06517948
71	0xbe050fd4	-0.12994319
72	0x3d0f9c99	0.035061453
73	0x3cbf6bef	0.023366896
74	0xbe06902e	-0.13140938
75	0xbb85de46	-0.004085335
76	0xbc0531d2	-0.008129554
77	0x3d8d461d	0.06898139
78	0x3d377de2	0.044797786
79	0xbda05763	-0.07829168
80	0xbd540cb2	-0.05176992
81	0xbafa11ce	-0.0019078793
82	0x3ce08cce	0.02741089
83	0x3e1b77db	0.1518244
84	0xbe0fb35f	-0.14033268
85	0x3e2d7605	0.16939552
86	0xbd36052b	-0.044438522
87	0xbde7575c	-0.11295959
88	0x3d34746c	0.04405634
89	0xbcee8a3f	-0.029118655
90	0x3db753d9	0.089515395
91	0xbe0fc96d	-0.14041682
92	0x3dda4a40	0.10658693
93	0xbe4aaac6	-0.19791707
94	0x3e170dd4	0.14751369
95	0x3dc2572d	0.09489284
96	0xbd6d8f4c	-0.057997987
97	0xbdfc7c5e	-0.12328409
98	0x3c34bffd	0.011032102
99	0xbd6237e9	-0.0552291
100	0xbdbac2b7	-0.0911917
101	0xbdb64e02	-0.089015976
102	0xbd89fd50	-0.06737769
103	0x3d3f6802	0.04673005
104	0x3e5a85d3	0.21340112
105	0x3d6e215c	0.058137283
106	0xbe111286	-0.14167222
107	0xbe2e7ce0	-0.17039824
108	0x3e158531	0.1460159
109	0x3dba8c5f	0.09108805
110	0x3d9088f6	0.07057373
111	0xbd832fac	-0.06405577
112	0x3d921c57	0.07134312
113	0x3da3901b	0.0798647
114	0x3d142246	0.0361655
115	0xbdf017e2	-0.11723305
116	0x3d3c25a5	0.045934338
117	0xbe3269b3	-0.17423134
118	0x3d6bd8fb	0.057579976
119	0xbd81d038	-0.06338543
120	0xba45d9af	-0.0007547391
121	0xbe37d6ef	-0.17953084
122	0xbe291634	-0.16512376
123	0xbba0cb5b	-0.0049070544
124	0x3e3f0011	0.18652369
125	0xbdcc8106	-0.09985547
126	0x3e175921	0.14780094
127	0x3bbdd3f7	0.0057930904

lstm.bias_hh_l0 f4 [128]
0	0xbc566bef	-0.013087257
1	0x3cec9cc0	0.028883338
2	0xbd60df9b	-0.054900747
3	0x3e2f479e	0.17117164
4	0x3e145bee	0.14488193
5	0xbd6efa7b	-0.058344346
6	0x3ca2e136	0.01988278
7	0xbe021b4e	-0.12705728
8	0xbdaf3a60	-0.08556056
9	0x3da41a95	0.080128826
10	0xbd804db5	-0.062648214
11	0x3d7dd4fe	0.061970703
12	0xbda93183	-0.08261397
13	0x3cfe6376	0.031053286
14	0x3dcfa045	0.10137991
15	0xbcb3e512	-0.021959815
16	0x3d1b2021	0.037872437
17	0xbe2115b2	-0.15730932
18	0x3d9c464c	0.076305956
19	0x3b7d0034	0.0038604857
20	0x3da9ae65	0.08285216
21	0xbd64bd22	-0.055844434
22	0x3e22b4de	0.15889308
23	0x3d9001b5	0.070315756
24	0xbe317cb1	-0.17332722
25	0x3cbe41e3	0.023224777
26	0xbd1d7b94	-0.03844793
27	0xbe1b0b35	-0.15140994
28	0x3ad31f82	0.0016107413
29	0xbc0a1adb	-0.008429254
30	0x3da05e2d	0.078304626
31	0xbc0e95bc	-0.008702692
32	0xbe57b3da	-0.21064702
33	0xbe2f6cd5	-0.1713136
34	0xbe02c8ee	-0.12771961
35	0xbb2e56cd	-0.002660203
36	0xbbd885fd	-0.0066077695
37	0xbe37ef97	-0.1796249
38	0xbce5c3ae	-0.028047409
39	0xbe878e69	-0.26475838
40	0xbca1f5d8	-0.019770548
41	0x3e1f8960	0.15579748
42	0xbe26553f	-0.16243456
43	0x3adcf8b9	0.0016858793
44	0xbe424f23	-0.18975501
45	0x3cae6ad6	0.021291178
46	0x3de6f864	0.112778455
47	0xbe70f61b	-0.23531382
48	0x3d3f6330	0.046725452
49	0xbe201a95	-0.1563514
50	0xbdcea4cf	-0.100900285
51	0xbdefdf38	-0.117124975
52	0x3d546e47	0.05186298
53	0x3b0b63aa	0.0021269121
54	0xbdda30f7	-0.106538706
55	0x3ca4ac49	0.020101683
56	0x3d98dd34	0.07464066
57	0x3c6276a6	0.013822233
58	0xbdc534f6	-0.09629242
59	0xbe26b36f	-0.16279386
60	0x3dbd8c46	0.09255271
61	0xbdfd6754	-0.12373224
62	0x3e6efd94	0.2333892
63	0xbdf4faaa	-0.11961873
64	0x3da08402	0.078376785
65	0xbdc194c4	-0.09452203
66	0x3dca5c43	0.09880879
67	0xbe09d61f	-0.13460587
68	0x3dd04574	0.10169497
69	0x3d0ce745	0.034400243
70	0xbdb9c6c4	-0.09071115
71	0x3dd263c7	0.10272937
72	0x3dbb85a7	0.091563515
73	0xbd161707	-0.036643054
74	0x3de50569	0.111826725
75	0xbe060e89	-0.13091482
76	0x3b8474d6	0.0040422482
77	0x3e13b4a3	0.14424376
78	0xbe38afd6	-0.18035826
79	0xbe1396cd	-0.14412995
80	0xbe1a2cf8	-0.15056217
81	0xbda71193	-0.08157649
82	0x3daa9bd3	0.08330502
83	0x3cdc5aa4	0.02689869
84	0x3d1efb3b	0.03881381
85	0x3c1b82ef	0.009491666
86	0x3c6029ac	0.01368181
87	0x3dd93e00	0.10607529
88	0x3d90e6c7	0.07075267
89	0xbe0c1483	-0.136797
90	0x3e0e11e4	0.13874012
91	0xbdadbe20	-0.08483529
92	0xbe3b17a4	-0.18270737
93	0xbdb456dc	-0.088056296
94	0x3e5c80a7	0.21533452
95	0x3dc0ffa1	0.09423757
96	0xbdd62c53	-0.10457673
97	0xbe3ce046	-0.18444929
98	0x3c7dc2d9	0.01548835
99	0x3e839201	0.2569733
100	0xbd4c79d2	-0.049920864
101	0xbcf1f524	-0.029535837
102	0xbe62b754	-0.22140247
103	0x3d9bbb52	0.07604088
104	0x3da55207	0.08072286
105	0xbe2bbb9b	-0.16770785
106	0x3cc0daab	0.023541769
107	0x3c615eea	0.013755539
108	0xbdc1921a	-0.09451695
109	0x3bca3428	0.0061707683
110	0xbde4941c	-0.11161062
111	0x3da4c76a	0.08045848
112	0xbda4c9a0	-0.080462694
113	0xbaff3116	-0.0019469585
114	0xbdafff2c	-0.08593592
115	0xbe159ad4	-0.14609843
116	0x3dd75de4	0.10515955
117	0xbe318ee0	-0.17339659
118	0x3d5240f9	0.051331494
119	0xbdb3f5d7	-0.087871246
120	0xbe126a29	-0.1429831
121	0xbe303e3f	-0.17211245
122	0x3dfd8d91	0.12380517
123	0xbe2151dc	-0.15753883
124	0x3d676d43	0.056500684
125	0x3e13526c	0.1438691
126	0x3e591b43	0.21201806
127	0x3cfd39d4	0.030911364

lstm.weight_ih_l1 f4 [128, 32]
0	0xbb0fb674	-0.002192882
1	0x3c9d4ce3	0.019201702
2	0x3e576ddc	0.21038002
3	0x3e8701ae	0.2636847
4	0x3da4f353	0.08054223
5	0xbdb87666	-0.09006958
6	0x3d32fdf1	0.04369921
7	0x3d16acde	0.036785953
8	0x3e64a9a1	0.22330333
9	0xbd5dc1df	-0.054139968
10	0x3df7eef4	0.121061236
11	0xbdae55af	-0.085124366
12	0xbdeb294a	-0.11482485
13	0xbe3f3af0	-0.18674827
14	0x3e8a908b	0.27063403
15	0xbd3e04d7	-0.046391334
16	0xbe26ddf7	-0.1629561
17	0x3e011920	0.1260724
18	0x3de7062a	0.112804726
19	0x3d5d257c	0.053990826
20	0xbd115f2e	-0.03549116
21	0xbe1291fc	-0.14313501
22	0xbe213c90	-0.15745759
23	0xbe470fbf	-0.194396
24	0x3d8ab52d	0.06772838
25	0x3d4269be	0.047464125
26	0x3e510cec	0.20415086
27	0xbd65b2ff	-0.056078907
28	0x3dc9a59a	0.09846039
29	0x3d8a8f77	0.06765645
30	0xbdaf4189	-0.08557422
31	0xbd9ee856	-0.07759158
32	0xbd1a35da	-0.037649013
33	0x3dff725c	0.12472984
34	0x3dad44ee	0.08460413
35	0x3e908d17	0.28232643
36	0xbe075071	-0.1321428
37	0xbe39ff38	-0.18163764
38	0xbda3341c	-0.079689234
39	0x3d9a03b6	0.07520239
40	0x3d1636de	0.03667342
41	0x3de0c6da	0.10975428
42	0xbd4a2e69	-0.049360666
43	0x3dd9c7c9	0.10633809
44	0x3c3a972b	0.01138858
45	0x3d9ca553	0.076487206
46	0x3e7dd425	0.24787958
47	0x3ce29cb6	0.027662616
48	0xbddfff0f	-0.109373204
49	0xbdad853f	-0.0847268
50	0xbd353b4d	-0.044246007
51	0xbe42bff9	-0.19018544
52	0xbe11c9bd	-0.14237113
53	0xbd02c740	-0.0319283
54	0xbd94e889	-0.07270915
55	0x3d672f2a	0.056441464
56	0x3cd784bc	0.02630841
57	0x3d5868a2	0.05283416
58	0x3cbd4165	0.023102472
59	0x3c4c7be2	0.012480708
60	0x3d566db1	0.052350704
61	0x3e0cd103	0.13751607
62	0xbddf288f	-0.10896408
63	0x3d611da3	0.054959904
64	0x3d95b550	0.07309973
65	0x3ca71fe6	0.020400953
66	0x3cdfc08b	0.027313491
67	0x3ea92123	0.33033094
68	0xbd4fed90	-0.050763667
69	0x3d8b4ffc	0.06802365
70	0x3cb832b3	0.022485113
71	0x3e041907	0.12900172
72	0x3c93feeb	0.01806589
73	0x3daf188d	0.085496046
74	0xbe220328	-0.15821517
75	0x3dd7d61a	0.105388835
76	0x3e2ab1fa	0.16669455
77	0xbdac7a15	-0.08421723
78	0x3ea9376f	0.33050105
79	0x3e833318	0.2562492
80	0x3d4106f5	0.047125775
81	0xbdf119ed	-0.11772523
82	0x3d90dc2c	0.070732445
83	0xbdfd0c9b	-0.1235592
84	0x3d83d1ff	0.06436538
85	0xbdd7edf4	-0.10543433
86	0xbcc9e201	-0.0246439
87	0x3da1d68d	0.079022504
88	0xbd5cc07c	-0.053894505
89	0xbcace5a5	-0.021105597
90	0xbda9cc95	-0.08290974
91	0xbe34f191	-0.17670275
92	0x3e3abff8	0.18237293
93	0x3b3ef02d	0.0029134855
94	0xbe245e41	-0.1605158
95	0x3e2a48e6	0.16629371
96	0x3e266802	0.16250613
97	0x3d4e1eba	0.050322272
98	0x3c034d71	0.008014069
99	0x3e2d9f6e	0.16955349
100	0xbdfa2e50	-0.12215865
101	0xbe081ba4	-0.13291794
102	0xbde8f12e	-0.113741264
103	0x3d088b7a	0.03333614
104	0x3e687411	0.22700526
105	0x3df52728	0.11970359
106	0xbddbcd01	-0.10732461
107	0x3e0716f1	0.13192345
108	0xbd6096f3	-0.054831456
109	0xbe27346b	-0.1632859
110	0x3e3e7fcb	0.18603437
111	0x3e0ddd34	0.13853914
112	0x3db18bd2	0.08669247
113	0x3c3a339a	0.011364842
114	0x3a5af0db	0.00083519303
115	0xbe205344	-0.15656763
116	0xbdd4ffa6	-0.104003236
117	0xbc1e1fa8	-0.009651102
118	0x3d67097f	0.05640554
119	0xbe424430	-0.18971324
120	0x3e162542	0.1466265
121	0xbd63310e	-0.055466704
122	0x3dde277c	0.10847375
123	0xbd1c8984	-0.038217083
124	0xbdede5ce	-0.116160974
125	0x3d42adfa	0.0475292
126	0xbe4ede29	-0.20201935
127	0x3dc51761	0.096236
128	0x3e351c19	0.176865
129	0xbddb9774	-0.10722247
130	0x3da6184d	0.08110104
131	0x3ccc5675	0.02494357
132	0xbd0f2490	-0.034946978
133	0xbe2ba78e	-0.16763136
134	0xbdd67199	-0.10470886
135	0x3d5d52d3	0.054034065
136	0xbcfdc598	-0.03097801
137	0xbe2a4870	-0.16629195
138	0xbdf7041a	-0.12061329
139	0x3d82daea	0.06389411
140	0x3c840ad1	0.016118439
141	0xbdf811b4	-0.121127516
142	0x3c793244	0.015209738
143	0x3e869f94	0.26293623
144	0x3d93af41	0.072111614
145	0xbce5c3b4	-0.02804742
146	0xbdaac889	-0.0833903
147	0xbe2e5e48	-0.17028153
148	0x3e00d6c9	0.12581934
149	0x3c86498f	0.016392497
150	0x3d0e2bb8	0.034709662
151	0x3e0e8288	0.13916981
152	0xbdce80fd	-0.10083196
153	0xbdc83fa8	-0.097777665
154	0xbe1eb23f	-0.15497683
155	0x3d4a13bd	0.04933523
156	0x3cdb4f38	0.026771173
157	0x3dea78af	0.114488
158	0xbd954b65	-0.07289771
159	0x3dcce71d	0.10005019
160	0x3e866779	0.26250818
161	0xbe231335	-0.15925296
162	0xbd44ac61	-0.048015956
163	0x3e5a9577	0.21346079
164	0x3defc6ab	0.11707815
165	0xbd774ea6	-0.06037774
166	0x3e024123	0.1272016
167	0x3ce21834	0.027599432
168	0xbdaf15e7	-0.085490994
169	0xbe21f81c	-0.15817302
170	0xbcce9811	-0.025218995
171	0xbd9c67e3	-0.07637002
172	0x3d8605d5	0.06544081
173	0xbd9dd99d	-0.07707522
174	0x3cacc2e8	0.021089032
175	0x3d0eae9d	0.034834493
176	0xbbee8b6a	-0.007279803
177	0xbd66b0fb	-0.056321125
178	0xbdbf68d2	-0.09346165
179	0xbe0962d3	-0.13416605
180	0x3dc32f21	0.095304735
181	0xbca341a4	-0.01992876
182	0x3cd5aeaa	0.026084263
183	0xbddb5e9a	-0.10711403
184	0xbcf90d05	-0.030401716
185	0xbe098c07	-0.13432322
186	0x3daff7a9	0.08592159
187	0x3d9ec06a	0.07751544
188	0x3e3698e4	0.1783176
189	0xbd1c2e49	-0.03813008
190	0xbe1ef696	-0.15523753
191	0x3e3c518c	0.18390483
192	0x3d690bd3	0.056896042
193	0x3da01e5f	0.07818293
194	0x3e55b1a8	0.20868552
195	0x3dfb4252	0.12268509
196	0x3dee73fa	0.116432145
197	0xbe5f197d	-0.21787067
198	0xbe04dd1a	-0.12974969
199	0x3dae76b4	0.085187346
200	0x3cbcb65c	0.023036174
201	0xbe5d4052	-0.21606568
202	0xbe311b67	-0.1729561
203	0xbd9b3256	-0.0757796
204	0x3e474d26	0.19463024
205	0xbd447a8c	-0.047968432
206	0x3cb388e8	0.021915868
207	0xbc74b8ac	-0.014936607
208	0xbe0c2276	-0.13685021
209	0xbdc895c8	-0.097941935
210	0x3e79a300	0.24378586
211	0x3c8ee7ba	0.01744448
212	0x3e77c100	0.24194717
213	0x3e5bc343	0.21461205
214	0xbd44694a	-0.047951974
215	0x3c40e9f2	0.011774527
216	0x3e1bb1b6	0.1520451
217	0xbe03d540	-0.12874317
218	0xbd04c59a	-0.03241501
219	0x3dc20748	0.09474045
220	0xbc9b7a0a	-0.018979091
221	0xbe4c1de3	-0.19933276
222	0xbe35c33c	-0.17750257
223	0x3e269807	0.16268931
224	0xbe4b6e40	-0.19866276
225	0x3e5e363a	0.21700373
226	0x3d3f584f	0.046715077
227	0x3c785636	0.015157273
228	0xbe7793ac	-0.24177426
229	0x3d2f930c	0.042864844
230	0x3e758c0f	0.2397921
231	0xbdec29ad	-0.115313865
232	0xbdaa3b54	-0.08312097
233	0x3e937b16	0.28804845
234	0x3e749ad5	0.23887189
235	0x3c00a96d	0.007852894
236	0xbda97c90	-0.082757115
237	0x3e76e334	0.24110109
238	0xbdc06760	-0.09394717
239	0xbe0d20fc	-0.13782114
240	0x3db8c7db	0.090224944
241	0x3e4345af	0.19069551
242	0xbe51d497	-0.20491253
243	0x3e217c05	0.15769966
244	0x3c6f4556	0.014603933
245	0xbe0a3f9a	-0.13500825
246	0x3ddc1e75	0.10747997
247	0x3e910c36	0.2832963
248	0xba260966	-0.0006333798
249	0xbdaa30f0	-0.08310115
250	0xbde97dda	-0.114009574
251	0x3e33db5c	0.17564148
252	0xbcc71307	-0.024301065
253	0xbd08726a	-0.03331224
254	0xbe4aefcb	-0.19818036
255	0x3d4a78bd	0.04943155

lstm.weight_hh_l1 f4 [128, 32]
0	0xbe2816bb	-0.16414921
1	0x3e01ee88	0.12688649
2	0xbe01fb87	-0.12693606
3	0x3d9cae29	0.07650406
4	0xbdf05985	-0.117358245
5	0xbdb161de	-0.08661245
6	0xbc6df575	-0.014523854
7	0x3da6666c	0.08125004
8	0xbe1c9bbf	-0.15293787
9	0x3e22db36	0.15903935
10	0x3d6fb948	0.058526307
11	0x3da7843c	0.081795186
12	0x3d8f8420	0.07007623
13	0xbd33f17e	-0.043931477
14	0x3db9845d	0.090584494
15	0xbc7f4d7a	-0.015582437
16	0xbd9d7c4c	-0.07689723
17	0x3dd3ff0c	0.10351381
18	0x3e133f3d	0.14379592
19	0xbc64ccd3	-0.0139648495
20	0x3d3da7b7	0.046302523
21	0x3d9c85ba	0.07642694
22	0x3e5c6370	0.21522307
23	0xbdae69fb	-0.08516308
24	0x3dd971f0	0.10617435
25	0x3d065c1d	0.03280269
26	0xbe1c5a24	-0.15268761
27	0x3cdde172	0.02708504
28	0xbde1547c	-0.11002442
29	0x3de42e97	0.11141699
30	0x3d54118a	0.05177454
31	0x3e4c19fc	0.19931787
32	0xbd129a8a	-0.03579191
33	0x3c971c34	0.018446065
34	0x3de2c5c8	0.1107288
35	0xbd798adc	-0.060923442
36	0x3e009c84	0.12559706
37	0x3de37e08	0.11108023
38	0xbe662fd2	-0.2247918
39	0xbe1384fa	-0.14406195
40	0xbe058fd3	-0.13043146
41	0xbd8daddc	-0.06917927
42	0xbd4130bb	-0.047165614
43	0x3cb0a332	0.021562193
44	0xbd02841a	-0.031864263
45	0xbc8d8ecf	-0.01728001
46	0xbda4674f	-0.08027517
47	0x3dae5fa6	0.08514337
48	0x3c7ac5fe	0.015305994
49	0x3ca1fc6e	0.019773688
50	0xbe03fcaa	-0.12889352
51	0x3dea56af	0.11442315
52	0xbd96f241	-0.07370425
53	0xbdb0dd4a	-0.086359575
54	0x3ca55ecb	0.020186802
55	0x3da3bf24	0.079954416
56	0xbddd8863	-0.10817029
57	0x3daf0f1e	0.08547805
58	0xbdc30da8	-0.09524089
59	0xbe682ead	-0.22674055
60	0xbd9e7b77	-0.07738393
61	0xbbc0de6b	-0.0058858893
62	0xbe15cc75	-0.14628775
63	0x3cd3fcbb	0.025877347
64	0x3ce5935e	0.028024372
65	0xbe0932c0	-0.13398266
66	0xbe316ef3	-0.1732748
67	0xbe11438c	-0.14185923
68	0x3e14be8a	0.1452581
69	0xbdf20c91	-0.11818803
70	0xbe240af3	-0.16019802
71	0x3d60884f	0.054817494
72	0x3dae3e2e	0.085079536
73	0xbda23f10	-0.079221845
74	0xbc2e7038	-0.010646872
75	0x3d000473	0.031254243
76	0xbc3f84bf	-0.011689364
77	0x3d81be5a	0.06335135
78	0x3cb16cef	0.021658389
79	0x3e1edf94	0.15514976
80	0x3dc40bc8	0.095725596
81	0xbe14530c	-0.14484805
82	0xbd460178	-0.048341244
83	0x3e57eb99	0.21085967
84	0xbc142234	-0.009041358
85	0x3daa41f9	0.083133645
86	0x3e4ea693	0.2018073
87	0x3c578bd5	0.013155897
88	0x3d43d00d	0.047805835
89	0xbdf1fa3d	-0.11815307
90	0xbde494f5	-0.11161224
91	0x3d42606c	0.047455236
92	0x3dbbc254	0.091679245
93	0xbdee3025	-0.116302766
94	0xbd6a3a96	-0.05718478
95	0x3d885ab7	0.066579275
96	0xbd25b7e1	-0.040458564
97	0x3e20011a	0.1562542
98	0xbcc8152f	-0.024424164
99	0x3e23cbd8	0.15995729
100	0xbcf0c1f8	-0.029389367
101	0x3de733f5	0.11289207
102	0x3e20ef3a	0.15716258
103	0xbd23322f	-0.03984278
104	0xbdd05b54	-0.101736695
105	0x3d8f83c1	0.07007552
106	0x3d3be01e	0.04586803
107	0xbd878520	-0.066171885
108	0xbd8d2259	-0.06891317
109	0x3d0da5ad	0.03458183
110	0x3d311804	0.043235794
111	0x3e1b5572	0.15169314
112	0x3cde7146	0.027153622
113	0xbdbb213d	-0.09137199
114	0x3d9df7d0	0.07713282
115	0xbd9a51b9	-0.075351186
116	0x3d0d6f49	0.034529958
117	0x3cd86386	0.026414644
118	0xbddece96	-0.10879247
119	0x3e410082	0.1884785
120	0x3da9fd6d	0.0830029
121	0x3d3d6d1c	0.046246633
122	0x3d9530e7	0.07284718
123	0xbe42da53	-0.19028597
124	0x3e492125	0.1964155
125	0xbdc65a46	-0.09685187
126	0xbd8bcf00	-0.068265915
127	0x3dfe6da6	0.124232575
128	0x3d236eee	0.039900713
129	0x3d1d2286	0.038363002
130	0x3e3df08d	0.18548794
131	0xbdb7a578	-0.089671075
132	0xbc82f92c	-0.015987955
133	0xbdba1a29	-0.09087021
134	0x3c5e07e0	0.013551682
135	0xbe82dbf9	-0.2555845
136	0x3d69f75b	0.057120662
137	0x3e09d60a	0.13460556
138	0x3e5d49c9	0.21610178
139	0x3d59ac97	0.05314311
140	0xbdb02438	-0.08600658
141	0xbe101145	-0.14069088
142	0x3e0f85fc	0.14015955
143	0x3c88b78f	0.01668909
144	0xbc88c965	-0.016697595
145	0xbe0f2a7e	-0.13981053
146	0xbe4c8b89	-0.19975103
147	0x3e389d04	0.18028647
148	0xbd4fa728	-0.050696522
149	0xbe15a914	-0.1461528
150	0x3d3b257d	0.04569005
151	0xbcd81302	-0.026376251
152	0xbe4c05ba	-0.1992406
153	0xbe4f5472	-0.20247057
154	0x3dc88d36	0.09792559
155	0xbd3d02a0	-0.04614508
156	0xbcdba1b5	-0.026810506
157	0x3d8d3173	0.06894197
158	0xbe22b56d	-0.15889521
159	0x3daa0f2d	0.08303676
160	0x3e18d145	0.1492358
161	0xbdfb01fd	-0.122562386
162	0xbdd6e737	-0.104933195
163	0x3de849cd	0.113422014
164	0x3dd4a43f	0.1038289
165	0x3e38bc5a	0.180406
166	0x3e46769c	0.19381183
167	0xbe4c6098	-0.19958723
168	0x3d7b2406	0.06131365
169	0xbe322924	-0.17398506
170	0xbcdd6388	-0.027025
171	0x3e16e24a	0.1473476
172	0xbdec9aa1	-0.115529306
173	0xbe0478ca	-0.12936702
174	0xbe441177	-0.19147287
175	0xbdb869a3	-0.090045236
176	0xbe07db35	-0.13267215
177	0xbc9025a3	-0.017596072
178	0xbdbed613	-0.09318175
179	0x3e6247c1	0.22097684
180	0xbe384860	-0.17996359
181	0xbe3df5dc	-0.18550819
182	0x3e11ba29	0.1423117
183	0x3d7f464b	0.062322896
184	0x3e35ed8d	0.177664
185	0xbcbc9359	-0.02301948
186	0x3e526c10	0.20549035
187	0xbdcb938a	-0.0994025
188	0x3d3e39b1	0.046441738
189	0xbd4a9551	-0.049458805
190	0xbc547537	-0.012967399
191	0xbd06bf9e	-0.032897584
192	0x3dcb5d5c	0.09929916
193	0xbd98240d	-0.07428751
194	0xbdc054cd	-0.093911745
195	0xbddfb984	-0.10924056
196	0x3d8e4bb5	0.06948034
197	0xbd8ade7c	-0.06780717
198	0xbd85f49e	-0.06540798
199	0xbe316afe	-0.1732597
200	0xbcc1fd23	-0.023680275
201	0xbdc86b01	-0.097860344
202	0x3e02f6c7	0.1278945
203	0x3dbd52bf	0.09244298
204	0x3ca37f13	0.019958055
205	0x3cf29cfe	0.029615875
206	0xbd612584	-0.05496742
207	0xbd5384f8	-0.05164048
208	0xbe5d0d05	-0.21586998
209	0x3e48f21a	0.19623604
210	0x3e0c33c2	0.13691619
211	0x3c83f6b8	0.016108856
212	0xbe1581af	-0.14600252
213	0x3dc78aa6	0.09743242
214	0xbcbf7495	-0.02337102
215	0xbde0c7e0	-0.10975623
216	0xbc87f163	-0.016594594
217	0xbd3f75f1	-0.046743337
218	0x3dea4a9d	0.114400126
219	0xbd8b70c7	-0.0680862
220	0xbe2e367b	-0.1701297
221	0x3dc481a9	0.09595043
222	0xbdc307ac	-0.09522948
223	0x3e59fd3d	0.21288009
224	0xbe016831	-0.12637402
225	0x3dc07b7a	0.09398551
226	0x3ba6de52	0.0050924206
227	0xbe326693	-0.17421941
228	0x3e29571a	0.16537133
229	0xbd20d1f8	-0.03926274
230	0xbd1d00c0	-0.038330793
231	0x3e23e6ed	0.1600606
232	0xbdc614cf	-0.09671938
233	0x3dd20124	0.10254124
234	0xbdb036c8	-0.08604199
235	0x3d0e684e	0.03476744
236	0x3e73c8f2	0.23807123
237	0x3e0d315e	0.13788363
238	0x3e7ea4c7	0.24867545
239	0xbddbc7d4	-0.107314736
240	0x3d591097	0.052994337
241	0xbc8276ef	-0.015925853
242	0x3d76f22c	0.060289547
243	0xbdeb9149	-0.1150232
244	0xbc1f8ebd	-0.009738621
245	0x3d8da93b	0.06917044
246	0xbd40e935	-0.047097404
247	0x3d8edfb7	0.06976264
248	0xbe00b5de	-0.12569377
249	0x3e41fb3c	0.18943495
250	0xbd86270f	-0.065504186
251	0xbe0ded6f	-0.13860105
252	0x3dbe8046	0.0930181
253	0xbe111b5c	-0.14170593
254	0xbe292bfc	-0.16520685
255	0xbe2bb6be	-0.1676893

lstm.bias_ih_l1 f4 [128]
0	0xbda680d7	-0.08130043
1	0x3d20acca	0.039227284
2	0x3e553ea4	0.20824677
3	0x3d721d5f	0.05911004
4	0x3d899093	0.067170285
5	0x3dcf593d	0.10124443
6	0x3c97607b	0.018478623
7	0xbe2bf188	-0.16791356
8	0xbd8071db	-0.06271716
9	0x3b587edf	0.0033034605
10	0xbe415652	-0.18880585
11	0xbe098029	-0.13427795
12	0xbe04ec01	-0.12980653
13	0x3d823b4f	0.063589685
14	0x3d0c12e0	0.034197688
15	0x3c744509	0.014909037
16	0x3cf25d7b	0.02958559
17	0xbde5246a	-0.11188586
18	0x3cd82c04	0.026388176
19	0xbdd900fa	-0.105958894
20	0xbe60c5f7	-0.21950518
21	0x3ce22900	0.027607441
22	0xbe494fb6	-0.19659314
23	0xbe2102d8	-0.15723741
24	0xbb171b67	-0.0023057105
25	0x3c85bcb4	0.016325332
26	0x3d9b9e54	0.07598558
27	0x3c208c0c	0.009799015
28	0x3df6c065	0.12048415
29	0x3c02e661	0.007989497
30	0x3d4cb4b1	0.04997701
31	0x3c51646d	0.012780291
32	0x3d9b3bed	0.07579789
33	0xbe5309eb	-0.20609252
34	0x3e0bacc3	0.13640122
35	0xbe0e0c3c	-0.13871855
36	0x3dc697cf	0.09696924
37	0x3dec2e73	0.11532297
38	0x3e117570	0.14204955
39	0xbe57819a	-0.21045533
40	0xbe01a9dd	-0.12662454
41	0x3d48ac4c	0.04899244
42	0x3d13a84a	0.036049165
43	0xbe23099d	-0.15921636
44	0x3d7e7d57	0.062131252
45	0xbe21e7f6	-0.15811142
46	0x3dfd3c71	0.12365044
47	0xbe1258ca	-0.14291683
48	0x3d9baf90	0.07601845
49	0x3e0d1a35	0.13779528
50	0xbe5480f7	-0.20752321
51	0xbd0725a6	-0.03299489
52	0xbe27e867	-0.16397248
53	0x3e601584	0.21883208
54	0xbd2b17a2	-0.041770585
55	0xbc012ec0	-0.007884681
56	0x3e15e04c	0.14636344
57	0x3d6b6f92	0.05747945
58	0x3d11b6bf	0.03557467
59	0x3d2b9f42	0.041899927
60	0xbe2e5cce	-0.1702759
61	0xbdd107d2	-0.1020657
62	0x3d25f7bf	0.040519472
63	0xbe09aa97	-0.13443981
64	0x3e83fc08	0.25778222
65	0xbdbbf9c4	-0.091784984
66	0xbdf6e021	-0.12054468
67	0x3d910190	0.07080376
68	0xbe2ea21e	-0.1705403
69	0x3e54c1f9	0.2077712
70	0x3e8da811	0.27667287
71	0xbc9bf859	-0.01903932
72	0xbd2bdae9	-0.041956816
73	0x3ce94d50	0.028479248
74	0xbc8e4cdf	-0.01737064
75	0x3e1dcd9c	0.15410465
76	0x3c7253aa	0.014790455
77	0x3cda7723	0.026668137
78	0xbe7d5aec	-0.24741715
79	0x3d8a19ad	0.067431785
80	0xbd5df8ee	-0.054192476
81	0x3e4a0642	0.1972895
82	0x3e161a8a	0.14658561
83	0x3cf9bc82	0.030485395
84	0x3d03dc70	0.032192647
85	0xbe65d226	-0.22443447
86	0x3d606050	0.05477935
87	0x3d7dee38	0.06199476
88	0x3e8089df	0.25105187
89	0x3de8436a	0.11340983
90	0x3da63cad	0.08117042
91	0x3d72660f	0.059179362
92	0xbe183bb0	-0.14866519
93	0xbe5c8639	-0.21535577
94	0x3e203ce1	0.15648223
95	0xbde39b55	-0.111136116
96	0x3d6fc2a5	0.058535237
97	0xbde3d5e2	-0.11124779
98	0x3dbbf83c	0.09178206
99	0x3e0cb7c6	0.13741979
100	0xbd9d3ba6	-0.07677393
101	0xbcf79c63	-0.030225938
102	0xbd6fdc8e	-0.058559947
103	0x3d8c7f10	0.06860173
104	0xbd8065cf	-0.062694184
105	0xbe04b9c5	-0.1296149
106	0x3d6fe46a	0.058567442
107	0x3c0523f7	0.0081262505
108	0xbe7c2448	-0.24623215
109	0xbd03b36d	-0.032153536
110	0x3d95ccd6	0.0731446
111	0x3d8dca27	0.06923323
112	0xbcd218d6	-0.025646608
113	0x3e0a28e9	0.13492168
114	0x39aa6dd2	0.0003250675
115	0xbe589f66	-0.21154556
116	0xbe2df2df	-0.16987179
117	0x3c6bfb71	0.01440321
118	0xbe0d3d58	-0.13792932
119	0xbe803818	-0.25042796
120	0xbdfcd52b	-0.12345346
121	0xbd828d95	-0.06374661
122	0x3da2644f	0.079292886
123	0x3b65bb85	0.0035054397
124	0xbd85f9ea	-0.06541808
125	0x3c49ea1f	0.012323885
126	0xbe1a142a	-0.15046754
127	0xbd785376	-0.06062647

lstm.bias_hh_l1 f4 [128]
0	0x3d9df9d4	0.077136666
1	0xbe5f314d	-0.2179615
2	0x3d200e32	0.039076038
3	0x3cd19660	0.0255844
4	0x3d6674e1	0.05626381
5	0x3e76ac2b	0.24089114
6	0x3d938049	0.07202203
7	0x3ca42981	0.020039322
8	0xbe1471c4	-0.14496523
9	0x3e0a3aa1	0.13498928
10	0x3c99ec66	0.018789481
11	0xbdfbdecf	-0.12298357
12	0xba88b7e0	-0.0010430776
13	0xbdfb2a24	-0.12263897
14	0x3e212256	0.15735754
15	0xbd28cd2e	-0.0412113
16	0xbca66889	-0.020313518
17	0x3bede078	0.007259425
18	0x3d351ab6	0.044214927
19	0x3cd09d23	0.025465554
20	0xbe78ff68	-0.2431618
21	0x3e54fc8c	0.20799464
22	0xbe2bc4d4	-0.16774303
23	0xbdbbdfca	-0.09173544
24	0xbd9b2bd0	-0.07576716
25	0xbda15c0c	-0.07878885
26	0xbd9b248d	-0.07575331
27	0xbdc8d40b	-0.09806069
28	0xbe19852f	-0.14992212
29	0xbdf0a9d5	-0.11751143
30	0xbb52640a	-0.0032103085
31	0xbe353de5	-0.17699392
32	0xbd346480	-0.044041157
33	0x3d21dedd	0.03951918
34	0x3dab4b1b	0.083639346
35	0xbdd62f75	-0.104582705
36	0xbe2c1163	-0.16803508
37	0x3d591c8b	0.053005736
38	0x3e0f830d	0.14014836
39	0xbdd46b12	-0.103719845
40	0xbe2abc5c	-0.16673416
41	0xbe075b0d	-0.13218327
42	0xbdce57c8	-0.10075337
43	0x3e04ed2c	0.12981099
44	0x3af7dfac	0.0018911264
45	0xbe09c513	-0.13454084
46	0x3e2a6241	0.16639043
47	0x3e1525ec	0.14565247
48	0x3df8f5ab	0.121562324
49	0xbe0b97a8	-0.13632071
50	0x3d33d5ab	0.04390494
51	0xbe6542b7	-0.22388731
52	0xbe212a1e	-0.15738723
53	0xbc346fc8	-0.011012979
54	0xbdb373ba	-0.087623075
55	0xbe6a9649	-0.22908892
56	0xbda4465c	-0.080212325
57	0xb993b721	-0.00028174467
58	0x3d4e4b53	0.050364804
59	0xbe22ff0f	-0.1591761
60	0x3e0457ae	0.12924072
61	0x3d972a35	0.07381097
62	0x3d516f3d	0.051131476
63	0xbe424787	-0.18972598
64	0xbd48ea76	-0.049051724
65	0xbe0633b0	-0.13105655
66	0xbd1e6882	-0.038673885
67	0x3e38fe59	0.18065776
68	0xbe3aad34	-0.18230134
69	0x3d67eb79	0.05662105
70	0x3de114fe	0.10990332
71	0x3cc31735	0.023814777
72	0x3e573ea2	0.21019986
73	0xbe63933c	-0.22224134
74	0x3b30b39f	0.0026962531
75	0x3d685c36	0.056728564
76	0xbdc668b2	-0.09687938
77	0x3dcdd5e5	0.10050563
78	0xbe3f45fb	-0.18679039
79	0x3e6a5aee	0.2288625
80	0xbe187c7e	-0.1489124
81	0x3dc071e4	0.09396723
82	0x3c6887f3	0.014192569
83	0x3c76b4f4	0.015057791
84	0x3e153e14	0.14574462
85	0xbe0fad52	-0.1403096
86	0xbba31c41	-0.0049777334
87	0x3dba112b	0.09085306
88	0x3dd1c3c9	0.10242421
89	0x3d542c23	0.051799905
90	0x3e53b016	0.2067264
91	0xbe38ecb6	-0.18059048
92	0xbdc15b50	-0.094412446
93	0x3c3d4d3d	0.01155406
94	0x3dc3e7fb	0.09565731
95	0xbcea8c34	-0.028631307
96	0x3dd4f33c	0.10397956
97	0xbccbb574	-0.024866797
98	0xbdc1b5f7	-0.09458535
99	0x3e095f8a	0.13415352
100	0x3d819101	0.063264854
101	0x3e1f8e08	0.15581524
102	0xbdb3eccc	-0.087854
103	0xbe43dbd7	-0.19126831
104	0xbd302a31	-0.043008987
105	0xbcfdc2f9	-0.03097676
106	0xbc953afd	-0.018216604
107	0x3cff24c7	0.031145466
108	0xbe87d431	-0.26529077
109	0xbdbb80b0	-0.091554046
110	0xbdc2f6b3	-0.095197104
111	0xbdfda8c5	-0.12385706
112	0xbcc707b0	-0.024295658
113	0xbe271c5d	-0.16319413
114	0xbe2e7148	-0.17035401
115	0x3beceace	0.0072301393
116	0xbd16706f	-0.03672832
117	0xbc140038	-0.009033255
118	0xbe7639f5	-0.24045546
119	0xbe38bb89	-0.18040289
120	0x3e0f772c	0.14010304
121	0x3c97d1bc	0.018532626
122	0xbe0f2132	-0.13977507
123	0xbc8875d1	-0.016657742
124	0x3e332cfd	0.1749763
125	0x3d7272ec	0.05919163
126	0xbcd66136	-0.0261694
127	0xbe7418b1	-0.23837544

fc.weight f4 [1, 32]
0	0xbdd3a7db	-0.1033475
1	0x3c85eb58	0.016347572
2	0x3e46c6f4	0.19411832
3	0xbccb42f5	-0.024812201
4	0x3d31b838	0.043388575
5	0xbde746fb	-0.11292835
6	0xbe0bbf0d	-0.13647099
7	0xbd17e67e	-0.03708505
8	0xbe2e6b88	-0.17033207
9	0x3e1720fe	0.1475868
10	0x3d9dee55	0.07711474
11	0xbde577d5	-0.11204497
12	0x3d5178f1	0.05114073
13	0xbd0dd654	-0.034628227
14	0x3d60a1bd	0.054841746
15	0xbd851f9f	-0.06500172
16	0x3d9219a3	0.07133796
17	0xbdf10d23	-0.11770084
18	0xbd26b747	-0.04070213
19	0xbcdd5e44	-0.027022488
20	0xbd6bacb2	-0.057537742
21	0x3e5678a6	0.20944461
22	0x3d293220	0.04130757
23	0xbc156fcd	-0.009120894
24	0xbe53b5b8	-0.20674789
25	0x3d66a8be	0.05631327
26	0xbe54266d	-0.20717783
27	0x3d71033c	0.058840975
28	0x3dfc47a1	0.1231835
29	0x3ddb0883	0.10694983
30	0xbe1a502b	-0.15069644
31	0xbd8b3495	-0.067971386
