backend/stocks/price/pt_models/ABC.pt (torch, 54423 bytes, 9 tensors)

lstm.weight_ih_l0 f4 [128, 1]
000000 07 4d 33 3e f5 75 88 3c 3a af 86 3e b7 00 80 3e
       0.17509852 0.016657809 0.26305562 0.25000545
000010 a6 f2 e2 bc 62 85 6f 3e c6 6a 61 be 71 8e 7d bc
       -0.027703594 0.23390725 -0.22013387 -0.015475855
000020 33 64 2a bd d8 5b 8b bd a7 05 8e 3e 03 b0 1f be
       -0.041599464 -0.06804627 0.27738687 -0.15594487
000030 35 d5 21 3e 46 ef e2 3d 59 47 8a be db 9a 29 3e
       0.15803988 0.11080794 -0.2700756 0.16562979
000040 44 75 da bd 1a 31 e4 3b d8 1d ec 3e a7 37 f9 bd
       -0.10666898 0.006963861 0.4611652 -0.12168818
000050 51 0f 07 be 96 6f 54 bd 3b 00 54 be 50 43 77 3d
       -0.13189436 -0.05186423 -0.20703213 0.06036693
000060 b1 e9 38 3d 5a 5d a9 3e ab a5 06 bd 9f 89 3c 3e
       0.04514474 0.33079034 -0.032872837 0.18411873
000070 49 cd 31 be a2 cd 5f be b3 54 90 bb 4f b6 2f be
       -0.17363466 -0.21855786 -0.004404628 -0.17159389
000080 9d 8f 41 3e 9a 4b 2c be 58 38 a0 3e 52 b7 97 3e
       0.1890244 -0.16825715 0.31292987 0.2963205
000090 04 19 e2 3c 1d 2b e9 3d 82 ca 99 be ae fc e6 3d
       0.027599819 0.11385176 -0.30037314 0.112786636
0000a0 91 7d b8 bd ea a8 61 be 05 4e 23 3e 58 70 4d be
       -0.09008325 -0.22037092 0.15947731 -0.20062387
0000b0 23 02 b7 3d e5 6a d3 3d cb 84 01 be 98 cd ad 3d
       0.089359544 0.10323123 -0.12648313 0.084864795
0000c0 79 0f f7 bd 8b 33 5c bc 86 a8 ac 3e 4f d6 89 be
       -0.12063498 -0.013440023 0.33722323 -0.26921317
0000d0 76 7c 0f be 03 92 74 bd 53 4f 74 3c 94 a3 70 3e
       -0.14012322 -0.05970956 0.0149114905 0.234999
0000e0 c9 8c 3a bd ab 39 55 3e fc 7c 66 3e f8 32 9d 3d
       -0.04554442 0.2082278 0.22508615 0.07675737
0000f0 e6 2d df 3c f4 39 72 be 16 0a fb 3d 9b 38 65 3d
       0.027243566 -0.2365492 0.12257783 0.055962186
000100 ae 2e ae 3e 13 71 54 bd 50 67 8a 3e 5d c1 00 3e
       0.3401999 -0.05186565 0.27031946 0.12573762
000110 a1 9f d9 bd 1f 08 08 be c2 95 90 bd dc 63 b5 bd
       -0.1062615 -0.13284348 -0.07059814 -0.08856937
000120 6e e0 92 be e1 7c 99 3e a0 6b b6 3d 8f 31 a7 bd
       -0.2868685 0.29978088 0.089072466 -0.081637494
000130 bd c5 10 bd 23 73 72 be 3f 1c 97 3e d0 4e c7 3d
       -0.035344828 -0.23676734 0.29513738 0.09731829
000140 de 06 92 be 0f df e6 bd 1b 5c 82 3e af 47 9e be
       -0.28520864 -0.11273014 0.25460896 -0.30914065
000150 38 d5 9d 3e 95 68 67 3e 0c 62 81 be e1 59 99 bc
       0.30826735 0.22598489 -0.25270116 -0.018719615
000160 d7 d5 a9 be 79 f9 b7 3d a1 27 da bc a2 31 a8 3d
       -0.3317096 0.0898313 -0.026630225 0.08212592
000170 86 11 2e 3e 98 63 a0 3e c4 ac 64 3e 72 0f 50 3e
       0.16998872 0.31325984 0.2233153 0.20318392
000180 ff b6 93 3c 03 a0 bb 3d 4d 6c 5b 3e 05 85 c9 3d
       0.018031595 0.09161379 0.21428032 0.098398246
000190 01 6a 22 be 11 ef 58 3d 4c 32 73 be 79 3b 61 3d
       -0.1586075 0.052962366 -0.23749655 0.05498836
0001a0 18 46 8c be a0 50 46 bd 4d 05 51 3d 07 98 90 be
       -0.27397227 -0.048416734 0.051030446 -0.28240988
0001b0 b5 a1 a2 3e 20 1e 72 3e a2 23 e1 bd 4d ca 76 3e
       0.31763998 0.23644304 -0.109931245 0.24100609
0001c0 44 d7 30 3c 05 14 4f ba 5a 17 76 3e dd 1f 0d bc
       0.010793511 -0.00078994065 0.24032345 -0.008613554
0001d0 8d 73 0a bd 2c ff 82 3c 84 eb da 3c 82 58 11 3e
       -0.033801604 0.015990816 0.02672363 0.1419392
0001e0 ca ca 3c be 20 45 2c 3e 00 df 4f 3e 90 13 f0 bd
       -0.18436733 0.16823244 0.20299911 -0.11722481
0001f0 3a f3 85 bc 3c 14 87 be b2 d2 aa 3d 66 96 85 3d
       -0.016351331 -0.26382625 0.08340968 0.06522827

lstm.weight_hh_l0 f4 [128, 32]
000000 39 26 2c 3e 3b 9b 17 be 9b a7 53 3e 5d 89 44 be
       0.16811456 -0.1480531 0.20669405 -0.19193025
000010 dd c5 c3 bd ed 68 37 be 79 6e ae 3d 91 08 32 be
       -0.09559224 -0.1791112 0.08517165 -0.1738608
000020 1f 2f 44 3d 4a ed e6 3d 5d a8 21 3d 57 be 39 3e
       0.0478965 0.11275728 0.039467204 0.18139015
000030 b9 f0 fe bd b6 a7 91 be 5b ae b1 bd 46 55 88 3d
       -0.12448258 -0.28448266 -0.08675834 0.066568896
000040 8b 58 9b 3d 10 84 4f bd 3f 03 4d 3e 88 66 dc bd
       0.075852476 -0.050663054 0.2002077 -0.10761744
000050 32 93 17 be 60 f2 45 3e cf 02 b5 bd 61 36 0f 3e
       -0.14802244 0.1933074 -0.08838426 0.13985588
000060 6c e3 07 3d 57 5a 8b 3c 76 52 20 3e 9b 59 42 bd
       0.03317587 0.01701085 0.15656456 -0.047448736
000070 c3 db 67 be f4 be c2 3c fa 02 21 3e 0a be 5f 3d
       -0.22642426 0.023772694 0.15723792 0.054624595
000080 85 da 4b bd c5 2b 73 bc 19 f2 f2 3c 83 31 4f 3e
       -0.049768943 -0.014841978 0.029656457 0.20233731
000090 45 f2 9e 3c 94 e8 3a 3e 47 f9 79 bd 2b 70 8c 3b
       0.019402632 0.18252784 -0.061028745 0.0042858324
0000a0 14 e4 da bc b4 dc 99 3d a3 c5 8b bd 03 c5 11 be
       -0.026720084 0.07512799 -0.068248056 -0.1423531
0000b0 0c 7c 81 bd 3e 77 d5 3d 8f a6 0e 3e ec fe 67 3d
       -0.06322488 0.10423134 0.13930725 0.056639597
0000c0 24 06 2e be 47 51 45 3e 8e 2b a9 be d8 d5 c5 3c
       -0.1699453 0.19269286 -0.33041042 0.02414982
0000d0 e4 55 19 bd 6b b7 72 bd e1 2a 2d 3e 79 af 2a 3e
       -0.037435427 -0.059256952 0.16910888 0.166685
0000e0 33 71 19 be 13 17 51 be c9 40 8b 3c 92 00 1f be
       -0.14984588 -0.20418958 0.016998665 -0.15527561
0000f0 7d 85 90 3d 2e 29 85 bd de 10 e2 3d 0b 62 0b be
       0.07056711 -0.06501995 0.110383734 -0.13611619
000100 61 b6 80 bd b3 0c 78 bd 37 f6 42 bd 31 c3 a3 bc
       -0.06284786 -0.060558986 -0.04759809 -0.019990535
000110 e3 62 e9 bb b3 99 ca 3d be 73 08 be 49 91 09 be
       -0.007122384 0.09892597 -0.13325402 -0.13434328
000120 cc 63 68 bd b2 ec db bc 5a db 51 bd 49 23 04 3c
       -0.0567358 -0.026846264 -0.05123458 0.008065053
000130 98 6f b3 bd 4c 45 83 be 1b 8c 06 bc 20 de 92 3d
       -0.08761519 -0.25638807 -0.008212115 0.07171273
000140 7c bc 49 bd bd e1 50 3d 0b d3 18 3e 19 85 78 bd
       -0.04925202 0.05099653 0.14924257 -0.060673807
000150 29 f1 3d bd cc 36 7b 3e de bd 4e be 8f b9 c4 3c
       -0.046372566 0.24532622 -0.20189616 0.024014262
000160 0b 48 87 bc c5 28 0f 3e 53 3d 18 3e f0 ce ea 3d
       -0.016513845 0.13980396 0.14867143 0.114652514
000170 cd 1d 2e 3e 60 cf 48 3e 57 c9 1a 3e a7 59 80 bd
       0.17003556 0.19610357 0.15115868 -0.062671
000180 0a 56 02 3e e4 09 91 3e ab 17 67 3e d9 34 24 3e
       0.12728134 0.28327858 0.22567622 0.16035785
000190 e1 83 92 3e 90 b8 aa 3d 40 b5 c0 be 7f 49 4d 3d
       0.2861624 0.08335984 -0.37638283 0.05011892
0001a0 41 c3 0a be 14 04 cf 3d a1 31 ec 3b 91 13 be be
       -0.13551046 0.101082 0.0072080647 -0.37124303
0001b0 24 7d 28 be 68 82 ec 3c ab ce 87 3e 3d 76 3f 3e
       -0.16453987 0.028870776 0.26524863 0.18697448
0001c0 2a 19 a7 bd bf e7 d9 3d 59 01 11 be 0e 8a 10 be
       -0.081590965 0.10639905 -0.1416067 -0.14115164
0001d0 81 c3 9c 3e 6f eb 53 bd 46 4d cf bd bb 2c 5c be
       0.30617908 -0.0517382 -0.101221606 -0.21501438
0001e0 df 12 54 be 64 3a c3 3d f2 63 f8 3d 6b 02 9a bd
       -0.20710324 0.095326215 0.12128438 -0.075199924
0001f0 a7 aa 98 3e e4 13 dd 3d 8a 07 d8 bb 43 b9 0a 3c
       0.29817697 0.107948095 -0.0065926956 0.008467021
000200 59 d3 92 bd 44 5d 89 bd 4f 3f df bd 75 a1 ca bd
       -0.071692176 -0.06707242 -0.10900747 -0.09894077
000210 d8 57 d4 bd fd 3b 9a 3d c1 4b 2b bd 7d c2 63 3e
       -0.10368317 0.07530973 -0.04182029 0.2224216
000220 da 41 88 bd ee 54 76 bc a8 b4 53 3d 2e dd d0 3d
       -0.06653185 -0.015034897 0.05168596 0.10198437
000230 35 cc 6a 3e 84 e2 e4 3d ce 56 a5 3c 60 6f 5c be
       0.22929461 0.11176017 0.020182993 -0.21526861
000240 64 36 3b be 3c 10 fd 3d da ca 8a be 8a 10 bf 3d
       -0.18282467 0.12356612 -0.27107888 0.093293265
000250 97 04 2c be 31 f8 e8 3d af 38 a5 3d d7 09 d0 bd
       -0.16798626 0.11375464 0.08067452 -0.10158127
000260 95 3a d5 3d 09 b7 9a bd fc 53 19 3e c6 db 48 be
       0.10411564 -0.075544424 0.14973444 -0.19615087
000270 f3 72 56 3e d6 0f 32 bd 24 ee 88 3d 68 bd 61 bd
       0.20942287 -0.043472134 0.06686047 -0.055112273
000280 9a 6e 42 3d 82 14 81 3e 0c c0 d4 3c c6 ed d6 3d
       0.04746876 0.2521096 0.025970481 0.104945704
000290 b9 29 86 3e 9f a3 ab bd 55 cc 90 3b 1d 46 c4 bc
       0.26203707 -0.083808176 0.0044188895 -0.023959214
0002a0 6c 16 d0 bd e4 44 3b 3d 53 99 50 be aa 49 84 be
       -0.10160527 0.045719996 -0.20370989 -0.2583745
0002b0 8f 75 b8 bd 4e 10 14 be e6 18 30 3e ad 13 69 bb
       -0.090067975 -0.14459345 0.17196998 -0.0035564706
0002c0 8d 08 4c be b5 1c 20 3e 8b 43 c5 3d 9b 03 41 be
       -0.19925137 0.15635951 0.096320234 -0.18849032
0002d0 7a 61 8a 3b 6d 76 0f bc df 83 2e bd 89 e7 47 3d
       0.004223046 -0.008756262 -0.04260623 0.048804794
0002e0 3d 1e a5 3d aa d1 fc 3d eb 1d 23 3e 2e bf 59 be
       0.08062408 0.12344678 0.15929382 -0.21264336
0002f0 ae e0 4f bd 58 7e 62 3e bd ea 7f be d5 85 7a 3e
       -0.05075138 0.22118509 -0.2499189 0.24465115
000300 83 ef 59 be 5a 62 96 3d 69 24 0d bd 83 85 84 3d
       -0.21282773 0.07342978 -0.03445855 0.06470778
000310 bd 29 53 bd 41 b7 99 3c a5 e9 ea bd 7d a4 a0 3d
       -0.051553477 0.01876414 -0.114703454 0.07843874
000320 06 83 f3 bc a2 01 98 3d 15 c7 59 bc 5c 64 b1 3c
       -0.029725563 0.074221864 -0.013292094 0.0216543
000330 8e eb 18 bd dc 42 93 3d 53 c6 99 bd 97 ea c0 3d
       -0.037334017 0.07190487 -0.075085305 0.094197445
000340 0c c0 db bd b3 77 27 bd 73 9c a1 be 3b cd 04 3e
       -0.107299894 -0.04088564 -0.31564674 0.12968914
000350 b1 5e f6 bd 43 9d 12 be 61 f3 07 be 2c de d7 3d
       -0.1202978 -0.14317803 -0.13276435 0.10540423
000360 d7 7e 7a 3d 7a 3f e2 bc 58 ce a8 3b 67 ed 4d be
       0.06115612 -0.027618159 0.005151551 -0.20110093
000370 2f 6d 96 3d a3 4a 19 bd 00 39 53 be 00 78 ca bd
       0.07345044 -0.037424695 -0.20627213 -0.098861694
000380 bc 72 47 3e 07 51 12 3e c8 99 75 3e 8d e9 a5 bd
       0.19477361 0.14288722 0.23984444 -0.08101187
000390 94 e7 b1 3d d8 08 3e be 48 85 d8 3c 8b 01 06 3c
       0.08686748 -0.18558061 0.026430741 0.008179079
0003a0 26 33 12 be 87 96 f9 ba 09 74 7d be 8e d9 01 be
       -0.14277324 -0.0019042053 -0.24751295 -0.12680647
0003b0 2a 58 fb 3d 80 59 9c bd b5 70 1f 3e b2 95 d8 bd
       0.12272675 -0.07634258 0.15570338 -0.10575427
0003c0 a4 68 9c be 58 de 54 3e 72 b5 1d 3d 64 ee 23 be
       -0.30548584 0.20787942 0.038503118 -0.16008908
0003d0 9c 84 86 3e f3 6e 42 3c 10 69 0f 3d d1 35 98 be
       0.26273048 0.011867273 0.035012305 -0.2972856
0003e0 55 4a 9d bd 17 7f 11 be 3a 5e 97 3c ba 5f 6d be
       -0.07680193 -0.14208637 0.018477548 -0.23181048
0003f0 17 7f 9f 3e fc 07 97 3e ca 2e bd bd 5e 7d a7 3d
       0.3115165 0.2949828 -0.0923744 0.08178209

lstm.bias_ih_l0 f4 [128]
000000 17 98 02 bd 1c c4 f7 3d 37 50 f3 bb 1e bc 37 be
       -0.031883325 0.12097952 -0.007425334 -0.17942855
000010 e9 2b ed bd 03 1d d7 bd 64 d6 0d be 1e 36 1c be
       -0.11580641 -0.105035804 -0.13851315 -0.15255019
000020 da c6 23 bd ef ca 00 3d 12 8d a4 be 26 93 a2 bd
       -0.03998456 0.031443533 -0.32138878 -0.079382226
000030 83 d3 13 bb c4 4d 68 be e8 c4 ec bd 5a a4 5e be
       -0.002255649 -0.22685915 -0.115609944 -0.21742383
000040 5e a6 a8 3d ac 08 80 3a 48 ff a8 3d 28 ca ca bc
       0.08234857 0.000976821 0.08251816 -0.024754599
000050 46 ad 87 bc 10 2e 0d 3e c4 59 b5 3d 09 9e f1 bd
       -0.016562115 0.13787103 0.08855012 -0.11797721
000060 99 4b c3 3d c2 2e 76 bb 22 85 23 be 2e ed 3d be
       0.095359035 -0.003756449 -0.15968755 -0.18547508
000070 0a 78 ff 3c 0e d0 fc 3d ce c1 fa 3d fa 94 8f 3d
       0.031185169 0.12344371 0.122439966 0.07010837
000080 40 7b ce bc 48 c6 ed bd e0 08 ef bd c7 53 98 be
       -0.025205255 -0.11610085 -0.11671615 -0.29751417
000090 57 61 a3 bd e1 df 03 be 30 0b 2e bc c7 ce fe bb
       -0.079775505 -0.12878372 -0.0106227845 -0.0077761146
0000a0 71 b5 e3 3c ef 1c 11 3e 76 21 50 be 1c 78 a8 3d
       0.027796479 0.14171194 -0.20325264 0.08226034
0000b0 0e ee 7b be b1 dd 70 be 76 5a a3 3d b4 a9 72 be
       -0.2460253 -0.23522069 0.079762384 -0.23697549
0000c0 4b 82 13 be 05 80 74 bd 2d a0 0d 3e 01 f8 13 3e
       -0.14405172 -0.0596924 0.13830633 0.14450075
0000d0 2d 1a 1a 3e 33 34 52 be b7 81 a2 bc 4b 34 b6 be
       0.15049048 -0.20527725 -0.019837243 -0.3558677
0000e0 48 90 a9 3d ca ab a4 bc 77 6d 5b bd b9 0b 5e 3d
       0.082794726 -0.020101447 -0.05357119 0.0542104
0000f0 4f ad 1e 3e 48 ff 54 bd d2 2f 3f be 73 90 85 bc
       0.154958 -0.052001268 -0.18670586 -0.01630423
000100 d5 28 3a 3e fd ed f9 bd 47 d4 dc 3c 9f 83 3f bd
       0.18179639 -0.12203596 0.02695669 -0.046756383
000110 e4 c5 f2 bd ba de c1 ba 87 f9 2b 3e 14 33 05 bd
       -0.11854151 -0.0014791109 0.16794406 -0.032519415
000120 44 ad 26 be 7a ad d0 3b 33 d1 c4 bd ff b3 e7 bc
       -0.16277033 0.0063683363 -0.09610214 -0.028284071
000130 0a 5d 23 3d 5c 03 fe 3c a6 f9 0e 3b bb 2b 73 bd
       0.03988365 0.031007461 0.0021816283 -0.059367876
000140 43 79 a6 3d 7b 25 65 3d dd 21 22 3e de f3 a1 3d
       0.081285976 0.055943947 0.1583323 0.07907842
000150 64 8c dd 3d 87 76 b4 3c 35 e9 ad 3c 6c ff a8 3d
       0.10817793 0.022029174 0.021229366 0.08251843
000160 3e bf 0f bd ad ea da 3d 06 0c 00 3e 18 6c 5f 3d
       -0.035094492 0.10689292 0.12504587 0.054546446
000170 08 64 0d 3d 0c 6f 4a 3c 1a 7a 09 3e 53 40 f3 3d
       0.034519225 0.012355577 0.13425484 0.11877503
000180 02 0f 18 3c 88 f3 8a bd 1e 76 bf 3d 0b 47 9f be
       0.009280922 -0.06784731 0.09348701 -0.3110889
000190 1c d1 98 bd 10 ce 30 be 66 a8 0d 3d 8f 13 3b be
       -0.074617594 -0.17266107 0.034584425 -0.1826918
0001a0 be 92 b1 3c b4 85 3f 3d 5b 04 c8 bd c7 d1 e2 38
       0.021676417 0.04675837 -0.09766456 0.00010815594
0001b0 dc f2 58 be 49 96 6f be e6 f1 f6 3d 69 02 5a be
       -0.21186393 -0.23397173 0.12057857 -0.21289982
0001c0 9c 1c f2 bd 54 5f 8a bc c3 a1 e3 3d 94 1c 32 be
       -0.11821863 -0.01689116 0.11114838 -0.17393714
0001d0 ef 22 83 bd cb 4e 1a be a8 dc c8 bd c3 08 aa be
       -0.064031474 -0.1506912 -0.09807712 -0.3320981
0001e0 4f ee 2c 3e 93 58 51 be 17 18 03 3c 90 c3 3b 3c
       0.16887783 -0.20443945 0.008001349 0.0114602
0001f0 b2 aa 20 be 9a 2b b2 3d 68 12 85 3d af 4b 00 bd
       -0.15690115 0.086997226 0.06497651 -0.031322177

lstm.bias_hh_l0 f4 [128]
000000 ed d1 48 3e 0b c2 3f be 03 d8 7c bd bf cd 01 be
       0.1961133 -0.18726365 -0.061729442 -0.12676142
000010 25 aa 08 bd 76 6c 5d bc 95 be b4 bd ef 70 c4 bd
       -0.033365387 -0.013514629 -0.08825413 -0.09591853
000020 b4 c0 18 3d 3f d1 10 3d 9d ac 85 bc f3 fe 51 be
       0.03729315 0.035355803 -0.01631766 -0.20507412
000030 85 6e 3f be de dc 06 be af 73 51 3e 92 7b 2a bd
       -0.18694504 -0.13170192 0.20454286 -0.041621752
000040 3d 31 08 be 18 25 3a 3c f6 54 9f bd 99 1d a7 3d
       -0.13300033 0.011361383 -0.07779877 0.08159942
000050 ad f1 3c 3e f3 4d 06 be 34 f0 13 be 1c c4 60 be
       0.18451567 -0.13115673 -0.14447099 -0.2194981
000060 ff e3 96 3d 07 da a4 bd 31 76 65 be 51 83 34 be
       0.073677056 -0.08049398 -0.22408368 -0.17628218
000070 0c cf c9 bd 95 5b fe 3d ed 4a df 3c 1b b9 77 3d
       -0.09853944 0.12419812 0.027257407 0.060479265
000080 13 ae 60 bd de 9a 23 be ea 54 88 bc 87 12 95 be
       -0.05485351 -0.15977046 -0.016642053 -0.29115698
000090 57 7f 07 bd 8e 35 14 be 78 0a 34 3e d6 01 0c bd
       -0.033080425 -0.14473554 0.17582119 -0.03418144
0000a0 55 ec 03 3e 97 ef 82 3d e2 fa 06 3d c1 b4 de bc
       0.12883122 0.063933544 0.032954104 -0.0271858
0000b0 c3 6c 5b bd 35 0c 33 be 79 45 03 3e bf be 98 be
       -0.05357052 -0.17485125 0.1281947 -0.29833028
0000c0 d8 bb 1a 3d 77 41 fe bd 11 71 25 3e b9 15 86 bd
       0.037776798 -0.1241483 0.16156413 -0.06547112
0000d0 54 33 53 3e b4 2e 72 bd bf a6 17 3e 90 43 1f be
       0.20625049 -0.05912657 0.14809702 -0.15553117
0000e0 06 f3 e8 3d 0e b0 58 bd 2e 65 fc 3c 4c 72 54 be
       0.11374478 -0.052902274 0.030809965 -0.20746726
0000f0 91 6b 03 3e f9 ab c5 3c 0e 43 30 3d 00 6d 0d 37
       0.12834002 0.024129855 0.0430327 8.429633e-06
000100 b1 84 af 3d 5b e2 7c bd bb bf b0 3d 27 98 d7 3b
       0.08570231 -0.061739307 0.0863032 0.0065794173
000110 4e ad 06 be 70 43 b0 bc 6f 34 0c 3e 72 37 c0 3c
       -0.13152048 -0.021516532 0.13691877 0.023463938
000120 cd 78 88 3d ea 85 14 3d 21 61 16 3e 26 6e 22 3e
       0.06663666 0.036260523 0.14685489 0.15862331
000130 7b 07 77 bd ea 49 2c be a0 bf 7e 3c f5 dc d2 3d
       -0.06030987 -0.16825071 0.015548617 0.102960505
000140 73 b2 b4 3d 05 c3 cc bd 5b 46 fe 3c 3d 5b 9f 3c
       0.08823099 -0.099981345 0.031039407 0.019452685
000150 d4 15 03 be b5 9d 21 bd b3 34 16 be b1 a0 32 be
       -0.12801296 -0.03945704 -0.1466854 -0.17444111
000160 3e b7 6d bd 3b e4 4e 3d 15 12 f7 bd 88 16 f6 bc
       -0.05803608 0.050510626 -0.12063996 -0.03004004
000170 ef 20 10 be 12 5f a6 3b 41 21 b3 bb 6d 62 9f bd
       -0.14075063 0.0050772512 -0.0054666107 -0.07782445
000180 0b 71 4a 3e 20 2e 57 be 68 18 ee 3d 1b e0 08 be
       0.19769685 -0.21013689 0.11625749 -0.1336674
000190 71 5f 80 3a 84 40 8e bd 97 dc 97 3d 88 7d 1f be
       0.0009794069 -0.06945899 0.07415121 -0.1557523
0001a0 e0 0c 09 bd 7d 8b d9 3c 05 27 e9 bc 04 5e 05 bd
       -0.033459544 0.026555771 -0.028460989 -0.032560363
0001b0 93 8f 12 be bf 3d 7a be 97 14 12 3e f0 af b7 bd
       -0.14312582 -0.24437617 0.14265667 -0.08969104
0001c0 58 78 a6 bd 54 9b b1 3d a0 52 6e 3d 66 3d 84 3d
       -0.081284225 0.086722046 0.058184266 0.06457023
0001d0 08 57 47 3e fe 37 bf bd 19 97 bd bc 0f a0 ba be
       0.19466794 -0.093368515 -0.023143338 -0.3645024
0001e0 91 0a a9 3c 5d 3b 41 be aa a8 4c be 5b 28 ac 3b
       0.020634921 -0.18870302 -0.19986215 0.005253834
0001f0 b0 a5 ec 3d bc 0c bd bd 1d 13 ff 3d 22 11 bc bd
       0.1155504 -0.092309445 0.124548174 -0.09182955

lstm.weight_ih_l1 f4 [128, 32]
000000 6d ef 5a 3d d2 05 95 bd 98 f1 dd 3d fd 71 c8 3d
       0.05345099 -0.07276501 0.10837096 0.097873665
000010 80 aa 2f 3e 67 59 0b be 2c 67 89 be b1 0e aa 3a
       0.17154884 -0.13608323 -0.26836526 0.0012974349
000020 7c 84 3b be e9 10 7e 3d a7 99 6f bc 6b ce 4f be
       -0.18312258 0.062027846 -0.014624036 -0.20293586
000030 d3 82 bb 3d 1e 72 aa 3c 0c b1 88 3d ab 7a 47 3e
       0.09155812 0.020806368 0.06674394 0.19480388
000040 b5 90 0e bc e5 5e 26 3e 4c 6a d1 3d 16 02 5e be
       -0.008701493 0.16247137 0.10225353 -0.21680483
000050 ae 38 83 3e 2b 19 29 3e e4 a6 24 be 63 52 34 be
       0.2562918 0.16513507 -0.16079289 -0.17609553
000060 3d f0 81 be 29 b5 2f 3e ed 7c b3 3d 6d 0f 50 be
       -0.253786 0.17158951 0.08764062 -0.20318384
000070 01 3c 97 3e 94 7d 7a 3e 74 35 3f be 4b 8b 83 3c
       0.29537967 0.24461967 -0.18672734 0.016057631
000080 40 75 18 3e 1b 6e 67 3e 1a 04 d5 3c 4a 73 d1 bd
       0.14888477 0.22600596 0.026002932 -0.10227068
000090 2c 90 6e 3c c8 ae fb bc 43 1a bc bd 97 1b 49 be
       0.01456074 -0.03072299 -0.091846965 -0.19639431
0000a0 cc c8 48 3c 1d 3c 2f 3e 89 b1 81 bc a3 e2 01 bd
       0.012254905 0.17112775 -0.015831726 -0.03171028
0000b0 5f d5 f3 3d 06 83 cf bd 17 cb 0e 3e 80 e2 a9 bd
       0.11905932 -0.101324126 0.1394466 -0.082951546
0000c0 df 7b 77 be f1 a6 e5 3d cf 2a 05 bd 5d 12 ba bd
       -0.24168347 0.11213482 -0.03251153 -0.09085534
0000d0 b2 d6 7f 3e 6d 9b 23 3e f6 54 a6 3d 30 1d a1 bd
       0.24984244 0.15977259 0.08121674 -0.07866895
0000e0 24 9d 99 be 27 ef c7 bd 72 d5 e1 3d 24 dd 2f 37
       -0.300027 -0.097624116 0.110270396 1.0482301e-05
0000f0 43 9d 2d 3e c9 9e 00 3e 3b 71 14 3d 3b cd 95 3e
       0.16954522 0.12560572 0.036240797 0.2925814
000100 82 be 68 be 9f 70 29 bd b6 9c f3 bd c3 40 7f bc
       -0.22728923 -0.04136717 -0.118951246 -0.015579405
000110 7d 85 20 3e 88 9b 46 bd ea 9a 3f 3e 1b 1a 5a 3e
       0.15675922 -0.04848817 0.18711439 0.21299021
000120 a8 95 30 bd 35 0b 96 3d 1a c6 a4 bd e1 04 03 3d
       -0.043111473 0.07326356 -0.080455974 0.031987075
000130 f4 5c 10 3e 95 1f a1 3d 95 07 d6 bd 2c d0 44 be
       0.14097959 0.07867352 -0.10450665 -0.19220036
000140 35 c1 89 3d 5d 74 46 be 7e c0 8b be 39 bb d4 3d
       0.067263044 -0.19380327 -0.27295297 0.103872724
000150 c5 a4 be bd e9 d6 5f be da 14 7e bd 0f c0 2f 3d
       -0.09308771 -0.21859325 -0.062031604 0.04290777
000160 5f ae 87 3e 1f e2 36 bd 62 bb 4e bd 8e b7 a4 3d
       0.26500222 -0.04464924 -0.05047167 0.08042823
000170 11 d0 36 bd 91 c9 88 3c 4c 85 cf bd 69 26 90 3d
       -0.04463202 0.016697677 -0.10132846 0.07038576
000180 fe 37 bc 3c 09 49 7b bd 8f 8c 05 be 35 66 ab 3d
       0.022975918 -0.06134895 -0.130419 0.08369104
000190 e2 bc 47 3d 8b d3 84 3d af f9 23 3e 77 f5 90 bc
       0.048764117 0.06485661 0.16013215 -0.017695172
0001a0 23 bd d6 3d f4 1b c5 3c 93 71 c7 bd 06 c1 d0 3b
       0.10485294 0.02406118 -0.097384594 0.0063706664
0001b0 43 93 fe 3d 93 fc 38 3e 1e c6 6d bd 85 fc 4a be
       0.12430432 0.180651 -0.058050267 -0.19822891
0001c0 51 92 b4 bc 72 8a 21 be 29 de a6 3c e0 29 78 bd
       -0.022042425 -0.15775469 0.020369606 -0.06058681
0001d0 10 ea d9 3c 2d 92 74 bd a7 43 34 3d 1d 98 13 3d
       0.026600868 -0.059709717 0.04400983 0.03603374
0001e0 38 d4 20 3d 47 ab 93 bd 71 d2 70 bd d7 10 2b be
       0.039264888 -0.07210403 -0.058794443 -0.16705643
0001f0 f6 dc cf bd 10 a6 f3 bc 81 fb 84 3d 66 ed 2d be
       -0.10149567 -0.02974227 0.06493283 -0.16985092
000200 76 38 77 bd bf e1 11 3e eb 86 25 bd 90 fe ff 3d
       -0.06035658 0.14246272 -0.04041187 0.12499726
000210 0f 68 cf bd 65 74 50 bd 6e 5e 4e 3c 75 75 66 3d
       -0.101272695 -0.050892252 0.012595756 0.05626436
000220 ee 6c 3f bd 32 b6 07 be ce 39 eb 3d 43 d3 01 be
       -0.046734743 -0.13253096 0.11485635 -0.12678246
000230 fc 97 b1 3d 5e bc 92 3e 72 69 85 bd 89 7f 79 3d
       0.08671567 0.28659338 -0.06514253 0.060912643
000240 99 cb 16 3e e4 6f 00 be af 12 8a be da 20 61 3e
       0.14726104 -0.12542683 -0.2696738 0.21985188
000250 fe 8b b8 bd c1 fc 2b bd 28 70 5e 3d 86 4c 30 3e
       -0.090110764 -0.04198909 0.05430618 0.17216691
000260 d0 1f 4c 3d 8c 9b 9e bd 94 c7 11 be 27 d4 12 be
       0.049835026 -0.07744512 -0.1423629 -0.14338742
000270 fb ec d1 3d 79 da d1 bd d5 34 05 be 4c 3e 12 3d
       0.102502786 -0.102467485 -0.13008435 0.035703942
000280 eb a2 18 3d 08 eb fd bd 88 43 1e be 7f 10 f5 3d
       0.037264746 -0.12398344 -0.15455449 0.11966037
000290 65 08 e8 bd 86 93 33 3c 32 48 be 3c b1 46 de bd
       -0.11329726 0.010960465 0.023227785 -0.10853327
0002a0 af a7 56 3e 35 66 d8 bb f1 22 f9 3d a6 2f 09 be
       0.20962404 -0.006603981 0.12164868 -0.13397083
0002b0 eb f9 3d be db 32 e1 bc aa 9b e2 bd 85 54 d4 bd
       -0.18552367 -0.02749007 -0.11064847 -0.10367683
0002c0 93 e5 52 3e 4d 98 40 3d 64 00 8f 3c e9 c4 3a 3e
       0.20595388 0.047020245 0.017456241 0.18239178
0002d0 77 4a 6f bd 44 88 f1 bd ab 28 5a 3e 1e 22 3f 3e
       -0.058420625 -0.11793569 0.21304576 0.18665358
0002e0 81 65 31 bd b9 6a 9d 3d 75 be 0f be 9b 0b 90 bd
       -0.043309692 0.07686371 -0.14037497 -0.070334636
0002f0 5f 8a 73 bd 59 3e ec bd 9a 05 c0 3c 46 e1 a2 bb
       -0.059458133 -0.11535329 0.023440171 -0.0049707023
000300 96 96 41 bb 16 ba 4b 3c a5 43 f5 3d 02 dc 84 3d
       -0.002953922 0.012434503 0.11975793 0.06487276
000310 1a ba 8e 3e 97 ed b5 bd ae a1 0c bd 16 4d 29 be
       0.2787636 -0.08883207 -0.034333877 -0.16533312
000320 b7 c2 60 be 48 2c fd 3d 55 5b 2f bc 56 31 8a bd
       -0.21949278 0.123619616 -0.010702928 -0.06747691
000330 04 d2 7b 3c 76 05 9b 3c c0 a9 65 3e 01 a1 ff ba
       0.015369896 0.018923502 0.22428036 -0.0019502939
000340 88 bf 85 bd f8 c7 41 bd fd 7e 51 be e9 e9 a6 bd
       -0.06530672 -0.047309846 -0.20458598 -0.081500836
000350 1e 37 43 3e 4b 07 17 3d 60 0c 1e be d5 86 ac bd
       0.19063994 0.03687219 -0.15434408 -0.08424155
000360 1d d2 75 bd 06 a0 9d bc 63 44 05 3e 58 f1 3c be
       -0.060014833 -0.019241344 0.13014369 -0.1845144
000370 21 47 d1 bc 11 84 b7 3d ce ff 81 bd 49 28 4c bc
       -0.025546612 0.089607365 -0.06347619 -0.012460777
000380 7a 73 31 3e 90 7d 86 3d f2 8d 07 3e 6f 1c 31 3e
       0.17329207 0.06566918 0.13237742 0.17296003
000390 32 50 92 3d 8e 63 bf 3d 96 30 e3 bd bd 10 ba 3d
       0.07144202 0.093451604 -0.110932514 0.09085224
0003a0 c0 90 48 bd 05 9d d0 3d 64 70 24 3d 2b 5e df 3c
       -0.04896617 0.10186199 0.040146247 0.027266582
0003b0 13 79 03 be a2 d7 30 3d b2 63 b5 ba d5 7e 5b 3c
       -0.12839155 0.043174393 -0.0013838916 0.013396938
0003c0 5c c4 0f be 08 06 d7 39 50 c1 f0 3c 95 73 92 be
       -0.14039749 0.0004101249 0.029389054 -0.28603807
0003d0 2f 99 05 3e 31 4b 5a 3d 4e e8 80 be 43 de fb bd
       0.13046716 0.053294364 -0.25177234 -0.122982524
0003e0 cd bd 40 bd 99 51 9d 3d 8e 11 ce 3c 14 bf 2e 3c
       -0.047056008 0.07681579 0.025154855 0.010665674
0003f0 24 b6 28 3e 23 04 02 bd 4c b9 b0 bc ad fa 27 3e
       0.16475731 -0.031742226 -0.021572731 0.16404219

lstm.weight_hh_l1 f4 [128, 32]
000000 f5 37 ae bc 81 c8 eb bd 38 a3 8c bd 1a a3 79 3e
       -0.021266917 -0.115128525 -0.06867069 0.24378625
000010 98 ce 91 bd dd fb 13 be 24 d7 6c bd a9 05 52 3e
       -0.07119483 -0.14451547 -0.05782236 0.20509972
000020 05 95 96 bd f8 94 68 3e 32 db 05 bd c9 c1 a1 bd
       -0.07352642 0.22713077 -0.032679744 -0.0789829
000030 db e9 9b 3b f1 c2 4a 3d 41 04 d5 bd 63 ef 2d 3e
       0.0047581024 0.049502317 -0.10401202 0.1698585
000040 11 cb 7c be b5 06 4f 3e 58 81 41 be 8a 56 41 bd
       -0.24686839 0.20217402 -0.18896997 -0.04720167
000050 64 ad e3 bd 1a 67 c0 3c 05 06 e7 3d 4e f9 45 be
       -0.11117056 0.023486663 0.11280445 -0.19333383
000060 d5 d1 8f 3d f3 0d 69 bd e6 74 7a bd ba b5 1d 3c
       0.07022444 -0.05689807 -0.06114664 0.0096258465
000070 99 82 93 3d 1b 6e 30 3d 1f 6a 2e be c8 2a bc 3d
       0.07202644 0.043073755 -0.1703267 0.091878474
000080 39 70 ee 3c 64 59 ae bd c0 e4 a0 bc a7 e1 f1 3d
       0.029106246 -0.08513144 -0.019640326 0.11810618
000090 43 c0 09 3e 34 f7 09 be 4a 94 9b 3c f9 07 f8 bd
       0.13452248 -0.13473207 0.018991608 -0.12110896
0000a0 dc fd 44 3e b7 a9 3d 3e dc bf 33 bd 30 5e 1e 3e
       0.19237465 0.18521772 -0.043884143 0.15465617
0000b0 6b 4d 0d 3d 84 31 64 3e 4a 0d a6 3d 0f 46 f6 3d
       0.03449766 0.22284514 0.081080034 0.12025081
0000c0 38 8a ae bd a3 fb 67 3e f3 fc de bd 76 2b f4 bc
       -0.08522457 0.22654586 -0.1088809 -0.02980588
0000d0 a4 f8 ce bd 43 04 ac bd ee 76 d7 bd ff 8d 10 3e
       -0.10106018 -0.0839925 -0.10520731 0.14116667
0000e0 30 d3 b3 3d d0 23 6f 3e b3 f3 e0 3d b4 55 10 bd
       0.08780515 0.23353505 0.10983982 -0.035237983
0000f0 40 37 b6 3d c4 29 a9 bd c3 80 3e be a9 b0 f6 bd
       0.08897257 -0.08259919 -0.18603806 -0.12045414
000100 ce ad 3f 3e 07 fb 0c be ea 9e 1a 3e 64 fb cb 3d
       0.18718645 -0.13767634 0.15099683 0.09960058
000110 fe 34 2b 3e a5 04 26 be 05 8c da 3d 12 16 8e 3d
       0.16719434 -0.16212709 0.10671238 0.06937803
000120 5c 45 10 be d3 58 a2 bd 2a ac 32 bd 6e 00 0f 3e
       -0.14088959 -0.07927098 -0.04362122 0.13965008
000130 90 b2 73 3d 6e d8 22 3e fd fa fd bd 66 11 0a 3e
       0.059496462 0.15902874 -0.12401388 0.134832
000140 48 0d 88 bd d0 69 bc 3c c0 b5 0a 3e 94 33 9e 3d
       -0.06643158 0.022999674 0.13545895 0.077246815
000150 13 26 4f 3c 97 ad 48 be c7 7b 1b be fe 17 48 3d
       0.012643355 -0.1959747 -0.15183936 0.048851006
000160 c4 e1 a5 bd 16 87 b8 3c ab ee cd 3d b5 67 73 3d
       -0.08099702 0.022525351 0.10055288 0.059425075
000170 6d 95 95 3d 3b b1 9a bd 55 10 f8 3d 88 99 89 3d
       0.07303891 -0.07553335 0.1211249 0.06718737
000180 3b 1a a2 3d 8c 88 44 be 7f 32 48 3d 2f e3 b2 3d
       0.07915159 -0.19192713 0.04887628 0.08734738
000190 d0 0c 87 bd a6 30 1a be 36 98 14 3e 30 dd 7d 3d
       -0.06594241 -0.1505762 0.14511189 0.06197852
0001a0 7d 78 45 3d bd 66 31 3e 99 dc 19 bb 78 c3 e9 3d
       0.04821061 0.17324348 -0.0023477434 0.11414236
0001b0 fe d1 37 be eb 69 a6 3c 0d 9d ad bd 22 a5 11 be
       -0.179512 0.020314177 -0.08477221 -0.1422315
0001c0 eb e5 85 3d df 80 f0 bc d5 f2 0f bc 35 c6 94 3d
       0.06537994 -0.029358326 -0.008785923 0.072643675
0001d0 af c9 6f 3e d4 f0 9d bb 42 b2 4d bc 72 78 36 be
       0.2341678 -0.0048199687 -0.012554707 -0.17819384
0001e0 94 3f 96 3c cb 19 8c 3d ca 46 60 3e 47 89 88 bc
       0.018340863 0.06840857 0.21902004 -0.016667021
0001f0 79 b8 30 3e 7f 77 ff 3d dd 9f e3 3d b7 a0 52 bd
       0.1725787 0.12473964 0.11114476 -0.0514228
000200 2b 6c 1a bd e9 1b 35 be 20 a6 60 3d ea aa 18 bc
       -0.037700813 -0.17686428 0.05484593 -0.009318093
000210 a9 01 14 be 1d f0 09 3e 87 a3 c1 bd 30 63 f4 bd
       -0.14453758 0.13470502 -0.094550185 -0.11932981
000220 1b 4c 1f be 80 56 0e 3e 68 7a 2d 3d 2d 36 f4 bc
       -0.15556376 0.13900185 0.042353064 -0.02981099
000230 fd 49 53 be 79 a5 52 3d 62 86 26 3e 21 52 1e bd
       -0.20633693 0.05142734 0.162622 -0.038652543
000240 e4 79 97 3d 01 89 94 bd 77 13 a6 bc d2 c6 a8 bd
       0.07396296 -0.07252694 -0.020272953 -0.08241047
000250 b1 37 36 bd f8 8f c5 bd fa af 90 3d 45 a4 0a be
       -0.044486705 -0.096466005 0.07064815 -0.13539226
000260 ea 97 34 3d 4a cd ed bc c7 17 2c 3e b4 4b 42 be
       0.04409019 -0.029028554 0.16805945 -0.18974191
000270 98 81 1b be 4c 08 10 bd 56 e4 e6 3d cd 38 2b 3e
       -0.15186155 -0.035164163 0.112740204 0.16720887
000280 bb 28 88 3d 84 9b 66 be 49 bd d4 3c 85 0a 36 3e
       0.06648394 -0.22520262 0.025969164 0.1777745
000290 f4 46 f0 3d 91 8c 31 be 9f 28 d0 bc 80 0e 03 bd
       0.11732283 -0.17338778 -0.025409995 -0.03199625
0002a0 be 15 0c be da c3 24 3e 1d 62 2b 3e d5 c6 95 bd
       -0.13680169 0.16090336 0.16736646 -0.07313315
0002b0 b8 cd 3b be d3 00 ad bd fb cf b7 3d d2 28 d6 bc
       -0.18340194 -0.08447423 0.08975216 -0.026142512
0002c0 77 78 48 bd 3f 5c 00 3e d0 be 0a be 66 c7 a3 bd
       -0.04894301 0.12535189 -0.13549352 -0.079970166
0002d0 d5 d0 09 3d f9 b0 dd 3d 8f d2 f7 3d 8f 9f 15 bd
       0.033646423 0.108247705 0.12100708 -0.03652912
0002e0 c9 ed 02 be ab 3e 0e 3d b9 e8 2b 3d 04 9c f5 bc
       -0.1278602 0.034727734 0.04196999 -0.02998162
0002f0 db 57 af bd c4 87 b8 3d 16 04 93 3d 08 f4 d3 3d
       -0.08561679 0.0901027 0.07178514 0.1034928
000300 57 6a da 3d 28 d8 5e 3e 8d 88 2b be 26 d1 32 3e
       0.10664814 0.21762145 -0.16751309 0.17462596
000310 15 ab 94 bc 5b df 00 3d 86 39 84 3e 20 fa 5f 3d
       -0.018147985 0.03146301 0.25825137 0.054681897
000320 a7 16 57 3d 1f 41 f7 3d e8 4d c4 bd 21 bd d2 3d
       0.052511837 0.12072968 -0.09585172 0.1028998
000330 93 d5 6b 3e 46 67 36 3e b0 42 1c be f6 e6 c2 bc
       0.23030691 0.17812833 -0.15259814 -0.023791771
000340 f0 ab 87 be ed 19 a3 3d 59 fa f3 bd 0a 59 7c 3d
       -0.26498365 0.07963929 -0.119129844 0.06160835
000350 4c ff ce 3d eb 28 01 be dc e5 50 be ff 60 98 3c
       0.10107288 -0.12613265 -0.20400184 0.018600939
000360 ae 75 b8 3c 6b c4 a3 3e 77 3a 91 3c 3f d4 5a 3d
       0.022517052 0.31985793 0.017728074 0.05342507
000370 2a 7a 3e be db b6 95 bc 35 27 1a 3d 6a 12 64 be
       -0.1860129 -0.018275669 0.037635047 -0.2227265
000380 07 1c df 3d c8 02 28 bc a6 01 8b be 86 9c 08 bc
       0.10894018 -0.010254569 -0.27149695 -0.008338099
000390 bf bc 61 3b 32 41 94 bd 5b 00 78 bd be ed 01 3e
       0.0034444777 -0.072389975 -0.060547214 0.12688348
0003a0 5e 1c b9 3d 59 6d 7e 3e 5b 96 fa bd 0e 5f 62 3e
       0.09038614 0.248464 -0.12235709 0.22106573
0003b0 47 44 c8 bd 57 cb 30 bd 14 d6 2e bd 89 e5 22 3e
       -0.09778648 -0.04316267 -0.04268463 0.15907873
0003c0 f1 d7 72 be 1e d0 3c 3e 4f 6a e5 3d c6 4f 1f 3e
       -0.23715188 0.18438765 0.112019174 0.15557775
0003d0 db c7 8b 3c c9 2e 71 3d f8 22 ca bd 22 a7 e2 3d
       0.017063072 0.05888251 -0.09869951 0.11067034
0003e0 66 67 86 3e 6d 7e 19 3c 86 58 5d bb a7 ea 42 3e
       0.26250762 0.009368521 -0.0033774688 0.19034825
0003f0 fb 7c 31 be 36 ed 95 bd b7 f7 1c bd a8 a3 45 3d
       -0.17332833 -0.07320635 -0.038322177 0.048251778

lstm.bias_ih_l1 f4 [128]
000000 9d a7 45 be f7 17 de bd 2a 8b 2d 3d a1 49 5e bd
       -0.1930222 -0.10844415 0.042369045 -0.054269437
000010 c6 54 c7 3d fa e6 04 be fb 37 96 be e8 b0 f7 bd
       0.09732966 -0.12978736 -0.29339585 -0.12094289
000020 17 a1 4b 3c 2d a4 92 3d c7 44 d8 ba 58 b8 46 3e
       0.0124285435 0.0716022 -0.001649999 0.19406259
000030 f1 74 12 be 73 13 3d 3e 05 51 a3 3d 15 07 43 3e
       -0.14302422 0.1846445 0.079744376 0.1904567
000040 75 07 98 bd 6e f2 58 be c3 ad 4c bc 18 f6 94 be
       -0.07423297 -0.2118623 -0.0124926 -0.29094005
000050 ec c6 7d be bf ad 68 3d 33 be a3 3c 18 b1 8c bc
       -0.24782914 0.056806322 0.019988155 -0.017174289
000060 2b 43 c4 3d 08 d2 0e 3e 06 f9 1d 3d 11 31 8e ba
       0.09583124 0.13947308 0.038567565 -0.0010848363
000070 f6 c9 bf bd 60 87 2d 3d ec be c9 3d 18 cd 2d 3e
       -0.09364693 0.04236543 0.098508686 0.16972768
000080 a4 fe 83 3d fe 32 c9 bb 97 06 54 bd 97 5c 18 bd
       0.06445053 -0.006140112 -0.051764097 -0.037197676
000090 88 ac 47 3e 51 13 aa 3d fa 8c 40 be 4e 70 35 3d
       0.19499409 0.083044656 -0.18803778 0.044296555
0000a0 ba 5f b3 3d e1 8c 0a be c8 24 2c 3e 4a 87 e7 bd
       0.08758493 -0.13530304 0.16810906 -0.11305101
0000b0 e3 f1 fa bd fb 00 06 3e 0f bf fd 3d fa e2 2b 3e
       -0.122531675 0.13086312 0.12389957 0.16785803
0000c0 2a 54 d5 bd f1 6d ef 3d d4 d3 ac 3d f4 84 05 be
       -0.10416444 0.116908915 0.084388405 -0.13038999
0000d0 0b dc 56 be 5d 1a 88 bd c4 6b 03 3c 52 2c 7e 3d
       -0.20982377 -0.066456534 0.008021299 0.062053986
0000e0 bd a9 59 bd e3 82 a9 3d f0 86 61 be 89 66 9c bd
       -0.05314039 0.08276918 -0.22024131 -0.076367445
0000f0 26 87 cc 3c 54 88 2e 3e 33 55 14 be ce 9d c9 bd
       0.024966788 0.17044193 -0.14485626 -0.09844552
000100 20 27 b2 3d 4b bc 60 bd f3 de 6a 3e f1 85 14 be
       0.08698869 -0.05486707 0.22936611 -0.1450422
000110 c5 82 03 be eb 91 6c 3d 14 6c 7c bd b4 53 87 bd
       -0.12842853 0.057756346 -0.06162651 -0.06607762
000120 6c 03 48 bc 14 b1 d6 3b d8 fc 25 3e 2b ed 4c be
       -0.012207847 0.006551871 0.16209733 -0.20012347
000130 8f 65 9c 3d df 1e af bd 3e d5 03 3e eb 18 23 bb
       0.07636558 -0.0855081 0.12874314 -0.0024886678
000140 be ca 85 bd 28 1d ec bd 3b 74 3e 3e 92 38 a8 3c
       -0.06532811 -0.115289986 0.18599026 0.020534787
000150 25 e8 b8 bd ee ac 65 bd e6 a1 00 3e 08 e8 06 3d
       -0.09028653 -0.05607312 0.1256176 0.032936126
000160 44 15 d6 3c 67 6a 40 be 39 1a 54 3d 58 46 20 be
       0.026133187 -0.1879059 0.05178282 -0.15651834
000170 85 14 4f 3d 87 d6 ba bd 2e ba 79 3d aa 2c b5 bd
       0.05055668 -0.09122949 0.06096857 -0.088464096
000180 68 16 78 be a9 6c 43 be ce 8b df bd 5d e1 0b 3e
       -0.24227297 -0.1908442 -0.109153375 0.13660188
000190 a3 4e 23 bc 82 5b 25 3c 31 1a 89 bd 62 7a 65 bd
       -0.009967479 0.010092618 -0.06694449 -0.056024916
0001a0 a4 48 1d 3e 21 cf d0 3d 40 ab 02 be d3 b4 9c 3c
       0.15359741 0.10195757 -0.12760639 0.019129192
0001b0 5f 3d 92 bc 96 92 f7 bc b7 ae 86 3d 7e 05 4b 3e
       -0.01785153 -0.030221265 0.06576293 0.19826314
0001c0 89 1b 87 bd 04 be 4c bc 20 49 8d bd dd 91 18 be
       -0.06597049 -0.012496475 -0.06898713 -0.14899392
0001d0 ce f9 21 be de 55 20 be 9f 67 67 be b8 75 98 bd
       -0.15817949 -0.15657756 -0.22598122 -0.07444328
0001e0 8d e8 51 bc e3 bb ad 3d 34 fa 03 be 87 72 f1 3d
       -0.012811792 0.08483102 -0.12888414 0.117894225
0001f0 f5 75 d6 bd ca 5f 19 bd 2a 51 d9 3c be a2 9d 3d
       -0.10471717 -0.037444867 0.02652796 0.07697056

lstm.bias_hh_l1 f4 [128]
000000 af 2f 09 bd aa 43 ad bd 34 f4 b0 3d 2b 51 94 3d
       -0.03349274 -0.084601715 0.08640328 0.07242044
000010 85 ad 38 bd 62 7c 0e be fc 20 47 be 48 1d bf bd
       -0.045087356 -0.13914636 -0.19446176 -0.09331757
000020 4f 76 f5 3b fa 09 01 3e b7 33 0d 3e 22 5c 55 3e
       0.00749091 0.12601462 0.13789259 0.20835927
000030 a6 a5 1d be d8 66 20 bd d2 0e 0a 3e 03 0c 06 3c
       -0.15395221 -0.03916058 0.13482216 0.008181575
000040 08 db 42 3c 9c c9 49 be 50 3d 28 bd 91 61 68 be
       0.011893041 -0.19705814 -0.041074097 -0.22693469
000050 db a8 c4 bd 46 2a 11 bc 7f 9f 09 3d df e5 96 bd
       -0.09602519 -0.008860176 0.033599373 -0.07368063
000060 a8 07 d8 bc 9c da a3 3d ac 01 20 be 2b c5 3b 3d
       -0.026370838 0.08000681 -0.15625638 0.04584233
000070 34 94 9c bd 14 fb 31 3e 48 65 b9 3d 67 9f c5 bd
       -0.07645455 0.17380935 0.09052521 -0.09649544
000080 c1 a1 3e be 02 1a 12 bd 23 d3 d6 bd 32 ad 21 3e
       -0.18616392 -0.035669334 -0.1048949 0.15788725
000090 50 44 bc 3d 68 38 ec 3d fa 8c c1 bd c1 01 95 bc
       0.09192717 0.11534196 -0.09450717 -0.018189313
0000a0 6a f2 fe 3d f1 db 99 bd ce f0 13 3c 05 3a 39 3e
       0.124485806 -0.075126536 0.00902958 0.18088539
0000b0 dc e3 fb bd 05 c0 ed 3d 2c 47 cd bd f4 23 4f 3d
       -0.1229932 0.116088904 -0.100233406 0.050571397
0000c0 e5 ad 83 bd 1f e3 39 be b1 a5 a4 3c a6 54 4d be
       -0.06429652 -0.18153046 0.02009854 -0.20051822
0000d0 a9 4a a2 bd bd 09 9f bc 90 60 41 be ee 24 54 3b
       -0.079243965 -0.019413823 -0.18884492 0.0032370645
0000e0 d2 e8 98 3d 7b 58 3f 3e 8c 45 82 3b d1 95 07 be
       0.07466282 0.18686096 0.003975576 -0.13240744
0000f0 82 ba 4a 3d e7 2e c8 bc ad dc b0 bd 73 41 0d bd
       0.049494274 -0.024436427 -0.086358406 -0.034486245
000100 79 b9 1e be 9f 24 4d bd e3 54 7b 3d 8c 50 b7 bc
       -0.1550044 -0.050083753 0.06136025 -0.022377275
000110 6c a5 47 be 06 88 dc 3c 00 d9 df 3b 80 a9 c8 bd
       -0.19496697 0.02692033 0.0068312883 -0.097979546
000120 be 5f 3c be c4 a4 02 be ba 5b 8e bd 92 77 c9 bd
       -0.18395898 -0.12758166 -0.06951089 -0.09837259
000130 50 ac 33 bd 67 1e 21 be d3 f3 71 3e f2 d0 1e be
       -0.043865502 -0.15734254 0.23628168 -0.15509394
000140 3f 8a 47 3e 9b e0 66 bb 1b 48 0c 3d fa e4 d1 bd
       0.1948633 -0.003522909 0.034248453 -0.10248752
000150 cb ea 60 bc 4e 96 8d 3d dc 30 85 3d eb ff a1 bc
       -0.013727854 0.06913434 0.0650346 -0.019775352
000160 e0 b4 54 be 91 8e 56 be 29 a5 0a bd 32 b5 60 be
       -0.20772123 -0.20952822 -0.033848915 -0.2194412
000170 8e 70 3f 3e 7f 17 40 3e 9a d8 27 3d ad 8e 50 3e
       0.1869528 0.18758963 0.04097805 0.20366926
000180 f2 65 5e be 3f 0a 7f be 00 89 c4 bd bf 76 c5 3d
       -0.21718577 -0.24906252 -0.09596443 0.0964179
000190 4c 7c 4a bd cd 38 f3 3d c3 d3 be bd 75 f7 7b be
       -0.049434945 0.11876068 -0.09317734 -0.24606116
0001a0 29 b9 ed 3b 49 72 34 3e aa 70 07 bd 4a e5 2b 3e
       0.007254739 0.17621721 -0.03306643 0.16786686
0001b0 3f 6e ab bd 10 60 a7 bc 81 13 d2 bd 55 58 a8 bd
       -0.08370637 -0.020431548 -0.10257626 -0.08219973
0001c0 aa 0a 22 3e ee f5 64 be 58 a7 f7 bc cc a1 2c be
       0.1582438 -0.2235944 -0.030231163 -0.16858596
0001d0 64 62 cb 3d aa 5e 28 be ef aa 3b bc 28 d3 2b be
       0.09930876 -0.16442361 -0.011454328 -0.16779768
0001e0 0a 61 73 3d c5 e1 82 bd 45 a5 7d 3d 0d 1c 44 3e
       0.059418716 -0.06390718 0.06192519 0.19151326
0001f0 85 7e 9b bd 95 83 6b 3c c4 e8 56 bd 62 96 99 3d
       -0.07592491 0.014374633 -0.052468076 0.07499386

fc.weight f4 [1, 32]
000000 34 bf 0e 3d 37 be 60 bd e6 57 c4 bd 65 43 d8 3d
       0.034850314 -0.054868903 -0.09587078 0.105597295
000010 00 95 0d 3e 04 96 58 be e7 f2 6d 3c aa 2f a0 3d
       0.1382637 -0.21150976 0.014523244 0.07821591
000020 a7 9f 78 3d 93 a5 2e 3e c2 5d a2 bd 05 ec 13 3e
       0.06069913 0.17055349 -0.07928039 0.14445503
000030 07 c3 f6 bd 3e 5e e8 3d 97 a1 31 be 19 60 1b 3e
       -0.12048917 0.113461 -0.17346798 0.15173377
000040 ff 04 ae bd c3 7a 30 3d 30 dd f6 bd 79 04 84 3c
       -0.08497047 0.043085825 -0.12053907 0.016115414
000050 78 a3 9d 3d e1 67 44 bd 0e eb 08 bd 84 6e 3d bd
       0.07697195 -0.04795063 -0.03342729 -0.046247974
000060 0e 4c 58 3e c5 06 b6 3d 41 90 da 3d 21 49 66 3e
       0.21122763 0.0888801 0.106720455 0.22488834
000070 cd a8 17 be bf 3e 13 be 0a 65 06 bd 9a ae 76 bd
       -0.14810486 -0.14379404 -0.032811202 -0.060225107
