backend/stocks/price/pt_models/ABOS.pt (torch, 54435 bytes, 9 tensors)

lstm.weight_ih_l0 f4 [128, 1]
0.069567055 -0.24805294 -0.16102113 0.0057955477 -0.14174221 0.3729097 0.2191629 0.14268239
-0.15212302 -0.004539122 -0.21512176 -0.10853539 -0.19251288 -0.23037483 0.09731458 0.05124431
-0.002627196 -0.11848229 -0.25610733 -0.16765653 0.036062077 -0.15296282 -0.063918985 -0.12904665
-0.13736962 -0.0019374401 -0.020512538 0.06895205 0.18142226 -0.15447854 -0.23449281 0.11346716
-0.16633517 -0.16845678 -0.06934292 0.16140382 -0.23462355 0.24396782 0.18353401 0.118471496
-0.03827827 0.12747794 -0.20603319 0.05514702 -0.24721608 -0.005484305 0.047621906 0.28358796
-0.15801762 -0.14760254 -0.24987775 -0.06685756 0.033230983 -0.28953445 0.15738006 -0.07836542
-0.13236457 -0.16384113 0.003986076 0.19979443 -0.030490091 0.045882322 0.017628131 -0.0012753444
0.28518027 -0.04065609 0.33969116 -0.19183992 0.37462738 -0.3626223 -0.30594733 0.30837464
0.013005314 0.24234705 0.3301457 -0.30916718 0.24675782 0.24744484 -0.07756399 -0.28858182
-0.28409424 -0.21278991 -0.07020389 -0.12370548 -0.22931242 -0.26958725 0.34452146 -0.19545314
-0.17387146 -0.06256945 0.19522882 -0.30011293 0.12997952 0.15356547 0.25585786 -0.3331593
0.050782587 -0.10438674 -0.19884413 0.2117225 -0.28702992 0.4130742 0.0741684 -0.09384444
-0.06484588 0.13353471 -0.13876344 0.1609889 -0.18341829 -0.1821371 -0.16420154 0.22050513
-0.018718343 -0.032178648 -0.078654855 -0.063272946 -0.22115222 -0.03127067 0.039271556 -0.23932047
-0.05649467 -0.06599346 -0.027324915 0.07426027 0.18605384 -0.18096864 0.014638019 -0.21280651
00000000: 2c79 8e3d 9701 7ebe b9e2 24be 94e8 bd3b
00000010: df24 11be 05ee be3e 3d6c 603e 551b 123e
00000020: 23c6 1bbe eabc 94bb e148 5cbe cd47 debd
00000030: 1922 45be 61e7 6bbe de4c c73d 8ee5 513d
00000040: 092d 2cbb d8a6 f2bd 8020 83be 27ae 2bbe
00000050: d4b5 133d 49a2 1cbe f5e7 82bd ce24 04be
00000060: 9faa 0cbe b4f1 fdba e909 a8bc bb36 8d3d
00000070: c2c6 393e 9f2f 1ebe e21e 70be 7861 e83d
00000080: c453 2abe ef7f 2cbe a903 8ebd 0b47 253e
00000090: 2841 70be b3d2 793e 57f0 3b3e 2fa1 f23d
000000a0: adc9 1cbd 9489 023e 5dfa 52be d7e1 613d
000000b0: 3626 7dbe afb5 b3bb 300f 433d 7132 913e
000000c0: 5fcf 21be 1f25 17be f4df 7fbe 9eec 88bd
000000d0: 361d 083d dc3d 94be 3d28 213e 0d7e a0bd
000000e0: 948a 07be f8c5 27be a19d 823b e996 4c3e
000000f0: 5bc6 f9bc 1aef 3b3d df68 903c 7529 a7ba
00000100: 2603 923e 0087 26bd 00ec ad3e af71 44be
00000110: 29cf bf3e a1a9 b9be 21a5 9cbe 48e3 9d3e
00000120: 3e14 553c d329 783e db08 a93e 294b 9ebe
00000130: 15ae 7c3e 2e62 7d3e dfd9 9ebd ffc0 93be
00000140: cd74 91be 99e5 59be 0fc7 8fbd 4c59 fdbd
00000150: e0d0 6abe 5707 8abe 1e65 b03e de24 48be
00000160: 5c0b 32be 6924 80bd 10ea 473e 67a8 99be
00000170: 5a19 053e 4440 1d3e cdff 823e db93 aabe
00000180: 6701 503d b7c8 d5bd cc9d 4bbe c8cd 583e
00000190: 96f5 92be 767e d33e 9ae5 973d 8431 c0bd
000001a0: ebcd 84bd 53bd 083e 0118 0ebe 46da 243e
000001b0: 01d2 3bbe 2682 3abe 7324 28be 19cc 613e
000001c0: 3657 99bc c2cd 03bd cc15 a1bd 3f95 81bd
000001d0: ba75 62be ad15 00bd 36db 203d 6d10 75be
000001e0: f566 67bd 9427 87bd 80d8 dfbc c515 983d
000001f0: e684 3e3e d84f 39be 4dd4 6f3c f3e9 59be

lstm.weight_hh_l0 f4 [128, 32]
0.117157444 0.111441106 -0.14818665 0.09422211 -0.028798899 -0.16226977 -0.2745367 0.05013026
0.14905111 0.033871554 0.036893904 -0.002741059 0.10489897 -0.0021166024 0.02289179 -0.17483361
0.116428 0.007585731 0.121732585 0.02369979 0.17011276 0.1545494 0.10571066 -0.024604281
-0.11670079 0.05823755 0.035247367 -0.026016325 0.14122212 -0.2113436 0.03949139 0.16043696
0.09570303 0.25420365 0.030447988 0.059284456 0.17572632 -0.03280234 0.12166425 -0.14901003
-0.21917833 0.2038395 -0.09619258 0.027403764 0.14878789 0.05540422 0.13717213 -0.028036982
-0.011879947 0.08422342 0.02492504 0.018530922 0.046962745 -0.09049655 -0.031700075 -0.0824311
-0.2485692 -0.09565556 0.21617314 0.07621502 0.17924158 0.08867737 0.08842391 -0.087607965
0.020748302 -0.1824962 -0.077886574 -0.010410196 -0.1690952 0.10111984 0.012963029 0.05904229
0.22352108 -0.10099128 0.046809945 -0.0024672598 -0.16307543 0.04302097 -0.20291843 -0.16046079
0.0946109 -0.098899946 -0.028572954 -0.026617054 0.09991982 -0.083735034 0.0591721 0.05818328
0.049781878 0.23082486 -0.17862716 -0.08412633 -0.06803097 0.08141683 -0.1525359 -0.0395047
0.04614253 0.065717086 0.026973603 -0.108654894 0.16063644 -0.17835088 -0.09521915 -0.121512234
0.026110798 -0.061778348 -0.012899549 -0.23757437 0.14974107 -0.014076564 0.086923055 0.083060995
-0.052043814 0.033633795 -0.12818724 -0.09345874 -0.22676358 0.06743142 0.017013282 -0.24113162
-0.13527983 0.07291092 0.13566786 0.15750605 -0.108963504 0.033227902 0.14505242 -0.06072812
0.07416236 -0.13324882 0.051794343 0.044167496 -0.23744744 0.17817357 0.21040331 -0.24789876
-0.016400803 -0.18749696 -0.20319599 0.027668096 -0.116943 -0.03009667 -0.15816078 0.14560919
0.17504637 0.046355523 0.14265318 0.0797684 0.0141796535 0.085159466 -0.13549367 0.23687717
0.0820529 -0.019391308 -0.0029470571 -0.109619744 -0.11330939 -0.17066514 -0.21882927 0.013090153
-0.07352608 -0.0024954823 -0.13053468 0.0068156715 -0.123263314 -0.1155856 -0.0018870712 -0.042724904
0.044127785 -0.07716102 -0.0031745746 -0.2628179 -0.056522354 -0.06875542 0.12854916 -0.14094786
-0.21035744 -0.13365968 0.27105168 -0.00552797 0.083024964 0.046843506 -0.012380417 0.06553586
0.007133397 0.15254182 0.08008622 -0.05272922 -0.1896941 -0.120176435 0.041401844 -0.17904252
0.10192538 -0.010262315 0.01730209 0.03168035 0.0137741435 0.06077405 -0.27073148 0.11818693
0.036702033 -0.083684795 -0.08944433 -0.10778301 -0.091763295 0.05389211 -0.21533449 -0.15816367
-0.167576 0.059767008 0.020634413 0.16969459 0.0817083 0.013915289 0.14138967 0.07431401
0.23902954 0.12967823 0.09861342 -0.092444345 0.046407823 -0.17048922 0.006831795 -0.2053968
-0.13991436 -0.12055188 -0.01227613 0.024547435 -0.06287551 -0.07591324 -0.12126584 0.021380924
0.21814954 0.19807711 -0.2179992 -0.12893242 0.013651211 0.08544927 -0.096042834 0.105654396
-0.04775193 -0.14748026 -0.0103944 0.023671404 0.04144455 0.08857905 0.027186459 -0.09248407
0.12856463 0.18626687 -0.18529749 0.1985007 -0.16028188 -0.06517364 -0.008151682 0.06458512
00000000: 3ef0 ef3d 3c3b e43d 3ebe 17be 86f7 c03d
00000010: abeb ebbc 0c2a 26be 1390 8cbe 6355 4d3d
00000020: dba0 183e e6bc 0a3d 101e 173d 57a3 33bb
00000030: 45d5 d63d b2b6 0abb 9087 bb3c 9507 33be
00000040: ce71 ee3d b991 f83b ef4e f93d 1026 c23c
00000050: 0a32 2e3e 3342 1e3e d57e d83d eb8e c9bc
00000060: d300 efbd 7f8a 6e3d 8b5f 103d 3020 d5bc
00000070: 889c 103e 756a 58be b9c1 213d 9649 243e
00000080: f3ff c33d fb26 823e 0f6e f93c 42d4 723d
00000090: 9af1 333e bf5b 06bd 1b2b f93d 1696 18be
000000a0: 4970 60be 4dbb 503e 9e00 c5bd dc7d e03c
000000b0: da5b 183e 89ef 623d da76 0c3e d0ad e5bc
000000c0: 1ca4 42bc 547d ac3d 992f cc3c 29ce 973c
000000d0: 025c 403d 4156 b9bd f0d7 01bd a3d1 a8bd
000000e0: ed88 7ebe 10e7 c3bd 7e5c 5d3e 9f16 9c3d
000000f0: 1b8b 373e 7b9c b53d 9817 b53d ce6b b3bd
00000100: 58f8 a93c 49e0 3abe ff82 9fbd 878f 2abc
00000110: 4b27 2dbe eb17 cf3d e262 543c 54d6 713d
00000120: b6e2 643e 84d4 cebd c9bb 3f3d c0b1 21bb
00000130: 3ffd 26be c236 303d d9c9 4fbe d54f 24be
00000140: 5cc3 c13d 0e8c cabd d411 eabc 020c dabc
00000150: c3a2 cc3d 467d abbd 725e 723d 9751 6e3d
00000160: 15e8 4b3d 5a5d 6c3e 0aea 36be 6d4a acbd
00000170: d253 8bbd debd a63d 5f32 1cbe aecf 21bd
00000180: f3ff 3c3d ae96 863d bff7 dc3c 7586 debd
00000190: e17d 243e 9da1 36be 4202 c3bd 68db f8bd
000001a0: 50e6 d53c 4b0b 7dbd a158 53bc b246 73be
000001b0: b955 193e 64a1 66bc b704 b23d e21b aa3d
000001c0: e52b 55bd 97c3 093d 8443 03be 4c67 bfbd
000001d0: b634 68be 7c19 8a3d 705f 8b3c 35eb 76be
000001e0: cc86 0abe 5252 953d 84ec 0a3e 4449 213e
000001f0: 4228 dfbd fb19 083d 9f88 143e 0dbe 78bd
00000200: 6fe2 973d 6172 08be 4e26 543d fae8 343d
00000210: 6c25 73be 2273 363e f773 573e 2cd9 7dbe
00000220: fa5a 86bc 34ff 3fbe 9c12 50be 34a8 e23c
00000230: d07f efbd 4b8d f6bc e6f4 21be 931a 153e
00000240: 5b3f 333e 4adf 3d3d ad13 123e 9d5d a33d
00000250: c751 683c 1668 ae3d dabe 0abe ee8f 723e
00000260: 5a0b a83d 85da 9ebc 6a23 41bb 5180 e0bd
00000270: c10e e8bd d8c2 2ebe c814 60be 1578 563c
00000280: d794 96bd 3f8b 23bb e2aa 05be ff55 df3b
00000290: 7a71 fcbd 25b8 ecbd 9a57 f7ba 4f00 2fbd
000002a0: 56bf 343d 9906 9ebd 860c 50bb 1190 86be
000002b0: fc83 67bd a4cf 8cbd 64a2 033e a354 10be
000002c0: f167 57be 15de 08be 49c7 8a3e f923 b5bb
000002d0: fe08 aa3d fade 3f3d 3cd7 4abc aa37 863d
000002e0: 45bf e93b ec33 1c3e 3e04 a43d 98fa 57bd
000002f0: 2c3f 42be 101f f6bd fb94 293d ec56 37be
00000300: 41be d03d 4523 28bc 1dbd 8d3c 41c3 013d
00000310: f2ac 613c 36ee 783d 519d 8abe fd0b f23d
00000320: df54 163d ef62 abbd 972e b7bd 57bd dcbd
00000330: 65ee bbbd f9bd 5c3d a580 5cbe a8f5 21be
00000340: 0b99 2bbe 40ce 743d 8009 a93c 6bc4 2d3e
00000350: ae56 a73d f4fc 633c 74c8 103e f231 983d
00000360: 29c4 743e 5fca 043e d5f5 c93d 7653 bdbd
00000370: 2116 3e3d ba94 2ebe 40dd df3b 8a53 52be
00000380: b645 0fbe e7e3 f6bd d221 49bc b417 c93c
00000390: e0c4 80bd 6778 9bbd 3a5a f8bd 0c27 af3c
000003a0: 9862 5f3e bad4 4a3e 2f3b 5fbe dc06 04be
000003b0: 54a9 5f3c 0700 af3d 1bb2 c4bd 5561 d83d
000003c0: 8797 43bd 1105 17be 464d 2abc 88ea c13c
000003d0: c3c1 293d ef68 b53d 23b6 de3c 4a68 bdbd
000003e0: 72a6 033e bebc 3e3e a0be 3dbe c443 4b3e
000003f0: ef20 24be c279 85bd a28e 05bc 3445 843d

lstm.bias_ih_l0 f4 [128]
0.21536343 -0.16397808 0.13279279 -0.050150014 0.12076844 0.025258264 0.0014005159 -0.070024215
-0.014168272 -0.04788038 0.10862565 0.24692227 -0.1271667 0.03293633 -0.003112408 0.001503509
-0.056949522 0.12458489 0.034652565 -0.09260148 0.027309384 0.10239043 0.05426489 -0.02499037
-0.08385766 0.06580028 0.018874323 -0.071408026 -0.044652764 -0.0977202 0.13297112 -0.034820672
-0.052761 0.03694275 0.10187847 -0.03868009 0.15690714 -0.003305975 0.2204227 -0.071840435
-0.21309316 0.036691226 -0.06460114 0.035200536 0.07845984 -0.099563435 0.07353794 0.111055344
0.018410696 -0.06077541 -0.11788381 -0.062295076 -0.000742959 0.17266133 -0.021486662 0.08624943
-0.041937806 0.087041125 -0.067121916 -0.05002703 -0.10436227 0.06783413 -0.060627557 0.06363255
0.090808354 0.054375425 0.06496859 0.007749269 -0.10700264 -0.02112003 -0.007862462 0.021987678
-0.11530994 -0.042628583 -0.046282846 0.060124334 -0.1395441 0.0146538615 -0.10907938 -0.0825256
-0.028892905 -0.0863393 0.08605589 0.05529163 0.019873101 -0.08209428 0.12366104 0.1231042
-0.10600413 0.07203 -0.09941392 0.008464234 0.11377474 -0.0075304876 0.07531656 -0.01697658
0.051733952 -0.16495569 -0.07512797 -0.04581281 0.16953601 0.20170893 0.12886298 0.042659093
-0.09408139 0.07078197 -0.07182605 0.2061966 -0.0609657 0.09224193 -0.18636027 -0.09033022
-0.019229727 0.00650135 -0.056796037 0.060563605 0.04159214 0.022140473 0.27946952 0.06912761
0.06427873 -0.12193157 -0.110170946 0.016859446 -0.21037742 -0.009261713 -0.06366644 0.012545923
00000000: 3b88 5c3e dfe9 27be d5fa 073e 1a6a 4dbd
00000010: 7255 f73d 6bea ce3c 8491 b73a db68 8fbd
00000020: 0a22 68bc 381e 44bd 2077 de3d 31d9 7c3e
00000030: fd37 02be 3fe8 063d 8bf9 4bbb 6411 c53a
00000040: e743 69bd 5d26 ff3d d9ef 0d3d d8a5 bdbd
00000050: eeb7 df3c 13b2 d13d dc44 5e3d 9bb8 ccbc
00000060: 91bd abbd 4cc2 863d 539e 9a3c 5f3e 92bd
00000070: d1e5 36bd 8721 c8bd 9529 083e 1fa0 0ebd
00000080: eb1b 58bd 4851 173d a9a5 d03d 046f 1ebd
00000090: 44ac 203e 0fa9 58bb 7db6 613e 1421 93bd
000000a0: 1835 5abe 8a49 163d 9a4d 84bd 702e 103d
000000b0: 8daf a03d eae7 cbbd 0f9b 963d fc70 e33d
000000c0: 07d2 963c a3ef 78bd 116d f1bd 1f29 7fbd
000000d0: 22c3 42ba 22ce 303e cc04 b0bc 8ba3 b03d
000000e0: fac6 2bbd 9e42 b23d 3777 89bd 25e9 4cbd
000000f0: e3bb d5bd 9fec 8a3d 9a54 78bd c851 823d
00000100: bbf9 b93d c4b8 5e3d 410e 853d 94ed fd3b
00000110: 3324 dbbd ea03 adbc 8ed1 00bc 811f b43c
00000120: 9e27 ecbd 4f9b 2ebd 1593 3dbd ef44 763d
00000130: a6e4 0ebe c016 703c 0365 dfbd 2f03 a9bd
00000140: d0b0 ecbc a9d2 b0bd 123e b03d 7a79 623d
00000150: eacc a23c 0c21 a8bd 0042 fd3d 0e1e fc3d
00000160: b118 d9bd 7784 933d 8699 cbbd 92ad 0a3c
00000170: bb02 e93d 4fc2 f6bb 923f 9a3d 7812 8bbc
00000180: fbe6 533d 25ea 28be b1dc 99bd 37a6 3bbd
00000190: d99a 2d3e c98c 4e3e a8f4 033e 4dbb 2e3d
000001a0: bead c0bd 23f6 903d 8919 93bd 3425 533e
000001b0: 2bb7 79bd 56e9 bc3d 3ad5 3ebe 0dff b8bd
000001c0: a987 9dbc 4709 d53b f6a2 68bd 8b11 783d
000001d0: 855c 2a3d f05f b53c a116 8f3e c792 8d3d
000001e0: 91a4 833d 42b7 f9bd 4ea1 e1bd d21c 8a3c
000001f0: 2e6d 57be 71be 17bc 8d63 82bd 6a8d 4d3c

lstm.bias_hh_l0 f4 [128]
0.16643067 -0.049126435 -0.08003467 0.078069545 0.25644606 0.029063242 0.1150238 0.116024844
-0.10069661 -0.03854031 0.11438635 0.1575241 0.20652524 0.12702043 -0.1277331 -0.07016672
0.17166921 0.017614605 0.014595384 -0.03381077 0.12671366 0.09085307 0.3060336 0.1305847
0.02913615 -0.041613508 0.017982023 -0.14726524 -0.20910954 0.09396049 0.00016045595 0.1165134
0.11007768 -0.22613667 0.15440832 -0.12078932 0.038746003 -0.06369958 0.13982153 0.070166565
0.08098602 0.16760181 0.124930836 0.13884807 -0.011111969 -0.027419643 0.10585464 -0.003690364
0.11201768 0.122287996 -0.072022006 -0.107880935 0.0674188 0.029392464 0.10527074 0.13677622
-0.011397677 0.040651005 0.16496675 -0.1085091 -0.0998658 -0.015999313 -0.104208544 0.22067204
-0.0199214 -0.12981467 0.018552909 -0.04323496 0.07209713 -0.065622374 -0.024557022 0.013818163
0.106191695 0.046235003 -0.074618794 -0.12144634 0.055920806 -0.112681136 -0.060943764 -0.08641421
0.06941788 0.0073493444 0.036414426 0.092065394 0.0715056 0.14723417 -0.023534622 0.017887378
0.07732167 0.025415258 0.13398516 -0.07257672 -0.09274454 -0.13653852 -0.11887582 -0.009949372
0.15368827 -0.05782006 0.0851419 -0.025856374 0.3110596 0.06120456 0.12516545 0.017737232
0.014830091 0.008263425 -0.0068437327 -0.06310436 0.19951169 -0.04955981 -0.15357408 -0.107567675
0.09876408 -0.059318434 -0.01920425 -0.07262716 0.06862521 0.09580015 0.17234793 -0.008981039
0.0655135 -0.21370512 0.06803384 -0.19665349 0.039519135 0.12615882 -0.054227795 0.08766662
00000000: cd6c 2a3e cd38 49bd 38e9 a3bd ede2 9f3d
00000010: e64c 833e 0916 ee3c 9991 eb3d 6f9e ed3d
00000020: 063a cebd 72dc 1dbd 6443 ea3d ff4d 213e
00000030: 5a7b 533e a511 023e 77cc 02be 92b3 8fbd
00000040: 0eca 2f3e 814c 903c 7a21 6f3c 297d 0abd
00000050: 3ac1 013e 2d11 ba3d 70b0 9c3e ffb7 053e
00000060: efae ee3c ed72 2abd 094f 933c b3cc 16be
00000070: d020 56be 5b6e c03d 1140 2839 949e ee3d
00000080: 6870 e13d 5f90 67be 371d 1e3e 6460 f7bd
00000090: 21b4 1e3d ed74 82bd 602d 0f3e 7db3 8f3d
000000a0: 00dc a53d cf9f 2b3e bddb ff3d 302e 0e3e
000000b0: fa0e 36bc 299f e0bc 51ca d83d 09da 71bb
000000c0: 8769 e53d 2172 fa3d 4680 93bd aef0 dcbd
000000d0: de12 8a3d 77c8 f03c 3098 d73d 110f 0c3e
000000e0: 52bd 3abc ab81 263d 0bed 283e 053a debd
000000f0: 7186 ccbd fe10 83bc 4a6b d5bd daf7 613e
00000100: 3432 a3bc 23ee 04be 45fc 973c 2417 31bd
00000110: a9a7 933d 0665 86bd cf2b c9bc 9465 623c
00000120: 087b d93d ea60 3d3d bdd1 98bd dcb8 f8bd
00000130: 370d 653d 5ec5 e6bd 2ba0 79bd eff9 b0bd
00000140: f62a 8e3d c5d2 f03b 4b27 153d c88c bc3d
00000150: 8771 923d 8ec4 163e aecb c0bc 8d88 923c
00000160: d35a 9e3d a933 d03c 6833 093e 1aa3 94bd
00000170: d9f0 bdbd c1d0 0bbe 2a75 f3bd b102 23bc
00000180: 7560 1d3e bad4 6cbd e05e ae3d bfd0 d3bc
00000190: 3443 9f3e a2b1 7a3d 5f2b 003e ac4d 913c
000001a0: e9f9 723c 5163 073c 6441 e0bb dc3c 81bd
000001b0: cb4c 4c3e 3aff 4abd 8642 1dbe 714c dcbd
000001c0: d244 ca3d e3f7 72bd 3b52 9dbc 8cbd 94bd
000001d0: 608b 8c3d de32 c43d fa7b 303e 3525 13bc
000001e0: f12b 863d 84d5 5abe 5355 8b3d 885f 49be
000001f0: d1de 213d c72f 013e f71d 5ebd 8f8a b33d

lstm.weight_ih_l1 f4 [128, 32]
-0.04989239 0.19031984 -0.26108974 -0.001686363 -0.17860533 -0.031981654 0.011801592 -0.11254548
0.12986127 -0.06584917 -0.14179362 0.16678093 0.12450624 0.052134156 0.059567455 0.20502272
0.09802241 -0.06460883 0.14041424 0.11915692 0.05857883 0.043357413 -0.032289222 -0.11471502
0.0507809 0.13137041 0.13135828 0.05856923 0.15029497 0.0060486537 -0.048451792 0.26464942
0.016480502 0.20187907 -0.002102884 0.08522578 0.10707947 0.26592007 0.12965086 -0.18911806
0.055330567 -0.059464104 -0.015974645 -0.061141778 -0.0017772593 0.14418888 0.029182656 0.2270218
0.061507136 0.03851624 0.04054281 -0.14457959 -0.061332088 -0.116902225 0.039630823 -0.10027078
0.06345954 -0.0871258 0.08613068 -0.046578415 0.039410964 0.029785829 0.18170679 0.14461666
-0.21591535 -0.0052960515 -0.19807644 -0.03548688 -0.20145056 0.1506674 0.04701191 -0.2912509
0.14633776 -0.06245293 -0.25515282 0.12811923 0.062069945 -0.042456504 0.041717123 0.25809518
0.04778692 0.022843976 0.08076888 -0.0027579272 0.15202492 0.06347362 -0.13088341 0.20552635
0.14415082 -0.07845964 0.13244605 0.07335709 -0.20056571 0.09611252 0.08297295 0.037515163
0.03805744 0.17795785 -0.07996683 -0.18589124 -0.08817076 0.052377563 -0.03714115 -0.22135983
0.09758212 -0.21722846 0.060526516 -0.09179552 -0.1440751 -0.013084062 0.050578516 -0.008375355
0.22345293 -0.026646214 -0.081706785 -0.11235394 0.16658242 0.009814818 -0.08763575 -0.09679835
0.13219877 -0.112640835 0.14571097 -0.13559021 -0.031961042 -0.0067317598 -0.027295874 0.2145998
0.07688622 0.076472245 0.028064989 0.055429067 -0.17507297 0.13042432 0.06856317 -0.014478224
0.037964366 -0.13891849 0.09207636 0.029791571 -0.1654332 0.037759155 -0.09089884 -0.18284264
-0.025779994 -0.08305857 0.04744588 0.21586172 0.11550059 -0.0073265284 -0.027898554 -0.067773685
0.151005 -0.025557773 -0.04284655 -0.19495632 -0.0499703 0.10760785 -0.11216173 0.2450063
-0.004451695 0.06510193 -0.26670903 0.13850679 -0.21175991 0.05248985 0.285402 -0.03889046
-0.11073919 -0.08105539 -0.044738423 0.16558336 -0.028827578 -0.057579014 0.008684589 0.049994104
0.27890694 -0.03799637 -0.12242308 -0.09100075 0.044604223 -0.064702086 0.057745565 -0.12710987
-0.065089956 0.1783669 -0.04380882 -0.003195242 -0.110252604 -0.04022675 0.12076146 -0.045156613
0.1039183 0.031666268 0.21382084 -0.10158116 0.12311029 -0.04071381 -0.091447696 -0.001716856
-0.00573433 0.09543213 0.08120232 0.023763167 -0.19341598 -0.012296678 0.20370321 0.12087289
-0.039340846 0.068395235 -0.10586484 0.02464252 -0.10010879 -0.090665326 0.15483908 -0.099027865
-0.0989112 -0.19103028 -0.11231836 -0.0014000281 -0.14767513 0.068060905 -0.043846205 -0.15379588
-0.111023724 0.1124723 -0.14898174 -0.099337146 -0.08789945 -0.12055887 0.13497652 -0.15680201
0.024101298 0.09821471 0.06933841 -0.17888464 0.033888325 0.09868852 -0.06615503 -0.14199582
0.036276728 -0.16185431 0.009735843 0.101606846 -0.020851592 -0.14425294 -0.07334757 -0.06680948
-0.21907131 -0.057343032 0.055942364 0.08018506 0.098644994 -0.06627382 0.086383305 -0.13162263
00000000: f65b 4cbd 34e3 423e 8ead 85be f408 ddba
00000010: 51e4 36be 32ff 02bd 775b 413c 3f7e e6bd
00000020: 5afa 043e eedb 86bd 5932 11be 9fc8 2a3e
00000030: 21fd fe3d a08a 553d 01fd 733d 7af1 513e
00000040: f9bf c83d a251 84bd c0c8 0f3e 8b08 f43d
00000050: 5bf0 6f3d 8b97 313d b441 04bd b5ef eabd
00000060: a2ff 4f3d f785 063e c982 063e 4ae6 6f3d
00000070: ede6 193e c933 c63b 6375 46bd 2180 873e
00000080: 1e02 873c 63b9 4e3e 8ad0 09bb db8a ae3d
00000090: 7b4c db3d ad26 883e 32c3 043e 2aa8 41be
000000a0: 4ea2 623d a290 73bd 42dd 82bc cd6f 7abd
000000b0: edf2 e8ba 40a6 133e 7710 ef3c 6778 683e
000000c0: e8ee 7b3d 34c3 1d3d 3810 263d ac0c 14be
000000d0: 5b37 7bbd 6f6a efbd ee53 223d c45a cdbd
000000e0: 13f7 813d 036f b2bd 4865 b03d 02c9 3ebd
000000f0: 646d 213d 6901 f43c 5811 3a3e 6416 143e
00000100: ea18 5dbe 808a adbb 8dd4 4abe b15a 11bd
00000110: 0e49 4ebe 8e48 1a3e 8f8f 403d d71e 95be
00000120: 91d9 153e a5ce 7fbd 64a3 82be b031 033e
00000130: 0e3d 7e3d dfe6 2dbd 93df 2a3d 0d25 843e
00000140: 38bc 433d 4a23 bb3c 286a a53d 57be 34bb
00000150: 6cac 1b3e 75fe 813d 4d06 06be 8075 523e
00000160: 469c 133e 73af a0bd f09f 073e 3e3c 963d
00000170: 1961 4dbe a4d6 c43d b9ed a93d 80a9 193d
00000180: 1ee2 1b3d 953a 363e a6c5 a3bd 465a 3ebe
00000190: df92 b4bd db89 563d 5221 18bd 27ac 62be
000001a0: 22d9 c73d 2371 5ebe a7ea 773d 4aff bbbd
000001b0: 6c88 13be 895e 56bc 6b2b 4f3d c938 09bc
000001c0: d8d0 643e 2949 dabc e355 a7bd d319 e6bd
000001d0: 9594 2a3e 55ce 203c 5f7a b3bd 373e c6bd
000001e0: 1d5f 073e 3db0 e6bd 4235 153e 29d8 0abe
000001f0: 95e9 02bd 1896 dcbb 999b dfbc 0dc0 5b3e
00000200: 8676 9d3d 7b9d 9c3d 8ce8 e53c 9709 633d
00000210: 5446 33be f48d 053e d96a 8c3d 1336 6dbc
00000220: 8680 1b3d a640 0ebe 8892 bc3d 740d f43c
00000230: 5267 29be 58a9 1a3d 2c29 babd 1a3b 3bbe
00000240: 9130 d3bc 9d1a aabd 9c56 423d db0a 5d3e
00000250: 938b ec3d 6013 f0bb 828b e4bc eecc 8abd
00000260: 0ea1 1a3e 895e d1bc dd7f 2fbd a1a2 47be
00000270: a8ad 4cbd 8161 dc3d 0db5 e5bd eee2 7a3e
00000280: 86df 91bb 2954 853d 168e 88be b9d4 0d3e
00000290: 97d7 58be 99ff 563d 3620 923e 9a4b 1fbd
000002a0: 3acb e2bd 5e00 a6bd a33f 37bd af8e 293e
000002b0: d027 ecbc f9d7 6bbd ce49 0e3c 9ec6 4c3d
000002c0: e4cc 8e3e 15a2 1bbd f4b8 fabd 9a5e babd
000002d0: ebb2 363d 8782 84bd 9d86 6c3d 1729 02be
000002e0: e24d 85bd d0a5 363e e170 33bd 4467 51bb
000002f0: 1ecc e1bd cec4 24bd c951 f73d 24f6 38bd
00000300: 1ed3 d43d 7db4 013d daf3 5a3e c909 d0bd
00000310: 3f21 fc3d 86c3 26bd ee48 bbbd 2108 e1ba
00000320: 0ce7 bbbb ec71 c33d 674d a63d f9aa c23c
00000330: d70e 46be 0178 49bc 9397 503e 358c f73d
00000340: de23 21bd cd12 8c3d aacf d8bd 1cdf c93c
00000350: d605 cdbd beae b9bd 238e 1e3e 1fcf cabd
00000360: f591 cabd 719d 43be 2b07 e6bd 2681 b7ba
00000370: 2638 17be 8463 8b3d 1498 33bd ab7c 1dbe
00000380: 6860 e3bd e157 e63d ab8e 18be 4671 cbbd
00000390: a004 b4bd 92e7 f6bd 4937 0a3e b590 20be
000003a0: 1670 c53c cb24 c93d 4c01 8e3d 892d 37be
000003b0: 7cce 0a3d 351d ca3d 4a7c 87bd 5a67 11be
000003c0: e896 143d 23bd 25be 1683 1f3c 4017 d03d
000003d0: f5d0 aabc 0bb7 13be 4037 96bd 69d3 88bd
000003e0: 3b54 60be 87e0 6abd d223 653d 1138 a43d
000003f0: 6306 ca3d 92ba 87bd bbe9 b03d 15c8 06be

lstm.weight_hh_l1 f4 [128, 32]
-0.16528784 -0.10624054 0.09720092 0.0110420445 -0.12832448 -0.0402212 -0.15415928 0.122692116
0.083955765 -0.20289598 0.023491379 -0.15495862 0.037174772 -0.034666646 -0.17531924 -0.074947
0.098444976 -0.05324736 -0.01914831 0.028316975 -0.19511832 -0.220127 0.19455142 -0.015233466
-0.106197886 -0.12466657 0.15391628 -0.008828751 -0.1625125 -0.07078558 -1.8018909e-05 0.1665539
0.14276169 0.04501767 0.0011361575 -0.06420747 -0.18817118 0.17250441 -0.12709823 -0.035397734
-0.065531686 0.13949126 0.09547071 -0.05123556 -0.13075992 -0.002175424 -0.0044715996 -0.034269944
-0.08045825 -0.19059803 -0.009900198 -0.10570891 -0.1286217 -0.19867288 -0.07561326 0.12686044
-0.059337936 -0.011271005 -0.057006136 0.01908634 -0.07820786 0.05612893 0.09277496 -0.08471795
-0.079947464 -0.11174919 -0.08125229 -0.1666289 0.07641036 -0.04313851 -0.16939089 0.02315867
-0.029120568 -0.012151151 -0.14412166 0.10376036 -0.15676789 -0.07598472 0.14923666 0.09321976
-0.063322134 0.16802955 0.12334807 -0.13689655 -0.23746547 0.06855606 0.11335727 -0.0074657258
-0.059805892 -0.007526766 0.07369782 0.081322394 0.021308728 -0.050429456 -0.16831657 0.18527311
-0.014205416 -0.104721256 -0.12458016 -0.04272506 0.14678992 -0.043722324 -0.09383188 0.20184322
-0.005716055 -0.044971377 0.019115327 0.0788846 0.15875083 -0.015310809 -0.031296104 -0.098054565
-0.0038656879 0.0578769 0.12329579 0.16823113 -0.18757528 0.067076266 -0.0073294644 -0.028717518
-0.1384381 0.1441565 0.06791305 -0.042239394 0.038715657 0.033570237 0.026082637 -0.009193699
0.089052655 0.056713846 0.11060108 -0.035352673 -0.059824713 0.12566261 -0.09199624 0.16188163
0.13064282 -0.0867218 0.13621873 -0.16817415 -0.13812803 0.14937054 0.06351428 0.07915846
-0.0592118 -0.07886635 -0.009039105 0.07209532 -0.17736046 0.030864283 -0.05616449 0.17304313
-0.09772531 -0.10703643 -0.102131665 0.028721767 0.06661916 -0.14100643 -0.08214253 0.08864211
0.055418827 0.112312436 -0.057995677 -0.14739324 0.021831905 0.07781171 0.091190495 0.015902674
-0.0027279677 -0.16924533 -0.15109685 -0.05377129 -0.08056037 -0.17677999 0.030402377 -0.14751469
-0.10285743 -0.11284055 0.17640139 0.14465697 -0.037506465 -0.08667348 0.004187724 0.041866448
0.12181189 -0.018271836 -0.014355104 -0.13360584 -0.10233031 -0.2234313 -0.084956236 0.02869637
0.10189414 0.14901507 -0.16888115 0.12122482 -0.09741136 0.055111147 -0.0012769414 -0.05144089
0.08969414 0.1942889 -0.124609396 -0.17863515 0.26641476 -0.057342093 -0.08931345 -0.0519659
-0.13233578 -0.14538532 0.096165396 0.10556456 0.087692335 0.12434347 -0.1263506 0.08568011
0.19340491 0.21279761 -0.16577817 0.014227096 0.07129582 0.24829556 0.20508744 -0.11280134
0.118739 0.19270612 0.087478034 0.042927004 -0.053996403 0.056780655 -0.16164689 0.0591999
-0.009063808 -0.10280607 0.115809396 -0.08380076 -0.25541124 -0.027738618 0.022654815 -0.04297969
0.010090832 -0.068310596 0.00073436316 -0.059410043 -0.07099734 -0.08748627 -0.096855894 0.17313188
-0.061491165 -0.21546288 0.08393514 0.1516062 -0.13789904 -0.21551098 -0.06459939 0.06051652
00000000: 3741 29be a494 d9bd 4711 c73d b1e9 343c
00000010: 7e67 03be fcbe 24bd eedb 1dbe 0146 fb3d
00000020: 00f1 ab3d f7c3 4fbe fe70 c03c 79ad 1ebe
00000030: 9344 183d 9dfe 0dbd e386 33be d07d 99bd
00000040: 859d c93d e719 5abd ebdc 9cbc 00f9 e73c
00000050: 19cd 47be f968 61be 7d38 473e ca95 79bc
00000060: 477e d9bd 3051 ffbd 3b9c 1d3e 77a6 10bc
00000070: ad69 26be 08f8 90bd 5027 97b7 1b8d 2a3e
00000080: 1f30 123e 7364 383d 1feb 943a 357f 83bd
00000090: f2af 40be ffa4 303e 0a26 02be 37fd 10bd
000000a0: 7a35 86bd ccd6 0e3e 2686 c33d 61dc 51bd
000000b0: eee5 05be 8f91 0ebb 7f86 92bb a45e 0cbd
000000c0: 4cc7 a4bd 212c 43be 7134 22bc ea7d d8bd
000000d0: 68b5 03be e770 4bbe 20db 9abd b4e7 013e
000000e0: 560c 73bd 05aa 38bc 447f 69bd f55a 9c3c
000000f0: 712b a0bd 73e7 653d cc00 be3d 9b80 adbd
00000100: 7fbb a3bd c2dc e4bd 9a67 a6bd c4a0 2abe
00000110: 097d 9c3d 02b2 30bd ce74 2dbe 40b7 bd3c
00000120: 428e eebc 9f15 47bc a194 13be 5080 d43d
00000130: c387 20be e09d 9bbd 7fd1 183e 00ea be3d
00000140: 09af 81bd f00f 2c3e ea9d fc3d 9c2e 0cbe
00000150: 262a 73be 1f67 8c3d db27 e83d 0ca3 f4bb
00000160: 06f7 74bd 17a3 f6bb e2ee 963d 5b8c a63d
00000170: a48f ae3c 1e8f 4ebd 2e5b 2cbe 3cb8 3d3e
00000180: d5bd 68bc 1978 d6bd e223 ffbd 7900 2fbd
00000190: 1950 163e 2e16 33bd ee2a c0bd fdaf 4e3e
000001a0: bf4d bbbb e833 38bd bf97 9c3c 408e a13d
000001b0: 948f 223e 30da 7abc 5830 00bd d5d0 c8bd
000001c0: 7b57 7dbb 5410 6d3d 8182 fc3d c844 2c3e
000001d0: bc13 40be 485f 893d 012c f0bb 0041 ebbc
000001e0: b8c2 0dbe c39d 133e ff15 8b3d 3703 2dbd
000001f0: 4f94 1e3d f280 093d 41ab d53c 2ba1 16bc
00000200: 3d61 b63d c74c 683d d282 e23d f7cd 10bd
00000210: c20a 75bd b3ad 003e 8668 bcbd 4cc4 253e
00000220: 3bc7 053e 339b b1bd ec7c 0b3e d835 2cbe
00000230: 6f71 0dbe 97f4 183e c613 823d d51d a23d
00000240: 1388 72bd ae84 a1bd c118 14bc b6a6 933d
00000250: fb9d 35be 18d7 fc3c bc0c 66bd 3832 313e
00000260: 3524 c8bd ea35 dbbd 682a d1bd e949 eb3c
00000270: a06f 883d fd63 10be 583a a8bd ff89 b53d
00000280: dafe 623d 1004 e63d e08c 6dbd 41ee 16be
00000290: d3d8 b23c bf5b 9f3d 15c2 ba3d 5346 823c
000002a0: b4c7 32bb a64e 2dbe 22b9 1abe 493f 5cbd
000002b0: d6fc a4bd d005 35be 680e f93c 170e 17be
000002c0: eba6 d2bd f218 e7bd 91a2 343e f520 143e
000002d0: 61a0 19bd de81 b1bd 2d39 893b 277c 2b3d
000002e0: 8378 f93d d1ae 95bc ac31 6bbc f8cf 08be
000002f0: 8e92 d1bd 2dcb 64be 89fd adbd a614 eb3c
00000300: e0ad d03d 6897 183e 2eef 2cbe b844 f83d
00000310: 9b7f c7bd 3abc 613d 0b5f a7ba afb3 52bd
00000320: 90b1 b73d abf3 463e 3633 ffbd 22ec 36be
00000330: 8467 883e 8bdf 6abd f8e9 b6bd 32da 54bd
00000340: 0883 07be e4df 14be 5df2 c43d 3b32 d83d
00000350: 0a98 b33d caa7 fe3d 0d62 01be 0e79 af3d
00000360: f00b 463e 9ee7 593e c1c1 29be c418 693c
00000370: 8b03 923d 3141 7e3e 7102 523e 6404 e7bd
00000380: 6f2d f33d c154 453e af27 b33d 3ad4 2f3d
00000390: 552b 5dbd d592 683d c386 25be 987b 723d
000003a0: 5e80 14bc fd8b d2bd 7a2d ed3d bc9f abbd
000003b0: 43c5 82be 193c e3bc 9796 b93c 790b 30bd
000003c0: 0454 253c 6de6 8bbd 4782 403a f257 73bd
000003d0: 0e67 91bd 002c b3bd 625c c6bd 7c49 313e
000003e0: 29de 7bbd 4da2 5cbe 30e6 ab3d a83e 1b3e
000003f0: 6835 0dbe e9ae 5cbe af4c 84bd 2ce0 773d

lstm.bias_ih_l1 f4 [128]
-0.14658034 0.10940437 -0.107046485 0.19763684 0.13095084 0.025048051 0.045526292 0.21178216
0.22095242 -0.15435511 -0.097768396 0.09126558 -0.044860702 -0.28763327 0.12108913 0.012450516
0.16662377 0.05506989 -0.036994092 -0.0738872 0.13453323 0.018005041 -0.028081244 -0.06440814
0.10447657 -0.14784305 0.14440618 0.106739245 -0.13171299 0.14120677 0.03932292 -0.0030722865
-0.012608413 -0.10050796 -0.006767283 0.11462924 -0.0945692 -0.08576171 -0.07486879 0.067347325
-0.025462382 0.11160324 0.10172586 0.08678335 -0.1955435 -0.04449871 0.102649145 -0.13324723
-0.15886493 0.036377538 -0.14564145 -0.079190195 -0.052689213 -0.15533188 -0.20324136 0.07646594
-0.109510146 0.004259262 0.09297072 -0.048739225 0.11422639 -0.120540716 -0.15784697 0.011769121
0.04461334 -0.11933282 0.09123102 0.05035307 0.15881023 -0.16554691 0.077318065 -0.036459055
0.09782492 0.049284447 0.101096734 0.05629157 -0.10074626 0.027845658 -0.07964577 -0.09235127
0.014297479 -0.0059176628 -0.0018010195 0.016104558 0.050130777 -0.005259643 0.08938436 0.08144298
-0.043872226 -0.081991404 0.0012275632 -0.09510562 0.1419873 -0.044944044 -0.046618372 -0.03900857
0.13177812 0.023479907 0.06644479 -0.04777477 -0.0075059202 -0.036348555 0.112303376 -0.0033453475
-0.06754895 -0.11095276 0.0003820687 -0.030471938 -0.031319976 -0.19967753 0.025456674 0.16437918
-0.03194418 0.14176725 -0.017649684 -0.014622368 0.029078694 -0.005463032 0.06632842 0.113797985
-0.10119559 -0.20406677 0.08118838 0.10350661 0.15753438 0.00864183 -0.2647871 0.12698373
00000000: 2819 16be 660f e03d 303b dbbd 5061 4a3e
00000010: fa17 063e 9231 cd3c c779 3a3d 6cdd 583e
00000020: 5a41 623e 440f 1ebe cc3a c8bd 73e9 ba3d
00000030: dbbf 37bd ab44 93be 94fd f73d 40fd 4b3c
00000040: 6c9f 2a3e f790 613d 1e87 17bd 2c52 97bd
00000050: 14c3 093e 4f7f 933c a30a e6bc 6ae8 83bd
00000060: d0f7 d53d 2b64 17be 37df 133e 1b9a da3d
00000070: c5df 06be 8298 103e 1211 213d 6a58 49bb
00000080: 8493 4ebc 1ed7 cdbd 16c0 ddbb bcc2 ea3d
00000090: 7fad c1bd d6a3 afbd cf54 99bd 65ed 893d
000000a0: 7c96 d0bc 3d90 e43d a655 d03d 78bb b13d
000000b0: 8e3c 48be 4844 36bd b739 d23d f671 08be
000000c0: 7dad 22be 9d00 153d 0823 15be 782e a2bd
000000d0: a5d0 57bd 520f 1fbe 811e 50be 2d9a 9c3d
000000e0: db46 e0bd 4791 8b3b 6f67 be3d c8a2 47bd
000000f0: 87ef e93d 0dde f6bd a3a2 21be 45d3 403c
00000100: 7abc 363d c464 f4bd 54d7 ba3d 053f 4e3d
00000110: 269f 223e 2185 29be ef58 9e3d 1756 15bd
00000120: 6f58 c83d 7dde 493d ce0b cf3d fd91 663d
00000130: 0e54 cebd 941c e43c 521d a3bd aa22 bdbd
00000140: f93f 6a3c f4e8 c1bb 3010 ecba b5ed 833c
00000150: ee55 4d3d 1559 acbb 260f b73d 94cb a63d
00000160: 5db3 33bd 1ceb a7bd 30e6 a03a bcc6 c2bd
00000170: 1e65 113e 3f17 38bd e8f2 3ebd 73c7 1fbd
00000180: d8f0 063e ef58 c03c 3514 883d 7aaf 43bd
00000190: 39f4 f5bb 39e2 14bd 50ff e53d 9e3d 5bbb
000001a0: 1b57 8abd 333b e3bd 6550 c839 49a0 f9bc
000001b0: 6049 00bd 4478 4cbe 848a d03c 0453 283e
000001c0: e7d7 02bd 6f2b 113e 1296 90bc a892 6fbc
000001d0: 7136 ee3c 3c03 b3bb 32d7 873d eb0e e93d
000001e0: a23f cfbd e1f6 50be 1846 a63d 46fb d33d
000001f0: b150 213e 7696 0d3c 2d92 87be 0608 023e

lstm.bias_hh_l1 f4 [128]
-0.048459914 -0.18875584 0.18333125 -0.0035646989 0.20590217 0.0539825 0.0032810252 0.12566017
-0.07248336 0.028961053 -0.029897172 0.17457977 -0.18336211 -0.021077164 0.16585664 0.037658453
-0.011267272 -0.12998015 0.08004252 -0.14062056 0.08560983 -0.054117933 -0.27309993 0.083185285
-0.15186468 0.05748219 0.124221854 -0.09745088 -0.017082362 0.12960377 -0.090654515 -0.07403328
0.040456846 -0.15081978 -0.04301392 -0.06366264 -0.071743704 -0.07731895 -0.059897773 0.13485923
0.17063135 0.10522518 -0.099338 0.11568983 -0.1559391 -0.09894908 -0.12117084 0.16076028
-0.07118422 -0.018330423 -0.07700207 0.14752991 -0.03323917 0.042586733 -0.13435718 -0.07717327
-0.16791017 -0.20979117 0.147248 -0.041739516 -0.026893301 -0.17298158 -0.18142153 0.057658516
0.08124631 0.013265927 0.116475984 -0.073522724 -0.12778588 -0.027802879 -0.0711294 0.03692965
0.039926108 -0.045811635 -0.11940932 -0.041506257 -0.072738215 -0.040537756 0.14778543 0.12815382
-0.10643697 0.15930776 0.11449239 0.16900991 -0.13684943 -0.011022806 -0.029690802 0.08968902
-0.08403191 -0.046417713 -0.06389291 0.0008138353 0.1635406 -0.08286323 0.088063516 0.13129853
-0.104742914 0.014907784 0.0840923 0.027775852 0.112364024 -0.07092562 0.062999554 0.06807885
0.17342363 -0.08777488 -0.0068299333 -0.12799436 0.0133903185 -0.09460769 0.077517845 -0.13685569
-0.1336081 0.03630922 0.14514576 -0.14708093 0.17666352 -0.08913181 -0.25181645 -0.08885217
0.08372275 -0.06122855 -0.066512115 -0.12660725 -0.13495596 0.16052492 0.036114782 0.027475353
00000000: e77d 46bd 3649 41be 30bb 3b3e b99d 69bb
00000010: 05d8 523e c11c 5d3d 7806 573b 0fad 003e
00000020: 2872 94bd bb3f ed3c eaea f4bc 0ac5 323e
00000030: 47c3 3bbe 04aa acbc 53d6 293e c03f 1a3d
00000040: 5d9a 38bc 8419 05be 55ed a33d d6fe 0fbe
00000050: 3554 af3d c4aa 5dbd c1d3 8bbe 0c5d aa3d
00000060: 6a82 1bbe 7272 6b3d 0768 fe3d 5494 c7bd
00000070: 4ff0 8bbc dab6 043e 13a9 b9bd c39e 97bd
00000080: 14b6 253d 8070 1abe 5d2f 30bd 8f61 82bd
00000090: 5dee 92bd 6659 9ebd 5e57 75bd 8a18 0a3e
000000a0: fcb9 2e3e 4d80 d73d b971 cbbd caee ec3d
000000b0: 80ae 1fbe d1a5 cabd 6b28 f8bd 589e 243e
000000c0: 08c9 91bd af29 96bc 43b3 9dbd 1512 173e
000000d0: cc25 08bd 6d6f 2e3d ee94 09be 050d 9ebd
000000e0: a5f0 2bbe 7fd3 56be 2ec8 163e 0ef7 2abd
000000f0: 574f dcbc 1522 31be 91c6 39be 562b 6c3d
00000100: 7764 a63d 5559 593c f68a ee3d 1593 96bd
00000110: 4dda 02be ddc2 e3bc 4aac 91bd 8b43 173d
00000120: 8f89 233d fba4 3bbd e08c f4bd 7702 2abd
00000130: c6f7 94bd eb0a 26bd 1055 173e c13a 033e
00000140: a0fb d9bd 9321 233e fc7a ea3d ef10 2d3e
00000150: 4222 0cbe 0099 34bc 203a f3bc e0ae b73d
00000160: ec18 acbd 8020 3ebd 49da 82bd 9057 553a
00000170: 3077 273e 32b4 a9bd a55a b43d 1f73 063e
00000180: 7483 d6bd c73f 743c 9538 ac3d 2f8a e33c
00000190: 1c1f e63d 7441 91bd e905 813d ed6c 8b3d
000001a0: f795 313e 51c3 b3bd a2cd dfbb f410 03be
000001b0: 1163 5b3c adc1 c1bd adc1 9e3d e623 0cbe
000001c0: 90d0 08be fab8 143d 17a1 143e 629c 16be
000001d0: 48e7 343e bd8a b6bd 16ee 80be 20f8 b5bd
000001e0: d576 ab3d caca 7abd 8137 88bd 55a5 01be
000001f0: e531 0abe a560 243e 18ed 133d fe13 e13c

fc.weight f4 [1, 32]
-0.060780462 0.03960092 -0.14900936 0.10851651 -0.24946658 0.12994607 0.031958427 0.19224998
0.17582346 -0.20441051 0.17151831 -0.10778306 -0.077852726 0.015938478 -0.22232077 -0.08762801
0.10241451 -0.07048541 -0.13864319 -0.16762078 -0.19102637 -0.058140177 0.04265818 0.16586946
-0.15815073 -0.038841657 -0.05863697 0.15585245 -0.112394385 -0.14206065 -0.034011986 -0.119293466
00000000: eff4 78bd 9334 223d e995 18be e73d de3d
00000010: 2b74 7fbe 9510 053e d7e6 023d 2edd 443e
00000020: 110b 343e fd50 51be 7fa2 2f3e 5dbd dcbd
00000030: 4071 9fbd 6991 823c 0ea8 63be 5076 b3bd
00000040: b3be d13d a85a 90bd 7bf8 0dbe c8a4 2bbe
00000050: 6b9c 43be 6524 6ebd 58ba 2e3d afd9 293e
00000060: 44f2 21be 6e18 1fbd 522d 70bd c997 1f3e
00000070: 072f e6bd 5978 11be 2750 0bbd 2250 f4bd
