backend/stocks/price/pt_models/ACB.pt (torch, 54423 bytes, 9 tensors)

lstm.weight_ih_l0 f4 [128, 1]
0	0x3d746b7f	0.05967283
1	0xbd104bc0	-0.03522849
2	0x3dd1e8a5	0.102494515
3	0x3d2a41a0	0.04156649
4	0xbd92162f	-0.071331374
5	0xbe90244f	-0.281527
6	0x3ea88521	0.3291407
7	0x3cd86150	0.02641359
8	0xbe2c7c9e	-0.16844413
9	0xbe43aec1	-0.19109632
10	0xbbfa89c9	-0.00764582
11	0xbe21c904	-0.15799338
12	0xbd16bd92	-0.036801882
13	0x3e73ca4e	0.23807642
14	0xbe441682	-0.19149211
15	0x3ea681c7	0.32520887
16	0xbdd3cd57	-0.103419
17	0xbdb5c0f4	-0.088746935
18	0x3d841a23	0.06450298
19	0x3d2bae53	0.041914295
20	0x3e46c985	0.19412811
21	0x3e4ee9d4	0.20206386
22	0x3e57e929	0.21085037
23	0x3cab2e60	0.020896137
24	0x3e4a7f2c	0.19775075
25	0x3ce12413	0.027483022
26	0x3e2ff7e8	0.17184412
27	0xbd61a048	-0.055084497
28	0x3e5ccf28	0.21563399
29	0x3e3f8988	0.18704808
30	0xbd637329	-0.055529747
31	0xbe94a02a	-0.29028445
32	0x3e92e6e7	0.2869179
33	0xbd5d5e42	-0.05404497
34	0x3e559806	0.20858774
35	0xbc8619fc	-0.016369812
36	0xbd46faa2	-0.048578866
37	0xbd5387fc	-0.051643357
38	0x3e730cda	0.23735371
39	0x3e9a1b07	0.30098745
40	0x3e18534c	0.14875525
41	0xbe2fd782	-0.17172053
42	0x3e9036cd	0.2816681
43	0x3cc57d25	0.024107525
44	0x3d54dc12	0.051967688
45	0xbd00f8dc	-0.03148733
46	0xbe6f9904	-0.23398215
47	0x3ecd6c76	0.40121812
48	0xbde2a2dd	-0.1106622
49	0xb94f2b95	-0.00019757294
50	0xbe5fea21	-0.21866657
51	0x3e64ec29	0.22355713
52	0x3eacf05b	0.33777127
53	0x3d51717e	0.051133625
54	0x3ed274bb	0.41104683
55	0xbe46c59b	-0.19411318
56	0x3e9da118	0.30786967
57	0xbdf767d9	-0.12080354
58	0x3e7bbb55	0.2458318
59	0x3ddaddbb	0.10686823
60	0x3e0e1c4d	0.13877983
61	0x3e9ad721	0.30242255
62	0xbe118c46	-0.14213666
63	0xbe2407b6	-0.16018566
64	0xbe60a691	-0.2193854
65	0x3dc4ee9e	0.09615825
66	0xbc99d948	-0.018780366
67	0xbe0ca0f3	-0.13733272
68	0xbea54152	-0.32276398
69	0xbe7121df	-0.23548077
70	0x3e1b0c6a	0.15141454
71	0xbe4e88f8	-0.20169437
72	0xbe48c43b	-0.19606106
73	0xbe836136	-0.25660104
74	0x3d11f173	0.035630655
75	0x3e467537	0.19380651
76	0xbe98e5ac	-0.29862726
77	0x3e46fa3e	0.19431397
78	0x3d203da2	0.039121278
79	0x3e403e50	0.1877377
80	0x3eb733ac	0.3578161
81	0xbe97d838	-0.2965715
82	0xbe9dac08	-0.30795312
83	0xbdfa538b	-0.12222966
84	0x3e8b5254	0.2721125
85	0x3ea208cf	0.31647345
86	0xbe668a8b	-0.22513787
87	0xbe248ac2	-0.16068557
88	0xbe812bb9	-0.2522867
89	0x3e1d0d16	0.15337023
90	0x3e64dbbe	0.2234945
91	0x3e9f1347	0.31069395
92	0xbe0f1a65	-0.13974912
93	0xbda00a13	-0.078144215
94	0x3e3defd0	0.18548512
95	0x3e917473	0.28409156
96	0x3d1e3db1	0.038633052
97	0xbc60b035	-0.013713886
98	0x3e8101b0	0.251966
99	0x3c1950c1	0.009357632
100	0xbe30663b	-0.17226498
101	0xbe8215df	-0.2540731
102	0x3ce0e9af	0.027455179
103	0x3e37c8b6	0.17947659
104	0xbe495c07	-0.19664012
105	0xbe509e4c	-0.20372885
106	0x3dfc9011	0.12332166
107	0xbe7abf46	-0.24487028
108	0xbe6431d6	-0.22284636
109	0xbb653b09	-0.0034977815
110	0xbe8db726	-0.27678794
111	0x3e822b0c	0.25423467
112	0xbbb9ef1a	-0.005674255
113	0xbd9c3cd3	-0.07628789
114	0xbca3791e	-0.019955214
115	0xbb9dcbe1	-0.004815564
116	0x3e8a1a39	0.2697313
117	0xbc76c69d	-0.0150620015
118	0x3e2ed153	0.17072038
119	0xbd96fc1f	-0.07372307
120	0x3e853157	0.26014206
121	0xbcb338a8	-0.021877602
122	0x3c623e80	0.0138088465
123	0xbde8b1a0	-0.11362004
124	0x3db7f1cf	0.08981668
125	0x3e828c2f	0.25497577
126	0xbdc8eca8	-0.098107636
127	0xbe8ad4e2	-0.27115542

lstm.weight_hh_l0 f4 [128, 32]
0	0xbd44f6a4	-0.048086777
1	0x3d0373b5	0.03209277
2	0xbcc9a232	-0.024613474
3	0xbce579ec	-0.028012238
4	0xbde5b0c7	-0.11215358
5	0xbe2327ed	-0.15933199
6	0xbe04a6b1	-0.12954213
7	0xbde624f5	-0.11237518
8	0x3dc6249c	0.096749514
9	0xbe0023f9	-0.12513722
10	0x3d443a2a	0.047907032
11	0x3d70de83	0.058805954
12	0xbe4786bf	-0.19484995
13	0x3c999507	0.01874782
14	0x3e290d32	0.1650894
15	0xbe0bf804	-0.13668829
16	0xbd823964	-0.06358603
17	0xbe2150e9	-0.15753521
18	0xbe0db8c1	-0.1384001
19	0x3e0bc8ab	0.13650768
20	0xbd09ca43	-0.033640157
21	0x3e57ea86	0.21085557
22	0xbe0af392	-0.13569477
23	0xbe4726dd	-0.19448419
24	0xbc258969	-0.010103562
25	0x3daec46a	0.08533557
26	0x3e07a10e	0.13245031
27	0x3da3fd51	0.08007301
28	0xbdfe4a69	-0.12416536
29	0x3d46992c	0.04848592
30	0x3dc7d9bf	0.09758329
31	0xbde4b573	-0.11167421
32	0xbd8a04b7	-0.067391805
33	0x3d80b0a5	0.06283692
34	0x3cbfad31	0.023398014
35	0xbd2bb116	-0.04191693
36	0xbde3f8cc	-0.111314386
37	0xbd87711f	-0.06613373
38	0xbe8e9c72	-0.27853733
39	0x3e47921f	0.19489335
40	0xbe30bc9e	-0.17259452
41	0x3b81d99e	0.0039627096
42	0x3e0e4945	0.13895138
43	0x3e2d7e87	0.16942798
44	0x3d463d9f	0.04839861
45	0xbda80564	-0.08204153
46	0x3d267c97	0.040646162
47	0xbe27a12f	-0.1637008
48	0x3d1ea230	0.038728893
49	0xbe21081b	-0.15725748
50	0x3d952be0	0.07283759
51	0x3b726e35	0.0036991958
52	0xbe9b9901	-0.3039017
53	0x3c40a4cc	0.011758041
54	0x3de56165	0.11200217
55	0xbd6e5571	-0.058186952
56	0xbe50c96b	-0.20389335
57	0x3c5fa892	0.01365103
58	0xbe77125c	-0.24128097
59	0xbdb7e801	-0.08979798
60	0x3d8ba3f1	0.06818379
61	0x3e004bda	0.12528935
62	0x3e1a9b9e	0.15098426
63	0x3de686a7	0.11256152
64	0x3bfd81bb	0.0077364123
65	0xbca4740d	-0.020074869
66	0x3cb51fd8	0.02210991
67	0xbe699f04	-0.22814566
68	0xbdf9078c	-0.121596426
69	0x3c510149	0.012756654
70	0xbcf02765	-0.02931566
71	0x3e3145df	0.1731181
72	0xbe2ab6bd	-0.16671272
73	0xbdc1d0da	-0.094636634
74	0xbda1dfc1	-0.07904006
75	0x3e9626ef	0.2932658
76	0x3bab2949	0.0052234274
77	0xbd57866b	-0.052618425
78	0x3dc99c1d	0.09844229
79	0xbe146196	-0.14490351
80	0x3e8afde1	0.2714682
81	0xbe1dfc73	-0.15428333
82	0xbe6fcdd6	-0.23418364
83	0x3dc63b2f	0.09679257
84	0xbe5782ea	-0.21046034
85	0x3d97493b	0.073870145
86	0x3d16cb9f	0.036815282
87	0xbe55bbff	-0.20872496
88	0x3dd03c58	0.1016776
89	0x3e87d617	0.26530525
90	0xbd3cf2d1	-0.046130005
91	0xbd80f487	-0.0629664
92	0xbe26ea5e	-0.16300341
93	0x3e757e13	0.23973875
94	0x3e0badbe	0.13640496
95	0x3e0391c9	0.12848581
96	0xbe22fe3c	-0.15917295
97	0xbd455892	-0.04818017
98	0xbd99e57c	-0.07514474
99	0x3e1c595e	0.15268466
100	0x3dfe5063	0.12417676
101	0xbd3c6038	-0.0459902
102	0x3c44e66b	0.012017827
103	0x3e2e014e	0.16992685
104	0xbd844c51	-0.06459869
105	0x3dc2495b	0.09486648
106	0xbd52c5b6	-0.051458083
107	0x3ddb42c8	0.10706097
108	0xbd8588ce	-0.06520234
109	0xbd71c645	-0.059026975
110	0x3da90fd3	0.08254971
111	0x3d857b26	0.06517629
112	0xbd81b6d7	-0.06333702
113	0xbbf715fc	-0.0075404625
114	0xbd22d91f	-0.039757844
115	0xbcce095d	-0.02515095
116	0xbd29907f	-0.041397568
117	0x3dfd3306	0.123632476
118	0xbe084304	-0.13306814
119	0x3d0e4395	0.03473242
120	0xbe80a0b4	-0.25122607
121	0x3e262c5f	0.16227864
122	0xbc995c94	-0.018720903
123	0xbdff4150	-0.12463629
124	0xbe6ed10d	-0.23321934
125	0xbde62023	-0.11236598
126	0x3b0224d8	0.0019858386
127	0xbdaacfde	-0.08340429
128	0xbe6a43eb	-0.22877471
129	0xbbb5abf3	-0.0055441796
130	0xbe013fcf	-0.12621997
131	0xbe21b508	-0.15791714
132	0x3c4d68ad	0.012537164
133	0x3e4eb1b0	0.2018497
134	0x3d2c81d8	0.042116016
135	0xbdce78ef	-0.1008166
136	0x3d462294	0.04837282
137	0xbda93d16	-0.08263604
138	0x3e440967	0.19144212
139	0xbcc52025	-0.02406318
140	0x3d87fe28	0.06640273
141	0x3e5ef818	0.21774328
142	0x3d9a0aa5	0.075215615
143	0x3dc916d3	0.098188065
144	0xba42ff0d	-0.0007438518
145	0x3e044e30	0.12920451
146	0x3e2d0689	0.16897024
147	0xbe0bc2a3	-0.13648467
148	0x3dc23b17	0.09483927
149	0x3e337e53	0.17528658
150	0xbdb03792	-0.08604349
151	0xbd5f1ac7	-0.054468896
152	0xbe7042f3	-0.23463039
153	0xbe26b180	-0.16278648
154	0x3e4890c9	0.19586481
155	0x3e0f065f	0.13967274
156	0xbd53ac43	-0.051677953
157	0xbb042661	-0.0020164477
158	0x3dcfdbf6	0.10149376
159	0xbdaf5d23	-0.08562686
160	0x3e458761	0.19289924
161	0x3b0c682e	0.00214244
162	0x3d77cc5c	0.060497627
163	0xbdff5fc5	-0.124694385
164	0x3e3aa457	0.18226753
165	0x3e513808	0.2043153
166	0x3d05fa66	0.0327095
167	0x3e7c2219	0.24622382
168	0xbd8dff86	-0.06933503
169	0x3e45a29c	0.19300312
170	0xbd399e1b	-0.045316797
171	0xb9fa097e	-0.00047690788
172	0x3cb8c12a	0.022553045
173	0x3e27f73b	0.16402905
174	0x3dd248cc	0.10267791
175	0xbe5e5ced	-0.21715136
176	0xbad2825a	-0.0016060576
177	0xbbf4096a	-0.0074474113
178	0xbdade111	-0.08490194
179	0x3e27dcfc	0.16392893
180	0xbdec7876	-0.115464136
181	0xbe059014	-0.13043243
182	0x3c30e715	0.010797282
183	0x3e33000f	0.17480491
184	0xbe50fbe2	-0.20408586
185	0xbd83f7eb	-0.06443771
186	0xbe85de4e	-0.26146168
187	0xbde5cdb4	-0.112208754
188	0x3dc3d42b	0.09561952
189	0x3e498a39	0.19681634
190	0xbd17d3d9	-0.037067268
191	0x3d1948a0	0.037422776
192	0x3e02f90f	0.12790321
193	0xbd48c915	-0.04901989
194	0x3e333a45	0.17502697
195	0xbd9f97e3	-0.07792642
196	0x3b67b06f	0.0035352965
197	0x3d4d046c	0.050053045
198	0x3dcce4e0	0.10004592
199	0xbe07727d	-0.13227268
200	0xbe3ed5b0	-0.18636203
201	0xbe31b457	-0.1735395
202	0x3c8867a6	0.016650986
203	0x3d6eb0f4	0.058274224
204	0xbe447ab7	-0.19187437
205	0xbdf508f2	-0.11964597
206	0x3e68cac1	0.22733594
207	0x3dbf4283	0.09338858
208	0x3e812e57	0.25230667
209	0xbda287ab	-0.07936033
210	0xbe821185	-0.2540399
211	0x3c306b97	0.010767839
212	0xbd2e2a4d	-0.04252081
213	0x3e8b4b46	0.27205867
214	0xbdafa416	-0.08576219
215	0xbdb0aa7e	-0.08626269
216	0x3da3f2ba	0.08005281
217	0x3e0040d4	0.1252473
218	0x3ced12c4	0.028939612
219	0xbd84fbb3	-0.0649332
220	0xbe43f5fd	-0.19136806
221	0xbe136a16	-0.14395937
222	0x3e000591	0.12502123
223	0x3e3989bf	0.18118952
224	0x3c0427d6	0.008066138
225	0x3dae5a38	0.085133016
226	0x3e43df73	0.19128208
227	0x3c35d72d	0.011098665
228	0xbdd51b06	-0.10405545
229	0x3dc2a5c5	0.09504274
230	0x3cdbf58a	0.02685048
231	0xbe8aa7d5	-0.2708117
232	0x3d8ddc89	0.06926829
233	0xbe511a6b	-0.20420234
234	0x3bde420c	0.0067827757
235	0x3e242c2f	0.1603248
236	0xbe3bbb22	-0.18333104
237	0x3e500365	0.20313795
238	0xbda8716d	-0.08224759
239	0x3e7ed5a5	0.24886186
240	0x3e3f8d48	0.18706238
241	0xbe4fbd23	-0.20286994
242	0x3c239b60	0.009985775
243	0x3e2c7830	0.16842723
244	0x3dc2be0e	0.09508906
245	0xbb966c47	-0.0045905444
246	0xbc5702d4	-0.013123233
247	0x3d028272	0.031862684
248	0x3c0f88b7	0.008760623
249	0x3d8772e4	0.066137105
250	0x3e29a8e0	0.16568327
251	0x3e27565d	0.16341539
252	0xbc116498	-0.008874081
253	0xbdf52ee4	-0.11971834
254	0x3e3442be	0.17603585
255	0x3c5c1c5d	0.013434497

lstm.bias_ih_l0 f4 [128]
0	0xbd9fa3b5	-0.077948965
1	0xbc7ccfcc	-0.015430402
2	0xbdd7bf41	-0.10534526
3	0x3d83595d	0.06413529
4	0x3d5f426b	0.0545067
5	0xbdd889b9	-0.105731435
6	0xbdaea630	-0.085277915
7	0x3e1b16ad	0.15145369
8	0x3d402c08	0.04691699
9	0xbd1e510b	-0.038651507
10	0xbe974306	-0.29543322
11	0xbda5d2d6	-0.080968544
12	0x3e56ec4f	0.20988582
13	0xbd79f9c0	-0.061029196
14	0xbcf941da	-0.030426908
15	0xbe2bd951	-0.16782118
16	0xbccb8640	-0.024844289
17	0xbb8c3781	-0.0042790775
18	0x3c2342f6	0.009964695
19	0xbe7da395	-0.24769433
20	0xbd55d418	-0.05220422
21	0x3dd4eadd	0.10396359
22	0xbe188a9d	-0.14896627
23	0xbdd825c7	-0.105540805
24	0x3d95547b	0.07291504
25	0x3dd4dbaa	0.1039346
26	0x3dee9e02	0.11651231
27	0xbddd970a	-0.10819824
28	0x3cec64f8	0.02885674
29	0x3c2f3570	0.010693893
30	0x3dd5a271	0.10431374
31	0xbe0152b6	-0.12629208
32	0xbe507b37	-0.20359503
33	0x3d9991b3	0.07498493
34	0xbd0e9be2	-0.03481663
35	0xbdf36a33	-0.1188549
36	0xbbd285de	-0.0064246496
37	0x3c9d6a7f	0.01921582
38	0x3d59fdc8	0.05322054
39	0x3dbfc437	0.09363597
40	0x3d7cf776	0.061759435
41	0xbd76fb87	-0.06029847
42	0xbdd1737f	-0.10227107
43	0xbcc9292e	-0.024555769
44	0xbd997437	-0.07492869
45	0xbe64e991	-0.22354724
46	0x3d5d95c9	0.054097924
47	0x3c3fd8e7	0.011709428
48	0x3e1dad2b	0.1539809
49	0xbd7cd106	-0.061722778
50	0x3db74057	0.08947819
51	0xbe5cedf0	-0.21575141
52	0x3e21fc4d	0.15818901
53	0x3d8b7102	0.06808664
54	0xbc6c0114	-0.014404554
55	0xbe2066a0	-0.15664148
56	0xbdd6e09c	-0.104920596
57	0x3dbd4992	0.09242548
58	0xbdfde190	-0.12396538
59	0xbd8724fd	-0.06598852
60	0xbe634c9f	-0.22197197
61	0xbe92cd67	-0.28672335
62	0x3e2a503f	0.16632174
63	0x3db0119c	0.08597109
64	0xbd3ab3fa	-0.045581795
65	0xbe2097a2	-0.15682843
66	0x3ccd1460	0.02503413
67	0x3df1757f	0.11789989
68	0x3dae6f5b	0.08517333
69	0x3cdee954	0.027210869
70	0x3dc0894b	0.094011866
71	0xbe297ed9	-0.16552295
72	0xbdadd476	-0.08487789
73	0xbce7b273	-0.028283333
74	0xbcce5bcf	-0.025190262
75	0xbdee762d	-0.11643634
76	0xbd34ec5e	-0.04417073
77	0x3d24f373	0.040271234
78	0xbd8123d6	-0.06305663
79	0x3b8eceb5	0.0043581375
80	0xbc0a070b	-0.008424531
81	0x3dd54052	0.10412659
82	0xbda34055	-0.07971255
83	0x3d99a1cb	0.07501563
84	0xbd164afb	-0.0366926
85	0x3e0372fa	0.12836829
86	0xbe5b33bc	-0.21406454
87	0x3e3a2f1f	0.18182038
88	0xbd9536e8	-0.07285863
89	0xbe37d207	-0.17951213
90	0x3dee1f8d	0.116271116
91	0x3d0286b9	0.031866763
92	0x3d0f5f53	0.035003018
93	0xbd99ad8c	-0.075038046
94	0xbd8efb8a	-0.06981571
95	0xbd40177e	-0.046897404
96	0xbc03e91a	-0.008051181
97	0x3e35f394	0.17768699
98	0xbe23955c	-0.15974945
99	0x3d9416fe	0.07230948
100	0x3e7b869e	0.24563071
101	0x3de01f78	0.10943502
102	0xbd6598e9	-0.05605403
103	0x3e03c734	0.12868959
104	0x3decc145	0.11560301
105	0x3db7ad22	0.08968569
106	0xbe82d01d	-0.25549403
107	0xbe06ac73	-0.13151722
108	0x3b77be9e	0.0037802826
109	0xbe84ddcf	-0.25950477
110	0xbdce3fee	-0.10070787
111	0x3d861865	0.06547622
112	0xbda39f7c	-0.079894036
113	0x3cd5b9f7	0.026089652
114	0x3e3e1417	0.18562351
115	0xbe593e48	-0.21215165
116	0x3e5772dc	0.21039909
117	0xbcd5726a	-0.026055533
118	0x3d0c3c67	0.03423729
119	0x3d407cb4	0.046993926
120	0xbe3cb89f	-0.18429802
121	0xbd936e58	-0.07198781
122	0xbd7f1ef2	-0.06228537
123	0x3d871b81	0.06597043
124	0xbde52ea7	-0.11190539
125	0xbc3fd34d	-0.011708093
126	0xbd58b126	-0.052903317
127	0x3de2e658	0.11079091

lstm.bias_hh_l0 f4 [128]
0	0x3d9e90b1	0.077424414
1	0x3dd98c23	0.10622432
2	0xbe187309	-0.14887632
3	0xbda3b26f	-0.07993018
4	0x3c4f73ec	0.012661915
5	0xbc2e2702	-0.010629417
6	0x3d2c364a	0.04204396
7	0x3d39112e	0.0451824
8	0x3d251fc5	0.0403135
9	0xbd0392bd	-0.032122362
10	0xbe6e179d	-0.23251195
11	0x3e162dfb	0.14665978
12	0x3e26c093	0.16284399
13	0xbe5aaf7a	-0.21356001
14	0xbd861b99	-0.065482326
15	0x3ce881ae	0.028382149
16	0x3d330f62	0.043715842
17	0xbd903b20	-0.07042527
18	0x3e01a5d0	0.12660909
19	0xbe42aafb	-0.19010536
20	0xbded6d44	-0.115931064
21	0x3d83a473	0.064278506
22	0x3dba6ea4	0.09103134
23	0xbde71141	-0.11282588
24	0x3cbc63b1	0.022996755
25	0x3d917f0a	0.07104309
26	0xbe5f1cf7	-0.21788393
27	0xbd07e053	-0.033172917
28	0x3b0c821d	0.0021439858
29	0xbe263882	-0.16232494
30	0xbe187e3b	-0.14891903
31	0x3c7fd813	0.015615481
32	0x3dc5f0a0	0.09665036
33	0xbd8da1b6	-0.069156095
34	0xbe9baabd	-0.304037
35	0x3e2e3101	0.17010881
36	0xbd7a2218	-0.06106767
37	0x3e3c6c58	0.18400705
38	0xbe18f6d5	-0.14937909
39	0xbdc91fb5	-0.09820501
40	0xbe5abf7e	-0.21362111
41	0x3e0722a8	0.13196814
42	0xbe964dd4	-0.29356253
43	0xbe191d3e	-0.14952561
44	0x3e0d4627	0.13796292
45	0xbe5c916d	-0.2153985
46	0xbdc124f7	-0.094308786
47	0xbe2db148	-0.16962159
48	0x3c0b44ae	0.008500261
49	0x3e11ac11	0.14225794
50	0x3db5b3cf	0.088721864
51	0x3d57af02	0.052657135
52	0x3dc5af7f	0.09652614
53	0x3e7417ab	0.23837154
54	0xbe4a0c0c	-0.19731158
55	0x3e32607e	0.17419621
56	0x3d623252	0.05522377
57	0xbd330044	-0.043701425
58	0xbe145b79	-0.14488019
59	0xbc358cab	-0.011080901
60	0xbe012087	-0.12610064
61	0xbd8783ea	-0.066169575
62	0x39f2fea7	0.00046347568
63	0x3e06db29	0.1316954
64	0x3bc1e37e	0.0059170118
65	0xbd805dc2	-0.06267883
66	0x3df9561e	0.12174629
67	0xbd09a8d0	-0.033608258
68	0xbdd43995	-0.103625454
69	0x3cbfc6c4	0.023410209
70	0x3d8d47a6	0.068984315
71	0x3ca867f9	0.02055739
72	0x3d90539e	0.07047199
73	0x3d948d84	0.072535545
74	0xbc96244e	-0.018327858
75	0xbe286aff	-0.16447066
76	0x3cbc8129	0.023010807
77	0x3c17da65	0.009268378
78	0xbdac2c46	-0.08406882
79	0x3e859a1d	0.26094142
80	0x3d816436	0.06317942
81	0x3d9a7728	0.075422585
82	0x3d4021b6	0.04690715
83	0xbe51760d	-0.20455189
84	0x3e0eda1c	0.1395039
85	0x3d834a36	0.06410639
86	0xbcf0ca60	-0.029393375
87	0x3cd44ebc	0.02591645
88	0xbd490400	-0.04907608
89	0x3c957919	0.01824622
90	0xbce9fe1a	-0.028563548
91	0x3cefedac	0.029288135
92	0xbd101a13	-0.035181116
93	0xbd251975	-0.04030748
94	0xbcab9157	-0.020943327
95	0xbe0c48cc	-0.13699645
96	0x3cb58775	0.022159318
97	0x3e177198	0.14789426
98	0xbc35400b	-0.011062632
99	0x3e56d177	0.20978342
100	0x3e1fe388	0.1561414
101	0xbda76f66	-0.081755444
102	0xbdbca02b	-0.09210237
103	0xbda6efdf	-0.081512205
104	0xbe19d9c7	-0.15024482
105	0xbe0111f8	-0.12604511
106	0xbe1f3010	-0.15545678
107	0x3bfb3e5c	0.007667346
108	0x3e3b0ead	0.18267317
109	0xbe49c267	-0.19703065
110	0x3d8b487c	0.06800935
111	0x3dc9948e	0.09842788
112	0x3e020ff7	0.12701403
113	0xbddede01	-0.10882188
114	0x3db4fc78	0.08837217
115	0xbe16d5de	-0.14730021
116	0x3e2d1368	0.16901934
117	0x3d4031de	0.046922557
118	0x3e107e4d	0.1411068
119	0x3d9422a5	0.072331704
120	0x3d5a4184	0.053285137
121	0x3cb41ccf	0.021986393
122	0x3d37ece9	0.04490367
123	0xbdab786e	-0.083725795
124	0xbd08c708	-0.033392936
125	0xbc94e7e5	-0.018176982
126	0xbd906e19	-0.070522495
127	0xbdba7ff0	-0.091064334

lstm.weight_ih_l1 f4 [128, 32]
0	0xbe69f715	-0.2284816
1	0xbdf9d203	-0.1219826
2	0x3e21388d	0.15744229
3	0xbde15f56	-0.11004512
4	0xbe0ea02d	-0.1392829
5	0x3e0977a1	0.13424541
6	0x3dcf85ce	0.10132943
7	0x3dc33d32	0.095331565
8	0x3d6bab81	0.057536606
9	0x3d799fdd	0.060943473
10	0x3d37fbe4	0.044917956
11	0x3e1f1324	0.15534645
12	0xbd2f3970	-0.042779386
13	0xbd545522	-0.051839
14	0xbdbba787	-0.09162813
15	0x3e333f58	0.17504632
16	0x3d30012c	0.042969868
17	0xbe0694c9	-0.13142695
18	0xbd5f1e45	-0.054472227
19	0xbdd4c18b	-0.10388478
20	0xbdd8bc4a	-0.10582788
21	0xbce37756	-0.027766865
22	0xbdd6f422	-0.104957834
23	0x3e0ad2f2	0.13557032
24	0xbe246051	-0.16052367
25	0x3e0f7062	0.14007714
26	0x3d819f3a	0.06329198
27	0xbcf5c7c8	-0.03000249
28	0xbcfea4de	-0.031084474
29	0xbd2434be	-0.04008936
30	0xbd9eb9ce	-0.07750283
31	0x3c9a4b4c	0.018834732
32	0xbdfe718a	-0.124239996
33	0x3e60b92e	0.2194564
34	0xbbb35725	-0.005473035
35	0xbe9138d4	-0.2836367
36	0xbe572367	-0.21009599
37	0xbe83d3c5	-0.25747505
38	0x3e76aa6e	0.24088451
39	0xbe49c56c	-0.19704217
40	0xbe1492ec	-0.14509171
41	0xbcbe703d	-0.023246879
42	0x3dc8a4e9	0.09797079
43	0x3e14fe97	0.14550243
44	0x3d50e276	0.05099722
45	0xbe6af3f4	-0.22944623
46	0x3e115745	0.14193447
47	0xbb855ce9	-0.0040699136
48	0x3e38e9c0	0.18057919
49	0xbe71946f	-0.23591779
50	0xbdd86b9f	-0.10567402
51	0xbe89a3f4	-0.268829
52	0x3e3bf626	0.18355617
53	0x3e8044d8	0.25052524
54	0xbb15d508	-0.0022862572
55	0x3d04ab6a	0.032390036
56	0x3d871681	0.06596089
57	0x3e2a092a	0.16605058
58	0x3e44892f	0.19192956
59	0x3db09984	0.08623031
60	0xbdf5c490	-0.12000382
61	0x3d97dd23	0.07415225
62	0x3dffd0c6	0.12490992
63	0x3adee444	0.0017005284
64	0xbd8ac021	-0.06774927
65	0xbd9575f1	-0.07297886
66	0x3ac91a06	0.0015342839
67	0x3da1b96d	0.07896695
68	0x3e2d8506	0.16945276
69	0x3e1cf24c	0.15326804
70	0xbe10018a	-0.14063087
71	0x3e106b5b	0.14103453
72	0x3d8377cd	0.064193346
73	0x3e310267	0.17286073
74	0x3dee65d8	0.11640519
75	0xbe30a05a	-0.1724867
76	0x3b5311ab	0.0032206576
77	0xbd57efc3	-0.05271889
78	0x3a00153f	0.00048859784
79	0xbe3fbceb	-0.1872441
80	0xbe0047a8	-0.12527335
81	0xbdd8c0b9	-0.10583634
82	0x3e24c96e	0.16092464
83	0x3de6ff08	0.11279112
84	0x3d6a0773	0.05713601
85	0xbe20bf6f	-0.15698026
86	0x3d97f14f	0.07419073
87	0xbd3492be	-0.044085257
88	0x3df92d8a	0.12166889
89	0x3da670bc	0.08126971
90	0xbd2a528f	-0.04158264
91	0x3dca26b3	0.098706625
92	0x3cabe318	0.02098231
93	0x3e40312b	0.18768756
94	0xbe18ef86	-0.14935121
95	0xbdb678d9	-0.089097686
96	0x3cac1662	0.021006767
97	0xbe1571a9	-0.14594139
98	0xbe62b623	-0.22139792
99	0xbd1ac96f	-0.03778976
100	0x3e8fc957	0.28083298
101	0x3e6e5860	0.232759
102	0xbe511cc2	-0.20421126
103	0x3bbe3844	0.005805047
104	0x3df3c131	0.11902083
105	0x3dc0868d	0.094006635
106	0x3e531d1c	0.20616573
107	0x3db1edbd	0.08687923
108	0x3df11798	0.11772078
109	0x3db0bba7	0.08629542
110	0xbd7221af	-0.059114154
111	0x3cbdd89b	0.023174575
112	0x3c223c8a	0.009902129
113	0xbd0105ec	-0.03149979
114	0xbd01c67e	-0.031683438
115	0x3d2bf277	0.04197928
116	0xbe075abd	-0.13218208
117	0xbe79a194	-0.24378043
118	0x3e49bfec	0.19702119
119	0xbd56c7f8	-0.0524368
120	0x3df341ca	0.11877783
121	0x3d539811	0.051658694
122	0xbe851161	-0.25989822
123	0xbde89464	-0.11356428
124	0x3b863451	0.004095592
125	0x3d3dd54e	0.046346
126	0xbd5c5395	-0.053790648
127	0xbe2923e4	-0.16517597
128	0xbe745bcf	-0.23863147
129	0xbcfa7be5	-0.030576656
130	0x3b96ddc0	0.0046040714
131	0x3dfcc02d	0.12341342
132	0xbdb68344	-0.08911756
133	0xbd611ec6	-0.05496099
134	0x3db30b7b	0.08742424
135	0xbe2e7c11	-0.17039515
136	0x3d423e0d	0.047422457
137	0xbe111298	-0.14167249
138	0xbe5eade2	-0.21746019
139	0x3e3613cc	0.1778099
140	0x3debe8f3	0.11519041
141	0xbe131b8f	-0.14365982
142	0x3dfc7593	0.12327113
143	0x3d33cb3d	0.043894995
144	0xbd789a32	-0.060693927
145	0x3d8a7bbd	0.067618825
146	0xbde577f3	-0.11204519
147	0xbcfaa959	-0.03059833
148	0xbca089f3	-0.01959703
149	0x3c93e620	0.018054068
150	0xbdcb53b1	-0.09928072
151	0xbe59132b	-0.21198718
152	0x3c1ace66	0.009448623
153	0x3e242da0	0.1603303
154	0x3e22a9f1	0.1588514
155	0xbda02224	-0.07819012
156	0xbe3258f2	-0.17416742
157	0xbd1b06d3	-0.037848305
158	0x3d09cfb7	0.033645358
159	0x3ca3696b	0.019947728
160	0x3e473032	0.19451979
161	0xbdf0fdfa	-0.11767192
162	0xbe3e4bb6	-0.18583569
163	0x3e0985cd	0.13429947
164	0x3dbd5c0d	0.09246073
165	0x3e90e6d6	0.28301114
166	0xbe5c913f	-0.21539782
167	0x3cab97b6	0.020946365
168	0x3d7d5e53	0.061857533
169	0x3e8983c4	0.26858342
170	0x3b359a4b	0.0027710374
171	0x3d8b27aa	0.06794675
172	0x3e0e4456	0.13893256
173	0xbe1cc70a	-0.15310302
174	0xbcfd8233	-0.030945873
175	0xbdeb4e97	-0.11489599
176	0xbe915bfd	-0.28390494
177	0xbca8d43f	-0.02060902
178	0x3e5b65c5	0.21425541
179	0xbdbc1b3a	-0.091848806
180	0xbe9589c4	-0.2920667
181	0xbd800972	-0.062518016
182	0x3e4c6dc0	0.19963741
183	0x3e5acf32	0.21368101
184	0xbe1769b7	-0.14786421
185	0x3cca8f8d	0.024726653
186	0xbe385e0b	-0.18004625
187	0xbdc5bfc4	-0.09655717
188	0x3e307e9f	0.17235802
189	0x3e195f25	0.14977701
190	0xbcef996d	-0.029247964
191	0xbdcbfe36	-0.09960596
192	0x3d5a2f4d	0.053267766
193	0xbe15b962	-0.14621499
194	0xb943dabf	-0.00018678138
195	0x3dd67124	0.104707986
196	0xbcb8960a	-0.022532482
197	0x3dd59702	0.10429193
198	0xbe28f16e	-0.16498348
199	0x3e84a6b0	0.25908422
200	0x3e24942d	0.1607215
201	0x3da8db82	0.08244993
202	0x3e3b4edc	0.18291801
203	0xbcea1a47	-0.028576983
204	0x3d80221b	0.06256505
205	0xbcf616d5	-0.030040184
206	0xbc066993	-0.008203882
207	0xbda9cc48	-0.08290917
208	0xbe5c7ebf	-0.21532725
209	0xbcd4d1c5	-0.025978932
210	0x3e051945	0.12997921
211	0x3e28a993	0.16470937
212	0xbe68b092	-0.22723606
213	0xbe8f6680	-0.2800789
214	0x3e481f34	0.19543153
215	0xbd5340c2	-0.05157543
216	0xbd7b5996	-0.061364733
217	0xbe059da8	-0.13048422
218	0xbe950d23	-0.29111585
219	0xbe17856e	-0.14796993
220	0x3d952c6c	0.072838634
221	0x3d904034	0.07043496
222	0x3d995d84	0.0748854
223	0xbbc66ef1	-0.0060557057
224	0x3e093045	0.1339732
225	0xbdf3ca52	-0.11903824
226	0x3c9c578b	0.019084712
227	0xbddecea6	-0.10879259
228	0xb8504740	-4.965742e-05
229	0x3e7ca877	0.24673639
230	0x3d1cfffd	0.038330067
231	0x3e8128d6	0.25226468
232	0x3c30fb2b	0.010802071
233	0x3e3454d8	0.1761049
234	0x3e0f1bf7	0.13975511
235	0xba37368e	-0.0006989025
236	0x3e57fb94	0.21092063
237	0xbdf93a17	-0.12169283
238	0xbe3450df	-0.17608975
239	0x3d23aac9	0.039957795
240	0x3cde5508	0.027140155
241	0xbb8405bc	-0.004029004
242	0x3cfebce6	0.031095933
243	0xbe1195d5	-0.14217313
244	0xbe79f76a	-0.24410787
245	0xbea0beb5	-0.31395498
246	0x3dad8c93	0.08474078
247	0x3d8af63c	0.06785247
248	0x3dbc92de	0.092077
249	0xbd0bf27d	-0.0341668
250	0xbd8edcf8	-0.0697574
251	0xbca27a88	-0.019833818
252	0xbcf6d9a9	-0.030133085
253	0x3e06c7a9	0.13162102
254	0xbdefb434	-0.11704293
255	0x3c04b878	0.008100621

lstm.weight_hh_l1 f4 [128, 32]
0	0xbd9a14f4	-0.07523528
1	0xbcaca4fd	-0.021074766
2	0x3d06d6a5	0.032919545
3	0x3dd2405d	0.102661826
4	0xbe1d7a1d	-0.15378614
5	0xbdad275a	-0.08454771
6	0xbd721cfd	-0.059109677
7	0x3e272992	0.16324452
8	0xbdfc2408	-0.1231156
9	0x3dd68836	0.10475199
10	0xbdc566b3	-0.09638729
11	0x3da59f43	0.080870174
12	0xbe2f6a14	-0.1713031
13	0x3d1822c3	0.037142526
14	0xbdccfeae	-0.10009514
15	0xbe43cf49	-0.19122042
16	0xbdf4f6c5	-0.1196113
17	0x3e075906	0.13217553
18	0xbcba3f92	-0.02273539
19	0x3d05a115	0.032624323
20	0xbde49809	-0.11161811
21	0xbe0f82f3	-0.14014797
22	0x3d61f313	0.055163454
23	0x3c9a8fc8	0.018867388
24	0x3e059d77	0.1304835
25	0x3d4a48fd	0.049386013
26	0x3e6060f1	0.2191198
27	0x3e1dcf18	0.15411031
28	0xbe1349b4	-0.14383584
29	0xbd43d78c	-0.047812983
30	0xbe01561c	-0.12630504
31	0xbd876d70	-0.066126704
32	0xbd08dc24	-0.033413067
33	0x3d3036c8	0.043020993
34	0xbd938a81	-0.07204152
35	0xbd4d5df1	-0.050138418
36	0xbe064cc1	-0.13115217
37	0xbd4bbe05	-0.049741764
38	0x3d8fe60f	0.07026302
39	0xbe199f89	-0.15002264
40	0x3def82e0	0.11694884
41	0xbe2ac3d3	-0.16676264
42	0xbc80db1b	-0.015729478
43	0x3e6c38ea	0.23068586
44	0xbe3ee186	-0.18640718
45	0x3d167428	0.03673187
46	0xbdf1de00	-0.11809921
47	0xbc238811	-0.009981171
48	0x3e307fae	0.17236206
49	0x3e1d4450	0.1535809
50	0xbc27d0e9	-0.010242679
51	0xbd96ac30	-0.07357061
52	0xbd45176d	-0.048118044
53	0xbd5dbbc2	-0.054134138
54	0x3d7cc457	0.06171068
55	0xbc8ca4de	-0.017168459
56	0xbda040e7	-0.07824879
57	0xbe64bec0	-0.2233839
58	0x3e59b8f3	0.21261959
59	0x3c17483b	0.00923353
60	0x3c7750e6	0.015094971
61	0xbe3ebaa4	-0.18625885
62	0xbe3f2672	-0.1866701
63	0xbb453e8f	-0.0030097102
64	0x3e0e182b	0.13876407
65	0xbe8af0b8	-0.2713678
66	0xbd52c615	-0.051458437
67	0xbd8aeb8b	-0.067832075
68	0x3cd004c1	0.025392892
69	0x3e052119	0.13000907
70	0x3cc48388	0.0239885
71	0xbd9a84c1	-0.07544852
72	0xbdc4245e	-0.09577249
73	0x3d9dae16	0.0769922
74	0x3e1be188	0.15222752
75	0x3d23d430	0.03999728
76	0xbdf7e8c8	-0.121049464
77	0x3dc2603e	0.09491013
78	0xbd274be8	-0.040843874
79	0x3e26baa2	0.16282132
80	0x3d8c65c2	0.06855346
81	0xbdbbe3ce	-0.0917431
82	0xbe04396f	-0.12912534
83	0x3d2fa9d4	0.04288657
84	0x3dbe116c	0.09280667
85	0xbd35422a	-0.044252552
86	0xbc2e384b	-0.0106335385
87	0xbe194a14	-0.14969665
88	0xbd1cbff0	-0.038268983
89	0x3dc80a65	0.097676076
90	0xbcb635a5	-0.022242377
91	0x3e3abf1b	0.18236963
92	0x3b799fbf	0.00380896
93	0xbd2c7112	-0.04210002
94	0xbe08364f	-0.13301967
95	0x3c64c838	0.0139637515
96	0x3d21c442	0.039493807
97	0xbc8862ff	-0.016648768
98	0x3d7e2fc7	0.062057283
99	0xbdd4f29f	-0.10397839
100	0xbd53b49f	-0.051685926
101	0xbd1d4a0c	-0.038400695
102	0xbd9ebdc8	-0.07751042
103	0x3db798df	0.08964705
104	0xbdc6490a	-0.096819
105	0x3e284a7a	0.1643466
106	0x3d6349b3	0.055490207
107	0x3e20c2ce	0.15699312
108	0x3d254441	0.040348295
109	0xbdf25796	-0.11833112
110	0x3e082abb	0.1329755
111	0xbe1068d6	-0.14102492
112	0x3e160ebf	0.14654063
113	0x3e29d801	0.16586305
114	0x3dbd56d9	0.092450805
115	0xbdff6140	-0.12469721
116	0x3e04a673	0.1295412
117	0xbd15f4d7	-0.03661045
118	0xbd5565f1	-0.052099172
119	0x3d17a363	0.037021052
120	0x3db72e89	0.08944423
121	0x3d6bd70a	0.057578124
122	0x3dfe7f94	0.12426677
123	0x3e362a5e	0.177896
124	0xbcf409e9	-0.029789882
125	0x3e050077	0.12988459
126	0x3e1c8a23	0.1528707
127	0x3dbd0442	0.09229328
128	0xbe1c5b9f	-0.15269326
129	0xbd0f6bf1	-0.03501505
130	0xbdde866f	-0.10865485
131	0xbd46126f	-0.048357423
132	0xbdfcb8e5	-0.12339953
133	0x3d659c60	0.056057334
134	0xbd4c92bc	-0.049944624
135	0xbd80fc40	-0.06298113
136	0x3e324aff	0.17411421
137	0x3dd74270	0.10510719
138	0x3d3602ca	0.044436254
139	0xbd58facf	-0.052973565
140	0xbd53e556	-0.051732384
141	0xbd30cc95	-0.043163855
142	0xbe11d50a	-0.14241424
143	0x3d670b0d	0.056407023
144	0xbda07b48	-0.07836014
145	0x3dcc1130	0.09964216
146	0x3d81e464	0.0634239
147	0xbe35f77d	-0.1777019
148	0xbcc155cf	-0.023600487
149	0x3ceee40e	0.02916148
150	0xbcf4ffd2	-0.02990714
151	0x3be62e08	0.0070245303
152	0x3e582f0a	0.21111694
153	0x3ca004f5	0.019533614
154	0x3e6aae36	0.22918019
155	0x3dc7ac72	0.09749688
156	0xbe014668	-0.12624514
157	0xbe2c12e5	-0.16804083
158	0x3daf3759	0.085554786
159	0xbb84b495	-0.0040498474
160	0x3da6604c	0.08123836
161	0xbe743671	-0.23848893
162	0x3e4b9430	0.19880748
163	0x3d2a4829	0.041572724
164	0xbe6dd441	-0.232255
165	0x3d85ae3b	0.065273724
166	0xbe470b1d	-0.19437833
167	0x3c68c78c	0.014207732
168	0xbd5f0f7c	-0.054458126
169	0x3d634aca	0.055491246
170	0x3e180fe3	0.1484981
171	0xbda38fb7	-0.07986396
172	0xbde94253	-0.113896035
173	0x3e19cfde	0.15020701
174	0x3df10446	0.11768393
175	0xbe057aa3	-0.13035063
176	0x3df38f2d	0.11892543
177	0x3c527314	0.01284482
178	0xbca224d3	-0.01979295
179	0xbe36c16a	-0.17847219
180	0x3ded79f9	0.1159553
181	0xbdb71d57	-0.08941143
182	0x3e57cb54	0.21073657
183	0x3e4b1f5e	0.19836184
184	0xbdb23b6b	-0.08702739
185	0xbd8b8b3a	-0.06813665
186	0x3e2b2d68	0.1671654
187	0xbdf4fb58	-0.119620025
188	0xbcba03ca	-0.022706885
189	0x3dcb5949	0.09929139
190	0xbd659ec7	-0.056059625
191	0xbd1cd59e	-0.03828966
192	0xbde0c0e8	-0.10974294
193	0xbe3a2a3c	-0.18180174
194	0xbdcb45ec	-0.09925446
195	0xbe202afa	-0.15641394
196	0xbd7103ff	-0.0588417
197	0x3d1542ff	0.036440846
198	0x3da785e9	0.08179838
199	0xbdc9d094	-0.09854236
200	0x3e406713	0.1878932
201	0x3e1cc0ef	0.15307973
202	0x3d56ccd3	0.05244143
203	0xbc253cbf	-0.010085284
204	0xbdbadef3	-0.091245554
205	0xbe02aed2	-0.12762001
206	0x3d999626	0.07499342
207	0x3e2ef74b	0.17086522
208	0xbe0e4a60	-0.1389556
209	0xbccff1fa	-0.025383938
210	0x3e0af16a	0.13568655
211	0xbe5b4e04	-0.2141648
212	0x3e17b1b6	0.14813885
213	0xbb904973	-0.004403287
214	0xbe02a4e1	-0.12758209
215	0x3e13abf5	0.14421065
216	0x3cc6457c	0.024203055
217	0x3e4bb3d9	0.19892825
218	0x3e3a2050	0.18176389
219	0xbdd89933	-0.105760954
220	0x3de72e98	0.11288184
221	0xbdb881f4	-0.090091616
222	0x3dcaed92	0.09908594
223	0xbd12fa64	-0.035883322
224	0x3e1a240c	0.15052813
225	0xbe0bbd58	-0.13646448
226	0x3d0c957a	0.03432224
227	0xbd8bd0f3	-0.06826963
228	0xbc907749	-0.017635005
229	0x3ce7d2be	0.028298732
230	0xbe468390	-0.19386125
231	0xbddb7488	-0.10715586
232	0x3e60aca9	0.21940865
233	0xba2b69ff	-0.0006538927
234	0x3d96d40f	0.07364666
235	0xbcee0b92	-0.029058252
236	0x3d2cb318	0.042162985
237	0x3e32cc8c	0.17460841
238	0x3e44ad18	0.19206655
239	0x3deaf059	0.11471624
240	0x3e3aacdd	0.18230005
241	0xbaf5615f	-0.0018721035
242	0xbda25aeb	-0.079274975
243	0xbd5929c7	-0.053018358
244	0xbda4f653	-0.08054795
245	0xbe87c63a	-0.26518422
246	0x3da1d0e6	0.07901172
247	0xbdabdde1	-0.083919294
248	0xbbefdcbc	-0.0073200148
249	0xbdf906f2	-0.12159528
250	0x3e31ac31	0.17350842
251	0x3db6da5f	0.0892837
252	0x3e1433dd	0.1447291
253	0xbe46643b	-0.19374172
254	0x3d8fa889	0.070145674
255	0xbcc0ad8e	-0.023520257

lstm.bias_ih_l1 f4 [128]
0	0xbe0ec590	-0.13942552
1	0xbe5551c7	-0.20831977
2	0xbcff9874	-0.031200625
3	0xbd9dae88	-0.07699305
4	0xbd0082bc	-0.031374678
5	0x3e0e51b3	0.13898353
6	0x3e2e6237	0.17029653
7	0x3dfcdf1d	0.12347243
8	0xbd5bde08	-0.053678542
9	0xbcf8bc4b	-0.030363223
10	0xbe062cf4	-0.13103086
11	0xbd6d8eac	-0.05799739
12	0x3d970283	0.07373526
13	0xbdd68b19	-0.104757495
14	0xbbb637de	-0.005560859
15	0x3e3333bf	0.17500208
16	0xbd8d2120	-0.06891084
17	0x3e575e43	0.21032052
18	0x3e5c78b7	0.21530424
19	0x3d6470a0	0.05577147
20	0xbe573360	-0.21015692
21	0xbd6c5a8d	-0.057703543
22	0x3dfb71ad	0.12277541
23	0x3da85c85	0.08220772
24	0xbe0933fd	-0.13398738
25	0x3de8215c	0.11334488
26	0x3db796f6	0.089643404
27	0xbda33a2d	-0.079700805
28	0x3dc1deac	0.094662994
29	0xbd6b2a07	-0.057413127
30	0x3b9f86d8	0.0048683695
31	0x3dcffc80	0.101555824
32	0x3ce316cb	0.02772083
33	0xbe2041db	-0.15650122
34	0x3c9693a7	0.018380953
35	0x3ca4f8f5	0.020138243
36	0xbe015ccf	-0.1263306
37	0xbc45a1cc	-0.012062501
38	0xbce6cc51	-0.028173598
39	0xbd895add	-0.06706784
40	0xbe82383e	-0.25433534
41	0xbd2f28f8	-0.04276368
42	0xbe04c276	-0.12964806
43	0xbc1b2eff	-0.009471654
44	0x3dabbb72	0.08385362
45	0x3ddbf04e	0.10739194
46	0x3c79c939	0.015245729
47	0x3c80466b	0.015658578
48	0xbe268a0f	-0.16263603
49	0xbdeefc55	-0.11669222
50	0x3dd64e0a	0.104641035
51	0xbdf089bf	-0.11745023
52	0xbe29f646	-0.16597852
53	0xbe54f23c	-0.2079553
54	0xbddab8a5	-0.106797494
55	0x3e033a5c	0.12815231
56	0xbe4b857c	-0.19875139
57	0xbdc057ce	-0.093917474
58	0xbe675cac	-0.22593945
59	0x3d732989	0.059365783
60	0xbdec5b89	-0.115408964
61	0xbdcda498	-0.100411594
62	0x3dc9052b	0.09815439
63	0x3b86e462	0.004116581
64	0x3d3619c3	0.044458162
65	0xbc2c35d2	-0.010510879
66	0x3daf8b25	0.085714616
67	0xbe1c4015	-0.1525882
68	0x3e0e7f21	0.13915683
69	0xbe5c7fda	-0.21533147
70	0xbe3a3698	-0.18184888
71	0x3e11ff99	0.14257659
72	0xbe19e6cb	-0.15029447
73	0x3e44771f	0.19186066
74	0x3ce563e4	0.028001733
75	0xbd0914be	-0.033467047
76	0x3e3c9ef1	0.18420006
77	0x3e418531	0.18898465
78	0x3e37ed8b	0.17961709
79	0x3e20c0a4	0.15698487
80	0xbe1a77eb	-0.15084808
81	0xbd55fee8	-0.05224505
82	0x3ccb5115	0.024818936
83	0xbdb384fa	-0.08765598
84	0x3be03b70	0.006843023
85	0xbc8dcf11	-0.017310651
86	0x3cf29312	0.029611144
87	0x3d85150c	0.06498155
88	0xbd8d384d	-0.06895504
89	0x3e053ce0	0.13011503
90	0x3e0e9b99	0.13926543
91	0xbe39099e	-0.18070075
92	0x3d9e2101	0.07721139
93	0x3e03b8f1	0.12863518
94	0xbd979401	-0.074012764
95	0x3cf76d7a	0.03020357
96	0xbd40e451	-0.04709274
97	0xbd6620cc	-0.05618362
98	0xbc1092f0	-0.008824095
99	0x3df97594	0.121806294
100	0x3dde466f	0.10853278
101	0x3e07969c	0.13241047
102	0x3e53eade	0.20695063
103	0x3e6597eb	0.22421233
104	0xbdbefa6a	-0.093251064
105	0xbddf0592	-0.10889734
106	0x3db4e74e	0.0883318
107	0x3e4afe30	0.19823527
108	0xbe51dfc9	-0.20495524
109	0x3e0035df	0.1252055
110	0xbdddd05f	-0.10830759
111	0xbd93c434	-0.07215157
112	0xbd41ba34	-0.047296718
113	0xbb05c49e	-0.0020411382
114	0xbc89de90	-0.016829759
115	0x3e082028	0.13293517
116	0xbe4e2420	-0.20130968
117	0xbe2f2594	-0.17104179
118	0x3b1120dd	0.0022144832
119	0x3d183baa	0.037166275
120	0xbe30cc61	-0.17265464
121	0xbdb6a63c	-0.089184254
122	0x3dcd7b7b	0.10033318
123	0xbdd449be	-0.10365628
124	0x3e3199ac	0.17343777
125	0xbe46ec45	-0.19426067
126	0xbe26841d	-0.16261335
127	0xbde0d6f3	-0.10978498

lstm.bias_hh_l1 f4 [128]
0	0x3d9c6f64	0.076384336
1	0xbe774fab	-0.24151485
2	0xbd90e17a	-0.07074256
3	0xbda5d3be	-0.08097027
4	0x3d48add1	0.04899389
5	0x3e55afcd	0.20867844
6	0x3df5a328	0.1199401
7	0xbb959f37	-0.004566099
8	0xbd9d1484	-0.07669929
9	0x3d800863	0.062516
10	0x3bc2436a	0.0059284465
11	0x3e096b4d	0.13419838
12	0xbb969e6a	-0.004596521
13	0xbc82afd0	-0.015952975
14	0xbc907706	-0.01763488
15	0xbd0d07da	-0.034431316
16	0x3e3dff0b	0.18554322
17	0x3e61be93	0.22045355
18	0x3e03019d	0.12793584
19	0xbda0dfbe	-0.078551754
20	0xbc881596	-0.016611855
21	0xbdc20dbd	-0.094752766
22	0x3e0d59a4	0.13803726
23	0xbd9737b1	-0.07383669
24	0xbda16a75	-0.07881633
25	0x3df932a0	0.12167859
26	0xbc0a69c5	-0.008448069
27	0x3cce96f6	0.025218468
28	0xbdf41b6d	-0.119192936
29	0xbbc22f5a	-0.005926055
30	0x3bfd5215	0.007730732
31	0xbdc7acd8	-0.09749764
32	0xbd9b699f	-0.07588505
33	0xbe505c58	-0.20347726
34	0xbde5244e	-0.11188565
35	0x3e344a25	0.17606409
36	0xbe0265c4	-0.12734133
37	0x3de813a7	0.113318734
38	0xbd7fb5c9	-0.062429223
39	0xbde11a23	-0.10991313
40	0xbe5f3807	-0.21798716
41	0x3d8625f9	0.065502115
42	0xbcdf93d7	-0.027292175
43	0x3d018e56	0.031629883
44	0xbe3d7adb	-0.18503897
45	0x3dba1e89	0.09087855
46	0x3e00c0b6	0.12573513
47	0x3e378ad1	0.17924048
48	0x3d9272f1	0.071508296
49	0xbdf6f625	-0.12058667
50	0xbcb9688d	-0.022632862
51	0x3d8130fc	0.06308171
52	0xbe66aba1	-0.22526409
53	0xbdde3cf5	-0.108514704
54	0xbd051e00	-0.032499313
55	0x3d952f11	0.07284368
56	0xbdb52e8d	-0.088467695
57	0x3d5fc25b	0.05462871
58	0x3d8aaffb	0.06771847
59	0xbd3df96b	-0.04638044
60	0xbe04612d	-0.12927695
61	0x3d97eaab	0.07417806
62	0x3d34f751	0.04418117
63	0xbd3d7863	-0.046257388
64	0x3cfa6cbd	0.030569429
65	0xbcb634f6	-0.02224205
66	0x3a254041	0.0006303825
67	0xbde65174	-0.11246005
68	0xbd776519	-0.06039915
69	0xbe4d0bcf	-0.20024036
70	0xbd7de195	-0.06198271
71	0x3e081d61	0.13292457
72	0x3dfa4e3a	0.12221952
73	0xbdbf5492	-0.093423024
74	0x3d524a0f	0.05134016
75	0xbe3e6b2b	-0.18595569
76	0x3da0fcae	0.07860695
77	0xbd1ef71f	-0.03880989
78	0x3ddd6135	0.108095564
79	0x3e2e179e	0.17001197
80	0x3cf48d26	0.029852461
81	0xbe66280d	-0.22476216
82	0xbe351ceb	-0.17686813
83	0x3e407db9	0.1879796
84	0xbd19b91a	-0.037530042
85	0xbcc354ab	-0.023844084
86	0xbca5c9b0	-0.020237774
87	0x3e3a71d3	0.18207483
88	0x3c1fe188	0.009758361
89	0x3db75817	0.08952349
90	0xbcf7992d	-0.030224407
91	0xbe539ab7	-0.20664488
92	0x3e7908c5	0.24319752
93	0xbd5afa6f	-0.05346149
94	0x3d9b5ae1	0.07585693
95	0xbd28ecb1	-0.04124135
96	0x3ca7d713	0.020488298
97	0xbd876c19	-0.06612415
98	0xbc80c04c	-0.015716694
99	0xbe11e374	-0.14246923
100	0x3d2c52e4	0.04207124
101	0x3e078362	0.13233712
102	0x3ca45574	0.020060278
103	0x3ca111e8	0.019661859
104	0xbe71663b	-0.23574154
105	0xbb91bf81	-0.004447878
106	0xbcc612e1	-0.024178924
107	0x3e3ff6b0	0.18746448
108	0x3caab8fb	0.020840159
109	0x3e126097	0.14294659
110	0x3e2f9477	0.17146479
111	0xbdbc5560	-0.091959715
112	0x3d674670	0.05646366
113	0x3c84ac4d	0.01619544
114	0x3d4b3827	0.049614098
115	0x3dc1256e	0.09430967
116	0xbe318b25	-0.17338236
117	0xbe6409be	-0.22269341
118	0xbd2a8fd3	-0.041641068
119	0x3cd5edc1	0.026114346
120	0xbe078b67	-0.13236772
121	0xbdefde2c	-0.11712298
122	0x3d7f5307	0.06233504
123	0x3e24a1d4	0.16077358
124	0x3da8d6ef	0.0824412
125	0xbde9e77b	-0.114211045
126	0xbbbbded0	-0.0057333484
127	0xbde15791	-0.1100303

fc.weight f4 [1, 32]
0	0x3e201559	0.15633143
1	0xbd460a82	-0.048349865
2	0xbd9cccad	-0.07656226
3	0x3d681fd5	0.056670982
4	0xbe081fff	-0.13293456
5	0x3e3b509a	0.18292466
6	0x3e38545e	0.18000934
7	0xbe15abf9	-0.14616384
8	0x3dadf7d0	0.08494532
9	0xbe03c217	-0.12867008
10	0x3dc1d68a	0.09464748
11	0x3deede19	0.116634555
12	0xbcde9f0a	-0.027175445
13	0xbd90563e	-0.070476994
14	0xbdf5102b	-0.119659744
15	0xbe27c2a6	-0.16382846
16	0x3df8eaa2	0.12154128
17	0x3df63e10	0.12023556
18	0x3e698afd	0.22806926
19	0xbe00e1ec	-0.12586182
20	0x3ab38600	0.0013696551
21	0xbd8ac4d4	-0.06775823
22	0x3e135802	0.14389041
23	0xbe534b99	-0.20634307
24	0x3c318cf1	0.010836826
25	0xbd9f6643	-0.07783177
26	0x3e243b0c	0.1603815
27	0x3dd5d718	0.104414165
28	0xbe36c70c	-0.17849368
29	0xbd3cdf41	-0.04611135
30	0xb91ddb54	-0.00015054393
31	0x3c0b481b	0.008501078
