backend/stocks/price/pt_models/ADS.pt (torch, 54423 bytes, 9 tensors)

lstm.weight_ih_l0 f4 [128, 1]
00000000: 21e3 6e3e 4350 86bd 0087 373d 5543 873d
00000010: aa17 a93e a8ff dbbd 1abb 0bbe 8e62 e33d
00000020: f916 87be 11ca 58be 79e6 113d d75b 853d
00000030: 3d6a ea3d 1e6f a8bd 7ba9 42be 07c0 943e
00000040: 69a3 e33b 9a77 7d3c 4a56 013e 17a5 2ebc
00000050: 0c72 353d 3401 193e c49c 493d 94a4 5abe
00000060: 42c5 833e 438a a23d df0e 0dbd 876b 8bbe
00000070: b1e8 c63c 6057 923b 1a91 c53d b35c 1a3e
00000080: d204 483e f804 2abe 65f8 813e 29ce 763c
00000090: 689a b83e 0a41 00be 5de5 05be 9bbe b93e
000000a0: c534 49bd c30c b3bd 2df5 90be 8d40 673e
000000b0: 9f22 c73c 002a 243e 3074 53be 18d6 913e
000000c0: af8b 61bd 929b 5abe 952a 55be e779 a93c
000000d0: 39ef e83c 1219 a53d 8199 873e a15a 94be
000000e0: 7bbf 913d 246a 3b3e b821 0dbe 0c20 3abe
000000f0: 2e4c 1bbd 9ee9 74be 4921 a23d 7dd3 b93e
00000100: 024d 58be 03e2 98bb f6ac 7dbe a00c 3dbe
00000110: f043 7a3e 74b8 6fbe c559 b9bd 214f 6c3e
00000120: fb38 9a3e 3d77 96be 7a4a 55be 6683 0b3e
00000130: 2509 30be 7bb1 91be 739f 39be 1329 99be
00000140: 3722 673e f6ec 823e cd06 9fbe a923 ea3d
00000150: 24b3 19be e3ec d43d 3c75 91be a9a1 973d
00000160: 6a5b a03e c876 9cbe 83e4 67bd 5a6c 103e
00000170: f1d2 2dbe 7d42 8dbe 2e2f c13c 4760 28be
00000180: ec26 9c3e 9161 3cbe dc2d 673e 885a d73d
00000190: fe1b 5c3e 87e4 64be ee3c 6b3d 97f7 2f3e
000001a0: fd0a 06be 9e19 72be 1aea 14be 9023 133e
000001b0: 9b1b 52be b2de c9bd 6eb9 64be 2740 353e
000001c0: 39eb 1cbe 2d4b 9dbe c37b 963b 723b 92be
000001d0: d57c 7fbd 8d5a 163e a22a 073e 913a 60bd
000001e0: 8b02 ab3e ba09 ba3d 861a 8f3d 4d0e 1dbe
000001f0: bc44 58bc b90c 36be 9c86 d5bd 4dba 2b3e
0.2332883 -0.065582775 0.04480648 0.066046394 0.33025867 -0.10742122 -0.13645592 0.11102782
-0.26384714 -0.21170832 0.035620186 0.06511658 0.114460446 -0.08224319 -0.19009964 0.29052755
0.0069469702 0.01547041 0.12630573 -0.010659478 0.044298217 0.14941865 0.04922177 -0.21351844
0.25736433 0.079365276 -0.03443801 -0.27230474 0.024280878 0.0044659823 0.096468166 0.15074424
0.19533089 -0.16603458 0.25384822 0.015063801 0.36055303 -0.1252481 -0.13075776 0.36278233
-0.04912259 -0.087426685 -0.28312054 0.22583218 0.0243085 0.16031647 -0.20649791 0.28483653
-0.055064853 -0.21348408 -0.20817025 0.02068801 0.028434383 0.080614224 0.26484302 -0.28975394
0.071166 0.18302208 -0.13782394 -0.18176287 -0.037914447 -0.23917243 0.07916505 0.36294165
-0.21123126 -0.0046656146 -0.2477301 -0.18461847 0.24439979 -0.23410207 -0.09050325 0.2307706
0.30121598 -0.29387847 -0.20829192 0.13624343 -0.17190988 -0.2845572 -0.18127231 -0.2991415
0.22571646 0.25571412 -0.31059876 0.11432583 -0.15009743 0.10396745 -0.28409755 0.07403881
0.31319743 -0.30559373 -0.05661441 0.14103833 -0.16974999 -0.2758979 0.023582067 -0.16442977
0.30498445 -0.18396594 0.22576088 0.10515314 0.21495053 -0.22352801 0.057431154 0.17184292
-0.13090129 -0.23642585 -0.14542428 0.14369035 -0.20518343 -0.09856929 -0.22336361 0.17700253
-0.15324105 -0.30721417 0.0045923903 -0.28560978 -0.06237491 0.1468298 0.13199857 -0.054743353
0.33400378 0.090838864 0.06987481 -0.15337487 -0.013199981 -0.17778291 -0.10426065 0.16770287

lstm.weight_hh_l0 f4 [128, 32]
00000000: 2119 8bbc 19f1 453e c3b5 523d bb90 99bd
00000010: 915e c6bc 9d9b 3dbe 3224 a7bd 39ef 01be
00000020: 62bb 763e fd51 3c3d e605 20be 3de6 b83d
00000030: cb4a 883d 03fc e23d 4f73 ff3d baee 1d3d
00000040: 95e8 093c 60ec d2b9 2418 09be b1cd 153e
00000050: 975a e2bd 143d a5bc 1058 49be 57d1 b9bd
00000060: 19f0 a13d c8e0 1fbe 813e 11be a89f b13d
00000070: aebe 0b3e e0f6 2cbe 85ec f73c 9c56 0b3e
00000080: 2f45 003e 5cd3 0cbe b3b5 083e d762 7fbe
00000090: bf1a f4bb 1b29 933d a4e7 64be 9af0 ad3d
000000a0: 500d 3c3e d2da 853c 3ac5 34bd 30e7 043e
000000b0: 82c5 e1bd 0ca8 49be 8935 51be 518d 253e
000000c0: f334 573e 9ad2 563e 7bc3 323d 5d6b 84bd
000000d0: 7432 87bd d345 683e 43ab 943d 4313 60bc
000000e0: d523 39be f213 433e a78b 083e c508 063e
000000f0: 7848 69be 3cd9 60bc 6586 8a3e bd9e 0b3d
00000100: 260f c0bd 8cf4 6fbd 950e df3d 55d1 08bd
00000110: 1e39 153e ae06 fb3c 2a1a 483e 296b 2dbd
00000120: 5f26 a03d 706a 94bd 7e43 12be 7952 13be
00000130: c873 4fbc ba62 9dbc 48b6 a8bd cf9b 5ebe
00000140: 1635 323e e7cc 0f3e 952a d2bd a471 ccbd
00000150: 8619 0fbe 6720 733c a6ff 46be ad49 173e
00000160: 4373 23bc 4f67 51bd 6d31 2d3d 9f76 553d
00000170: 2d66 89bd 7274 d4bd 20dd d7bd f76a 7bbd
00000180: da31 9ebd 0a02 5c3e b633 5abe 9c82 cc3d
00000190: 31f2 27bc d024 97bd e998 9abd 52ac ee3d
000001a0: 31ee e3bd d632 163d acf9 19bd 9762 cb3d
000001b0: e940 1b3e a60a 2f3d c63d debd c9a9 f93d
000001c0: 3250 13be 19b7 0b3d d199 013e 5fae e1bd
000001d0: 4c8b 1b3e 0ca4 cabc cecb 19be f23e 42be
000001e0: 6bd0 9dbd 22c0 a2bc ca26 c43d a40f 2ebd
000001f0: bbee 1a3c 749f 443e 9e83 edbd 52cf b63d
00000200: 33d6 87bd 117c 053e 4b4f b33d 0d10 723c
00000210: 2833 a5bd 4336 c23d 313a c0bd 9c71 073e
00000220: 88d8 b9bb c433 d4bd 5ca7 74bd f43f 3cbc
00000230: d7dc 14be 9778 32bd a699 cfbc dccb 26be
00000240: a9c4 02bd 8355 793e d7b3 1bbe ee6b a93c
00000250: 6c5a babd d948 c13d 168d 3dbd 4d55 e3bd
00000260: c691 ba3d e4ec 73bd eefa c9bb c321 08be
00000270: c6a5 243c 9cb2 36be 2206 b83d a096 773d
00000280: f212 253d 4f8e fdbc e95d 24bd ef86 9abd
00000290: fbb5 4abe 8166 6e3d 47cb 233e 24c3 91bd
000002a0: 5b1c 0cbc 697a f33d 1e0e 313d ac21 863d
000002b0: 4aee be3d 9c9e 2e3d 0864 55bd a2aa 5d3e
000002c0: 4b13 23be 3bdc 06be 84a7 cdbc a070 4b3d
000002d0: e418 e8bd 8cad 4f3d 5e58 803e 2def 833d
000002e0: 7f1a 2cbe ec5e 293d fcca 19be c91e 883d
000002f0: 3aab 8d3d 8133 e0bd 82bb 503e 7cb5 81bd
00000300: 6db3 343b 383f cc3d 95a6 913d c693 4ebc
00000310: aa67 4dbe 29fa bd3d 82bc 15be 03ee d2bd
00000320: 1046 a7bd a43b 033e c7ce 243e 5188 75bc
00000330: 3e1e 423d de54 813e 8afb b7bd 2587 163e
00000340: e97c 00be 3279 1bbe ce15 b93d a663 9bbd
00000350: 4da3 913d f624 edbd ca17 cc3d f972 0ebd
00000360: bd8f 0fbe bcf9 873e e1e6 033d c614 abbc
00000370: b52f 023d 05f4 d43d 2142 e33d 2e8b 683e
00000380: c71e 873d 93de 203e 0cd7 593d 9f03 833d
00000390: 4d3e 13bd b191 c9bc 5c65 5c3d 506b 093d
000003a0: 96a2 74bd 05c8 07bd 8711 1ebe 2c39 fe3d
000003b0: 0929 dbbd ae30 28bd 973a 1abe 44fe d23d
000003c0: 1eb3 733d 3cdc dcbd 07db 55be 1823 f93c
000003d0: 9982 32bd a09f f4bd 3f9d f3bd 40c8 4a3d
000003e0: 520b d13d d9b2 893d 173e 05be 75c3 f8bd
000003f0: d033 c7bb a424 0cbe 31ff 163c bd6c 2b3e
-0.016979756 0.19330253 0.051442873 -0.07498308 -0.024215015 -0.18516393 -0.081612006 -0.12688912
0.24094918 0.045976628 -0.1562725 0.090282895 0.066548906 0.11083224 0.12473165 0.038557746
0.008417268 -0.00040230434 -0.13388115 0.14629246 -0.11052435 -0.020170726 -0.196625 -0.090731315
0.07907123 -0.15613091 -0.14184 0.0867303 0.13646957 -0.1689105 0.030264148 0.13607258
0.12526391 -0.13752502 0.13350563 -0.24940048 -0.0074494774 0.071855746 -0.22353989 0.08493157
0.18364453 0.016339693 -0.044133402 0.12978816 -0.11024 -0.19693011 -0.20430578 0.16167189
0.21016292 0.20978776 0.043643456 -0.064657904 -0.0660142 0.22682886 0.07259228 -0.013676467
-0.18080075 0.19050577 0.13334523 0.13089283 -0.22781551 -0.013723668 0.2705566 0.03408693
-0.09377889 -0.058582827 0.10891453 -0.03340276 0.1457257 0.030642834 0.19541231 -0.042338524
0.07819819 -0.07246864 -0.14283559 -0.1438693 -0.012661882 -0.019212116 -0.082378924 -0.21739124
0.17403063 0.14043008 -0.10262028 -0.09982613 -0.1397458 0.014839268 -0.1943346 0.14774199
-0.009976211 -0.051123913 0.042283464 0.05211508 -0.067089416 -0.10373773 -0.10540223 -0.061381306
-0.07724352 0.21485153 -0.21308789 0.09985849 -0.010250614 -0.07380068 -0.075486965 0.11653961
-0.11129416 0.036669575 -0.03759162 0.09930914 0.1516148 0.042734765 -0.10851626 0.12190587
-0.14386061 0.034110162 0.12656333 -0.11019587 0.15189856 -0.024736427 -0.15019152 -0.18969324
-0.07705768 -0.019867007 0.09577711 -0.042495385 0.009456332 0.19201452 -0.115973696 0.08926262
-0.06632652 0.13035609 0.08755358 0.014774335 -0.08066398 0.09483006 -0.09386099 0.13226932
-0.0056715645 -0.10361436 -0.05972992 -0.011489857 -0.14537369 -0.043572035 -0.02534182 -0.16288704
-0.03192583 0.24349026 -0.15205322 0.020681348 -0.09099278 0.09437723 -0.04627713 -0.11100254
0.09109835 -0.05955209 -0.0061639464 -0.13294129 0.010049289 -0.17841572 0.08985545 0.06044638
0.04030127 -0.030951647 -0.040128622 -0.07545268 -0.19795983 0.058203224 0.15995513 -0.07117298
-0.008551682 0.11888582 0.043226354 0.06549391 0.09322794 0.04263173 -0.05209735 0.21647123
-0.15925328 -0.13169949 -0.025104292 0.049667954 -0.113328725 0.050702617 0.2506742 0.064421035
-0.16806982 0.04135029 -0.15018839 0.06646497 0.069174245 -0.109473236 0.20384029 -0.063334435
0.0027572766 0.099729955 0.07111851 -0.012608474 -0.20059076 0.0927623 -0.14622691 -0.102993034
-0.0816766 0.1281572 0.16094504 -0.014986114 0.047392122 0.2526006 -0.08983524 0.14699991
-0.1254765 -0.15182951 0.09037362 -0.07587366 0.07111225 -0.11579315 0.09965475 -0.034777615
-0.14019676 0.2655772 0.032202605 -0.020883929 0.03178378 0.103981055 0.110965975 0.22709343
0.06597667 0.15709905 0.0531836 0.06397175 -0.035948087 -0.024605604 0.0538076 0.033549607
-0.059725367 -0.033149738 -0.15436374 0.124132484 -0.10701186 -0.04106205 -0.15061413 0.103024036
0.05949699 -0.10784194 -0.20884334 0.030412242 -0.04358158 -0.119445086 -0.11895227 0.04950738
0.10207237 0.067235656 -0.13011967 -0.121466555 -0.0060791746 -0.13685852 0.009216116 0.16740699

lstm.bias_ih_l0 f4 [128]
00000000: 07f1 09be 25d4 88be 7553 343e af50 d03c
00000010: 8959 07bd dda2 7ebc ae68 9cbd c2cf 0c3e
00000020: 3117 0bbe 892e dcbd 283b 443d ac44 94bd
00000030: d4f8 a43b 1beb a03d 2df0 593d 327b a23d
00000040: 2398 e0bc f0a6 2a3d 688c febc de04 c0bb
00000050: ab64 593b 95da 69be 91b9 75bd dcee ae3d
00000060: 036a a73b 8873 883d 3b3a 29be ce23 b63d
00000070: a6e4 ad3d 8eb4 9c3d 3641 5cbe 687e 20bc
00000080: 3d73 69bd c3c0 54bd de37 97bd cf8d 59bd
00000090: 6428 da3d bb40 0bbe fd9b 4ebe a5af c3bc
000000a0: 6399 09be c58f 0cbe da02 d93d 7565 34bd
000000b0: afa2 fbbd 08f2 8f39 b576 c13c bd84 55bd
000000c0: 3d60 b5bd e1da 75bc 8c54 b93c 17c9 b9bd
000000d0: 1583 08be 0698 7fbe 9329 b53c 4b1a 81bd
000000e0: 94ea 02be 6679 dbbd 9b8e 84be f226 f63d
000000f0: ffd8 f5bd e630 b6bd 8fa6 233a d870 35be
00000100: da19 33bd d160 db3b 3151 513c e121 033e
00000110: f181 453d 033a 01be 9aca 413b d3b9 9bbd
00000120: 60c3 8bbd 914f 663b 40ea 023e 4d5f 94ba
00000130: ba77 f93c 9291 d8bb a2a6 b03d 1032 93bd
00000140: 29d9 0ebe 9faa 51bd dcd0 a63d b571 64bd
00000150: 1224 07be fa5a 9b3d 81f4 31bd b663 4ebd
00000160: 25bb b73d 8817 d2bd b29c 59bc 541b 1fbe
00000170: 4c83 dcbb 3c9f 593d cb69 14bd 866c 17be
00000180: 46b8 05be dffc 84be e1c6 c6bd 63f5 cabd
00000190: 92ce 3d3d 926c c3bd c112 033e eb12 e9bc
000001a0: 94a6 393e 9428 43bd 5d04 e43d 5dbc 66be
000001b0: 3c99 4abe a750 393e 322d 953d 2a1e ce3d
000001c0: 0463 263e d896 da3d 356c 233e a512 fd3c
000001d0: 2bca 23be 10f8 27be a3fc 07bd 6000 1c3c
000001e0: 6349 c6bd 7e9d 353d 5a1b 66bd ae08 e23d
000001f0: 1f9c 1bbe 4066 b93d b4f8 a4bd 76e6 563d
-0.13470851 -0.26724353 0.17609961 0.025429098 -0.03304437 -0.015541759 -0.076371536 0.13751128
-0.13583066 -0.107510634 0.04790798 -0.072396606 0.0050345454 0.07857343 0.053207565 0.07933654
-0.027416294 0.04166311 -0.03107281 -0.005859955 0.0033171575 -0.22837289 -0.059991423 0.085416526
0.005109073 0.06662661 -0.1652612 0.08893548 0.08490877 0.076516256 -0.21509251 -0.009795763
-0.056994665 -0.051941644 -0.07383703 -0.053113755 0.10652235 -0.13598911 -0.20176692 -0.023887465
-0.13437419 -0.13726719 0.10596247 -0.04404207 -0.12286889 0.00027455413 0.023616174 -0.052128542
-0.088562466 -0.015005798 0.022623323 -0.09071558 -0.13331254 -0.24960336 0.02211455 -0.06303843
-0.12784797 -0.10716514 -0.2589005 0.12019147 -0.12004279 -0.088960454 0.00062427757 -0.17718828
-0.043725826 0.006694891 0.012775705 0.12805893 0.048219625 -0.12619786 0.0029570223 -0.076038025
-0.06824374 0.003514264 0.12784672 -0.0011319906 0.030452598 -0.00660915 0.08625533 -0.07187283
-0.13950028 -0.051188108 0.081453055 -0.055772502 -0.13197353 0.07585712 -0.043446068 -0.05038806
0.08971242 -0.102583945 -0.013281988 -0.15537769 -0.006729519 0.053130373 -0.036233705 -0.14787492
-0.13058576 -0.25974175 -0.09705902 -0.09910085 0.04633958 -0.095421925 0.12800123 -0.028451404
0.18129951 -0.04764612 0.11133645 -0.22532792 -0.19785017 0.18097173 0.07284011 0.10064347
0.16248709 0.106733024 0.15959246 0.03089268 -0.1599509 -0.16403222 -0.033199918 0.009521574
-0.09681966 0.04433965 -0.05617843 0.11036812 -0.15196274 0.09052706 -0.08055249 0.05246588

lstm.bias_hh_l0 f4 [128]
00000000: ca8b 223c 86c2 26be 05df 26be 968e cbbc
00000010: 4949 b2bd 8982 303e 7f51 3cbe 5583 113d
00000020: e762 393e a944 ce3c c718 1fbd beea 30be
00000030: 4e51 af3d 0e5b 623d 1e7d acbd c23a c7bc
00000040: 134e e9bd c852 20bd 16fb d3bd 4e45 c3bd
00000050: d48d 14bd dbb8 58be cfea 82bd 6fd2 d9bd
00000060: 4f3b 2a3d bfec 8fbc 2cb8 233c 2415 e7bc
00000070: 5d21 af3b e6ad 9abd 9b17 15be 9078 a2bc
00000080: 3303 b7bc d602 953d 1ecd b8bd b631 0b3e
00000090: 1469 eebd 64da 9fbd 01a9 6dbc 2229 f5bd
000000a0: c1ca 8fbd 2663 863d 1dbd 8ebc b688 7cbe
000000b0: ae82 0fbe 6eb0 9bbd 9b47 dabd 724d d4bd
000000c0: be50 403e e927 373d 906c 003e eb57 67be
000000d0: 688e b13d d461 37bd e4cb 9e3d 602c 7b3d
000000e0: 7a29 2abd 85a5 23be 89e2 8abe dfa1 05be
000000f0: 5a49 b6bd f630 fbbc 6601 fcbd 3d5b c13d
00000100: 7305 01be d0fe bfbd 93cc 373c 41fa b2bd
00000110: ac33 023e da3a a63d 8d11 a13d 613c 293e
00000120: a987 20be 7786 a83d 3230 bfbd b5dc 8abc
00000130: 3266 ffbd b0fb f9bc d1c5 803d 242e 06bd
00000140: b957 613d 79c9 dbbc 99a7 14be d4bd ee3c
00000150: b329 b6bd 7f57 12be 510b c13a 6272 e5bd
00000160: 977f 37bd b792 5dbd 2cf0 4d3c f361 d3bd
00000170: dd63 0f3b 71da d23b 659b 243d 8048 2c3e
00000180: b215 07be 552c 45be b2a2 2c3d ba03 473e
00000190: e852 c93d 07d1 02be 387d 24be 96b7 023e
000001a0: dcd5 ec3d f946 bdbc e55f e13d 75b4 aa3c
000001b0: 58eb edbb 35b9 ac3d 3b86 04be de44 3abd
000001c0: 8631 2bbc b05f db3d f3c8 18ba 6774 8d3d
000001d0: 5153 41be d7df edbd 9220 633e 2de9 a53d
000001e0: 629a 31bd 963c 24be d7be 43be 3672 ccbd
000001f0: 8764 b5bb f67f c4bd fb35 81be 7c3b 4fbd
0.009921024 -0.16285142 -0.16296013 -0.024848264 -0.08705384 0.17237295 -0.18390463 0.03552564
0.18104135 0.025179224 -0.03884199 -0.17277047 0.085604295 0.055262618 -0.08422302 -0.02432001
-0.113918446 -0.039141446 -0.10350625 -0.09534703 -0.03626807 -0.21164267 -0.063924424 -0.1063584
0.041560467 -0.017568944 0.00999264 -0.028208323 0.0053445534 -0.075527 -0.14559786 -0.01983288
-0.022340393 0.072759315 -0.09023498 0.13593182 -0.11641136 -0.078053266 -0.014505626 -0.11970736
-0.07021094 0.0656188 -0.01742416 -0.24661526 -0.14014694 -0.07602011 -0.10658189 -0.10366334
0.187808 0.044715796 0.12541413 -0.22592132 0.0866974 -0.04477103 0.07753733 0.061321616
-0.04154346 -0.1598111 -0.27125958 -0.1305003 -0.089007095 -0.030662995 -0.12304954 0.094412304
-0.12599735 -0.093747735 0.011218208 -0.087391384 0.12715024 0.08116694 0.07864676 0.16526939
-0.1567675 0.08228772 -0.093353644 -0.016950944 -0.12470664 -0.030515522 0.062877305 -0.032758847
0.0550153 -0.026829468 -0.14517058 0.029143251 -0.08894672 -0.1429119 0.0014728104 -0.112034574
-0.044799414 -0.054094996 0.0125694685 -0.10321417 0.0021879592 0.0064347317 0.04018726 0.16824532
-0.1319187 -0.19255193 0.042147346 0.19435015 0.09830266 -0.1277505 -0.16063392 0.12765345
0.11564228 -0.023105131 0.110046186 0.020838002 -0.007260721 0.08433763 -0.1294183 -0.045475833
-0.010448819 0.1071161 -0.00058282836 0.069069676 -0.18879439 -0.1161496 0.22180393 0.081011154
-0.04336012 -0.16038737 -0.19115768 -0.099827215 -0.0055356654 -0.09594719 -0.25236496 -0.050593838

lstm.weight_ih_l1 f4 [128, 32]
00000000: 961f 26be 99af c1bd 1276 aebc e76b 2e3c
00000010: 8ec7 573b ce95 96bd 9861 423d 7e48 13be
00000020: 5fa1 2f3d f293 17bd a563 b6bd b885 6ebd
00000030: 4995 c43d ce48 843d d762 243b dfbb a83d
00000040: d7e7 4dbe a107 553d 3383 2c3e d8ab be3c
00000050: 632d 023e ba0a b13c f236 c43d f2f5 f8bd
00000060: cf24 c8bd ec73 0b3e f08c 97bd 921e 10be
00000070: 823d 743e db12 8dbd cb5f 61bd 69bc cfbd
00000080: 10ce 993c f8be bd3d 0b07 393e 1b92 25be
00000090: 6337 17be a0a1 49be 671a 83bd 3cf2 9d3d
000000a0: 15c5 673c 3a62 49be e86c 32bb 8179 113e
000000b0: 1f01 223c ea00 603e ba86 b9bd 8c57 283e
000000c0: 924c b03d 0b6a a4bd 54ee 1d3d 1664 833e
000000d0: a065 5f3e 34e4 3a3d 2f2f 053e 8e71 da3c
000000e0: 3aad 85be 0bd9 dcbc e551 433e 03b3 85bc
000000f0: 0957 2b3e 4681 d43c 3e84 0b3e 413f 883d
00000100: 2518 093e dde0 a93d 5d73 5c3e 0fc7 ce3d
00000110: 3dcc c23d a1cb c33d 1f57 703d 5689 87bd
00000120: 1d80 2a3d 01ee 363e a7d1 e93d b1e3 723c
00000130: 4be0 d43c a9cf 033e fa8b 4e3d f0e3 6d3e
00000140: c9e0 dbbd d4c1 1abd ed49 793e 90ba cabc
00000150: 5ee1 ee3d 28f0 07be f2b1 cbbc a6a2 b1bd
00000160: 19d6 bebc 8eac 223e 7c14 e1bd b2c8 ffbd
00000170: 0404 28bc fbe3 e93c f02b 1abd cc8c 5bbc
00000180: 91ac 743e 25a2 b6bd 1b2c 193d 4c81 02be
00000190: cbe9 633d a48a 043e 937c cebd 5e16 8bbe
000001a0: 4554 cb3d 6212 793d ef9e e8bd 2ff9 e5bd
000001b0: dbdd bebd 6180 433e 0efb dbbd 8244 403d
000001c0: 719e 7f3c b537 52be d950 d73d 2dca 0b3e
000001d0: c106 06be 271d b83d 786b 273d 87d2 02be
000001e0: cf20 8fbe ffe1 96bc f642 fa3d 9b74 edbd
000001f0: 552f 99bc 832b e83d fc2b 073e fc90 f13d
00000200: 978a 713d 6b76 62be 6911 7dbc e9f8 bb3d
00000210: c73a 6cbe 027c 24bd d4d7 a33d 1830 fb3c
00000220: 0f75 a23d c6b8 933d da13 09bc b32c c7bd
00000230: f738 c9bc 9a74 723e a052 ca3c defb 853e
00000240: 1175 72be 310f f7bc c2ed 133e 69f3 d0bd
00000250: 399b 22bd f5f3 203e 173a 893d e9a2 edbd
00000260: e887 3cbd 7e3b 1a3e 48c2 32bc da39 07be
00000270: b741 a8bd 155e d3bd 3064 603e 0d83 d73d
00000280: 4bdd 6cbd ac64 333d 6b29 e63d 19b0 a9bc
00000290: fbf6 103e 254c 4d3e 753e a43d 7dd6 6b3d
000002a0: 9e24 15be 5b99 543e ced2 323c 358c 043e
000002b0: e651 85bd ce7e 2b3e 2690 673e a2d0 7c3d
000002c0: b3d9 febd 147d 38be b973 a73b d072 ad3d
000002d0: 72e8 b63d 64dc c33d d6ff 113e eaef 17be
000002e0: 7d0d 0fbe 9556 11be 920c 9cbc 38fd 27be
000002f0: f699 153e 9cb7 033d 4a38 debd f874 d7bb
00000300: b598 91bd b02f a8be 9c76 a6bc 42e5 42bd
00000310: 18a7 003d 6fd6 0f3d ca5e c53d 1a19 23be
00000320: 98d7 29be ae69 83bd d079 c73c b7f4 543b
00000330: bec5 ae3c 4363 783d a139 9a3d 5c8d 21be
00000340: 1d90 d03d ad6a 0ebe 992d 9f3d ce36 17be
00000350: 11b0 4ebe e22c 43bb 9974 58bd 16cb 4d3b
00000360: ec14 dc3d 436a d73d cbc3 ffbd 8698 2dbd
00000370: cd79 f7bd 53ed 1b3e 28f3 1abd cf37 41be
00000380: 8bc7 15be 517a 5fbe 4c5b 85bd 54de 8a3d
00000390: b84d 5abe b38b 97bd 2f20 6c3d b432 78bd
000003a0: 1f1b 46be d006 843e b865 433e 5344 013e
000003b0: 573b b0bd 3731 6f3d 2365 403e 14be a13d
000003c0: 3cc7 9c3c f1f3 25be cf6d 183e 6060 d13d
000003d0: 549d 213d bed0 0fbe 5789 10bd 3cc9 83bd
000003e0: ae69 71be b656 223d 3ad5 123e e2c8 43bd
000003f0: f6b4 193b da7e 1abd 9ed6 533d ed62 4cbe
-0.16222987 -0.09457321 -0.021296535 0.010645843 0.003292534 -0.07352792 0.047456354 -0.14383122
0.042878505 -0.037006326 -0.089057244 -0.058232993 0.095987864 0.06459199 0.0025083327 0.082389586
-0.20107971 0.05200923 0.16846924 0.0232753 0.12712626 0.02161156 0.095807925 -0.12156285
-0.09772646 0.1361844 -0.073999286 -0.14074162 0.23851588 -0.06888362 -0.055022996 -0.10143358
0.018775016 0.0926494 0.18069093 -0.16169016 -0.14767222 -0.19690561 -0.0640152 0.07712218
0.014146109 -0.19666377 -0.0027225558 0.14206506 0.009887963 0.21875349 -0.090589 0.16439646
0.08608355 -0.080280386 0.038557366 0.25662297 0.2181611 0.045627788 0.1300628 0.026665475
-0.26108724 -0.026958963 0.19074209 -0.016320711 0.1673242 0.025940549 0.13624665 0.0665269
0.13388117 0.082948424 0.21528383 0.10096561 0.095116116 0.095603235 0.058676835 -0.066179916
0.041626085 0.17864229 0.11416941 0.014824794 0.025985857 0.12872185 0.05042646 0.23231483
-0.10736234 -0.037782505 0.24344607 -0.024747163 0.11664079 -0.13275206 -0.024865124 -0.08673601
-0.02329545 0.15886137 -0.10990235 -0.124894515 -0.010254864 0.028551092 -0.03763956 -0.013400268
0.23893954 -0.08917645 0.037395578 -0.12744635 0.055642884 0.12943512 -0.100823544 -0.27165502
0.099281825 0.060808547 -0.11358439 -0.112291686 -0.09319659 0.19091941 -0.10741244 0.046940334
0.01560174 -0.20529063 0.10513467 0.13651343 -0.13088514 0.08989935 0.040873975 -0.12775622
-0.27954718 -0.01841831 0.12219803 -0.11594506 -0.018699327 0.11336424 0.13200372 0.11795232
0.05897006 -0.22115485 -0.015446045 0.09178335 -0.23069297 -0.040157326 0.0800015 0.030662581
0.079324834 0.07212977 -0.008366549 -0.097253226 -0.024563296 0.23677292 0.024697602 0.26168722
-0.2367747 -0.030158611 0.14446166 -0.10202677 -0.039698813 0.15718062 0.06700533 -0.11603338
-0.046028048 0.15061757 -0.010910578 -0.13205662 -0.08215659 -0.10320679 0.21913218 0.10523043
-0.05782823 0.04379718 0.112383686 -0.020713853 0.14156716 0.20048578 0.08019725 0.0575776
-0.1456475 0.20761625 0.010914518 0.1294411 -0.065097615 0.16747591 0.22613582 0.061722405
-0.124438666 -0.18016464 0.0051102308 0.08469164 0.08931054 0.095635206 0.1425775 -0.14837614
-0.13969989 -0.14193185 -0.019048963 -0.16405189 0.14609513 0.032157525 -0.1085058 -0.006575223
-0.07109205 -0.32848883 -0.02032023 -0.04758192 0.031409353 0.03511661 0.0963722 -0.15927544
-0.16586149 -0.06416641 0.024350077 0.0032494494 0.021334525 0.06064154 0.07530523 -0.1577658
0.101837374 -0.13907881 0.07772369 -0.14767 -0.20184352 -0.002978139 -0.05284557 0.0031401566
0.10746178 0.10518315 -0.124885164 -0.042381786 -0.120837785 0.15227251 -0.037829548 -0.18868946
-0.14626901 -0.21824004 -0.06511554 0.06780687 -0.2131871 -0.073996924 0.05764788 -0.06059523
-0.19346283 0.25786448 0.19081771 0.1262372 -0.08605068 0.058396544 0.1878858 0.07897583
0.019137971 -0.16206338 0.14885639 0.1022346 0.03945668 -0.14044473 -0.035287227 -0.06434867
-0.2357547 0.039633475 0.14339152 -0.047799 0.0023453808 -0.03771863 0.051718347 -0.19959612

lstm.weight_hh_l1 f4 [128, 32]
00000000: a23b 683d 8c44 93bd 79a1 0d3e 9641 fd3d
00000010: a7f8 a43c b966 8abc c97c 13be e063 723d
00000020: 979a 0dbe fd25 cdbd 8e88 a6bd 6f3e 9bbd
00000030: a16d ac3b 8f5c ddbd 1627 7abd 9a99 1abd
00000040: 252d f93c 46ba 463e 6734 0e3e 5ed8 f73d
00000050: f696 fd3d d970 4ebd 1a7a ddbd 5a7c 81bd
00000060: 2f88 fa3c 6f7b 42bd 2c63 8f3d f9b8 103e
00000070: 7a56 90bc 1552 9cbd d34c 043e 040a cbbd
00000080: 43b3 303e 09c6 0b3e 2c0c 6dbe 2264 c63d
00000090: 5d83 64bd 47da 993d 9805 273d ff5a 6cbe
000000a0: 8b83 6dbd f50b dbbd b433 c4bd 5279 e93d
000000b0: 2458 373d 509a 9d3d a7c6 c23c d487 353e
000000c0: 227a 283e 5b5f 71be 637c 813d e328 f1bd
000000d0: 695e f23d 58c1 dfbc b5aa ca3d 82d8 17be
000000e0: e9ef 893d 4844 133e ae5f b5bc c789 b4bc
000000f0: c5a9 85bd 20c0 c33d 86d5 333e c67c 2dbe
00000100: 1e4c e4bd c4c6 fabd fc0c c6bd 1b9c 693d
00000110: f1fd b5bd 2702 523d 59a0 b9bd 89be 9e3d
00000120: c88a 0abe e2e7 3f3e 45d1 adbd 5f6f 453d
00000130: f29e bebd 8160 1c3e d6cb e8bd 9df7 febd
00000140: 7606 0a3e efe0 15be 21f4 fa3c 4ff4 963d
00000150: febd 493c 6a50 6a3d f072 9a3d a02e 2a3e
00000160: 1aea dbbd dc2a f63c b292 03be 0c34 c43d
00000170: 4be6 133e 6bad 243c 67f1 3f3d b0f1 0fbc
00000180: e211 e43d c35f dfbd 110a 663d 1e77 62bd
00000190: 1fb6 98bc 4058 adbd c34c 33be 22a9 29be
000001a0: 6a54 b43c 7336 35be a681 9ebd 7c5d febd
000001b0: 608e 0ebe 9e63 1bbe c0af e0bd 5b7f 93bc
000001c0: 89d8 9ebd 5857 d23d d319 053e 05e8 5cbe
000001d0: 68f6 1ebe 15d4 f43a 1716 31be d647 0fbe
000001e0: a07b 13be 1c85 1a3e 104a a93c e480 d03d
000001f0: bdb5 313e 24d1 1c3e d442 15be fb4e 10be
00000200: 11d8 8ebd 7e25 fb3c 025f 473d 0730 30bd
00000210: c7b7 8dbd 551b 23be 79f0 b9bd 921d 69bd
00000220: 79a8 3f3e da51 dabd badb 333d 4d09 07bc
00000230: cfce 6dbd aae4 cabc 52e9 343d 69b1 9ebc
00000240: 0015 97bd cdf3 b6bd 61b7 a4bb 65b5 9ebd
00000250: 0b4e d93d 1da5 7bbd d900 d9bc 86fe cbbd
00000260: a4bb 16bd d9f5 d73d 61fa 8f3d 6606 08be
00000270: e0c3 07bd b8ac 4c3c 8c5c 203e 600c 83bc
00000280: 6f47 e8bc 3c14 1c3e ac35 bcbd 3a20 4d3d
00000290: 90bb ce3d c452 143e 4c84 12be 1967 8bbd
000002a0: 538d da3d 2b3e f13d 7af5 ea3d 110e e2bd
000002b0: b716 89bc ca51 75bc b010 833d aa6f eb3d
000002c0: 7263 e8bc 5509 543e 7581 133d 1e91 563e
000002d0: 9055 a23d 79e5 fabc 0c4c 2e3e a3d1 823d
000002e0: 2e68 463d a7c1 373c 9b65 6cbd 4411 51bd
000002f0: c4b1 f13d bfc6 b63d 754f 3abe 4971 933c
00000300: f6de 06be 572e de3d bcd6 573d 7885 14be
00000310: f5c0 a53d b11d 10be 8553 e83d 7ef1 043e
00000320: df42 013e b1fd 0a3e d825 ab3d f866 383c
00000330: d020 6fbe 65cb 833d 20bf b5bd eb9e 123e
00000340: 4c6b 0e3e 28bd a9bd 7676 afbd b4ab 97ba
00000350: e7ed 873d 6461 02bd 98d2 d9ba 75e6 ea3d
00000360: fa40 433d 54db 27be c337 83bd e19a dcbd
00000370: d7e6 033e 5286 00be 4210 8b3b c7ac aebd
00000380: e7b8 26be fc66 dcbd 9de2 13bd ce9e 18bd
00000390: 3ac2 213e a1e7 7fbd cb7f 383e b6fd 06be
000003a0: 92d3 b23d e0af 9a3d 6339 063e a617 153e
000003b0: a379 e0bd 661e 5a3d 6899 d63d 9cd5 2ebe
000003c0: 9e8e d13d 4f50 8a3d 18dd 2d3c 04a8 9d3d
000003d0: 8bc8 a33d e589 313e bc2b 01be 72e3 143e
000003e0: da72 5dbd dcdf 943c 6209 ea3d 2213 e9bd
000003f0: 2991 abbd 6385 cf3d be07 1dbd 6f28 f33c
0.056697495 -0.07190809 0.13831128 0.12366025 0.020138098 -0.016894685 -0.1440307 0.05917728
-0.13828503 -0.10017011 -0.081315145 -0.07580268 0.005262092 -0.1080867 -0.06107243 -0.037744142
0.030417034 0.19406995 0.13887177 0.12101816 0.12382309 -0.05040059 -0.10814305 -0.06322546
0.030582516 -0.047480997 0.070013374 0.14133061 -0.01761936 -0.076328434 0.12919931 -0.0991402
0.17255883 0.13649763 -0.23149174 0.096870676 -0.05578934 0.07512336 0.04077682 -0.23081587
-0.057986777 -0.1069564 -0.09580174 0.11400093 0.04476179 0.076954484 0.023776365 0.17727596
0.1645284 -0.23571531 0.06322553 -0.11775377 0.118344136 -0.027313873 0.09895841 -0.14828685
0.06735212 0.14381516 -0.02214035 -0.022038354 -0.065265216 0.09558129 0.17561921 -0.16942129
-0.11147331 -0.12244943 -0.09670445 0.05703364 -0.08886326 0.051271584 -0.09063787 0.077511854
-0.13529503 0.187408 -0.084871806 0.048201915 -0.0930766 0.15271188 -0.113670036 -0.12449572
0.13479027 -0.14636587 0.030633988 0.07370817 0.012313364 0.057205595 0.07541454 0.16619349
-0.10738011 0.030049734 -0.12848929 0.0958024 0.14443319 0.010051112 0.04686108 -0.00878565
0.111362234 -0.10906937 0.056161944 -0.05528938 -0.01864153 -0.08464098 -0.17509751 -0.16568425
0.022012908 -0.17696552 -0.07739572 -0.124201745 -0.13921499 -0.1517472 -0.10971022 -0.018005064
-0.077561446 0.10270566 0.12998132 -0.21572883 -0.15523684 0.0018678928 -0.17293583 -0.13992247
-0.14402628 0.1508984 0.020665199 0.10180834 0.17354484 0.15314156 -0.14576274 -0.14092629
-0.06974805 0.030657526 0.04867459 -0.043014552 -0.06919818 -0.15928395 -0.0907907 -0.056912966
0.18716611 -0.10660143 0.04391072 -0.008241964 -0.058058556 -0.024767239 0.044167824 -0.019371705
-0.07377052 -0.0893322 -0.0050267433 -0.07749442 0.10610589 -0.06143676 -0.026489662 -0.09960656
-0.03680004 0.105449386 0.07030178 -0.13283691 -0.033145785 0.012492351 0.15660304 -0.015997112
-0.028354375 0.15242094 -0.091899246 0.05007956 0.100943685 0.14484698 -0.1430828 -0.06806774
0.10671487 0.11779436 0.11472602 -0.11037839 -0.016734464 -0.014973113 0.06399667 0.114959076
-0.028367732 0.20706685 0.03601213 0.20953795 0.07926476 -0.030627 0.17021197 0.06387641
0.048439197 0.011215604 -0.057714086 -0.051041856 0.11801484 0.089246266 -0.18194373 0.017998355
-0.1317099 0.108486824 0.05269502 -0.1450404 0.08093444 -0.14073826 0.11344055 0.12982747
0.12623166 0.13573338 0.083568275 0.011255018 -0.2335236 0.06435279 -0.08874345 0.14318435
0.13908118 -0.08288032 -0.085675165 -0.0011571557 0.06637173 -0.03183116 -0.0016618548 0.114697374
0.04766939 -0.16392261 -0.0640712 -0.10771728 0.12881027 -0.12551239 0.0042438814 -0.085290484
-0.16281472 -0.1076183 -0.036104787 -0.037260823 0.15796748 -0.062476758 0.18017499 -0.1318272
0.0873176 0.07553077 0.13107829 0.14559802 -0.109607 0.053251646 0.10478479 -0.17073673
0.1023228 0.06753599 0.010611795 0.07698062 0.07997235 0.17337759 -0.1261434 0.14539889
-0.05406461 0.01817315 0.11427571 -0.113806024 -0.083772965 0.101328634 -0.03833746 0.029682366

lstm.bias_ih_l1 f4 [128]
00000000: 612e b2bd 7662 eebd 496c 3e3e c65e 13bd
00000010: 5166 6d3d 6e5e 163d f4a7 533d d5a7 443d
00000020: fa08 1c3e e6b0 38bd 5991 aebd 77af 2dbe
00000030: 8828 f5bd 50b2 e2bc c81d b3bc 6db9 3ebe
00000040: f906 b03d be9e 1ebe 99dc 5ebe 2e3f 3ebe
00000050: 66f9 afbd f57c 143e ae8b 043e b4fd f3bd
00000060: 6fcc f1bc 4b4e 23bd e6e6 863d 166d ae3d
00000070: a117 04be bfee 53bd 2c77 a73c 1321 29be
00000080: 5514 c43d 1ea2 5bbe 49fc b9bd 3769 2fbe
00000090: 6ce6 19be 88a5 4c3e f4bc 1bbe 05c1 293e
000000a0: b8c6 2e3d 7f8e 043e 5fe8 dcba 4b74 d93c
000000b0: d54a 9d3d 66e7 e93d 37d5 f93d 17b1 e0bd
000000c0: 73f5 273e 239a af3d 424c 69bd 43b7 0dbe
000000d0: 9b92 02be 606d a23d 4222 313d 0753 e13d
000000e0: 81b5 6dbe 688e 063e 4a7f 283e 2d98 dabd
000000f0: 8003 90bb 35c5 903d 7db6 293e 6312 553d
00000100: 649e 42bd e84a e2bb c6a3 0bbe 0c4a 1d3e
00000110: d5e3 e73d e762 08be 381a 3c3d b733 023e
00000120: 9618 df3a e83c d73d 8f4d 153e 597a 6dbb
00000130: 618c 12bd 5ab4 02bd abaf 82bd a49f 99bd
00000140: a008 403d d2c2 de3d 1418 5ebd f60e 593d
00000150: 9576 c8bd 5e16 e5bc 9520 ccbd b308 843b
00000160: 7bc0 8cbd 759b 273d 0f0f 973d 689f 4d3d
00000170: 54d3 27bd 26fc ea3d ba75 2a3d ee0f 80bd
00000180: 2a83 2a3e bd75 15bd 8c0b 773d 229a c7bd
00000190: 223f 10be f577 93bd 3618 07bd 0e56 9dbd
000001a0: a7c1 0e3e 2122 38be 4e9a 9f3c d499 07be
000001b0: f569 67be 55df 91bc 3cf7 dc3d 9abc a6bd
000001c0: 4c19 e3bd 3e27 e0bd 6cfc fbbd a4f5 7c3d
000001d0: da64 5b3d a6ed 863c a917 82bc 4971 f8bd
000001e0: a230 89be 4f48 073e 4388 123e 5573 003d
000001f0: d009 b7bd 886d 0b3e bab7 d1bb bc78 97bd
-0.08700252 -0.11639874 0.18595995 -0.035979055 0.057958905 0.03671115 0.051673844 0.04801162
0.152378 -0.04509058 -0.085238166 -0.16961466 -0.11970621 -0.027672917 -0.021864787 -0.18625422
0.0859508 -0.15490243 -0.21763839 -0.18578789 -0.08592491 0.14500792 0.12943909 -0.119136244
-0.029516427 -0.039869588 0.06587009 0.085169 -0.12899639 -0.051741358 0.020442568 -0.16516523
0.095741905 -0.21448562 -0.09081323 -0.1712998 -0.15029305 0.1998502 -0.15208799 0.16577537
0.04266998 0.12944983 -0.001685392 0.02654471 0.07680289 0.11421089 0.12198871 -0.10971277
0.16402225 0.08574321 -0.05695749 -0.1383944 -0.12751238 0.07931018 0.04324556 0.11002164
-0.2321377 0.13140261 0.16454807 -0.106735565 -0.0043949485 0.07068864 0.1657352 0.052019488
-0.047514334 -0.006905902 -0.13636693 0.15360278 0.113227524 -0.13318978 0.04592344 0.1271504
0.0017020877 0.10509664 0.14580368 -0.0036236255 -0.035778407 -0.031910278 -0.06381162 -0.07501152
0.046883225 0.10877003 -0.05422218 0.052992783 -0.09788243 -0.027964767 -0.09967152 0.0040293573
-0.0687265 0.04091974 0.07375919 0.05020085 -0.040973023 0.11473875 0.04161618 -0.06253038
0.16651598 -0.036489237 0.060313746 -0.097461954 -0.14086583 -0.07200614 -0.032982074 -0.07682429
0.1394106 -0.17981769 0.019482758 -0.13242275 -0.22599013 -0.017806688 0.10789344 -0.08141442
-0.11088809 -0.10944985 -0.12304005 0.0617577 0.053562976 0.016470741 -0.015880423 -0.121309824
-0.26794916 0.13211177 0.14309792 0.03135999 -0.089374185 0.13616002 -0.0064000757 -0.07396075

lstm.bias_hh_l1 f4 [128]
00000000: 04ed 01be 7de5 60be 458a 053e e6c1 103e
00000010: 9b82 91bc 61de 73bc 747c 453e 8dbe 9f3d
00000020: cae5 2ebd 543f c2bd 8f2c 37be 3d21 22be
00000030: e299 b23d 6c79 4a3d 66bd 34bd 7cd5 f43d
00000040: e042 4c3d 8cad 033d a63d dabc 2a3a 583d
00000050: 4a95 203e 819d 303e 89a4 3cbe a471 993b
00000060: 50be 39be 5822 1d3d 56d9 bbbd 0618 c73d
00000070: 51b1 abbc e729 31be f70b 09be a9cf 2fbe
00000080: 779a e43d d001 66be e133 f1bd 392c 1b3e
00000090: f691 47bc da23 94bd 1a25 293e c586 aabd
000000a0: bcdf 27bd 8fbe 7f3d 8247 b13d 1f06 a8bd
000000b0: 5921 eebd fc5c d6bd 34cb 29be 3111 733c
000000c0: d0a1 f03d 0499 04be 54e9 2fbd 75aa 9c3c
000000d0: 6f02 ce3d 53f9 393e eca0 883d 2622 a03d
000000e0: 9869 acbd 4ecc dd3d 98d7 34bd 52d5 78be
000000f0: 14c0 16be ffb9 08bd 3e53 cebd 5a9c 92be
00000100: c5da 18be 204c a3bd 34f9 c43d 4c4a e4bc
00000110: 24e0 dbbc b1c2 9c3d 472a c0bd b6f7 0c3e
00000120: 6b76 a73d 8814 96bd 3af3 e33d e975 a7bd
00000130: b20b 8b3d 8c85 3f3d 4e0d f7bd 9f82 f1bd
00000140: e250 0abd 3e3d d23d 9594 61bd bb73 d23c
00000150: 9b52 e6bd 768c 813d bd41 d43d 7bdb 3e3d
00000160: d72b e03d b778 dfbd 3c30 8bbc 1100 11be
00000170: 49a4 8c3d 93a8 04be 7edd 02be eeef c3b8
00000180: d449 093d 5073 23be 6318 0abe 1488 38be
00000190: 5095 0abd 4624 10bd 799d eb3c afcd 56bd
000001a0: 39e4 cbbd 9c85 8c3d e295 de3d 4399 74bd
000001b0: 2892 4fbd 2789 f63c 601f 26bd f3d5 083e
000001c0: 01c9 30bb 360a d23d f3f7 1abe 2b39 813d
000001d0: 3258 1abd 6d10 eabd 46d7 d83d f98a 9f3d
000001e0: 6abd 07bd c234 013d 5b1f 093e c891 00be
000001f0: 49de 62be f359 b8bd 3382 a2bd 588d 65bd
-0.1268807 -0.21962543 0.13041027 0.14136466 -0.017762473 -0.014884562 0.19285756 0.078000166
-0.042699613 -0.09484735 -0.17888092 -0.15832992 0.08720757 0.049432203 -0.044125937 0.119547814
0.049868464 0.03214793 -0.026640724 0.052789845 0.1568195 0.17247583 -0.1842214 0.0046827365
-0.18139005 0.03836283 -0.09172313 0.09721379 -0.020958574 -0.1730114 -0.1338347 -0.1716906
0.11162274 -0.22461629 -0.11777473 0.15153588 -0.012180796 -0.07233401 0.1651806 -0.083264865
-0.040984854 0.06243759 0.08656217 -0.082042925 -0.11627454 -0.10466954 -0.16581422 0.014835642
0.11749613 -0.12948996 -0.04294713 0.019124249 0.10059058 0.18161516 0.066713184 0.07819013
-0.08418578 0.10829984 -0.04415092 -0.24300125 -0.1472171 -0.033380505 -0.10074471 -0.28634912
-0.14927204 -0.07973504 0.09617844 -0.027867459 -0.026840277 0.07654322 -0.09383064 0.13766369
0.08176883 -0.07328135 0.11130376 -0.081767865 0.0678934 0.04675822 -0.120630845 -0.11792492
-0.033768542 0.10265587 -0.05507334 0.02568995 -0.112462245 0.06325619 0.10364101 0.04659603
0.10945862 -0.109116964 -0.016990773 -0.14160182 0.068672724 -0.12954931 -0.12779805 -9.343015e-05
0.033517674 -0.15961957 -0.13485865 -0.1802066 -0.0338338 -0.035190843 0.028761612 -0.05244225
-0.099556394 0.068614215 0.10868432 -0.059716474 -0.050676495 0.030094696 -0.040557265 0.13362865
-0.0026975276 0.10255854 -0.15133648 0.06309732 -0.037681766 -0.11428914 0.10587935 0.07790179
-0.033139624 0.031544454 0.13390867 -0.12555611 -0.22155108 -0.090015315 -0.0793499 -0.056043

fc.weight f4 [1, 32]
00000000: b4c6 5b3e 0903 ccbc 6a95 a9bd 756f 96bc
00000010: befb 12be b4e4 0c3e 3d2e 4ebe 8c04 2fbe
00000020: 2063 f3bd 6d1f 263e fc46 eabd 743a 263e
00000030: 099f d4bd d787 21be 0f5e 8e3d f401 b93d
00000040: bf44 803e 3b06 c53d fdcc 26ba af69 a03d
00000050: 2eef b43d acf8 423e a930 0d3e 8705 c43d
00000060: 2b48 873d 841a 433d 7f32 84bd da34 033e
00000070: 2eb9 8abd 5892 60bd ccbf c83d 178a f43c
0.21462518 -0.024903791 -0.082804516 -0.018363694 -0.14353845 0.13759118 -0.20134826 -0.17091578
-0.11884141 0.16222925 -0.114393204 0.16233236 -0.10381896 -0.15774475 0.06951534 0.09033576
0.2505245 0.09620329 -0.0006362943 0.078326575 0.088346824 0.19040173 0.13788094 0.09571367
0.06605562 0.04763271 -0.06454944 0.1281313 -0.067736015 -0.054827064 0.09802207 0.029851003
