backend/stocks/price/pt_models/AEG.pt (torch, 54423 bytes, 9 tensors)

lstm.weight_ih_l0 f4 [128, 1]
0	0xbe17f7e2	-0.14840654
1	0xbe0a9c01	-0.13536073
2	0xbd9983f5	-0.07495872
3	0xbbd24dcd	-0.006417966
4	0xbe3e95df	-0.18611859
5	0x3ec6cf7e	0.3883018
6	0xbeaee10f	-0.3415608
7	0xbe3a4eb4	-0.18194085
8	0x3d9b6dcc	0.075893015
9	0x3e84eacc	0.25960386
10	0xbe220319	-0.15821494
11	0x3ced2c93	0.028951919
12	0x3eae8ed6	0.3409335
13	0x3ebd84c8	0.37015367
14	0xbdfab529	-0.12241585
15	0xbd91b603	-0.07114794
16	0x3de00457	0.10938328
17	0xbdebca7c	-0.1151323
18	0xbe55052d	-0.20802756
19	0xbe15cd48	-0.1462909
20	0xbdb6abe2	-0.08919503
21	0xbe2b941d	-0.1675572
22	0xbd574817	-0.052558985
23	0xbd49dfe8	-0.0492858
24	0xbba33eee	-0.004981867
25	0xbcd63caa	-0.026151974
26	0xbe104976	-0.14090523
27	0xbea321ce	-0.31861728
28	0xbe897307	-0.2684557
29	0x3dfa6e3a	0.12228055
30	0x3dd11cfc	0.102106065
31	0xbde42e19	-0.11141605
32	0xbc86ecc9	-0.01647033
33	0xbbefa560	-0.0073134154
34	0xbe22d9d4	-0.15903407
35	0xbd57d8a4	-0.05269684
36	0xbdf2d359	-0.118567176
37	0x3f252595	0.6451047
38	0xbead9069	-0.3389924
39	0xbe5963d4	-0.21229488
40	0xbe27b8e5	-0.16379125
41	0x3e5d8d4b	0.2163593
42	0xbe09a2ec	-0.13441056
43	0xbe5e299f	-0.21695565
44	0x3e20d905	0.15707786
45	0x3edc2d95	0.43003526
46	0x3d935b17	0.071951084
47	0xbd4f7313	-0.050646853
48	0x3daa34f9	0.08310885
49	0xbe5092cd	-0.203685
50	0xbe0c5924	-0.1370588
51	0xbe0f0cb4	-0.1396969
52	0x3dc80547	0.097666316
53	0xbe69abf5	-0.22819503
54	0xbe407288	-0.1879369
55	0x3dee4edb	0.11636134
56	0xbe61534e	-0.22004434
57	0x3ceb89a1	0.02875215
58	0x3da21b21	0.07915331
59	0xbd248949	-0.040169988
60	0xbe103828	-0.14083922
61	0x3e381bc9	0.17979349
62	0x3dba72a8	0.091039
63	0xbe0da1d2	-0.13831261
64	0x3eae96dd	0.34099475
65	0xbdda5cf7	-0.10662263
66	0x3ecd9be3	0.40157995
67	0xbdaa83ba	-0.08325906
68	0x3e2f3006	0.17108163
69	0x3e638771	0.22219636
70	0xbea09e20	-0.3137064
71	0xbe203caa	-0.15648142
72	0xbd9ed35d	-0.07755158
73	0xbeab0b57	-0.3340709
74	0xbeb2a11f	-0.3488855
75	0xbdd1fab2	-0.102528945
76	0xbeb0f6b1	-0.3456321
77	0xbead8be1	-0.33895782
78	0xbe7796cf	-0.24178623
79	0x3e8aaaeb	0.27083525
80	0xbd9b280c	-0.07575998
81	0xbeb039e1	-0.34419158
82	0xbe038511	-0.1284373
83	0xbe90fbb8	-0.28317046
84	0x3e691ffc	0.22766107
85	0x3ed03974	0.40668833
86	0x3e2a8862	0.16653588
87	0xbddc8ab1	-0.10768641
88	0xbee1375d	-0.4398755
89	0xbebaab56	-0.36458844
90	0x3ec0ddc8	0.37669206
91	0x3e902598	0.28153682
92	0x3e5c6373	0.21522312
93	0xbbe86560	-0.007092163
94	0x3de0c143	0.10974362
95	0x3e82ee1e	0.25572294
96	0xbe63faa4	-0.2226358
97	0x3ce15158	0.027504608
98	0x3cad32e0	0.021142423
99	0x3e2a68f8	0.16641605
100	0x3dea365d	0.1143615
101	0x3ee80947	0.45319578
102	0x3b23c946	0.0024991794
103	0xbdd96452	-0.10614838
104	0xbe47b325	-0.19501932
105	0x3e6e53c8	0.23274148
106	0xbe8dd9e1	-0.2770529
107	0xbe418409	-0.18898024
108	0x3e8b3888	0.27191567
109	0x3ead1af7	0.33809635
110	0xbdc6c677	-0.09705823
111	0x3b9e9f0a	0.0048407363
112	0x3e59dd34	0.21275789
113	0xbe70ad85	-0.23503692
114	0xbd431269	-0.04762498
115	0xbd786f67	-0.060653117
116	0x3e22ed06	0.1591073
117	0xbd61b481	-0.055103783
118	0x3dbe42e5	0.09290103
119	0xbcd4583f	-0.025920985
120	0xbdefdd5c	-0.11712143
121	0xbde1aee6	-0.11019687
122	0xbe37d963	-0.1795402
123	0xbe93f3c5	-0.2889692
124	0xbe706ad9	-0.23478259
125	0xbe00e194	-0.12586051
126	0xbc9fae69	-0.019492345
127	0xbe12f262	-0.14350274

lstm.weight_hh_l0 f4 [128, 32]
0	0xbd91f566	-0.07126884
1	0xbe0186ab	-0.12649028
2	0xbe53a944	-0.20670038
3	0x3d611729	0.054953728
4	0x3e4583cb	0.19288556
5	0x3eaf0835	0.3418595
6	0x3d6b8205	0.057497043
7	0x3d2adc38	0.041713923
8	0xbdd4be45	-0.103878535
9	0xbe0c4167	-0.13696824
10	0x3de571d1	0.112033494
11	0x3e15c71e	0.14626738
12	0xbc88d39b	-0.016702464
13	0xbe5ddff5	-0.21667464
14	0x3d89ffa0	0.0673821
15	0xbe0f1d04	-0.13975912
16	0xbd77c28b	-0.060488265
17	0x3deef973	0.116686724
18	0xbd93f84c	-0.07225093
19	0xbb4be492	-0.003111158
20	0x3d94be20	0.07262826
21	0xbe2b0688	-0.1670171
22	0x3c3430f4	0.010997999
23	0x3bebdc89	0.0071979207
24	0xbc00a5a8	-0.0078519955
25	0x3e0d131c	0.13776821
26	0xbe269fd6	-0.1627191
27	0xbc923ac1	-0.017850282
28	0xbb027018	-0.001990324
29	0x3e0cde4d	0.13756676
30	0xbda95634	-0.08268395
31	0x3ddc4f57	0.107573204
32	0x3da8b27b	0.082371674
33	0xbd6cf0bc	-0.05784677
34	0xbc50c82b	-0.012743036
35	0xbdb6dbb8	-0.08928627
36	0x3e098949	0.13431276
37	0x3b5a20d1	0.003328372
38	0x3c57392a	0.013136188
39	0x3de04aff	0.10951804
40	0x3e104f25	0.14092691
41	0xbe4503aa	-0.19239679
42	0xbd7f02ef	-0.062258657
43	0x3d3d2277	0.046175446
44	0xbe3526ae	-0.17690536
45	0x3d86800f	0.06567394
46	0xbe2473bf	-0.16059779
47	0x3c1438f1	0.009046779
48	0xbc01b4b2	-0.007916616
49	0x3ce34086	0.027740728
50	0xbe1c0a2e	-0.15238258
51	0xbc0c9e17	-0.008582613
52	0xbd9c2d44	-0.07625821
53	0xbd18e777	-0.037330117
54	0xbdd30d74	-0.103053
55	0xbb66122b	-0.0035106044
56	0x3d1ec2c8	0.038759977
57	0xbe2f9440	-0.17146397
58	0x3d874a69	0.066059895
59	0xbc826598	-0.015917584
60	0x3d2cf93a	0.04222987
61	0x3ddd3f57	0.10803097
62	0xbe52ab36	-0.20573124
63	0x3d8535b4	0.06504384
64	0x3c7383d4	0.014862973
65	0xbd1ed057	-0.038772907
66	0xbe29b24f	-0.16571926
67	0x3cab8f55	0.02094237
68	0x3e02ddd6	0.12779936
69	0x3e0ae2a2	0.13563016
70	0x3d0910db	0.03346334
71	0xbdc08731	-0.09400786
72	0xbd96af70	-0.07357681
73	0xbe605cf7	-0.21910463
74	0xbdb4d370	-0.08829391
75	0xbdf27152	-0.118380204
76	0xbd6f5568	-0.05843106
77	0xbd5f72a9	-0.054552708
78	0xbd4d28f6	-0.05008789
79	0x3e0074cc	0.12544554
80	0xbda5b483	-0.080910705
81	0x3d584550	0.052800477
82	0x3e06f52e	0.13179466
83	0x3d9072b0	0.07053125
84	0xbe46daf8	-0.19419467
85	0xbc92510e	-0.017860916
86	0x3dad1937	0.08452075
87	0xbe02c084	-0.12768751
88	0x3d8b42f3	0.06799879
89	0xbe0162de	-0.12635371
90	0xbe162ab5	-0.14664729
91	0x3d852fbd	0.06503246
92	0xbcd48bf5	-0.025945643
93	0x3d2a252c	0.041539356
94	0xbdc661c6	-0.096866176
95	0xbc33e258	-0.0109792575
96	0xbc06c12e	-0.008224769
97	0xbcc757ad	-0.0243338
98	0x3e02fa89	0.12790884
99	0xbca324cd	-0.019915009
100	0xbcf3f87f	-0.029781578
101	0xbe373c88	-0.17894185
102	0x3df02c23	0.117271684
103	0xbd95af1f	-0.07308792
104	0xbc6501ce	-0.013977481
105	0xbe2ba156	-0.16760764
106	0xbe20240f	-0.15638755
107	0xbcb9b040	-0.02266705
108	0xbd536aee	-0.051615648
109	0x3c4d112c	0.012516301
110	0x3dc7d816	0.09758012
111	0x3e55a048	0.20861924
112	0x3daf7a2f	0.085682265
113	0xbd87aa14	-0.06624237
114	0x3d920498	0.071297824
115	0x3ddd8f23	0.10818317
116	0x3d5a3663	0.053274523
117	0x3e2d2f56	0.16912588
118	0x3e33ad01	0.17546465
119	0xbde51725	-0.11186055
120	0x3c9eafa1	0.019370856
121	0x3dd56638	0.10419887
122	0x3c48b07c	0.012249108
123	0xbc4d6b23	-0.01253775
124	0x3e20e236	0.15711293
125	0xbe504571	-0.2033899
126	0xbe498f0f	-0.19683479
127	0x3e54c7ef	0.20779394
128	0x3e0b0741	0.13576986
129	0x3c2802fe	0.01025462
130	0xbd0f76f6	-0.03502556
131	0xbcf901aa	-0.030396301
132	0x3e7734ce	0.24141237
133	0xbeb7d414	-0.3590399
134	0xbdc50b46	-0.09621291
135	0xbdef5653	-0.11686387
136	0x3e295dad	0.1653964
137	0xbddef6c4	-0.108869106
138	0x3d82f2cc	0.06393966
139	0xbe6069fc	-0.2191543
140	0x3d12b936	0.035821162
141	0xbd076160	-0.03305185
142	0xbe0c3f9f	-0.13696145
143	0x3e0f03cc	0.13966292
144	0x3da26430	0.079292655
145	0xbc8f960a	-0.017527599
146	0x3d56c5c2	0.05243469
147	0xbd735170	-0.059403837
148	0xbe878fcb	-0.26476893
149	0x3e7666da	0.24062672
150	0xbdcc1b24	-0.09966114
151	0x3e0ae375	0.1356333
152	0xbd5463bb	-0.051852923
153	0x3cb97433	0.022638416
154	0xbdb14f30	-0.08657682
155	0x3e145ff6	0.14489731
156	0xbccc71c4	-0.024956591
157	0x3e02f85b	0.12790053
158	0xbd1cd541	-0.038289312
159	0x3e5ccdf2	0.21562937
160	0x3e7ec1e8	0.24878657
161	0xbd005977	-0.03133532
162	0x3e1c1f06	0.1524621
163	0xbdf6c7a5	-0.12049798
164	0x3dc79abf	0.09746312
165	0xbdc1e0fe	-0.09466742
166	0xbe5e8926	-0.21732005
167	0xbd92d61c	-0.07169744
168	0x3e485206	0.1956254
169	0xbd856177	-0.065127306
170	0xbe5e64df	-0.21718167
171	0xbc74872a	-0.014924804
172	0xbda20ec1	-0.0791297
173	0xbe976cab	-0.29575095
174	0xbe6cb5fc	-0.23116297
175	0x3d599102	0.053116806
176	0x3df79af4	0.12090102
177	0xbd9d244b	-0.07672938
178	0x3dfd73c5	0.12375597
179	0xbe669e6a	-0.22521368
180	0xbe24b1e5	-0.16083486
181	0xbb8219df	-0.003970369
182	0x3da6fa19	0.08153171
183	0xbebf2b6f	-0.37337825
184	0xbe3a769f	-0.18209313
185	0xbc39ad24	-0.011332784
186	0x3dec9525	0.115518846
187	0x3e9d5a98	0.3073318
188	0x3dec489b	0.11537286
189	0xbe4e9a8f	-0.20176147
190	0xbd996d09	-0.074915
191	0x3e616503	0.22011189
192	0x3dad3b06	0.084585235
193	0x3defd6d8	0.117109
194	0x3e024e7f	0.12725256
195	0x3e115ad1	0.141948
196	0xbe0c0d6c	-0.13676995
197	0x3ca49f82	0.02009559
198	0x39615840	0.00021490548
199	0x3ba2dd08	0.0049701966
200	0x3d065eed	0.032805372
201	0x3d5a1b3c	0.05324863
202	0xbd83f007	-0.06442266
203	0xbe3d55c3	-0.18489747
204	0x3e03e392	0.1287978
205	0x3dbf323c	0.09335753
206	0xbcc79450	-0.024362713
207	0x3d22518e	0.039628558
208	0x3b946df3	0.0045297085
209	0x3da534a9	0.08066685
210	0xbcb938ed	-0.022610152
211	0x3d5e01b4	0.054200843
212	0xbd0a738c	-0.0338016
213	0xbe17a0d2	-0.14807442
214	0xbbf6d74b	-0.007532989
215	0x3d87002d	0.065918304
216	0x3e115951	0.14194228
217	0xbda2c0a6	-0.07946901
218	0xbe49f82f	-0.19723581
219	0x3e0287e4	0.1274715
220	0xbdb85045	-0.08999685
221	0x3d59a68a	0.05313734
222	0x3d24c2aa	0.04022471
223	0x3d9707b8	0.07374519
224	0x3dc2752e	0.094950065
225	0xbaf916ee	-0.0019004026
226	0xbe3377e5	-0.17526205
227	0xbdd39d3b	-0.10332724
228	0xbe0f2d5d	-0.13982148
229	0xbe2bd1de	-0.16779277
230	0xbd0e8d2f	-0.034802612
231	0xbca29fe8	-0.01985164
232	0xbdcf3c29	-0.101188965
233	0x3dea2e63	0.11434629
234	0xbd875e1f	-0.06609749
235	0xbe1c18fd	-0.15243907
236	0x3e3cd009	0.18438734
237	0xbcab8395	-0.020936767
238	0x3e27f375	0.16401465
239	0x3d29aff0	0.041427553
240	0x3d9d7a35	0.07689325
241	0xbc87d27e	-0.016579863
242	0xbdc14208	-0.094364226
243	0x3e1994ea	0.14998212
244	0x3de8c0a9	0.11364872
245	0x3c431c35	0.011908581
246	0xbe1952ee	-0.14973041
247	0xbd563dfd	-0.05230521
248	0x3e1d5b92	0.15366963
249	0xbdc6d66a	-0.09708865
250	0xbd7b4cdd	-0.0613526
251	0xbe03a056	-0.12854132
252	0x3e26b1be	0.16278741
253	0xbe732271	-0.23743607
254	0xbd9f3753	-0.07774224
255	0xbd2a84c7	-0.041630533

lstm.bias_ih_l0 f4 [128]
0	0x3e352469	0.1768967
1	0xbd9f5cab	-0.07781347
2	0x3dd09c6d	0.10186086
3	0xbe4dee64	-0.2011047
4	0x3cc171dc	0.023613863
5	0xbe5ca0a3	-0.21545653
6	0x3dd208ac	0.1025556
7	0x3d398e44	0.04530169
8	0xbc80f418	-0.015741393
9	0x3dadbbff	0.08483123
10	0xbd834000	-0.064086914
11	0x3e019c89	0.1265737
12	0x3bd2c27c	0.0064318758
13	0xbd9f2683	-0.077710174
14	0x3d8e536a	0.06949504
15	0xbe4cc5c2	-0.19997314
16	0xbdd01ed1	-0.10162128
17	0x3dfa4366	0.122198865
18	0x3e19e5b1	0.15029027
19	0x3d9846d8	0.074353874
20	0xbe0afa65	-0.1357208
21	0x3c4f7d52	0.012664156
22	0x3c43fd86	0.0119623
23	0xbdbcc0ed	-0.09216485
24	0x3e409228	0.18805754
25	0xbd0d7673	-0.03453679
26	0x3dffa6f7	0.12483018
27	0xbe2aae1d	-0.16667981
28	0xbddba029	-0.107239075
29	0xbd532abf	-0.051554438
30	0xbe3e2cb7	-0.18571745
31	0x3d6a3e61	0.057188395
32	0x3dbc97d9	0.0920865
33	0x3d835278	0.06412214
34	0x3e0839c6	0.13303289
35	0xbd9d9c10	-0.07695782
36	0xbe70994e	-0.23495981
37	0x3dd343c5	0.103156604
38	0x3d92050e	0.0712987
39	0x3d935502	0.07193948
40	0xbdec4fb0	-0.11538637
41	0xbd9196ff	-0.07108878
42	0xbddaa31a	-0.106756404
43	0xbe57680e	-0.21035787
44	0xbd95034a	-0.07276018
45	0xbe049055	-0.12945683
46	0x3e1c0ec0	0.15240002
47	0x3d407633	0.046987724
48	0xb9f99420	-0.00047603343
49	0x3d18e3bb	0.037326556
50	0xbe39d2c6	-0.1814681
51	0xbd9d0e83	-0.076687835
52	0x3c90d80b	0.017681142
53	0xbcd55b83	-0.026044613
54	0xbe2aa1cd	-0.16663285
55	0x3dff9fc4	0.12481645
56	0x3e128845	0.14309795
57	0x3cf9b1c8	0.03048028
58	0x3b9c9537	0.00477853
59	0xbe28637b	-0.16444199
60	0xbdb599bf	-0.08867215
61	0x3d43c381	0.04779387
62	0x3b015898	0.0019736644
63	0x3e0cf996	0.13767084
64	0xbda32fc4	-0.07968095
65	0xbdfaa79a	-0.12238999
66	0x3d13738a	0.03599886
67	0x3d2ae0cf	0.0417183
68	0xbdd4272c	-0.10359034
69	0xbb94cefc	-0.004541276
70	0x3de2b560	0.11069751
71	0xbbf6ac07	-0.0075278315
72	0xbe3dc3c9	-0.18531717
73	0x3d959c3e	0.073051915
74	0x3cf0ac7d	0.029379124
75	0x3dd58444	0.10425618
76	0xbe0a5e8c	-0.1351263
77	0x3ca0285c	0.019550495
78	0xbd0b6008	-0.03402713
79	0x3e548eef	0.2075765
80	0x3dc0b1c4	0.09408906
81	0xbd178bc0	-0.03699851
82	0xbd964e46	-0.07339148
83	0x3dd7e098	0.10540885
84	0x3dd57c42	0.10424091
85	0xbd9d1808	-0.07670599
86	0x3d8f56f3	0.06999006
87	0xbd9c3665	-0.076275624
88	0xbd5c414d	-0.053773213
89	0xbe0903c4	-0.13380343
90	0x3d4acb50	0.0495103
91	0xbdf4968a	-0.119427755
92	0xbdbc4cf9	-0.09194369
93	0xbdddbb09	-0.1082669
94	0x3cef90d7	0.02924387
95	0xbde84e72	-0.11343087
96	0x3df5de5c	0.12005302
97	0xbd7a18d1	-0.061058823
98	0x3e191556	0.14949545
99	0xbd8105d8	-0.06299943
100	0xbd8ab600	-0.06772995
101	0xbe65ff41	-0.22460653
102	0xbdb206ad	-0.086926796
103	0xbd4a85f4	-0.049444154
104	0xbb8a9721	-0.0042294418
105	0xbe283770	-0.16427398
106	0xbdaf39c9	-0.085559435
107	0x3ddbbb59	0.10729093
108	0xbe046cfe	-0.12932202
109	0xbd880d1d	-0.06643126
110	0x3e00a4e4	0.12562901
111	0xbda008a7	-0.0781415
112	0xbcd9930e	-0.026559379
113	0x3ba5ac12	0.005055913
114	0x3dd541d1	0.10412944
115	0x3d8fe3c8	0.07025868
116	0xbd5eb902	-0.054375656
117	0x3e18337f	0.14863394
118	0x3d8b2a47	0.06795173
119	0xbd021c38	-0.031765193
120	0x3e81bb24	0.2533809
121	0x3abfebcd	0.0014642418
122	0x3e17c5b2	0.14821509
123	0xbcab9205	-0.020943651
124	0xbddb6d82	-0.10714246
125	0x3a8c3f31	0.0010699985
126	0xbda819f2	-0.08208074
127	0xbdfefc9a	-0.12450524

lstm.bias_hh_l0 f4 [128]
0	0x3d41de1a	0.047330953
1	0xbe359941	-0.17734243
2	0xbd35dea2	-0.044401772
3	0xbd3949ee	-0.04523652
4	0xbcd12668	-0.025531009
5	0xbd8017bf	-0.06254529
6	0xbe1dde21	-0.15416767
7	0xbcd49034	-0.025947668
8	0x3df5c013	0.11999526
9	0x3d20749b	0.039173704
10	0x3e51fe60	0.20507193
11	0x3dd2eb3e	0.10298775
12	0xbe1d028d	-0.15333004
13	0x3e3552e1	0.17707397
14	0xbdbf61b8	-0.0934481
15	0xbe17dcc3	-0.14830308
16	0xbe8838da	-0.26605874
17	0x3d8faa42	0.07014896
18	0xbe308b89	-0.17240728
19	0xbc3c5ed5	-0.011497219
20	0xbe116436	-0.14198384
21	0xbc2261c3	-0.0099110035
22	0xbe0a69de	-0.13516948
23	0xbca622af	-0.02028021
24	0xbdbea444	-0.09308675
25	0xbd960219	-0.07324619
26	0x3d49b479	0.049244378
27	0x3d8715cd	0.06595955
28	0xbe347bf7	-0.17625414
29	0xbd93e352	-0.07221092
30	0xbe1fc9c5	-0.15604313
31	0x3e2c361b	0.16817515
32	0x3d1d911b	0.03846846
33	0x3d134a9d	0.03595983
34	0xbdf1dc9e	-0.118096575
35	0xbde7b7e2	-0.1131437
36	0xbdf058ee	-0.11735712
37	0xbe5a85f8	-0.21340168
38	0x3d459f1e	0.04824745
39	0xbe12afa0	-0.14324808
40	0x3df9da6e	0.12199865
41	0x3ce1d681	0.027568104
42	0x3cad5b3f	0.021161674
43	0x3dcfc22e	0.10144459
44	0xbd80e0b0	-0.06292856
45	0x3e6168f1	0.22012688
46	0x3ce1d996	0.027569573
47	0xbc1acb0d	-0.009447825
48	0xbe217f2f	-0.15771173
49	0x3e572fae	0.21014282
50	0x3d6a6460	0.05722463
51	0xbe21e32e	-0.15809318
52	0xbc595986	-0.013265973
53	0xbd955272	-0.07291116
54	0xbd5c7922	-0.05382646
55	0xbb78d5c9	-0.0037969223
56	0xbd73ce39	-0.05952284
57	0x3dd2971c	0.10282728
58	0xbdceb0d4	-0.10092321
59	0xbe0a3388	-0.1349622
60	0x3e1916d6	0.14950117
61	0xbd12ffe1	-0.035888556
62	0xbd8597f4	-0.065231234
63	0x3e258c16	0.1616672
64	0x3c067211	0.0082059065
65	0x3de357a8	0.111007035
66	0xbd3aa469	-0.04556695
67	0xbe29e22a	-0.16590181
68	0x3e1dfb73	0.15427952
69	0x3e38783e	0.18014619
70	0x3d4e34f3	0.050343465
71	0x3dd59a0a	0.10429771
72	0xbdff9126	-0.12478857
73	0xbe26fd8f	-0.16307662
74	0x3d823f49	0.06359727
75	0x3d82cb3b	0.063864194
76	0xbc749cb2	-0.014929937
77	0xbe5b137a	-0.21394148
78	0xbc244782	-0.010026814
79	0xbd65ef48	-0.0561364
80	0xbdca9b68	-0.09892923
81	0xbe2f2821	-0.17105152
82	0x3dcddd8e	0.10052024
83	0xbd8d0d0e	-0.068872556
84	0x3dd2e8d2	0.10298313
85	0xbd4e6d60	-0.050397277
86	0xbd2bfece	-0.041991048
87	0x3e0ccf4a	0.1375095
88	0xbd9f2fab	-0.07772764
89	0xbcc90460	-0.024538219
90	0x3db562bb	0.08856722
91	0xbe1530fa	-0.14569464
92	0x3ca31e2a	0.019911844
93	0x3db0d3e3	0.08634164
94	0x3d3af55b	0.045644145
95	0x3da564b2	0.08075847
96	0x3e399f68	0.18127215
97	0xbd56427d	-0.052309502
98	0x3e531af6	0.20615754
99	0xbe28f30c	-0.16498965
100	0xbe781276	-0.24225792
101	0x3d75b11d	0.05998336
102	0xbd88e9f2	-0.066852465
103	0x3d4ce04c	0.050018594
104	0x3e1c326f	0.15253614
105	0xbe24573e	-0.16048905
106	0x3da05f57	0.07830685
107	0x3d24bbbe	0.040218107
108	0x3de664ba	0.11249681
109	0x3e631b61	0.22178413
110	0x3e2b4a5b	0.16727583
111	0xbbc3b390	-0.0059723333
112	0xbe9837b1	-0.2972999
113	0x3c4a1034	0.012332965
114	0xbd1525f9	-0.036413167
115	0xbdb29f9e	-0.08721851
116	0xbe238846	-0.15969953
117	0x3dc6a7c8	0.096999705
118	0x3da3c81b	0.079971515
119	0x3d760eb1	0.060072605
120	0x3e4333ca	0.19062725
121	0xbe0b3f3b	-0.1359834
122	0x3c6b47d7	0.01436039
123	0xbe18c0c2	-0.14917281
124	0x3bea8d28	0.0071579404
125	0x3bc80a00	0.0061047077
126	0xbd4817b3	-0.048850726
127	0xbd67e456	-0.056614242

lstm.weight_ih_l1 f4 [128, 32]
0	0x3d129f1b	0.035796266
1	0x3d52dd77	0.051480737
2	0x3e92d584	0.28678524
3	0x3d457ec3	0.048216593
4	0xbcab7dfb	-0.020934096
5	0xbb305015	-0.0026903201
6	0xbe2e1658	-0.17000711
7	0x3d2e83bd	0.042606104
8	0x3d26f66d	0.040762354
9	0xbe2ad7dc	-0.16683906
10	0xbe61ca94	-0.22049934
11	0x3d22fe10	0.039793074
12	0x3d400f4a	0.04688958
13	0x3d4183e5	0.047244925
14	0xbe9343ae	-0.28762573
15	0x3e2aef04	0.1669274
16	0xbddb3785	-0.10703949
17	0x3b7a7c8f	0.0038221215
18	0xbe4faf0b	-0.20281617
19	0xbe06a508	-0.13148892
20	0xbe80e8ce	-0.25177616
21	0xbcd0bc42	-0.025480393
22	0xbce4b901	-0.027920248
23	0xbe94ae70	-0.29039335
24	0xbbed3069	-0.007238437
25	0xbe338b8b	-0.175337
26	0x3b3b0a32	0.0028540012
27	0x3d744500	0.059636116
28	0xbc863c3c	-0.016386144
29	0xbe18c922	-0.14920476
30	0xbc8b42c9	-0.01699962
31	0x3e96c7c5	0.29449287
32	0xbdbb1461	-0.09134746
33	0xbda29366	-0.0793827
34	0xbe5d8421	-0.21632434
35	0xbd052572	-0.032506414
36	0xbe1b0809	-0.15139784
37	0x3dc7e649	0.0976072
38	0xbd363c28	-0.044490963
39	0x3e60828b	0.21924798
40	0xbe1db378	-0.15400493
41	0x3e503a94	0.20334846
42	0x3b980151	0.004638829
43	0x3df319e0	0.1187017
44	0x3dff2398	0.12457961
45	0x3e99de72	0.30052525
46	0x3e2cd965	0.16879804
47	0xbd4e401b	-0.050354104
48	0xbddba088	-0.10723978
49	0xbd61d3e2	-0.055133708
50	0x3e5026be	0.20327279
51	0x3e5302a2	0.20606473
52	0x3d329c3f	0.04360604
53	0x3c893011	0.016746553
54	0xbbb8a069	-0.0056343568
55	0xbd3e0c95	-0.046398718
56	0x3e688d5c	0.22710174
57	0xbd072fb4	-0.033004478
58	0xbd738b9a	-0.059459306
59	0x3d0a1796	0.0337139
60	0x3da379fa	0.079822496
61	0x3df942f9	0.12170977
62	0x3d0f6c04	0.03501512
63	0xbe762904	-0.24039084
64	0x3d58e3e3	0.052951705
65	0xbd9f4a2b	-0.07777818
66	0x3e0e9fd4	0.13928157
67	0x3de95396	0.11392896
68	0x3e3b5241	0.18293096
69	0x3d1803b2	0.0371129
70	0x3be99fcd	0.0071296454
71	0x3dd840a2	0.10559203
72	0xbdb0c6d5	-0.08631674
73	0xbd8618d6	-0.06547706
74	0xbe0d23f3	-0.13783245
75	0xbe29c8f1	-0.1658056
76	0xbdf9c5b8	-0.12195915
77	0x3ce814cd	0.028330231
78	0x3e141114	0.1445964
79	0x3d7d5e26	0.061857365
80	0x3d189a0e	0.037256293
81	0xbe171dfd	-0.14757533
82	0xbe457dde	-0.19286296
83	0xbbea38bd	-0.007147877
84	0xbe487957	-0.19577537
85	0x3d0bfdb0	0.034177482
86	0x3d27fe1e	0.04101383
87	0xbdcbd26e	-0.09952246
88	0x3d7535c5	0.05986573
89	0xbe2c1ceb	-0.16807906
90	0x3de63589	0.1124068
91	0x3df97c80	0.121819496
92	0x3d9a37e2	0.0753019
93	0x3dadeccc	0.08492431
94	0xbdb5b9b0	-0.08873308
95	0x3e3e3910	0.18576455
96	0xbe51966d	-0.20467539
97	0x3c7cbf4e	0.01542647
98	0xbe1632a9	-0.14667763
99	0xbe1053c6	-0.14094457
100	0xbc810c8e	-0.015753057
101	0x3d8cd8cb	0.068772875
102	0x3d88c1eb	0.06677612
103	0xbd9077ed	-0.07054124
104	0xbd94438e	-0.072394475
105	0xbe0ad0eb	-0.13556258
106	0x3e02a4c7	0.1275817
107	0xbd80a9cb	-0.062823854
108	0xbde7aa59	-0.11311788
109	0xbd92d9b8	-0.07170433
110	0xbd747d2e	-0.059689693
111	0x3dde5385	0.10855774
112	0x3d51df10	0.05123812
113	0xbd9fda89	-0.07805354
114	0xbe0f6512	-0.14003399
115	0xbd91accd	-0.07113037
116	0x3e0e5b2d	0.13901968
117	0x3dcdd8c3	0.1005111
118	0xbd530dba	-0.051526763
119	0xbd8de745	-0.06928877
120	0x3e4a96b1	0.19784047
121	0xbd2ccd69	-0.042188082
122	0xbdc84ecc	-0.09780654
123	0xbaede1ba	-0.0018148937
124	0xbe35ebdd	-0.17765756
125	0xbe09f795	-0.13473351
126	0xbd89f075	-0.06735317
127	0x3d7f288d	0.06229453
128	0x3e215c24	0.15757805
129	0x3e019bd3	0.12657098
130	0xbde6b156	-0.11264293
131	0xbdde45a5	-0.108531274
132	0xbcdbaa3c	-0.026814573
133	0x3e44b099	0.19207992
134	0xbe224846	-0.15847883
135	0xbdc15417	-0.09439867
136	0x3d937a6a	0.07201083
137	0x3b730f67	0.0037088038
138	0xbe298d4c	-0.16557807
139	0xbe1aa317	-0.15101276
140	0xbe36514c	-0.1780445
141	0xbe984805	-0.29742447
142	0xbe2f53d6	-0.17121825
143	0x3e213f56	0.15746817
144	0x3e069a63	0.13144831
145	0x3df489fb	0.1194038
146	0xbe0275bd	-0.12740226
147	0xbd9944c5	-0.0748382
148	0x3dbdf975	0.09276096
149	0x3c4135c1	0.011792601
150	0x3e121105	0.14264305
151	0x3dffdb49	0.12492997
152	0x3dd5ead9	0.10445184
153	0xbdbc59f1	-0.091968425
154	0x3e239cda	0.15977803
155	0x3de27acf	0.1105858
156	0x3d879a44	0.06621221
157	0x3c210e3b	0.009830053
158	0xbe40273a	-0.18764964
159	0xbde9d047	-0.11416679
160	0x3dae05c1	0.08497191
161	0x3d9676b2	0.07346858
162	0xbb5c8325	-0.0033647504
163	0x3db78647	0.08961158
164	0x3a19b15b	0.0005862915
165	0xbd90e54b	-0.07074984
166	0xbe037b9c	-0.12840122
167	0xbe77e27a	-0.24207488
168	0x3dc8e525	0.09809331
169	0xbd720dc4	-0.05909516
170	0xbde94b25	-0.11391286
171	0xbd581d98	-0.052762598
172	0x3ce8f9a0	0.028439343
173	0xbe4c2c6f	-0.19938825
174	0x3db1b3c3	0.08676865
175	0x3e0fe057	0.14050423
176	0x3e702274	0.23450643
177	0xbe5b2c4a	-0.21403614
178	0xbdea9d43	-0.114557765
179	0x3ca76ae9	0.02043672
180	0xbe39c5be	-0.18141839
181	0x3e46ac76	0.19401726
182	0xbd8614cd	-0.06546936
183	0xbe2d2074	-0.16906911
184	0xbdb300d7	-0.087403946
185	0x3d8775ab	0.0661424
186	0x3e7ac7a7	0.24490224
187	0x3d0fad41	0.035077337
188	0x3e0da9ef	0.13834356
189	0xbe4396bd	-0.19100471
190	0x3d264be3	0.040599715
191	0xbc922293	-0.017838752
192	0x3e7f558e	0.2493498
193	0xbe2d9521	-0.1695142
194	0x3d0568ac	0.032570526
195	0x3c078625	0.008271729
196	0xbd107d7d	-0.035275925
197	0xbe2e41d0	-0.17017293
198	0xbcff492a	-0.031162817
199	0xbe405f40	-0.18786335
200	0x3e35e1e2	0.17761949
201	0x3d8857ef	0.06657397
202	0xbe4fafb7	-0.20281874
203	0x3db68c6a	0.089135006
204	0xbd68b909	-0.05681709
205	0xbd9d4544	-0.07679227
206	0xbeae24f0	-0.34012556
207	0x3d283eb5	0.041075427
208	0x3ce01e82	0.027358297
209	0xbe81bbcd	-0.25338593
210	0x35fca58c	1.8823644e-06
211	0xbc0da58a	-0.008645425
212	0xbe2e461b	-0.1701893
213	0x3e29a44b	0.16566579
214	0x3e4a3de1	0.19750167
215	0x3d485f12	0.04891879
216	0xbcc8662b	-0.02446278
217	0xbe97ff1c	-0.2968682
218	0x3d43a89d	0.047768224
219	0x3e0daa3a	0.13834468
220	0x3e332bd5	0.1749719
221	0x3d5f9fdf	0.054595824
222	0xbc63fa7d	-0.0139147015
223	0x3e30a164	0.17249066
224	0xbe371ad4	-0.17881328
225	0x3d8c3070	0.06845176
226	0xbe1f759d	-0.1557221
227	0x3e4981d8	0.19678438
228	0x3e40ec18	0.18840063
229	0xbcd97d56	-0.026549023
230	0xbe0d84a0	-0.13820124
231	0x3d9e6f96	0.07736127
232	0xbe298670	-0.1655519
233	0xbd680239	-0.056642745
234	0xbd81eaf7	-0.06343644
235	0x3e104498	0.14088666
236	0xbe03c01a	-0.1286625
237	0x3dea5c1c	0.1144335
238	0xbc074174	-0.008255351
239	0x3d91135e	0.07083772
240	0xbd3a45de	-0.045476787
241	0x3c99b0eb	0.018761119
242	0x3e425a6e	0.18979809
243	0xbc9a6bdd	-0.018850261
244	0x3d7b997a	0.061425664
245	0xbc8c3ef3	-0.01711986
246	0xbcc8b91d	-0.024502331
247	0x3de688a7	0.11256533
248	0xbd37c124	-0.044861928
249	0xbd7a954e	-0.061177544
250	0xbb1b4639	-0.002369298
251	0xbe4d6bcf	-0.20060657
252	0x3d21ed21	0.039532784
253	0xbe38b22b	-0.18036716
254	0x3ca9d559	0.020731615
255	0xbd9c87f5	-0.07643119

lstm.weight_hh_l1 f4 [128, 32]
0	0xbdd84505	-0.105600394
1	0x3bc73b0a	0.006080036
2	0xbdbf0676	-0.09327404
3	0xbc6e26cd	-0.014535618
4	0x3cd0cd86	0.025488626
5	0xbe052e4f	-0.13005947
6	0xbe021b92	-0.1270583
7	0x3e88eff3	0.26745567
8	0x3bd0abbc	0.0063681286
9	0x3e3da691	0.18520571
10	0x3e2d67fb	0.16934197
11	0x3da281f7	0.07934945
12	0x3d687252	0.05674965
13	0x3d8ac596	0.06775968
14	0x3d85bebc	0.0653052
15	0x3d5aa5b6	0.05338069
16	0xbd2bb0ce	-0.04191666
17	0x3e65f70f	0.22457527
18	0x3e398497	0.18116985
19	0xbd5a68bb	-0.053322535
20	0xbd5ece47	-0.05439594
21	0xbe4eac43	-0.201829
22	0x3d9a157a	0.075236276
23	0x3d4f2ee5	0.05058183
24	0x3e6d313c	0.23163313
25	0x3cdad2a3	0.026711768
26	0xbe66d2b8	-0.2254132
27	0x3dc7d76a	0.09757884
28	0x3d4e9c1b	0.050441843
29	0x3b16ca89	0.0023008904
30	0x3ca6050d	0.02026608
31	0xbc662a95	-0.014048238
32	0x3e3e51a2	0.18585828
33	0xbd9adaa2	-0.07561232
34	0xbd62fd45	-0.055417318
35	0x3df68c92	0.120385304
36	0xbdf5d708	-0.120039046
37	0x3e1ee4cf	0.15516971
38	0x3e0cd201	0.13751985
39	0x3b0174a2	0.0019753356
40	0xbe23d966	-0.160009
41	0x3db1cf66	0.08682136
42	0xbe175309	-0.14777769
43	0x3e0ef747	0.13961516
44	0x3cbbd388	0.022928014
45	0x3c6476b8	0.01394432
46	0xbe08aee5	-0.13347967
47	0x3df7ba3f	0.120960705
48	0x3ceb3bbe	0.02871501
49	0x3ce7fd40	0.028319001
50	0x3d530b1d	0.05152427
51	0x3dd09ff5	0.101867594
52	0x3e1ddf16	0.15417132
53	0x3e23c62f	0.1599357
54	0xbd635a09	-0.055505786
55	0xbbe4a750	-0.006977953
56	0x3dc1b25d	0.09457848
57	0xbcd0c4eb	-0.025484523
58	0xbe1517ed	-0.14559908
59	0x3d2cbca8	0.042172104
60	0xbe02c986	-0.12772188
61	0xbe43b55d	-0.19112153
62	0x3dd01a76	0.10161297
63	0xbdac9b36	-0.08428042
64	0xbdd9ebc8	-0.10640675
65	0x3d0104c0	0.03149867
66	0x3c71d329	0.014759817
67	0xbdf9676f	-0.121779315
68	0xbe176fb6	-0.14788708
69	0x3df9290d	0.12166033
70	0xbdec6aba	-0.11543794
71	0x3df43a5a	0.11925192
72	0x3c8cba46	0.017178666
73	0x3e443650	0.19161344
74	0x3d9349b9	0.07191796
75	0x3d97311a	0.07382412
76	0x3e10c3bc	0.14137167
77	0xbd0f305e	-0.034958236
78	0x3d95db9a	0.07317276
79	0xbe064af4	-0.1311453
80	0x3d8f6456	0.070015594
81	0xbd90b730	-0.0706619
82	0x3da0a456	0.078438446
83	0xbd42c690	-0.047552645
84	0xbe1eb64f	-0.15499233
85	0xbd38e2a5	-0.04513802
86	0x3dd8906a	0.1057442
87	0xbe2adb64	-0.16685253
88	0x3dd2e3de	0.102973685
89	0xbe0189c2	-0.12650207
90	0xbdee651f	-0.11640381
91	0x3bd9f7d4	0.006651858
92	0xbd388719	-0.045050714
93	0x3e0ceef7	0.13763033
94	0x3db8d013	0.09024062
95	0x3e34a058	0.17639291
96	0xbd9a0f38	-0.07522434
97	0x3da6d9ea	0.081470326
98	0x3d913dd0	0.07091868
99	0x3e31bfd6	0.17358336
100	0x3dd5c838	0.10438579
101	0xbdaa6855	-0.08320681
102	0x3daf4ffc	0.08560178
103	0xbd525ab1	-0.05135602
104	0x3c2658dc	0.010153022
105	0x3d5727e3	0.052528273
106	0xbd30682e	-0.043068103
107	0x3d0d9bf9	0.034572575
108	0xbe2a840d	-0.16651936
109	0xbc81051a	-0.015749503
110	0x3e087220	0.13324785
111	0xbcfe2ed4	-0.031028189
112	0x3e36812d	0.17822714
113	0x3dd7d9f6	0.105396196
114	0x3e1d75ab	0.15376918
115	0x3e311ba1	0.17295696
116	0x3e13991b	0.14413874
117	0xbe2801da	-0.16406956
118	0xbda8656b	-0.08222469
119	0xbe4ae325	-0.19813211
120	0xbda5b472	-0.08091058
121	0x3d9235bc	0.07139155
122	0x3e172a9e	0.14762351
123	0xbdfb78b2	-0.1227888
124	0xbe220373	-0.15821628
125	0x3e2c0481	0.16798593
126	0x3d95025b	0.0727584
127	0xbdc97385	-0.09836487
128	0x3dce4dd3	0.100734375
129	0x3d649e27	0.05581489
130	0x3e2d282b	0.16909854
131	0x3c98e9e8	0.018666223
132	0x3d59b260	0.053148627
133	0xbdfdd226	-0.12393598
134	0x3ce4917a	0.0279014
135	0xbdf4b503	-0.11948588
136	0x3b3f5681	0.0029195847
137	0xbdbe79da	-0.09300585
138	0x3d1f0884	0.03882648
139	0x3e121183	0.14264493
140	0xbb7bfcb6	-0.0038450188
141	0x3dd9064c	0.10596904
142	0xbc7ea86f	-0.015543087
143	0xbe47efb5	-0.19525035
144	0x3d0360f1	0.032074872
145	0x3e1dcfbb	0.15411274
146	0x3e0bdf75	0.13659461
147	0x3dd70204	0.10498431
148	0x3d853d0d	0.06505785
149	0xbd19b4aa	-0.03752581
150	0xbd8c51c8	-0.06851536
151	0xbe8516b8	-0.25993896
152	0x3dfa083f	0.12208604
153	0xbe145b1e	-0.14487883
154	0xbcd073cb	-0.02544584
155	0xbd28ac2a	-0.041179813
156	0xbcced449	-0.02524771
157	0x3dc956c9	0.09831006
158	0xbccbd9b4	-0.024884082
159	0xbcf5469a	-0.029940892
160	0x3dd9ad32	0.106287375
161	0xbe5f3b94	-0.21800071
162	0x3ddc39b6	0.10753195
163	0xbd6efe4e	-0.058347993
164	0x3d9629b6	0.073321745
165	0x3ceaa185	0.028641472
166	0x3e0732bf	0.13202952
167	0x3e2098eb	0.15683334
168	0x3cf082b9	0.029359208
169	0xbbb2b883	-0.0054541244
170	0xbdf851c2	-0.12124969
171	0xbda65940	-0.08122492
172	0xbd68bd29	-0.056821022
173	0x3c0e7e6a	0.008697132
174	0xbdc458df	-0.09587263
175	0xbd520475	-0.05127378
176	0x3e2cf157	0.16888939
177	0x3e6c95bb	0.23103993
178	0x3e436c3f	0.19084261
179	0x3d33248a	0.04373602
180	0x3de4677e	0.11152552
181	0x3d90f919	0.070787616
182	0xbdb58d72	-0.08864869
183	0xbde145ea	-0.10999663
184	0x3e26c096	0.16284403
185	0xbe5872a9	-0.2113749
186	0xbd21ddd3	-0.03951819
187	0xbd6141d7	-0.05499443
188	0x3e6ec54d	0.23317452
189	0x3dccb9f1	0.09996403
190	0xbe02e52a	-0.12782732
191	0xbe2bb8f1	-0.16769768
192	0xbddae4b8	-0.10688156
193	0xbdeede6f	-0.116635196
194	0x3cbdfddc	0.023192339
195	0xbddba28c	-0.10724363
196	0xbe05cd2c	-0.13066548
197	0x3e0ebf55	0.13940175
198	0xbba3aa90	-0.004994698
199	0xbd9333ec	-0.07187638
200	0xbd005c78	-0.031338185
201	0x3e6caae3	0.23112063
202	0x3e34011b	0.17578547
203	0x3e2b2a2d	0.16715308
204	0xbe486a39	-0.1957177
205	0x3bc05fbd	0.005870788
206	0x3d907ab5	0.070546545
207	0xbd6b507d	-0.057449806
208	0x3e572c26	0.21012935
209	0x3dc40959	0.095720954
210	0xbd03cdfa	-0.032178856
211	0xbc441fdc	-0.0119704865
212	0x3c85114f	0.016243605
213	0xbde83d91	-0.11339868
214	0x3def0ab1	0.11671961
215	0x3dc51188	0.096224844
216	0xbcd87665	-0.026423642
217	0x3dab24cd	0.083566286
218	0xbd87d24f	-0.0663191
219	0x3e583276	0.21113
220	0xbbb90634	-0.0056464914
221	0xbda4fa92	-0.08055605
222	0xbe3646ce	-0.17800447
223	0x3e190452	0.14943054
224	0x3d98b5d1	0.07456554
225	0x3e21d48c	0.15803736
226	0x3ddf2f1b	0.108976565
227	0xbe05a0c5	-0.1304961
228	0x3db9a334	0.09064332
229	0xbc0c9a3d	-0.008581695
230	0x3daac90a	0.083391264
231	0xbe0297e0	-0.12753248
232	0xbddf1e82	-0.10894491
233	0xbdbea5fa	-0.09309001
234	0x3ddb77b3	0.1071619
235	0x3c17eae0	0.009272307
236	0xbe1326e9	-0.14370312
237	0x3d942f88	0.07235628
238	0xbe01d4e4	-0.12678868
239	0x3dd8e135	0.1058983
240	0x3e3b1554	0.18269855
241	0x3d4fd764	0.050742522
242	0xbca07a0f	-0.019589452
243	0x3c205d82	0.009787919
244	0xbe090c06	-0.13383493
245	0xbc9980ee	-0.018738236
246	0x3e1d667d	0.15371127
247	0xbddcacfc	-0.10775182
248	0xbd7157bf	-0.05892157
249	0xbd78d6b0	-0.060751617
250	0x3c77c9ad	0.015123767
251	0x3d4d1b2d	0.050074745
252	0x3e26cf26	0.16289958
253	0xbd859163	-0.06521871
254	0xbdf93348	-0.12167984
255	0x3e0beb15	0.13663895

lstm.bias_ih_l1 f4 [128]
0	0xbe24f572	-0.16109255
1	0x3dd1c9c8	0.10243565
2	0x3d8f8c9d	0.07009242
3	0xbafba421	-0.0019198694
4	0xbdedc181	-0.116091736
5	0xbe871cf4	-0.26389277
6	0xbe4d2b0f	-0.20035957
7	0x3e46f08c	0.19427699
8	0xbd644be7	-0.05573645
9	0xbc49e34d	-0.012322259
10	0xbcbae5fd	-0.022814745
11	0xbe1af0d8	-0.15130937
12	0xbe27e8d5	-0.16397412
13	0xbd93edb1	-0.072230704
14	0xbd9d6b06	-0.07686429
15	0xbe8145a8	-0.25248456
16	0xbd376dc1	-0.044782404
17	0x3db1760d	0.086650945
18	0xbe130b66	-0.14359817
19	0xbe30b5f7	-0.17256914
20	0xbce5953c	-0.028025262
21	0x3e26dad7	0.16294418
22	0xbe181efc	-0.1485557
23	0xbdba444a	-0.09095056
24	0xbc8924b0	-0.016741127
25	0xbc240e11	-0.010013119
26	0x3c5d6960	0.013513893
27	0xbd8dec88	-0.069298804
28	0x3d62709b	0.05528317
29	0x3e3439ba	0.17600146
30	0xbd2dd8e7	-0.042443182
31	0xbe7d9836	-0.24765095
32	0xbe52cf9f	-0.20587014
33	0xbbe15a37	-0.0068772095
34	0xbda23438	-0.07920116
35	0xbe301e28	-0.17199004
36	0xbdb6d6cd	-0.08927689
37	0xbe8330b4	-0.25623095
38	0x3cacea0a	0.021107692
39	0xbe007f29	-0.12548508
40	0x3d435f00	0.04769802
41	0x3db64010	0.08898938
42	0xbd310275	-0.043215234
43	0xbca4bb79	-0.020108925
44	0xbd854869	-0.06507952
45	0xbe229807	-0.15878306
46	0x3dd5a75f	0.10432314
47	0xbe7d5236	-0.24738392
48	0xbe050dbc	-0.1299352
49	0x3bbdf4fb	0.005797026
50	0xbe138a07	-0.14408122
51	0x3d25485c	0.04035221
52	0x3c2efa18	0.010679744
53	0x3c2e36eb	0.010633211
54	0xbe2f19a3	-0.17099623
55	0x39ad1e28	0.000330196
56	0x3e1f6c3d	0.15568633
57	0xbb9bdbc3	-0.0047564222
58	0xbdc31246	-0.0952497
59	0xbd7e7ab0	-0.062128723
60	0x3d669c3d	0.056301344
61	0x3c85b48e	0.016321447
62	0x3e31898a	0.17337623
63	0xbe9325e0	-0.28739834
64	0xbac12213	-0.0014734886
65	0x3d95f648	0.07322365
66	0xbc9e569c	-0.019328408
67	0xbe50b5c6	-0.20381841
68	0xbd63d003	-0.055618297
69	0x3dfdc09d	0.12390254
70	0xbe1d9fac	-0.15392941
71	0xbc9995c2	-0.018748168
72	0xbd5c80c4	-0.053833738
73	0xbdfa2a94	-0.122151524
74	0xbc3d5376	-0.011555543
75	0xbcb65bc9	-0.022260563
76	0x3db92ee4	0.09042147
77	0xbd936e2f	-0.0719875
78	0xbc9792dc	-0.018502645
79	0xbd7d35cc	-0.061818883
80	0x3d80cde5	0.06289271
81	0xbe667178	-0.22504222
82	0xbe594430	-0.21217418
83	0xbc3ea267	-0.011635399
84	0xbe3bcdeb	-0.1834027
85	0x3caeb6a2	0.02132732
86	0x3ccb0285	0.024781475
87	0x39a830cd	0.00032079816
88	0xbe32523c	-0.17414182
89	0xbdd69c77	-0.10479062
90	0xbd099845	-0.03359248
91	0xbe0e62e4	-0.13904911
92	0x3d65d041	0.05610681
93	0xbe5bdcab	-0.21470897
94	0x3e12a909	0.14322294
95	0x3d9c5b97	0.07634657
96	0xbdbde48c	-0.092721075
97	0xbdc4c32f	-0.09607541
98	0xbbff6050	-0.0077934638
99	0x3e1497e3	0.14511065
100	0xbdf0b70c	-0.117536634
101	0xbdf0a1a8	-0.117495835
102	0x3d8d83a6	0.069098756
103	0x3c11c541	0.008897127
104	0x3d3b9dce	0.04580479
105	0x3df9d4b6	0.121987745
106	0x3d5b730d	0.053576518
107	0xbe5360ba	-0.20642367
108	0xbd4d9a1a	-0.05019579
109	0xbda4044b	-0.08008631
110	0xbdfa76f7	-0.12229722
111	0xbe4a05e7	-0.19728814
112	0xbe821a29	-0.25410584
113	0x3e15e33e	0.14637467
114	0xbe1386c8	-0.14406884
115	0x3d91e7ec	0.07124314
116	0x3d14c8f3	0.036324453
117	0xbd6b600a	-0.057464637
118	0xbe00825e	-0.12549731
119	0xbe64df97	-0.22350918
120	0x3ddd53f3	0.10807028
121	0x3e0a079c	0.13479465
122	0x3d8bb7d7	0.06822174
123	0xbd1cb8a7	-0.038262036
124	0xbe2acb12	-0.16679028
125	0x3d803457	0.06259983
126	0x3d7271c3	0.059190523
127	0xbe3bbe5c	-0.18334335

lstm.bias_hh_l1 f4 [128]
0	0xbdc79f7f	-0.09747218
1	0xbd9d7ab0	-0.076894164
2	0xbcbdae49	-0.023154395
3	0xbe041ba3	-0.12901168
4	0x3d2847ab	0.041083973
5	0xbc4dee37	-0.012569002
6	0xbda5d29d	-0.08096812
7	0xbd716396	-0.058932863
8	0xbde66f01	-0.11251641
9	0x3e660bb8	0.22465408
10	0xbd6cbdab	-0.05779807
11	0xbcbbf797	-0.022945208
12	0x3db28568	0.087168515
13	0xbd8a221f	-0.06744789
14	0x3d17bc58	0.037044853
15	0xbd92b9b5	-0.07164327
16	0xbac230a5	-0.0014815523
17	0xb9e054fd	-0.0004278793
18	0xbe15d9de	-0.14633891
19	0x3d07bda5	0.033139843
20	0xbe1320e5	-0.14368017
21	0x3e109e14	0.14122802
22	0x3cfdc645	0.030978331
23	0xbcf83ebe	-0.030303355
24	0x3ca08b18	0.019597575
25	0xbb8c594d	-0.0042831064
26	0xbc60f40e	-0.013730062
27	0xbdf08c7c	-0.11745545
28	0x3df61a2a	0.12016709
29	0x3e58b398	0.2116226
30	0xbdec172e	-0.11527859
31	0x3d2bfaf4	0.041987374
32	0xbbcf4ac9	-0.0063260538
33	0x3d8bd7b2	0.0682825
34	0x3db79b57	0.089651756
35	0xbdbcd1f6	-0.09219734
36	0xbde1bca1	-0.11022306
37	0xbdc9a04e	-0.09845029
38	0xbd8aff30	-0.067869544
39	0xbe21d584	-0.15804106
40	0xbc9297e8	-0.0178947
41	0x3db0e6aa	0.08637746
42	0xbe0443bc	-0.12916464
43	0xbe4a14c8	-0.1973449
44	0xbdbf4dea	-0.09341033
45	0xbe7c728e	-0.24653074
46	0xbdc8d1d3	-0.09805646
47	0xbd95ea4f	-0.073200814
48	0xbdb87c13	-0.0900804
49	0x3d5e0f47	0.05421379
50	0x3d27fb2a	0.041011013
51	0x3d14bf36	0.036315165
52	0xbe2efff8	-0.17089832
53	0xbc72d44d	-0.014821124
54	0x3db75d30	0.08953321
55	0x3d809b33	0.06279602
56	0x3e1581b1	0.14600255
57	0x3e454f3f	0.19268511
58	0xbe6e5baa	-0.23277155
59	0x3d505079	0.050857995
60	0x3c019cff	0.007910966
61	0x3cc050ed	0.023476088
62	0xbbe3ff97	-0.006957959
63	0xbe884fc8	-0.26623368
64	0x3d145a8e	0.036219172
65	0x3e4163a8	0.18885672
66	0x3d16308c	0.03666739
67	0x3db47b02	0.088125244
68	0x3d602223	0.054720055
69	0xbde0caca	-0.10976179
70	0x3d3ebb46	0.046565317
71	0xbe5e0b23	-0.21683936
72	0xbe5f09f4	-0.2178114
73	0xbe496bc5	-0.19670017
74	0xbd4f98d5	-0.05068286
75	0x3df2fcb6	0.11864607
76	0xbdc0008a	-0.09375103
77	0x3d4eaddd	0.050458778
78	0x3dc6bcd8	0.09703988
79	0x3da11e53	0.07867112
80	0xbc9e27ce	-0.01930609
81	0x3c3681ad	0.011139316
82	0x3d880a7a	0.06642623
83	0x3dac1720	0.08402848
84	0x3d806a45	0.06270269
85	0x3e590df7	0.21196733
86	0xbdd40c8c	-0.103539556
87	0x3c8e0988	0.01733853
88	0x3dcc43a5	0.0997384
89	0x3e6c892e	0.23099205
90	0xbd85b6ce	-0.06529008
91	0x3c43001f	0.011901884
92	0xbdc79de8	-0.09746915
93	0xbe4f29f3	-0.20230846
94	0x3c227775	0.009916176
95	0xbdb5e603	-0.08881762
96	0xbe8506b0	-0.25981665
97	0xbdc47d63	-0.09594228
98	0xbd66c97d	-0.056344498
99	0x3de04329	0.1095031
100	0x3e0c03c1	0.13673307
101	0xbe0f78e5	-0.14010961
102	0xbe786405	-0.24256904
103	0xbdb37f49	-0.08764512
104	0xbca2f67e	-0.019892927
105	0x3dbc716c	0.09201321
106	0x3c49c55d	0.0123151215
107	0xbdb56fa2	-0.08859183
108	0x3d801612	0.062542096
109	0xbe0a5d5e	-0.1351218
110	0xbd7e2020	-0.062042356
111	0x3d4cd447	0.05000713
112	0xbc8927ff	-0.016742704
113	0x3e5489bc	0.20755666
114	0x3e1760ee	0.1478307
115	0x3d2bdf84	0.041961208
116	0xbe06af6c	-0.13152856
117	0x3e1a506a	0.15069738
118	0x3e0fea3f	0.14054202
119	0xbe065bf8	-0.13121021
120	0xbdffc525	-0.12488774
121	0xbda99bf7	-0.08281701
122	0x3ca7b9e0	0.020474374
123	0xbd3fb2ee	-0.0468015
124	0xbc90f0e8	-0.017692998
125	0x3e402676	0.18764672
126	0x3d7d3634	0.06181927
127	0xbe5f9fde	-0.21838328

fc.weight f4 [1, 32]
0	0x3cdf8ae7	0.027287913
1	0xbe577b11	-0.2104304
2	0x3ce8fb50	0.028440148
3	0x3df6726f	0.12033545
4	0x3e172de4	0.147636
5	0xbc5e8fa0	-0.013584048
6	0x3d3d6639	0.046240065
7	0x3dff380a	0.124618605
8	0x3ddda041	0.10821582
9	0x3e79ac4b	0.24382131
10	0xbd9581ae	-0.07300125
11	0xbdfd4841	-0.12367297
12	0xbdec9899	-0.11552543
13	0x3da78aff	0.08180808
14	0xbe16a596	-0.14711604
15	0xbd4513be	-0.04811453
16	0xbd559fdf	-0.052154418
17	0x3e4a5ebd	0.19762702
18	0x3ded963f	0.11600923
19	0x3db195b1	0.086711295
20	0xbd6f127a	-0.05836723
21	0xbe1cf421	-0.15327503
22	0xbb1fa0a8	-0.0024357233
23	0xbd51cab3	-0.0512187
24	0x3e0eb198	0.13934934
25	0xbe6d1755	-0.23153432
26	0x3caf024a	0.021363396
27	0xbca6bd5c	-0.020353965
28	0x3d4d2f63	0.05009402
29	0x3e38fc23	0.18064933
30	0xbd93ba78	-0.072133005
31	0xbca3cfc4	-0.019996531
