backend/stocks/price/pt_models/AEHR.pt (torch, 54435 bytes, 9 tensors)

lstm.weight_ih_l0 f4 [128, 1]
-0.1484193 0.15897809 0.10468173 0.11323126 0.15379849 0.10039487 -0.14062342 -0.12630478
-0.01934337 -0.14349438 0.17052007 -0.22258317 0.10659561 -0.009787599 0.007003197 -0.03585134
-0.009911783 -0.02519731 -0.1626769 0.2692257 0.13685204 0.12647288 0.10524259 0.32890072
-0.18023722 0.04803129 0.22621982 0.012680889 0.17203508 0.21241993 0.053963408 -0.064917184
-0.0019451319 -0.04431345 0.19039641 0.03818576 0.15056369 0.13471276 -0.0836351 0.09527439
-0.0690699 0.03343361 0.06839859 0.02107418 0.096778855 0.007372441 0.14517713 -0.1785181
-0.0032771325 0.22893584 -0.13207425 0.05898218 -0.027673965 0.06649449 0.08159737 0.2077485
-0.08115597 -0.115568034 -0.05995321 0.09578989 0.31963146 0.29419902 0.13091944 -0.004927952
0.047984 0.16447388 -0.12381078 -0.07123473 0.012642519 0.0994517 0.091416426 0.08821554
-0.1209088 -0.23677006 -0.09966889 -0.22957413 0.02894121 0.26454505 -0.0063469363 -0.0676691
-0.2683893 -0.006371153 -0.12361715 -0.008156713 0.02220523 -0.0006648508 -0.081408694 -0.17445095
0.102014236 -0.2961389 -0.12595536 0.11961802 0.0709872 0.07229885 -0.12967685 -0.0008124557
-0.005574058 0.077250645 0.018685786 -0.14681266 0.36561072 0.060239196 -0.0005105527 -0.0106703825
-0.17638136 -0.08693335 0.11671865 -0.18863165 0.15448622 -0.27522412 0.0026117852 -0.12510614
0.0064933337 0.23312697 0.11696919 -0.012649954 0.12904191 -0.04123197 0.18691975 0.28045127
0.025213588 -0.19476995 -0.034406725 -0.18609884 0.15250364 0.27291405 0.009773144 -0.13893186
00000000: 3bfb 17be 27cb 223e 6063 d63d cae5 e73d
00000010: 5a7d 1d3e d39b cd3d 96ff 0fbe 0a56 01be
00000020: fd75 9ebc 31f0 12be d09c 2e3e d8ec 63be
00000030: cd4e da3d 2a5c 20bc 137b e53b dbd8 12bd
00000040: 0865 22bc 976a cebc c694 26be f3d7 893e
00000050: f122 0c3e 1b82 013e 6d89 d73d ad65 a83e
00000060: 1b90 38be 75bc 443d 2ba6 673e 81c3 4f3c
00000070: f729 303e 9c84 593e bc08 5d3d 4df3 84bd
00000080: ccf3 feba 0582 35bd 47f7 423e ac68 1c3d
00000090: 5e2d 1a3e 24f2 093e e148 abbd 381f c33d
000000a0: 8574 8dbd aef1 083d 8f14 8c3d c2a3 ac3c
000000b0: fe33 c63d 8494 f13b 50a9 143e 73cd 36be
000000c0: 29c5 56bb 286e 6a3e 793e 07be 4c97 713d
000000d0: 83b4 e2bc 432e 883d 861c a73d 06bc 543e
000000e0: 1a35 a6bd efae ecbd 7f91 75bd 7d2d c43d
000000f0: bca6 a33e 41a1 963e bf0f 063e a87a a1bb
00000100: df8a 443d d76b 283e 8290 fdbd 84e3 91bd
00000110: 9122 4f3c 55ad cb3d 8938 bb3d 59aa b43d
00000120: 089f f7bd da73 72be 341f ccbd 7b15 6bbe
00000130: 1e16 ed3c 7372 873e f6f9 cfbb 1996 8abd
00000140: 536a 89be 1bc5 d0bb fd2a fdbd bca3 05bc
00000150: bee7 b53c 6249 2eba 9ab9 a6bd 45a3 32be
00000160: d7ec d03d 859f 97be 71fa 00be 4bfa f43d
00000170: bd61 913d 6b11 943d 02ca 04be fbfa 54ba
00000180: 96a6 b6bb 9635 9e3d ef12 993c 0f56 16be
00000190: 5431 bb3e 60bd 763d 9dd6 05ba d4d2 2ebc
000001a0: 519d 34be 1d0a b2bd 300a ef3d a828 41be
000001b0: a331 1e3e 2dea 8cbe 7c2a 2b3b d31b 00be
000001c0: 08c6 d43b d6b8 6e3e 8b8d ef3d c141 4fbc
000001d0: 9023 043e dbe2 28bd e467 3f3e 4f97 8f3e
000001e0: ba8c ce3c c671 47be 11ee 0cbd b290 3ebe
000001f0: ea29 1c3e 64bb 8b3e 891f 203c 2744 0ebe

lstm.weight_hh_l0 f4 [128, 32]
-0.026419362 -0.11187564 -0.040778764 -0.14419277 0.08399219 0.07738076 0.006830474 -0.071583785
-0.03630365 0.10816175 0.13994852 0.059776686 0.18141899 -0.00060788204 0.067659386 -0.17166169
0.055743072 0.085558 0.08861611 -0.061617535 -0.008433219 -0.1975513 0.10236179 0.053451434
-0.03394162 0.2277387 0.024421806 0.0036603443 -0.30325916 0.09113798 0.013127223 7.383158e-05
-0.020296095 0.060354285 0.149656 -0.14774573 0.1401755 0.22655731 0.076665506 0.03483607
0.03802263 -0.14932986 0.09676039 -0.2090682 0.19121736 0.036472555 -0.10742818 0.045573335
-0.0801051 -0.122130185 0.21469375 -0.037755907 -0.06633351 -0.0044941315 0.1329757 0.07202003
-0.008105135 0.09858749 0.123435326 0.09073836 0.087556995 -0.11148911 0.033434045 -0.08339595
0.030153774 0.025379822 0.119847134 -0.18699077 -0.07414298 -0.025727518 -0.21500766 0.012755433
-0.15180485 0.008392324 0.0035187663 -0.045470618 0.10263323 -0.03131217 -0.16643967 -0.058406938
-0.041273978 0.096066296 0.23042428 0.011378998 -0.22825156 -0.039786752 0.17839408 -0.15996219
-0.076698214 -0.23982142 -0.04981141 -0.07265115 -0.07878403 -0.08117885 -0.13570584 0.16471827
-0.085253164 -0.035135705 0.09908687 0.07217315 -0.044335544 0.21427365 -0.19424681 0.043076243
0.036247812 -0.075809926 -0.11428813 -0.19458525 0.107547455 -0.12313868 0.031529818 -0.07374407
0.14565414 0.18573478 0.052420788 -0.12201783 -0.22504382 -0.03959416 -0.03597812 -0.030216137
0.035131667 -0.13740489 -0.034512606 0.11512637 0.042834405 0.16156721 0.07246807 0.07227252
0.30787557 0.06289554 0.14232539 -0.113384075 0.08793798 0.18860242 -0.1345902 0.20010696
-0.24117383 -0.22431016 -0.06510197 -0.32861882 0.058187265 0.14949284 -0.04357801 -0.25591767
-0.2374449 -0.09990439 0.015932951 -0.10370965 -0.10646732 -0.03988403 -0.09522149 -0.030291697
0.30912882 0.03779021 -0.17566462 0.1735554 0.018946651 -0.10678512 0.018858315 0.14814244
-0.088864386 -0.06464894 0.16692258 0.028773006 -0.013956771 0.07066794 0.13305628 0.01507059
-0.08032801 -0.053369123 -0.11569281 0.08545858 -0.0472019 -0.020978928 -0.17162676 -0.1733132
0.057272237 -0.02258491 0.09589606 -0.09802808 0.010468469 0.098345906 0.07941636 0.067966
-0.020748442 -0.10374058 0.03276171 0.025565358 -0.16846387 0.03036456 0.16730899 -0.015669951
-0.06804552 -0.028884519 0.08532974 0.11937328 -0.17765573 -0.10906017 -0.19791459 0.1445346
-0.062055074 0.020007389 -0.0653672 -0.02680511 0.009484383 -0.011911967 -0.13143224 0.043197077
-0.10672667 -0.19319367 -0.11596621 -0.11106295 -0.047191843 0.0044935294 -0.10832173 0.13800819
0.03617883 -0.12328334 0.02895402 0.13218355 -0.053222764 0.005770445 -0.06833472 -0.044171922
0.08098309 -0.04035102 0.068193235 -0.12344253 -0.12982593 0.15317842 -0.18885493 0.15759335
-0.057783406 -0.076932356 -0.16721694 0.009121415 -0.017524729 -0.007582899 0.07629795 0.043137096
-0.008027363 0.05770485 0.13689417 -0.11978708 -0.022713311 -0.083884634 -0.14572014 0.1922632
0.197595 -0.13859698 0.0063831354 0.1943017 -0.20418368 -0.05746202 0.039733827 -0.050768927
00000000: 6b6d d8bc 0e1f e5bd a207 27bd 45a7 13be
00000010: 1904 ac3d ce79 9e3d 2bd2 df3b 859a 92bd
00000020: 23b3 14bd e883 dd3d aa4e 0f3e 66d8 743d
00000030: e6c5 393e 465a 1fba 0191 8a3d 15c8 2fbe
00000040: d952 643d 0839 af3d 5d7c b53d ab62 7cbd
00000050: 7c2b 0abc e34a 4abe 0fa3 d13d e4ef 5a3d
00000060: 5e06 0bbd 5534 693e 3d10 c83c 63e2 6f3b
00000070: c944 9bbe 8da6 ba3d 9013 573c 07d6 9a38
00000080: ff43 a6bc 0e36 773d 6c3f 193e a84a 17be
00000090: 2b8a 0f3e a4fe 673e ce02 9d3d 44b0 0e3d
000000a0: 9ebd 1b3d ede9 18be 502a c63d f915 56be
000000b0: 7cce 433e 3f64 153d 4e03 dcbd 1bab 3a3d
000000c0: 250e a4bd 641f fabd aed8 5b3e f0a5 1abd
000000d0: ddd9 87bd 8243 93bb c82a 083e 3d7f 933d
000000e0: 66cb 04bc 3de8 c93d a9cb fc3d 09d5 b93d
000000f0: 1551 b33d 6754 e4bd 23f2 083d 7fcb aabd
00000100: 0c05 f73c 58e9 cf3c 6a72 f53d 827a 3fbe
00000110: 46d8 97bd 84c2 d2bc f82a 5cbe 2afc 503c
00000120: bb72 1bbe f57f 093c 1a9b 663b 663f 3abd
00000130: 5f31 d23d 3141 00bd 296f 2abe 1d3c 6fbd
00000140: e70e 29bd 68be c43d 58f4 6b3e fa6e 3a3c
00000150: c7ba 69be 6ff7 22bd f0ac 363e 21cd 23be
00000160: f413 9dbd bf93 75be 0d07 4cbd 20ca 94bd
00000170: 8659 a1bd 1941 a6bd 79f6 0abe e8ab 283e
00000180: 3699 aebd 75ea 0fbd 0fee ca3d 84cf 933d
00000190: 3099 35bd 8d6a 5b3e a3e8 46be b770 303d
000001a0: 9678 143d 3c42 9bbd e50f eabd 5b41 47be
000001b0: d741 dc3d 2230 fcbd 6925 013d 2207 97bd
000001c0: 5c26 153e 4231 3e3e 2eb7 563d 7ce4 f9bd
000001d0: e371 66be 7c2d 22bd cb5d 13bd d587 f7bc
000001e0: 39e6 0f3d deb3 0cbe 175d 0dbd 60c7 eb3d
000001f0: 2173 2f3d e071 253e 246a 943d 9d03 943d
00000200: dea1 9d3e 60cf 803d bfbd 113e e935 e8bd
00000210: d418 b43d fe20 413e 03d2 09be d7e8 4c3e
00000220: 46f6 76be 90b1 65be 2f54 85bd ba40 a8be
00000230: c555 6e3d a714 193e db7e 32bd a407 83be
00000240: c224 73be ac9a ccbd d285 823c ba65 d4bd
00000250: 8a0b dabd 705d 23bd 7c03 c3bd 4b26 f8bc
00000260: 2246 9e3e e8c9 1a3d 6de1 33be 82b8 313e
00000270: 0236 9b3c 28b2 dabd c17c 9a3c a7b2 173e
00000280: 88fe b5bd aa66 84bd c1ed 2a3e 5eb5 eb3c
00000290: f1aa 64bc 5aba 903d e83f 083e a3ea 763c
000002a0: 0383 a4bd 9599 5abd 5af0 ecbd e804 af3d
000002b0: c856 41bd 00dc abbc edbe 2fbe 0479 31be
000002c0: 4b96 6a3d fd03 b9bc 2765 c43d f2c2 c8bd
000002d0: f183 2b3c 9469 c93d 0ba5 a23d c231 8b3d
000002e0: a3f8 a9bc f175 d4bd 2531 063d 716e d13c
000002f0: cb81 2cbe 19bf f83c 0c53 2b3e 455e 80bc
00000300: 735b 8bbd 3a9f ecbc 5cc1 ae3d fa79 f43d
00000310: 62eb 35be f05a dfbd 1faa 4abe e100 143e
00000320: 762d 7ebd 89e6 a33c 3ddf 85bd 6496 dbbc
00000330: 6364 1b3c 692a 43bc 2c96 06be 6bef 303d
00000340: 8393 dabd 90d4 45be b17f edbd f974 e3bd
00000350: 3c4c 41bd 753e 933b c8d7 ddbd 0552 0d3e
00000360: 4130 143d fa7b fcbd fb30 ed3c 205b 073e
00000370: 1d00 5abd 0016 bd3b 13f3 8bbd 9eed 34bd
00000380: 76da a53d 1c47 25bd e5a8 8b3d 70cf fcbd
00000390: 17f1 04be ceda 1c3e 3063 41be 2760 213e
000003a0: 4bae 6cbd b68e 9dbd eb3a 2bbe fd71 153c
000003b0: 0590 8fbc f879 f8bb 1a42 9c3d 86b0 303d
000003c0: 3385 03bc ec5b 6c3d fc2d 0c3e ee52 f5bd
000003d0: 4411 babc b5cb abbd a937 15be a5e0 443e
000003e0: 5856 4a3e 5eec 0dbe 9f29 d13b 06f7 463e
000003f0: 8715 51be 4c5d 6bbd f0bf 223d 14f3 4fbd

lstm.bias_ih_l0 f4 [128]
0.053484954 -0.0380874 -0.06412483 -0.04810019 -0.008311796 -0.1087986 -0.14523901 0.0056034112
-0.13479981 0.00084866025 -0.057010163 0.06088661 -0.108350545 -0.0026961192 -0.09989503 -0.07949448
0.18952398 -0.2271949 -0.012676657 0.03412507 0.021574557 -0.069442645 -0.061528955 -0.06998289
-0.1400632 0.20275836 -0.25776437 0.027383743 -0.11391092 -0.16410163 -0.11166946 -0.09766262
0.15136471 -0.17775609 -0.15401657 0.0810744 -0.30181393 0.0070363623 0.058874674 0.03912487
-0.023970177 -0.06658521 -0.08855484 0.014675031 -0.17847565 0.006420014 -0.041229934 0.1740202
0.1498626 -0.23767099 0.13525467 -0.14557202 -0.020283889 -0.10304967 0.11867815 0.031334065
-0.085920945 0.19988394 -0.03874905 0.051859852 0.018103436 -0.19067809 -0.20371595 0.023014193
0.021163853 0.058638573 -0.070397526 0.05194338 -0.06620718 -0.13817808 0.061797857 -0.121505775
0.13991627 0.080697216 -0.107544884 -0.109792195 0.00837245 0.043945633 0.19125712 -0.058537576
-0.033600684 0.10936527 -0.2188646 0.06303501 0.13761012 0.10038334 -0.02951526 -0.1766444
-0.13190517 0.07307421 -0.023805467 -0.06887097 -0.03288472 0.015085355 -0.027748741 -0.09266079
-0.15938608 0.0014105149 -0.007557791 -0.20822872 0.022846723 0.13570084 0.07278434 0.004488516
-0.22575977 0.11127692 0.053954285 0.10009952 -0.022292554 -0.04153279 -0.3022102 0.09108727
-0.030895226 -0.27712417 -0.14002359 -0.1658556 0.09016629 -0.15005043 0.13588685 -0.15499897
0.15110919 0.089408256 -0.19205894 0.16591248 -0.11932346 0.04963882 -0.08145873 0.033591498
00000000: 0a13 5b3d 8901 1cbd e153 83bd b404 45bd
00000010: 332e 08bc cdd1 debd 89b9 14be d29c b73b
00000020: f608 0abe a078 5e3a 7d83 69bd 3d64 793d
00000030: e4e6 ddbd 60b1 30bb c495 ccbd 00ce a2bd
00000040: 9312 423e c8a5 68be c1b1 4fbc bbc6 0b3d
00000050: 20bd b03c f237 8ebd c905 7cbd 3053 8fbd
00000060: ba6c 0fbe e39f 4f3e b1f9 83be df53 e03c
00000070: 214a e9bd 420a 28be f5b2 e4bd 5703 c8bd
00000080: 5aff 1a3e b105 36be 85b6 1dbe 560a a63d
00000090: 5b87 9abe 4991 e63b 9226 713d 6641 203d
000000a0: 1b5d c4bc d45d 88bd 3d5c b5bd 8b6f 703c
000000b0: 52c2 36be fb5e d23b b8e0 28bd 5a32 323e
000000c0: 9575 193e 0660 73be 3380 0a3e d510 15be
000000d0: 662a a6bc b50b d3bd 880d f33d 2658 003d
000000e0: 52f7 afbd 60ae 4c3e 53b7 1ebd ff6a 543d
000000f0: a84d 943c 1e41 43be ea9a 50be 4388 bc3c
00000100: d15f ad3c 002f 703d 942c 90bd 95c2 543d
00000110: a197 87bd 8e7e 0dbe c01f 7d3d 05d8 f8bd
00000120: 3646 0f3e 9544 a53d 7e40 dcbd bbda e0bd
00000130: 9a2c 093c 5600 343d e8d8 433e 19c5 6fbd
00000140: dfa0 09bd e6fa df3d 0b1e 60be 8018 813d
00000150: abe9 0c3e c895 cd3d fdc9 f1bc 45e2 34be
00000160: 2612 07be eea7 953d af03 c3bc 390c 8dbd
00000170: 21b2 06bd 9128 773c 5451 e3bc f1c4 bdbd
00000180: 1b36 23be 07e1 b83a 59a7 f7bb e939 55be
00000190: 0d29 bb3c 29f5 0a3e f50f 953d 6714 933b
000001a0: 922d 67be 27e5 e33d 2bff 5c3d fa00 cd3d
000001b0: e09e b6bc 491e 2abd 4cbb 9abe f68b ba3d
000001c0: fc17 fdbc 38e3 8dbe 5862 0fbe 0dd6 29be
000001d0: 1ba9 b83d d2a6 19be ec25 0b3e 0db8 1ebe
000001e0: 5ebc 1a3e ad1b b73d 19ab 44be f6e4 293e
000001f0: dc5f f4bd 1352 4b3d d6d3 a6bd 3d97 093d

lstm.bias_hh_l0 f4 [128]
0.026972104 0.13414268 -0.2626627 -0.084234715 -0.11956598 -0.008263551 -0.17264815 -0.107031755
-0.020764282 0.01623904 -0.18974051 -0.0057017487 -0.15156116 -0.09224959 -0.19280225 0.008481014
0.19139631 0.0017192271 -0.14085735 0.028739883 -0.13178954 0.022409992 -0.11208338 -0.13405913
0.024682755 0.20515756 0.041376866 -0.14534521 -0.20738313 -0.23643535 -0.03020571 0.11575921
-0.14223818 0.07813901 -0.25129253 0.10404214 0.03216982 -0.0071374117 -0.11993725 -0.08718
-0.24885307 0.1695149 -0.16455942 0.10458184 -0.11052492 0.09711345 -0.2599831 0.013174443
0.15678205 0.06519767 0.1122542 -0.04282149 0.06163072 0.086940534 0.04504122 0.09796741
0.15930523 0.30027696 -0.25458395 0.16923092 -0.12576938 -0.07235947 -0.12507066 0.124069266
-0.18150291 0.12700872 0.020040441 0.11509502 0.12947944 0.11882025 0.060401265 0.044987552
-0.12704515 0.09502565 0.14091453 0.10032285 -0.054121826 -0.02991205 -0.13915455 0.14892527
-0.13692817 -0.083965346 -0.19906278 -0.08906199 0.121877566 -0.010438901 -0.12323355 -0.10846213
-0.17267925 -0.15685014 0.052754704 -0.17565943 0.16889755 0.1531646 -0.09013413 -0.119095705
0.13087136 -0.09819097 -0.2575842 -0.21362211 -0.17285669 -0.059164446 -0.10403793 -0.071579695
-0.17899355 0.015788257 0.09674973 0.06271433 -0.010273526 -0.0013569491 0.014917201 -0.019019613
0.18016967 -0.15440865 -0.010021819 -0.1750883 0.09511142 -0.103422314 0.084066875 -0.08083279
-0.13105376 0.28250226 -0.26382524 0.17003155 0.08998867 0.0031706537 -0.16993017 -0.10431412
00000000: 9af4 dc3c b35c 093e ba7b 86be 4083 acbd
00000010: 02df f4bd d863 07bc adca 30be 7733 dbbd
00000020: db19 aabc bc07 853c 564b 42be bcd5 babb
00000030: d932 1bbe 5aed bcbd f46d 45be f3f3 0a3c
00000040: 65fd 433e b057 e13a e93c 10be e76f eb3c
00000050: d6f3 06be 2995 b73c f98b e5bd cc46 09be
00000060: 7d33 ca3c d314 523e ca7a 293d 60d5 14be
00000070: 3e5c 54be 1c1c 72be f771 f7bc 2a13 ed3d
00000080: e3a6 11be 5807 a03d 6aa9 80be 0c14 d53d
00000090: 80c4 033d f3e0 e9bb a9a1 f5bd 6e8b b2bd
000000a0: 57d3 7ebe 5095 2d3e 4482 28be 012f d63d
000000b0: e45a e2bd 6be3 c63d 811c 85be 9ed9 573c
000000c0: 798b 203e 5b86 853d 88e5 e53d 9665 2fbd
000000d0: 7e70 7c3d e10d b23d 247d 383d 23a3 c83d
000000e0: e920 233e e7bd 993e d458 82be df4a 2d3e
000000f0: b0c9 00be 3431 94bd 8612 00be 0718 fe3d
00000100: e6db 39be 930e 023e da2b a43c f0b6 eb3d
00000110: 4296 043e 0858 f33d 5167 773d de44 383d
00000120: 2018 02be cf9c c23d e64b 103e 1176 cd3d
00000130: d9ae 5dbd 1e0a f5bc 887e 0ebe de7f 183e
00000140: e636 0cbe 06f6 abbd 1dd7 4bbe 2266 b6bd
00000150: f29a f93d ed07 2bbc df61 fcbd 6521 debd
00000160: d4d2 30be 539d 20be 5115 583d 11e0 33be
00000170: 7bf3 2c3e 2ed7 1c3e 3e98 b8bd 73e8 f3bd
00000180: 2403 063e 5918 c9bd 14e2 83be c1bf 5abe
00000190: 5801 31be 6b56 72bd d711 d5bd 6098 92bd
000001a0: 164a 37be 6056 813c b924 c63d 5f70 803d
000001b0: 4b52 28bc a8db b1ba 4767 743c 05cf 9bbc
000001c0: 667e 383e 4d1d 1ebe 8e32 24bc 594a 33be
000001d0: c7c9 c23d 14cf d3bd 412b ac3d a98b a5bd
000001e0: f532 06be 23a4 903e 1a14 87be c01c 2e3e
000001f0: fb4b b83d beca 4f3b 2d02 2ebe a4a2 d5bd

lstm.weight_ih_l1 f4 [128, 32]
-0.19078946 -0.002053879 0.041369542 0.017101444 -0.04245727 -0.17263283 -0.12627494 0.12298387
0.011037599 -0.10244729 -0.07388248 0.011033479 0.17857513 0.09690932 -0.1131759 -0.13038912
0.05263394 0.13195017 0.12557791 0.09068314 0.09923176 0.14916538 0.14049447 0.2873598
0.060139596 0.19933087 0.056686006 0.025274018 -0.09493357 0.0550936 -0.07782546 0.036126282
0.057501335 0.121540755 -0.08574482 -0.027926233 -0.038771324 0.05966566 0.060165536 0.055936698
-0.08675671 0.03638184 -0.09089753 -0.1011929 0.15820335 -0.15175866 -0.0669532 0.08261094
0.034560107 -0.17745045 0.15740383 -0.17021313 0.16806918 -0.16545877 -0.12185955 0.054418664
-0.16996762 0.30481118 -0.03744626 -0.12916219 0.07920682 -0.148627 0.02530968 -0.036884837
0.08480707 0.09980101 0.18514751 -0.07473831 0.07489892 0.09027572 0.14377902 -0.063053675
0.08452351 0.13879977 0.2325761 0.20102316 0.009942792 -0.061459903 -0.07943924 0.05418314
0.057856444 -0.10286211 0.025416508 -0.23761101 -0.093998894 0.059878837 0.026478933 0.21353516
-0.16007411 0.27825847 -0.0736117 -0.20997003 -0.09544297 0.07719861 0.17231277 0.07133029
-0.030191366 -0.10214628 0.004306053 0.025067443 0.01844473 -0.087468185 -0.1327721 -0.03297178
-0.059257556 -0.03752518 -0.10778446 0.18538725 -0.10249253 -0.044297602 0.01645607 -0.07622115
0.13131538 0.114610784 0.11597086 -0.14931256 0.0877907 0.07801977 0.13551196 0.09972476
-0.007932973 0.25315425 0.15105154 0.06950828 -0.2260571 -0.05841654 -0.053119916 -0.104941115
0.040324695 0.04964584 0.07983358 0.16588387 0.14289689 -0.25702077 0.15394725 -0.04119712
-0.10552297 0.094648026 0.0890613 -0.05415566 0.024714593 -0.25851268 -0.075630255 0.18565726
0.09395417 -0.1672871 0.0197829 -0.2302296 0.16052635 0.04788479 -0.16694881 0.0013966531
-0.09852587 0.27888006 0.13658907 -0.16387133 -0.05578689 0.0787173 -0.00486143 -0.22249916
0.032642037 0.020060103 0.18369366 0.10567658 0.0953383 0.13985088 -0.09598375 0.013538231
0.01551964 0.17174798 -0.14671384 0.23034488 0.17821924 0.014004737 -0.035862394 0.09428968
0.07299378 0.060457833 0.015485195 -0.032793857 -0.11144993 -0.1304774 -0.1208668 0.22164701
-0.1391225 0.10729982 0.1171236 -0.05775141 -0.23155366 -0.09629649 0.1481935 0.09496043
-0.0072970376 -0.24659559 0.03453163 -0.23460725 -0.18312305 0.1557067 -0.12067058 0.21429056
0.07595555 0.048704345 -0.15291795 -0.22207002 -0.04564613 -0.08438599 0.07450442 0.10129242
0.14351703 0.14603214 0.15198323 0.1970286 0.01500606 0.0044917907 0.068968184 -0.02828697
-0.0496834 -0.06475501 -0.14121579 0.11372165 0.047782928 0.06427188 -0.21234556 0.13288188
0.06489476 0.002806378 -0.090772346 0.03043817 0.12596081 -0.13539146 -0.13255501 0.050897572
-0.016483326 0.00077352964 0.04242747 -0.041254923 0.17600168 -0.06929597 0.04213597 0.08939973
0.06344339 -0.13488463 -0.060727134 -0.12700148 0.15395036 -0.14947726 0.105221875 -0.020231362
-0.073969774 0.20254198 -0.06383961 -0.13627753 -0.23811974 -0.1598766 0.14806268 0.11713694
00000000: 505e 43be 5f9a 06bb 1c73 293d 5418 8c3c
00000010: ade7 2dbd a9c6 30be 384e 01be f8de fb3d
00000020: 0cd7 343c e3cf d1bd b34f 97bd c4c5 343c
00000030: 66dc 363e 6578 c63d c4c8 e7bd ba84 05be
00000040: b096 573d f21d 073e 7f97 003e 15b8 b93d
00000050: 053a cb3d cfbe 183e c8dd 0f3e d320 933e
00000060: f054 763d 641d 4c3e 962f 683d 750b cf3c
00000070: 886c c2bd d4a9 613d f462 9fbd 27f9 133d
00000080: 8586 6b3d 5cea f83d fb9a afbd 8ec5 e4bc
00000090: aece 1ebd fb63 743d 2370 763d e11d 653d
000000a0: 81ad b1bd 2005 153d 7c28 babd 393e cfbd
000000b0: 0f00 223e 9f66 1bbe c21e 89bd ed2f a93d
000000c0: e68e 0d3d 92b5 35be 782e 213e 5a4c 2ebe
000000d0: 541a 2c3e 066e 29be 8091 f9bd 1be6 5e3d
000000e0: fe0b 2ebe 3610 9c3e 4061 19bd 1843 04be
000000f0: 2f37 a23d ad31 18be 3f56 cf3c 8e14 17bd
00000100: 54af ad3d 7964 cc3d 4f97 3d3e 6610 99bd
00000110: 9b64 993d 7ae2 b83d cf3a 133e 4922 81bd
00000120: a91a ad3d 8721 0e3e 6e28 6e3e 04d9 4d3e
00000130: 18e7 223c 61bd 7bbd 0ab1 a2bd 24ef 5d3d
00000140: e1fa 6c3d 5fa9 d2bd 4836 d03c 4d50 73be
00000150: 7e82 c0bd 8343 753d 59ea d83c f6a8 5a3e
00000160: 78ea 23be e577 8e3e bbc1 96bd 6202 57be
00000170: 9b77 c3bd 4e1a 9e3d c272 303e 9d15 923d
00000180: e253 f7bc 1232 d1bd ca19 8d3b 3d5a cd3c
00000190: 6719 973c 8522 b3bd 69f5 07be 6b0d 07bd
000001a0: 0db8 72bd 01b4 19bd 19be dcbd 28d6 3d3e
000001b0: 9be7 d1bd 6771 35bd e1ce 863c d619 9cbd
000001c0: 8a77 063e 0fb9 ea3d 2182 ed3d 64e5 18be
000001d0: 9ccb b33d d4c8 9f3d a6c3 0a3e 7f3c cc3d
000001e0: 4df9 01bc 6f9d 813e 41ad 1a3e 5b5a 8e3d
000001f0: 837b 67be 2f46 6fbd 4594 59bd 5eeb d6bd
00000200: 822b 253d 7059 4b3d ca7f a33d 76dd 293e
00000210: 9053 123e 3a98 83be 59a4 1d3e 50be 28bd
00000220: 6d1c d8bd d3d6 c13d c565 b63d 53d2 5dbd
00000230: 4276 ca3c c65b 84be 09e4 9abd f01c 3e3e
00000240: 0b6b c03d 4f4d 2bbe c00f a23c 4fc1 6bbe
00000250: 0561 243e d722 443d a1f4 2abe e70f b73a
00000260: eec7 c9bd 5ec9 8e3e 01de 0b3e e3cd 27be
00000270: cb80 64bd 8936 a13d a14c 9fbb d2d6 63be
00000280: a8b3 053d 1655 a43c 311a 3c3e f66c d83d
00000290: ba40 c33d 1235 0f3e 2193 c4bd 75cf 5d3c
000002a0: 1746 7e3c b4de 2f3e 273c 16be 87df 6b3e
000002b0: 1b7f 363e 2074 653c 72e4 12bd f31a c13d
000002c0: c37d 953d a2a2 773d 9eb5 7d3c da52 06bd
000002d0: dc3f e4bd de9b 05be 0389 f7bd 6ff7 623e
000002e0: 2176 0ebe 02c0 db3d 7fde ef3d be8c 6cbd
000002f0: 671c 6dbe 1837 c5bd 09c0 173e 9d7a c23d
00000300: fd1b efbb 8e83 7cbe 0a71 0d3d e23c 70be
00000310: 9c84 3bbe 9471 1f3e 2322 f7bd fc6e 5b3e
00000320: 958e 9b3d 357e 473d 8696 1cbe 5366 63be
00000330: 70f7 3abd 90d2 acbd c695 983d 6672 cf3d
00000340: 21f6 123e 7389 153e 7ea1 1b3e dec1 493e
00000350: fadb 753c df2f 933b 313f 8d3d 13ba e7bc
00000360: d280 4bbd 469e 84bd df9a 10be e5e6 e83d
00000370: 08b8 433d faa0 833d 1d71 59be 3012 083e
00000380: 8be7 843d 36eb 373b dae6 b9bd 7859 f93c
00000390: dffb 003e 0fa4 0abe 80bc 07be f979 503d
000003a0: 0a08 87bc b2c6 4a3a 6dc8 2d3d ecfa 28bd
000003b0: c939 343e 0ceb 8dbd c496 2c3d 3517 b73d
000003c0: 9cee 813d 321f 0abe 04bd 78bd ad0c 02be
000003d0: 2aa5 1d3e 9110 19be 917e d73d 3ebc a5bc
000003e0: 777d 97bd 2a67 4f3e 57be 82bd 568c 0bbe
000003f0: a9d5 73be b1b6 23be be9d 173e 7ee5 ef3d

lstm.weight_hh_l1 f4 [128, 32]
0.12272644 -0.11018534 0.10368609 0.14715728 0.08017517 0.08434912 -0.07781916 0.051366612
0.086819716 0.07875761 0.19127038 -0.22337995 0.06946176 -0.20882085 0.120769516 0.09202576
0.08495308 -0.13862392 -0.09783949 0.17812125 0.10411352 -0.07144611 0.18416606 0.10282193
-0.02746103 -0.1697918 0.060240097 0.038420167 -0.035941448 -0.15811443 0.14241832 -0.18210848
-0.022525886 0.014889673 0.16613993 0.1307084 0.1707313 0.15345107 0.058928054 0.09007281
0.13454795 -0.14886673 0.15862313 -0.0057963226 0.14994995 0.12014858 -0.10320809 0.13744323
0.10241794 -0.19719218 0.0128452955 -0.12148482 0.12965894 0.1420922 0.07348271 -0.11748198
-0.12873414 -0.026303088 -0.042261258 0.18273517 -0.09039335 -0.1844927 0.1091707 -0.023102226
-0.08394385 -0.19334413 0.1489512 0.06279122 0.07988731 -0.20302443 -0.037353434 0.016838249
0.18469669 -0.17084375 -0.08193999 -0.19463302 -0.041093178 -0.07263167 -0.014954871 0.16483057
-0.06615194 -0.04053477 -0.19394596 -0.1560255 -0.16806205 0.08646148 0.10813841 0.185689
0.14138989 -0.1704282 -0.026753599 -0.02777054 -0.057728305 -0.01807669 0.10575886 0.06298113
0.072673105 -0.12830868 0.16162956 -0.10137912 -0.049623933 -0.08877396 0.11043685 0.09989053
-0.06485755 -0.13934402 0.034941778 0.074761555 0.09559194 0.05530064 -0.1705974 0.07139945
-0.023596384 -0.18788879 0.046935216 0.06420261 -0.053963944 -0.13157253 0.17682664 0.14942832
0.029574927 0.015355448 0.09645585 -0.016316907 -0.09442147 0.08404336 -0.045361508 -0.065412976
-0.059310913 -0.13333397 -0.0039893086 -0.028446866 0.020025518 0.018892232 -0.07074733 0.06044827
-0.14481129 0.033816792 0.17042764 -0.17378224 0.15287384 -0.15134284 -0.14509232 0.25401348
-0.07791945 -0.09205845 0.07794843 0.15680173 0.07996571 0.08505615 0.2509776 0.15810645
0.09352772 -0.04202657 -0.058527835 -0.20680791 0.15520293 -0.06727776 -0.15254012 0.031102637
0.085947305 0.14687903 -0.07160415 -0.04603613 -0.03706441 0.17198406 0.11094338 -0.13426486
0.15262155 0.019577118 0.18431929 -0.16818549 0.15238659 -0.016256822 -0.05662319 0.20938364
0.09255271 0.08661206 0.18992852 0.07880706 0.015983583 0.14163893 -0.06424438 -0.11593902
0.13536006 0.1600369 -0.0018297595 -0.05219907 -0.060007483 -0.0595875 0.14048734 -0.11249373
-0.028984912 0.22697808 -0.10395196 0.01916139 -0.02920888 0.19863254 -0.08685863 0.2116582
-0.2379143 0.008883388 0.08989933 -0.09023722 -0.14548358 0.1415725 0.04059691 0.0027746889
-0.10718631 -0.09320629 0.0028493297 0.15381724 0.2539082 0.014458378 0.13477503 -0.08265137
-0.06811483 0.2443256 -0.10255415 0.22306624 -0.22087716 -0.21135761 -0.055488456 -0.0380063
-0.06885992 -0.021150686 -0.08685533 -0.019236818 -0.121998385 -0.077355884 -0.1194212 0.18144035
-0.0014118361 0.15580633 0.19703153 -0.24198836 0.013111095 -0.020044431 0.055653885 -0.028192265
-0.06378077 0.008356928 0.17050901 0.15334925 0.10415616 -0.120311104 0.23895131 0.008034335
0.10762133 0.13777007 -0.029250938 -0.13560791 -0.07914914 -0.035802413 -0.12516955 -0.1178291
00000000: 0058 fb3d daa8 e1bd 5f59 d43d 66b0 163e
00000010: e132 a43d 3bbf ac3d a75f 9fbd cc65 523d
00000020: 89ce b13d ab4b a13d 62dc 433e b7bd 64be
00000030: f841 8e3d 22d5 55be 0256 f73d 0078 bc3d
00000040: e1fb ad3d 6ef3 0dbe 1260 c8bd 6b65 363e
00000050: 7839 d53d 5752 92bd 0796 3c3e 4e94 d23d
00000060: f4f5 e0bc e7dd 2dbe 52be 763d 775e 1d3d
00000070: 5737 13bd c0e8 21be 1cd6 113e a57a 3abe
00000080: 3588 b8bc d1f3 733c 9620 2a3e 6cd8 053e
00000090: 30d4 2e3e 4722 1d3e 8b5e 713d 1878 b83d
000000a0: f0c6 093e 8570 18be 1a6e 223e 14ef bdbb
000000b0: 7b8c 193e 7510 f63d c35e d3bd ebbd 0c3e
000000c0: 7fc0 d13d bfec 49be 1375 523c 09cd f8bd
000000d0: 50c5 043e 9e80 113e 1a7e 963d 649a f0bd
000000e0: e2d2 03be 9379 d7bc 241a 2dbd ee1e 3b3e
000000f0: 2620 b9bd a8eb 3cbe e394 df3d e140 bdbc
00000100: c1ea abbd 01fc 45be aa86 183e af98 803d
00000110: f59b a33d a3e5 4fbe eaff 18bd 5ef0 893c
00000120: 2121 3d3e aaf1 2ebe 27d0 a7bd e14d 47be
00000130: 5251 28bd eabf 94bd 4605 75bc 58c9 283e
00000140: ab7a 87bd c907 26bd c599 46be 26c5 1fbe
00000150: 7518 2cbe b712 b13d ac77 dd3d 4225 3e3e
00000160: 83c8 103e bb84 2ebe 5d2a dbbc 0b7f e3bc
00000170: 8474 6cbd 9115 94bc 1a98 d83d 40fc 803d
00000180: a3d5 943d 5a63 03be 3882 253e db9f cfbd
00000190: 7742 4bbd 1fcf b5bd b72c e23d 6893 cc3d
000001a0: 09d4 84bd 33b0 0ebe 1c1f 0f3d 961c 993d
000001b0: b5c5 c33d ed82 623d 16b1 2ebe e039 923d
000001c0: 344d c1bc eb65 40be 243f 403d a87c 833d
000001d0: 4c09 5dbd f3ba 06be 0b12 353e bd03 193e
000001e0: 1e47 f23c 6b95 7b3c a58a c53d 09ab 85bc
000001f0: 0b60 c1bd ed1e ac3d fdcc 39bd 3df7 85bd
00000200: 00f0 72bd b388 08be bfb8 82bb 6709 e9bc
00000210: 8e0c a43c e2c3 9a3c fae3 90bd 9b98 773d
00000220: 6949 14be 7a83 0a3d 9584 2e3e f9f3 31be
00000230: f68a 1c3e 9ef9 1abe 1593 14be 0e0e 823e
00000240: 3c94 9fbd 2489 bcbd 6da3 9f3d a290 203e
00000250: 10c5 a33d eb31 ae3d 2380 803e a8e6 213e
00000260: 768b bf3d 0d24 2cbd e2ba 6fbd 74c5 53be
00000270: 84ed 1e3e ecc8 89bd 7a33 1cbe f5ca fe3c
00000280: 2405 b03d 7567 163e 32a5 92bd 6290 3cbd
00000290: dad0 17bd 971c 303e 4836 e33d ba7c 09be
000002a0: d348 1c3e 3160 a03c 32be 3c3e d138 2cbe
000002b0: 3b0b 1c3e 072d 85bc b8ed 67bd aa68 563e
000002c0: 468c bd3d aa61 b13d 9f7c 423e 9965 a13d
000002d0: 01f0 823c cc09 113e 8f92 83bd 7071 edbd
000002e0: d49b 0a3e b7e0 233e 8ad4 efba b1ce 55bd
000002f0: 68ca 75bd 0612 74bd eadb 0f3e 1d63 e6bd
00000300: c471 edbc f16c 683e c4e4 d4bd 59f8 9c3c
00000310: 7647 efbc 5466 4b3e f0e2 b1bd edbc 583e
00000320: ce9f 73be a18b 113c 241d b83d 4bce b8bd
00000330: a6f9 14be 62f8 103e f248 263d 8ed7 353b
00000340: 7f84 dbbd f0e2 bebd d2bb 3a3b 4482 1d3e
00000350: 4100 823e d5e2 6c3c 7702 0a3e 1f45 a9bd
00000360: ca7f 8bbd 7d30 7a3e e907 d2bd 7a6b 643e
00000370: 9f2d 62be 216e 58be dd47 63bd 7eac 1bbd
00000380: 6e06 8dbd 3444 adbc 35e1 b1bd 8896 9dbc
00000390: 4ada f9bd c36c 9ebd 1a93 f4bd 80cb 393e
000003a0: 5c0d b9ba b28b 1f3e a2c2 493e cccb 77be
000003b0: ebcf 563c 3834 a4bc 54f5 633d 77f3 e6bc
000003c0: 7e9f 82bd 7feb 083c ea99 2e3e 9607 1d3e
000003d0: d34f d53d ab65 f6bd a7af 743e 72a2 033c
000003e0: 9268 dc3d 9913 0d3e aa9f efbc cddc 0abe
000003f0: f218 a2bd 8da5 12bd 722c 00be 6250 f1bd

lstm.bias_ih_l1 f4 [128]
0.17608166 -0.03985388 0.22295171 0.06804403 -0.0075113354 -0.111141995 0.076712914 0.021131828
0.013650253 -0.010615659 -0.22431533 -0.16612008 0.13957956 -0.08986707 0.1849859 -0.23999572
-0.15824625 -0.23554294 0.11527649 -0.14244667 -0.011108392 0.032897584 -0.018790433 -0.071715616
0.026061794 0.014998083 -0.23587969 0.1824174 -0.04271223 -0.06361157 0.13286678 -0.06327137
0.057570297 -0.01296051 0.10480675 -0.1349468 0.2185134 0.16823083 -0.20498037 -0.17495495
-0.03264569 -0.13803734 -0.14895417 -0.14716539 0.027744599 -0.0732315 0.21651125 0.052046143
0.025544979 -0.014232291 -0.072371274 0.119003795 0.13366483 -0.1746618 -0.24785815 -0.01535739
0.13997088 -0.23436584 -0.049330037 0.018252837 0.12788694 0.058502167 0.046143703 -0.07778743
-0.08720805 -0.20913604 0.14381409 -0.07756452 0.16261332 -0.22172442 -0.03826915 -0.12719713
0.06558295 -0.10780825 -0.034813657 0.0001838157 0.10378193 -0.10595255 -0.029476937 0.001942628
0.015496839 0.15764174 -0.18605343 0.039151967 -0.17234299 -0.091522306 -0.13613068 -0.037978202
0.15025592 -0.09999332 -0.010199384 -0.08197965 0.14011608 0.094945885 -0.22662036 0.25579426
-0.07083445 -0.16413979 -0.13621655 0.18631653 -0.005486223 0.043997444 0.00933872 -0.038948197
0.16546378 0.06329403 -0.1414857 -0.08443593 0.06413221 -0.03173446 0.0719636 -0.11835805
0.10365374 -0.18369941 -0.0038244738 0.12280087 -0.117149204 -0.067925215 -0.017887808 -0.17357053
-0.082227595 -0.055729132 -0.11028739 -0.099751145 0.09515144 -0.17306337 0.026618592 0.045338314
00000000: c04e 343e d23d 23bd 744d 643e ab5a 8b3d
00000010: a621 f6bb 6a9e e3bd a91b 9d3d a81c ad3c
00000020: 50a5 5f3c 4ded 2dbc ebb2 65be 621b 2abe
00000030: f2ed 0e3e 3a0c b8bd f26c 3d3e 70c1 75be
00000040: 4e0b 22be 2b32 71be 1516 ec3d 8add 11be
00000050: f9ff 35bc 9ebf 063d 65ee 99bc a3df 92bd
00000060: 8b7f d53c 85ba 753c 728a 71be a0cb 3a3e
00000070: 05f3 2ebd c846 82bd 3b0e 083e 6c94 81bd
00000080: d5ce 6b3d 5258 54bc eca4 d63d 7e2f 0abe
00000090: fac1 5f3e b444 2c3e 60e6 51be 6427 33be
000000a0: 7db7 05bd a959 0dbe 7187 18be 86b2 16be
000000b0: a448 e33c 66fa 95bd 20b5 5d3e 562e 553d
000000c0: b443 d13c 8e2e 69bc 6437 94bd 43b8 f33d
000000d0: 6fdf 083e 8bda 32be 87ce 7dbe 909d 7bbc
000000e0: 8754 0f3e 99fd 6fbe 4b0e 4abd f986 953c
000000f0: cbf4 023e f89f 6f3d 2e01 3d3d 044f 9fbd
00000100: 229a b2bd c227 56be 0044 133e 26da 9ebd
00000110: 1b84 263e ba0b 63be 1dc0 1cbd f73f 02be
00000120: 5b50 863d 92ca dcbd c498 0ebd a7be 4039
00000130: 9f8b d43d a7fd d8bd 9e79 f1bc c79f fe3a
00000140: 74e6 7d3c d66c 213e ca84 3ebe d05d 203d
00000150: ae7a 30be 0c70 bbbd d765 0bbe 088f 1bbd
00000160: b0dc 193e 4cc9 ccbd 511b 27bc f2e4 a7bd
00000170: 977a 0f3e fd72 c23d 2b0f 68be 77f7 823e
00000180: a711 91bd 4314 28be 5a7c 0bbe c3c9 3e3e
00000190: c6c5 b3bb aa36 343d 6e01 193c 2588 1fbd
000001a0: 566f 293e 4da0 813d a1e1 10be bfec acbd
000001b0: c057 833d fefb 01bd a761 933d b565 f2bd
000001c0: 6948 d43d b31b 3cbe 06a4 7abb 067f fb3d
000001d0: eceb efbd 601c 8bbd 7489 92bc 79bc 31be
000001e0: f166 a8bd 3b44 64bd 5bde e1bd 544a ccbd
000001f0: c2de c23d 8637 31be 3c0f da3c abb4 393d

lstm.bias_hh_l1 f4 [128]
0.08854397 -0.09164237 0.06546766 0.13352904 0.16258913 0.06333062 -0.018510293 -0.11280091
0.066694126 0.09827184 -0.0005518039 -0.19314781 0.050292514 -0.24368396 0.031426124 -0.2297261
-0.032305982 -0.18589683 0.15060861 0.10367694 0.05540067 -0.084238544 -0.10026466 -0.04141041
-0.032299664 -0.13251753 -0.17955199 -0.05030491 0.029578822 0.048543278 -0.11914489 -0.116284035
-0.10163569 -0.013996795 0.08150646 -0.10764859 -0.06309344 -0.0014378402 -0.051222835 0.17091158
0.014078619 0.15546888 -0.17287123 -0.1660673 0.03079698 -0.14925246 0.13305141 -0.053115673
0.043393508 0.0015781375 -0.031619523 0.026679378 0.20302466 0.14261451 -0.18233982 -0.07716132
-0.14359158 -0.19896916 -0.28591466 -0.062042918 -0.07497611 0.18651433 -0.112451404 -0.026415596
-0.080283865 -0.13976726 0.21525995 -0.22431235 0.26559678 -0.09526088 -0.0047202613 -0.17338775
0.0878036 -0.0020156635 0.09031909 0.008800632 0.2438754 0.19562805 -0.2490685 0.092678756
-0.07233066 -0.18400753 -0.045986477 -0.190112 -0.24806882 -0.14261259 0.08484897 0.006091865
0.036464904 0.022635214 -0.123396024 -0.21112412 0.12275158 0.061989512 -0.15291625 0.16088526
-0.07916381 0.008390493 -0.043659274 0.1136344 0.094074614 -0.15110357 0.07983917 -0.1416144
0.101520285 0.15429385 -0.18163154 -0.16229205 0.03595009 0.042561043 -0.05799082 -0.08851359
-0.19049011 -0.06439049 0.108068906 -0.086243734 0.108842574 0.038623754 -0.21204264 -0.003061613
-0.0078555215 -0.083168626 -0.20530666 0.03090241 0.09723516 0.1532037 -0.16178222 0.15773647
00000000: 8a56 b53d ffae bbbd e913 863d d6bb 083e
00000010: c47d 263e 7cb3 813d e6a2 97bc 2a04 e7bd
00000020: ee96 883d bf42 c93d efa6 10ba 8ac8 45be
00000030: 86ff 4d3d 4a88 79be aeb8 003d 523d 6bbe
00000040: 4753 04bd bd5b 3ebe 2539 1a3e 9354 d43d
00000050: d0eb 623d 4285 acbd 8f57 cdbd f69d 29bd
00000060: a74c 04bd adb2 07be 7adc 37be 850c 4ebd
00000070: 494f f23c 51d5 463d 3c02 f4bd 5326 eebd
00000080: 5f26 d0bd d052 65bc dcec a63d dd76 dcbd
00000090: 2237 81bd e975 bcba 09cf 51bd 7203 2f3e
000000a0: 02aa 663c 3c33 1f3e 2805 31be 8c0d 2abe
000000b0: f349 fc3c a3d5 18be a13e 083e d28f 59bd
000000c0: 64bd 313d 82d9 ce3a 7983 01bd b68e da3c
000000d0: b2e5 4f3e 8a09 123e 4ab7 3abe c106 9ebd
000000e0: ac09 13be 92be 4bbe 6863 92be b720 7ebd
000000f0: 138d 99bd 9dfd 3e3e ec4c e6bd 8565 d8bc
00000100: de6b a4bd 261f 0fbe 1b6d 5c3e 23b2 65be
00000110: 4dfc 873e 2318 c3bd 6cac 9abb 8f8c 31be
00000120: 60d2 b33d 3919 04bb 37f9 b83d 8730 103c
00000130: 79ba 793e b852 483e d00b 7fbe 5cce bd3d
00000140: 1922 94bd 786c 3cbe 515c 3cbd b8ac 42be
00000150: c105 7ebe 0909 12be 4cc5 ad3d 449e c73b
00000160: 395c 153d 7c6d b93c 0eb7 fcbd ec30 58be
00000170: 2e65 fb3d b7e8 7d3d 1496 1cbe 1bbf 243e
00000180: a320 a2bd 4778 093c 11d4 32bd 27b9 e83d
00000190: 31aa c03d e5ba 1abe b882 a33d 5e03 11be
000001a0: dee9 cf3d 35ff 1d3e 9efd 39be e32f 26be
000001b0: 6740 133d 7d54 2e3d c887 6dbd 9d46 b5bd
000001c0: d70f 43be 29df 83bd 3b53 dd3d 8ea0 b0bd
000001d0: dbe8 de3d f133 1e3d b521 59be 58a5 48bb
000001e0: 72b4 00bc 5054 aabd e93b 52be 0d27 fd3c
000001f0: 3a23 c73d 6ee1 1c3e 3daa 25be ab85 213e

fc.weight f4 [1, 32]
0.03058695 0.049360137 -0.2161912 0.20469044 -0.110808335 0.08639848 0.017411502 0.09520454
-0.10263335 0.110394664 -0.0032831356 -0.081416294 -0.13658069 -0.014233806 0.20496222 -0.02378765
0.051362067 0.016876953 0.04766823 0.070614696 0.125891 0.013970804 0.08370299 0.0010782517
-0.048646413 0.020035483 -0.030775242 0.09038467 -0.1313442 -0.088543795 0.012680391 -0.16314515
00000000: 7c91 fa3c db2d 4a3d 3a61 5dbe 5f9a 513e
00000010: 7bef e2bd b0f1 b03d 91a2 8e3c 99fa c23d
00000020: 6f31 d2bd 9916 e23d e029 57bb 96bd a6bd
00000030: cfdb 0bbe e934 69bc 9ee1 513e 51de c2bc
00000040: 0861 523d 8941 8a3c c33f 433d 709e 903d
00000050: 92e9 003e cde5 643c 796c ab3d 2054 8d3a
00000060: 7641 47bd 7421 a43c 5c1c fcbc 991b b93d
00000070: 187f 06be 7356 b5bd 6ac1 4f3c 860f 27be
