backend/stocks/price/pt_models/AEP.pt (torch, 54423 bytes, 9 tensors)

lstm.weight_ih_l0 f4 [128, 1]
0.07836385 -0.27241814 0.06243879 -0.03246608 -0.21073903 0.033239193 -0.2890287 0.040513486
-0.048558444 0.07613325 0.18839851 -0.27181464 -0.054418966 0.07105047 0.13528219 0.031943645
0.08215462 0.09093922 -0.23324563 -0.16006526 -0.15538238 -0.19200611 -0.11573911 0.17313778
-0.117428586 0.040763482 -0.17628822 0.35545903 -0.14837201 0.18256664 0.348291 0.14869013
-0.034487534 -0.26177868 0.11879276 -0.13760266 -0.12944716 0.05176438 -0.30310166 0.077765204
0.028870301 0.07336507 -0.11342758 0.01106898 -0.21048285 0.035772506 0.22395389 0.10445657
0.20000304 0.16897663 -0.27384225 -0.03922091 0.06739457 -0.18199351 -0.18242769 0.29600045
0.026190767 0.04779396 0.03578157 0.25034142 -0.047182914 0.117802374 0.1819526 0.2575512
-0.24237593 -0.19054551 -0.19543931 0.11853353 0.3660495 -0.12453438 0.20643556 0.18101382
-0.23970333 -0.20017041 -0.097521596 0.09482547 -0.29312712 0.2173641 0.0032413215 0.14780512
-0.044302132 -0.2917043 0.26415095 -0.14991905 -0.14513381 -0.38370934 -0.06627291 -0.27263033
-0.2685886 0.11889822 0.32690376 -0.0030858752 0.27757084 0.17066036 0.057451777 0.08412024
-0.14955464 -0.26269406 0.14281926 -0.13705513 -0.15753557 -0.022649897 -0.2213714 0.032395944
-0.1875234 0.10479178 0.16562243 -0.1510749 -0.028718522 -0.15572764 0.11329188 0.16029374
0.072599016 0.14188795 -0.2280969 0.000841515 0.05242834 -0.0076002516 0.017603293 0.12644453
-0.18516995 -0.2499125 -0.2575746 0.11126338 -0.07934359 0.35066777 0.051857315 0.26335105
00000000: 3a7d a03d 647a 8bbe d1bf 7f3d 27fb 04bd
00000010: f9cb 57be d225 083d 92fb 93be 78f1 253d
00000020: 38e5 46bd c0eb 9b3d 8aeb 403e 4a2b 8bbe
00000030: 6ce6 5ebd e982 913d 6a87 0a3e 57d7 023d
00000040: ae40 a83d 573e ba3d f1d7 6ebe 26e8 23be
00000050: 8f1c 1fbe 409d 44be a008 edbd 084b 313e
00000060: 667e f0bd 9cf7 263d e684 34be bafe b53e
00000070: d5ee 17be c0f2 3a3e 3353 b23e 3a42 183e
00000080: cd42 0dbd db07 86be 9e49 f33d b6e7 0cbe
00000090: cc8d 04be e306 543d 2430 9bbe 5d43 9f3d
000000a0: 6981 ec3c 6d40 963d b84c e8bd ab5a 353c
000000b0: d188 57be 3186 123d 2b54 653e 54ed d53d
000000c0: 99cd 4c3e 3608 2d3e 0d35 8cbe 1ba6 20bd
000000d0: 2a06 8a3d 825c 3abe 53ce 3abe 5f8d 973e
000000e0: 058e d63c 99c3 433d b28f 123d c02c 803e
000000f0: df42 41bd 5f42 f13d c851 3a3e c0dd 833e
00000100: 6531 78be 5d1e 43be 3e21 48be b5c1 f23d
00000110: d76a bb3e e20b ffbd d863 533e b05b 393e
00000120: ca74 75be 79f9 4cbe 67b9 c7bd db33 c23d
00000130: c214 96be b294 5e3e 5a6c 543b 3a5a 173e
00000140: 2776 35bd 445a 95be cb3e 873e 6184 19be
00000150: f59d 14be 8d75 c4be 17ba 87bd 3496 8bbe
00000160: 7284 89be e980 f33d ee5f a73e 653c 4abb
00000170: c41d 8e3e 97c1 2e3e 8e52 6b3d 3b47 ac3d
00000180: da24 19be d67f 86be 363f 123e 2e58 0cbe
00000190: 0151 21be 478c b9bc 2faf 62be 9cb1 043d
000001a0: 2206 40be 139d d63d ed98 293e 61b3 1abe
000001b0: 1b43 ebbc 1177 1fbe 9305 e83d 0b24 243e
000001c0: cbae 943d 134b 113e 3c92 69be 1e99 5c3a
000001d0: 19bf 563d 880b f9bb c834 903c ad7a 013e
000001e0: 319d 3dbe 10e9 7fbe d1e0 83be 0ede e33d
000001f0: e47e a2bd ba8a b33e 5668 543d f3d5 863e

lstm.weight_hh_l0 f4 [128, 32]
-0.15461703 0.08662789 0.008076942 0.046827216 -0.10854442 -0.2011803 0.003386739 0.096191555
0.11988158 -0.10047198 -0.08305873 -0.07832726 -0.114436254 -0.10130885 -0.124715164 -0.14184119
-0.12357948 -0.089741625 -0.10613777 -0.10838142 -0.014447521 0.13354312 -0.18708491 0.15160495
-0.07874958 0.05931376 -0.030218888 0.14564303 -0.021673368 -0.061786093 0.031488355 -0.12598875
-0.03261874 0.022998469 0.010718673 0.0682662 0.059979063 0.0067267 -0.17438574 0.1300312
-0.1402265 0.026899131 -0.04992704 0.045860477 -0.07191256 -0.10829841 0.17479731 0.11461679
-0.14627676 0.09968859 -0.1920339 0.08633428 -0.13816637 0.0558277 0.12990555 0.2656957
0.11627214 0.03835313 -0.12002612 -0.07758774 -0.1387567 -0.04695117 -0.022326175 -0.06652248
-0.22186886 0.05392933 0.20907542 0.020135023 -0.0066726846 0.04567186 0.16798985 -0.077224694
-0.099336974 -0.10472234 0.083401896 0.09552792 -0.19008482 -0.104531735 -0.016960891 0.102704704
-0.18137643 0.1491718 -0.12394124 -0.03212538 -0.11492831 0.18270281 0.008719978 0.16188183
-0.07545249 0.09023084 0.12895517 -0.12987006 0.23638049 0.038386498 -0.14340134 0.11106097
0.16925445 0.14106688 0.13327847 0.1731102 -0.18150166 -0.12103464 0.040620107 -0.17527898
0.14281516 0.18053323 0.13287592 0.12751967 0.024995608 0.06269487 0.095786154 -0.032050915
-0.1678298 0.07790112 -0.04177271 0.13783047 -0.025218463 0.12471627 -0.033304732 -0.048301492
0.045885358 0.005450147 -0.059359983 -0.24655919 -0.042102307 -0.18942665 0.00037901878 -0.042791743
0.15407185 0.14735916 0.20389122 -0.11949178 -0.062466417 -0.14977674 0.095474064 0.15893517
-0.05664772 -0.10383384 -0.001689359 0.09524956 0.08794906 -0.09890375 0.124823295 -0.20630577
-0.08290007 -0.025308156 0.028573884 -0.0068226196 0.15269078 0.045789354 0.02058298 0.07857429
0.15830126 0.060446326 0.044666734 -0.19493908 -0.13380475 -0.034290045 -0.019837992 -0.014581017
0.05110833 0.14195418 -0.047311567 -0.03399648 0.078827046 0.019169578 0.058238365 -0.09414049
0.09884124 -0.124583595 -0.12505688 -0.0598198 0.028523091 -0.14718832 0.18307707 -0.07615585
-0.17501903 0.014959164 0.10883645 -0.10382569 -0.13258143 0.2109191 -0.14087652 0.04169242
0.11406707 0.06631642 -0.066825196 -0.053111006 0.09648292 -0.22091442 -0.24897456 0.06049177
0.055575825 0.14085759 0.028172825 -0.00465766 -0.18198544 0.076585464 -0.05217527 0.012633063
-0.06259741 0.15914597 0.09995401 0.12169134 -0.12876226 -0.048968296 -0.06541891 0.11037222
0.056092426 0.063203566 -0.18193103 0.1824994 0.040580846 0.08669546 0.14206508 0.15661295
-0.11796877 0.07062135 0.006426376 -0.086291425 -0.041735586 -0.057414223 -0.22829904 -0.14574099
0.05346729 -0.011389655 0.19899842 -0.123994686 -0.09033575 -0.062157914 0.006568064 0.100202374
-0.17885564 -0.10989034 0.02907742 0.049701855 -0.021018771 -0.03484848 -0.12018734 0.03936131
-0.07894294 -0.21724439 0.002792341 -0.16099356 -0.13728464 -0.2280905 0.11436367 -0.037611544
0.0049640546 0.13526118 0.14792393 -0.08974302 -0.10215794 0.033961218 0.14557716 0.016595304
00000000: ed53 1ebe f769 b13d 2655 043c e5cd 3f3d
00000010: 894c debd 3502 4ebe 0df4 5d3b 1400 c53d
00000020: 7984 f53d 41c4 cdbd b21a aabd 0b6a a0bd
00000030: 8e5d eabd 047b cfbd aa6a ffbd d13e 11be
00000040: 3d17 fdbd 75ca b7bd c25e d9bd 14f7 ddbd
00000050: 4cb5 6cbc 87bf 083e 3093 3fbe 543e 1b3e
00000060: 7647 a1bd fcf2 723d 9a8d f7bc 7223 153e
00000070: 598c b1bc 6a13 7dbd eff9 003d 3203 01be
00000080: 3a9b 05bd 4967 bc3c 5f9d 2f3c 26cf 8b3d
00000090: 9bac 753d a66b dc3b 2d92 32be e626 053e
000000a0: 8997 0fbe 915b dc3c 4c80 4cbd 32d8 3b3d
000000b0: e446 93bd 8fcb ddbd 11fe 323e 35bc ea3d
000000c0: 93c9 15be 8829 cc3d 89a4 44be 07d0 b03d
000000d0: 7c7b 0dbe 96ab 643d f605 053e 4409 883e
000000e0: 1620 ee3d 2c18 1d3d 41d0 f5bd 52e6 9ebd
000000f0: 3d16 0ebe df4f 40bd 62e5 b6bc f03c 88bd
00000100: 9731 63be 00e5 5c3d de17 563e 34f2 a43c
00000110: 89a6 dabb 6b12 3b3d 8805 2c3e fb27 9ebd
00000120: 2f71 cbbd ab78 d6bd 9dce aa3d 24a4 c33d
00000130: 98a5 42be bc14 d6bd 91f1 8abc d856 d23d
00000140: beba 39be 7ec0 183e e8d4 fdbd e795 03bd
00000150: 895f ebbd 7216 3b3e 3dde 0e3c 5ac4 253e
00000160: d686 9abd f2ca b83d d30c 043e a8fc 04be
00000170: ba0d 723e 293b 1d3d cdd7 12be ef73 e33d
00000180: 0a51 2d3e d673 103e 277a 083e cd43 313e
00000190: 92db 39be 02e1 f7bd 4561 263d 557c 33be
000001a0: 233e 123e b4dd 383e a010 083e 8494 023e
000001b0: 97c3 cc3c 2b66 803d 882b c43d d247 03bd
000001c0: 93db 2bbe 9f8a 9f3d dc19 2bbd 6e23 0d3e
000001d0: f396 cebc 3e6b ff3d 8b6a 08bd c9d7 45bd
000001e0: 49f2 3b3d 2697 b23b 7423 73bd 037a 7cbe
000001f0: 7873 2cbd 0ff9 41be 0ab7 c639 6546 2fbd
00000200: 03c5 1d3e 52e5 163e dcc8 503e 1bb8 f4bd
00000210: c9dc 7fbd 135f 19be e887 c33d e7bf 223e
00000220: 7107 68bd d6a6 d4bd 7b6d ddba 3412 c33d
00000230: a31e b43d 0d8e cabd 5ba3 ff3d d241 53be
00000240: 83c7 a9bd 0d53 cfbc c713 ea3c 4890 dfbb
00000250: f95a 1c3e 9e8d 3b3d a39d a83c 8feb a03d
00000260: ba19 223e 9196 773d 77f4 363d 1c9e 47be
00000270: 1d04 09be b873 0cbd 4983 a2bc 38e5 6ebc
00000280: f856 513d 705c 113e c6c9 41bd e53f 0bbd
00000290: 1370 a13d 8509 9d3c 5a8b 6e3d bbcc c0bd
000002a0: 476d ca3d af25 ffbd e90e 00be 9b05 75bd
000002b0: 42a9 e93c 89b8 16be 8e78 3b3e 99f7 9bbd
000002c0: 3038 33be 4817 753c a5e5 de3d 90a2 d4bd
000002d0: 6dc3 07be 2dfb 573e ef41 10be acc5 2a3d
000002e0: ff9b e93d e7d0 873d a6db 88bd ed8a 59bd
000002f0: d698 c53d 6437 62be 30f3 7ebe 38c6 773d
00000300: 7aa3 633d f93c 103e b2ca e63c 499f 98bb
00000310: 645a 3abe d7d8 9c3d bcb5 55bd e8fa 4e3c
00000320: 1233 80bd 29f7 223e b0b4 cc3d 4f39 f93d
00000330: 41da 03be fb92 48bd 59fa 85bd d50a e23d
00000340: 2cc1 653d df70 813d 214c 3abe 1fe1 3a3e
00000350: 1a38 263d 648d b13d 8279 113e 255f 203e
00000360: 9c99 f1bd eda1 903d 5994 d23b 8fb9 b0bd
00000370: eff2 2abd 2d2b 6bbd 39c7 69be 203d 15be
00000380: 8400 5b3d ad9b 3abc 3ec6 4b3e edf0 fdbd
00000390: f301 b9bd 4c99 7ebd ea38 d73b e736 cd3d
000003a0: ef25 37be 300e e1bd c533 ee3c 2c94 4b3d
000003b0: 8f2f acbc 48bd 0ebd c824 f6bd 5339 213d
000003c0: d6ac a1bd 5075 5ebe b5ff 363b 7fdb 24be
000003d0: 5894 0cbe 8e90 69be 8037 ea3d 900e 1abd
000003e0: 82a9 a23b e881 0a3e 5f79 173e 30cb b7bd
000003f0: 2f38 d1bd eb1a 0b3d 2e12 153e e0f2 873c

lstm.bias_ih_l0 f4 [128]
0.0976852 -0.0880681 -0.029402938 -0.1426652 0.04019788 0.041004673 -0.064230114 0.042759113
0.12656818 0.06065544 -0.118646175 -0.07131291 -0.14230582 0.104675405 -0.20056158 -0.17734016
-0.060747683 0.07739411 0.12833677 0.06095872 0.038222127 0.27007616 0.16233785 -0.054270037
0.026653707 0.16329011 -0.05073566 -0.14678189 -0.11045303 -0.19961178 0.03648405 -0.2659702
-0.17505446 0.08397216 -0.10773334 -0.16916797 -0.1379965 -0.18378678 -0.005369451 -0.17904454
-0.14377329 0.090990804 -0.038943063 -0.16811709 0.17024533 0.006429 -0.17788787 -0.2236798
-0.18273835 0.13886996 -0.02580014 0.036041185 0.0210256 0.09927493 -0.039343562 -0.11318866
0.039172187 0.083164036 0.07629428 0.05776847 -0.068013325 0.049693476 0.06064429 -0.23290016
0.011804658 0.15903015 -0.095370315 -0.079310335 -0.06730547 0.09872284 -0.04767328 0.013389031
0.0064945123 -0.15146671 0.048892573 -0.114143625 0.021191154 -0.05507005 0.073102124 0.07983268
0.07345754 -0.15962128 -0.094227746 0.054522354 0.03776518 -0.069377206 0.07166356 -0.21642129
0.16283742 -0.06934147 -0.090547465 0.24050373 0.11926077 -0.013420745 0.08738947 0.118462384
-0.05895313 0.19435 -0.19045246 0.05122109 -0.03006985 -0.0532854 0.07591298 0.017488759
-0.1690717 -0.023269467 -0.09158589 -0.047193035 0.09551075 0.14168201 -0.061988574 -0.1566062
-0.123296745 -0.085258625 -0.11133884 -0.044418823 -0.002588073 0.32450163 -0.07916323 0.080230765
-0.103606455 -0.07007386 0.16003302 -0.12347394 -0.16285002 0.0016826208 -0.22527874 -0.084134646
00000000: 2e0f c83d 0c5d b4bd 6ede f0bc d416 12be
00000010: 88a6 243d 84f4 273d 148b 83bd 2e24 2f3d
00000020: 179b 013e d771 783d c4fc f2bd 810c 92bd
00000030: 9eb8 11be 0f60 d63d 0460 4dbe a998 35be
00000040: 90d2 78bd ce80 9e3d b76a 033e daaf 793d
00000050: ce8e 1c3d 6c47 8a3e e53b 263e 424a 5ebd
00000060: e058 da3c 8635 273e 32d0 4fbd fe4d 16be
00000070: 3335 e2bd 0867 4cbe 4d70 153d 3f2d 88be
00000080: 7a41 33be 99f9 ab3d 4ca3 dcbd 5e3a 2dbe
00000090: f44e 0dbe 9a32 3cbe 38f2 afbb 7457 37be
000000a0: 4e39 13be 6359 ba3d c382 1fbd e326 2cbe
000000b0: cb54 2e3e 5caa d23b 3d28 36be 510c 65be
000000c0: c31f 3bbe ed33 0e3e d15a d3bc ec9f 133d
000000d0: e13d ac3c a850 cb3d b726 21bd 75cf e7bd
000000e0: 0473 203d e851 aa3d 2d40 9c3d a29e 6c3d
000000f0: 924a 8bbd 638b 4b3d 2666 783d 617d 6ebe
00000100: 5368 413c cdd8 223e 8351 c3bd 756d a2bd
00000110: 73d7 89bd 332f ca3d 0f45 43bd ab5d 5b3c
00000120: ebcf d43b 171a 1bbe 9443 483d 22c4 e9bd
00000130: 1299 ad3c 2291 61bd 91b6 953d 517f a33d
00000140: e870 963d c373 23be 7afa c0bd d552 5f3d
00000150: a9af 1a3d a315 8ebd 58c4 923d 8b9d 5dbe
00000160: dabe 263e e702 8ebd f370 b9bd 9c46 763e
00000170: fe3e f43d afe2 5bbc 40f9 b23d 689c f23d
00000180: d678 71bd b003 473e f805 43be 35cd 513d
00000190: 0c55 f6bc cb41 5abd 4478 9b3d 9644 8f3c
000001a0: 2221 2dbe 9c9f bebc 6291 bbbd 7c4d 41bd
000001b0: 249b c33d 1715 113e bbe7 7dbd 605d 20be
000001c0: 0183 fcbd 139c aebd 9e05 e4bd 83f0 35bd
000001d0: a99c 29bb 1425 a63e 5520 a2bd 0750 a43d
000001e0: 9f2f d4bd e282 8fbd b2df 233e e8df fcbd
000001f0: 28c2 26be 638b dc3a 78af 66be c94e acbd

lstm.bias_hh_l0 f4 [128]
-0.16017613 -0.011255092 0.11681682 0.108448885 0.09012389 -0.10193641 -0.03626601 -0.1823891
0.022571376 -0.11623875 -0.17404523 -0.003991896 -0.03383687 -0.13586761 -0.22244507 0.0887377
0.04206989 -0.17230533 -0.04083418 0.08530236 0.0025466068 0.19082828 0.14839248 0.0022099009
-0.15248303 -0.0040989844 0.04627008 -0.13099034 0.009587517 -0.093556896 -0.0026707645 0.0012948145
0.030593244 0.15143529 -0.022858664 0.13624457 -0.12036648 0.05003741 0.12693988 0.13984844
-0.08971971 -0.1150535 0.08042937 -0.088298075 0.18122046 -0.15471135 -0.21412179 -0.19606349
0.046303704 -0.114125535 -0.109817944 0.0160702 -0.08374371 0.009167787 0.07188251 0.017797444
-0.014940974 0.12714852 0.066655785 -0.2185254 0.111594565 0.04481784 -0.01818645 -0.08864397
0.03972487 0.110376395 -0.047612425 -0.020881312 0.09647667 0.0075762575 -0.05628761 0.03702734
0.020374784 0.15263323 -0.123213924 -0.13098946 0.11909898 0.12636544 -0.18534844 0.01232679
-0.045464456 0.030985074 0.12210551 -0.023825623 -0.026594099 -0.066373624 0.19218545 -0.041652378
-0.11560602 -0.017505178 0.08217087 -0.080190465 -0.12276236 -0.038120728 -0.076816455 -0.026548915
-0.21508667 -0.029868765 -0.16016173 0.14784111 0.14276668 -0.15806705 0.18255168 0.14009015
-0.05331576 -0.025866263 -0.08465549 -0.14453787 -0.13794948 0.00048243723 -0.2216204 0.041403115
0.02357376 0.026647657 -0.11657095 -0.059313044 0.10970745 0.27995786 -0.044784453 -0.10290029
-0.10226754 0.018198123 0.04003614 -0.28308675 0.07505096 -0.21886767 -0.03146335 -0.18174413
00000000: 3605 24be 4767 38bc a83d ef3d 731a de3d
00000010: e092 b83d 09c4 d0bd ab8b 14bd 35c4 3abe
00000020: 9be7 b83c 950e eebd ea38 32be 73ce 82bb
00000030: 8898 0abd e120 0bbe a4c8 63be 1cbc b53d
00000040: 7a51 2c3d cf70 30be be41 27bd 01b3 ae3d
00000050: f9e4 263b 7d68 433e 33f4 173e fcd3 103b
00000060: 8324 1cbe c650 86bb b285 3d3d 5522 06be
00000070: f614 1d3c c29a bfbd fe07 2fbb c4b6 a93a
00000080: af9e fa3c da11 1b3e 1842 bbbc b283 0b3e
00000090: b382 f6bd 07f4 4c3d 87fc 013e 6e34 0f3e
000000a0: f8be b7bd 2ba1 ebbd 27b8 a43d 9fd5 b4bd
000000b0: db91 393e a76c 1ebe be42 5bbe dec4 48be
000000c0: f4a8 3d3d a6ba e9bd 3be8 e0bd a7a5 833c
000000d0: d281 abbd 7c34 163c 2337 933d f2cb 913c
000000e0: fdca 74bc 3933 023e d482 883d 1fc5 5fbe
000000f0: b18b e43d e992 373d c0fb 94bc f88a b5bd
00000100: 8cb6 223d 050d e23d 3f05 43bd 490f abbc
00000110: 8f95 c53d 4142 f83b d68d 66bd fba9 173d
00000120: 05e9 a63c e34b 1c3e 9557 fcbd 1a22 06be
00000130: 2bea f33d f165 013e fbcb 3dbe 4ef6 493c
00000140: f038 3abd 69d4 fd3c 7412 fa3d f42d c3bc
00000150: dedb d9bc e5ee 87bd 43cc 443e af9b 2abd
00000160: d9c2 ecbd 0567 8fbc 3349 a83d e63a a4bd
00000170: d56a fbbd 7b24 1cbd f251 9dbd 1c7d d9bc
00000180: ae3f 5cbe 57af f4bc 7001 24be a963 173e
00000190: 6e31 123e 54dc 21be d4ee 3a3e cb73 0f3e
000001a0: a061 5abd 7ce5 d3bc dc5f adbd bc01 14be
000001b0: a142 0dbe a1ef fc39 75f0 62be 5096 293d
000001c0: c21d c13c 304c da3c c0bc eebd 3cf2 72bd
000001d0: 4dae e03d a356 8f3e e76f 37bd 63bd d2bd
000001e0: a571 d1bd 3b14 953c effc 233d bff0 90be
000001f0: 51b4 993d d91e 60be b7df 00bd 221b 3abe

lstm.weight_ih_l1 f4 [128, 32]
0.074811056 0.206886 -0.09388222 -0.15636532 0.017417964 0.13069585 0.11572857 -0.021491919
0.20872976 0.056933135 0.04001507 0.12622783 0.07140153 0.043276697 0.07776188 0.13551416
-0.03570487 0.16163044 -0.05822798 0.040911634 0.13843484 0.14735551 0.032402188 0.22377118
0.2248964 0.08409663 0.005142645 -0.13850409 -0.14662197 -0.091612175 -0.19617166 -0.025355449
-0.03389089 -0.087988146 -0.05407164 -0.1873449 -0.07440639 0.15906408 -0.1176132 -0.2192476
0.1488392 0.021425838 0.08222504 -0.036161114 0.19950017 -0.18031614 0.048175648 0.052435182
0.0027316099 0.05895105 -0.09629897 -0.00020657205 0.22218952 0.36420575 0.11975355 0.030044885
-0.060823563 0.07368976 -0.1328391 -0.065672755 -0.109201476 0.040555496 -0.103889205 0.14271843
0.06730568 0.012351895 0.21089965 0.17542082 -0.06097829 0.0028085327 -0.041870203 -0.076164015
-0.2593851 -0.30114484 0.01483077 0.024647616 -0.17754629 0.3154728 0.024194635 0.08702648
-0.14085555 0.14381361 0.0099008335 -0.27797338 -0.061622374 -0.20027551 0.007329016 -0.06412845
-0.21170995 0.14555265 0.055166632 0.00074208743 0.22517608 0.04642139 -0.08754739 0.16906188
-0.04650155 -0.19068925 0.24496678 -0.08739733 0.14160512 -0.11116724 -0.06019749 0.059391182
0.06860106 -0.007013834 0.16785379 0.14256358 -0.13467307 0.11751831 -0.07877593 -0.11042342
0.05801211 0.09120117 0.14106633 -0.2390327 -0.067487136 0.06793231 -0.26500866 0.071111955
-0.050879594 0.07950037 -0.036310468 0.050031524 0.07912814 -0.002091617 0.17598052 0.032640878
0.26092204 0.045072295 0.17567453 0.04110696 -0.055442724 0.03803367 -0.06732872 -0.20459493
0.2653238 -0.047731947 0.12942079 0.08202805 -0.05164011 -0.21129154 0.1768616 0.03342636
0.10569564 0.25603628 -0.17033373 -0.10831104 0.009820957 0.25177237 0.015564373 0.17785785
0.14585042 -0.13425991 -0.28720137 -0.021057887 -0.1820667 -0.1402959 0.11022778 0.0003953052
-0.23873366 0.0134014385 0.24097735 0.21729276 0.13065849 -0.16196653 0.09200686 0.25025415
0.08530139 -0.1316344 0.21821387 0.117639594 0.08164082 -0.08173732 -0.028512703 0.08722643
-0.1298038 -0.14668629 0.025274914 -0.16029815 -0.18992022 -0.16645421 -0.19670288 -0.05468628
-0.022446234 -0.033888824 0.1756704 0.035192296 0.05430207 0.11647484 -0.06806604 -0.088161275
0.040907517 -0.13030782 -0.08184103 0.1775912 -0.089172944 -0.20742019 -0.057099354 0.06611443
0.042260338 0.061712105 0.1372001 0.01905529 -0.24906689 0.23591833 0.16086796 0.07152136
-0.03467434 -0.13766101 0.16972116 -0.19091102 -0.22081332 -0.030080706 0.028914468 0.04139195
0.06291837 0.02411218 0.08994772 0.07256546 0.13668942 0.045274768 0.13472703 0.015542309
-0.061952244 -0.10152898 0.12870058 -0.21021599 -0.05221352 0.07007095 -0.13032357 -0.123268746
-0.050067693 0.10222206 -0.085956246 -0.18615894 0.0075568357 -0.10472018 -0.0701095 -0.0007167326
0.03352375 0.09796763 -0.16552599 -0.10737466 0.111409135 0.44846472 -0.1287042 0.26521203
0.0029747218 0.032134473 -0.1640168 0.035607025 0.024912035 -0.12630709 -0.11418157 0.12698658
00000000: 8a36 993d ecd9 533e 5245 c0bd 3b1e 20be
00000010: 1eb0 8e3c 22d5 053e 1a03 ed3d d20f b0bc
00000020: 41bd 553e b832 693d d8e6 233d de41 013e
00000030: f73a 923d e842 313d 9f41 9f3d 39c4 0a3e
00000040: 453f 12bd 7382 253e 7680 6ebd f592 273d
00000050: ddc1 0d3e 5de4 163e 28b8 043d 4624 653e
00000060: 3e4b 663e db3a ac3d a283 a83b 04d4 0dbe
00000070: 1224 16be 2a9f bbbd 39e1 48be 3bb6 cfbc
00000080: 2dd1 0abd 2133 b4bd 397a 5dbd 57d7 3fbe
00000090: 6162 98bd b2e1 223e 30df f0bd 7182 60be
000000a0: 4e69 183e 3d85 af3c 9a65 a83d ad1d 14bd
000000b0: c649 4c3e cba4 38be d453 453d 46c6 563d
000000c0: cf04 333b a876 713d 6538 c5bd 439b 58b9
000000d0: a685 633e 2d79 ba3e 5941 f53d b120 f63c
000000e0: 2122 79bd a8ea 963d f906 08be 707f 86bd
000000f0: 06a5 dfbd 851d 263d ddc3 d4bd c824 123e
00000100: 8fd7 893d 9a5f 4a3c 14f6 573e 84a1 333e
00000110: 5fc4 79bd 5c0f 383b 1780 2bbd e1fb 9bbd
00000120: 20ce 84be a82f 9abe c2fc 723c cce9 c93c
00000130: b2ce 35be a785 a13e d433 c63c f03a b23d
00000140: 703c 10be e043 133e 1b37 223c 8752 8ebe
00000150: be67 7cbd 0615 4dbe 3e28 f03b c755 83bd
00000160: 7eca 58be c10b 153e 68f6 613d a588 423a
00000170: 8f94 663e 5b24 3e3d 0c4c b3bd 8f1e 2d3e
00000180: 6978 3ebd 0b44 43be 92d8 7a3e 5ffd b2bd
00000190: ef00 113e a6ab e3bd a591 76bd 2b44 733d
000001a0: b67e 8c3d 4ed4 e5bb dde1 2b3e 30fc 113e
000001b0: bde7 09be 71ad f03d 4655 a1bd ad25 e2bd
000001c0: 1b9e 6d3d aec7 ba3d b173 103e fdc4 74be
000001d0: b236 8abd 1820 8b3d 37af 87be 25a3 913d
000001e0: 1f67 50bd 17d1 a23d 49ba 14bd dbed 4c3d
000001f0: ef0d a23d 8313 09bb 3d34 343e 71b2 053d
00000200: 9397 853e ba9d 383d 06e4 333e c65f 283d
00000210: e917 63bd 32c9 1b3d a4e3 89bd 5581 51be
00000220: 85d8 873e 9382 43bd e286 043e 53fe a73d
00000230: 9484 53bd cf5c 58be 351b 353e 14ea 083d
00000240: f576 d83d 3017 833e f76b 2ebe 2ed2 ddbd
00000250: 14e8 203c 4fe8 803e b601 7f3c 5e20 363e
00000260: d059 153e 6e7b 09be 0f0c 93be 9781 acbc
00000270: b16f 3abe baa9 0fbe 1abf e13d f740 cf39
00000280: 9976 74be b591 5b3c c4c2 763e fe81 5e3e
00000290: 57cb 053e 8eda 25be 186e bc3d 5021 803e
000002a0: 7fb2 ae3d 2bcb 06be 7573 5f3e 07ed f03d
000002b0: 4d33 a73d e565 a7bd 7993 e9bc c5a3 b23d
000002c0: 4aeb 04be ee34 16be 560d cf3c 3325 24be
000002d0: 727a 42be f972 2abe 7b6c 49be b9fe 5fbd
000002e0: 2ae1 b7bc 02cf 0abd f1e2 333e cc25 103d
000002f0: d96b 5e3d 5c8a ee3d 3566 8bbd e68d b4bd
00000300: a48e 273d 6a6f 05be 459c a7bd 78da 353e
00000310: 4ea0 b6bd f565 54be 03e1 69bd 0167 873d
00000320: 2d19 2d3d d5c5 7c3d 2f7e 0c3e d719 9c3c
00000330: 640b 7fbe 9394 713e 92ba 243e ca79 923d
00000340: ae06 0ebd 02f7 0cbe 62cb 2d3e 2e7e 43be
00000350: e31c 62be d06b f6bc 09de ec3c 9b8a 293d
00000360: 59db 803d e886 c53c 8336 b83d 339d 943d
00000370: 50f8 0b3e 0972 393d e2f5 093e 2ba5 7e3c
00000380: a3c1 7dbd 6dee cfbd 16ca 033e dc42 57be
00000390: d8dd 55bd 5c81 8f3d 8b73 05be 5374 fcbd
000003a0: c813 4dbd cd59 d13d d409 b0bd 73a0 3ebe
000003b0: 559f f73b 8977 d6bd 9295 8fbd 1ce3 3bba
000003c0: 3350 093d 41a3 c83d a57f 29be 3fe7 dbbd
000003d0: 792a e43d 2b9d e53e 09cb 03be dfc9 873e
000003e0: 8df3 423b 709f 033d 05f4 27be acd8 113d
000003f0: 5314 cc3c a556 01be 07d8 e9bd c508 023e

lstm.weight_hh_l1 f4 [128, 32]
0.042811055 -0.12740691 0.015030724 0.012892751 0.027187223 0.21798316 -0.0848814 0.11949912
-0.04887897 0.060198966 0.03552521 0.04143437 0.14223766 0.10786196 -0.024293406 -0.18323573
0.13131398 0.14175822 0.13328165 0.046311513 -0.0646513 0.120179884 -0.16165286 0.03742182
-0.19014747 -0.13038342 -0.01898552 0.094322905 -0.1507402 -0.086149864 0.12132662 0.07045264
0.0149831595 -0.06694957 0.040025424 -0.060310677 0.07757196 0.0544457 -0.062496938 0.065795764
-0.12899826 -0.050720893 0.14812338 0.069434874 0.03403851 -0.10113462 0.13905512 0.07476456
0.0036680351 -0.1298028 -0.13349229 0.049855195 -0.083135776 -0.11401356 -0.14058651 -0.09488376
0.1111637 0.03664573 -0.041815635 0.09006491 0.13103008 -0.030466495 -0.040187124 -0.15778536
0.03890184 -0.24358408 -0.06790656 0.15217371 -0.0847986 -0.18838482 0.034981273 0.21223985
0.22430995 -0.09235553 0.13096282 -0.05572733 -0.14695832 -0.18853681 -0.12466306 -0.06724288
0.15838832 -0.07451754 0.10003389 0.059439193 0.15671131 0.06569378 0.15222831 0.05709397
-0.012900688 -0.014273967 0.013853914 -0.18871152 -0.23294774 -0.07639903 0.08346516 0.20993985
0.24631171 0.10763362 -0.006816063 0.14494196 0.12884347 -0.0855889 -0.17502293 0.19014588
0.25288498 0.10393934 0.20691092 0.16626678 0.13286625 -0.07268438 0.07538838 0.19173652
0.033699155 0.26098323 0.049904864 0.014457963 0.02656837 -0.21861961 -0.006455515 0.09840497
-0.0035082202 -0.10938458 0.07207985 -0.1484027 0.06830028 0.039234206 0.20850994 -0.025206339
-0.05235335 -0.07906284 -0.25817165 -0.27028954 -0.017591953 0.18617061 -0.051318824 -0.08627626
0.09566195 -0.058197707 0.12660867 0.11798187 0.07189116 0.048701584 0.09421376 0.04761501
0.0752131 0.019862305 -0.036689587 0.1316006 0.01326576 -0.09028805 -0.074406415 0.0025816986
-0.0029876803 0.009423764 -0.0023953852 -0.05979378 0.05874354 0.18822894 0.041687075 -0.19069532
-0.010600751 0.08294855 0.039595842 0.031359013 0.024819922 -0.13218178 0.08947264 0.18824986
0.02845562 -0.048659477 0.023936462 -0.08586598 0.087129 0.08510472 0.024882251 0.022850294
0.15068866 -0.008857816 0.22027546 0.09620393 -0.012591794 -0.073893666 -0.04253713 -0.08215686
-0.027154842 0.16097786 0.048717216 0.15980427 -0.22172976 -0.15446801 -0.06296433 0.15186222
0.18992017 -0.10708208 0.118464194 -0.009248147 0.2291345 0.057128843 -0.027725797 -0.07899342
0.15464191 -0.0611651 0.08025077 0.134437 -0.087284945 0.044046797 -0.046067975 -0.049683183
0.10346644 -0.0887045 0.06994953 0.16840334 0.11592198 -0.098002516 0.22906563 -0.0055284076
-0.12919961 0.05665749 0.061705645 0.04447953 -0.07228197 -0.010053997 -0.01593537 -0.061519258
0.04126326 0.06256196 -0.15975179 -0.22220774 -0.08598131 -0.030759484 0.019827683 0.048066236
-0.046038557 -0.052012373 0.09396757 0.17438143 0.13222124 0.1504306 0.006246572 -0.11753936
-0.12295556 0.026549254 0.13886403 0.23412062 0.22483613 -0.13014065 0.03070684 0.1513119
-0.13960908 0.08005484 -0.06649613 -0.09304577 -0.0140562635 -0.0578883 0.15777546 -0.13910756
00000000: a55a 2f3d f576 02be 6d43 763c 1e3c 533c
00000010: bdb7 de3c fa36 5f3e 4dd6 adbd f4bb f43d
00000020: 5135 48bd 3193 763d e282 113d 16b7 293d
00000030: c0a6 113e bbe6 dc3d f702 c7bc 26a2 3bbe
00000040: 2c77 063e 1129 113e fc7a 083e 24b1 3d3d
00000050: e767 84bd df20 f63d 5488 25be 9f47 193d
00000060: 05b6 42be 3b83 05be 8587 9bbc 5e2c c13d
00000070: a45b 1abe 576f b0bd 177a f83d 7949 903d
00000080: ed7b 753c db1c 89bd b3f1 233d 5408 77bd
00000090: 0cde 9e3d 7402 5f3d cafc 7fbd eebf 863d
000000a0: 1f18 04be b6c0 4fbd a8ad 173e df33 8e3d
000000b0: f76b 0b3d ab1f cfbd 7764 0e3e 291e 993d
000000c0: 6b63 703b 06eb 04be 34b2 08be f634 4c3d
000000d0: 1743 aabd f17f e9bd e9f5 0fbe 6b52 c2bd
000000e0: cba9 e33d d519 163d df46 2bbd f473 b83d
000000f0: c02c 063e df94 f9bc 419b 24bd 7c92 21be
00000100: 8957 1f3d 1b6e 79be 9812 8bbd 6dd3 1b3e
00000110: e3aa adbd f3e7 40be 8648 0f3d 6755 593e
00000120: 82b1 653e e524 bdbd 1e1b 063e 5742 64bd
00000130: 3e7c 16be cb0f 41be 594f ffbd a3b6 89bd
00000140: 8c30 223e a79c 98bd 91de cc3d 8376 733d
00000150: ee78 203e 768a 863d bde1 1b3e 5edb 693d
00000160: 685d 53bc 5bdd 69bc 87fb 623c 983d 41be
00000170: da89 6ebe 1877 9cbd c8ef aa3d 79fa 563e
00000180: 2339 7c3e 046f dc3d 4859 dfbb aa6b 143e
00000190: 8bef 033e 3c49 afbd 3639 33be 9ab5 423e
000001a0: 247a 813e 26de d43d 75e0 533e d741 2a3e
000001b0: 170e 083e 8cdb 94bd 3965 9a3d 9456 443e
000001c0: 2008 0a3d 989f 853e 0b69 4c3d 18e1 6c3c
000001d0: e9a5 d93c d2dd 5fbe c988 d3bb 8b88 c93d
000001e0: 2bea 65bb 0605 e0bd 9a9e 933d e1f6 17be
000001f0: 04e1 8b3d 0cb4 203d a183 553e 867d cebc
00000200: 7770 56bd b3eb a1bd 132f 84be 6463 8abe
00000210: 001d 90bc 82a3 3e3e b033 52bd 9cb1 b0bd
00000220: 6aea c33d b860 6ebd b4a5 013e 7ba0 f13d
00000230: ac3b 933d 507b 473d 25f3 c03d f507 433d
00000240: 5309 9a3d 46b6 a23c d247 16bd 4fc2 063e
00000250: a158 593c f1e8 b8bd 6462 98bd b731 293b
00000260: f5cc 43bb 2266 1a3c e5fb 1cbb 53ea 74bd
00000270: 119d 703d 16bf 403e 11c0 2a3d a245 43be
00000280: c6ae 2dbc eee0 a93d 402f 223d 4f72 003d
00000290: 2653 cb3c a95a 07be 6e3d b73d 92c4 403e
000002a0: c31b e93c 294f 47bd 6616 c43c 81da afbd
000002b0: b070 b23d 624b ae3d ddd5 cb3c 8a30 bb3c
000002c0: 214e 1a3e 6020 11bc e48f 613e 9106 c53d
000002d0: d04d 4ebc 9055 97bd 6a3b 2ebd db41 a8bd
000002e0: d573 debc 61d7 243e b48b 473d bba3 233e
000002f0: 200d 63be dd2c 1ebe 71f3 80bd c581 1b3e
00000300: 6f7a 423e d94d dbbd 5b9d f23d 8a85 17bc
00000310: 3ca2 6a3e efff 693d 3621 e3bc 4dc7 a1bd
00000320: 735a 1e3e 4288 7abd 845a a43d daa9 093e
00000330: 73c2 b2bd 6a6a 343d c6b1 3cbd 9880 4bbd
00000340: 37e6 d33d b4aa b5bd b341 8f3d ed71 2c3e
00000350: 8168 ed3d 8bb5 c8bd 2e90 6a3e a527 b5bb
00000360: e74c 04be af11 683d 0fbf 7c3d 2b30 363d
00000370: 9208 94bd 85b9 24bc e58a 82bc 9efb 7bbd
00000380: aa03 293d 7c20 803d f995 23be 6d8a 63be
00000390: f816 b0bd 50fb fbbc aa6d a23c 1ae1 443d
000003a0: ed92 3cbd ed0a 55bd 1272 c03d 0c91 323e
000003b0: 0165 073e 7b0a 1a3e 0bb0 cc3b 7ab8 f0bd
000003c0: 20d0 fbbd d27d d93c 5f32 0e3e 51bd 6f3e
000003d0: 713b 663e 9743 05be e98c fb3c 82f1 1a3e
000003e0: aff5 0ebe cbf3 a33d 1f2f 88bd c88e bebd
000003f0: 3e4c 66bc 481c 6dbd e48f 213e 3672 0ebe

lstm.bias_ih_l1 f4 [128]
-0.08842183 0.013579754 -0.21147902 -0.2521738 0.18882497 -0.08803118 -0.08620026 0.024010647
-0.020414481 -0.12980828 0.1977514 -0.05663083 0.052057866 0.057760708 -0.08489112 -0.10312021
-0.15706535 -0.23719896 -0.097454295 -0.14962636 0.044313014 -0.027435003 -0.10180515 0.08260694
-0.107408896 -0.09475688 -0.1433842 -0.14164984 -0.06864021 0.090737194 0.061048985 -0.13851559
-0.014550328 0.15795624 -0.010486536 0.08050597 -0.052585255 0.013589225 -0.06245072 0.08580371
-0.16871612 -0.17851754 -0.07067734 -0.00359834 -0.14703967 0.058685467 0.0047493945 0.13547547
-0.05662407 0.026596291 0.015957458 -0.1505938 -0.00881025 -0.12928517 0.035321847 0.07554487
-0.04768233 -0.09327769 -0.076154806 -0.1312837 0.0429846 0.1740926 0.08179662 -0.023110332
-0.10875702 -0.031697553 -0.038017686 0.120207615 -0.022393791 -0.06468027 -0.053060967 -0.23977953
-0.030475779 -0.09112279 -0.24536212 0.09477444 0.046788495 -0.07688756 0.108484946 -0.15723675
-0.09174927 -0.054487832 -0.15019624 0.041441355 0.09710434 0.19054377 0.096652344 -0.1946269
-0.010681228 0.024077564 0.07205153 0.019651232 0.119839996 0.12801036 -0.18024032 0.057869695
-0.116937555 0.1767576 -0.008513477 -0.075154275 0.050311346 0.016496062 0.050972637 0.15502076
0.067954965 -0.21328965 0.105855696 -0.06484135 -0.22555201 0.061469745 -0.14812507 -0.02086993
-0.053134706 -0.009837791 -0.12714428 -0.24484748 0.11594336 -0.15123238 -0.047355156 -0.06848385
-0.13942267 -0.10128498 -0.24710214 -0.042608336 0.032549355 0.16192913 0.06800002 -0.22673208
00000000: 8116 b5bd 9e7d 5e3c f58d 58be ed1c 81be
00000010: 555b 413e b149 b4bd c389 b0bd fab1 c43c
00000020: 453c a7bc 76ec 04be 587f 4a3e bbf5 67bd
00000030: a13a 553d 7e96 6c3d 65db adbd b030 d3bd
00000040: bdd5 20be 49e4 72be 1e96 c7bd a737 19be
00000050: 9081 353d 5fbf e0bc 387f d0bd d42d a93d
00000060: 32f9 dbbd e50f c2bd 4fd3 12be a80c 11be
00000070: 3d93 8cbd 6cd4 b93d 800e 7a3d 08d7 0dbe
00000080: 8064 6ebc 48bf 213e b8cf 2bbc 50e0 a43d
00000090: a363 57bd 57a5 5e3c 54cc 7fbd dbb9 af3d
000000a0: ebc3 2cbe 4dcd 36be 48bf 90bd 21d2 6bbb
000000b0: 9191 16be 2c60 703d cfa0 9b3b 15ba 0a3e
000000c0: a4ee 67bd 77e0 d93c 37b9 823c 4335 1abe
000000d0: de58 10bc 5563 04be a4ad 103d 45b7 9a3d
000000e0: 8c4e 43bd 6008 bfbd 0df7 9bbd 3c6f 06be
000000f0: 9f10 303d 5545 323e fc84 a73d e151 bdbc
00000100: 00bc debd 4bd5 01bd 6fb8 1bbd 692f f63d
00000110: 2f73 b7bc 1777 84bd 7556 59bd c488 75be
00000120: 57a8 f9bc 969e babd 3540 7bbe 1a19 c23d
00000130: 4ba5 3f3d 3a77 9dbd 5b2d de3d ac02 21be
00000140: 0be7 bbbd a22e 5fbd 0bcd 19be 69be 293d
00000150: a4de c63d e81d 433e aaf1 c53d 464c 47be
00000160: 5100 2fbc 503e c53c c18f 933d 9ffb a03c
00000170: ac6e f53d 2615 033e eb90 38be c608 6d3d
00000180: f57c efbd f2ff 343e 1c7c 0bbc 7cea 99bd
00000190: 4513 4e3d c022 873c afc8 503d c3bd 1e3e
000001a0: f92b 8b3d 9a68 5abe dfca d83d 8bcb 84bd
000001b0: 1bf7 66be b3c7 7b3d 19ae 17be 6af7 aabc
000001c0: c7a3 59bd b02e 21bc 1c32 02be 4cb9 7abe
000001d0: b673 ed3d a9dc 1abe 7bf7 41bd 4341 8cbd
000001e0: d1c4 0ebe 806e cfbd 5808 7dbe 1486 2ebd
000001f0: 7952 053d c0d0 253e 9843 8b3d 742c 68be

lstm.bias_hh_l1 f4 [128]
-0.09291338 0.17181256 -0.18809044 -0.02324613 0.028826391 -0.047108322 -0.25699607 0.1189088
-0.093592 -0.19994007 0.22993273 0.035726197 -0.2842052 0.08424861 -0.21648534 0.18751477
-0.02940318 -0.1456009 -0.10928629 -0.23250178 -0.03348858 0.079362296 0.1758273 0.029465014
0.017792584 -0.09948654 -0.27033207 -0.078657 0.05825359 0.013473728 -0.08156543 -0.19019777
0.07939847 0.17849445 -0.08724278 -0.22433802 0.053251505 -0.22162502 -0.06522648 -0.12057655
-0.09870313 -0.2684156 -0.13769247 -0.19834483 -0.17224595 -0.120746106 -0.11542802 0.052016277
-0.08925672 -0.21294862 -0.062918484 -0.030550933 -0.008512585 0.09197754 0.1676823 -0.118785895
0.072780624 0.06438601 -0.108594865 -0.100506574 0.19056298 -0.013443402 0.047668997 -0.13082585
-0.2447679 0.12930568 -0.053802203 -0.047199506 -0.21906374 -0.0031135378 0.051218197 -0.059132006
0.040751345 0.09780082 0.0848784 -0.025990866 -0.17216133 0.04324072 -0.06679939 -0.06873658
-0.006562087 -0.14057878 -0.02190647 0.03631485 -0.24415657 0.041378833 -0.19858505 -0.021247761
0.022248026 -0.039967872 -0.11106962 -0.098834574 0.12673815 0.071613036 -0.023128489 0.064364634
0.095335774 -0.07667625 -0.17200851 -0.03891267 -0.096068256 -0.1635422 0.05362892 0.19218637
-0.09042223 0.0402427 0.1513109 0.019145792 -0.09246973 -0.03844948 -0.08426912 0.0949144
-0.15801768 0.052669544 -0.11494857 -0.2319122 0.039365795 -0.11441701 -0.014228829 -0.02721926
-0.017096173 -0.06419506 -0.14648455 -0.111786194 -0.057707593 0.02352391 0.045097474 -0.14393193
00000000: 5f49 bebd a2ef 2f3e c89a 40be ab6e bebc
00000010: 5325 ec3c a8f4 40bd fd94 83be 7586 f33d
00000020: 2aad bfbd 17bd 4cbe 7c73 6b3e a255 123d
00000030: 5883 91be 898a ac3d 55ae 5dbe df03 403e
00000040: f0de f0bc 6718 15be 7ed1 dfbd f214 6ebe
00000050: 522b 09bd b388 a23d 120c 343e 9d60 f13c
00000060: c1c1 913c 99bf cbbd f768 8abe ec16 a1bd
00000070: 519b 6e3d e9c0 5c3c c70b a7bd 34c3 42be
00000080: aa9b a23d 40c7 363e 58ac b2bd deb8 65be
00000090: 401e 5a3d abf1 62be 7695 85bd d7f0 f6bd
000000a0: de24 cabd c56d 89be 41ff 0cbe e81a 4bbe
000000b0: 3e61 30be bc49 f7bd 8765 ecbd 050f 553d
000000c0: 3acc b6bd 340f 5abe 68db 80bd f345 fabc
000000d0: 5f78 0bbc b85e bc3d e9b4 2b3e 0546 f3bd
000000e0: 020e 953d d0dc 833d fc66 debd 64d6 cdbd
000000f0: f122 433e b741 5cbc 9140 433d 36f7 05be
00000100: 70a4 7abe b568 043e b35f 5cbd 4554 41bd
00000110: 3f52 60be 7f0c 4cbb 2cca 513d 6734 72bd
00000120: e2ea 263d cc4b c83d bad4 ad3d ccea d4bc
00000130: 0f4b 30be 2e1d 313d 1ece 88bd c4c5 8cbd
00000140: c706 d7bb e2f3 0fbe 3375 b3bc e1be 143d
00000150: 2e04 7abe da7c 293d e159 4bbe c90f aebc
00000160: 7e41 b63c 5ab5 23bd 7878 e3bd c869 cabd
00000170: a5c7 013e dba9 923d f577 bdbc 9bd1 833d
00000180: 673f c33d 7008 9dbd 0023 30be e462 1fbd
00000190: 6fbf c4bd 9b77 27be 00aa 5b3d 81cc 443e
000001a0: 4a2f b9bd 88d5 243d 3ff1 1a3e a3d7 9c3c
000001b0: c560 bdbd 347d 1dbd 4a95 acbd 7b62 c23d
000001c0: 63cf 21be 05bc 573d 286a ebbd 647a 6dbe
000001d0: 073e 213d 7753 eabd 0920 69bc edfa debc
000001e0: 460d 8cbc b378 83bd 0c00 16be 29f0 e4bd
000001f0: cc5e 6cbd 37b5 c03c 21b8 383d e462 13be

fc.weight f4 [1, 32]
0.10674219 -0.19189146 -0.061016984 -0.06914871 0.15249291 0.016688617 -0.0032778494 0.16470467
-0.040830694 0.031866264 0.17738515 -0.060615685 0.020518007 0.085705064 -0.054715373 0.19944705
-0.021600299 0.04068327 0.05364291 0.04738106 0.032193314 -0.057524383 0.11642225 0.11601211
-0.022717549 -0.10744658 -0.023792194 0.07097382 -0.10544627 -0.042422757 0.13224307 -0.076364234
00000000: a69b da3d 327f 44be f2ec 79bd d79d 8dbd
00000010: 1a27 1c3e 91b6 883c 30d1 56bb 57a8 283e
00000020: 163e 27bd 3386 023d 74a4 353e 2748 78bd
00000030: 6115 a83c 2386 af3d 3a1d 60bd d93b 4c3e
00000040: 1cf3 b0bc 80a3 263d abb8 5b3d a412 423d
00000050: 23dd 033d b09e 6bbd ca6e ee3d c297 ed3d
00000060: 271a babc f40c dcbd d9e7 c2bc b95a 913d
00000070: 37f4 d7bd 7cc3 2dbd ba6a 073e da64 9cbd
