backend/stocks/price/pt_models/AES.pt (torch, 54423 bytes, 9 tensors)

lstm.weight_ih_l0 f4 [128, 1]
00000000: 2160 c43c 6f4a 7c3d cd18 1fbe 9c10 203b
00000010: 4999 4cbd 161d 55bd 1da8 dcbd b8df c1bc
00000020: 8864 9bbb 6e48 a43d c9eb f83d 8fcf 2b3d
00000030: 2ffe 07be 89e2 40bc 4404 6e3d a791 d2bd
00000040: 3889 b53d c9a5 833e 560a 33be 2d70 ca3d
00000050: 3254 223e 5e12 21be cd84 c83e a743 583e
00000060: 03b5 50be b0d1 093e cf88 a83e 0de3 403e
00000070: c374 6fbe 36f8 6fbe da89 03bd bffc 593e
00000080: e374 27bc f3f2 0b3e 2f22 d1bd 3d30 a73d
00000090: dfa3 c03c c1d1 aebd a722 9bbd 7b93 413e
000000a0: 4718 073c ad83 0bbe f431 873d f349 64bd
000000b0: b9bd d73c c1e0 17bd b002 13be 35db 983e
000000c0: cce4 8b3d a378 133e ec9e ed3d e9db 32be
000000d0: 5e0c 5dbd c7fb 7cbd b28f 9b3e 0456 823e
000000e0: cf68 4fbd 625f b3bd a459 5c3e 6de7 6e3e
000000f0: bb7b 56be 3ddc 06be 0d38 cebd 22d1 e53e
00000100: 9e13 883d 2417 7ebe 51d8 3cbc a873 7bbe
00000110: 9770 efbd d7a9 5f3e 7757 813e 2de4 b23b
00000120: 45b5 ab3d 336c 2ebe b800 27be 1230 1f3e
00000130: e2e7 1d3e 9571 91bb 39e1 0a3e d1b0 a9be
00000140: 8d14 a53c 31ee 453d 0990 883e 1af1 5ebe
00000150: 33e1 8fbe d525 743e e8ac 94be 37ef 7bbe
00000160: 0852 623e bdd2 60be f8d0 093e 118f 953b
00000170: ba84 8f3e 9c1e 93be 0cba 293e 5d7e 8abe
00000180: a8a5 2ebd 8e0b 9b3d ff90 fe3d d753 0ebe
00000190: 8876 53bd 51fd ef3d 1e91 95bb 6216 2d3d
000001a0: 2d64 e1bc f4eb dd3d b5ea ea3d 8f82 e23d
000001b0: 3b93 633d 19f4 bcbd c37b 0a3e 6886 e83d
000001c0: 1541 8f3d f297 093e f02c 993c dee0 a63d
000001d0: b9b1 813d 81df fa3b 38c7 db3e 49a6 a23b
000001e0: 0944 b83c 5fac 9ebd 61d5 753e 6472 083e
000001f0: e669 2e3d 4717 e1bd a187 2fbe 65c2 d73e
0.02397162 0.061594423 -0.15536804 0.0024423962 -0.04995087 -0.05202969 -0.107742526 -0.023666248
-0.004742209 0.08021627 0.121543474 0.04194599 -0.13280557 -0.01177276 0.058109537 -0.10281687
0.08864063 0.25712422 -0.17484412 0.09884677 0.1585243 -0.15729663 0.3916382 0.21119557
-0.2038155 0.13458896 0.32916877 0.18836613 -0.23384385 -0.23434529 -0.032113887 0.21287821
-0.010220739 0.13666897 -0.10211598 0.081634976 0.02351564 -0.08536101 -0.07574969 0.18903916
0.008245534 -0.13624449 0.06601325 -0.055734586 0.026335584 -0.037079576 -0.14356494 0.29854742
0.06830749 0.14401488 0.116025776 -0.17466702 -0.053966872 -0.06176355 0.30383068 0.2545625
-0.050637063 -0.08758427 0.2151857 0.2333047 -0.20945637 -0.13169952 -0.100692846 0.44886118
0.06644367 -0.24813515 -0.011526183 -0.24555838 -0.11691397 0.21842133 0.25262043 0.0054593296
0.08384184 -0.17033462 -0.16308868 0.15545681 0.15420488 -0.004438589 0.13562478 -0.33142713
0.020151401 0.04832286 0.2667239 -0.2177166 -0.281015 0.23842557 -0.29038167 -0.24602972
0.22101605 -0.2195539 0.13458622 0.004564174 0.2803095 -0.2873429 0.16574878 -0.27049533
-0.04263845 0.07570563 0.124299996 -0.1389917 -0.051626712 0.11718238 -0.0045644185 0.042257674
-0.027513588 0.1083602 0.11470548 0.11060058 0.05556033 -0.092262454 0.13523774 0.11353761
0.06994835 0.13436869 0.018698186 0.08148359 0.06332726 0.0076560383 0.4292543 0.0049636704
0.02249338 -0.07747721 0.24007179 0.13324887 0.04258146 -0.10990768 -0.17141582 0.421405

lstm.weight_hh_l0 f4 [128, 32]
00000000: 8a54 fabd 2634 9a3d 1ae2 cebd c17f 19be
00000010: 22f9 18be 44fa aebd 79f7 f63d 7a22 e73d
00000020: 42b2 943c a288 b23d 25dd 443d 6e1f 0abe
00000030: f341 67bc 3c12 4fbe f1e4 24be f827 33be
00000040: 23b4 1dbe 8184 77bd 7ff9 db3d 4961 953d
00000050: f2b4 433e 293a 123d ff79 713e 34d5 253e
00000060: d302 b9bd dcfa 21be 13ff 2e3c 7115 1e3e
00000070: d071 26bd 4cbb 9c3d 33e5 f03d 8177 d6bc
00000080: c591 4c3e c441 48be 20c7 00be 614f ebbd
00000090: 6cbb e3bd 2c24 363e 0518 5c3d 9439 333e
000000a0: b132 113e e992 44be c823 4abe 31d6 ae3c
000000b0: 272f fd3d c162 01be f860 fc3d 2e08 5ebe
000000c0: cc7e 66be 9efc 4b3d 9dec 863d 8779 8d3d
000000d0: 2434 84be db8a 01be 191b 12be ccaf 3dbd
000000e0: ad36 3fbd ab80 dfbb 1cea 79bb a2e0 c63d
000000f0: 851c 513e afaf 0f3e efe2 f6bd db8a 683c
00000100: a262 063d c031 953e 357d 3dbd 63ba 3d3d
00000110: ea87 9abd 5edb a0bd 16e9 6dbc c128 83bd
00000120: 0113 23be d128 823c ea8c fc3d 52fa 82bd
00000130: b0b0 8dbd ec63 f53d 7a84 ccba 0942 773e
00000140: 7303 debd f0fa e43d b033 323d 1511 a7bd
00000150: 5bbb 703d 9c75 82bd c163 18bd bb0a aa3c
00000160: 20df febd 3074 2e3d cb6e b8bd 11e2 1a3d
00000170: 093d 09bc 6ece d93d 5ad7 053d c51d a9bd
00000180: 44e9 873d b6b9 ba3d e37c 0f3e 4f46 bcbd
00000190: 3446 083d c758 e73d 4dc4 273e 59b9 57bd
000001a0: 9783 85bd 6ec2 d43d be21 553d ee8d e1bc
000001b0: b3ba c5ba 28fe 943d 9228 2fbe 6088 cebd
000001c0: 43de 5abd 683a 14be 53e9 80bc 8e46 023e
000001d0: 2bc6 20bd a9fb 1c3e 3644 b6bd 9077 e03d
000001e0: 6589 fe3d 8628 2b3e c516 0fbe d432 f13d
000001f0: 7171 c13d 3978 3e3e ef25 fe3c d222 19bd
00000200: 8787 6f3d bcb7 70bc 9d93 30be c2c4 0bbe
00000210: d604 a5bd 5c0c 193e b0a4 833e ca14 a9bd
00000220: ebf5 4e3c 8c5e c73d a75d d8bd 8a3f f33d
00000230: 9337 2c3d 45cb 53be aed5 61be 597c 323d
00000240: 99b3 14be b687 363d e8f9 4f3d 17ca d5bd
00000250: 68b6 073e 97cc df3d 4bb1 193e ef45 f73b
00000260: dbef 7b3e f454 d9bd 997e d73d 9c10 c1bc
00000270: 13df 1f3e b6b8 c4bd bcca b23d 1c83 8f3d
00000280: 97d6 afbd 220c a53c d99e d93d aa32 fdbd
00000290: d394 953d 1cae 39be 5cb5 073d 8422 34be
000002a0: e29f abbd 1d80 a93c 876a 38bd 81d3 4fbd
000002b0: e2bd 77be 0e07 e43c b1e3 81bd 66be e53d
000002c0: 68f4 32bc 7a7f 143e 165a fe3d f295 2a3d
000002d0: d323 4abd 1fd9 853d d9a7 763d dfd7 b43d
000002e0: 6925 1b3c 1eb3 903d f950 98bd 2097 823a
000002f0: 9d8c ba3c a306 823d 5559 71bd ee1b a8bb
00000300: 9bf8 9b3c eef8 813d 885f 213d 4483 113e
00000310: d028 a5bb 6ba0 c7bd cdca 11be 6f95 e13c
00000320: 5a96 c93d 664a 0bbc 6c4f 7d3d ca77 cb3d
00000330: def4 f3bd 3da0 d0bc c295 35bd 8920 e43d
00000340: fba6 1abe 23fc 47bd 811b 10be 95ca 243e
00000350: 0604 b1b9 c7b9 c0bd a922 1c3e c03a 95bd
00000360: 2515 f03d a43a a6bd 247f 343d 1336 293d
00000370: f933 d9bd f64c 2d3e cd4c 4cbe b215 f7bd
00000380: c88a 343d 8f34 01be 1e88 d5bd 0dcf bfbd
00000390: 85bc 2ebb 1167 ec3c 12bd 0c3d 1d8a f23b
000003a0: 4b90 3c3d 293b c73d aa59 00be 4e22 463b
000003b0: 3ed9 7ebd b0cf 8f3d 4863 c5bd a8c8 81bd
000003c0: 1a7e 0dbd 8360 12bd 4e93 3c3d f521 53bd
000003d0: 58db 743e eb10 01bd 286b 443e a734 28bc
000003e0: 0f36 44bd 330e d5bd 8128 04be 62cb f43d
000003f0: 43b6 213e 7903 f4bd da59 7cbd b1f0 2739
-0.12223156 0.07529478 -0.10101719 -0.1499014 -0.14938787 -0.08543828 0.120589204 0.11285873
0.018151406 0.08717467 0.048062462 -0.13488552 -0.014114845 -0.202218 -0.16102959 -0.17495716
-0.15400748 -0.0604291 0.10740947 0.07293946 0.19111994 0.035699997 0.23581694 0.16194612
-0.09033742 -0.15818352 0.010680932 0.15437867 -0.040635884 0.076529115 0.11762466 -0.02618003
0.19977482 -0.19556338 -0.1257596 -0.1148975 -0.11119732 0.17787236 0.053733844 0.17502433
0.14179493 -0.19196667 -0.19740212 0.021342369 0.12362509 -0.12635328 0.12323183 -0.21682808
-0.22509307 0.04980146 0.06588099 0.06907945 -0.2582103 -0.12650625 -0.1426815 -0.04631023
-0.046683002 -0.0068207583 -0.0038133925 0.09710814 0.20421036 0.14031862 -0.12055003 0.014193262
0.032808907 0.2913952 -0.046261985 0.04632033 -0.07545455 -0.07854341 -0.014520904 -0.064042576
-0.15925218 0.015888603 0.12331565 -0.06395401 -0.06918466 0.11981949 -0.0015603446 0.24146284
-0.10840502 0.11180675 0.043506324 -0.08157555 0.058772426 -0.063700885 -0.037204508 0.02075707
-0.124449015 0.042591274 -0.09005507 0.03781325 -0.008376368 0.106350765 0.03267608 -0.08257631
0.06636289 0.09117453 0.14012484 -0.09193098 0.033270076 0.1129623 0.16383477 -0.052666996
-0.065192394 0.10388647 0.052034132 -0.027533498 -0.0015085548 0.07275039 -0.1710532 -0.10084605
-0.05343462 -0.14475405 -0.015736258 0.12722227 -0.039251488 0.15330376 -0.08899729 0.10960305
0.1242855 0.16714677 -0.1397353 0.11777273 0.09445465 0.18600549 0.031023948 -0.037386723
0.05847886 -0.014692243 -0.1724381 -0.13649276 -0.08057563 0.14946121 0.25711584 -0.08255918
0.012631874 0.0973483 -0.10564738 0.118773535 0.042045187 -0.2068301 -0.22054169 0.04357562
-0.14521636 0.044563018 0.05077544 -0.10438936 0.13253176 0.10927694 0.15009038 0.0075461785
0.24603216 -0.10611907 0.105221935 -0.02356749 0.1561244 -0.09605543 0.08730075 0.07007429
-0.08585852 0.020147387 0.10626001 -0.12363179 0.073037766 -0.18132824 0.033131942 -0.17591292
-0.083801046 0.020690972 -0.045023467 -0.050738815 -0.24193528 0.027835395 -0.06342257 0.11217956
-0.010922529 0.14501753 0.12419526 0.041646905 -0.04935057 0.06535553 0.060218666 0.08830237
0.0094693685 0.07065414 -0.07437319 0.0009963252 0.022772128 0.06348922 -0.058923084 -0.0051302826
0.019039443 0.06346308 0.039397746 0.1421023 -0.0050402656 -0.09747394 -0.14237519 0.027537076
0.098431304 -0.008501625 0.06184332 0.09934957 -0.11911939 -0.025467033 -0.044332273 0.11139018
-0.1510276 -0.04882444 -0.14072992 0.16092904 -0.00033763068 -0.09410434 0.15247597 -0.07286596
0.11722783 -0.081166536 0.044066563 0.041311335 -0.10605616 0.1692389 -0.19951172 -0.12064685
0.044077665 -0.12617706 -0.10426353 -0.09365664 -0.002666266 0.02885774 0.03436 0.0074017183
0.046036046 0.09728081 -0.12534204 0.003023285 -0.062218897 0.07022035 -0.09638077 -0.063371
-0.034544088 -0.035736572 0.04603892 -0.051546056 0.23911798 -0.031510275 0.19181502 -0.01026646
-0.047903117 -0.10403099 -0.12906076 0.11952855 0.15792184 -0.11914725 -0.061609127 0.00016016026

lstm.bias_ih_l0 f4 [128]
00000000: 83db 9a3b e09a 36be bfb4 31be a306 113e
00000010: 1c56 02be 2a25 be3d 5c60 e93d ac6e 513d
00000020: 5536 4bbd 383d 223d f5f7 a3bd 82fd 46bd
00000030: 4ecb 523d 26d5 943c 1ed2 173e a2dd 843e
00000040: be42 11be 12ca 2bbe 52ef db3d b32c 0bbc
00000050: a256 323e f456 f3bd 8a54 f73c 2d7d f9bc
00000060: 701b 90bd 9c73 a8bd 172e cfbd 3644 86bd
00000070: c829 093e edb8 ee3c 3f26 203e 8638 3dbd
00000080: dbb3 f03c 82ea a73d e7c1 a83d 0baa fabc
00000090: dad8 6ebd 1d31 d63d bc19 35bc 512d 3abd
000000a0: 2fe5 af3d c830 44bd 0aa3 043e 7d42 4c3d
000000b0: bab4 7f3c 7892 fbbd 23e7 593d 4c28 b7bc
000000c0: 3e2e 90be 8bd5 78be a51a e3bd bd56 783d
000000d0: fd19 f03d 3ce4 0ebe 7814 bdbc a245 193e
000000e0: dc11 b5bd cd3e 973d 0f7f b7bd b5ba 363b
000000f0: 4a59 1ebe ad34 6abd 8e0d 1f3e 6974 1b3e
00000100: eec4 04be 67b0 7cbd f172 223e 697f 3b3b
00000110: 2324 59bd 510a 81bd 8a7b f2bd 6c02 faba
00000120: 3b4b a3bd 4938 aebd 3ac2 0d3e 422c ed3c
00000130: 1a1c 5c3d f43b 223e d196 95bc 6e60 20be
00000140: 90b3 593d 937e dd3d af60 d63d 9130 fdbb
00000150: 2a21 0f3d 954f ca3d 00d3 6db9 151d ac3d
00000160: c9aa c4ba 2229 74bd 8e3f d23d be44 84bd
00000170: 7a11 433b 7866 28be a56a a9bd 6d45 24bb
00000180: 0ff8 9e3d bd0b c33d a867 21be b25b a43d
00000190: 426f 27be 004b 06be 8639 83bd 309e 7dbc
000001a0: d53d 273d 8084 c2bd d4b3 813c f7d1 e3bd
000001b0: 8140 d7bd f4bc 0c3e fb1e bdbc 9437 443d
000001c0: 3bdc 33be ec97 28be 333d 3a3d 5991 503e
000001d0: 2455 4e3e 299b 09be f4c1 9d3d 76bc 6abd
000001e0: 2096 093e f88c a7bd 4ad0 2c3d 02ee 7cbe
000001f0: 0102 813d 3352 9f3d 233f d33d 74f0 853d
0.004725875 -0.17832518 -0.17354105 0.14162688 -0.1272816 0.09284432 0.11395332 0.051130936
-0.049612362 0.039609164 -0.080062784 -0.048581608 0.051463418 0.018168043 0.14826247 0.25950342
-0.14185616 -0.16776302 0.10739006 -0.008494544 0.1741586 -0.11881819 0.030191679 -0.030455196
-0.07036483 -0.08225176 -0.10116213 -0.06555979 0.13394845 0.029140914 0.1563959 -0.046196483
0.029382637 0.08199026 0.08240109 -0.03059866 -0.058312275 0.10458586 -0.011053499 -0.045453373
0.08588635 -0.047898084 0.1295282 0.049868096 0.015607053 -0.12283796 0.053198945 -0.022358082
-0.2816028 -0.2430021 -0.110890664 0.060629595 0.11723707 -0.13954252 -0.02308105 0.14967969
-0.08841297 0.07385025 -0.089597814 0.0027882282 -0.15463749 -0.05717914 0.15532514 0.15181126
-0.12965748 -0.061691668 0.15864159 0.0028609878 -0.05301298 -0.06300796 -0.118399695 -0.0019074208
-0.079733334 -0.08506829 0.13843623 0.028951768 0.053737737 0.15843183 -0.018260391 -0.15661785
0.05314976 0.10815158 0.1046766 -0.007726737 0.034943737 0.0987846 -0.00022680685 0.084039845
-0.0015004511 -0.05960954 0.10266028 -0.06458424 0.0029765056 -0.16445339 -0.08272294 -0.0025065795
0.07762157 0.09523723 -0.15762198 0.08025302 -0.16351035 -0.13114548 -0.06407456 -0.015479609
0.040830452 -0.094979286 0.015832819 -0.11124032 -0.1051035 0.13743955 -0.023086062 0.047904566
-0.1756448 -0.16464204 0.04546852 0.20367946 0.20149666 -0.13438095 0.07703009 -0.057308637
0.13436174 -0.081811845 0.042190827 -0.24700168 0.0629921 0.0777935 0.10314777 0.065400034

lstm.bias_hh_l0 f4 [128]
00000000: 5879 04bb dd66 34be ac31 ae3d e949 8d3a
00000010: 606a 713d 883a 163e 22b5 fbbc 38bd 813d
00000020: b242 15be d9b3 12be 117e d13d 390d 46be
00000030: ecf3 d93c b746 1abd 1346 1f3d 76fc 933e
00000040: 8325 9cbe 8a7d 03bd 86f6 af3d 38d7 15be
00000050: 10ff 1c3e 3e75 ecbd dc5f 623d c46b 213e
00000060: 5f47 27be d301 7abd c09a 88bd cd65 1bbe
00000070: 7332 2bbd 94bc 32bd 85eb 4fbd 45a3 b63d
00000080: 3f03 693d 7218 52be f276 b5bd 52cc fabd
00000090: fea7 6abe dc83 2c3e 03af 093d 087b 46bd
000000a0: 12c6 dc3d 3c5e 7cbd 197e 853d 058e 893d
000000b0: 0a5f 1fbc 39c6 61bd 60c2 a83d 6a22 a83d
000000c0: 59c7 96bd b613 313d bac4 133e 9172 0f3d
000000d0: 8bc3 823e fd3a 8f3d b39b adbc fa05 98bd
000000e0: a148 e0bb 82c6 0fbe 9264 ad3d df27 86bd
000000f0: 06cb 363e dfd2 063e 8262 babd 0bb5 b53d
00000100: a666 4f3d 46a7 5e3d 6c16 933d 6061 eb3d
00000110: 9e66 813d 9c9c ed3d bedf 2e3e 5576 a4bc
00000120: 1535 15be 2cc2 11bd 4e80 e6bc ff07 633d
00000130: d231 2cbd 2634 323e d638 083e 9100 0abd
00000140: dacb 223d de04 d53d bb1c 5f3b f2c4 7ebc
00000150: e490 88bd 5684 9abc f10f 73be 504b 20be
00000160: ff85 d3bd 5884 783d 4cad 7bbd 989d b03d
00000170: 2ce5 b7bd c13a d83d 21df 4abd ee0d c6bd
00000180: ec6a b8bb 79a4 9e3d ab82 e83d 92c2 253e
00000190: 23b1 81be 8e83 1f3e 0819 fa3d e143 b7bd
000001a0: bab4 25be 147b 3bbe 61d5 aebd 7a37 933d
000001b0: 8378 98bd ec0c 4c3d 0767 3d3d 6a7b 583e
000001c0: 7e97 38be 51d6 02be 79c5 7a3d b2dc 81bd
000001d0: 505d 6b3e 7ec9 573d e2b7 0a3e bda8 92bc
000001e0: 945f d6bd 7813 b53d c02b ebbd 782b 5bbc
000001f0: ecd8 ed3d 6e77 153e 0273 27be f8dd 34be
-0.0020213928 -0.17617364 0.08505568 0.0010779473 0.058939338 0.14670765 -0.03072602 0.06334919
-0.14576223 -0.14326419 0.102291234 -0.19340982 0.026605569 -0.037665095 0.038885187 0.2890355
-0.3049737 -0.032102145 0.085919425 -0.1463288 0.15331674 -0.115458 0.0552672 0.15763766
-0.1633582 -0.061036896 -0.06670141 -0.15175553 -0.04179616 -0.043636873 -0.05076172 0.0891786
0.05688786 -0.20517138 -0.08860578 -0.12246002 -0.22915646 0.16847175 0.03361417 -0.048457175
0.107799664 -0.061613306 0.06518192 0.06716541 -0.009727249 -0.05512068 0.08240199 0.08209689
-0.07362241 0.04323169 0.14430514 0.03502137 0.25539812 0.06993673 -0.021192407 -0.07423015
-0.0068445955 -0.14040568 0.08466448 -0.065505736 0.17850885 0.13166378 -0.0910082 0.08872422
0.050635003 0.054358743 0.07182011 0.11493182 0.06318401 0.116021365 0.17077538 -0.020075956
-0.1457103 -0.035585567 -0.028137352 0.055427548 -0.0420397 0.17402706 0.13302931 -0.033691946
0.03974519 0.10401319 0.0034044224 -0.015549885 -0.06668261 -0.01886193 -0.2373655 -0.1565373
-0.10328292 0.060673088 -0.061444566 0.086238086 -0.08979258 0.105580814 -0.0495292 -0.096706256
-0.0056279805 0.077462144 0.11353048 0.16187504 -0.25330457 0.15577528 0.122118056 -0.08948494
-0.16182223 -0.1830867 -0.085367925 0.07188316 -0.07444861 0.04981701 0.046240833 0.21140829
-0.1802654 -0.12777068 0.06122348 -0.063409224 0.22984815 0.052682392 0.13546708 -0.017902726
-0.10467449 0.08841604 -0.11482954 -0.013377063 0.1161364 0.1459634 -0.16352466 -0.176628

lstm.weight_ih_l1 f4 [128, 32]
00000000: 0c7c 19be 8891 a23c ede6 5fbc 6ec4 b03c
00000010: 74c3 a1bd b50f f6bd f77e 8b3c 7849 cebd
00000020: af7a b1bd 9877 283c 1175 b1bd cf52 8dbc
00000030: bcb7 a8bc cc26 6c3c e74b 5dbd 96d4 053e
00000040: b252 babb f9e6 97bc d3f4 093e f50a 963d
00000050: 80f3 133e ce88 19bd 350c 693d 000d 6c3d
00000060: 451c e7bd 63e2 dc3d 8fa0 11be e673 853d
00000070: aa6d 093c 22e2 4c3e 0af5 76bd 65be 7e3d
00000080: 7dfb 6d3d 1b28 153e 45ca e7bc 23eb a8bd
00000090: fbe7 63be 9cd3 903d e4e8 62bd 931b aa3c
000000a0: cf8f 303e 4a9d 003e f97f 44be 5ed6 5cbe
000000b0: c339 f13d 2bfe 5fbe d27b 9dbc 5d8a 21be
000000c0: b1ee 1abd c60f 063c 4694 8c3c d88b 29be
000000d0: 7d0c 883d 9050 85bd 0a46 1b3e 51e4 cabd
000000e0: 3af6 553d ca91 45be 2c02 ac3d 70ca 723d
000000f0: ea8a c13d 33de 13be 343c 8cbc ad83 c53c
00000100: 20f1 ee3d 9004 813e bde6 163c 6241 cd3c
00000110: 2126 e1bb 4b47 cdbc 2839 893c 7e77 ae3d
00000120: a837 12be bdb1 183e cc03 ec3d 06dd ebbd
00000130: 0bab 853d a41c 46bd 8a98 34be c4f6 333e
00000140: 0870 15be cb0c d6ba a001 4bbe bcc5 cf3d
00000150: 1fd3 b13e b1d0 89bd 34a9 88bc ec7d 363e
00000160: c09d 7abd 68c6 bebd ff1c c1bd ddb5 16be
00000170: 05e5 1cbc 5048 d53d 7334 b8bc 9a79 23bc
00000180: 8ab1 2e3e 83df 863c c81a a53c dad0 e5bd
00000190: 9df6 9a3d b5b1 633e 3a76 3e3e 48e4 c1bd
000001a0: fdd5 86bb f583 493e dd7d 75be 102d 18be
000001b0: 8aec 963e 33d4 603d f29d aabd f4b8 83bc
000001c0: 7cc5 00be 10df e8bd 0bf5 103e 9441 fdbd
000001d0: 1475 40be 9d67 663e ae52 863d b54d 65be
000001e0: 0151 693e f3b4 00be 4b8f 683d d5e4 b83d
000001f0: 644e 8a3e 7201 cfbd e1b3 123e 035f 6ebe
00000200: 0242 e4bd b36f 8c3e 9bec a93d 3009 8e3d
00000210: 3898 d93d 25b6 d33d 05e2 643d 170e c23d
00000220: 9015 143e dfce a53d 5b50 8e3d 3649 1bbe
00000230: 4314 fbbc ed3f 75be 56ba 4cbd 7253 253e
00000240: a326 c7bd 4f70 c4bc 5c0b 7d3d 88e4 203e
00000250: 62c1 50bd c551 4cbd c19f b53e 5cac b43c
00000260: 9fd1 383d 7919 bf3d 9a4d f2bc 29bc ce3d
00000270: 7128 a4bd fd61 ddbd 9d11 f5bd fdc8 5e3e
00000280: 038b 07be bd3e 503e 5ae5 313d f413 e3bd
00000290: 0ffd 123e 5edb 1cbe 77d5 d63d 26c1 c63d
000002a0: c3c4 f13d 2955 463e c090 143c 58bf be3d
000002b0: d9d8 26bd efbe 343e 024c 41bd bba8 2c3e
000002c0: db69 edbd d994 dabd 94e0 803c d1ba 77bd
000002d0: 286f db3d 58e8 18be b14f 503e 5539 513e
000002e0: c537 14be a2fd 4f3e 5cf8 213d f946 1dbe
000002f0: cffb d73d be49 a8bd c2b1 d6bd cd7f debd
00000300: 653b 1f3e 86b5 5e3e 6c16 aebc 77bd 203e
00000310: 57b1 0f3d 0668 b43d 5d65 34be 9716 263e
00000320: 3319 ca3d a491 6abd 5322 7f3d 9507 18be
00000330: 58b7 52be 254c 7cbc 5fdb af3c 9cb7 373e
00000340: 700b 3d3c 7825 653d 4a18 1ebc 8f5c 1c3d
00000350: cae1 2a3e dee4 29be 232e 4d3e 5469 e83d
00000360: 9faa dbbd ec68 da3d 30b2 ca3c a1da 093d
00000370: 673e f0bd b5f8 50ba 5933 623c e4e7 423e
00000380: 52db 05bd 3101 873e 800e b0bd b128 403d
00000390: f554 1f3e 73ff 7fbd 6e38 54be 1544 c2bd
000003a0: c03d 07be 028f e33d 7b10 18be 8a29 1cbe
000003b0: be71 5ebe 1cce 943d df92 74bd ae85 8b3d
000003c0: 3de2 b9bd 53a2 e3bc cb6b 9c3d 7931 bfbd
000003d0: 4d00 9d3e 1b16 433c 742a 2f3e 151f ac3d
000003e0: 37f9 aabd 61e7 e6bc 5ead 7a3d 4c83 a83d
000003f0: 674d f8bd 3936 9b3d b724 85bd 1fda 393d
-0.14988726 0.019844785 -0.013665897 0.02157804 -0.07898608 -0.12014715 0.017028315 -0.10072607
-0.08665978 0.01028242 -0.08664907 -0.0172514 -0.020595424 0.014413547 -0.054027464 0.13069376
-0.0056861276 -0.018542754 0.134723 0.07326309 0.14448357 -0.037483983 0.056896407 0.057629585
-0.11284689 0.10785367 -0.14221404 0.065162465 0.008387962 0.20008138 -0.06029228 0.062193293
0.058101166 0.1456608 -0.028294692 -0.08247974 -0.22256462 0.07071611 -0.055397883 0.020765102
0.17242359 0.12560001 -0.19189443 -0.2156615 0.11778595 -0.21874301 -0.019224081 -0.15775438
-0.03782529 0.008182472 0.017160546 -0.16557252 0.06643007 -0.06509507 0.15163437 -0.09906829
0.052236773 -0.19293895 0.08398852 0.05927509 0.09450324 -0.14440231 -0.01711855 0.02411064
0.11667085 0.25198793 0.009210286 0.025055591 -0.0068710004 -0.02505841 0.016750887 0.08518885
-0.14279044 0.14911552 0.11524162 -0.11516766 0.065267645 -0.048367158 -0.17636314 0.17574602
-0.14593518 -0.0016330717 -0.19824839 0.10145137 0.34731385 -0.06729258 -0.016682245 0.17821473
-0.0611856 -0.09315187 -0.09429359 -0.14717813 -0.009576087 0.10414183 -0.022485947 -0.009977723
0.17059913 0.016464 0.020154372 -0.11221476 0.07566569 0.22235759 0.18599787 -0.09467369
-0.004114865 0.19679244 -0.23973794 -0.1486094 0.2947734 0.05488987 -0.08330907 -0.016079403
-0.12575334 -0.11370671 0.14155976 -0.12366024 -0.18794662 0.22500463 0.06558739 -0.22392924
0.22784807 -0.12569027 0.05677728 0.09028021 0.27012932 -0.101076975 0.14326431 -0.23278432
-0.111454025 0.2742897 0.08297082 0.06935346 0.106247365 0.10337476 0.05587961 0.09475344
0.1446135 0.08096098 0.0694892 -0.15164647 -0.03064931 -0.23950167 -0.04998239 0.16145113
-0.09724166 -0.023979334 0.06177841 0.15712178 -0.050965674 -0.04988267 0.35473445 0.022054844
0.045121785 0.093310304 -0.029578019 0.100944825 -0.08015526 -0.108097054 -0.1196625 0.21756358
-0.13236623 0.20336433 0.043431617 -0.1108779 0.14354347 -0.15318057 0.10489934 0.09704809
0.118051074 0.19368424 0.009067714 0.0931384 -0.040734146 0.1765096 -0.047191627 0.1686124
-0.11592456 -0.10672922 0.015732087 -0.060480896 0.10714561 -0.14932382 0.203429 0.20432027
-0.144744 0.20311597 0.039543495 -0.15359105 0.105460756 -0.0821719 -0.10483123 -0.1086422
0.15550001 0.21748933 -0.021250926 0.15697275 0.035081234 0.088089034 -0.17616792 0.16219555
0.098680876 -0.0572678 0.062288594 -0.14846642 -0.20577753 -0.015399014 0.021466909 0.17941135
0.011538371 0.055943936 -0.009649346 0.03817421 0.16687694 -0.16591212 0.20037131 0.11348215
-0.10725903 0.106645435 0.02474317 0.033655766 -0.11730652 -0.00079716305 0.013806188 0.19033772
-0.032679863 0.26368096 -0.08596516 0.046913806 0.15559752 -0.062499475 -0.20724651 -0.09485642
-0.1320715 0.11111261 -0.14850037 -0.15250221 -0.21723077 0.07265875 -0.05971038 0.06812607
-0.09076355 -0.027787363 0.076377474 -0.09335608 0.30664292 0.011907126 0.17106038 0.08404366
-0.08348315 -0.028186502 0.061200492 0.08228168 -0.12124138 0.075787015 -0.065011434 0.045374032

lstm.weight_hh_l1 f4 [128, 32]
00000000: e4f7 24be b2ec 8a3c 89f5 4e3d 3854 693e
00000010: c5a7 333e f9b4 cd3d d8c5 12bd 7bc4 29bc
00000020: 430c debd 0879 a63d d80e ffbd 7358 b4bd
00000030: a9c6 b4bd c168 89bd a0da 0bbe 5868 73bd
00000040: 217b 1fbe efc6 253e 14ad 2fbe d306 9abd
00000050: 01d8 f83d b2a0 2c3e 830d 26bd 5e4b 2dbd
00000060: 5d8c 99bd 55da c4bd 6b30 e1bd 15e2 5e3e
00000070: f8c8 f83c ff3f c33d a2ee ea3d 7d63 1b3e
00000080: 9589 66be e6c2 2e3e 5625 f0bd 915f 573c
00000090: eb67 13bd 573b 0abd 0edd 483e 96da 843e
000000a0: 3127 063e 5317 16be 14ec b8bd fae4 0ebe
000000b0: b21a 7aba 5143 683c c5f2 513e c970 0c3e
000000c0: a881 983e b5fe 08be 5462 d83b f4c3 463d
000000d0: 2d04 b6bc 60d4 16be 3696 a6be aa00 52bd
000000e0: 066b 88bd 2b22 75be 04b7 873d beb3 3cbe
000000f0: d586 7ebe 501c f5bd 045d 36bd d780 7d3d
00000100: b9a1 abbc 7477 a83b 0aef eabd 56f3 2a3e
00000110: 8977 443c 8b9c 2ebe de8e 30bd ec4c c63b
00000120: 59c7 abbd 6205 92bd cc2c ad3d 363f 18be
00000130: c32e e73d e04e 273e 7da8 fc3d f91d 013e
00000140: 570d 7f3d 55a6 0e3d b839 843c 7598 223e
00000150: 1bad 223e f6f8 063d da61 ee3d bfdf d6ba
00000160: 97c9 90ba 43ea 6e3e 2237 dabd 9c7a 173d
00000170: 24b0 bc3a 3269 8bbd 87ba 06bd ed4a cebd
00000180: cde2 27bc f5d0 26be fc07 afbd a5a6 07be
00000190: 8413 4b3e bba0 95be e2b2 6a3e 1bf0 b03c
000001a0: 4031 1ebd 13cc 9abd b1e5 d53d ec66 44be
000001b0: 7704 7ebe 9e8b 20be 11d2 ca3d 1a6b dabd
000001c0: c235 803e 7503 11be f6d0 5e3c 27f8 99be
000001d0: cb5b 32bd df92 c5bc a20d 1f3c c1bc 783d
000001e0: d663 97bd c3c1 dfbd 2e4a 3e3e 8b06 0dbe
000001f0: f3eb b2bd 44dc cfbd d856 0abe b7f7 75bd
00000200: 98e0 d7bd 7cdc 183e 029f 44be 38db 08be
00000210: 3eec 9abd 9e8c 5dbe 05a6 fcbd 48ff 2e3e
00000220: 99a0 ad3d c097 8e3d 9ce3 94bc 86d5 d13d
00000230: 09a0 4a3d 6d07 783d ca78 243e 18aa 923d
00000240: 6e5f e13d 48ce 4cbd 5ece 25bd d844 073e
00000250: 28eb 4a3e 3c6d 993d ffe2 1abe a936 07bc
00000260: d383 733d a61c 2c3d 85bc a03d c2c2 05be
00000270: 540b 303d e198 03be edcb 2ebe 0d5c 29be
00000280: 6ecd 1f3e 2fc0 7ebd ef3b 0d3e 1d8d 343d
00000290: a21a cd3d a2a7 a43c 0aa6 9f3d b665 ae3d
000002a0: 73d4 31be b75d 193d abaa b1bd 9608 e63d
000002b0: 0f33 06be e4ea 933d 85b8 883d da44 b63b
000002c0: e617 74bd 443e e23b 5ec3 d83d 6e23 cfbd
000002d0: 759a e2bd 754d a2bd a58d fc3c 60f5 8c3d
000002e0: f691 043e 18b1 473e 7581 473e f283 4fbd
000002f0: 8a4c 15be 9ac7 9dbd e39f c6bd 673b 8cbd
00000300: 6bf6 043e 483e 863c b2bb be3c 31b4 563e
00000310: 3f84 37bd 96e6 803d 174b 71bd c4c1 a63d
00000320: c201 b03d 0784 38bd 7c6d 873d 6a99 bdbd
00000330: ef29 093d 1383 683d 7955 11be 298b 0dbe
00000340: 8651 fe3a 4bb0 a4bd 1894 f2bd eb8c 35be
00000350: ab69 16be 00f4 26bd 5fff 013e 9fd6 c43c
00000360: d40f c03d b7e1 4e3d 840d 293e 1cf5 20bb
00000370: a69c 1c3e 25e9 3ebd e956 593d c8a1 473e
00000380: 83c3 19be 538d ccbd 451f 263e 2dcf a2bd
00000390: 110e 9b3d 0d8b eebd 0098 fa3d 770c bebd
000003a0: 96bf 00bc 7f9d d8bd 844a 663d a385 b63d
000003b0: e14a e0bd 9b33 43bd 8752 0abe f610 ef3d
000003c0: a38a b1bd 6163 c73d e70a c63d ca62 2b3d
000003d0: aa72 33bb dcb9 f13d 33e1 cdbd e3ae 97bd
000003e0: 3b38 da3d 370d 973d 0cce a1bd e182 bbbd
000003f0: 535d 273e 3887 a6bd b1d2 eebd 93f2 d3bc
-0.16110188 0.016958568 0.05052713 0.22786033 0.17544468 0.100442834 -0.03583321 -0.010361786
-0.108421825 0.08128554 -0.12454003 -0.08805933 -0.08826954 -0.06709433 -0.13657618 -0.05942568
-0.15574314 0.16189168 -0.17155868 -0.07520833 0.121505745 0.16858175 -0.04054023 -0.042308204
-0.07497475 -0.09611956 -0.10995563 0.21765931 0.030369267 0.09533691 0.11471297 0.1517467
-0.22513421 0.17066535 -0.11725871 0.013145343 -0.035987776 -0.033747997 0.19615576 0.25948018
0.13100888 -0.14657335 -0.09029403 -0.13954535 -0.0009540721 0.014176206 0.20502765 0.13714899
0.2978642 -0.13378413 0.0066035185 0.04852672 -0.022218788 -0.14729452 -0.32536477 -0.051270165
-0.06661038 -0.23938815 0.06626704 -0.18427941 -0.24856122 -0.11968291 -0.0445223 0.06189045
-0.020951139 0.005141193 -0.11471374 0.16694388 0.01199139 -0.17051904 -0.043105 0.0060516503
-0.08387632 -0.07129933 0.0845581 -0.14867863 0.11288216 0.16338682 0.12336824 0.1260909
0.06226858 0.034826595 0.016140804 0.1587847 0.15886347 0.03295227 0.116397575 -0.0016393586
-0.0011046407 0.23331551 -0.10655047 0.036982164 0.0014395756 -0.06807174 -0.03289273 -0.10072885
-0.010246945 -0.16290648 -0.08546445 -0.13247164 0.19831663 -0.2922419 0.22919801 0.021598866
-0.038621187 -0.07558455 0.10444201 -0.19179887 -0.2480639 -0.1567826 0.09903348 -0.10664959
0.25041014 -0.14161475 0.013599625 -0.30072138 -0.04354457 -0.024117885 0.00970784 0.060726885
-0.07392089 -0.10925629 0.18582985 -0.13772027 -0.0873641 -0.10149434 -0.13509691 -0.060050692
-0.10540885 0.14927858 -0.19201282 -0.13364875 -0.07564591 -0.21635672 -0.12336353 0.1708957
0.08477897 0.06962538 -0.018174939 0.102458045 0.049469028 0.060553957 0.16061702 0.07161349
0.1100453 -0.050001413 -0.04048001 0.13209856 0.19816267 0.07491538 -0.15125655 -0.008252778
0.05945189 0.04201951 0.07848457 -0.13062575 0.042979553 -0.12851287 -0.17069979 -0.16539021
0.15605709 -0.062195 0.13792394 0.04407989 0.100148454 0.020099465 0.07795341 0.085154936
-0.17366199 0.03744289 -0.086751305 0.112321064 -0.13105415 0.07222536 0.06675819 0.005562407
-0.059593104 0.0069043953 0.10584138 -0.101141796 -0.110646166 -0.0792493 0.03082926 0.06882739
0.12946305 0.1950115 0.19482978 -0.050662942 -0.14579979 -0.077040866 -0.09698465 -0.068472676
0.12984626 0.01638712 0.02328286 0.20967175 -0.044803854 0.06293981 -0.058909502 0.081424266
0.08594085 -0.045047786 0.06612679 -0.09257777 0.033487257 0.056765627 -0.14192761 -0.13822617
0.0019402958 -0.08041438 -0.11844653 -0.17729537 -0.14688747 -0.04076004 0.12695073 0.02402812
0.09378019 0.050508227 0.16509062 -0.002456016 0.15294132 -0.046609063 0.0530614 0.19495308
-0.15015988 -0.09987893 0.16222866 -0.07949672 0.07571042 -0.116476156 0.12236023 -0.09279721
-0.007858178 -0.10576915 0.056223407 0.08912208 -0.10951782 -0.047656637 -0.13508044 0.11673157
-0.08669021 0.09735752 0.09670048 0.04184226 -0.0027381578 0.11803028 -0.10052719 -0.07406404
0.10655256 0.073755674 -0.079006284 -0.091558225 0.16344194 -0.0813126 -0.1166128 -0.025872504

lstm.bias_ih_l1 f4 [128]
00000000: d494 573c dac6 5dbe 6d5a 09be 2f6c bc3d
00000010: b72f 6ebe 39c7 f93d efe9 353e 9d73 333e
00000020: 3309 83be bff7 1e3c 3081 813d 452a d53d
00000030: 0f94 c2bd 2e94 a2bd 110e 2fbe 2571 713d
00000040: dcb8 803d d25b febd 56fc ad3d e5a1 143e
00000050: fd15 14be 44f8 b53d 82d7 153e cb34 cfbd
00000060: 0485 bfbc 4012 3b3c 7cca b53c 98fa eabc
00000070: f234 97bb c3d4 813b 849e 4c3d 37d5 84bd
00000080: 57d7 7ebd fe86 a0be 3e29 4abd f965 94bc
00000090: 618b bfbd 372f 093e 85ed 793d 47a1 06bd
000000a0: 0ee1 13bd d7ab 2a3c 8126 63be f188 cf3d
000000b0: a817 083e 344f 2f3c 0f1f 6dbd 4056 243e
000000c0: e7f1 fa3d 29c7 4b3d 45e5 a73d 3f61 f2bd
000000d0: 607e e23d 34fa 253e 4295 093e 13f9 72be
000000e0: 857c 05bd 3e52 913d 1c84 6dbd bd7b 18be
000000f0: 5426 723c d6a7 22be 9091 b3bd 90b9 c0bd
00000100: e28f ea3d 7da0 953d 4d1a 353e 2165 bfbc
00000110: 32b2 a5bd 294d ae3c 28d6 03bc c4a0 2cbe
00000120: f5e5 173d 32fb 803c 2bc5 bfbd 1757 083e
00000130: aff8 2d3e f5f8 52bd d2de 823d 4241 8fbd
00000140: b2ae 8abd 15ab 223e c344 e1bc e8a9 113e
00000150: e4af dc3a 2cfa f43d ea9d 163e 4705 cb3d
00000160: 04fd f6bc afde 0ebd 5c06 e7bd 9907 b83c
00000170: ba1a 063e 54e7 04bd 5972 0b3d 7912 003c
00000180: dfcf 813d c3b5 42be 806d 733d ac57 a9bd
00000190: 37fe e4bd d23d 323e 24c5 0e3d f309 3d3e
000001a0: a642 f83c 5af3 c73d db2d 1fbe 07cd ae3d
000001b0: 6770 103e aad3 1bbd 5868 0fbd d0aa 8bbd
000001c0: de49 3abd 0eeb 713d ab9a 27bd 52f8 30be
000001d0: c0a2 f13c 6915 a1bd 4cb1 4cbd f163 093c
000001e0: edee b7bd 02ca c8bb 5076 3fbe 95d1 6ebe
000001f0: 5ca8 283e 6ef7 0fbe ce4d ad3d 2efc e23d
0.013158042 -0.21657887 -0.13413401 0.09200322 -0.2326039 0.12196202 0.1776502 0.17524572
-0.25592956 0.009702622 0.06323469 0.10408453 -0.09500896 -0.07938419 -0.1709521 0.058945794
0.06285259 -0.12419857 0.08495395 0.14514883 -0.14461513 0.088852435 0.14632991 -0.10117491
-0.023378856 0.011417925 0.022191279 -0.028683946 -0.004614466 0.0039621308 0.04995586 -0.0648598
-0.062217083 -0.3135299 -0.049355738 -0.01811503 -0.09352756 0.13396917 0.061017532 -0.03286865
-0.0361033 0.010416946 -0.22182657 0.101335414 0.13290274 0.010700036 -0.057890948 0.16048527
0.122531705 0.04975048 0.081980266 -0.118349545 0.1105926 0.16208726 0.13435844 -0.23727827
-0.032589454 0.070957646 -0.057987317 -0.14890952 0.014779646 -0.15884337 -0.08767998 -0.09410393
0.11453225 0.07306001 0.17685814 -0.023363652 -0.08090629 0.021277027 -0.008046664 -0.16858202
0.03708454 0.01574478 -0.09363779 0.13314472 0.16989397 -0.051506955 0.06390156 -0.06994869
-0.06771602 0.15885575 -0.027498608 0.1422497 0.0016837087 0.11961779 0.14708677 0.09913116
-0.030149944 -0.034880336 -0.1128051 0.02246456 0.13096133 -0.032447174 0.034044597 0.007816904
0.063384764 -0.19014649 0.0594306 -0.08268675 -0.111813 0.17406395 0.034855977 0.18460827
0.030305218 0.097632125 -0.15544836 0.085351996 0.14105378 -0.038043655 -0.03501162 -0.06819689
-0.0454806 0.059062056 -0.040918987 -0.17282227 0.02949655 -0.07865412 -0.04997377 0.008385644
-0.08981118 -0.006127597 -0.18697476 -0.23322137 0.16470474 -0.1405923 0.08462106 0.11083256

lstm.bias_hh_l1 f4 [128]
00000000: a47e 3b3c 3567 9dbd 557a 3b3e e5d0 2cbe
00000010: 41f5 86be 29b4 6b3d 8b9d fd3d 24ea 0abe
00000020: 96d9 8abe 9221 b8bc d949 bc3d dc10 cabd
00000030: 510a a0bd ac37 dcbd 09b9 16be 8167 96bd
00000040: 8e47 fe3d 41ca 253e a995 95bd 16a1 0ebe
00000050: b8af 8abd bfe3 e9bb afe6 babd ca3f 4bbe
00000060: 695b 0dbd 4865 b83d 0a7e 013c ab3f 77bd
00000070: 89e1 cf3d 6d9f c0bd 3b8e cfbd d096 333e
00000080: 2682 3d3e 5041 57be 7c3f 76bd 706f 75be
00000090: b340 5fbe e528 0e3e 435f 243e 39ce 99bd
000000a0: 6f1a 6cbe fca4 43bd cfde 25be c3dd 9c3d
000000b0: b0e2 4d3c 7ba8 c9bd 9433 37be d370 34bd
000000c0: 9415 adbc 6895 993d 5e8e 323d bfb4 8fbd
000000d0: fa0a 6f3d 225a 36bc b0cf 343e 4ef6 73bc
000000e0: 9dac 4dbe c0fc dd3d 99f9 fcbd a31d 28be
000000f0: 56d9 a9bb c5c9 6cbe 0a23 cf3d d612 30bd
00000100: 9708 84bd 3b10 623a 4f6c 9a3d ff3e a03c
00000110: 8b90 843c 9b71 363e 97d6 e9bd 58d4 8fbd
00000120: c775 02bd d3aa 87bc 3141 7ebd 7a31 423e
00000130: 3154 983b c40b e5bb 4488 96bd 4d6a 033d
00000140: 762d dfbd 79cb 243e 705c a83d 04a0 9abd
00000150: 8b83 ae3d ec5d 2a3e e2f3 0b3e 9d2d a6bd
00000160: b000 77ba af64 883d 509c d4bd d28a 2c3c
00000170: 784f bd3d 7936 ca3c 0de9 253e 9868 48bd
00000180: 17d9 403e 8ef7 92be ecb0 febd 0049 53be
00000190: 1768 e9bd b484 0a3d 5d0b 213e b92f 90bc
000001a0: 0233 3dbe 905d 403e 9c8d ab3d 9b58 a93b
000001b0: b05f 413c e265 cb3d 3678 49be 40a1 da3b
000001c0: 26ee 563d bdf2 95bc 4cab 09bc d588 7ebc
000001d0: b8c4 4abe 671a fe3d a83a 513e c6ae 55be
000001e0: 559b eb3c 9420 cabc 2fb1 e1bd fef0 89bd
000001f0: 88e9 a73c 8cc4 003d 45fe 18be 9988 00be
0.011443768 -0.07685701 0.18308385 -0.16876562 -0.2635899 0.05754486 0.123835646 -0.1356588
-0.2711913 -0.022476945 0.09193773 -0.09866497 -0.07814468 -0.10752806 -0.14719023 -0.073439606
0.12415992 0.16190435 -0.07303936 -0.13928637 -0.06771797 -0.007137745 -0.09126031 -0.19848552
-0.034511004 0.09003693 0.007903585 -0.060363453 0.10150439 -0.09405408 -0.1013455 0.17537999
0.18506679 -0.21021008 -0.060119137 -0.23968291 -0.21802025 0.13882788 0.16051964 -0.07510037
-0.23056959 -0.047764763 -0.16198276 0.07659485 0.012566254 -0.09846588 -0.17890769 -0.04405291
-0.021128453 0.074992 0.043592803 -0.070168965 0.058360077 -0.011129888 0.17657351 -0.014890267
-0.20085378 0.10839224 -0.123522945 -0.16417556 -0.005183379 -0.23123844 0.10114105 -0.042986713
-0.06446951 0.00086236343 0.075401895 0.019561289 0.016182205 0.17816775 -0.11417883 -0.07022923
-0.031850602 -0.016560948 -0.06207389 0.18964186 0.0046487083 -0.006989928 -0.07350209 0.0320838
-0.10897343 0.16093244 0.08220756 -0.07550052 0.085211836 0.16637391 0.13667253 -0.08114169
-0.00094224047 0.06659829 -0.10381377 0.010531144 0.09243673 0.024684178 0.16202183 -0.048927873
0.18832813 -0.28704494 -0.12436089 -0.20633316 -0.11396807 0.03381796 0.15726991 -0.017600881
-0.18476489 0.18785691 0.08376619 0.0051680333 0.011802599 0.09931542 -0.19674763 0.0066720545
0.05247321 -0.018304223 -0.008402657 -0.015535553 -0.19801605 0.124073796 0.20432532 -0.20867452
0.028760592 -0.024673738 -0.11020123 -0.06735419 0.020497099 0.03143744 -0.14940746 -0.12552108

fc.weight f4 [1, 32]
00000000: a1cf 33be cf1c 19bc ef96 11be 4a54 aa3d
00000010: 95e1 863c 1373 1abe 244e 193d 9448 033e
00000020: 4747 f23d ad43 4ebe 3b30 d1bd 691a 20be
00000030: 2fb0 2bbe 50ea 0f3e a1c6 80bd d8fe 3e3e
00000040: 9805 a93d 2680 02be 3561 b0bd e98f 7abd
00000050: 9083 89bd 2f2f 40be 76f8 31be 5443 093d
00000060: eb0f 0cbe 039a 003e 55ff c73a db1f a53d
00000070: e657 64be 5bf4 a8bc 24e8 4ebd 4ced 343e
-0.17559673 -0.009345247 -0.14217733 0.08316858 0.016464988 -0.1508296 0.037428036 0.12820655
0.11830001 -0.20143004 -0.10214277 -0.15635075 -0.16766427 0.14054227 -0.062878855 0.18651903
0.0825302 -0.12744197 -0.08612291 -0.0611724 -0.06714547 -0.18767999 -0.17379937 0.033511475
-0.13677947 0.12558751 0.001525859 0.080627166 -0.22299156 -0.02062433 -0.050514355 0.17668647
