backend/stocks/price/pt_models/AEY.pt (torch, 54423 bytes, 9 tensors)

lstm.weight_ih_l0 f4 [128, 1]
0	0xbdfad028	-0.12246734
1	0x3d8e03e2	0.06934334
2	0xbce8a706	-0.028399955
3	0x3ce6b37d	0.028161759
4	0xbe42fdf7	-0.19042192
5	0x3e039f17	0.12853657
6	0x3dd3c7de	0.10340856
7	0x3d20bea4	0.03924431
8	0xbe06d832	-0.1316841
9	0x3e172dec	0.14763612
10	0xbd7c74c5	-0.061634798
11	0x3e0e56a0	0.13900232
12	0x3c2cab28	0.010538854
13	0x3e32116b	0.17389457
14	0xbdcdadd2	-0.10042919
15	0x3c897bd7	0.016782684
16	0xbbc739fa	-0.0060799094
17	0x3e265a43	0.1624537
18	0x3be1d496	0.0068917973
19	0x3db10869	0.08644182
20	0x3b796398	0.0038053747
21	0x3e2c27bb	0.16812031
22	0x3e1f4be1	0.1555629
23	0x3e28b9ee	0.16477177
24	0x3e27814a	0.16357914
25	0x3ddb6411	0.107124455
26	0xbe14ff55	-0.14550526
27	0x3db5ecb5	0.08883039
28	0x3dfcb525	0.12339238
29	0x3ed87228	0.42274594
30	0xbd4f75a8	-0.050649315
31	0xbd9cfd75	-0.076655306
32	0xbe53d086	-0.20685014
33	0x3d9e8929	0.07741005
34	0xbe3a511a	-0.18195
35	0x3b75f5ed	0.0037530616
36	0xbd041585	-0.032247085
37	0x3df8edd9	0.12154741
38	0x3e003ad2	0.12522438
39	0x3e1eb265	0.1549774
40	0x3df205a3	0.11817481
41	0x3e487ebb	0.19579594
42	0xbc911f67	-0.01771517
43	0x3e167978	0.14694774
44	0xbc50d7a4	-0.012746725
45	0x3d985042	0.07437183
46	0xbd36951e	-0.044575803
47	0xbd182665	-0.03714599
48	0xbda09dd1	-0.07842601
49	0x3ea8695f	0.32892892
50	0xbe0ad360	-0.13557196
51	0xbdfc7f57	-0.12328976
52	0x3ccf7cbc	0.025328033
53	0x3e3f65c9	0.18691172
54	0xbd265958	-0.04061255
55	0x3db4b8d7	0.08824318
56	0x3e088cd6	0.13334975
57	0x3e495952	0.19662979
58	0x3df541f3	0.119754694
59	0x3e29b4bc	0.16572851
60	0x3e36f136	0.17865452
61	0x3e04e098	0.129763
62	0xbdcd4812	-0.10023512
63	0x3be6c48f	0.0070424746
64	0x3e315057	0.17315803
65	0x3e493a75	0.19651206
66	0x3e56daad	0.20981856
67	0xbd14ab3e	-0.03629612
68	0x3e0f4d27	0.13994275
69	0xbc201dc6	-0.009772724
70	0xbdd720fa	-0.10504337
71	0x3d9243ce	0.07141839
72	0x3d8bbcdb	0.06823131
73	0xbe82f950	-0.25580835
74	0xbd6ae2a4	-0.057345048
75	0xbd63560f	-0.055501994
76	0x3d44a9f2	0.048013635
77	0xbe2e1bb0	-0.1700275
78	0xbd8d8bc4	-0.06911424
79	0xbe8f4a5e	-0.27986425
80	0x3e2bec03	0.1678925
81	0xbd1dab9c	-0.038493738
82	0x3e83471d	0.25640193
83	0x3e1b031c	0.15137905
84	0x3e3760ec	0.17908067
85	0xbe1831fe	-0.1486282
86	0xbe847e29	-0.25877503
87	0xbe319e54	-0.17345554
88	0x3c90b57b	0.017664662
89	0x3e1666ed	0.146877
90	0x3e7afdb8	0.24510849
91	0x3d9a6af7	0.07539933
92	0xbe4080cd	-0.18799134
93	0x3e0c2072	0.13684252
94	0xbd7e53b4	-0.062091544
95	0x3e71c76a	0.23611227
96	0xbe067c81	-0.13133432
97	0xbded6ee6	-0.11593418
98	0x3e2dcd30	0.16972804
99	0x3d32ef06	0.04368498
100	0x3d0db195	0.034593184
101	0xbe1eb609	-0.15499128
102	0xbd94ad5b	-0.072596274
103	0x3db6f202	0.08932878
104	0x3e28b555	0.16475423
105	0x3dbffdfb	0.09374615
106	0x3e3a0964	0.18167645
107	0xbe15239a	-0.14564362
108	0x3cda362b	0.026637157
109	0x3e3d217c	0.18469805
110	0x3da77778	0.08177084
111	0xbd3f30c1	-0.046677355
112	0xbca05ed2	-0.019576464
113	0x3dc7f41d	0.09763358
114	0xbd88b187	-0.06674486
115	0xbd8a6630	-0.06757772
116	0xbd106ffc	-0.035263047
117	0x3dd93ad5	0.106069244
118	0x3d270fb8	0.040786475
119	0x3e265295	0.1624244
120	0x3e1c1de2	0.15245774
121	0xbd479311	-0.048724238
122	0xbde81201	-0.11331559
123	0xbe0c9a7c	-0.13730806
124	0x3c64e1f8	0.013969891
125	0x3ec0e0d5	0.37671533
126	0xbdd6e142	-0.10492183
127	0x3d8fba02	0.070179

lstm.weight_hh_l0 f4 [128, 32]
0	0xbe3b411d	-0.18286557
1	0x3dac752d	0.08420787
2	0xbe2286cf	-0.15871738
3	0x3e3883e3	0.18019061
4	0x3d76fc1c	0.060299024
5	0xbdfcd446	-0.123451754
6	0xbb37282a	-0.0027947524
7	0xbde50117	-0.111818485
8	0xbdaa8957	-0.08326977
9	0x3dbd0258	0.09228963
10	0xbd7c0ff7	-0.061538663
11	0xbdcc3ac0	-0.09972143
12	0xbe007dce	-0.1254799
13	0x3ddbdec3	0.10735848
14	0x3e0031dd	0.12519021
15	0xbdfa363b	-0.12217375
16	0xbd419ddc	-0.047269687
17	0xbdb8cb3c	-0.09023139
18	0x3de30b58	0.11086148
19	0xbae208a0	-0.0017245002
20	0x3df0bb58	0.11754483
21	0xbdc57449	-0.0964132
22	0x3cf94120	0.030426562
23	0xbc8705ff	-0.016482351
24	0xbdb1b6ab	-0.08677419
25	0xbc9fe8de	-0.01952022
26	0xbe989c20	-0.29806614
27	0xbdeb9374	-0.11502734
28	0x3e116fb5	0.14202769
29	0x3cbcdc56	0.023054283
30	0x3e3e468d	0.185816
31	0x3dc52e10	0.09627926
32	0x3e04f9d8	0.12985933
33	0x3e30d111	0.17267253
34	0xbbe5b96a	-0.0070106285
35	0xbd785c9d	-0.060635198
36	0x3d156cee	0.036480837
37	0xbe17e019	-0.1483158
38	0x3ccb2790	0.024799138
39	0x3d5b41bf	0.053529497
40	0xbd68a8ce	-0.05680161
41	0x3e0be00c	0.13659686
42	0xbd936be7	-0.07198315
43	0x3d6144c9	0.05499724
44	0x3c1e353b	0.009656246
45	0x3d9e403c	0.077270955
46	0xbc917f47	-0.017760886
47	0x3e2074ec	0.15669602
48	0xbc0d934f	-0.008641078
49	0x3df97668	0.12180787
50	0xbe1f5550	-0.15559888
51	0xbe224093	-0.15844946
52	0x3d26c687	0.040716674
53	0xbdfae01d	-0.122497775
54	0x3e266581	0.16249658
55	0x3dd4dc35	0.10393564
56	0x3e0d7e70	0.13817763
57	0x3db200fc	0.08691594
58	0xbe6e2d76	-0.2325953
59	0xbdd56a56	-0.104206726
60	0xbdc5ef5b	-0.09664794
61	0xbe4ba838	-0.19888389
62	0xbe058647	-0.13039504
63	0xbe0b38be	-0.13595864
64	0x3d96dd60	0.07366443
65	0x3e17be38	0.14818656
66	0x3e11314f	0.14178966
67	0x3e61c3ee	0.22047397
68	0xbe0a894f	-0.13528942
69	0x3e2b6e3a	0.16741267
70	0xbdb25eac	-0.087094635
71	0xbdd63bd0	-0.10460627
72	0xbd5e92fc	-0.054339394
73	0x3cb2ed92	0.021841798
74	0x3e158d34	0.14604646
75	0xbe0818bb	-0.13290684
76	0x3cdb4494	0.026766099
77	0xbd1ab913	-0.037774157
78	0xbd6cd751	-0.05782253
79	0x3c715e66	0.014731979
80	0x3e07993c	0.13242048
81	0x3dbc7c0c	0.092033476
82	0xbe064111	-0.13110758
83	0x3b81a473	0.0039563715
84	0x3e05aa3c	0.1305322
85	0x3df82168	0.12115747
86	0xbd9d6e7e	-0.0768709
87	0xbe054214	-0.13013488
88	0x3dbc05e0	0.09180808
89	0x3d5843d2	0.052799053
90	0xbe0706ba	-0.1318616
91	0xbd5090a7	-0.0509192
92	0x3e295783	0.1653729
93	0x3e365a01	0.17807771
94	0x3da7da21	0.08195902
95	0x3e3b7ef0	0.18310142
96	0xbcfb6528	-0.030687883
97	0x3d35861e	0.044317357
98	0xbd4b49e1	-0.049631003
99	0xbc5e54d6	-0.013570031
100	0x3bcfcd31	0.0063415994
101	0x3e18601f	0.14880417
102	0x3e1677a4	0.14694077
103	0x3d89698c	0.067095846
104	0xbdeb9967	-0.115038686
105	0x3e6de4c1	0.23231794
106	0x3d44cfe1	0.04804981
107	0xbe186d3d	-0.14885421
108	0xbdcab525	-0.09897832
109	0x3e9b84c2	0.30374724
110	0x3d349cb8	0.04409477
111	0x3dd19687	0.10233789
112	0x3d928f6d	0.071562625
113	0x3d167da1	0.036740903
114	0xbd9aa7f1	-0.075515635
115	0x3d77d0d0	0.060501873
116	0xbe3fb401	-0.1872101
117	0xbe047469	-0.12935032
118	0xbdc5353a	-0.09629293
119	0x3d47087d	0.04859208
120	0xbdb061b0	-0.086123824
121	0xbe4f1442	-0.20222571
122	0xbd70975e	-0.058738105
123	0xbe1fc314	-0.1560176
124	0xbd813230	-0.06308401
125	0xbe5e7fc6	-0.21728429
126	0xbdfd4cb3	-0.12368145
127	0xbd575501	-0.0525713
128	0x3d2c5424	0.04207243
129	0xbe31bce7	-0.17357217
130	0xbc71fcec	-0.014769774
131	0xbda1df5d	-0.07903931
132	0x3d2e02b9	0.042483065
133	0xbc777650	-0.0151038915
134	0x3e25d083	0.16192822
135	0x3d31882f	0.043342765
136	0x3de964ff	0.113962166
137	0x3da8b838	0.08238262
138	0xbdbce9e2	-0.09224297
139	0xbd2d906b	-0.042374056
140	0x3dd9ba13	0.10631194
141	0x3cc42a4e	0.023945954
142	0x3e08dd0f	0.13365577
143	0xbc2668c8	-0.010156818
144	0xbb5f17e8	-0.003404135
145	0x3e4f3e12	0.20238522
146	0xbd901082	-0.070343986
147	0x3bb7c2a7	0.005607921
148	0x3e09f438	0.13472068
149	0xbe263e0a	-0.16234604
150	0x3de3e54f	0.111277215
151	0x3c80c068	0.015716746
152	0xbe1cac6a	-0.15300146
153	0x3e111ead	0.14171858
154	0xbdcfcacf	-0.101461045
155	0x3c5015f2	0.012700545
156	0x3d0e6ab1	0.034769718
157	0x3e1db02f	0.1539924
158	0xbe0bb0a7	-0.13641606
159	0x3d138d36	0.03602334
160	0x3d9d42cc	0.07678756
161	0xbe069057	-0.13140999
162	0x3d37241f	0.044712182
163	0x3e1111f3	0.14167003
164	0x3da93587	0.08262163
165	0x3dec4d43	0.11538174
166	0x3d38dc5e	0.045132034
167	0x3dea4787	0.11439424
168	0xbe178e63	-0.1480041
169	0xbc89892f	-0.016789047
170	0xbd96999d	-0.07353518
171	0xbce33d28	-0.027739123
172	0x3dc95e1b	0.09832402
173	0x3ea6e7b0	0.3259864
174	0xbdbceb11	-0.09224523
175	0x3e161dee	0.14659855
176	0xbd323d3b	-0.043515425
177	0x3d838fab	0.06423887
178	0xbd18bc14	-0.03728874
179	0xbdf30c6b	-0.11867603
180	0x3e2331a0	0.15936899
181	0xbdbc6b52	-0.09200157
182	0x3d925b86	0.07146363
183	0x3d9c4bdd	0.07631657
184	0xbdf29e79	-0.118466325
185	0xbd42e3cf	-0.047580536
186	0x3ce678c3	0.028133756
187	0x3e1013c2	0.14070037
188	0xbdc43f95	-0.0958244
189	0x3c78d811	0.015188233
190	0xbd04ce4d	-0.032423306
191	0xbe208188	-0.15674412
192	0xbc469f5f	-0.012122958
193	0x3e2febe4	0.17179829
194	0x3de903be	0.11377667
195	0xbd7f27e1	-0.06229389
196	0xbe117b4d	-0.14207192
197	0x3d0e182f	0.034691032
198	0xbd0fa0e1	-0.035065535
199	0xbddad9d1	-0.106860764
200	0xbcebe19f	-0.028794108
201	0xbd653acc	-0.055964276
202	0x3ca57e77	0.020201905
203	0x3e1c220f	0.15247367
204	0xbdf14aa3	-0.11781814
205	0x3ccbb282	0.024865393
206	0x3e1d9a51	0.15390898
207	0x3d0acee6	0.03388872
208	0x3e07aeff	0.1325035
209	0x3e2f48bc	0.1711759
210	0xbc86ac1e	-0.016439494
211	0x3e3b069d	0.18264242
212	0x3e099604	0.13436133
213	0xbe22118b	-0.15827005
214	0x3d5aca7a	0.053415753
215	0x3dee1bfe	0.11626433
216	0x3dc82b16	0.09773843
217	0xbe145b48	-0.14487946
218	0xbe957d75	-0.2919728
219	0x3d991a3e	0.074757084
220	0x3e24d99a	0.16098633
221	0xbd26d5c1	-0.040731195
222	0xbbed8c60	-0.0072494
223	0x3d8d617f	0.069033615
224	0xbdabcf03	-0.08389094
225	0xbd718162	-0.05896128
226	0x3d3fe3bc	0.046848044
227	0x3e766c40	0.24064732
228	0x3e37571a	0.1790432
229	0x3e02ad4e	0.12761423
230	0xbb19ff98	-0.0023498293
231	0xbbd721b8	-0.006565299
232	0xbd85ad24	-0.065271646
233	0xbde1e350	-0.110296845
234	0xbdb4cf51	-0.08828605
235	0xbdaa2112	-0.08307089
236	0x3c9fd5ad	0.019511068
237	0xbda96ff7	-0.08273309
238	0x3d92dc2e	0.07170902
239	0xbe2cb54b	-0.16866033
240	0x3ccbeaea	0.02489229
241	0x3e34c2b3	0.17652397
242	0xbd9eadad	-0.0774797
243	0x3d1836aa	0.037161507
244	0x3d0cc55c	0.034367904
245	0xbe05d081	-0.13067819
246	0xbe019742	-0.12655357
247	0xbdd3ffba	-0.1035151
248	0xbb67f98e	-0.003539655
249	0xbd70d330	-0.058795154
250	0xbe0b4c38	-0.13603294
251	0x3e15b164	0.1461845
252	0xbdc592cc	-0.0964714
253	0xbc44a676	-0.012002578
254	0x3d8c8462	0.068611875
255	0xbd803928	-0.06260902

lstm.bias_ih_l0 f4 [128]
0	0x3db0244f	0.08600675
1	0x3cce2928	0.02516611
2	0xbd5e2b88	-0.054240733
3	0x3df94b14	0.12172523
4	0x3e403165	0.18768843
5	0xbdf383bb	-0.1189036
6	0x3e03daa5	0.12876375
7	0xbc86996b	-0.016430577
8	0xbe10871c	-0.1411404
9	0x3d1b5bef	0.03792947
10	0xbe6eb341	-0.23310567
11	0x3d868da8	0.065699875
12	0x3d0e611c	0.03476058
13	0x3d91cc76	0.07119076
14	0x3d904cd1	0.070459016
15	0x3e05812a	0.13037553
16	0xbdaaede1	-0.08346153
17	0xbc56e5ca	-0.013116309
18	0x3e0ac468	0.13551486
19	0xbda7dea0	-0.08196759
20	0x3de9e45e	0.11420511
21	0xbdea9cb2	-0.114556685
22	0x3d89e6f4	0.06733504
23	0x3de38544	0.11109403
24	0xbd9048ab	-0.0704511
25	0x3c8d4381	0.017244102
26	0x3e703885	0.2345906
27	0x3e1b07b0	0.15139651
28	0xbe0281df	-0.12744854
29	0xbd629f02	-0.055327423
30	0x3db54629	0.088512726
31	0x3e3b2b3d	0.18278213
32	0x3d218809	0.039436374
33	0xbbf47ad5	-0.007460932
34	0xbdd006a3	-0.10157516
35	0xbe3b834c	-0.18311805
36	0x3d64199f	0.055688497
37	0x3dff39c7	0.12462192
38	0xbe385a48	-0.1800319
39	0x3d15ae92	0.036543436
40	0x3e0dd8a1	0.13852169
41	0x3e00ac48	0.1256572
42	0xbe197c20	-0.14988756
43	0xbdb30ad6	-0.08742301
44	0xbe2f4238	-0.17115104
45	0x3e4ae164	0.19812542
46	0xbde0c9e6	-0.10976009
47	0x3d15f563	0.036610972
48	0x3e0ebe43	0.13939767
49	0xbe342028	-0.17590392
50	0x3e57e7f7	0.21084581
51	0x3dc89479	0.09793944
52	0xbdde291a	-0.10847683
53	0x3c7ed3fb	0.01555347
54	0xbda4de3d	-0.08050201
55	0xbd941af6	-0.07231705
56	0x3e265493	0.162432
57	0x3dcac5dd	0.09901021
58	0xbc9495b7	-0.018137796
59	0xbe38093d	-0.17972274
60	0x3dd29f87	0.10284334
61	0x3c83a5b2	0.01607022
62	0xbd4f8972	-0.050668187
63	0xbb09cd82	-0.0021027033
64	0x3c71093b	0.014711673
65	0xbe12a5e2	-0.14321092
66	0x3db901fa	0.0903358
67	0x3cc21046	0.0236894
68	0x3e1b1554	0.15144855
69	0xbe2f0628	-0.17092192
70	0xbe1717fd	-0.14755245
71	0xbdb6147c	-0.08890626
72	0xbd784531	-0.06061286
73	0xbdc6ed2c	-0.09713206
74	0x3cbbf446	0.022943627
75	0xbe26e33b	-0.16297619
76	0xbe0125a7	-0.1261202
77	0x3d64abf4	0.05582805
78	0x3e246c90	0.16057038
79	0x3de0bd6b	0.109736286
80	0xbd881988	-0.06645495
81	0x3dc28ffe	0.095001206
82	0xbb444f37	-0.0029954442
83	0x3c462ff0	0.01209639
84	0x3dfe2255	0.12408892
85	0xbd6d701a	-0.057968237
86	0xbe0099aa	-0.12558618
87	0xbd4044fb	-0.046940785
88	0x3e24cff5	0.16094954
89	0x3e595c32	0.21226576
90	0x3dbfb5a1	0.09360815
91	0xbd4faa17	-0.05069932
92	0xbdd638a9	-0.10460026
93	0xbd8bead7	-0.068319015
94	0x3da60a78	0.081074655
95	0xbd3f4d91	-0.046704832
96	0x3c96f72f	0.018428413
97	0xbce54c60	-0.02799052
98	0x3d6e06d5	0.058111984
99	0xbd10c777	-0.035346474
100	0x3df5c755	0.1200091
101	0xbdaf7c83	-0.085686706
102	0xbe10f833	-0.1415718
103	0x3c6f1510	0.014592424
104	0xbb822162	-0.0039712647
105	0x3d9c6e06	0.07638173
106	0xbcf02317	-0.029313607
107	0x3d599524	0.053120747
108	0xbdf20528	-0.1181739
109	0x3d6ab39e	0.057300203
110	0xbdd57a20	-0.10423684
111	0x3e16af75	0.14715369
112	0xb97d3ec0	-0.00024151336
113	0x3d0b7f2d	0.03405683
114	0x3dc574f2	0.09641446
115	0x3e1534f8	0.14570987
116	0x3e216725	0.15762003
117	0x3e1f168d	0.15535946
118	0x3db3e1ba	0.08783288
119	0xbe100e16	-0.14067873
120	0xbd93d0c5	-0.07217554
121	0xbdf1cddf	-0.11806845
122	0xbd94f8d9	-0.072740264
123	0x3dca79c6	0.09886508
124	0xbd63799d	-0.0555359
125	0xbe2f299c	-0.17105716
126	0xbe290e4d	-0.16509362
127	0xbe0f98df	-0.1402316

lstm.bias_hh_l0 f4 [128]
0	0x3ddfa2c9	0.10919721
1	0xbcca6e89	-0.02471091
2	0xbe1914da	-0.1494936
3	0xbded5668	-0.11588746
4	0x3d11e7d0	0.035621464
5	0x3e063f0b	0.13109986
6	0xbe22fe31	-0.15917279
7	0x3db4e872	0.08833398
8	0x3dc70d6a	0.097193554
9	0x3d2739ed	0.040826727
10	0x3bf5a9a7	0.007497031
11	0xbe2e286e	-0.1700761
12	0xbda901eb	-0.08252319
13	0x3ce37b81	0.027768852
14	0xbd972562	-0.07380177
15	0xbb673aa0	-0.0035282746
16	0xbd7955d5	-0.06087287
17	0xbe4a260c	-0.19741076
18	0xbd792704	-0.060828224
19	0x3dec154e	0.11527501
20	0xbde404ec	-0.11133751
21	0x3baf852b	0.005356451
22	0xbbae6c25	-0.0053229504
23	0xbced598c	-0.028973363
24	0x3e01a203	0.12659459
25	0x3de7c524	0.113168985
26	0xbd7179e0	-0.05895412
27	0x3d9ca119	0.076479144
28	0x3d4e76a6	0.05040612
29	0x3d4db656	0.050222717
30	0xbe37b603	-0.17940526
31	0xbe2b6a6f	-0.1673982
32	0xbcfd27ee	-0.030902829
33	0x3da10538	0.078623235
34	0xbe269bc9	-0.16270365
35	0x3d8a65a2	0.06757666
36	0x3cae4d08	0.021276966
37	0xbbdf3475	-0.0068116733
38	0xbdc2f6b6	-0.095197126
39	0xbda5905f	-0.08084177
40	0x3d5e4779	0.05426738
41	0x3db125ef	0.086498134
42	0xbe2b0df0	-0.16704535
43	0x3d8e8462	0.06958844
44	0xbe08c726	-0.13357219
45	0x3e4a1730	0.19735408
46	0x3ccab8a5	0.024746248
47	0x3dfc4617	0.12318056
48	0x3dccaa84	0.09993461
49	0xbe1d2ab6	-0.15348324
50	0x3e37da1f	0.179543
51	0xbe2b0bd5	-0.16703732
52	0xbe0972c4	-0.13422686
53	0xbd6969b6	-0.05698558
54	0x3d0b30e5	0.033982176
55	0xbe0d3147	-0.13788329
56	0xbd2acdd8	-0.041700214
57	0xbd72a92e	-0.059243374
58	0x3e0439c3	0.1291266
59	0xbe0d0ac2	-0.13773635
60	0x3e0b2391	0.13587786
61	0xbd826806	-0.06367497
62	0xbe24cdf1	-0.16094185
63	0xbc0eb90f	-0.008711114
64	0xbe226493	-0.15858679
65	0x3cc3c50f	0.023897676
66	0xbd85a7ab	-0.06526121
67	0x3e17c2f0	0.14820457
68	0xbe397466	-0.18110809
69	0xbd22dba0	-0.039760232
70	0xbdebcd6c	-0.115137905
71	0x3dd6ba94	0.10484806
72	0x3dbc2a7e	0.09187792
73	0xbde83db2	-0.113398924
74	0xbaa63815	-0.0012681509
75	0xbdc64270	-0.09680641
76	0xbe19cb22	-0.15018895
77	0xbe61eb12	-0.22062328
78	0x3d9a17d6	0.075240776
79	0xbd2e8f9e	-0.042617433
80	0x3e042e1d	0.12908216
81	0x3da8669c	0.08222696
82	0x3d65261d	0.05594455
83	0xbd2792b7	-0.040911403
84	0x3de75515	0.11295525
85	0xbe0825d9	-0.13295688
86	0x3cea375c	0.02859085
87	0xbda2def7	-0.079526834
88	0xbc02cec3	-0.007983866
89	0xbad351e1	-0.0016122424
90	0xbd96af75	-0.073576845
91	0x3d7f3195	0.062303144
92	0xbddf4998	-0.10902709
93	0x3e8630a9	0.26209
94	0xbd9798cf	-0.07402193
95	0xbd54f07f	-0.051987167
96	0xbdd602e7	-0.10449772
97	0x3d09203d	0.03347801
98	0x3c99ce13	0.018775022
99	0x3dc71e96	0.09722631
100	0xbddff95e	-0.10936235
101	0x3aa6bd48	0.0012721205
102	0x3d3037de	0.04302203
103	0x3d7b8bfa	0.06141279
104	0xbe3677c2	-0.17819121
105	0x3da0ff65	0.07861213
106	0xbda1ec32	-0.07906379
107	0xbe318c61	-0.17338707
108	0xbdff5c32	-0.12468757
109	0x3e7f891a	0.24954644
110	0xbe37ccf1	-0.17949273
111	0x3e0ef303	0.13959889
112	0xbe19bbdb	-0.15013067
113	0xbe980147	-0.29688475
114	0xbdc99b9e	-0.09844135
115	0x3c71bba5	0.014754211
116	0x3dd3633c	0.10321662
117	0x3d1755a1	0.036946896
118	0xbd04227c	-0.03225945
119	0x3d3971e2	0.045274623
120	0x3e1d7b46	0.15379056
121	0xbd66dd12	-0.056363173
122	0x3e6a2508	0.22865689
123	0xbdf12a12	-0.117756024
124	0xbdc66f60	-0.09689212
125	0xbe086fe3	-0.13323931
126	0xbdedbf6c	-0.116087765
127	0x3dbea8fe	0.093095765

lstm.weight_ih_l1 f4 [128, 32]
0	0xbb43a91d	-0.0029855438
1	0x3b31891d	0.0027089783
2	0x3e7834a3	0.2423883
3	0x3c79c45d	0.015244571
4	0xbce3e2d0	-0.027818114
5	0x3e712997	0.23551022
6	0x3dc62a44	0.0967603
7	0xbe0d6275	-0.1380709
8	0x3e062db4	0.13103372
9	0x3eaee626	0.34159964
10	0xbe5e860b	-0.21730821
11	0x3e787f5b	0.24267332
12	0x3ea7f4e3	0.3280402
13	0x3ea92502	0.33036047
14	0xbe46051c	-0.19337887
15	0xbda31d38	-0.079645574
16	0x3da676e3	0.081281446
17	0xbddfcf4f	-0.10928213
18	0x3e7490b8	0.23883331
19	0xbdb44d56	-0.08803813
20	0xbe822ffc	-0.25427234
21	0x3e231647	0.15926467
22	0x3e3929e6	0.18082389
23	0xbe4e3fbf	-0.20141505
24	0xbcdbc2c1	-0.026826264
25	0x3da4ba4c	0.08043346
26	0x3d308fab	0.043105762
27	0x3c1c15b4	0.009526659
28	0x3e97930f	0.29604384
29	0xbca614a4	-0.020273514
30	0x3dc979c7	0.0983768
31	0x3e6a6554	0.22890216
32	0xbd77db72	-0.060512014
33	0x3c58c6af	0.013230964
34	0xbd447822	-0.04796613
35	0xbde30f77	-0.11086934
36	0xbda974bb	-0.08274218
37	0x3b8ce7af	0.00430008
38	0xbcb76d08	-0.022390857
39	0x3bde5149	0.0067845923
40	0x3c6c5c76	0.014426341
41	0xbd35235c	-0.044223174
42	0xbe774db1	-0.2415073
43	0xbb1a0396	-0.0023500673
44	0x3e1a3008	0.15057385
45	0x3e75a8f9	0.23990239
46	0x3de61e78	0.1123628
47	0x3db72f2a	0.08944543
48	0x3d4913d2	0.049091168
49	0xbde36f74	-0.11105242
50	0x3e19773b	0.14986889
51	0xbd365db8	-0.04452297
52	0x3e3b8625	0.18312891
53	0xbdb10331	-0.08643187
54	0x3e045c3f	0.12925814
55	0xbd6519c8	-0.05593279
56	0x3b90338f	0.0044006775
57	0xbdfe51b2	-0.12417926
58	0xbe0ff273	-0.14057331
59	0x3e4021a7	0.18762837
60	0xbd64e27a	-0.055880047
61	0x3cc07af6	0.023496132
62	0x3d7a0ab0	0.06104535
63	0xbd65e55d	-0.05612694
64	0x3d87516d	0.066073276
65	0x3d96ca30	0.07362783
66	0x3e2fd338	0.17170417
67	0x3d9cd50d	0.07657824
68	0x3d1b9b9f	0.03799021
69	0xbe0f29c0	-0.1398077
70	0xbe118d09	-0.14213957
71	0x3e2005b7	0.1562718
72	0x3e41f157	0.1893972
73	0x3db916f8	0.09037584
74	0x3db0804e	0.08618222
75	0x3e413a28	0.18869841
76	0x3e1f9474	0.15583974
77	0x3d611153	0.054948162
78	0xbe20b4df	-0.15693997
79	0xbd3dca5e	-0.04633557
80	0xbe02f32d	-0.12788077
81	0x3e555e78	0.20836818
82	0xbde1df85	-0.11028961
83	0xbd95acb6	-0.073083326
84	0x3d969724	0.073530465
85	0xbe039f0a	-0.12853637
86	0xbdbeed8c	-0.09322652
87	0xbc84ed39	-0.016226398
88	0x3e0bf91e	0.1366925
89	0xbe149ab4	-0.1451214
90	0xbe201f09	-0.15636839
91	0x3e071bde	0.13194224
92	0xbdbee713	-0.09321418
93	0x3b4adc2d	0.003095399
94	0x3dd76717	0.1051771
95	0xbd14fc18	-0.036373228
96	0x3d4fbf92	0.050719805
97	0x3d4ea0a9	0.050446186
98	0xbdb0a5e1	-0.08625389
99	0x3cb54051	0.022125395
100	0x3d1ae12f	0.037812408
101	0x3d94d135	0.072664656
102	0x3d49c6ba	0.049261786
103	0xbe1b70ee	-0.15179798
104	0x3e10ea57	0.14151894
105	0x3e6ddee0	0.23229551
106	0xbe143d7d	-0.14476581
107	0x3cd7a40e	0.026323345
108	0xbdbd1603	-0.09232714
109	0x3e98b2eb	0.29824004
110	0x3c84f999	0.016232299
111	0xbd335a3e	-0.043787234
112	0x3d6071f4	0.054796174
113	0xbd058702	-0.032599457
114	0x3dd6df0b	0.10491761
115	0xbdf7613c	-0.12079093
116	0xbdf70513	-0.12061515
117	0xbe058e43	-0.1304255
118	0x3dc2fcd0	0.095208764
119	0x3ca85e59	0.020552801
120	0x3da66899	0.08125419
121	0x3e14751d	0.144978
122	0xbe1b87a3	-0.1518846
123	0xbe4131a4	-0.18866593
124	0xbc2fac02	-0.010722162
125	0xbe99b7f7	-0.30023167
126	0x3db758c1	0.08952475
127	0xbdf0840a	-0.117439345
128	0xbe200bdf	-0.15629528
129	0xbe6c81c7	-0.23096381
130	0xbe4b701d	-0.19866987
131	0xbe36a0d5	-0.1783479
132	0xbdb1a71a	-0.0867445
133	0x3bd4799b	0.006484223
134	0x3e16f463	0.14741664
135	0x3d9ffa3c	0.078114
136	0xbd43fac3	-0.047846567
137	0x3e4e7379	0.20161237
138	0x3df66e9d	0.120328166
139	0xbd189cf2	-0.03725905
140	0xbe27db0e	-0.16392156
141	0x3e2d531b	0.16926233
142	0xbdd7a09f	-0.10528683
143	0x3e3ffc25	0.1874853
144	0x3d397c53	0.04528458
145	0x3d542b91	0.05179936
146	0xbda64c40	-0.08120012
147	0xbb51288b	-0.0031915035
148	0xbda4ff03	-0.08056452
149	0xbdca4aac	-0.09877524
150	0xbe05f539	-0.13081826
151	0x3d862946	0.06550841
152	0x3e148543	0.1450396
153	0x3cc3e40c	0.023912452
154	0xbe3f8b55	-0.18705495
155	0x3d9210e0	0.07132125
156	0x3e4eed33	0.20207672
157	0xbe6dd6b8	-0.2322644
158	0x3e5b875d	0.21438356
159	0xbd2e7986	-0.042596363
160	0xbdf13584	-0.117777854
161	0xbd2d18dc	-0.042260036
162	0xbe4eaf01	-0.20183946
163	0xbd0b90a5	-0.03407349
164	0x3df41b74	0.11919299
165	0x3dd772d8	0.105199516
166	0x3ce2b810	0.027675658
167	0xbe060b5e	-0.13090274
168	0x3d95faa0	0.073231936
169	0x3da07493	0.07834735
170	0x3e00055a	0.12502041
171	0xbd3aaf8e	-0.04557758
172	0xbe17d7d0	-0.1482842
173	0x3dcc4464	0.09973982
174	0x3e2b9343	0.16755395
175	0x3d6a72c6	0.057238363
176	0xbe4f4c45	-0.20243938
177	0xbe5c7b71	-0.21531464
178	0xbe67b0cc	-0.22626036
179	0xbde366ea	-0.11103614
180	0x3daf86ad	0.08570609
181	0xbddf8abd	-0.10915134
182	0x3da85daa	0.0822099
183	0x3e46ad78	0.1940211
184	0x3d20624d	0.039156247
185	0xbe2187d9	-0.15774478
186	0xbe782e51	-0.24236418
187	0xbb8c4ed4	-0.004281858
188	0x3d90b326	0.0706542
189	0xbddfa792	-0.109206334
190	0xbd49eb03	-0.04929639
191	0x3e0ac36e	0.13551113
192	0xbe40f17c	-0.18842119
193	0xbe53c628	-0.2068106
194	0xbd0918af	-0.033470806
195	0xbe06ed99	-0.13176574
196	0xbe65b9e1	-0.22434188
197	0xbe3039f2	-0.17209604
198	0xbba8be60	-0.0051496476
199	0xbe8eab5c	-0.27865112
200	0xbe075595	-0.1321624
201	0x3e5f893e	0.21829697
202	0x3db4c3c6	0.08826403
203	0x3dc45e4b	0.095882975
204	0x3d96e896	0.07368581
205	0x3ca794b8	0.020456657
206	0x3e1effe0	0.15527296
207	0x3e4c7790	0.19967484
208	0x3d56c6da	0.052435733
209	0xbe51588a	-0.20443931
210	0xbe6f58b1	-0.23373677
211	0xbdfeec9c	-0.124474734
212	0x3da2df90	0.079527974
213	0xbd794d77	-0.06086489
214	0x3b043f07	0.0020179169
215	0x3d8a6174	0.06756869
216	0x3dee9073	0.11648645
217	0xbdf6330b	-0.120214544
218	0xbdf0d3cd	-0.11759148
219	0x3da69a0c	0.08134851
220	0xbe139c3d	-0.14415069
221	0xbe6b4136	-0.22974095
222	0xbba9edfa	-0.0051858397
223	0xbe06cbce	-0.13163683
224	0xbd84e226	-0.06488447
225	0xbcdd11d3	-0.026986038
226	0x3d3c0210	0.045900404
227	0xbe7cb49a	-0.24678269
228	0xbd7f764f	-0.062368687
229	0x3e4ea0af	0.20178483
230	0x3e316400	0.17323303
231	0xbe102e12	-0.14080074
232	0xbe4d73f9	-0.20063771
233	0x3ec5d302	0.3863755
234	0xbc99aa09	-0.018757837
235	0xbd47a3cf	-0.048740204
236	0x3dad5cc2	0.08464958
237	0x3d9a69f8	0.07539743
238	0x3d1b9cc7	0.03799131
239	0x3cf7da64	0.030255504
240	0x3ca75feb	0.02043148
241	0xbe8949ea	-0.26814204
242	0xbe529e8a	-0.2056829
243	0xbe48deb8	-0.1961621
244	0xbe7db434	-0.24775773
245	0x3de7af43	0.113127254
246	0x3eaa2adc	0.33235824
247	0x3e8503df	0.25979516
248	0x3da5ee65	0.08102111
249	0xbe126d0f	-0.14299415
250	0x3c8604e0	0.016359746
251	0xbdb8f7a4	-0.09031609
252	0xbd85481a	-0.06507893
253	0xbdf5d296	-0.12003057
254	0x3df6514a	0.120272234
255	0xbd1796d0	-0.03700906

lstm.weight_hh_l1 f4 [128, 32]
0	0xbde0498b	-0.10951527
1	0x3cbe23a4	0.023210354
2	0xbde9610a	-0.11395462
3	0x3eb06667	0.34453127
4	0xbbc29963	-0.0059386953
5	0xbe4bc07d	-0.19897647
6	0x3e4624e4	0.1935001
7	0xbe44da4a	-0.19223896
8	0xbca5cfc9	-0.020240681
9	0x3d8c6eeb	0.068570934
10	0xbe003c84	-0.12523085
11	0xbdd945e0	-0.10609031
12	0xbdb4fa74	-0.08836833
13	0xbe96b382	-0.2943383
14	0xbd007f20	-0.031371236
15	0xbe241af3	-0.16025905
16	0xbe8bf9b6	-0.27338952
17	0xbe1199d6	-0.1421884
18	0x3ded67fd	0.115921
19	0xbdbe9fd8	-0.093078315
20	0xbe0bf4f6	-0.13667664
21	0xbd6660ce	-0.056244664
22	0xbe4dc089	-0.20092978
23	0xbe731d6e	-0.23741695
24	0x3d9c614c	0.076357454
25	0xbe6fb8a4	-0.23410279
26	0xbd035fb9	-0.03207371
27	0x3e58ded1	0.21178748
28	0xbe98452e	-0.2974028
29	0x3deb6848	0.114944994
30	0x3e931402	0.28726202
31	0xbda2cd40	-0.079493046
32	0x3d0a3e9b	0.03375111
33	0x3df41f15	0.11919991
34	0xbdb07a5f	-0.086170904
35	0xbcb875ab	-0.022517046
36	0xbd1db947	-0.038506772
37	0x3d653586	0.055959247
38	0x3d0ce451	0.034397427
39	0xbb71b18d	-0.003687951
40	0xbe1ae9e9	-0.15128292
41	0xbcb5e407	-0.022203458
42	0x3c7cb105	0.015423064
43	0xbe60e088	-0.21960652
44	0x3e27f75d	0.16402955
45	0xbd14eb02	-0.036356933
46	0x3c87f0cd	0.016594315
47	0xbe324052	-0.17407349
48	0xbe02f9a2	-0.1279054
49	0xbd9d8355	-0.07691065
50	0x3dfb68da	0.12275858
51	0xbe1b3648	-0.15157425
52	0x3d4a1f1a	0.049346067
53	0x3e296b02	0.16544726
54	0xbd644413	-0.055728983
55	0xbe368714	-0.17824966
56	0xbe13d262	-0.14435723
57	0x3d3e7313	0.046496462
58	0xbddf916c	-0.10916409
59	0xbda8ad34	-0.08236161
60	0xbdcf991c	-0.10136625
61	0x3e18c074	0.14917165
62	0x3e0e67aa	0.13906732
63	0xbe377ec5	-0.17919452
64	0xbdb3816f	-0.08764922
65	0x3d068a09	0.032846484
66	0xbe30d246	-0.17267713
67	0xbd8ee823	-0.0697787
68	0x3e0d6627	0.138085
69	0xbcf51af3	-0.029920077
70	0x3e44f7a7	0.19235097
71	0x3d14e8e3	0.03635491
72	0xbe40f792	-0.1884444
73	0x3e38da37	0.18051992
74	0x3d4ff942	0.05077482
75	0xbcfd7e59	-0.030944036
76	0xbd6f1a63	-0.058374774
77	0xbe45fe47	-0.1933528
78	0xbc4ec48c	-0.012620103
79	0x3e0d6137	0.13806616
80	0x3d5b4e9b	0.05354176
81	0xbe266576	-0.16249642
82	0x3e1d6062	0.15368798
83	0xbd21f79b	-0.039542776
84	0x3d8b5b27	0.06804495
85	0x3da903da	0.08252688
86	0x3dc3f8e7	0.09568959
87	0x3d1ed66b	0.038778704
88	0xbe4e7564	-0.20161968
89	0xbe4dd0af	-0.20099138
90	0xbe4db9a2	-0.20090345
91	0xbc2a4739	-0.010392957
92	0x3db30fb1	0.08743227
93	0x3d2da7b2	0.042396255
94	0xbc87043c	-0.016481511
95	0x3dc00a4f	0.09376966
96	0x3d81ca71	0.06337441
97	0x3d65e4bd	0.056126345
98	0x3d97fe7c	0.07421586
99	0x3dcb2f9b	0.099211894
100	0xbd367b04	-0.04455091
101	0x3e1757e2	0.14779618
102	0xbdc7ce3f	-0.09756135
103	0xbe0cff4f	-0.13769267
104	0x3dfc2571	0.12311829
105	0x3d2ecca9	0.042675648
106	0xbc213ab1	-0.009840653
107	0xbc97f632	-0.018550012
108	0xbc948ef6	-0.018134575
109	0x3db12aa8	0.08650714
110	0xbca86591	-0.020556243
111	0x3d36deae	0.044645958
112	0x3bfda440	0.0077405274
113	0xbe33b943	-0.1755114
114	0xbca74d4b	-0.020422598
115	0xbe2479a1	-0.16062023
116	0x3dcbf6fe	0.099592194
117	0x3df7f6bd	0.121076085
118	0x3cc0aacc	0.023518942
119	0x3e1edef6	0.1551474
120	0x3d98d0b5	0.07461683
121	0xbd7c8091	-0.061646048
122	0x3d3c234a	0.04593209
123	0x3c7e260a	0.015511999
124	0xbd9dec01	-0.0771103
125	0xbe2c773b	-0.16842358
126	0x3e01925a	0.12653485
127	0xbd582eb1	-0.052778903
128	0xbccb73ff	-0.024835585
129	0x3e008168	0.12549365
130	0x3d5cff9f	0.053954717
131	0x3d04c1d6	0.03241142
132	0x3d044fb1	0.032302562
133	0xbe02b7e5	-0.12765463
134	0x3de1d713	0.1102735
135	0x3e4259ce	0.1897957
136	0xbcc8d2ed	-0.02451464
137	0xbd9b827e	-0.07593249
138	0x3def8f5c	0.116972655
139	0xbc2d857f	-0.01059091
140	0xbdf11a4b	-0.11772593
141	0x3e28c129	0.16479935
142	0xbd12b085	-0.035812873
143	0xbdf3c578	-0.119028986
144	0x3d8258d3	0.06364598
145	0x3b1af65a	0.0023645372
146	0xbde39509	-0.111124106
147	0xbe037edf	-0.12841366
148	0xbe203d60	-0.15648413
149	0x3e02a7ed	0.12759371
150	0xbe058d46	-0.13042173
151	0xbda0149a	-0.078164294
152	0x3d2cd837	0.042198386
153	0xbd1dfba0	-0.038570046
154	0x3d75c86a	0.060005583
155	0x3e187d77	0.14891611
156	0xbcb3b70b	-0.021937868
157	0x3e07bb46	0.13255033
158	0xbd80b9d3	-0.06285443
159	0x3d74cb34	0.059764102
160	0x3e19315d	0.14960237
161	0x3dc18f31	0.0945114
162	0xbe3eb08e	-0.18622038
163	0xbc3c1412	-0.0114793945
164	0x3e1b896e	0.15189144
165	0xbb9cfa95	-0.004790614
166	0xbe1213cc	-0.14265364
167	0xbdcff228	-0.101536095
168	0x3d9ad2a4	0.07559708
169	0xbe29ac65	-0.1656967
170	0x3e3d3532	0.18477324
171	0x3cdb1dcd	0.026747609
172	0x3e26986e	0.16269085
173	0x3db8feaf	0.09032952
174	0xbddcdab1	-0.107838996
175	0xbe19deac	-0.15026349
176	0xbde250c4	-0.11050561
177	0xbdf48625	-0.119396485
178	0x3db49b5b	0.08818694
179	0x3dbdd412	0.09268965
180	0x3d926465	0.07148055
181	0xbdf4604b	-0.11932429
182	0x3da0b886	0.07847695
183	0x3dbca282	0.092106834
184	0x3dd4d3c1	0.10391951
185	0x3e1fbad4	0.15598613
186	0x3e0e0531	0.13869168
187	0xbdd1a7c0	-0.10237074
188	0xbda0c95c	-0.07850906
189	0x3de86145	0.11346678
190	0x3da413a0	0.08011556
191	0xbd81c1cc	-0.06335792
192	0xbc552202	-0.013008596
193	0xbc0be6ab	-0.008538882
194	0x3e1c4b97	0.1526321
195	0x3d1ecb68	0.038768202
196	0xbe2dec62	-0.16984704
197	0x3e3b8903	0.18313985
198	0xbe233297	-0.15937267
199	0xbacdf3f3	-0.0015712961
200	0x3d11b471	0.035572473
201	0xbdbda565	-0.09260062
202	0xbe0a08b3	-0.13479881
203	0xbe0fcb0b	-0.14042298
204	0xbd6bd948	-0.057580262
205	0xbdac554e	-0.08414708
206	0xbce15454	-0.027506031
207	0x3d975d1d	0.07390807
208	0x3d7620e1	0.06008995
209	0xbe131e16	-0.14366946
210	0xbe393e24	-0.18090111
211	0x3e39d2ee	0.1814687
212	0xbc7bcdfa	-0.015368933
213	0x3d80b18c	0.062838644
214	0xbe1caa63	-0.15299372
215	0xbded5d63	-0.11590078
216	0x3e1753b0	0.14778018
217	0xbd7c6fc8	-0.06163004
218	0xbe041b51	-0.12901045
219	0x3d95defd	0.07317922
220	0xbdd51f8c	-0.10406408
221	0xbe1e997f	-0.15488242
222	0x3badf9a1	0.005309299
223	0xbe156e82	-0.14592937
224	0xbe29f4a2	-0.16597226
225	0x3dd291e9	0.102817364
226	0xbd545d10	-0.051846564
227	0x3de37d1c	0.11107847
228	0xbde4a97d	-0.1116514
229	0x3dc88b3f	0.09792184
230	0xbde2b48e	-0.11069594
231	0x3e1e204a	0.15442005
232	0x3d8aa699	0.06770057
233	0xbe5e16c9	-0.2168838
234	0x3c97ee22	0.018546168
235	0xbbffd90f	-0.007807858
236	0xbdb6788a	-0.0890971
237	0xbd1940bd	-0.037415255
238	0x3dcc4dbf	0.099757664
239	0xbe26a06f	-0.16272138
240	0x3d3b5370	0.04573387
241	0x3d3ceafd	0.04612254
242	0x3e0a84f5	0.13527282
243	0x3d87f9ad	0.06639419
244	0x3e0fe74d	0.14053078
245	0x3e11141e	0.1416783
246	0x3e2b78cd	0.167453
247	0xbe367181	-0.17816736
248	0x3d97b47f	0.07407474
249	0x3dd50ca2	0.104028
250	0xbe509622	-0.20369771
251	0x3deed809	0.11662299
252	0x3c869b48	0.016431466
253	0x3da13672	0.07871713
254	0x3e3003c6	0.1718894
255	0xbcc113fc	-0.0235691

lstm.bias_ih_l1 f4 [128]
0	0xbdda016f	-0.10644805
1	0xbdb96183	-0.09051802
2	0xbdaa19cc	-0.083057016
3	0x3cbd70ee	0.023125138
4	0x3e4a98bc	0.19784826
5	0x3dd26208	0.10272604
6	0xbd490ccd	-0.049084473
7	0xbe14ae9d	-0.14519735
8	0xbe0b9bf2	-0.13633707
9	0xbe0df393	-0.13862447
10	0xbb2c4c54	-0.0026290612
11	0xbe404c5a	-0.18779126
12	0xbd9a57d7	-0.07536285
13	0xbd85c2d8	-0.06531304
14	0xbd95faca	-0.07323225
15	0x3e24456c	0.16042107
16	0x3bc7fbb8	0.0061030053
17	0xbe0d17cb	-0.13778608
18	0x3c467436	0.012112668
19	0x3e41134f	0.18855022
20	0xbd394487	-0.04523137
21	0xbe83943e	-0.25699037
22	0xbe1b5eaa	-0.1517283
23	0x3e3ff22e	0.18744728
24	0xbe12d6b4	-0.14339715
25	0x3e47c82b	0.19509952
26	0xbd799f6e	-0.06094306
27	0xbe38fd7f	-0.18065451
28	0xbd655880	-0.055992603
29	0x3e152edf	0.14568661
30	0x3e048a61	0.12943412
31	0xbd47394c	-0.048638627
32	0xbdd5e2b6	-0.10443632
33	0x3d1dcb6b	0.038524073
34	0x3cd1e4b5	0.025621751
35	0x3d9fa7b2	0.07795657
36	0x3e27d655	0.16390355
37	0x3e3d8559	0.185079
38	0x3ddeb7bf	0.108748905
39	0xbca3d90f	-0.020000963
40	0xbe46757a	-0.19380751
41	0x3b600ae5	0.003418618
42	0xbdec3c20	-0.115349054
43	0xbdcc12ad	-0.099644996
44	0xbd53059d	-0.051519025
45	0x3de2ae78	0.110684335
46	0xb9ae3988	-0.0003323073
47	0xbdb4aee7	-0.088224225
48	0x3dca34e5	0.0987337
49	0x3dbfb139	0.093599744
50	0xbe1e7138	-0.15472877
51	0xbdf4b60a	-0.11948784
52	0xbdfcc727	-0.12342673
53	0x3d4146cc	0.047186658
54	0xbe0f955f	-0.14021824
55	0xbd4ca53b	-0.049962264
56	0xbd736f07	-0.059432056
57	0x3cb2d7cc	0.021831416
58	0x3d829115	0.063753285
59	0xbdf31b18	-0.11870402
60	0xbe5f00ab	-0.21777599
61	0xbdb6b7e7	-0.08921795
62	0x3ade4e44	0.0016960581
63	0xbe33a7e4	-0.17544514
64	0xbd9a30a4	-0.07528809
65	0x3d84310f	0.0645467
66	0x3e130bbd	0.14359947
67	0xbdb6ed31	-0.089319594
68	0xbe7d1e4e	-0.24718592
69	0x3df14aad	0.117818214
70	0xbe29439e	-0.165297
71	0x3e3119d2	0.17295006
72	0x3e62a4f8	0.22133243
73	0xbe48a45a	-0.19593945
74	0x3db0c272	0.086308375
75	0x3c4d6eae	0.012538595
76	0x3dd68661	0.104748495
77	0x3e3ebfee	0.18627903
78	0xbd91c2ff	-0.07117271
79	0x3e224487	0.15846454
80	0x3db1d7c6	0.08683734
81	0x3db15e92	0.08660616
82	0xbe00f62b	-0.12593906
83	0x3e028813	0.1274722
84	0xbc9e2caa	-0.019308407
85	0xbc57bf2a	-0.013168136
86	0x3cec54c8	0.02884902
87	0x3d55f944	0.05223967
88	0x3c01fb35	0.007933428
89	0x3e4a335d	0.19746156
90	0x3e20a0af	0.15686296
91	0xbd7dca1e	-0.061960332
92	0xbce15257	-0.027505083
93	0xbe6faab9	-0.2340497
94	0x3b4ce91e	0.0031266878
95	0x3e2e9ef5	0.17052825
96	0xbd0b4680	-0.03400278
97	0x3c0a0fb3	0.008426595
98	0xbe338eb5	-0.17534907
99	0x3e0a7ad9	0.13523425
100	0x3d263534	0.040578082
101	0xbb08e656	-0.0020889244
102	0xbd92361c	-0.07139227
103	0x3db84994	0.08998409
104	0xbcd2ce1d	-0.025733048
105	0xbb1ce77a	-0.0023941682
106	0xbbf1f294	-0.007383654
107	0xbe38d859	-0.1805128
108	0x3dbce4c3	0.0922332
109	0x3e2e794a	0.17038456
110	0xbe528fa6	-0.2056261
111	0x3d2e9769	0.042624865
112	0xbdeff078	-0.11715788
113	0x3e081c47	0.13292037
114	0xbe11188a	-0.14169517
115	0x3d623ae0	0.05523193
116	0x3c844a80	0.016148806
117	0xbe89ba14	-0.2689978
118	0xbdb35b46	-0.087576434
119	0xbda74581	-0.08167554
120	0xbca23212	-0.019799266
121	0xbd626356	-0.055270515
122	0xbe0743e8	-0.13209498
123	0x3e06dd49	0.13170351
124	0xbe7edf2b	-0.2488982
125	0xbdb175f9	-0.086650796
126	0xbd9fc245	-0.07800726
127	0xbd148b6f	-0.036265787

lstm.bias_hh_l1 f4 [128]
0	0xbe65424f	-0.22388576
1	0xbc6e82a7	-0.014557517
2	0x3d4886ba	0.04895661
3	0xbcbbbe2c	-0.02291783
4	0xbcbbc516	-0.022921126
5	0x3d0f2da1	0.034955624
6	0x3e69a23e	0.22815797
7	0x3d6b1d4a	0.05740098
8	0x3debdcb6	0.11516707
9	0x3df04431	0.117317565
10	0xbe7c14b9	-0.2461728
11	0xbdfb0ef4	-0.122587115
12	0xbe60d4b3	-0.21956138
13	0x3e339468	0.17537081
14	0xbe489d18	-0.19591177
15	0x3e24f26e	0.16108105
16	0x3e05736c	0.13032311
17	0x3dbfd6a5	0.09367112
18	0x3e3f276f	0.18667386
19	0x3e3821bb	0.17981617
20	0xbdee85e5	-0.11646632
21	0xbd7c43b8	-0.06158802
22	0x3dbf4ec3	0.093411945
23	0x3df48757	0.119398765
24	0xbd022297	-0.03177127
25	0xbdeb5e67	-0.11492615
26	0xbdc266a1	-0.09492231
27	0xbd5e91c3	-0.054338228
28	0xbeac5cc6	-0.3366453
29	0x3e039490	0.12849641
30	0x3e3a413a	0.18188944
31	0x3cdb7069	0.026787
32	0xbe25d7e3	-0.16195635
33	0x3deebed7	0.116574936
34	0x3e09d05c	0.13458389
35	0x3d86b194	0.06576839
36	0x3cad8d26	0.021185469
37	0xbd0a04b9	-0.03369591
38	0x3e21f94f	0.1581776
39	0xbaef690b	-0.0018265558
40	0x3d0e33b1	0.034717266
41	0xbdf901af	-0.12158524
42	0xbca04a6a	-0.019566733
43	0xbd7f8b8b	-0.062388938
44	0xbdbe9895	-0.093064465
45	0xbe0ddf9c	-0.13854831
46	0xbe316f0b	-0.17327516
47	0x3e0c8adf	0.1372485
48	0xbe10ef9b	-0.14153902
49	0xbcbef406	-0.023309719
50	0xbe05d63d	-0.13070007
51	0xba9842da	-0.0011616603
52	0x3e0a0639	0.13478936
53	0xbe88496b	-0.26618513
54	0xbe2c036c	-0.1679818
55	0xbe247300	-0.16059494
56	0xbc4327ac	-0.011911314
57	0x3e3f0b7e	0.18656728
58	0xbda83cc8	-0.08214718
59	0x3cfd560d	0.030924821
60	0xbeb84acd	-0.35994568
61	0x3d1481b7	0.03625652
62	0xbcd82eec	-0.026389562
63	0xbe04f948	-0.12985718
64	0x3c86743b	0.016412845
65	0x3df4b689	0.11948878
66	0xbd4cd6cc	-0.050009534
67	0xbe228875	-0.15872367
68	0xbe14aa40	-0.1451807
69	0x3e17c34d	0.14820595
70	0xbe25fb8e	-0.16209242
71	0xbd70eb57	-0.058818188
72	0xbda5b177	-0.08090489
73	0x3dc86545	0.09784941
74	0x3e1d1396	0.15339503
75	0x3e0b4878	0.13601863
76	0xbe312a07	-0.17301188
77	0x3e02d28d	0.12775631
78	0x3c9f3651	0.01943508
79	0x3d096fb7	0.033553805
80	0x3d012aee	0.03153508
81	0x3d292fde	0.041305415
82	0xbdc94a44	-0.09828618
83	0xbd822e77	-0.06356519
84	0x3e0b497d	0.13602252
85	0xbdc07a9e	-0.09398387
86	0x3ddf3834	0.10899392
87	0x3e7d6e0a	0.24749008
88	0x3e1501e3	0.14551501
89	0x3e057585	0.13033111
90	0xbd235dcd	-0.039884377
91	0xbda8aa3e	-0.08235596
92	0xbdd063c0	-0.10175276
93	0xbe35e617	-0.17763554
94	0xbe6c1aee	-0.23057148
95	0x3ccb3166	0.024803828
96	0xbe29458e	-0.1653044
97	0x3de92b3f	0.11385202
98	0x3da191c2	0.07889129
99	0x3dec9791	0.115523465
100	0xbd91a1f7	-0.071109705
101	0xbd37f64d	-0.044912625
102	0xbdcde190	-0.10052788
103	0xbe3b1842	-0.18270972
104	0x3d64b2a3	0.055834424
105	0x3e31afe0	0.17352247
106	0xbdcf3a24	-0.10118511
107	0x3e0903b7	0.13380323
108	0x3d5a2fa3	0.053268086
109	0xbd855b22	-0.06511523
110	0xbe1afcba	-0.1513547
111	0xbd627908	-0.055291206
112	0x3ca92965	0.020649621
113	0xbc3ea0dc	-0.011635032
114	0x3d30636c	0.043063566
115	0x3aa63ded	0.001268325
116	0xbd0c0b9c	-0.03419076
117	0xbd9eb7b0	-0.07749879
118	0x3dc4785c	0.09593269
119	0x3dbd10da	0.0923173
120	0x3c230ae3	0.009951326
121	0x3d9159df	0.0709722
122	0xbe5e3d95	-0.21703179
123	0xbd87b487	-0.0662623
124	0xbe11bfd4	-0.14233333
125	0x3d8fb16d	0.07016263
126	0xbdb3ec55	-0.08785311
127	0xbe0d8019	-0.13818397

fc.weight f4 [1, 32]
0	0x3d793663	0.060842883
1	0xbde77969	-0.11302454
2	0xbd516976	-0.051125966
3	0x3e448dcd	0.19194718
4	0x3e5e04cf	0.21681522
5	0xbdd0e1a3	-0.10199287
6	0x3e1e6192	0.15466908
7	0xbe242a6e	-0.1603181
8	0xbde42074	-0.111390024
9	0x3e4ca432	0.1998451
10	0x3d462d1d	0.048382867
11	0xbcd4c145	-0.025971064
12	0x3db8e1cc	0.09027442
13	0xbdef5f2b	-0.11688074
14	0xbde474d0	-0.11155093
15	0xbdb2815a	-0.08716078
16	0xbe5bce37	-0.21465383
17	0xbe08f3d0	-0.13374257
18	0x3e2b0740	0.16701984
19	0xbe0df5f2	-0.13863352
20	0xbd03f4f2	-0.03221602
21	0xbccb7df0	-0.024840325
22	0xbe118c2e	-0.1421363
23	0xbe14e50b	-0.14540498
24	0xbe3de2da	-0.18543568
25	0xbde2ebf7	-0.11080163
26	0xbdb1b32c	-0.086767524
27	0x3d392519	0.045201395
28	0xbd1e2f46	-0.038619302
29	0x3e0e437d	0.13892932
30	0x3dfa7ecc	0.12231216
31	0xbd2af6ff	-0.04173946
