backend/stocks/price/pt_models/AGRO.pt (torch, 54435 bytes, 9 tensors)

lstm.weight_ih_l0 f4 [128, 1]
0	0xbe5c324c	-0.21503562
1	0x3e7fff81	0.24999811
2	0x3d7f0418	0.062259763
3	0xbd26e461	-0.040745143
4	0xbbe28871	-0.0069132377
5	0x3dcbc524	0.09949711
6	0xbc23da48	-0.010000773
7	0x3e69e9ad	0.22843046
8	0x3dd24965	0.10267905
9	0xbe4f9dc8	-0.20275033
10	0x3de65471	0.11246575
11	0x3e70ce9a	0.23516312
12	0x3da36ea0	0.079800844
13	0x3d9c764d	0.076397516
14	0xbdac6db3	-0.08419361
15	0x3dcb10a7	0.099152856
16	0xbe51c306	-0.20484552
17	0xbd0ec2dc	-0.0348538
18	0xbda9573b	-0.08268591
19	0x3df7652d	0.120798446
20	0x3e783b35	0.24241336
21	0xbe5d55fb	-0.2161483
22	0xbe68ca1f	-0.22733353
23	0x3d3aa9ec	0.045572206
24	0x3e820a83	0.25398645
25	0x3d4f320d	0.05058484
26	0x3e2f9d04	0.1714974
27	0xbe6eefbf	-0.23333643
28	0xbdb5493c	-0.08851859
29	0xbe33ff18	-0.1757778
30	0x3e2095a3	0.15682082
31	0xbe1c34b4	-0.1525448
32	0x3d798cf6	0.060925446
33	0x3da05e9a	0.07830544
34	0x3e79c8fc	0.24393076
35	0x3ced24bd	0.028948182
36	0xbd709a64	-0.05874099
37	0xbd624f89	-0.055251632
38	0xbe25ec5b	-0.16203444
39	0x3d0285ab	0.031865757
40	0x3d93f518	0.07224482
41	0xbe8db1cc	-0.2767471
42	0xbdfaea46	-0.12251715
43	0x3c5eaaf6	0.013590565
44	0x3e2f3ca6	0.1711298
45	0x3cd44d96	0.025915902
46	0xbe158cbd	-0.14604469
47	0x3a4e544a	0.00078708364
48	0x3dc81642	0.0976987
49	0x3d55960e	0.052145056
50	0xbe89afeb	-0.26892027
51	0xbd44dbf4	-0.048061326
52	0xbc4953c1	-0.012288035
53	0xbdcf4ffd	-0.101226784
54	0xbe554423	-0.20826773
55	0xbb373563	-0.0027955405
56	0xbd2a64e9	-0.04160014
57	0x3e4c0f6f	0.19927762
58	0x3dd535d6	0.10410659
59	0xbe5e26e1	-0.21694519
60	0x3dcda109	0.10040481
61	0xbd63d630	-0.055624187
62	0x3e1dbe14	0.1540454
63	0x3c4b2b6d	0.01240049
64	0xbe8a3fb3	-0.27001724
65	0x3e98cc1f	0.29843232
66	0x3e7ebd29	0.24876846
67	0xbbb93888	-0.005652491
68	0x3e62acff	0.22136305
69	0x3e98783d	0.29779235
70	0x3e8d7235	0.27626196
71	0x3e2f9863	0.17147975
72	0x3e4e78fe	0.20163342
73	0xbe3602e7	-0.17774545
74	0x3e37dcf9	0.17955388
75	0xbe7896b3	-0.24276237
76	0x3e42b2c2	0.19013503
77	0xbe8f62a7	-0.28004953
78	0x3e39cff7	0.18145739
79	0xbe5b7222	-0.21430257
80	0x3d9ce1c5	0.076602496
81	0xbe75aff5	-0.23992904
82	0x3e177a34	0.1479271
83	0x3e298020	0.16552782
84	0x3e7ad647	0.24495803
85	0x3df70259	0.12060995
86	0x3e4ba372	0.19886568
87	0xbd0614b8	-0.032734603
88	0xbe9ab2a8	-0.3021443
89	0xbe81f5c1	-0.25382808
90	0xbe1de0a7	-0.1541773
91	0xbe30cf5b	-0.172666
92	0xbe5cd3ce	-0.21565172
93	0x3e307b40	0.17234516
94	0xbe6f836b	-0.23389976
95	0xbe3e799d	-0.1860108
96	0x3d8e3228	0.0694316
97	0x3d28dd50	0.041226685
98	0x3d05823a	0.032594897
99	0xbe07f850	-0.13278317
100	0xbe703e6b	-0.2346131
101	0x3c8d55d2	0.017252836
102	0x3d6b77dd	0.057487357
103	0x3d0d5b28	0.03451076
104	0x3e19abf9	0.15007009
105	0xbe47b695	-0.19503243
106	0xbe422b1a	-0.18961754
107	0x3ddfd875	0.10929958
108	0x3d86a48f	0.06574356
109	0x3c75db49	0.015005895
110	0x3dc77e9e	0.09740947
111	0x3a594865	0.00082886807
112	0x3db58397	0.088629894
113	0xbbcc717f	-0.0062391157
114	0xbe1a9cee	-0.15098926
115	0x3e30bef9	0.1726035
116	0x3e9720af	0.29517123
117	0xbe818984	-0.2530023
118	0xbcf54e25	-0.029944489
119	0xbc46d8a5	-0.012136613
120	0x3e3416d3	0.17586832
121	0xbd0ccc8d	-0.034374762
122	0x3e51efdd	0.20501657
123	0xbe667055	-0.22503789
124	0xbd92a15f	-0.07159685
125	0xbdbadb65	-0.091238774
126	0x3df814ae	0.12113319
127	0x3d9798ec	0.074022144

lstm.weight_hh_l0 f4 [128, 32]
0	0xbe07aa68	-0.13248599
1	0xbd135318	-0.035967916
2	0x3d9cf679	0.076641984
3	0xbd9e1af9	-0.077199884
4	0xbe3f290a	-0.18667999
5	0xbe289a23	-0.16465048
6	0x3c7763ae	0.015099449
7	0xbdcab792	-0.098982945
8	0xbde60d59	-0.112330146
9	0x3e37d148	0.17950928
10	0xbe185131	-0.14874722
11	0xbd956eea	-0.07296546
12	0xbe0dc1bd	-0.13843437
13	0xbe01001b	-0.12597696
14	0xbe0c6896	-0.13711771
15	0xbcb23d33	-0.021757698
16	0x3e01c99e	0.12674567
17	0x3e05a69b	0.13051836
18	0xbac2b747	-0.0014855646
19	0x3dad635b	0.08466216
20	0x3d31760e	0.043325476
21	0x3d997ea9	0.07494862
22	0xbd0c3536	-0.034230433
23	0x3d819d55	0.06328837
24	0xbda48156	-0.08032481
25	0x3e1fa306	0.15589532
26	0x3dae8109	0.08520705
27	0xbdbf1cb5	-0.09331647
28	0xbe3761f9	-0.17908467
29	0xbd17affd	-0.03703307
30	0xbe22f92e	-0.15915367
31	0xbe05e816	-0.13076815
32	0x3e3a2307	0.18177424
33	0x3e0f3eaa	0.13988748
34	0x3d5e34ef	0.0542497
35	0x3e728632	0.23684004
36	0x3d34b0dd	0.044113982
37	0xbdb598f9	-0.08867068
38	0x3d44e8e5	0.048073668
39	0xbd00646c	-0.03134577
40	0xbd8a3f29	-0.06750328
41	0x3cc3183d	0.023815269
42	0xbd0be973	-0.03415818
43	0x3e12ec17	0.14347874
44	0x3ded8ba2	0.115988985
45	0x3e02aa85	0.1276036
46	0x3c937f73	0.018005108
47	0x3cc9576d	0.02457782
48	0xbdbc26b5	-0.0918707
49	0x3e672ccb	0.22575681
50	0xbd2f040e	-0.042728476
51	0xbd188b69	-0.037242327
52	0x3d759ad4	0.05996211
53	0x3cab5295	0.020913402
54	0xbe00481d	-0.12527509
55	0xbd0d39ac	-0.03447883
56	0xbe029fae	-0.12756225
57	0x3da57961	0.08079792
58	0xbcebdcbe	-0.028791782
59	0x3e771adf	0.24131344
60	0xbe2b5a20	-0.16733599
61	0x3d0050e6	0.03132715
62	0x3e259118	0.1616863
63	0x3ccc3e2b	0.024931988
64	0x3d1d4347	0.03839424
65	0xbc6fcd25	-0.014636313
66	0xbd184df8	-0.03718373
67	0x3e43fda9	0.19139732
68	0xbc051638	-0.008122973
69	0x3cd58cee	0.026068177
70	0xbd4cee48	-0.05003193
71	0xbdfc95be	-0.123332486
72	0x3e403964	0.18771893
73	0x3cf8b393	0.030359065
74	0xbe20a7ae	-0.15688965
75	0x3c67415c	0.014114704
76	0x3e50f9b4	0.20407754
77	0xbaf0fbdc	-0.0018385607
78	0x3def09da	0.11671801
79	0x3dcb3d83	0.09923842
80	0xbcbfcb60	-0.023412406
81	0xbd8db77c	-0.069197625
82	0x3caa1fe7	0.020767165
83	0x3c9a7f85	0.018859634
84	0xbda1be59	-0.07897634
85	0xbd9ca4fb	-0.07648655
86	0xbbe3d19e	-0.0069524786
87	0xbe0d86fb	-0.13821022
88	0x3c45392b	0.012037556
89	0x3de8e8f0	0.11372554
90	0xbceb8b07	-0.028752817
91	0x3e2a8e23	0.16655783
92	0x3d94f1ba	0.07272668
93	0xbe470d5a	-0.19438687
94	0xbe258d51	-0.16167189
95	0xbd6e6a22	-0.058206685
96	0xbd4fd111	-0.05073649
97	0xbe1f08a6	-0.15530643
98	0x3dd98da5	0.1062272
99	0xbc63abe4	-0.013895962
100	0x3df7eafa	0.12105365
101	0xbc66e820	-0.014093429
102	0x3e166ca4	0.1468988
103	0xbc75eb86	-0.015009766
104	0xbe193215	-0.14960511
105	0xbc9388fc	-0.018009655
106	0x3db41bfd	0.08794401
107	0xbd82b980	-0.063830376
108	0xba10b527	-0.0005520158
109	0xbd88951c	-0.06669065
110	0x3e1f3328	0.15546858
111	0x3d883c74	0.066521555
112	0xbceb195e	-0.02869862
113	0x3e2f857b	0.17140763
114	0xbd19e767	-0.037574198
115	0x3d955b94	0.07292858
116	0xbdc610c4	-0.096711665
117	0xbc7c1ae3	-0.01538727
118	0xbdf6feae	-0.12060295
119	0xbdfafab2	-0.122548476
120	0x3e5ac22a	0.2136313
121	0x3d854412	0.06507124
122	0x3e35acc2	0.17741683
123	0x3d83891a	0.064226344
124	0x3e75d4eb	0.24007003
125	0xbd6c18ab	-0.057640713
126	0x3c819579	0.015818344
127	0xbe1a6554	-0.15077716
128	0x3de6e340	0.11273813
129	0x3e01ecb5	0.12687953
130	0x3e034b20	0.12821627
131	0x3c6cc6e9	0.014451721
132	0xbe4e3e41	-0.20140935
133	0xbd75fb7a	-0.06005428
134	0x3dbf5407	0.09342199
135	0x3cad656f	0.021166531
136	0xbdfe5aa1	-0.1241963
137	0xbc265e1f	-0.010154276
138	0x3bdcdfe2	0.006740556
139	0x3daaf810	0.083480954
140	0xbe351ca1	-0.17686702
141	0xbd2b0993	-0.041757178
142	0xbd7a1dfd	-0.061063755
143	0x3d2df03c	0.042465433
144	0x3d45a9f2	0.048257776
145	0x3dd1eeaa	0.102506
146	0x3d9bc520	0.07605958
147	0xbdf4a4ad	-0.11945472
148	0x3db82eee	0.08993326
149	0xbd974378	-0.073859155
150	0xbe2eb11c	-0.1705975
151	0xbe18e5db	-0.14931433
152	0x3e212ab0	0.1573894
153	0x3e053a4a	0.13010517
154	0x3dca9d08	0.098932326
155	0x3d929ba5	0.07158593
156	0xbd51a0d8	-0.051178783
157	0x3db4aa01	0.08821488
158	0xbe3f92b8	-0.18708313
159	0xbcdb1561	-0.026743593
160	0x3d3f8cc8	0.04676512
161	0x3e63566f	0.2220094
162	0x3d1bf727	0.0380775
163	0x3e00c7bf	0.12576197
164	0xbbb15711	-0.0054119905
165	0x3b6788f2	0.0035329429
166	0xbd99e044	-0.075134784
167	0x3d021fa5	0.03176846
168	0x3cd77413	0.026300466
169	0x3def3991	0.11680902
170	0xbe5b940d	-0.21443196
171	0xbe8e5c76	-0.27804917
172	0xbcf06a36	-0.02934752
173	0x3dbdb631	0.09263266
174	0xbdea8eb7	-0.11453002
175	0x3cde12eb	0.02710863
176	0xbc981755	-0.018565813
177	0x3c25906b	0.010105233
178	0x3a260bac	0.00063341367
179	0xbe23c517	-0.15993153
180	0x3e98f868	0.2987702
181	0x3c348e87	0.011020309
182	0x3cad18d4	0.021130003
183	0xbd7c4d6c	-0.061597273
184	0xbe502885	-0.20327957
185	0x3db315db	0.08744403
186	0xbdb2846f	-0.08716666
187	0x3e5afc80	0.21385384
188	0xbe84386a	-0.2582429
189	0x3c2107fd	0.009828565
190	0xbe2cb8c2	-0.16867355
191	0xbc850152	-0.016235981
192	0xbd816c11	-0.0631944
193	0x3d5364b3	0.051609706
194	0xbd51fa1b	-0.05126391
195	0x3de8119e	0.11331485
196	0x3e04b3b3	0.12959175
197	0xbd496ea6	-0.04917779
198	0xbe07b16d	-0.13251276
199	0x3deeaa8c	0.11653623
200	0x3e43f679	0.1913699
201	0x3ea5e531	0.32401422
202	0xbe279a83	-0.16367535
203	0xbd7d0b7f	-0.06177854
204	0x3d2406ce	0.040045552
205	0xbe027697	-0.12740551
206	0x3c0ace59	0.008472049
207	0x3cfaf591	0.030634673
208	0x3cc859f4	0.024456955
209	0x3e17845e	0.14796588
210	0x3dc18bdf	0.094505064
211	0xbe20cbbc	-0.15702718
212	0x3e650128	0.22363722
213	0x3dcde235	0.10052911
214	0xbc138caf	-0.00900571
215	0x3e3d390d	0.18478794
216	0xbd97f36f	-0.07419478
217	0x3dfb7dfb	0.12279888
218	0x3d9fbb4a	0.077993944
219	0xbe03a859	-0.12857188
220	0xbca283fb	-0.019838324
221	0xba2ad939	-0.0006517354
222	0x3c7d61ca	0.015465209
223	0xbdbef3cd	-0.09323845
224	0xbdb27ad5	-0.087148346
225	0x3d871326	0.06595449
226	0xbd3cb7ef	-0.04607385
227	0xbe32f8fd	-0.17477794
228	0x3dfdae93	0.12386813
229	0xbde346b7	-0.11097472
230	0xbd4e4f39	-0.05036852
231	0xbdc06938	-0.09395069
232	0xbd02b2d6	-0.031908832
233	0x38be235e	9.066494e-05
234	0xbdddb3e8	-0.1082533
235	0x3ddf9dd6	0.10918777
236	0xbc26675f	-0.0101564815
237	0x3d63f919	0.05565748
238	0xbd5d9fe8	-0.054107577
239	0x3c99aec2	0.018760089
240	0xbe1853ab	-0.14875667
241	0xbe202e44	-0.15642649
242	0xbca48823	-0.020084446
243	0x3e09a295	0.13440926
244	0xbe1cc877	-0.15310846
245	0x3c89bec3	0.016814595
246	0x3da0a2eb	0.07843574
247	0x3d1b8feb	0.037979048
248	0x3db3c5cc	0.08777961
249	0xbdf81fd7	-0.12115448
250	0xbd9d61d8	-0.07684678
251	0xbddb9bbf	-0.107230656
252	0x3dfc9830	0.12333715
253	0x3e2c4f61	0.16827156
254	0x3d382fb0	0.044967353
255	0x3cb466a1	0.022021594

lstm.bias_ih_l0 f4 [128]
0	0xbc00b998	-0.007856749
1	0xbd81b66c	-0.06333622
2	0x3da92a2c	0.08259997
3	0x3dc37057	0.095429115
4	0xbd2b4488	-0.041813403
5	0x3e7418ca	0.23837581
6	0x3e117c1e	0.14207503
7	0xbdde5d12	-0.108575955
8	0x3e30d324	0.17268044
9	0xbe7a3688	-0.24434865
10	0x3d5acbba	0.053416945
11	0xbe0ae960	-0.13565588
12	0xbe5e9c43	-0.21739297
13	0x3e67acf3	0.22624569
14	0xbdbcdd91	-0.09221948
15	0x3d8c1a51	0.06840957
16	0x3debbf1f	0.11511063
17	0x3e3d6eb6	0.18499264
18	0xbb9b8a53	-0.004746714
19	0x3d4db354	0.05021985
20	0x3e4575cb	0.19283216
21	0xbd09aabf	-0.0336101
22	0xbd861526	-0.065470025
23	0xbd7fa344	-0.06241156
24	0x3dac9ead	0.084287025
25	0xbe10284a	-0.14077869
26	0xbd966275	-0.07342998
27	0x3dff156a	0.12455256
28	0x3d9729d2	0.073810235
29	0x3e084fb4	0.13311654
30	0x3e2a93fe	0.16658017
31	0xbe07f4d7	-0.13276993
32	0x3df3ca41	0.11903811
33	0xbd9794d5	-0.07401434
34	0x3e152538	0.14564979
35	0xbd382dca	-0.044965543
36	0xbe065997	-0.13120113
37	0xbdcb94a5	-0.09940461
38	0xbcde9dff	-0.027174948
39	0xbe68dbf8	-0.22740161
40	0x3dc26194	0.09491268
41	0xbe67ec53	-0.22648744
42	0x3e1b68e4	0.15176731
43	0x3cad5fe9	0.021163898
44	0xbd24ad2f	-0.040204223
45	0x3daff3bb	0.0859141
46	0xbe0f5178	-0.13995922
47	0xbe088d84	-0.13335234
48	0xbd8af5e5	-0.06785182
49	0xbd8b24f9	-0.06794161
50	0x3d91bd4c	0.07116184
51	0x3dfee959	0.12446851
52	0xbe277148	-0.16351807
53	0xbc42bbbc	-0.01188558
54	0xbdbad987	-0.09123521
55	0x3c223a1c	0.00990155
56	0x3b32f308	0.0027305502
57	0xbe05f9e1	-0.13083602
58	0xbb84ec65	-0.0040565007
59	0x3d064b4a	0.032786645
60	0xbe3ad2c4	-0.18244463
61	0xbd915ab2	-0.07097377
62	0x3de599cd	0.11210976
63	0x3d7b1538	0.061299533
64	0x3d9a5ccf	0.07537233
65	0x3d5c29d1	0.053750817
66	0xbd589605	-0.052877445
67	0x3dc0fa67	0.094227605
68	0xbdcec832	-0.10096778
69	0x3ba22f8a	0.0049495148
70	0x3db138bd	0.086534
71	0x3e030146	0.12793455
72	0x3de9cac6	0.11415629
73	0x3cbea4cf	0.023271946
74	0xbda39503	-0.07987406
75	0xbc9c8fe5	-0.019111583
76	0x3bac5c75	0.005260045
77	0x3de1752b	0.11008676
78	0x3e193826	0.14962825
79	0xbdca485c	-0.09877083
80	0xbda4512f	-0.08023297
81	0x3c572102	0.013130428
82	0xbe15a822	-0.14614919
83	0xbd8137a0	-0.06309438
84	0x3d662610	0.056188643
85	0x3d8f02b7	0.0698294
86	0xbe054c9c	-0.13017505
87	0xbdc5ea2f	-0.096638076
88	0x3c448172	0.011993753
89	0xbd9956ff	-0.07487296
90	0xbdb1e767	-0.086867146
91	0x3df67475	0.12033931
92	0x3d538756	0.05164274
93	0xbd9b994c	-0.075975984
94	0x3d450bfa	0.048107125
95	0x3dd1c714	0.10243049
96	0x3b4d207f	0.0031299887
97	0x3a009009	0.00049042754
98	0x3dce5a48	0.100758135
99	0x3c0465d3	0.008080917
100	0xbd9ce639	-0.07661099
101	0x3e08c573	0.13356571
102	0x3d4b3a9e	0.04961645
103	0xbe328582	-0.17433742
104	0x3e038ca3	0.12846617
105	0xbe176884	-0.14785963
106	0x3c044976	0.008074155
107	0xbdf03de8	-0.11730558
108	0x3d4b03fa	0.04956434
109	0xbd578e1c	-0.05262576
110	0x3d95cee3	0.07314851
111	0xbe2e8f54	-0.17046863
112	0x3c9f6efb	0.0194621
113	0x3cef30e5	0.02919812
114	0x3d961819	0.07328815
115	0xbd40754e	-0.04698687
116	0xbd4d8e72	-0.050184675
117	0xbc8757c6	-0.016521346
118	0xbdd3f601	-0.10349656
119	0x3d4a870e	0.049445204
120	0xbd962e47	-0.073330455
121	0xbe03d0fc	-0.1287269
122	0x3d9fd98b	0.07805165
123	0xbb9efe87	-0.0048521194
124	0xbcc47201	-0.023980143
125	0x3ac07fa6	0.001468648
126	0xbcbd5a9e	-0.023114499
127	0x3d9d6dd4	0.07686964

lstm.bias_hh_l0 f4 [128]
0	0xb9a4cff7	-0.00031435463
1	0x3d4194a1	0.047260884
2	0xbd51bb26	-0.05120387
3	0xbe22df2b	-0.15905444
4	0x3e348f91	0.17632891
5	0x3d38db9e	0.04513132
6	0x3d850dd6	0.064967796
7	0xbd215360	-0.039386153
8	0x3d0622d0	0.032748044
9	0xbe089095	-0.13336404
10	0xbdf37eff	-0.11889457
11	0xbdc08476	-0.09400265
12	0xbe607455	-0.21919377
13	0x3de15db3	0.110042
14	0xbdb70300	-0.08936119
15	0xbd1b0567	-0.03784695
16	0xbd9d94cd	-0.07694397
17	0x3e22f258	0.1591276
18	0xbe2b4cf8	-0.1672858
19	0x3d1c1657	0.038107242
20	0xbdcd64d7	-0.10028999
21	0xbdfb01d5	-0.12256209
22	0xbccf0fe9	-0.025276141
23	0xbe3d2ae1	-0.18473388
24	0xbc82fabc	-0.0159887
25	0x3db056d3	0.086103104
26	0x3d9661d7	0.0734288
27	0xbd5aee0a	-0.053449668
28	0x3e01ca66	0.12674865
29	0xbe25b006	-0.16180429
30	0x3dddd570	0.108317256
31	0xbd81c19c	-0.06335756
32	0xbdc35bc6	-0.09538989
33	0xbdcb5940	-0.099291325
34	0x3e2121a0	0.15735483
35	0xbd96e8bf	-0.073686115
36	0x3d6fd65a	0.05855403
37	0xbdf159bd	-0.11784694
38	0xbe085da3	-0.1331697
39	0x3dfc8139	0.12329335
40	0xbde4b196	-0.11166684
41	0x3bf5f8a9	0.0075064492
42	0x3d1750fd	0.03694247
43	0x3c9b5e43	0.018965846
44	0xbd1b71db	-0.037950378
45	0x3e4054f9	0.18782414
46	0xbe0e4652	-0.13894013
47	0xbcac38c3	-0.02102316
48	0xbe394ab4	-0.18094903
49	0xbcc86c7f	-0.024465797
50	0xbdcdc9e0	-0.1004827
51	0xbe05c883	-0.1306477
52	0xbddf8ebd	-0.10915897
53	0x3c1deac6	0.009638494
54	0xbe097371	-0.13422944
55	0x3d86b5d1	0.065776475
56	0x3ca59340	0.020211816
57	0xbe18b4f2	-0.14912775
58	0x3da46190	0.08026421
59	0xbd8ecb3d	-0.069723584
60	0xbddc7332	-0.10764159
61	0x3d186051	0.03720123
62	0xbe12052c	-0.14259785
63	0xbe273cdc	-0.1633181
64	0x3c13f84a	0.009031365
65	0x3e180e81	0.14849283
66	0x3df45a2a	0.1193126
67	0x3df965cb	0.121776186
68	0xbc590784	-0.013246421
69	0x3b99854a	0.0046850787
70	0xbdf91f2c	-0.12164149
71	0xbd37e177	-0.044892754
72	0x3c745189	0.014912018
73	0xbc108aa1	-0.008822114
74	0x3cfaafb1	0.030601354
75	0xbdb9ab10	-0.09065831
76	0x3cf14a41	0.029454352
77	0xbda1f1c3	-0.079074405
78	0xbe20fb60	-0.15720892
79	0xbbd43a16	-0.006476651
80	0xbb50353c	-0.0031770011
81	0x3dcbc067	0.09948807
82	0xbd432c4f	-0.047649678
83	0x3d66fb55	0.056392033
84	0xbca08409	-0.01959421
85	0xbe171406	-0.14753732
86	0xbd1f8c8b	-0.03895239
87	0x3de5199b	0.111865245
88	0xbe02618b	-0.12732522
89	0x3db13782	0.086531654
90	0x3c17e1be	0.00927013
91	0x3c990a99	0.018681811
92	0xbddfdc9d	-0.109307505
93	0xbd903ef6	-0.07043259
94	0xbe3215fc	-0.17391199
95	0xbd9a2fcf	-0.0752865
96	0x3e307643	0.17232613
97	0xbdf361b7	-0.11883872
98	0x3ddc070e	0.10743533
99	0xbde027a2	-0.10945059
100	0x3d94c5ff	0.07264327
101	0x3e62b7fb	0.22140495
102	0xbcffa5a7	-0.031206919
103	0x3d71b904	0.059014335
104	0xbdeabdd1	-0.11461986
105	0x3cfb7c9a	0.030699063
106	0xbd7584dd	-0.05994116
107	0xbc5fefe8	-0.013668038
108	0x3d2da350	0.042392075
109	0xbd28a430	-0.041172206
110	0xbd26b9bd	-0.040704478
111	0xbe391222	-0.18073323
112	0xbe06e9f5	-0.13175185
113	0xbaca98c5	-0.0015456906
114	0xbd8ac1cb	-0.06775244
115	0xbd6d8376	-0.0579867
116	0xbddea49a	-0.10871239
117	0xbd5a0556	-0.053227745
118	0xbe22ab2d	-0.15885611
119	0xbd8ef39d	-0.06980059
120	0x3e356986	0.17716035
121	0xbd4e3ad8	-0.050349087
122	0xbe21d3ff	-0.15803526
123	0xbdfa2827	-0.1221469
124	0xbe2e3ed6	-0.17016158
125	0x3c3d1255	0.011540015
126	0x3e2117c2	0.15731719
127	0x3dc68573	0.09693422

lstm.weight_ih_l1 f4 [128, 32]
0	0x3da14aee	0.0787562
1	0xba12987e	-0.0005592181
2	0xbd71ea50	-0.05906135
3	0x3dd4a99f	0.10383915
4	0x3e3632bf	0.17792796
5	0x3e831b68	0.25606847
6	0x3dc482c4	0.09595254
7	0xbda0ae07	-0.07845693
8	0xbd69b245	-0.057054777
9	0x3dd7266a	0.10505374
10	0x3c9fa843	0.019489413
11	0x3d542918	0.051797003
12	0x3c8675e0	0.016413629
13	0xbe864be6	-0.2622978
14	0xbd981de3	-0.074275754
15	0x3d506172	0.05087418
16	0x3ccd9c40	0.02509892
17	0xbdc205da	-0.09473772
18	0xbda7135f	-0.081579916
19	0x3e01654e	0.12636301
20	0x3db12dda	0.086513236
21	0xbdc11c12	-0.09429182
22	0x3da056e3	0.07829072
23	0xbd11134b	-0.03541879
24	0xbda1a7f4	-0.07893363
25	0xbe28d056	-0.16485724
26	0x3e0b6dd1	0.1361611
27	0x3e02ec86	0.12785539
28	0x3d6cc300	0.057803154
29	0xbe109ce6	-0.14122352
30	0xbe6e590b	-0.23276155
31	0xbad25f36	-0.0016050104
32	0x3ba58777	0.005051549
33	0xbe64486e	-0.22293255
34	0x3d533406	0.051563285
35	0xbdb383ec	-0.087653965
36	0xbe183e15	-0.14867432
37	0xbe5595bb	-0.20857899
38	0xbda02263	-0.07819059
39	0xbe36ba48	-0.17844498
40	0x3cb5c327	0.022187782
41	0x3dba85b7	0.09107535
42	0xbe003c85	-0.12523086
43	0xbd2709ef	-0.040780958
44	0x3cb24b1d	0.021764332
45	0x3bed0d16	0.007234226
46	0xbe16c54d	-0.14723702
47	0x3e682d66	0.22673568
48	0xbd980517	-0.07422846
49	0x3d359bbd	0.044337977
50	0x3e023739	0.12716378
51	0xbe49450b	-0.19655244
52	0xbe6d864e	-0.23195764
53	0xbd9cabca	-0.07649954
54	0xbe3d3a4d	-0.18479271
55	0x3d84d1a7	0.064853005
56	0x3deff033	0.11715736
57	0x3df9ad96	0.12191312
58	0x3d28deb3	0.041228008
59	0x3bf7f969	0.007567574
60	0x3e3c22f0	0.18372703
61	0xbd6c952b	-0.057759445
62	0x3e03ee68	0.12883914
63	0x3d8523ed	0.06500993
64	0xbe1d092f	-0.15335535
65	0xbddb078d	-0.106947996
66	0x3e5e89cd	0.21732254
67	0x3d8887d8	0.06666535
68	0xbe0c8bb0	-0.13725162
69	0x3e322172	0.17395571
70	0x3e5f4984	0.21805388
71	0x3daadfad	0.08343444
72	0x3dd95aa4	0.106129915
73	0x3e08af9e	0.13348243
74	0x3e108f50	0.1411717
75	0xbc5ad56a	-0.013356546
76	0xbd7a2c20	-0.061077237
77	0xbe41ca94	-0.18924934
78	0xbbc45978	-0.005992111
79	0xbe0b6161	-0.13611366
80	0xbdf05591	-0.117350705
81	0x3caa9bf2	0.020826314
82	0xbbf9c1c6	-0.0076219765
83	0x3e5ecc5f	0.21757649
84	0x3c374642	0.011186184
85	0xbe1bfc8c	-0.15233058
86	0xbd569a7d	-0.052393425
87	0x3cdc233b	0.026872268
88	0x3dd3a0bb	0.10333391
89	0xbe333eed	-0.17504473
90	0x3d84be88	0.064816535
91	0x3da92965	0.082598485
92	0xbd8ad26c	-0.06778416
93	0x3c75a91a	0.01499393
94	0xbdb6dff6	-0.08929436
95	0x3e015a0c	0.12632006
96	0xbd8ce3a1	-0.06879354
97	0xbcaf45be	-0.02139556
98	0xbd4ba6eb	-0.049719732
99	0xbda8d41d	-0.082435824
100	0xbe320452	-0.1738446
101	0x3d350bc3	0.04420067
102	0xbd3821a3	-0.044953953
103	0xbe21ebec	-0.15812653
104	0x3ddf7797	0.10911482
105	0x3d63e6d1	0.055640046
106	0xbe2e491e	-0.1702008
107	0xbe122c80	-0.14274788
108	0xbdc16b0e	-0.09444247
109	0xbcfbcf8b	-0.030738613
110	0x3d97507d	0.07388399
111	0x3e199992	0.14999989
112	0x3cb957c3	0.022624856
113	0x3d1b9560	0.037984252
114	0x3d7e5ae7	0.06209841
115	0xbd92d874	-0.071701914
116	0xbd88a07c	-0.06671235
117	0xbe53d972	-0.20688418
118	0xbe632d4c	-0.22185248
119	0xbdac3902	-0.08409311
120	0x3c9a70c4	0.018852599
121	0x3e38d2fe	0.18049237
122	0x3db043b7	0.086066656
123	0xbde6c8ed	-0.11268792
124	0x3c9e1591	0.019297393
125	0xbdb857d0	-0.09001124
126	0xbe0e9380	-0.13923454
127	0x3cf35e29	0.029707985
128	0xbddf9996	-0.10917966
129	0xbca59e3d	-0.020217055
130	0x3ca36f04	0.019950397
131	0x3e56acc9	0.2096435
132	0x3d473153	0.048631024
133	0x3dc56c32	0.09639777
134	0x3e76cee5	0.24102362
135	0x3e3350cf	0.17511295
136	0xbac81223	-0.0015264194
137	0x3d5cb428	0.053882748
138	0x3e492175	0.19641669
139	0xbdd4840f	-0.10376751
140	0x3e358f53	0.17730455
141	0xbdb7911d	-0.08963225
142	0x3e504cf1	0.20341851
143	0xbde87f9e	-0.11352466
144	0x3bc65a96	0.006053279
145	0xbda99903	-0.08281138
146	0xbe21b108	-0.15790188
147	0x3e0b9a9e	0.136332
148	0x3e080bd0	0.13285756
149	0xbd007341	-0.031359915
150	0x3e13776b	0.14401023
151	0x3d86e4ba	0.06586595
152	0xbde2bb6e	-0.110709056
153	0xbc1a8103	-0.009430173
154	0x3b00c43b	0.0019648212
155	0xbdd2fd33	-0.103022
156	0xbe4f19fc	-0.20224756
157	0x3cb466d5	0.02202169
158	0xbc4f9199	-0.0126689905
159	0x3dfad3dc	0.1224744
160	0xbdbb35b5	-0.09141103
161	0x3dc6fd62	0.09716298
162	0x3bbac8fd	0.005700229
163	0x3e2c2fae	0.16815063
164	0xbdb5c035	-0.08874551
165	0xbd0e3cbe	-0.034725897
166	0xbca8611b	-0.020554116
167	0x3e471a68	0.19443667
168	0x3dcf3dd4	0.10119215
169	0xbd7d51b5	-0.0618455
170	0x3b38badd	0.002818755
171	0x3ce86d03	0.028372293
172	0xbdbe56ef	-0.09293925
173	0xbe1b6f78	-0.1517924
174	0x3d3385b1	0.04382867
175	0xbe0a18b8	-0.13485992
176	0x3df0d3fb	0.11759182
177	0xbe4ec72a	-0.20193163
178	0xbdb458f7	-0.08806031
179	0x3e6ba599	0.23012389
180	0x3dbaafec	0.09115586
181	0xbd46bad5	-0.04851802
182	0xbe46163f	-0.19344424
183	0xbd0c771f	-0.03429329
184	0xbe49a2bd	-0.19690986
185	0x3d8fea5b	0.07027122
186	0xbe2ffde5	-0.17186697
187	0xbdc907cf	-0.098159425
188	0x3d90201a	0.07037373
189	0xbd9c92e0	-0.07645202
190	0xbe7098a5	-0.2349573
191	0x3c92037c	0.017823927
192	0x3e136762	0.14394906
193	0xbd8be65e	-0.068310484
194	0xbd104b75	-0.03522821
195	0x3d004339	0.03131411
196	0xbe2a0303	-0.16602711
197	0x3d128e62	0.035780318
198	0xbca00eaa	-0.019538242
199	0xbb1d84d4	-0.002403547
200	0x3d608d7b	0.054822426
201	0x3e417895	0.18893655
202	0xbd3c46e4	-0.045966044
203	0x3e57e921	0.21085025
204	0xbe1e1d03	-0.15440755
205	0x3d1fc692	0.03900773
206	0x3cef343f	0.029199718
207	0x3e90e9b9	0.28303316
208	0x3e32b2c4	0.17451006
209	0xbdf7e841	-0.12104846
210	0x39c2c38e	0.00037148263
211	0x3e3a3903	0.1818581
212	0xbcc39184	-0.023873098
213	0xbd036b9b	-0.032085042
214	0x3debd015	0.11514298
215	0x3e39ee06	0.18157205
216	0x3eb2ff8d	0.34960595
217	0xbd834772	-0.064101115
218	0xbbf7ad56	-0.007558505
219	0x3d01b6a5	0.031668324
220	0x3e4a5f39	0.19762887
221	0x3d608c62	0.05482138
222	0x3ea8859e	0.32914442
223	0x3de5d419	0.11222095
224	0xbdd90a70	-0.10597694
225	0xbe9a9cc9	-0.30197743
226	0x3caa1860	0.020763576
227	0xbdbb9d1c	-0.091608256
228	0x3da38daf	0.079860084
229	0x3d69a8e9	0.05704585
230	0xbe00a3a6	-0.12562427
231	0xbe7db6b8	-0.24776733
232	0x3e2544d9	0.16139545
233	0x3da228f7	0.0791797
234	0xbd37f107	-0.044907596
235	0x3e38801c	0.1801762
236	0xbcd8a252	-0.026444588
237	0xbdc30890	-0.095231175
238	0x3cc7883f	0.02435696
239	0x3e13f746	0.14449796
240	0xbd6ac4d0	-0.0573166
241	0x3bff9585	0.0077998065
242	0xbd4e0882	-0.050301082
243	0xbb99d279	-0.0046942797
244	0xbe30fa54	-0.17282993
245	0xbe219d16	-0.1578258
246	0xbd63882a	-0.055549778
247	0x3c9602ed	0.018311942
248	0x3d62b953	0.05535252
249	0xbdba836b	-0.09107097
250	0x3d8534d5	0.065042175
251	0xbddbdb23	-0.107351564
252	0x3e8f0852	0.27936035
253	0xbd632fd2	-0.055465527
254	0x3e9d0247	0.306658
255	0xbe0f3f51	-0.13988997

lstm.weight_hh_l1 f4 [128, 32]
0	0x3e5efe85	0.21776779
1	0x3e1e35e4	0.15450245
2	0x3d89fa3b	0.06737181
3	0x3dbda38c	0.0925971
4	0xbafa41be	-0.0019093079
5	0xbde52ad8	-0.111898124
6	0xbca3390d	-0.019924665
7	0xbda2f4a0	-0.07956815
8	0x3de4590a	0.11149795
9	0x3d1e842f	0.03870028
10	0x3e568773	0.20950107
11	0x3cef97ce	0.02924719
12	0x3e27deb5	0.1639355
13	0x3e4e2d48	0.20134461
14	0x3db75201	0.08951188
15	0x3dc939e0	0.09825492
16	0x3e00e0ca	0.1258575
17	0xbbe2d24d	-0.0069220425
18	0xbd2a5f95	-0.04159506
19	0x3d9492d0	0.07254565
20	0xbdcb95af	-0.09940659
21	0xbd2d6fdf	-0.042343017
22	0x3dd51021	0.10403467
23	0xbc3e406c	-0.011612039
24	0xbe31b25a	-0.17353192
25	0xbd76aee1	-0.06022537
26	0x3da69295	0.08133427
27	0xbc2caba5	-0.01053897
28	0x3d22f70c	0.039786384
29	0x3ba08f66	0.004899907
30	0xbd27d3f2	-0.04097361
31	0x3cfee2cd	0.031114006
32	0x3da0a4c6	0.07843928
33	0x3df43d3e	0.119257435
34	0x3e1024c3	0.14076523
35	0x3d6127d3	0.05496962
36	0x3d124050	0.035705864
37	0x3db47a6b	0.08812412
38	0xbdcefdd6	-0.10107009
39	0x3ddbf979	0.107409425
40	0x3dd97db4	0.10619679
41	0x3d82243b	0.06354567
42	0xbe195c0f	-0.14976524
43	0x3d7c5c21	0.0616113
44	0xbde1c2de	-0.11023496
45	0xbdb676b9	-0.08909363
46	0x3d04a15d	0.03238045
47	0x3d7f0ebc	0.06226991
48	0x3e01c810	0.12673974
49	0xbba75077	-0.0051060277
50	0x3e117f67	0.14208756
51	0x3dac68db	0.08418437
52	0xbd7e5d8f	-0.062100943
53	0x3de5b293	0.11215701
54	0x3dfaf47d	0.12253664
55	0xbd8455d0	-0.0646168
56	0xbdcbd916	-0.09953515
57	0xbceb291b	-0.028706124
58	0x3e078668	0.13234866
59	0xbdd92991	-0.10603631
60	0x3d4db3a2	0.05022014
61	0xbda256a7	-0.07926684
62	0xbdc34e8c	-0.09536466
63	0x3da18b51	0.078879006
64	0x3cf12068	0.029434398
65	0x3dc0b28b	0.09409054
66	0xbdc75b71	-0.09734238
67	0x3cd5316c	0.026024543
68	0x3d3d8304	0.046267524
69	0xbe563408	-0.20918286
70	0x3d80a4f6	0.06281464
71	0xbe5a0a5c	-0.21293014
72	0x3e2f83ac	0.17140073
73	0xbe0bc9d9	-0.13651218
74	0xbda92177	-0.08258336
75	0xbe508f11	-0.20367076
76	0xbd2ff0eb	-0.042954367
77	0xbd4ee69e	-0.050512902
78	0xbe02a2fe	-0.12757489
79	0x3e34ad84	0.17644316
80	0xbdfa98d9	-0.122361846
81	0xbcf7b135	-0.030235866
82	0x3db57aa9	0.08861286
83	0xbe199960	-0.14999914
84	0xbc4590aa	-0.012058416
85	0x3d78547e	0.060627453
86	0x3d05187a	0.032494046
87	0x3e0350c9	0.12823786
88	0x3e3b920b	0.1831743
89	0x3e2c730a	0.16840759
90	0x3e2203e9	0.15821804
91	0x3d842f2c	0.0645431
92	0x3d0b5438	0.034015864
93	0xbd9136e6	-0.07090549
94	0xbd2f0d9a	-0.04273758
95	0xbc02ea2a	-0.007990399
96	0x3e592a55	0.21207555
97	0x3d8a10d9	0.06741495
98	0x3e0ee200	0.139534
99	0x3dc9680b	0.09834298
100	0xbb7297fa	-0.0037016855
101	0xbdb6f3d5	-0.08933226
102	0x3e1e8db1	0.15483738
103	0xbe624eb6	-0.22100338
104	0xbd872b84	-0.06600097
105	0xbd484be6	-0.048900507
106	0xbdae5e24	-0.0851405
107	0xbe3a0cad	-0.18168898
108	0xbdc4d762	-0.096113935
109	0x3d8b00ff	0.06787299
110	0x3ce49315	0.027902165
111	0x3e510efd	0.20415874
112	0x3e563184	0.20917326
113	0xbe255125	-0.16144235
114	0x3d7e8284	0.06213619
115	0x3dd61fae	0.10455261
116	0xbd97029f	-0.07373547
117	0xbd98b5a8	-0.07456523
118	0xbe46d8a4	-0.1941858
119	0xbd9dcd79	-0.077052064
120	0xbd6975e0	-0.05699718
121	0x3d1a7fac	0.037719414
122	0xbdb13bb4	-0.086539656
123	0xbe2c4529	-0.16823258
124	0xbdc1c6f3	-0.09461775
125	0xbda6e7a0	-0.08149648
126	0x3bd07b70	0.006362371
127	0xbe21ca3e	-0.15799806
128	0xbd665b63	-0.056239497
129	0xbe340d4c	-0.17583197
130	0x3cc5dff4	0.02415464
131	0x3d955878	0.07292265
132	0x3e194ab5	0.14969905
133	0xbc01bf40	-0.007919133
134	0xbd42ca3b	-0.047556143
135	0x3cab4e58	0.02091138
136	0xbe8025d3	-0.25028858
137	0xbc3ff0bf	-0.011715113
138	0xbe2bc443	-0.16774087
139	0xbe3e8562	-0.18605569
140	0x3e7ec92e	0.24881431
141	0xbe060625	-0.13088281
142	0x3e2b8eb2	0.16753653
143	0x3e068125	0.13135202
144	0x3dcf0ac4	0.10109475
145	0x3c8056c9	0.015666382
146	0x3da83942	0.08214046
147	0x3e4a01cb	0.19727246
148	0x3e066614	0.13124877
149	0x3d213ca6	0.03936448
150	0xbe0850fd	-0.13312145
151	0xbd6a32a8	-0.057177216
152	0x3db8ea4e	0.09029065
153	0x3d19b3cf	0.037524994
154	0xbdf10b93	-0.11769786
155	0x3dd20d63	0.102564596
156	0x3dee7296	0.11642949
157	0xbd2d095b	-0.04224525
158	0x3c6d0e36	0.01446872
159	0x3d0d7d15	0.034543116
160	0x3c34557c	0.011006709
161	0xbe216e65	-0.15764768
162	0xbe11cacb	-0.14237516
163	0xbd3a292f	-0.045449432
164	0xbc84007c	-0.016113512
165	0xbe03bd26	-0.12865123
166	0xbb875195	-0.0041295984
167	0xbc97b7f6	-0.018520337
168	0x3de28cdb	0.11062022
169	0xbba15783	-0.0049237623
170	0x3c050b12	0.008120315
171	0x3dc399f7	0.09550851
172	0xbc96588d	-0.018352771
173	0xbcaba15a	-0.020950962
174	0xbd956a9d	-0.072957255
175	0xbbfb03dd	-0.0076603726
176	0x3e08ba80	0.13352394
177	0x3c842d74	0.016134955
178	0xbe066832	-0.13125685
179	0x3c5e9c73	0.013587105
180	0x3d4848b3	0.048897456
181	0x3daa581d	0.083175875
182	0x3daa5681	0.083172806
183	0x3d41e80c	0.047340438
184	0xbdc2e0dc	-0.09515545
185	0xbda457c7	-0.08024555
186	0x3de0741a	0.109596446
187	0x3e117276	0.1420382
188	0x3db5e164	0.088808805
189	0x3cdeb644	0.02718652
190	0x3dcad6e3	0.09904268
191	0xbe0359ae	-0.12827179
192	0xbc1c7ee8	-0.009551741
193	0x3d9354b7	0.071938924
194	0xbe2ea312	-0.17054394
195	0x3db91a56	0.09038226
196	0x3ba96060	0.0051689595
197	0xbe1dccfe	-0.1541023
198	0x3e03e2dc	0.12879509
199	0xbc48e924	-0.012262616
200	0xbdaf59d8	-0.08562058
201	0xbe089bab	-0.13340633
202	0xbd55a56b	-0.052159708
203	0x3ca45e92	0.020064626
204	0xbe156f84	-0.14593321
205	0x3c7b74f2	0.015347706
206	0x3db51d06	0.088434264
207	0x3db0ac70	0.0862664
208	0x3d11b584	0.035573497
209	0xbe2c8258	-0.16846597
210	0x3ccf58b7	0.025310857
211	0x3d7bd7f2	0.06148524
212	0x3d6e4e15	0.058179934
213	0xbda40b4f	-0.080099694
214	0x3dd1d9b5	0.102466024
215	0x3cef2180	0.029190779
216	0xbd8c1c27	-0.06841307
217	0xbdd6ac22	-0.104820505
218	0x3e3f2199	0.1866516
219	0xbdb3374b	-0.08750781
220	0x3cf3753d	0.02971899
221	0xbce0563b	-0.027384868
222	0xbe01ed59	-0.12688197
223	0xbe2a7a75	-0.16648276
224	0xbdf763c1	-0.120795734
225	0x3d9638e1	0.073350675
226	0xbd893a5f	-0.067005865
227	0xbd2d54c2	-0.04231716
228	0xbd19af7d	-0.037520874
229	0x3d637039	0.055526946
230	0x3c580bb6	0.013186386
231	0xbdceac7e	-0.10091494
232	0x3d0a8b81	0.033824448
233	0xbd1727ef	-0.036903318
234	0x3dd8bf6a	0.10583384
235	0x3d482dd0	0.048871815
236	0xbd301228	-0.042986065
237	0xbd48a2ac	-0.04898326
238	0xbd37abe4	-0.044841662
239	0xbd8081cb	-0.06274756
240	0xbde7f9c2	-0.113269344
241	0x3c532ef4	0.0128896125
242	0x3e576828	0.21035826
243	0x3ca8d568	0.020609573
244	0x3df729ab	0.120684944
245	0xbb00604d	-0.001958865
246	0x3e88d305	0.26723495
247	0x3dfafe4c	0.122555345
248	0xbe2053cf	-0.1565697
249	0x3cda42ea	0.026643235
250	0xbe830afe	-0.25594324
251	0x3d1a7344	0.037707582
252	0xbca0488c	-0.019565843
253	0x3d209828	0.039207608
254	0xbeabfcdc	-0.33591354
255	0xbde7c394	-0.113166004

lstm.bias_ih_l1 f4 [128]
0	0x3e1c9df2	0.15294626
1	0x3e26c884	0.16287428
2	0xbdda9942	-0.10673763
3	0x3e3e4f06	0.18584833
4	0x3e0c04e3	0.13673739
5	0x3dd009ca	0.10158117
6	0xbcf6d818	-0.030132338
7	0x3c6f0e4d	0.014590812
8	0xbdce1d98	-0.10064238
9	0xbdbad68c	-0.09122953
10	0x3e14752c	0.14497823
11	0xbd093c0e	-0.03350454
12	0x3e0dbc15	0.13841279
13	0xbe3695f7	-0.17830645
14	0xbdb6192a	-0.088915184
15	0xbde5ce24	-0.11220959
16	0x3ded26f0	0.11579692
17	0xbe1c720a	-0.15277877
18	0xbd739d05	-0.059475917
19	0xb99c5ae6	-0.00029822363
20	0xbcc06e8e	-0.023490217
21	0x3d75956a	0.059956945
22	0xbe6de999	-0.23233642
23	0xbd50a0f1	-0.050934736
24	0xbe7686b0	-0.24074817
25	0x3d266092	0.04061944
26	0x3c19faf8	0.0093982145
27	0xbe52f9e5	-0.2060314
28	0x3e5f59f2	0.21811655
29	0x3e24d880	0.16098213
30	0x3cd512cf	0.026009945
31	0xbca687de	-0.020328458
32	0x3dae652a	0.08515389
33	0xbd97a8ac	-0.074052185
34	0xbc651164	-0.013981197
35	0xbc91a619	-0.017779397
36	0x3e3247e8	0.17410243
37	0x3cc3686d	0.023853505
38	0x3dd40b9b	0.10353776
39	0xbe374aa7	-0.17899571
40	0xbd29ce6e	-0.041456632
41	0xbe822d41	-0.2542515
42	0x3e3d58f9	0.18490972
43	0xbce03dda	-0.027373243
44	0x3d23ac00	0.039958954
45	0xbdef9a18	-0.11699313
46	0xbdccb548	-0.09995514
47	0xbd44ddc7	-0.048063066
48	0x3e0e6b31	0.13908078
49	0xbe22d9d8	-0.15903413
50	0xbdf96557	-0.12177532
51	0xbe0453af	-0.12922548
52	0xbcc5c3d1	-0.024141224
53	0x3c20a42f	0.009804769
54	0xbe3d2a0f	-0.18473075
55	0xbe0a6f99	-0.13519134
56	0xbe3b1b30	-0.1827209
57	0xbe16d06b	-0.14727943
58	0x3d66f5ad	0.05638664
59	0xbe5d66d4	-0.21621257
60	0xbe0be9e8	-0.13663447
61	0xbdc8e430	-0.09809148
62	0x3da990b7	0.08279555
63	0xbdd46b3f	-0.10372018
64	0x3cf23a1c	0.029568724
65	0xbe0b62a1	-0.13611843
66	0xbd385a8f	-0.04500824
67	0xbdf09468	-0.11747056
68	0xbe0f8a62	-0.14017633
69	0xbe2812d1	-0.16413428
70	0xbc8fa485	-0.017534504
71	0x3d084174	0.033265546
72	0xbda6d4b0	-0.08146036
73	0x3d89c7cb	0.067275606
74	0x3d06a9d4	0.032876804
75	0xbe15b0c7	-0.14618216
76	0xba3a6510	-0.00071103964
77	0x3cc01780	0.023448706
78	0xbcf77026	-0.030204844
79	0x3cf674f0	0.030085057
80	0x3d5b11fe	0.053483956
81	0x3d9396d4	0.072065026
82	0x3ccb48d0	0.024814993
83	0x3e184e7c	0.1487369
84	0xbde4ad90	-0.11165917
85	0xbc58587c	-0.01320469
86	0x3dbf010c	0.093263716
87	0x3dd49bdb	0.103812896
88	0xbd1f79b4	-0.038934425
89	0x3e23c823	0.15994315
90	0x3d3eaab4	0.046549514
91	0xbd29e048	-0.041473657
92	0x3e007064	0.12542874
93	0xbccefe92	-0.025267873
94	0x3df08db6	0.11745779
95	0x3d93f09f	0.07223629
96	0x3e165761	0.1468177
97	0xbd9173dd	-0.07102177
98	0x3d615d93	0.05502088
99	0x3d5eaaad	0.054361988
100	0x3e585f66	0.21130142
101	0xbd8781a6	-0.06616525
102	0xbe151c6f	-0.14561628
103	0xbe72b7e5	-0.23702963
104	0x3e164588	0.14674962
105	0x3d131a5d	0.035913814
106	0xbc4f1a6c	-0.012640577
107	0xbe05630e	-0.13026068
108	0x3dd4ea75	0.10396282
109	0xbd9d9b3e	-0.07695626
110	0x3e2329ca	0.1593391
111	0x3e33254e	0.174947
112	0x3e3fc32a	0.18726793
113	0x3dd24edd	0.10268948
114	0xbd0a58db	-0.033776145
115	0xbc7be965	-0.01537547
116	0x3e41e696	0.18935618
117	0x3cd97746	0.026546132
118	0xbd2cc3ba	-0.042178847
119	0xbe24ad2f	-0.1608169
120	0x3c997d23	0.018736428
121	0xbd24e858	-0.040260643
122	0xbdb3a9e2	-0.08772637
123	0xbba1f389	-0.0049423617
124	0xbd3fb49a	-0.046803094
125	0xbd3d01c7	-0.046144273
126	0xbdd6a9a3	-0.104815744
127	0xbd7c5c15	-0.061611254

lstm.bias_hh_l1 f4 [128]
0	0x3da486df	0.08033537
1	0x3d5933e5	0.053028006
2	0x3e141f13	0.14464979
3	0x3e149b6e	0.14512417
4	0x3dad410e	0.08459674
5	0xbd37372c	-0.04473035
6	0xbd2172dc	-0.03941618
7	0xbd05df35	-0.03268357
8	0x3c9a7b9d	0.018857772
9	0xbe658a89	-0.22416128
10	0x3d27577e	0.040854923
11	0x3cc54e48	0.024085179
12	0xbd90b338	-0.07065433
13	0xbe2cea97	-0.16886364
14	0x3e3bf16e	0.18353817
15	0x3e275553	0.16341142
16	0x3e13f23d	0.14447875
17	0x3dc6a54c	0.096994966
18	0x3e01db67	0.12681352
19	0xbb33acef	-0.002741631
20	0xbd7a34ca	-0.0610855
21	0xbc17a7dc	-0.009256329
22	0xbd81fa81	-0.06346608
23	0xbda94d7f	-0.08266734
24	0x3ab24c24	0.0013603014
25	0xbe15a08e	-0.14612028
26	0x3dcd00b8	0.10009903
27	0xbcacd09a	-0.021095563
28	0x3e34c112	0.17651775
29	0xbd2ce0d9	-0.04220662
30	0xbe3788e7	-0.17923318
31	0xbdc61838	-0.09672588
32	0xbd40165f	-0.046896335
33	0xbd931a69	-0.07182772
34	0x3e1194ca	0.14216915
35	0x3e1ef3f1	0.15522744
36	0x3d80df65	0.06292609
37	0xbde2cdfe	-0.11074446
38	0x3e08af85	0.13348205
39	0xbe9b4368	-0.30324864
40	0xbe1a9834	-0.15097123
41	0xbce4190c	-0.027843975
42	0x3d7a4613	0.061101984
43	0x3e22cc8f	0.15898345
44	0x3e0bf1c7	0.1366645
45	0xbe4d95df	-0.20076703
46	0x3d3802d8	0.044924587
47	0xbcf68822	-0.03009421
48	0x3e419ccb	0.18907468
49	0xbe29accb	-0.16569822
50	0xbe417cc3	-0.18895249
51	0x3e1f0052	0.15527466
52	0xbd3eb4ad	-0.046559025
53	0x3e0e97d7	0.1392511
54	0xbd00b423	-0.03142179
55	0xbdb8c0ad	-0.09021125
56	0xbd90096c	-0.07033047
57	0xbe114fa6	-0.1419054
58	0x3e0ac946	0.13553342
59	0xbe1a114f	-0.15045665
60	0x3e2758ca	0.16342464
61	0x3afb2c11	0.0019162913
62	0x3d0c9f9b	0.0343319
63	0xbe760747	-0.24026214
64	0x3e1f48d2	0.15555122
65	0x3d1e9eac	0.03872554
66	0x3d47da2f	0.04879206
67	0x3e071fc7	0.13195716
68	0x3de6b6f4	0.11265364
69	0x3d8bf354	0.068335205
70	0x3de06dc3	0.109584354
71	0x3c6519a8	0.013983168
72	0xbcd608da	-0.026127268
73	0x3c50e7dc	0.012750592
74	0xbd7dcb69	-0.061961565
75	0xbd968f35	-0.07351533
76	0x3e1e8465	0.15480192
77	0xbd32d2a7	-0.043657925
78	0x3db03772	0.08604325
79	0x3e203a96	0.15647349
80	0x3dcca3a2	0.09992148
81	0xbbc539d4	-0.0060188565
82	0x3ba646bd	0.0050743506
83	0xbd8a05fb	-0.06739422
84	0x3e24be8c	0.16088313
85	0x3e2544b4	0.1613949
86	0xbd5fb288	-0.05461362
87	0x3d1d0012	0.038330145
88	0xbddc04aa	-0.10743077
89	0x3e19e2af	0.15027879
90	0xbddfea65	-0.10933379
91	0x3d12c830	0.035835445
92	0xbd883180	-0.066500664
93	0xbd62a329	-0.055331383
94	0x3d358c20	0.044323087
95	0x3c2418db	0.010015692
96	0x3c30146a	0.010747055
97	0x3d0b68f1	0.034035627
98	0xbd699820	-0.057029843
99	0xbcd84927	-0.02640207
100	0xbdc9ef2b	-0.09860071
101	0x3e3fcade	0.18729731
102	0xbc4743fd	-0.012162206
103	0x3d96d243	0.07364323
104	0xbe042146	-0.12903318
105	0xbccda37f	-0.025102375
106	0x3b61e649	0.0034469536
107	0x3e2474f1	0.16060235
108	0xbdde7c8b	-0.108635984
109	0x3d9c4c88	0.07631785
110	0x3cf9238c	0.030412458
111	0x3e186184	0.1488095
112	0x3e00327e	0.12519261
113	0xbe2657a4	-0.1624437
114	0x3d204bfb	0.03913496
115	0x3e3353ab	0.17512386
116	0xbd746038	-0.059662074
117	0x3cd109ca	0.025517363
118	0x3d8bf367	0.06833535
119	0xbdad3927	-0.084581666
120	0x3d418a56	0.047251068
121	0x3d81faa3	0.06346633
122	0x3d0e28ff	0.034707066
123	0xbb020294	-0.0019837962
124	0xbc88c3f5	-0.016695002
125	0xbd272a83	-0.040812027
126	0xbe30a004	-0.17248541
127	0x3d35bf81	0.044372085

fc.weight f4 [1, 32]
0	0x3e4d28dd	0.2003512
1	0x3df0190a	0.11723526
2	0x3e55a1ac	0.20862454
3	0xbe2c7bf9	-0.16844167
4	0xbe578258	-0.21045816
5	0xbe682fcb	-0.22674482
6	0xbc961c2e	-0.018323984
7	0x3e06909e	0.13141105
8	0x3e11e2cc	0.14246672
9	0x3d9e6d74	0.0773572
10	0x3e0a47dd	0.13503976
11	0xbe67dc1d	-0.2264256
12	0xbd80505d	-0.06265328
13	0xbcef23dd	-0.029191906
14	0x3d97852c	0.073984474
15	0x3e496600	0.19667816
16	0xbe425bdb	-0.18980353
17	0xbdd3dccc	-0.10344848
18	0xbe1dbbeb	-0.15403716
19	0xbe0585a9	-0.13039269
20	0xbe083270	-0.1330049
21	0xbe274868	-0.16336215
22	0xbe308203	-0.17237096
23	0xbde7da65	-0.11320952
24	0x3d8cb20a	0.06869896
25	0xbc853272	-0.016259406
26	0x3db9fe7a	0.09081741
27	0x3cb5234e	0.022111561
28	0x3e422949	0.18961062
29	0x3e0ddd04	0.13853842
30	0x3d9ec216	0.07751863
31	0x3dcc341d	0.09970877
