backend/stocks/price/pt_models/AIRG.pt (torch, 54435 bytes, 9 tensors)

lstm.weight_ih_l0 f4 [128, 1]
0	0x3e531d9c	0.20616764
1	0xbe7308ef	-0.23733877
2	0xbe823caa	-0.25436908
3	0xbd8072c5	-0.062718906
4	0xbe6cfe7b	-0.23143952
5	0x3dc1551e	0.09440063
6	0xbddb89a2	-0.10719611
7	0x3d0dbc81	0.0346036
8	0xbe88fe76	-0.26756638
9	0x3d1f0c67	0.038830187
10	0x3d7e6176	0.062104665
11	0xbe646822	-0.22305349
12	0xbdc2132d	-0.09476314
13	0x3d80ab55	0.06282679
14	0xbe9fc0c9	-0.3120177
15	0xbce73c2a	-0.02822693
16	0xbe0e0a59	-0.13871135
17	0xbd8baa03	-0.068195365
18	0x3d1f887e	0.03894853
19	0x3e0bf485	0.13667496
20	0xbe611338	-0.21979988
21	0x3d64de6d	0.055876184
22	0xbeb22dce	-0.3480057
23	0x3efcd6d8	0.49382663
24	0x3e31d3c3	0.17365937
25	0x3e95a0e2	0.29224306
26	0x3b80bd49	0.0039288145
27	0xbe4db166	-0.20087203
28	0x3c01fa50	0.007933214
29	0x3e3a56a1	0.18197109
30	0xbdd1ea55	-0.102497734
31	0xbca39bac	-0.019971691
32	0x3cf70103	0.03015185
33	0xbe7eaf2e	-0.24871513
34	0x3c325ba4	0.010886107
35	0x3d9eb3a8	0.077491105
36	0xbd874efa	-0.066068605
37	0x3e285a06	0.16440591
38	0xbe08d072	-0.13360766
39	0xbd531913	-0.051537585
40	0xbd04b7d9	-0.032401893
41	0xbe8bf6c1	-0.27336696
42	0x3d0ab419	0.03386316
43	0xbe76128e	-0.24030516
44	0xbe32cf3d	-0.17461868
45	0xbdfe7946	-0.12425475
46	0xbeb576fc	-0.3544234
47	0xbe92f54c	-0.28702772
48	0xbbe7b34b	-0.007070934
49	0xbe59c4e0	-0.21266508
50	0x3e068261	0.13135673
51	0x3ca20deb	0.019782027
52	0xbe5d0491	-0.21583773
53	0x3e55ffb9	0.20898332
54	0xbeace9b5	-0.33772054
55	0x3ebcb591	0.36857274
56	0x3ef39dcf	0.47581336
57	0x3ddd3a04	0.10802081
58	0xbe50ec63	-0.20402674
59	0xbe983f3a	-0.29735738
60	0x3e040227	0.12891446
61	0x3d11ba73	0.035578202
62	0x3e36814a	0.17822757
63	0x3e0d7d8f	0.13817428
64	0xbe3fbbc2	-0.18723968
65	0x3e22d704	0.15902334
66	0xbea7320e	-0.32655376
67	0x3d116af5	0.035502393
68	0x3ee20506	0.44144458
69	0xbeb56f73	-0.35436592
70	0xbe9fdf96	-0.3122527
71	0xbebe3ff6	-0.37158173
72	0xbeb7254d	-0.35770646
73	0xbee446ad	-0.4458517
74	0x3e900a13	0.28132686
75	0x3ebbb14a	0.36658698
76	0x3ce082d3	0.027406132
77	0xbed2b5a1	-0.41154197
78	0xbe3cff36	-0.1845673
79	0xbeb68f06	-0.35655993
80	0xbd905ea2	-0.070493
81	0x3d055bb6	0.032558165
82	0xbe6ce41f	-0.23133896
83	0x3e0ef85d	0.1396193
84	0x3d89c788	0.06727511
85	0xbebefaa6	-0.37300605
86	0xbed4b7ab	-0.41546378
87	0xbec5c300	-0.38625336
88	0xbe8ff566	-0.28116912
89	0xbeb437d0	-0.35198832
90	0xbe9c9e28	-0.30589414
91	0x3edac537	0.42728588
92	0xbe4f43d6	-0.20240721
93	0xbca8ba5b	-0.020596674
94	0x3e347c37	0.17625509
95	0x3e6ea781	0.23306085
96	0x3e09723d	0.13422485
97	0xbe93e763	-0.28887472
98	0xbd99e211	-0.07513822
99	0xbc81d787	-0.015849842
100	0xbe0e7369	-0.13911213
101	0x3e56dfea	0.20983854
102	0xbe88d847	-0.26727507
103	0x3d86f98b	0.06590565
104	0xbde1bce6	-0.11022358
105	0x3d911614	0.07084289
106	0x3e5f2bfa	0.2179412
107	0xbe938a17	-0.28816292
108	0xbe97a6f2	-0.29619557
109	0x3e8d5271	0.2760196
110	0xbe34f8d8	-0.17673051
111	0x3ca958ee	0.020672288
112	0xbe91c9dd	-0.28474322
113	0xbd4d4371	-0.050113145
114	0x3eae7acf	0.3407807
115	0x3e443d38	0.19163978
116	0xbd2bb7a2	-0.041923173
117	0xbd8aecb5	-0.067834295
118	0xbe5535e4	-0.20821339
119	0x3e8de714	0.2771536
120	0x3e97b99c	0.29633796
121	0x3e39c228	0.18140471
122	0xbc0bdcf1	-0.008536563
123	0xbe845264	-0.2584411
124	0xbd633901	-0.055474285
125	0x3d3ea7e6	0.04654684
126	0xbd08f3b7	-0.03343555
127	0x3e774aea	0.24149671

lstm.weight_hh_l0 f4 [128, 32]
0	0x3d8a38d6	0.06749122
1	0xbd4dd7c2	-0.05025459
2	0x3d0c5cf9	0.034268353
3	0xbdc51b8e	-0.09624396
4	0x3e4ee135	0.20203097
5	0x3d3ff13a	0.04686091
6	0xbe17a622	-0.14809468
7	0xbc96c95f	-0.018406568
8	0x3d976e92	0.073941365
9	0xbe168ac4	-0.14701372
10	0x3d902df5	0.070400156
11	0xbdcfc3fa	-0.101448014
12	0xbde0de15	-0.10979859
13	0xbde28477	-0.11060422
14	0xbe0c4c31	-0.1370094
15	0xbe2a6d3d	-0.16643234
16	0xbe34ecab	-0.17668407
17	0x3dfa7bb9	0.122306295
18	0xbe4ebf2b	-0.20190112
19	0xbe40d599	-0.18831481
20	0x3e1a166d	0.15047617
21	0x3e585ea8	0.21129858
22	0x3de32d59	0.11092634
23	0xbeac0178	-0.3359487
24	0x3d241313	0.040057253
25	0xbdaa0dc3	-0.08303406
26	0xbe83468c	-0.2563976
27	0xbe033219	-0.1281208
28	0xbd618d70	-0.055066526
29	0x3c2bba14	0.010481376
30	0xbdd879cc	-0.10570106
31	0x3dd76772	0.105177775
32	0xbde93121	-0.11386324
33	0x3e1264e2	0.14296296
34	0xbc312ee1	-0.010814399
35	0x3df44b64	0.11928442
36	0xbde8ee3d	-0.11373565
37	0x3e0772b2	0.13227347
38	0x3df5c30c	0.12000093
39	0xbd938fc0	-0.072051525
40	0xbd534ae1	-0.051585082
41	0x3c8f9333	0.017526245
42	0xbd2bdefd	-0.041960705
43	0xbb01e351	-0.001981933
44	0xbe09a041	-0.13440038
45	0x3db0f8b7	0.086411886
46	0x3de48171	0.111575015
47	0x3e01c32d	0.1267211
48	0xbe193f8f	-0.14965652
49	0xbe15b0b3	-0.14618187
50	0xbd76ec93	-0.06028421
51	0xbe321beb	-0.17393462
52	0xbdc3600f	-0.09539806
53	0x3d0c590a	0.0342646
54	0x3d9c9235	0.07645074
55	0x3e64d26a	0.22345892
56	0x3dfa2dfe	0.122158036
57	0x3e159fa3	0.14611678
58	0x3c5383ba	0.012909824
59	0xbda74bf6	-0.08168785
60	0xbdb221b7	-0.08697837
61	0xbb490dc0	-0.0030678362
62	0xbdea9dcb	-0.11455878
63	0xbdbba854	-0.091629654
64	0x3b9560a8	0.0045586415
65	0xbdcc0171	-0.099612124
66	0x3dd188db	0.10231181
67	0x3c17ab8e	0.00925721
68	0xbe406deb	-0.1879193
69	0xbd83fac2	-0.06444313
70	0xbd75a7af	-0.05997437
71	0x3d1016ec	0.03517811
72	0xbdf4eaf9	-0.1195888
73	0x3deb729b	0.11496469
74	0x3cef2c74	0.029196002
75	0x3dbc26ac	0.091870636
76	0x3d016a99	0.0315958
77	0xbe185a7a	-0.14878264
78	0x3bbf5afe	0.0058397045
79	0x3e13e346	0.14442167
80	0x3c7c1860	0.015386671
81	0x3e0400a3	0.12890868
82	0x3e02ce16	0.12773928
83	0xbdddd6d8	-0.10831994
84	0x3d9837fb	0.074325524
85	0x3dbd72e0	0.09250426
86	0x3de07b47	0.10961013
87	0xbdfca333	-0.12335815
88	0xbe055126	-0.13019237
89	0xbd19fecb	-0.037596505
90	0x3def4248	0.11682564
91	0x3e005d4d	0.12535591
92	0x3d970a90	0.073750615
93	0x3c63f2d8	0.013912879
94	0x3e178f6b	0.14800803
95	0xbe1f9757	-0.15585075
96	0x3e2653aa	0.16242853
97	0xbd608006	-0.054809593
98	0x3e74659f	0.2386689
99	0xbe26fe88	-0.16308033
100	0x3d0a757a	0.03380344
101	0x3da8424a	0.08215769
102	0x3e06d13c	0.13165754
103	0xbd794c49	-0.060863767
104	0x3d9a62d1	0.07538379
105	0xbdb2f9ce	-0.08739053
106	0x3c49c86e	0.012315853
107	0x3d95ade0	0.07308555
108	0xbda3f21a	-0.080051616
109	0x3e0e8a81	0.13920023
110	0x3d178cfb	0.036999684
111	0x3c875b96	0.016523164
112	0x3d96fc15	0.073722996
113	0x3d2d82f7	0.042361226
114	0xbdb84173	-0.089968584
115	0xbc531dd7	-0.012885532
116	0x3e24d920	0.16098452
117	0x3de8a25c	0.113590926
118	0x3ddbf729	0.107405014
119	0x3e40431b	0.18775599
120	0x3e745187	0.23859225
121	0x3d613604	0.054983154
122	0x3dd2649b	0.10273095
123	0xbe395701	-0.18099596
124	0x3de2cef8	0.110746324
125	0x3dabb74d	0.08384571
126	0xbdb13961	-0.08653522
127	0x3c95efa4	0.018302746
128	0xbda79f6d	-0.08184705
129	0x3de52bc6	0.1118999
130	0xbd4f6874	-0.050636724
131	0x3c742a39	0.014902645
132	0xbdc93347	-0.098242335
133	0x3dea9b69	0.114554234
134	0x3e4d8a5d	0.20072313
135	0xbdec844b	-0.115486704
136	0x3e3bf346	0.1835452
137	0x3d8cee89	0.068814345
138	0x3e62bd31	0.22142483
139	0xbdf7b79a	-0.12095566
140	0x3be89c51	0.0070987125
141	0x3dc8da71	0.098072894
142	0x3db7aa66	0.08968048
143	0x3d4cf38f	0.050036963
144	0x3ce6ea6e	0.028187957
145	0xbd6992e0	-0.057024837
146	0x3e1342dd	0.14380975
147	0x3cc20a04	0.023686416
148	0xbc4ab355	-0.012371858
149	0xbcbae301	-0.022813322
150	0xbd07e79b	-0.03317986
151	0x3d8060b8	0.06268448
152	0xbe5018a6	-0.20321903
153	0xbc803ed7	-0.015654964
154	0x3e17376e	0.14767238
155	0xbe4a9165	-0.19782026
156	0x3c3db273	0.01157819
157	0xbc4f645c	-0.012658205
158	0xbdcc8fd5	-0.09988371
159	0x3d8cde3b	0.068783246
160	0xbe2e769f	-0.17037438
161	0xbdb9505a	-0.09048529
162	0x3df7967e	0.12089251
163	0xbcbdb2e6	-0.023156594
164	0x3de15190	0.11001885
165	0x3ce3972f	0.02778205
166	0xbdd764e7	-0.105172925
167	0x3d36f9db	0.044671874
168	0xbd645930	-0.05574912
169	0xbe81eda3	-0.25376615
170	0x3e2d1d47	0.169057
171	0xbe0e49fd	-0.13895412
172	0xbdad1e05	-0.084529914
173	0xbe5f6a72	-0.2181795
174	0x3d41e5da	0.047338344
175	0xbc8b71ef	-0.017022101
176	0x3df13777	0.11778157
177	0x3e414e43	0.1887751
178	0xbe180b39	-0.14848031
179	0x3d87abb2	0.06624545
180	0x3d5fa005	0.054595966
181	0x3cfe5b46	0.031049382
182	0xbde8a839	-0.11360211
183	0xbdab6b9c	-0.08370134
184	0xbe346900	-0.1761818
185	0xbdc2a4d7	-0.09504097
186	0xbe594bb8	-0.2122029
187	0x3d1803b1	0.037112895
188	0xbdd8a408	-0.105781615
189	0x3e33338b	0.17500131
190	0x3e0e8c4c	0.13920707
191	0x3e53a55a	0.20668545
192	0xbaff2fc9	-0.0019469197
193	0xbdf4d8cf	-0.119554155
194	0xbdbed87c	-0.09318635
195	0x3dd6e955	0.10493723
196	0xbce5e19b	-0.028061679
197	0x3e22e69c	0.15908283
198	0xbdfa3b23	-0.12218311
199	0xbd2c2ffc	-0.04203795
200	0x3e1f6f7c	0.15569872
201	0x3e6317fb	0.22177117
202	0xbe0c302c	-0.13690251
203	0xbe7356ed	-0.23763628
204	0xbdc9674a	-0.09834154
205	0x3e37ea02	0.1796036
206	0xbd93e2b3	-0.07220974
207	0x3e496707	0.19668208
208	0x3d84370c	0.06455812
209	0x3d77e93e	0.06052517
210	0xbd0b88f0	-0.03406614
211	0x3c3dde0c	0.011588585
212	0xbe27df08	-0.16393673
213	0x3da78b09	0.08180816
214	0x3dce59d7	0.10075729
215	0x3c041690	0.00806202
216	0x3e6cdca1	0.23131038
217	0x3e2b01b1	0.16699864
218	0xbd7bef81	-0.061507706
219	0xbdc84577	-0.09778874
220	0x3d0793ec	0.033100054
221	0x3d83b3e6	0.06430797
222	0xbd6b1d82	-0.057401188
223	0xbd1013d0	-0.035175145
224	0x3e32398c	0.17404765
225	0xbe51923f	-0.20465945
226	0xbd39963b	-0.045309287
227	0xbcfcf661	-0.030879201
228	0xbcc83a5f	-0.024441896
229	0xbde8848e	-0.11353408
230	0x3dd2d2a9	0.102940865
231	0xbe1157f4	-0.14193708
232	0xbe0e3be5	-0.13890035
233	0xbdd7a401	-0.10529328
234	0xbd8f71dc	-0.07004139
235	0xbe26b069	-0.16278233
236	0xbe383e9b	-0.17992632
237	0xbd40b283	-0.047045242
238	0x3e4529da	0.19254246
239	0xbd917a3d	-0.07103393
240	0xbe02e9e7	-0.12784539
241	0x3d203c5d	0.039120067
242	0xbd228040	-0.03967309
243	0x3dee0048	0.116211474
244	0x3d0a2496	0.033726297
245	0xbcd680d4	-0.026184477
246	0xbd656b60	-0.056010604
247	0x3d3535df	0.04424083
248	0xbd88fb60	-0.06688571
249	0xbc739319	-0.014866614
250	0x3e2affb9	0.16699113
251	0xbb97c864	-0.0046320427
252	0xbdf02c66	-0.11727218
253	0x3d454a3f	0.04816651
254	0x3d40838a	0.047000445
255	0xbe30f34d	-0.17280312

lstm.bias_ih_l0 f4 [128]
0	0x3ddd4895	0.108048595
1	0xbe0214a3	-0.12703185
2	0x3c5fa20a	0.013649473
3	0xbe11c8aa	-0.14236704
4	0x3dd22c5a	0.10262366
5	0x3e66fc72	0.22557238
6	0xbe0aa404	-0.1353913
7	0x3cfb91dd	0.030709201
8	0xbda36833	-0.07978859
9	0x3cf0b5a6	0.029383492
10	0xbdabd327	-0.083898835
11	0x3ce1197e	0.027477976
12	0x3e0f50e9	0.13995709
13	0x3e0dd319	0.13850059
14	0xbd89a2a9	-0.06720478
15	0x3cc1a252	0.02363697
16	0xbe346d24	-0.17619759
17	0xbe380cf5	-0.17973693
18	0x3e0212b8	0.12702453
19	0x3cc08b21	0.023503842
20	0x3dacdd8e	0.08440696
21	0x3dbd4b95	0.09242932
22	0x3bf045a8	0.0073325224
23	0x3e4de95e	0.20108554
24	0x3d0600cb	0.0327156
25	0xbe4a1738	-0.1973542
26	0x3d015c6b	0.031582277
27	0xbc1cfae0	-0.009581298
28	0xbd53fec9	-0.051756654
29	0xbe7f7a73	-0.24949054
30	0xbc0b72b2	-0.008511232
31	0x3d5421af	0.051789936
32	0x3d19adf7	0.03751942
33	0xbdad816d	-0.08471952
34	0xbdd85241	-0.10562564
35	0xbdaf04d2	-0.08545841
36	0xbd72b197	-0.059251394
37	0xbdaf603e	-0.085632786
38	0xbd7a867b	-0.061163407
39	0xbe047401	-0.12934877
40	0x3df65867	0.1202858
41	0x3c7cd557	0.015431724
42	0xbe016020	-0.12634325
43	0x3e4f027a	0.20215788
44	0x3e0a03be	0.1347799
45	0x3db05acf	0.0861107
46	0xbb0fcb1d	-0.0021941133
47	0xbda31a1e	-0.07963966
48	0x3ce89085	0.028389225
49	0xbe2e1bb0	-0.1700275
50	0xbdae69b6	-0.085162565
51	0xbe52dbb9	-0.2059163
52	0xbda27e9f	-0.07934307
53	0x3cc8add3	0.024496948
54	0xbb949f7f	-0.004535615
55	0x3d1e74e7	0.038685706
56	0xbe3b68a9	-0.18301643
57	0xbe088d5c	-0.13335174
58	0x3e0ddf59	0.13854732
59	0x3e0cddb8	0.13756454
60	0xbdcea566	-0.10090141
61	0x3c683be9	0.01417444
62	0xbe0ce94d	-0.13760872
63	0xbe6b0999	-0.2295288
64	0xbd73af71	-0.059493486
65	0x3d40f16c	0.047105238
66	0x3dead6d6	0.11466758
67	0x3d6c40da	0.057679035
68	0xbdfdfd4c	-0.12401828
69	0x3d3a17b0	0.045432746
70	0x3d7df44d	0.06200056
71	0x3d0e45b1	0.03473443
72	0xbdee66a7	-0.11640673
73	0x3ceb16f3	0.028697466
74	0x3c18e7a1	0.009332568
75	0x3db0f724	0.08640888
76	0xbe108351	-0.14112593
77	0x3c28ac0e	0.010294927
78	0xbc85d86a	-0.016338546
79	0x3cf41121	0.029793324
80	0xbc7bc1c1	-0.015366019
81	0x3d91151e	0.07084106
82	0xbd8e8e19	-0.06960697
83	0x3da1d88f	0.079026334
84	0x3cc5ecbf	0.02416074
85	0xbd01eed4	-0.031721905
86	0xbbb7e129	-0.005611558
87	0xbd897874	-0.06712428
88	0xbdddd942	-0.10832454
89	0xbd5a32ec	-0.05327122
90	0x3d1797dd	0.037010062
91	0xbd5ca9e4	-0.053872958
92	0x3d99e50f	0.075143926
93	0xbcc5e99d	-0.024159247
94	0xbdc2d24c	-0.09512767
95	0x3c0cb4cd	0.008588028
96	0xbce86a4c	-0.028370999
97	0xbd721b1f	-0.059107896
98	0x3e3f05bb	0.1865453
99	0xbe359b35	-0.17734988
100	0x3e5f8d66	0.21831283
101	0x3e553884	0.2082234
102	0x3dd20219	0.10254306
103	0xbd12a0e3	-0.035797965
104	0xbdad2e9f	-0.08456158
105	0x3e78b1e8	0.24286616
106	0x3c8f02c7	0.017457379
107	0x3cbc3305	0.022973547
108	0x3cb587ca	0.022159476
109	0x3e6ecc0d	0.23320027
110	0xbbf70bfe	-0.0075392714
111	0x3df639f0	0.120227695
112	0x3dc88729	0.09791405
113	0x3bee5a0e	0.007273919
114	0x3d9d2c7a	0.07674499
115	0x3d984a0a	0.07435997
116	0xbe3fab89	-0.18717779
117	0xbd8ad7af	-0.0677942
118	0x3dcef83f	0.10105943
119	0x3d441dce	0.047879986
120	0xbcddf4be	-0.027094241
121	0xbe1567ca	-0.14590374
122	0x3d42458d	0.04742961
123	0x3e644d46	0.22295102
124	0xbddb79dd	-0.10716603
125	0xbdf19001	-0.11795045
126	0xbe897fc1	-0.2685528
127	0x3d088854	0.033333138

lstm.bias_hh_l0 f4 [128]
0	0xbd0a71c2	-0.033799894
1	0xbd938f78	-0.07205099
2	0x3d61aa38	0.055093974
3	0xbe306e43	-0.17229562
4	0x3e5270be	0.2055082
5	0x3dd370a7	0.10324221
6	0x3e241c7e	0.16026494
7	0xbd123972	-0.035699315
8	0xbd8f7c73	-0.07006159
9	0x3e85e2d6	0.26149625
10	0x3dec7b00	0.11546898
11	0x3db4746e	0.0881127
12	0xbd37e70c	-0.044898078
13	0x3e8522f1	0.2600322
14	0x3e162ede	0.14666316
15	0x3e2284e6	0.15871009
16	0x3d7cdb25	0.06173243
17	0xbe24287a	-0.16031066
18	0xbc073016	-0.008251211
19	0xbcd520d3	-0.026016628
20	0x3d7a5c0c	0.06112294
21	0xbd56c950	-0.05243808
22	0x3e6672bd	0.22504707
23	0x3e8dcbea	0.27694637
24	0xbd811025	-0.063019074
25	0x3d745ca5	0.059658665
26	0xbd60bd5b	-0.054868083
27	0xbd9b2f58	-0.075773895
28	0xbe515399	-0.20442046
29	0x3ccbb1cf	0.02486506
30	0x3be03e63	0.0068433746
31	0x3d3f2ca4	0.046673432
32	0x3d82f4f1	0.06394375
33	0x3dc809eb	0.09767517
34	0x3e2ac9ff	0.16678618
35	0xbb45e1df	-0.0030194444
36	0x3d2a221f	0.041536447
37	0x3ddae724	0.10688618
38	0xbb7bc388	-0.0038416106
39	0x3c5f508a	0.013630042
40	0x3d6b941a	0.057514288
41	0x3c1bfd27	0.009520805
42	0xbdf0880c	-0.11744699
43	0x3d8dc69d	0.06922648
44	0xbe0d59a8	-0.13803732
45	0x3d8531dd	0.06503651
46	0xbdf70841	-0.12062121
47	0xbe48d8e8	-0.19613993
48	0xbe671fcd	-0.22570725
49	0xbc8943a6	-0.01675589
50	0xbd938fc4	-0.072051555
51	0x3d73274b	0.059363645
52	0x3cd986c1	0.026553513
53	0xbd084824	-0.033271924
54	0x3e4df178	0.20111644
55	0x3b9c4619	0.0047690985
56	0xbe599c6e	-0.2125108
57	0x3c2dbe97	0.010604522
58	0xbb938ae9	-0.0045026434
59	0xbdffe1dd	-0.12494252
60	0x3d81d4be	0.063394055
61	0xbe245822	-0.16049245
62	0x3d0feea4	0.035139695
63	0x3d88c0b3	0.066773795
64	0x3cb0e085	0.021591434
65	0xbdfaa4cb	-0.12238463
66	0xbc10b872	-0.008833038
67	0x3e04d4d4	0.12971812
68	0x3db31ee8	0.08746129
69	0xbd972d97	-0.073817424
70	0x3dda0336	0.10645144
71	0xbdc3f8b4	-0.09568921
72	0x3daaf726	0.08347921
73	0xbc82804d	-0.01593032
74	0x3cabc1c8	0.020966426
75	0xbd9f0262	-0.07764126
76	0xbdf5f670	-0.12009895
77	0xbb9adc2b	-0.004725953
78	0x3e1883a8	0.14893973
79	0x3ccf7931	0.025326343
80	0x3e10269a	0.14077225
81	0x3db08a99	0.086201854
82	0xbd6eaa22	-0.05826772
83	0x3d92866b	0.071545444
84	0xbda679f6	-0.08128731
85	0xbdf58eed	-0.119901516
86	0x3db68501	0.08912087
87	0x3b14d8d7	0.0022712254
88	0x3ca326eb	0.019916018
89	0xbde36ac3	-0.111043476
90	0xbcfad7f9	-0.030620562
91	0xbdfa1656	-0.122112915
92	0xbded6cfb	-0.11593052
93	0x3d1b417a	0.03790424
94	0x3ddbcf54	0.10732904
95	0x3d99ac8b	0.07503613
96	0xbe3064ad	-0.17225905
97	0x3c8ae7e0	0.01695627
98	0x3d0770f0	0.03306669
99	0xbe3cfd51	-0.18456008
100	0x3d715081	0.058914665
101	0x3e628d18	0.22124135
102	0xbd239f9d	-0.03994714
103	0xbd8db996	-0.06920163
104	0x3a6c00e6	0.00090028194
105	0x3e2d2ab4	0.16910821
106	0xbdbf78a0	-0.09349179
107	0x3dd1b4e6	0.10239582
108	0xbced6549	-0.02897896
109	0x3e8be21e	0.2732095
110	0x3e1ce474	0.15321523
111	0xbdf4c2a7	-0.119511895
112	0xbde016f7	-0.1094188
113	0x3d96afe7	0.073577695
114	0xbd40b484	-0.047047153
115	0xbd356fd6	-0.04429611
116	0xbd379ab6	-0.04482528
117	0xbe45d695	-0.19320138
118	0x3b126984	0.0022340724
119	0x3e2684b3	0.16261558
120	0x3e266077	0.16247736
121	0xbdf2e8c1	-0.118608005
122	0x3d51f925	0.051262993
123	0x3ca52368	0.020158485
124	0xbe47b9d2	-0.19504479
125	0xbe12e6f7	-0.14345919
126	0xbbd3338d	-0.0064453543
127	0xbd9653bb	-0.07340189

lstm.weight_ih_l1 f4 [128, 32]
0	0xbc339f03	-0.010963204
1	0x3cf33d08	0.029692188
2	0x3d706352	0.05868847
3	0xbe21ebc8	-0.158126
4	0xbdab94da	-0.083780006
5	0xbd937913	-0.072008274
6	0x3e004b9d	0.12528844
7	0xbd07bfaa	-0.03314177
8	0x3e2bc510	0.16774392
9	0xbe37474a	-0.17898288
10	0xbdf41e05	-0.11919788
11	0xbe5b3bbc	-0.21409506
12	0xbdc7249c	-0.097237796
13	0x3deaced0	0.114652276
14	0xbde279cf	-0.110583894
15	0xbe39909f	-0.18121575
16	0x3c4a4580	0.012345672
17	0x3e0e9367	0.13923417
18	0xbb606b42	-0.0034243618
19	0xbe4d7c83	-0.20067029
20	0xbd8682cd	-0.06567917
21	0x3e2a8509	0.16652311
22	0xbd9d4828	-0.07679778
23	0xbc938420	-0.018007338
24	0xbdb9fe9f	-0.09081768
25	0xbe396df8	-0.18108356
26	0xbd05b31b	-0.03264151
27	0x3d8f1cef	0.069879405
28	0x3cf273e4	0.029596277
29	0xbdd7bbef	-0.10533892
30	0xbe2be6e0	-0.1678729
31	0xbc6b7480	-0.0143710375
32	0x3d18c0ce	0.037293248
33	0xbdd89f68	-0.10577279
34	0x3d4135be	0.047170393
35	0xbe17a391	-0.1480849
36	0x3de410c3	0.111360095
37	0xbdc6fae2	-0.09715821
38	0xbd27f6aa	-0.04100672
39	0xbcbcfabc	-0.023068778
40	0x3ca09786	0.019603502
41	0x3c595548	0.013264962
42	0x3cdc3be1	0.026884021
43	0x3ba95793	0.0051679104
44	0xbd2b221c	-0.041780576
45	0x3dd0da32	0.101978675
46	0xbd8cd688	-0.06876856
47	0xbe388d2a	-0.180226
48	0xbe1a24c2	-0.15053084
49	0xbe348e39	-0.17632379
50	0x3dca00e7	0.09863453
51	0x3da3119b	0.07962342
52	0xbd16a442	-0.036777742
53	0x3e866248	0.26246858
54	0xbdfa3bb3	-0.12218418
55	0xbd4979fc	-0.0491886
56	0x3dd4d007	0.103912406
57	0xbdddf0de	-0.108369574
58	0xbd5ee195	-0.05441435
59	0x3e0763f0	0.13221717
60	0x3e174738	0.14773262
61	0xbdd69972	-0.10478486
62	0x3df3ee33	0.11910667
63	0xbd0d8a88	-0.03455594
64	0xbdd8bde0	-0.10583091
65	0xbd18ac53	-0.037273716
66	0xbd80b6eb	-0.06284889
67	0xbcdae49b	-0.026720336
68	0xbd37ebe8	-0.044902712
69	0xbe51a0b1	-0.20471455
70	0xbe1887e5	-0.1489559
71	0xbe57a7a1	-0.21060039
72	0xbe8068ab	-0.25079855
73	0xbbeb2958	-0.0071765594
74	0x3e868836	0.26275796
75	0xbc8ba12b	-0.017044624
76	0xbd857e72	-0.06518258
77	0xbd861548	-0.06547028
78	0x3d0c6b5f	0.034282085
79	0x3d0ab1ee	0.033861093
80	0xbdefe5c3	-0.117137454
81	0x3e5d06a7	0.21584569
82	0xbd9bb68d	-0.07603178
83	0x3e6c926e	0.23102733
84	0x3dd7f180	0.10544109
85	0x3c3176ee	0.010831578
86	0x3dcc7614	0.09983459
87	0xbe4e3e38	-0.20140922
88	0xbe39b6ab	-0.18136089
89	0xbe8951e0	-0.26820278
90	0xbe4be569	-0.19911732
91	0x3d8d03de	0.06885503
92	0xbe2d00df	-0.16894864
93	0x3e75def8	0.24010837
94	0x3e460ead	0.19341536
95	0x3e12bf31	0.14330746
96	0xbdba55c8	-0.09098393
97	0x3dd53f0d	0.104124166
98	0x3dfd3b7f	0.123648636
99	0xbdfe7aba	-0.12425752
100	0xbde81e34	-0.11333886
101	0xbdeeba30	-0.11656606
102	0x3e0a01e4	0.13477284
103	0xbc4254c3	-0.011861029
104	0x3db4d42c	0.08829531
105	0xbde7f37d	-0.113257386
106	0xbdb9cbef	-0.090721
107	0xbe47f26b	-0.19526069
108	0xbe0b37a5	-0.13595445
109	0x3e489240	0.1958704
110	0x3e126cc2	0.142993
111	0x3e100a4c	0.14066428
112	0x3d00627b	0.03134392
113	0x3da7771d	0.08177016
114	0x3ddadc9d	0.1068661
115	0x3e0f2781	0.13979913
116	0xbdb4f8fc	-0.088365525
117	0x3e24d975	0.16098578
118	0x3e437897	0.1908897
119	0xbd99fb3c	-0.07518622
120	0x3dceaf63	0.10092046
121	0xbe194b83	-0.14970212
122	0x3da99c05	0.082817115
123	0xbe445f07	-0.19176875
124	0x3d0035ea	0.031301416
125	0xbc9770a0	-0.018486321
126	0x3d0166bb	0.031592112
127	0xbe16a1fc	-0.1471023
128	0xbe1f0b9f	-0.15531777
129	0x3dee2bf1	0.11629475
130	0x3e4b2053	0.1983655
131	0xbd9b503a	-0.075836614
132	0xbd69f403	-0.057117473
133	0xbe036501	-0.12831499
134	0x3cb87924	0.022518702
135	0xbcabbc9a	-0.020963956
136	0x3aca0d13	0.0015415273
137	0x3e41e7ac	0.18936032
138	0xbe0ce115	-0.13757737
139	0xbe7e1ad6	-0.24814925
140	0xbdc0d88d	-0.09416304
141	0x3d899c3e	0.06719254
142	0xbdac2f3c	-0.08407447
143	0x3c588ad7	0.013216696
144	0x3dade2cb	0.08490523
145	0x3db9a900	0.09065437
146	0xbd9787a8	-0.07398921
147	0xbe4839d2	-0.19553307
148	0x3d6d5a83	0.057947647
149	0xbd5caf77	-0.053878274
150	0x3d9c9c9e	0.0764706
151	0x3d0ea0a7	0.03482118
152	0xbd8927af	-0.06697022
153	0xbdd6e91d	-0.104936816
154	0x3e53324e	0.20624658
155	0xbbeeff9d	-0.007293655
156	0xbdebb24a	-0.11508615
157	0x3e2b57b5	0.16732676
158	0x3dc304cd	0.095224
159	0x3d1cc2f6	0.038271867
160	0x3ca2c1bc	0.01986777
161	0x3e58ad88	0.21159947
162	0xbdf18f71	-0.117949374
163	0xbe27828e	-0.16358396
164	0xbc6a6264	-0.014305685
165	0xbe539ed1	-0.20666052
166	0x3ac0ea62	0.0014718289
167	0xbebe9ab7	-0.37227413
168	0xbe5b4c5e	-0.2141585
169	0xbdc2f0b1	-0.095185645
170	0x3dd11d35	0.10210649
171	0x3ea3c15c	0.3198346
172	0x3e404ea4	0.18779999
173	0xbd3f8e93	-0.04676683
174	0xbe4b05b8	-0.198264
175	0xbe4676e7	-0.19381295
176	0xbc4b7a40	-0.012419283
177	0xbac8a8d1	-0.00153091
178	0xbd0897fc	-0.03334807
179	0x3ddaa789	0.10676486
180	0xbd902c2a	-0.070396736
181	0xbddee9a3	-0.108844064
182	0xbe8fd73e	-0.28093904
183	0xbd83e0c7	-0.06439357
184	0x3bb7a539	0.005604413
185	0xbd050622	-0.03247655
186	0xbe183778	-0.1486491
187	0x3c7b7a9b	0.015349056
188	0xbdc526df	-0.09626555
189	0xbd209c7a	-0.039211728
190	0xbe49dae8	-0.19712412
191	0xbd5ba695	-0.053625662
192	0x3e0ce1ec	0.13758057
193	0xbdccbc9d	-0.09996913
194	0x3e50b031	0.20379712
195	0x3d752385	0.059848327
196	0xbe357d37	-0.17723547
197	0x3e637d1a	0.22215691
198	0xbc3cfe5c	-0.011535253
199	0x3da54a33	0.08070793
200	0x3e31f6fe	0.17379376
201	0x3d6a8c3d	0.057262648
202	0xbda1cf13	-0.079008244
203	0xbdc88e31	-0.09792746
204	0xbd4376a4	-0.047720566
205	0x3e73f008	0.23822033
206	0xbdb1324c	-0.086521715
207	0x3e34bf6d	0.17651148
208	0x3e071f7c	0.13195604
209	0x3d653b36	0.05596467
210	0xbd7d2db9	-0.061811183
211	0xbe2a7934	-0.16647798
212	0x3e14571d	0.14486356
213	0x3e5f22c5	0.21790607
214	0x3e5dfcb8	0.21678436
215	0x3e8328b6	0.25616997
216	0xbde46ae9	-0.11153204
217	0x3d90ebc0	0.07076216
218	0x3e864b6f	0.26229426
219	0xbdc0e5dd	-0.09418843
220	0xbdc07f55	-0.09399287
221	0x3d09860d	0.033575106
222	0xbe01f0dd	-0.12689538
223	0x3ca7c324	0.020478792
224	0xbe827dd9	-0.2548664
225	0xbc9dbfc4	-0.01925648
226	0xbdaaf224	-0.08346966
227	0x3e176d1f	0.1478772
228	0x3d2a5bf9	0.04159162
229	0xbca0ed94	-0.019644536
230	0x3cc1493d	0.023594493
231	0x3dbad524	0.091226846
232	0x3cfcba96	0.03085069
233	0xbe12fbfa	-0.14353934
234	0x3e5b4196	0.21411738
235	0xbd9d48c2	-0.07679893
236	0xbdab9365	-0.08377723
237	0xbe72e8e3	-0.23721652
238	0x3d7174d0	0.05894929
239	0xbe81bf68	-0.25341344
240	0x3d9234ff	0.071390145
241	0x3de056e8	0.10954076
242	0xbe66bef4	-0.2253378
243	0x3e8161ec	0.2527002
244	0x3dd6fa83	0.10497
245	0xbe3ddfe8	-0.18542445
246	0xbca0c059	-0.019622969
247	0xbe746011	-0.23864771
248	0xbeeff203	-0.46864328
249	0xbe433528	-0.19063246
250	0xbdde8afd	-0.10866354
251	0xbd81e033	-0.06341591
252	0xbe1645a6	-0.14675006
253	0x3d484a15	0.048898775
254	0x3d8418b5	0.06450025
255	0x3f134761	0.5753079

lstm.weight_hh_l1 f4 [128, 32]
0	0x3de569b5	0.11201803
1	0x3d96fed5	0.07372824
2	0xbd0e85db	-0.034795623
3	0xbdfbbe3f	-0.12292146
4	0xbdf51e7e	-0.119687065
5	0x3d6a71a5	0.057237286
6	0x3d285ce3	0.04110421
7	0xbe067ef7	-0.1313437
8	0xbdae8cb6	-0.08522932
9	0x3d787cbe	0.06066584
10	0x3ddd9e1f	0.10821175
11	0x3d899fea	0.06719954
12	0x3e145aa4	0.14487702
13	0x3d85c3e8	0.06531507
14	0xbdf1b5f6	-0.118022844
15	0x3e0663fe	0.13124081
16	0x3e41d8e4	0.18930393
17	0x3cd3ad48	0.025839463
18	0x3e823b8f	0.25436065
19	0x3dec2e13	0.115322255
20	0x3c8bdd94	0.01707343
21	0xbd44486f	-0.04792064
22	0x3d6d2f77	0.057906594
23	0x3e7fb40a	0.24971023
24	0x3d6755ca	0.0564783
25	0x3de53ac1	0.11192847
26	0x3c51783b	0.012785013
27	0x3dbd37ba	0.092391446
28	0xbdf4dab8	-0.1195578
29	0x3d03d1a4	0.03218235
30	0x3d7e4693	0.062079024
31	0x3d61cf75	0.055129487
32	0x3e365d81	0.17809106
33	0xbdb27d65	-0.08715323
34	0x3d73f6f5	0.05956169
35	0x3d4e1544	0.05031325
36	0xbcbeedf3	-0.023306822
37	0xbd83bb1e	-0.06432174
38	0x3e023643	0.12716012
39	0x3be1c7b4	0.0068902615
40	0x3dc2a890	0.09504807
41	0x3d48c360	0.04901445
42	0xbce465f6	-0.02788065
43	0xbceaafe6	-0.028648328
44	0x3e271e33	0.16320114
45	0x3d0cf0ae	0.034409218
46	0x3df131cc	0.11777076
47	0xbcc09204	-0.023507126
48	0x3df0a3f7	0.11750024
49	0xbe13301c	-0.14373821
50	0x3be4bc6c	0.0069804695
51	0xbcf579af	-0.02996525
52	0xbe2b4be7	-0.16728173
53	0x3da15f10	0.0787946
54	0x3cfc3c38	0.030790433
55	0x3dfee848	0.12446648
56	0xbe0394a4	-0.1284967
57	0xbdaddd84	-0.084895164
58	0x3aab5d32	0.0013074039
59	0x3d9cbd59	0.07653303
60	0xbde75e2b	-0.11297258
61	0x3dc29e27	0.095028214
62	0xbc9397f3	-0.018016791
63	0x3ca91a8b	0.02064254
64	0x3d6a1568	0.05714932
65	0xbe167f2b	-0.14696948
66	0xbe10b148	-0.14130127
67	0x3e19be38	0.15013969
68	0xbd546c4c	-0.051861092
69	0x3e076ff3	0.13226299
70	0xbbd530dc	-0.0065060686
71	0xbdc7d2f2	-0.097570315
72	0xbd14893d	-0.036263693
73	0xbccf31b6	-0.025292259
74	0x3e1c79b7	0.15280806
75	0xbc7ca4c4	-0.015420143
76	0xbc770500	-0.015076876
77	0xbe2b90f5	-0.16754515
78	0x3df5140f	0.119667165
79	0xbd4e3f79	-0.0503535
80	0xbe2bac04	-0.16764838
81	0x3d4b9c19	0.049709413
82	0x3ddda114	0.10821739
83	0xbd9d00a8	-0.07666141
84	0xbe18299b	-0.14859621
85	0x3d8d11c0	0.06888151
86	0x3dd27acd	0.10277329
87	0x3e4e11ef	0.20124029
88	0xbca9d631	-0.020732017
89	0x3e1c2a76	0.15250573
90	0x3e756c51	0.239671
91	0xbbaf98df	-0.0053588
92	0xbe67216a	-0.2257134
93	0xbe612b3d	-0.2198915
94	0xbd9c7f1d	-0.076414324
95	0xbd51964b	-0.05116872
96	0xbe0db29e	-0.13837668
97	0x3d698041	0.057007078
98	0x3c38c58c	0.011277568
99	0x3e3290cc	0.17438048
100	0xbcd31f1e	-0.025771674
101	0xbdfc98f8	-0.12333864
102	0xbe2a192f	-0.1661117
103	0xbe2a79b9	-0.16647996
104	0xbe1faad3	-0.15592508
105	0x3d5f4f56	0.05451902
106	0x3e1e6e44	0.1547175
107	0x3d02d17f	0.031938072
108	0xbd6e7be4	-0.05822362
109	0xbe323fac	-0.17407101
110	0x3c4ff5a4	0.012692843
111	0xbe0590fe	-0.13043591
112	0xbda9b494	-0.08286396
113	0xbd2845a9	-0.041082058
114	0xbc2e2425	-0.010628735
115	0xbcaf0ae3	-0.021367496
116	0x3d5e7f1c	0.05432044
117	0xbe14fe0c	-0.14550036
118	0xbd9f1cf8	-0.07769197
119	0xbdb522aa	-0.08844502
120	0xbd98b4f6	-0.074563906
121	0xbd4706b1	-0.048590366
122	0xbe31ff6b	-0.1738259
123	0x3c6f47e4	0.014604542
124	0xbe505a96	-0.20347056
125	0xbdc120ef	-0.0943011
126	0xbde878b2	-0.11351146
127	0x3d03331a	0.032031156
128	0x3e2c381b	0.16818278
129	0x3e021ab9	0.12705506
130	0xbb5cecd1	-0.003371049
131	0x3dbf838a	0.09351261
132	0x3db35a75	0.08757488
133	0x3b066616	0.0020507625
134	0xbe1f2244	-0.15540415
135	0xbb7d38e1	-0.0038638639
136	0x3e513b88	0.20432866
137	0x3d9d70bb	0.07687517
138	0xbd86a211	-0.065738805
139	0x3e186c44	0.1488505
140	0x3d5838d4	0.05278857
141	0x3d7831ef	0.060594495
142	0xbe0e35e0	-0.13887739
143	0xbe1b3379	-0.15156354
144	0xbc95ff66	-0.01831026
145	0x3cc54c38	0.024084195
146	0x3cda75bc	0.026667468
147	0x3e284aad	0.16434737
148	0xbe3d0f95	-0.18462975
149	0x3d25b8bd	0.040459383
150	0xbe28751f	-0.16450928
151	0x3d1f5143	0.038895857
152	0x3de58a34	0.11208001
153	0xbca8270b	-0.02052643
154	0xbe23a441	-0.15980627
155	0x3cc4877f	0.02399039
156	0xbc91b35d	-0.017785722
157	0x3e0854a5	0.1331354
158	0x3c26efd6	0.010189017
159	0x3e29171c	0.16512722
160	0x3e62e30b	0.22156923
161	0x3c880da0	0.01660806
162	0xbd0a6aa7	-0.033793118
163	0xbe0e2e02	-0.13884738
164	0xbdfc6b9c	-0.12325212
165	0x3c07c6e4	0.008287165
166	0x3d06b931	0.032891456
167	0xbe4ddc58	-0.20103586
168	0xbdf06ec7	-0.11739879
169	0x3e80ef05	0.25182357
170	0x3df3dff5	0.11907951
171	0x3e68845f	0.22706746
172	0xbc802c12	-0.015646014
173	0x3cc8eda7	0.024527384
174	0x3e50255f	0.20326756
175	0xbe2606b1	-0.1621349
176	0x3dbdedb4	0.09273854
177	0xbd442544	-0.0478871
178	0xba71be13	-0.00092217437
179	0x3d0b0008	0.033935577
180	0xbc3dbfaf	-0.011581345
181	0x3dee1125	0.11624364
182	0xbd9a53f3	-0.07535543
183	0x3cdaae13	0.026694333
184	0x3de4e292	0.11176027
185	0xbe7f3a44	-0.2492457
186	0xbe03ceb9	-0.12871827
187	0xbe10f623	-0.14156394
188	0xbd51d9a9	-0.051232968
189	0xbd429c7d	-0.04751252
190	0xbdaeb8b9	-0.08531327
191	0xbdda6f2d	-0.10665736
192	0x3dca01e2	0.0986364
193	0x3e19c98f	0.15018295
194	0xbe2791be	-0.1636419
195	0xbd47fc64	-0.048824683
196	0xbd7c9a02	-0.06167031
197	0xbc544a75	-0.012957205
198	0x3e25726c	0.1615693
199	0x3d6c908e	0.057755046
200	0xbcd2c058	-0.025726482
201	0x3cdc24bd	0.026872987
202	0x3e089ff5	0.13342269
203	0xbd753bd8	-0.059871525
204	0xbe1ded7d	-0.15422626
205	0xbda2810c	-0.0793477
206	0xbc39d5de	-0.011342494
207	0xbda00c28	-0.078148186
208	0x3dd96c08	0.106163085
209	0xbd9067cf	-0.0705105
210	0x3e59dc65	0.2127548
211	0xbbbb4ec9	-0.005716179
212	0xbccb991b	-0.02485328
213	0xbdad821b	-0.08472081
214	0x3c013cee	0.007888062
215	0xbd22f8e2	-0.039788134
216	0xbdd75b31	-0.1051544
217	0x3daad2c7	0.08340984
218	0xbdc1678d	-0.09443579
219	0x3de59404	0.11209872
220	0xbac33d60	-0.001489561
221	0x3d99b1cf	0.075046174
222	0x3cf60d8a	0.030035753
223	0x3d81aad2	0.063314095
224	0xbd054ce7	-0.032544043
225	0xbb03fbc5	-0.002013908
226	0xbc55b01a	-0.013042474
227	0x3dddd359	0.10831327
228	0x3dfc802a	0.12329133
229	0x3d85fac5	0.06541971
230	0x3dfe9b33	0.12431946
231	0xbdedc9db	-0.116107665
232	0xbe13dde4	-0.14440113
233	0xbb526933	-0.003210616
234	0xbdc902e9	-0.09815008
235	0x3dfc66e4	0.12324312
236	0x3e1c35e3	0.15254931
237	0xbe39205f	-0.18078755
238	0xbd54d75b	-0.05196319
239	0x3daaacfc	0.083337754
240	0xbdd8bf85	-0.105834045
241	0xbd47e9c4	-0.04880692
242	0x3e2e913d	0.17047592
243	0x3d97eddc	0.07418415
244	0xbdd9cb2f	-0.10634457
245	0x3de23b61	0.11046482
246	0xbdd131cd	-0.10214577
247	0x3ec1e469	0.37869576
248	0x3d887d74	0.06664553
249	0xbe021dd4	-0.12706691
250	0xbd115128	-0.035477787
251	0xbc9bb34e	-0.019006398
252	0x3cadeb0a	0.02123024
253	0xbebebbf9	-0.37252787
254	0x3dac1e7d	0.08404253
255	0x3d3ce466	0.046116255

lstm.bias_ih_l1 f4 [128]
0	0x3e20ce56	0.15703711
1	0xbdabd6cb	-0.08390578
2	0x3e31927f	0.1734104
3	0xbc7f163d	-0.015569267
4	0x3d113730	0.03545302
5	0xbe5d15a1	-0.21590282
6	0x3de6505c	0.11245796
7	0x3e1c3331	0.15253903
8	0xbe0515fb	-0.12996666
9	0x3e36fe3e	0.17870423
10	0x3d0c3125	0.034226555
11	0xbe0de51f	-0.13856934
12	0xbe001b67	-0.12510453
13	0x3e0f2f7d	0.13982959
14	0x3dca8070	0.09887779
15	0x3df86ffa	0.12130733
16	0x3d152c7a	0.03641937
17	0x3a1277ea	0.00055873266
18	0x3b549d07	0.0032442228
19	0x3d207014	0.039169386
20	0xbc00c12e	-0.007858558
21	0xbd49271e	-0.04910957
22	0xbd42e30e	-0.047579817
23	0xbe711a28	-0.23545134
24	0xbd3bdb6d	-0.045863558
25	0x3e310ae4	0.1728931
26	0xbc47a0a8	-0.0121842995
27	0x3d43f8d3	0.04784472
28	0xbd3b1c66	-0.04568138
29	0x3e258eaf	0.1616771
30	0x3e12d925	0.14340647
31	0x3c9e96e9	0.019359069
32	0x3df5cc1c	0.120018214
33	0x3cbfad6c	0.023398124
34	0xbc574e35	-0.013141205
35	0xbda77b8c	-0.081778616
36	0xbb931ec3	-0.004489751
37	0x3cb61c97	0.02223043
38	0x3d8a2373	0.06745043
39	0x3e1a82ce	0.1508896
40	0xbe58b987	-0.21164523
41	0x3bdf7702	0.0068196068
42	0xbdf6f7cc	-0.12058982
43	0xbd995419	-0.074867435
44	0xbe2c20bc	-0.16809362
45	0xbe026d9e	-0.12737128
46	0x3d2e3efa	0.042540528
47	0x3ce4ccae	0.02792963
48	0xbdee1819	-0.1162569
49	0xbd9d0821	-0.07667566
50	0xbe13b993	-0.1442626
51	0xbe40f937	-0.18845068
52	0x3e10abe5	0.14128073
53	0xbd63f83a	-0.05565665
54	0x3c54ed2e	0.012996001
55	0x3bc2c154	0.0059434567
56	0x3b30bb92	0.002696727
57	0xbd9b31a0	-0.075778246
58	0xbdf2b745	-0.11851362
59	0xbe056eb2	-0.13030508
60	0x3cc41d78	0.023939833
61	0xbe55f5a9	-0.20894493
62	0xbd12e737	-0.035865035
63	0x3d656ad2	0.056010075
64	0xbe0d326a	-0.13788763
65	0xbd260fd1	-0.040542427
66	0x3dfa2480	0.12213993
67	0xbdb918e5	-0.090379514
68	0x3ded9453	0.11600556
69	0xbd717c5c	-0.05895649
70	0xbe36d1f9	-0.17853536
71	0xbc63f739	-0.013913923
72	0xbc8248a3	-0.015903777
73	0xbd9f200b	-0.077697836
74	0xbd9a5cc3	-0.07537224
75	0x3da795a6	0.0818284
76	0xbd9c801c	-0.076416224
77	0xbe05c986	-0.13065156
78	0x3db88a8c	0.09010801
79	0x3dc94335	0.09827272
80	0x3d38ed09	0.04514793
81	0xbbb7a306	-0.0056041507
82	0xbd89802c	-0.067139
83	0x3d253025	0.040329117
84	0xbdf40bf9	-0.11916346
85	0x3e09a941	0.13443471
86	0x3e0c97e6	0.1372982
87	0x3d066906	0.032815002
88	0xbe04f3d7	-0.12983643
89	0x3e186178	0.14880931
90	0x3cee735b	0.02910774
91	0xbddc90c3	-0.107697986
92	0xbd795317	-0.060870256
93	0xbdae29ca	-0.085040644
94	0x3c0d9a94	0.008642811
95	0xbc523aa7	-0.012831367
96	0x3e1236bf	0.14278696
97	0xbe296bd8	-0.16545045
98	0xbd85fa6b	-0.06541904
99	0x3d9e6b28	0.07735282
100	0xbe343b48	-0.17600739
101	0x3dde3698	0.10850257
102	0x3de8acc5	0.11361078
103	0x3e92b9c0	0.2865734
104	0xbe64d6db	-0.22347586
105	0x3c1ee3f1	0.0096979
106	0x3d881008	0.06643683
107	0x3e0bb3c1	0.1364279
108	0xbd07c480	-0.03314638
109	0xbcc944c2	-0.02456892
110	0xbdea29f4	-0.11433783
111	0x3da00943	0.078142665
112	0xbd8ef4f5	-0.069803156
113	0x3cd8065d	0.026370222
114	0x3e195ae5	0.1497608
115	0x3b89a7ea	0.004200925
116	0xbd5be824	-0.053688183
117	0x3d1d8d68	0.038464934
118	0x3da41ba3	0.08013084
119	0xbe6d48ff	-0.23172377
120	0x3d8b1940	0.067919254
121	0x3e00fe35	0.12596972
122	0x3d9d5932	0.07683028
123	0x3c6e7e3f	0.014556467
124	0xbe909731	-0.2824035
125	0x3d89a548	0.06720978
126	0xbdd33d63	-0.10314443
127	0x3c2766ed	0.0102174105

lstm.bias_hh_l1 f4 [128]
0	0x3e44c1f8	0.19214618
1	0xbd46f0bd	-0.04856943
2	0xbdce04c8	-0.10059506
3	0x3db55c0b	0.088554464
4	0x3c7fa517	0.015603325
5	0x3d398144	0.045289293
6	0x3dd8e584	0.10590652
7	0x3e55f29f	0.20893334
8	0xbe28db64	-0.16489941
9	0xbd1f41a2	-0.03888095
10	0x3cd01d79	0.025404679
11	0xbd3f5be2	-0.046718486
12	0xbce4b887	-0.02792002
13	0x3cbffda6	0.023436379
14	0x3dacf360	0.084448576
15	0xbded04a1	-0.115731485
16	0xbd898215	-0.06714264
17	0x3e0ffdd5	0.14061673
18	0xbd9ac759	-0.07557554
19	0x3e197164	0.14984661
20	0x3d20f9f6	0.03930088
21	0x3bf7e0a0	0.007564619
22	0x3da44c5a	0.080223754
23	0x3dd9c501	0.10633279
24	0xbe1941e0	-0.14966536
25	0x3d4a94ce	0.049458317
26	0xbdb234ad	-0.08701453
27	0x3dccd9b7	0.10002463
28	0xbdd212e1	-0.10257507
29	0xbd19b184	-0.037522808
30	0x3e0f19a1	0.1397462
31	0xbe703108	-0.23456204
32	0x3d951c2c	0.07280764
33	0xbd6c2d89	-0.057660613
34	0xbde5c2ac	-0.11218771
35	0x3e1f9b09	0.15586485
36	0xbd599d99	-0.053128812
37	0xbe22d78f	-0.15902542
38	0xbe02fb6c	-0.12791222
39	0xbe207b63	-0.15672068
40	0xbe0c899c	-0.13724369
41	0xbe234478	-0.15944088
42	0x3bb38b51	0.0054792543
43	0xbd95d590	-0.073161244
44	0xbc6f5def	-0.014609798
45	0x3cf3d1b2	0.029763076
46	0xbd9ee8c1	-0.07759238
47	0xbe11d8b2	-0.14242819
48	0x3e0420bc	0.12903112
49	0x3bc109f6	0.00589108
50	0xbe54f054	-0.20794803
51	0xbd8ab3a4	-0.06772545
52	0x3c5c328b	0.013439785
53	0xbd8807c5	-0.06642107
54	0x3de7c722	0.113172784
55	0xbe9a8a3f	-0.30183598
56	0x3de5a3b3	0.11212864
57	0x3dbb5281	0.09146596
58	0xbe29a1e1	-0.16565658
59	0x3d25bef9	0.04046533
60	0xbe208014	-0.15673858
61	0xbe4b0615	-0.19826539
62	0xbca4d519	-0.020121144
63	0x3d066c73	0.03281827
64	0x3df3b058	0.11898869
65	0x3d4a732d	0.049426246
66	0xbdfea2b0	-0.12433374
67	0x3e2d4cdf	0.16923855
68	0x3da7d039	0.08194012
69	0x3ca0f2f7	0.019647105
70	0xbdd55984	-0.104174644
71	0x3d83d1fd	0.064365365
72	0xbd95301d	-0.072845675
73	0xbe061b62	-0.13096383
74	0xbc372cfa	-0.011180157
75	0xbe341bd3	-0.17588739
76	0x3caafb64	0.020871826
77	0x3b216352	0.002462585
78	0xbe196a6c	-0.14982003
79	0x3c47876e	0.012178285
80	0xbdccc584	-0.099986106
81	0xbe25e671	-0.16201188
82	0x3da7dfb2	0.08196963
83	0xbdd3f2e6	-0.103490636
84	0x3e3f25c1	0.18666746
85	0xbdc3b8f2	-0.0955676
86	0x3d7d1e0b	0.06179623
87	0xbcb1cef9	-0.021705138
88	0xbcfd2c6b	-0.03090497
89	0xbda4dbdb	-0.080497466
90	0x3d488f0d	0.04896455
91	0x3dd560e9	0.10418875
92	0x3bbd091f	0.0057689096
93	0xbdd3f8dd	-0.10350201
94	0xbcbcfa87	-0.02306868
95	0x3cc46ae9	0.02397676
96	0x3e07207c	0.13195986
97	0x3e215f23	0.15758948
98	0x3e0279e0	0.12741804
99	0xbc015727	-0.007894314
100	0x3e11edae	0.14250824
101	0xbe2a32e2	-0.16620973
102	0x3de16fb7	0.11007636
103	0x3e99c94d	0.30036393
104	0xbd580a3a	-0.052744128
105	0xbe2061e1	-0.15662338
106	0xbca9131f	-0.020639
107	0x3dbca1e6	0.09210567
108	0xbe62eeba	-0.2216138
109	0xbd5b2d0d	-0.05350976
110	0x3d35e418	0.04440698
111	0x3cae338d	0.021264816
112	0xbe3bf5ef	-0.18355535
113	0x3d938c38	0.07204479
114	0xbda01a4d	-0.078175165
115	0xbdaa2b7c	-0.08309075
116	0xbde7b1f0	-0.11313236
117	0xbda47222	-0.080295816
118	0x3e0cdd09	0.13756193
119	0xbe67f087	-0.22650348
120	0x3ddf1efa	0.1089458
121	0x3de5978f	0.11210548
122	0x3db98beb	0.0905989
123	0x3dc851c5	0.09781221
124	0xbe3250cc	-0.17413634
125	0xbdf1311a	-0.117769435
126	0xbdf0ab23	-0.11751392
127	0xbe32fae1	-0.17478515

fc.weight f4 [1, 32]
0	0x3d9cebee	0.076621875
1	0x3d417edf	0.047240134
2	0xbe6e3963	-0.23264079
3	0xbe53d673	-0.20687275
4	0xbd8373b9	-0.06418557
5	0xbd96bb1a	-0.073599055
6	0x3e53cee9	0.20684399
7	0xbe719b5f	-0.23594426
8	0x3b031e33	0.0020007014
9	0x3dc3c726	0.09559469
10	0x3e2c3ea2	0.16820768
11	0x3e48956f	0.19588254
12	0xbce57285	-0.028008709
13	0x3dc8a43e	0.09796952
14	0x3e1e9cb5	0.15489466
15	0xbe0264a9	-0.12733711
16	0x3dadd457	0.08487766
17	0x3e2e5d88	0.17027867
18	0x3e56fc13	0.20994596
19	0x3e1fcf49	0.15606417
20	0xbda006c9	-0.07813794
21	0xbe0cfdfd	-0.13768764
22	0xbe5a39d3	-0.2131112
23	0x3d8271d4	0.06369367
24	0xbd14d08b	-0.036331695
25	0xbde5161e	-0.11185859
26	0xbe117206	-0.14203653
27	0xbe0ed917	-0.1395
28	0x3c12c97b	0.0089591695
29	0xbe0641ea	-0.13111082
30	0x3d63bda9	0.055600796
31	0x3d5affa3	0.05346645
