backend/stocks/price/pt_models/AKU.pt (torch, 54423 bytes, 9 tensors)

lstm.weight_ih_l0 f4 [128, 1]
0	0xbc3dafae	-0.01157753
1	0xbe6b6ff4	-0.22991925
2	0xbd1fe512	-0.039036818
3	0x3d787e02	0.060667045
4	0xbd1e244c	-0.038608834
5	0x3b1c949c	0.002389229
6	0xbd3045b7	-0.043035235
7	0xbcd1736b	-0.02556773
8	0xbcd44384	-0.0259111
9	0xbd3645fa	-0.04450033
10	0x3e70ce82	0.23516276
11	0xbe2e70f8	-0.17035282
12	0x3dcbec85	0.09957222
13	0xbd79b765	-0.060965914
14	0x3e0751aa	0.13214746
15	0xbca449a8	-0.020054653
16	0x3de7ab57	0.11311977
17	0x3e325ac3	0.17417435
18	0x3c21d662	0.009877773
19	0xbe213968	-0.15744555
20	0x3dd26369	0.10272867
21	0xbe17a679	-0.14809598
22	0xbe001760	-0.12508917
23	0xbd7f6c9a	-0.06235943
24	0xbd689327	-0.05678096
25	0xbddc246b	-0.10749134
26	0xbc1aa8a8	-0.009439625
27	0xbe6d008a	-0.23144737
28	0x3d04306a	0.032272734
29	0x3d3dd353	0.046344113
30	0x3e3bb2a8	0.1832987
31	0x3e88a277	0.2668645
32	0x3cdfbf52	0.027312908
33	0xbe7d958e	-0.24764082
34	0xbe0497cf	-0.12948535
35	0x3e20b4cc	0.15693969
36	0x3b23935e	0.0024959664
37	0xbcc47bd7	-0.023984833
38	0x3e59c9fd	0.21268459
39	0xbda8e517	-0.082468204
40	0xbc43452d	-0.011918348
41	0x3d8bef55	0.06832758
42	0x3e038220	0.12842607
43	0xbdc90f1a	-0.098173335
44	0xbe1f0d9c	-0.15532535
45	0x3e5a4c64	0.21318203
46	0x3e594f26	0.21221599
47	0x3d8684c6	0.06568293
48	0x3a586a6a	0.0008255603
49	0x3e0c72fc	0.13715738
50	0xbe86197c	-0.26191318
51	0xbe435a67	-0.19077455
52	0xbde8d37c	-0.113684624
53	0xbe6e2348	-0.23255646
54	0x3d852864	0.065018445
55	0xbcd3f10a	-0.025871772
56	0xbe4d73b4	-0.20063668
57	0xbe21c4cf	-0.15797733
58	0x3db11877	0.086472444
59	0x3dacae33	0.08431663
60	0x3e12eac7	0.14347373
61	0x3e499b1f	0.1968808
62	0x3e48ed42	0.19621757
63	0x3c2aa036	0.010414174
64	0xbe54e63c	-0.20790952
65	0xbe801976	-0.25019425
66	0xbe2f9d4f	-0.17149852
67	0x3e6c5610	0.23079705
68	0xbe00d468	-0.12581027
69	0x3e37904b	0.17926137
70	0xbe126e42	-0.14299873
71	0x3e39b049	0.18133654
72	0xbe3ce2f5	-0.18445952
73	0xbe2ddf03	-0.16979603
74	0xbe7bd7b9	-0.2459401
75	0x3e041278	0.1289767
76	0xbe734a58	-0.23758829
77	0x3cc19f92	0.02363566
78	0xbd6d5893	-0.0579458
79	0x3e8bc107	0.27295706
80	0x3e89ae98	0.26891017
81	0xbe6ce88c	-0.23135585
82	0x3e773a41	0.24143316
83	0x3e64d3dc	0.22346443
84	0xbdfee542	-0.12446071
85	0x3e6bd2d3	0.23029642
86	0xbe59784a	-0.21237293
87	0x3de198fb	0.11015507
88	0xbe8b39f6	-0.27192658
89	0xbe07face	-0.13279268
90	0x3e83b791	0.25725988
91	0xbdf0a053	-0.117493294
92	0xbe7f48f0	-0.24930167
93	0xbe52ae86	-0.20574388
94	0xbe91dc36	-0.2848832
95	0x3e7f0726	0.2490507
96	0x3e53d47c	0.20686525
97	0xbae1b8f6	-0.001722126
98	0xbe40e21d	-0.18836255
99	0x3c6b502b	0.014362375
100	0xbbc08b40	-0.005875975
101	0xbe55b09c	-0.20868152
102	0x3e87695f	0.2644758
103	0xbe11e8f2	-0.14249018
104	0xbd4030c1	-0.046921495
105	0xbe083029	-0.13299622
106	0x3d941b56	0.072317764
107	0xbdcb9397	-0.0994026
108	0xbe086267	-0.13318788
109	0xbdf0b4f0	-0.11753261
110	0xbd9fd6e8	-0.07804662
111	0x3df695f9	0.12040324
112	0x3e757bdd	0.23973031
113	0x3d028e7a	0.031874157
114	0xbd641d16	-0.0556918
115	0x3d3e6af4	0.046488717
116	0xbd8bd283	-0.06827261
117	0xbe888a10	-0.26667833
118	0xbde583f3	-0.11206808
119	0x3e5d3183	0.21600918
120	0xbdb7c4c0	-0.08973074
121	0xbbdf34f7	-0.006811734
122	0x3ddb3868	0.10704118
123	0xbe7f3c24	-0.24925286
124	0x3e768450	0.2407391
125	0x3dae27e3	0.085037015
126	0x3e91c3c2	0.28469664
127	0x3e57f324	0.21088845

lstm.weight_hh_l0 f4 [128, 32]
0	0xbe04dc37	-0.1297463
1	0xbe04afa7	-0.12957631
2	0x3d39d77b	0.045371514
3	0xbd26463e	-0.040594332
4	0x3c56b7b6	0.013105324
5	0xbe2cc891	-0.16873385
6	0xbe1249d1	-0.14285971
7	0xbd726a34	-0.059183314
8	0x3e41fae7	0.18943368
9	0xbe0b5bdd	-0.13609262
10	0xbc3837d6	-0.011243781
11	0xbe100035	-0.14062579
12	0xbdc39be4	-0.09551218
13	0x3e3f37c9	0.18673624
14	0xbd6a4a11	-0.05719954
15	0x3e45315b	0.19257109
16	0xbd8fc258	-0.0701949
17	0x3df2d10a	0.11856277
18	0xbd66e60a	-0.056371726
19	0xbe3a1e30	-0.18175578
20	0x3d9042bb	0.07043978
21	0x3e115a88	0.14194691
22	0x3e37b884	0.17941481
23	0x3ded394c	0.11583194
24	0x3d501e26	0.05081
25	0xbdf9ede8	-0.1220358
26	0xbd9f92f3	-0.077917
27	0xbdba1671	-0.090863116
28	0x3da6f29a	0.08151741
29	0x3cb77a87	0.022397293
30	0xbd21124d	-0.039324094
31	0x3c9ecb6f	0.019384114
32	0x3daea7a8	0.08528072
33	0x3cb3b690	0.021937639
34	0x3dcd2b99	0.10018081
35	0x3e798c8f	0.24370025
36	0x3e27b957	0.16379295
37	0x3debd342	0.115149036
38	0xbd438936	-0.047738276
39	0xbd920ce2	-0.071313635
40	0x3de51791	0.111861356
41	0x3db6bd9e	0.08922885
42	0xbe761be5	-0.24034078
43	0xbe057e7c	-0.13036531
44	0x3d6e91ef	0.058244642
45	0x3dfb0a7c	0.12257859
46	0xbd85ead5	-0.06538931
47	0xbd0a0391	-0.033694807
48	0xbdfde8a2	-0.12397887
49	0xbe53e8f7	-0.20694338
50	0x3de52084	0.111878425
51	0x3d99c13c	0.0750756
52	0xbe083d7b	-0.13304703
53	0xbe3e6609	-0.18593611
54	0xbc8dd774	-0.01731465
55	0xbd5d6956	-0.054055534
56	0x3da305ea	0.079601124
57	0x3da170a1	0.078828104
58	0x3d21cdf4	0.039503053
59	0x3d031ceb	0.03201
60	0x3daac585	0.08338455
61	0xbd17534a	-0.036944665
62	0x3d6601bc	0.056153998
63	0x3dd2d184	0.10293868
64	0xbdb3b1cf	-0.08774149
65	0xbd802124	-0.06256321
66	0x3e182e14	0.14861327
67	0x3e3ac168	0.18237841
68	0xbe2d864f	-0.16945766
69	0x3ddad551	0.10685218
70	0x3df3f0bc	0.11911151
71	0x3e1997d8	0.1499933
72	0x3d63f7cb	0.055656236
73	0xbe215c20	-0.15757799
74	0xbdf2ea70	-0.11861122
75	0xbde792ac	-0.11307272
76	0xbd7ff5bb	-0.062490206
77	0xbd368316	-0.044558607
78	0xbe617ba8	-0.22019827
79	0x3d0ddb35	0.03463288
80	0xbe2e4277	-0.17017542
81	0xbd4aa65e	-0.049475066
82	0x3db50139	0.08838124
83	0xbd7afb07	-0.061274555
84	0x3d7ca4fe	0.061680786
85	0xbdb16390	-0.08661568
86	0xbe2874a1	-0.1645074
87	0xbda6bf87	-0.08142
88	0xbc952f05	-0.018210897
89	0xbdb87686	-0.090069816
90	0xbe2f31f4	-0.171089
91	0xbd6ba121	-0.05752671
92	0x3c53855c	0.012910213
93	0x3e339349	0.17536654
94	0xbba50f19	-0.0050372
95	0xbdb95dc3	-0.09051087
96	0xbd9719bb	-0.073779546
97	0x3da26f3a	0.07931371
98	0xbd47406f	-0.048645433
99	0x3d54ed54	0.051984146
100	0xbdbd3a76	-0.09239666
101	0xbdd54fa1	-0.10415579
102	0x3dd63f27	0.10461264
103	0xbd0f2ada	-0.034952976
104	0xbe01afed	-0.12664767
105	0x3e223321	0.15839817
106	0x3dd93a04	0.10606769
107	0x3e0b9abd	0.13633247
108	0xbe1f1194	-0.1553405
109	0xbc94b448	-0.018152371
110	0x3d5633ba	0.052295424
111	0x3d260943	0.040536176
112	0xbe051936	-0.12997898
113	0x3e16646d	0.14686747
114	0xbe1cb223	-0.15302329
115	0xbc04d184	-0.008106593
116	0x3e45c100	0.19311905
117	0x3d1e5510	0.03865534
118	0xbe2a2af2	-0.16617945
119	0x3d0cc7bb	0.034370165
120	0x3d782da7	0.060590412
121	0xbe14a68a	-0.14516655
122	0x3e1bef27	0.15227948
123	0xbd8ca397	-0.0686714
124	0xbe529441	-0.20564367
125	0xbe22b41f	-0.15889023
126	0xbe111d1e	-0.14171264
127	0xbda4b9c7	-0.08043247
128	0x3e28cfa4	0.16485459
129	0x3dbd1d8f	0.092341535
130	0xbd04e59c	-0.032445535
131	0xbdc1a636	-0.0945553
132	0xbd86c505	-0.06580547
133	0xbb48d099	-0.0030641912
134	0x3d79acb2	0.06095571
135	0xbe3766cd	-0.17910309
136	0xbd726f38	-0.059188098
137	0xbe0d2308	-0.13782895
138	0x3dff8389	0.1247626
139	0xbd7bbc8a	-0.0614591
140	0x3c9f0847	0.019413127
141	0x3e3b31df	0.18280743
142	0x3d98cd09	0.07460982
143	0x3dacd4ee	0.084390506
144	0x3aba3796	0.001420724
145	0xbe0bc3e1	-0.1364894
146	0xbe3a6fc1	-0.18206693
147	0xbd1a5345	-0.03767707
148	0xbc4e0559	-0.012574517
149	0xbdcbe210	-0.099552274
150	0xbb99ee63	-0.0046976074
151	0x3d9663c5	0.07343248
152	0xbe138665	-0.14406736
153	0x3bf913f8	0.0076012574
154	0xbe0efb58	-0.13963068
155	0x3d972717	0.07380503
156	0x3df17f39	0.11791844
157	0x3d9ae06d	0.07562337
158	0xbe1761c4	-0.14783388
159	0xbdbf757d	-0.09348581
160	0xbdf8fdef	-0.12157809
161	0x3d8ce992	0.068804875
162	0xbe0d8f47	-0.13824187
163	0x3dbe4f5a	0.09292479
164	0x3ccc6e27	0.024954868
165	0xbd43994e	-0.047753625
166	0x3e0154c8	0.12629998
167	0xbd798cd9	-0.06092534
168	0x3e245c10	0.16050744
169	0x3d0c8a09	0.034311328
170	0x3def86a6	0.11695604
171	0x3d929e6c	0.07159123
172	0x3da1f8e5	0.07908801
173	0x3e23129a	0.15925065
174	0xbe0be729	-0.136624
175	0xbdb7bcbd	-0.08971546
176	0xbdd59df2	-0.10430516
177	0x3de05613	0.10953917
178	0xbd3fa8c1	-0.046791796
179	0xbd0894c3	-0.033344995
180	0x3da39034	0.07986489
181	0x3cdc68aa	0.026905376
182	0x3e187147	0.14886962
183	0xbd8aba6d	-0.06773839
184	0xbda1ab0d	-0.078939535
185	0x3deb9574	0.11503115
186	0xbd991315	-0.07474343
187	0xbd622fc9	-0.055221353
188	0xbd71ba9c	-0.059015855
189	0x3db1877c	0.0866842
190	0x3c9c250d	0.019060636
191	0xbdb5e3ea	-0.08881362
192	0x3e022b3b	0.12711804
193	0xbe6f12d4	-0.23347026
194	0xbdc74ece	-0.09731828
195	0x3c7057b3	0.014669347
196	0x3d8d1765	0.06889228
197	0xbdefacc1	-0.11702872
198	0x3e46a13a	0.1939744
199	0x3d5a7454	0.053333595
200	0xbc1000d1	-0.008789257
201	0xbdb92f28	-0.090421975
202	0x3e413243	0.1886683
203	0xbe2861a9	-0.16443504
204	0x3c3d6df7	0.011561862
205	0xbe205564	-0.15657574
206	0x3d3f196f	0.046655115
207	0x3c88aa2e	0.01668271
208	0x3cb1d9d8	0.021710321
209	0xbdb823e6	-0.08991222
210	0xbdd7efb4	-0.105437666
211	0x3e0081b6	0.12549481
212	0xbb9fbb75	-0.0048746415
213	0x3c425be7	0.011862732
214	0xbc1d2d41	-0.009593309
215	0x3e237c65	0.15965421
216	0x3c11ab67	0.008890963
217	0xbdedf3e9	-0.11618788
218	0xbdb5395c	-0.08848831
219	0xbe2e2d8a	-0.1700956
220	0xbd0decfa	-0.034649827
221	0xbe083a89	-0.1330358
222	0xbe330da0	-0.17485666
223	0xbb73f610	-0.0037225522
224	0x3c2143d0	0.009842828
225	0xbdab6f94	-0.08370891
226	0x3dba6999	0.091021724
227	0x3dc690bb	0.09695574
228	0x3e3ea749	0.18618502
229	0x3d7ee71c	0.06223212
230	0xbdda31ee	-0.106540546
231	0x3c5b00fe	0.013366936
232	0x3e3cfdcc	0.18456191
233	0x3cd558f7	0.026043398
234	0x3c1eb5be	0.009686885
235	0xbe23679e	-0.15957496
236	0x3cbbeaa9	0.022939043
237	0xbb201bee	-0.002443071
238	0x3e1cb941	0.15305044
239	0x3c7ff06c	0.015621286
240	0xbda96676	-0.08271496
241	0x3e55efa8	0.20892203
242	0x3e0bc1c8	0.1364814
243	0x3dac6586	0.084178016
244	0xbcc74e00	-0.024329185
245	0xbe184c7c	-0.14872926
246	0xbdd07f6e	-0.10180555
247	0xbdbc4c79	-0.091942735
248	0xbd1456fa	-0.03621576
249	0x3e24decd	0.16100617
250	0xbe50354e	-0.20332834
251	0xbde5f847	-0.11228996
252	0x3e092900	0.13394547
253	0x3e07a288	0.13245595
254	0xbe0b51ef	-0.13605474
255	0xbdaf0f28	-0.08547813

lstm.bias_ih_l0 f4 [128]
0	0x3e3fd507	0.18733607
1	0xbdcf9caf	-0.10137307
2	0xbda1c5a1	-0.07899023
3	0x3e2e7b45	0.17039211
4	0x3d8a8ac2	0.06764747
5	0x3d56953f	0.052388426
6	0xbd376324	-0.044772282
7	0x3ab0c279	0.0013485692
8	0x3e39547f	0.18098639
9	0x3d26973d	0.040671576
10	0x3c9f1eca	0.019423861
11	0x3dddfe20	0.10839486
12	0x3e0c973b	0.13729565
13	0xbe1012b4	-0.14069635
14	0xbdf07836	-0.117416784
15	0x3e211514	0.15730697
16	0x3d3d8520	0.046269536
17	0xbdedbbfe	-0.11608122
18	0xbd271fd6	-0.040801845
19	0x3de30f8e	0.11086951
20	0x3d812cf9	0.06307406
21	0xbdfe317d	-0.12411783
22	0xbd51290e	-0.051064543
23	0x3e07532c	0.13215321
24	0x3e1712a1	0.147532
25	0x3d714c0d	0.05891042
26	0xbdaddda2	-0.08489539
27	0xbe128d12	-0.14311627
28	0x3e079223	0.1323934
29	0xbdfe4cb7	-0.12416976
30	0x3c86d498	0.016458794
31	0x3d1e7615	0.03868683
32	0xbc3a5997	-0.011373899
33	0x3e22d482	0.15901378
34	0x3c91f742	0.017818097
35	0x3e2f7210	0.17133355
36	0x3b950043	0.0045471503
37	0x3dbb4e46	0.09145789
38	0xbe0473ab	-0.12934749
39	0x3e1cd3e7	0.1531521
40	0xbd1241a9	-0.03570715
41	0x3de3cd24	0.11123112
42	0xbe0c0315	-0.1367305
43	0x3e0bfb4e	0.13670084
44	0xbe05ba93	-0.13059454
45	0xbddb0acc	-0.10695419
46	0xbde2dd10	-0.110773206
47	0xbdbad1fc	-0.091220826
48	0xbcc6375a	-0.024196316
49	0xbe4f9e88	-0.20275319
50	0x3e27088e	0.16311857
51	0x3e3461f0	0.17615485
52	0xbe135125	-0.14386423
53	0xbd82ec0d	-0.06392679
54	0x3d3676dd	0.04454695
55	0x3d1518bf	0.036400553
56	0x3d4a1eb0	0.049345672
57	0x3d4d33c0	0.05009818
58	0xbdb686d9	-0.08912439
59	0x3d9ee978	0.077593744
60	0x3ca8c530	0.020601839
61	0x3b88c82e	0.004174254
62	0x3d3102a0	0.043215394
63	0x3e342792	0.1759322
64	0xbe140799	-0.14456023
65	0x3d8a6f5a	0.0675952
66	0x3dc39675	0.09550182
67	0x3d405a79	0.04696128
68	0x3e197808	0.14987195
69	0xbde8dd42	-0.113703266
70	0xbdeef883	-0.116684936
71	0xbcfd1273	-0.030892586
72	0x3dd61807	0.104538016
73	0x3d7b156a	0.06129972
74	0xbcf87829	-0.030330734
75	0x3d71af13	0.059004854
76	0x3d76387b	0.060112458
77	0x3dc0a4fc	0.09406468
78	0xbd55b5c6	-0.052175306
79	0x3e06decb	0.13170926
80	0x3d540c7b	0.051769715
81	0xbe25cc4e	-0.16191217
82	0x3c3ccb45	0.011523073
83	0x3c9480de	0.018127855
84	0x3d90b71b	0.070661746
85	0xbcea17ba	-0.028575767
86	0x3d4da56e	0.050206594
87	0x3c2f36cc	0.010694217
88	0xbe1d5c4f	-0.15367244
89	0x3da3af79	0.07992453
90	0x3d1a8d48	0.037732393
91	0x3d954c29	0.07289917
92	0x3a61acbc	0.0008608808
93	0xbdab3aac	-0.083608
94	0xbdc13661	-0.094342
95	0x3d69d776	0.057090245
96	0xbdb455f4	-0.08805457
97	0x3e0cf0eb	0.13763778
98	0x3d02347e	0.03178834
99	0xbd7d902d	-0.061905075
100	0xbd6e6164	-0.058198348
101	0xbdf7f9ec	-0.12108216
102	0xbd2a2ebc	-0.041548476
103	0xbdcd9bec	-0.10039505
104	0xbb7a5090	-0.0038194992
105	0x3e22ae1e	0.15886733
106	0x3d03887c	0.032112584
107	0xbd495ac1	-0.049158815
108	0x3dafaf6e	0.085783824
109	0xbe210310	-0.15723825
110	0xbe6165ac	-0.22011441
111	0x3ca37175	0.019951561
112	0x3e109805	0.14120491
113	0x3d278666	0.040899657
114	0x3e2f056b	0.1709191
115	0xbdcd8d94	-0.100367695
116	0xbe200dca	-0.1563026
117	0x3ca4c5f9	0.020113932
118	0x3e45f427	0.19331418
119	0xbe04414f	-0.12915538
120	0x3dea0863	0.11427381
121	0xbd9ccc48	-0.07656151
122	0xbd7da4c8	-0.061924726
123	0xbe34bf14	-0.17651016
124	0x3df3afb8	0.1189875
125	0x3d4b0211	0.049562518
126	0x3e2dbef6	0.16967377
127	0xbd240b31	-0.040049735

lstm.bias_hh_l0 f4 [128]
0	0x3d6fa4e2	0.058506854
1	0x3e292709	0.16518797
2	0xbd93b01d	-0.07211325
3	0x3c644402	0.01393223
4	0x3bbc0971	0.00573843
5	0x3db83094	0.089936405
6	0xbdf0dbea	-0.11760695
7	0x3dd91414	0.10599533
8	0x3e2066e7	0.15664254
9	0x3d80793a	0.06273122
10	0x3dc93e12	0.09826292
11	0x3e033a63	0.12815242
12	0xbd087ec8	-0.033324033
13	0x3ddd95d6	0.108195946
14	0x3b72d5d0	0.0037053712
15	0xbe0574f2	-0.13032892
16	0xbe0fff53	-0.14062242
17	0x3c5e8e83	0.013583782
18	0x3e54ccec	0.20781296
19	0x3c9af147	0.018913878
20	0xbe090210	-0.13379693
21	0x3b47de9a	0.003049767
22	0x3e0c3a03	0.13694005
23	0xbd23847a	-0.03992126
24	0x3c5e7087	0.013576633
25	0x3c8f86ef	0.017520396
26	0x3c786cdc	0.015162673
27	0x3daa273f	0.08308267
28	0x3e25cace	0.16190645
29	0xbbe4b480	-0.006979525
30	0xbd6ae774	-0.057349637
31	0x3dc5746c	0.09641346
32	0x3d68daf9	0.056849454
33	0x3b70512d	0.0036669478
34	0xbd256ffc	-0.04039
35	0xbcf38bf0	-0.029729813
36	0xbcd00e2f	-0.025397388
37	0x3d5f7df0	0.054563463
38	0x3dec2685	0.115307845
39	0x3dd024bb	0.10163256
40	0x3df874bb	0.121316396
41	0x3e1c7c65	0.15281828
42	0xbd16b39f	-0.036792394
43	0x3d9889b9	0.074481435
44	0x3d1ed36f	0.038775858
45	0xbce8c629	-0.028414803
46	0x3c4e0719	0.012574934
47	0x3d7500ef	0.059815343
48	0x3daeb7bc	0.08531138
49	0x3def72e1	0.11691833
50	0xbc58453a	-0.013200099
51	0x3e22969c	0.15877765
52	0x3d9c9491	0.07645524
53	0xbd94682a	-0.0724643
54	0x3cf2fc8e	0.029661443
55	0xbc84513c	-0.016152017
56	0x3d2c5376	0.042071782
57	0xbdcc6b52	-0.09981407
58	0xbc0a0639	-0.008424335
59	0xbe17e4c0	-0.14833355
60	0xbcb612d1	-0.02222577
61	0xbe56d09e	-0.20978019
62	0xbd27c4f8	-0.04095933
63	0x3bde2f5c	0.006780548
64	0x3dd9347b	0.10605713
65	0x3d6d2b7e	0.057902806
66	0xbd113c45	-0.035457868
67	0x3b01aaa4	0.0019785548
68	0x3e02b350	0.12763715
69	0xbd58b98d	-0.05291133
70	0xbc4c6e2f	-0.012477442
71	0xbd3bfee1	-0.04589737
72	0x3db84afe	0.089986786
73	0x3cab07f1	0.02087781
74	0xbdde21f9	-0.108463235
75	0xbd936f8a	-0.07199009
76	0x3cd4e2e3	0.025987094
77	0xbb98518d	-0.0046483935
78	0x3d9ccae0	0.07655883
79	0x3d3daacd	0.046305466
80	0x3d832eda	0.064054206
81	0x3cebceda	0.028785158
82	0xbe2d0ef4	-0.16900235
83	0xbe32db48	-0.17466462
84	0xbbd26b76	-0.0064215017
85	0xbdbdc9a3	-0.09266975
86	0xbd0cc3c2	-0.034366377
87	0x3e134f7e	0.14385793
88	0x3e0b90f2	0.13629511
89	0x3db29501	0.087198265
90	0xbde188bf	-0.1101241
91	0x3da1c7fc	0.07899472
92	0x3d6c0d77	0.05763003
93	0xbd4700e7	-0.048584845
94	0x3da2e609	0.07954032
95	0x3ce6ff3a	0.028197873
96	0xbba8e7ef	-0.0051546018
97	0x3e078645	0.13234814
98	0x3e00210f	0.12512611
99	0x3cb505f3	0.022097563
100	0x3e37e4d8	0.1795839
101	0x3e0a30f3	0.13495235
102	0x3da911b5	0.082553305
103	0x3c9f2ba2	0.019429985
104	0x3e16df12	0.14733532
105	0x3e1e829e	0.15479514
106	0x3e15d6d4	0.14632732
107	0x3e0df6fa	0.13863745
108	0x3cce791d	0.025204236
109	0xbe4e2f12	-0.20135143
110	0xbd92159a	-0.071330264
111	0xbb3d74e9	-0.0028908795
112	0xbe025885	-0.1272908
113	0xbe440205	-0.19141395
114	0x3d428ac8	0.047495633
115	0x3d3648dd	0.04450308
116	0xbdf001f8	-0.117191255
117	0xbd20e33a	-0.0392792
118	0x3d99bb56	0.075064346
119	0xbcc59ffe	-0.024124142
120	0x3c8ab891	0.016933711
121	0x3dccc926	0.099993035
122	0x3dd713b7	0.10501807
123	0xbd874312	-0.066045895
124	0x3e98f877	0.29877064
125	0x3dd5dcf9	0.10442538
126	0x3e5b91e0	0.21442366
127	0xbd711dbf	-0.05886626

lstm.weight_ih_l1 f4 [128, 32]
0	0xbe6665e7	-0.2249981
1	0xbcc01c66	-0.023451041
2	0xbe0cf559	-0.13765468
3	0x3d6a81af	0.057252582
4	0xbe095964	-0.13413006
5	0x3d1130e6	0.035447024
6	0x3daf6d2d	0.085657455
7	0xbd076b80	-0.033061504
8	0xbd4604f7	-0.04834458
9	0xbc123246	-0.008923119
10	0x3cd9150c	0.026499294
11	0x3e410890	0.18850923
12	0xbe46c16c	-0.19409722
13	0xbd83b3ba	-0.064307645
14	0xbda6407a	-0.08117767
15	0x3e0743b0	0.13209414
16	0xbd841482	-0.06449224
17	0x3ddff8ae	0.10936104
18	0x3e2200b2	0.15820578
19	0xbc9d5924	-0.019207545
20	0xbc474cd2	-0.0121643115
21	0x3e3b1244	0.18268687
22	0xbe500608	-0.203148
23	0xbd00d7b5	-0.031455714
24	0xb90a9bbe	-0.00013218724
25	0x3e128e41	0.14312078
26	0x3dd8c707	0.105848365
27	0x3c33405b	0.0109406365
28	0xbd19be5b	-0.037535053
29	0x3dec254b	0.115305506
30	0xbe646e74	-0.2230776
31	0x3e679f7d	0.22619434
32	0x3d91c048	0.07116753
33	0x3e1e313d	0.1544847
34	0x3d5af82e	0.05345934
35	0xbe62b36c	-0.22138757
36	0xbdee4f8f	-0.11636268
37	0xbd8b4af8	-0.068014085
38	0xbe251838	-0.1612252
39	0xbe563056	-0.20916876
40	0x3ca5f044	0.02025617
41	0x3cebfa30	0.028805822
42	0xbdfcb84c	-0.12339839
43	0x3d2cabf0	0.04215616
44	0x3dd02e59	0.1016509
45	0x3e4568b6	0.19278225
46	0xbdc6332b	-0.09677728
47	0x3cb80701	0.022464277
48	0x3de4e5e0	0.11176658
49	0x3e1acec0	0.15117931
50	0xbe5759ce	-0.21030352
51	0x3c6f5d28	0.0146096125
52	0xbdba716a	-0.09103663
53	0xbe3284d0	-0.17433476
54	0x3e7365bb	0.23769276
55	0x3d99a9d2	0.07503094
56	0x3c3bb404	0.011456493
57	0x3e2765d4	0.16347438
58	0x3d9f9a82	0.07793142
59	0xbd76c81b	-0.06024943
60	0x3e95303b	0.2913836
61	0xbdc394b9	-0.09549851
62	0x3e1915ec	0.14949769
63	0xbe740f84	-0.23834044
64	0xbda7c4c7	-0.08191829
65	0x3cd9206e	0.026504721
66	0xbe0fe502	-0.14052203
67	0x3e19bd33	0.1501358
68	0xbde6063c	-0.11231658
69	0x3e044180	0.12915611
70	0xbdb135cf	-0.08652841
71	0x3e353309	0.1769525
72	0xbdd28ca8	-0.10280734
73	0x3dc4ab40	0.09602976
74	0x3e298a43	0.16556649
75	0x3cae1779	0.021251427
76	0x3e222482	0.15834239
77	0x3ce49610	0.027903587
78	0xbd7ee452	-0.062229462
79	0x3d1d7bca	0.038448133
80	0x3e008e22	0.1255422
81	0xbd7cba69	-0.061701212
82	0x3d88e32f	0.06683957
83	0x3c0e8f80	0.008701205
84	0xbdf897fd	-0.121383645
85	0xbdd29c9e	-0.102837786
86	0xbdd4b807	-0.10386663
87	0xbd316a76	-0.04331442
88	0x3d9c4a8c	0.07631406
89	0xba42ee6b	-0.000743604
90	0x3e08e7f6	0.13369736
91	0x3dd6d214	0.10489288
92	0x3dec341c	0.115333766
93	0x3e0ce9bd	0.13761039
94	0x3e11ac6e	0.14225933
95	0x3c26dccd	0.010184479
96	0xbd9c8bb5	-0.076438345
97	0x3d25cd75	0.040479142
98	0xbd05f853	-0.032707524
99	0xbce4f23e	-0.027947541
100	0x3dbb7130	0.09152448
101	0xbe528fe4	-0.20562702
102	0x3e24402d	0.16040106
103	0xbded64ac	-0.11591467
104	0xbdd237b0	-0.10264528
105	0x3dcd5483	0.10025885
106	0x3e4cbda8	0.19994223
107	0xbe1172aa	-0.14203897
108	0x3d97a377	0.07404225
109	0x3d7536cb	0.059866708
110	0x3e15dd2f	0.14635156
111	0xbe36004f	-0.17773555
112	0x3d8e31c7	0.06943088
113	0x3deb77ee	0.11497484
114	0xbde4d2e3	-0.11173036
115	0xbd9b2c3d	-0.07576797
116	0x3d4ca3d7	0.049960937
117	0x3d0fde7b	0.035124283
118	0x3e556217	0.208382
119	0xbdd29fc5	-0.1028438
120	0x3d054ba2	0.032542832
121	0x3dde0a53	0.10841813
122	0xbd947f5a	-0.07250853
123	0xbd43c1a9	-0.04779211
124	0x3ea46722	0.32109934
125	0xbcd5e30b	-0.02610924
126	0x3e0540fd	0.13013072
127	0xbe552e7a	-0.2081851
128	0xbb889807	-0.0041685137
129	0xbc0b5630	-0.008504435
130	0xbc3f47d2	-0.011674838
131	0x3d8116b7	0.06303161
132	0xbcc89a75	-0.024487713
133	0x3d8d0c2e	0.06887089
134	0x3df85eb0	0.12127435
135	0xbd93fd94	-0.072261006
136	0xbba9cb2f	-0.005181692
137	0xbe410189	-0.18848242
138	0x3e089db6	0.13341412
139	0x3e0fb8e1	0.1403537
140	0xbd7ae1cf	-0.061250504
141	0xbdfedd3b	-0.1244454
142	0xbe21a75a	-0.15786496
143	0x3dbfc4a8	0.09363681
144	0x3dfa53b0	0.122229934
145	0xb97804f8	-0.00023652974
146	0x3e471fc4	0.19445711
147	0x3e113ad2	0.14182594
148	0x3dd39ed4	0.103330284
149	0xbc8f92ee	-0.017526116
150	0x3c07bb74	0.008284438
151	0xbda615a9	-0.081096
152	0xbe5353c6	-0.20637426
153	0x3cdc13fb	0.026864996
154	0x3e24bad2	0.16086891
155	0xbd8179ee	-0.06322084
156	0xbdce0cf6	-0.10061066
157	0xbe442f15	-0.19158585
158	0x3d8eafba	0.06967111
159	0x3d87a8bf	0.06623983
160	0x3d04716f	0.03233474
161	0x3e58641c	0.21131939
162	0xbdb4e4a1	-0.0883267
163	0xbe0690e4	-0.13141209
164	0xba5551fa	-0.00081375206
165	0xbdd5c900	-0.10438728
166	0xbe0184dd	-0.1264834
167	0x3e0954a4	0.13411194
168	0x3d2d57e5	0.04232015
169	0x3c3bba0b	0.01145793
170	0x3d8d53cb	0.06900748
171	0x3da92f94	0.08261028
172	0x3dc21489	0.09476573
173	0xbd8f8f2a	-0.07009728
174	0xbdf7facf	-0.12108385
175	0x3a12f08f	0.0005605304
176	0xbe41859f	-0.18898629
177	0xbe1fdc6b	-0.15611427
178	0x3dc8d47d	0.09806154
179	0xbd57fc94	-0.05273111
180	0x3d767074	0.060165837
181	0x3c789790	0.015172854
182	0xbd94cc46	-0.072655246
183	0xbcc3c462	-0.023897354
184	0x3c8cac88	0.017172113
185	0x3e33fad1	0.17576148
186	0xbe197d7a	-0.14989272
187	0xbdc64735	-0.096815504
188	0x3e90cdd7	0.28282043
189	0xbddeece6	-0.108850285
190	0xbd8a319a	-0.06747742
191	0xbe60190e	-0.21884558
192	0xbe796bb1	-0.24357487
193	0xbe10d516	-0.14143786
194	0x3d950724	0.072767526
195	0x3e0e81c5	0.1391669
196	0xbdd9f27f	-0.106419556
197	0xbdb64489	-0.08899791
198	0xbe3f7341	-0.1869631
199	0xbe02c5e0	-0.12770796
200	0x3df9fcc4	0.12206414
201	0xbd7d7192	-0.061875887
202	0xbe34b7f8	-0.17648304
203	0x3dcada7a	0.09904952
204	0xbe130d31	-0.14360501
205	0xbd4c4713	-0.04987247
206	0xbe184f56	-0.14874014
207	0x3e84321b	0.25819477
208	0x3c59e067	0.013298131
209	0xbe054606	-0.13014993
210	0x3e3ec531	0.1862991
211	0x3e19ec4b	0.15031545
212	0xbe0cfe2e	-0.13768837
213	0xbd5c26eb	-0.053748053
214	0xbe013bf5	-0.12620528
215	0xbce81f54	-0.02833525
216	0xbde96ab8	-0.11397308
217	0x3d5f7996	0.054559313
218	0xbd949dfb	-0.07256695
219	0xbe5359de	-0.2063975
220	0xbe07bbcd	-0.13255234
221	0xbe0038ec	-0.12521714
222	0xbe142229	-0.14466156
223	0x3c816fe7	0.01580043
224	0xbd278d9b	-0.04090653
225	0xbd66eab8	-0.05637619
226	0x3e6fb495	0.2340873
227	0xbe4fc84f	-0.20291255
228	0xbd87e7d8	-0.066360176
229	0xbe1d4406	-0.1535798
230	0x3e2907b9	0.16506852
231	0x3ce157d3	0.027507698
232	0x3e0ee405	0.1395417
233	0x3e43c88e	0.19119474
234	0x3e587ec9	0.21142115
235	0xbdf5f516	-0.12009637
236	0x3e7a288f	0.24429534
237	0xbd9a1af3	-0.075246714
238	0x3e5359ea	0.20639768
239	0x3ab3904f	0.0013699624
240	0xbd5b390d	-0.053521205
241	0xbc1e1b2b	-0.009650032
242	0xbe04a8fe	-0.1295509
243	0xbe707ade	-0.2348437
244	0x3de49217	0.11160677
245	0x3d66cbde	0.056346767
246	0xbd823256	-0.06357257
247	0xbd89f5df	-0.06736349
248	0xbd7bea5e	-0.061502807
249	0xbd37adf5	-0.044843633
250	0xbc78ca8a	-0.015185008
251	0xbd8ca172	-0.06866731
252	0x3d90d8b9	0.070725866
253	0x3c93a03c	0.018020742
254	0x3d8def66	0.06930427
255	0xbe0c2735	-0.13686831

lstm.weight_hh_l1 f4 [128, 32]
0	0x3e26da29	0.16294159
1	0x3da56b56	0.08077113
2	0xbe29761c	-0.16548961
3	0xbe45f70b	-0.1933252
4	0x3e2ed0e6	0.17071876
5	0xbb449532	-0.0029996154
6	0xbe0f91ef	-0.14020513
7	0xbe13a268	-0.14417422
8	0x3e6b239e	0.22962806
9	0x3d7174cf	0.058949288
10	0xbdb01031	-0.08596838
11	0xbd433dda	-0.047666408
12	0x3ddb6b58	0.107138336
13	0x3e2a662e	0.16640541
14	0x3c37555d	0.011189786
15	0x3cc8b042	0.024498109
16	0xbdf3e80b	-0.11909493
17	0x3d0c146d	0.034199167
18	0xbe35eda5	-0.17766435
19	0x3d9cd969	0.07658655
20	0xbe09c8dd	-0.1345553
21	0x3d3e39a2	0.04644168
22	0x3db4e4bd	0.08832691
23	0xbe2ac56b	-0.16676871
24	0xbe0e0e14	-0.13872558
25	0xbe123f34	-0.14281923
26	0xbd81be29	-0.06335098
27	0xbd1850e3	-0.037186515
28	0xbdf02bb2	-0.11727084
29	0x3e40ea62	0.1883941
30	0xbe16afc6	-0.1471549
31	0x3e19df6b	0.15026633
32	0xbe42d75b	-0.19027464
33	0x3df3bbb6	0.119010374
34	0xbd63e09b	-0.055634122
35	0x3d2a4ab6	0.041575156
36	0x3d2930ca	0.041306295
37	0x3e3f1524	0.18660408
38	0x3e17aa23	0.14810996
39	0x3e40a7dc	0.18814033
40	0xbe09ebc1	-0.13468839
41	0xbd152f19	-0.03642187
42	0x3dfe655f	0.12421679
43	0x3e2878e6	0.16452369
44	0xbcadd79f	-0.02122098
45	0xbcfe0fef	-0.031013457
46	0x3dad7655	0.08469836
47	0xbe055dfb	-0.13024132
48	0x3d13fa09	0.036127124
49	0x3d18f166	0.03733959
50	0xbdef0118	-0.116701305
51	0xbddb9f19	-0.10723705
52	0xbdda3dfb	-0.10656353
53	0x3c9c233f	0.019059775
54	0x3dfe342e	0.12412296
55	0xbdc9566b	-0.09830936
56	0xbe3d1093	-0.18463354
57	0xbcf7eb77	-0.030263646
58	0x3c79a12a	0.015236178
59	0x3d095564	0.0335287
60	0x3e2014b9	0.15632905
61	0xbd63608c	-0.055511996
62	0xbe1dd889	-0.15414633
63	0xbe0d68bb	-0.13809483
64	0xbdb0d0c5	-0.0863357
65	0x3cf13524	0.029444285
66	0x3d12149e	0.035664193
67	0x3dac7e3d	0.084225155
68	0x3e2932e7	0.16523324
69	0xba17daed	-0.00057928154
70	0x3da26698	0.079297245
71	0x3e180abd	0.14847846
72	0x3d43fc57	0.047848072
73	0x3df7ca55	0.12099139
74	0xbd86a2de	-0.06574033
75	0xbcf4a0eb	-0.029861888
76	0x3d146437	0.036228385
77	0xbe272c2b	-0.16325442
78	0xbd9647c1	-0.07337905
79	0xbd6aacec	-0.057293817
80	0xbc6612dc	-0.014042582
81	0xbd765421	-0.060138825
82	0x3c90236e	0.01759502
83	0x3e112239	0.14173211
84	0xbdb2b2d3	-0.08725514
85	0x3e09c639	0.13454522
86	0x3d9333a3	0.07187583
87	0x3e1923fe	0.14955136
88	0xbd9bced4	-0.07607809
89	0xbbf79a22	-0.007556216
90	0xbd8815ad	-0.06644759
91	0xbdc7742c	-0.09738955
92	0x3e01b034	0.12664872
93	0x3dbaaf00	0.0911541
94	0x3e0cc051	0.13745238
95	0x3d19ac03	0.03751756
96	0xbe04f58d	-0.12984295
97	0xbd88c3b5	-0.06677953
98	0xbe25c8f5	-0.1618994
99	0x3d08d60a	0.03340725
100	0xbe1e9639	-0.15486993
101	0xbdd8ae14	-0.10580078
102	0xbe035673	-0.12825947
103	0xbe0d55f7	-0.13802324
104	0x3df162c0	0.11786413
105	0xbe1d7c2d	-0.153794
106	0x3a83c2d9	0.0010052576
107	0xbe2d460f	-0.16921256
108	0x3df04876	0.11732571
109	0xbda4d2cf	-0.08048021
110	0x3e0d9347	0.13825713
111	0xbd8b0346	-0.06787734
112	0x3d262d03	0.04057027
113	0x3db762ee	0.08954416
114	0x3db72cd9	0.08944101
115	0x3dc8877c	0.097914666
116	0x3e029f99	0.12756194
117	0xbd6a2026	-0.057159565
118	0x3d98e393	0.07465281
119	0x3dfe4396	0.12415235
120	0xbe06ce1d	-0.13164563
121	0xbcbca7d0	-0.023029238
122	0x3dc6fff8	0.09716791
123	0xbe23b369	-0.15986408
124	0x3de95d77	0.1139478
125	0x3d51252a	0.051060833
126	0xbdf96a5c	-0.121784896
127	0xbd34b52f	-0.044118103
128	0xbd5f3e41	-0.05450273
129	0xbc835969	-0.016033845
130	0x3de2214a	0.11041506
131	0xbe17794c	-0.14792365
132	0xbdf98d45	-0.12185148
133	0x3da079c0	0.07835722
134	0xbda97963	-0.08275106
135	0xbda3f412	-0.08005537
136	0xbdaafbc3	-0.08348801
137	0xbda6f2eb	-0.08151802
138	0x3d9b2e9b	0.07577249
139	0xbdba8fbb	-0.09109446
140	0xbdd621df	-0.10455679
141	0x3e3397e9	0.17538418
142	0xbd05f2a0	-0.03270209
143	0xbc10804b	-0.00881965
144	0xbd25e071	-0.040497247
145	0xba18ab3d	-0.00058238563
146	0x3deaf28f	0.11472046
147	0xbe33ec9e	-0.17570731
148	0xbe221301	-0.15827562
149	0xbe1975e9	-0.14986385
150	0xbccc4246	-0.024933945
151	0xbe39ef2b	-0.18157642
152	0xbd43ab06	-0.047770523
153	0x3d376e99	0.04478321
154	0x3e1e25a4	0.15444046
155	0x3e22e51d	0.15907712
156	0x3dd8ce4e	0.105862245
157	0x3d194cf9	0.037426922
158	0xbab2117a	-0.0013585531
159	0xbdb11659	-0.086468406
160	0xbe288d0f	-0.1646006
161	0xbe03d04c	-0.12872428
162	0xbdbbe790	-0.091750264
163	0x3daf01c5	0.085452594
164	0xbe31dcee	-0.17369434
165	0xbc9006e8	-0.017581418
166	0x3e163aa6	0.1467081
167	0xbd138b5d	-0.03602158
168	0xbd890d55	-0.06691996
169	0xbdc7a7b4	-0.09748784
170	0xbc31db4c	-0.010855507
171	0x3d40e89a	0.047096826
172	0xbc747d6d	-0.014922482
173	0x3d750f0f	0.059828814
174	0xbd8bf6c8	-0.06834179
175	0xbd9fb3e7	-0.077979855
176	0xbda33cb9	-0.07970566
177	0xbe2d6056	-0.1693128
178	0xbdc507c9	-0.096206255
179	0xbe0a95d0	-0.13533711
180	0xbe2723a4	-0.1632219
181	0xbc1d6ea0	-0.009608895
182	0x3e15c227	0.14624844
183	0x3e121a03	0.14267735
184	0x3de281b3	0.110598944
185	0xbdb5871e	-0.08863662
186	0x3d9a45ff	0.07532882
187	0x3e272899	0.1632408
188	0xbc428b73	-0.011874068
189	0xba9ea9ca	-0.0012105044
190	0xbdc39dc7	-0.09551578
191	0xbe1b93d5	-0.15193112
192	0x3cbeb40a	0.023279209
193	0xbda20450	-0.07910979
194	0xbdb8f557	-0.0903117
195	0x3b1eb2f4	0.002421555
196	0x3deccfcf	0.11563074
197	0xbc50861b	-0.012727286
198	0x3d58ac08	0.052898437
199	0x3d6ae6c4	0.05734898
200	0xbe030d50	-0.12798047
201	0x3e28866f	0.16457532
202	0xbe0314a1	-0.12800838
203	0xbe2a5395	-0.16633447
204	0xbd81b9b2	-0.06334247
205	0x3beebe06	0.007285836
206	0xbd799f83	-0.060943138
207	0xbc904ae7	-0.017613841
208	0xbe07ad71	-0.13249756
209	0x3e173a4a	0.1476833
210	0x3d65f2a6	0.05613961
211	0x3cd7e01b	0.026351979
212	0xbe25d72f	-0.16195367
213	0xbd13c5b0	-0.0360772
214	0x3dcf938e	0.10135566
215	0xbdf50cf5	-0.11965362
216	0x3d923adf	0.07140135
217	0xbd69f14d	-0.057114888
218	0x3e4f9a37	0.20273672
219	0x3e4a1aa6	0.19736728
220	0x3d96528e	0.07339965
221	0x3bff8d62	0.0077988366
222	0xbe0387b4	-0.12844735
223	0x3d0cef57	0.03440794
224	0xbd75f15a	-0.060044624
225	0x3d1c227d	0.038118828
226	0x3d31d77e	0.0434184
227	0xbe026111	-0.1273234
228	0xbe339d52	-0.17540482
229	0x3de2b428	0.11069518
230	0xbd4bfc5d	-0.04980122
231	0x3e58374b	0.21114843
232	0xbdda2153	-0.10650887
233	0x3cc0ed71	0.02355072
234	0xbd892f5d	-0.06698487
235	0x3c87acc4	0.016561873
236	0xbe01616f	-0.12634824
237	0xbdb7bf88	-0.089720786
238	0xbd9905df	-0.07471823
239	0x3df109de	0.1176946
240	0xbe01af4d	-0.12664528
241	0x3d5e899c	0.054330453
242	0xbdf83270	-0.12118995
243	0x3ddb3079	0.10702605
244	0xbc225c4f	-0.009909703
245	0xbe1d9092	-0.1538718
246	0xbd554e90	-0.052076876
247	0x3c26d7a9	0.010183253
248	0xbe02f340	-0.12788105
249	0x3c7aae94	0.015300412
250	0xbdb772fc	-0.089574784
251	0xbbf72cba	-0.0075431736
252	0xbb88f17f	-0.004179179
253	0xbe3e6a82	-0.18595317
254	0xbe28d803	-0.16488652
255	0x3d5e490d	0.054268885

lstm.bias_ih_l1 f4 [128]
0	0xbe1ca7dc	-0.15298408
1	0x3e37e99d	0.1796021
2	0xbe3b61d1	-0.18299033
3	0xbe0b07fc	-0.13577265
4	0xbdac3eef	-0.08410441
5	0x3e446dec	0.19182557
6	0x3e45c713	0.19314222
7	0x3de8896a	0.11354335
8	0x3d97e6bb	0.07417055
9	0xbe1228ec	-0.14273423
10	0x3d15ed89	0.036603484
11	0x3d6cfdc8	0.057859212
12	0xbdad42f3	-0.08460035
13	0x3d2202f9	0.039553616
14	0xbd2de881	-0.04245806
15	0xbcff38db	-0.03115504
16	0x3e6b4346	0.22974882
17	0x3dc6a373	0.09699144
18	0x3d9fdd5d	0.078058936
19	0xbc90f097	-0.017692847
20	0xbe009dfd	-0.12560268
21	0x3d6f4702	0.058417328
22	0xbdae0142	-0.08496334
23	0x3e02dad9	0.12778796
24	0xbdcb3d59	-0.099238105
25	0xbdd82706	-0.10554318
26	0x3c1da8ee	0.0096227955
27	0x3c9da83d	0.019245261
28	0x3c6fa578	0.014626853
29	0x3cee5f37	0.029098136
30	0x3d863ee6	0.06554966
31	0x3d8013d3	0.06253781
32	0x3c37b72b	0.011213104
33	0xbe117d00	-0.1420784
34	0x3c16e4cb	0.009209822
35	0xbe089b04	-0.13340384
36	0x3dae3eeb	0.085080944
37	0xbd8020d1	-0.06256259
38	0x3e08b9da	0.13352147
39	0xbde67d4b	-0.112543665
40	0x3c7db8a4	0.015485916
41	0xbd598283	-0.05310298
42	0x3d9d49b2	0.07680072
43	0xbdfbf33b	-0.12302252
44	0xbe06f1cd	-0.13178177
45	0xbdb0cf36	-0.08633272
46	0x3e03e2f6	0.12879547
47	0x3cef6c1c	0.029226355
48	0xbb92fe32	-0.004485869
49	0xbc8cb26a	-0.017174918
50	0xbd200674	-0.039068654
51	0x3b63782f	0.0034709086
52	0x3d0ea965	0.034829516
53	0x3de463cc	0.11151847
54	0xbdf20b4c	-0.11818561
55	0xbd4e107e	-0.050308697
56	0xbe33b158	-0.1754812
57	0xbda3c5c5	-0.07996706
58	0x3df534d8	0.1197297
59	0x3dd80138	0.105471075
60	0x3e0f0ec6	0.1397048
61	0xbe994202	-0.29933172
62	0xbdc12eb1	-0.09432734
63	0x3de4076f	0.1113423
64	0xbe21e801	-0.15811159
65	0x3dfc2047	0.12310844
66	0xbd05cfa4	-0.032668725
67	0x3d346efb	0.04405115
68	0xbd15daf0	-0.03658575
69	0xbd49384a	-0.049125947
70	0xbd5d8fa7	-0.054092076
71	0x3dcea3e2	0.10089852
72	0xbe24e30e	-0.1610224
73	0xbe1cb5ce	-0.15303728
74	0x3deb73b7	0.1149668
75	0xbe23b18f	-0.15985702
76	0xbd2caa7d	-0.042154778
77	0xbcf49a55	-0.029858747
78	0x3e13d33b	0.14436047
79	0x3b23961f	0.0024961305
80	0xbdf45572	-0.1193036
81	0x3c5b7b88	0.013396151
82	0x3d0b11ae	0.033952408
83	0x3d2f58df	0.042809363
84	0xbdfa62dc	-0.12225887
85	0xbc6b8a2f	-0.014376207
86	0x3e2bccba	0.16777316
87	0x3daf4103	0.08557322
88	0xbd3037ce	-0.04302197
89	0xbdf23f72	-0.118285075
90	0xbd42a9f6	-0.04752537
91	0x3e0fd346	0.14045438
92	0x3da3f345	0.08005384
93	0x3d75309b	0.059860807
94	0xbd32dca7	-0.04366746
95	0x3e0c9782	0.1372967
96	0xbe1462a7	-0.14490758
97	0xbdd711d7	-0.105014496
98	0x3ce39003	0.027778631
99	0xbdf9ea03	-0.12202837
100	0x3d77c885	0.060493965
101	0x3de182ef	0.11011302
102	0x3e386f54	0.18011218
103	0x3e050c93	0.12993078
104	0x3e24acb8	0.16081512
105	0x3a1bc15c	0.00059415936
106	0x3de43673	0.11143198
107	0xbde61262	-0.11233975
108	0xbe24c663	-0.16091304
109	0x3da8cd63	0.082422994
110	0xbda43f8a	-0.080199316
111	0x3cb998f6	0.022655945
112	0x3d83bef1	0.064329036
113	0x3d850ac0	0.06496191
114	0x3de038c1	0.10948325
115	0x3e4a5d2a	0.19762102
116	0xbde0ab0a	-0.10970123
117	0x3dde38d2	0.10850681
118	0x3de5ff86	0.11230378
119	0x3de2ef77	0.110808305
120	0x3d4d913f	0.050187346
121	0xbdb8e0ff	-0.090272896
122	0x3d83867d	0.06422136
123	0xbdaa7c1a	-0.08324452
124	0xbe30001e	-0.17187545
125	0xbe1ad438	-0.15120018
126	0xbdace65d	-0.08442376
127	0xbe16e26d	-0.14734812

lstm.bias_hh_l1 f4 [128]
0	0x3d58da75	0.05294271
1	0x3cffac97	0.031210227
2	0xbc69a670	-0.014260873
3	0xbe039aba	-0.12851992
4	0x3d6e843f	0.05823159
5	0x3dd92dc8	0.10604435
6	0x3d87ea1f	0.06636452
7	0x3bbc989a	0.005755496
8	0xbda8ab65	-0.08235816
9	0x3e410c88	0.18852437
10	0xbded99d2	-0.116016045
11	0xbda55984	-0.080737144
12	0x3dde9455	0.10868136
13	0x3d939591	0.07206262
14	0xbd332d35	-0.043744285
15	0xbc864ede	-0.016395029
16	0xbd177503	-0.036976825
17	0x3df328fa	0.1187305
18	0x3dc82b88	0.09773928
19	0x3da457cc	0.080245584
20	0x3d7353f1	0.059406225
21	0x3d2541ab	0.04034583
22	0x3d344716	0.044013105
23	0x3e229f92	0.15881184
24	0xbe462c9f	-0.19352959
25	0x3bca76d9	0.0061787185
26	0x3ddae29c	0.106877536
27	0x3df4d082	0.11953832
28	0xbe1d500d	-0.15362568
29	0xbbbc50bf	-0.0057469304
30	0xbddd41ef	-0.108035915
31	0x3e4159ff	0.18881987
32	0xbdbb6817	-0.09150713
33	0xbe0f648d	-0.14003201
34	0x3d96a9c8	0.07356602
35	0xbe281434	-0.16413957
36	0xbd38c3f5	-0.045108754
37	0xbdfee754	-0.12446466
38	0x3ad2d8ad	0.0016086303
39	0xbd941715	-0.07230965
40	0x3e1bf540	0.15230274
41	0x3d3af33b	0.04564212
42	0x3cd470fb	0.02593278
43	0xbdef3cd1	-0.11681522
44	0x3c795b74	0.015219558
45	0x3cb0202f	0.021499721
46	0x3e10cc52	0.14140442
47	0xbe8db117	-0.2767417
48	0xbe135122	-0.14386418
49	0x3db2e173	0.08734407
50	0x3d23c8ea	0.03998653
51	0x3c858ac0	0.016301513
52	0x3e022fb6	0.12713513
53	0xbdb7bda2	-0.089717165
54	0x3ddd446a	0.108040646
55	0xbc4f7bcf	-0.012663796
56	0xbdf04464	-0.117317945
57	0x3e2c64ac	0.16835278
58	0xbddbd88e	-0.10734664
59	0xbde85835	-0.11344949
60	0xbe4182d0	-0.18897557
61	0xbe501fe6	-0.20324668
62	0xbddf9f12	-0.10919012
63	0x3da01b03	0.07817652
64	0xbd4b20b9	-0.049591754
65	0x3ce0bc27	0.027433468
66	0xbc707b87	-0.014677889
67	0x3e0a28d5	0.13492139
68	0xbd9964e7	-0.07489949
69	0x3d9985ab	0.07496198
70	0x3863c284	5.4302174e-05
71	0xbc3790ef	-0.011203988
72	0x3e0354da	0.12825337
73	0x3d0e40cd	0.034729768
74	0x3e0bb2da	0.13642445
75	0x3d43536a	0.04768697
76	0xbde28e49	-0.11062295
77	0x3d5ebe9e	0.054381005
78	0x3cc9a09d	0.02461272
79	0x3c4df2fd	0.01257014
80	0x3d189886	0.037254833
81	0xbe0edd90	-0.13951707
82	0xbc96e804	-0.01842118
83	0xbba52aff	-0.005040526
84	0xbdaa16ea	-0.08305152
85	0xbdb09eb6	-0.08624022
86	0xbd08889e	-0.033333413
87	0xbd484433	-0.048893165
88	0x3ceb5f8a	0.02873208
89	0xbd73c787	-0.059516456
90	0x3dcbcfea	0.09951766
91	0xbde23052	-0.110443726
92	0xbd6acfe5	-0.05732717
93	0xbdc60b2f	-0.09670102
94	0x3d1b0285	0.0378442
95	0xbe0c4b5d	-0.13700624
96	0x3c2aa449	0.010415145
97	0x3c546b5f	0.012965052
98	0xbe0cf243	-0.1376429
99	0xbd3b8ed4	-0.04579051
100	0xbdf522e7	-0.11969548
101	0xbdb5a879	-0.08870024
102	0xbd0d42f4	-0.03448768
103	0x3e0f29a9	0.13980736
104	0xbbc3879b	-0.005967093
105	0x3dee1602	0.116252914
106	0x3e229225	0.15876062
107	0xbdc2b590	-0.095072865
108	0x3dbdfe86	0.09277062
109	0x3d5d75bb	0.054067355
110	0xbd77e8c9	-0.060524736
111	0xbd465af6	-0.04842659
112	0x3e642189	0.22278418
113	0x3da836a0	0.08213544
114	0xbe410d10	-0.18852639
115	0x3dc14565	0.09437064
116	0xbe0072cc	-0.12543792
117	0x3e5dd000	0.21661377
118	0x3de1e46e	0.11029898
119	0x3d72299a	0.059121706
120	0xbe9aef31	-0.30260614
121	0xbaa328c8	-0.0012448067
122	0x3d057bb5	0.03258868
123	0xbdf67157	-0.120333366
124	0xbe3976e0	-0.18111753
125	0xbe1a2b0b	-0.15055482
126	0x3e22d708	0.1590234
127	0x3d0ed9e0	0.03487575

fc.weight f4 [1, 32]
0	0xbe351b8e	-0.17686293
1	0xbe594003	-0.21215825
2	0xbd892844	-0.06697133
3	0xbdb33051	-0.0874945
4	0xbde6751a	-0.11252804
5	0xbd39a3d1	-0.045322243
6	0xbe4b170c	-0.1983301
7	0xbe0c9e53	-0.13732271
8	0x3e383175	0.17987616
9	0x3d80778e	0.06272803
10	0xbdd147cc	-0.10218772
11	0x3e4c07b9	0.19924821
12	0xbdc0abcb	-0.09407767
13	0xbd8933e3	-0.0669935
14	0xbdf5bc7f	-0.119988434
15	0x3c484960	0.012224525
16	0x3e6902d0	0.22754979
17	0x3d5b0d21	0.053479318
18	0x3d5a9f7b	0.05337475
19	0xbdd5f73f	-0.10447549
20	0xbe4862c1	-0.19568922
21	0xbe4363c2	-0.19081023
22	0xbdc65f01	-0.09686089
23	0xbe0e0657	-0.13869606
24	0x3d3737c9	0.044730935
25	0xbe61ffae	-0.2207019
26	0x3e0743f1	0.13209511
27	0x3e1d299d	0.15347905
28	0x3de00e8d	0.10940275
29	0xbdfcde68	-0.12347108
30	0xbe03f092	-0.12884739
31	0x3e408b7f	0.18803214
