backend/stocks/price/pt_models/ALBO.pt (torch, 54435 bytes, 9 tensors)

lstm.weight_ih_l0 f4 [128, 1]
-0.19665007 0.11075583 -0.043923106 0.24621502 0.26421937 -0.010696153 0.09581057 0.09501719
-0.049723558 0.20805234 0.058808602 -0.06275715 -0.11981404 -0.108520776 0.074928105 0.0607685
-0.13903531 -0.10346142 -0.040694572 0.007157253 -0.045684192 0.07989751 0.11331278 0.23636386
-0.25990716 0.110894375 -0.027814593 0.20636144 -0.10389005 0.09638422 0.07244108 -0.18109486
-0.06118799 0.15940146 -0.045319147 0.2461033 0.15171462 -0.16487414 -0.022276597 0.14209008
-0.1318593 0.067835495 0.12760459 -0.172068 -0.022666063 0.103374176 0.40662813 -0.12204087
0.06282264 0.118119024 0.3328574 0.08154047 -0.13841122 0.11681824 0.08546086 0.06848929
0.033881236 -0.13317402 0.14690287 -0.039366975 0.100307934 0.020549092 -0.26093584 -0.026945613
-0.030086316 -0.24476142 -0.28085488 -0.058851033 0.21602365 -0.24071287 -0.2469955 0.22823341
-0.26201016 0.18700552 -0.31252143 -0.09104203 -0.055975128 -0.25754187 -0.21250097 0.01704624
-0.26163954 -0.19860588 -0.24461599 0.012912913 -0.16819775 0.2755911 -0.09290761 0.019233271
-0.26528707 -0.077954315 0.2417488 0.076182306 -0.25365266 -0.10489483 0.23230903 0.25856102
-0.2243143 -0.08457854 -0.1441485 0.34045574 0.012733375 -0.009316287 -0.12302529 0.25694397
0.08670164 0.2326466 0.14062424 0.03809742 0.03226222 -0.12726702 0.3702506 -0.10946762
-0.21461214 -0.106107436 0.24448155 0.19129047 -0.21401197 0.14761955 0.21702701 -0.031260483
-0.18311484 -0.020564258 0.09021513 -0.022824354 0.12288917 -0.0875862 0.030275159 -0.18391754
00000000: a35e 49be f4d3 e23d b7e8 33bd ca1f 7c3e
00000010: c347 873e eb3e 2fbc 5538 c43d 5f98 c23d
00000020: eeaa 4bbd ac0b 553e 4ae1 703d d286 80bd
00000030: 1061 f5bd 2440 debd e873 993d 64e8 783d
00000040: 465f 0ebe 95e3 d3bd 5aaf 26bd 6487 ea3b
00000050: 591f 3bbd 4ea1 a33d 8810 e83d 5e09 723e
00000060: 8d12 85be 971c e33d 6edb e3bc 6a50 533e
00000070: 4ec4 d4bd 1765 c53d fd5b 943d ee70 39be
00000080: 42a0 7abd 233a 233e 92a0 39bd 8102 7c3e
00000090: 145b 1b3e c4d4 28be 697d b6bc 1080 113e
000000a0: 2006 07be 56ed 8a3d c7aa 023e 9832 30be
000000b0: 2eae b9bc d7b5 d33d 9031 d03e 90f0 f9bd
000000c0: 28a9 803d 63e8 f13d 496c aa3e b1fe a63d
000000d0: acbb 0dbe 673e ef3d 1a06 af3d 1d44 8c3d
000000e0: 0dc7 0a3d c55e 08be b56d 163e 443f 21bd
000000f0: 3f6e cd3d 9256 a83c 6299 85be 0cbd dcbc
00000100: 9477 f6bc bda2 7abe 36cc 8fbe c80d 71bd
00000110: 4e35 5d3e 6f7d 76be 63ec 7cbe 05b6 693e
00000120: 3226 86be 607e 3f3e cf02 a0be 3e74 babd
00000130: 2d46 65bd 87dc 83be db99 59be 8ea4 8b3c
00000140: 9ef5 85be 575f 4bbe 9d7c 7abe af90 533c
00000150: 083c 2cbe 471a 8d3e 5846 bebd 188f 9d3c
00000160: b5d3 87be 83a6 9fbd ff8c 773e 7805 9c3d
00000170: c3de 81be 1ad3 d6bd 6be2 6d3e 1c62 843e
00000180: a6b2 65be 8337 adbd aa9b 13be 3750 ae3e
00000190: a59f 503c 57a3 18bc aff4 fbbd 298e 833e
000001a0: a190 b13d e93a 6e3e cdff 0f3e 0a0c 1c3d
000001b0: 6425 043d 4952 02be 7d91 bd3e 8f30 e0bd
000001c0: 49c3 5bbe db4e d9bd 5f59 7a3e a6e1 433e
000001d0: f425 5bbe 9429 173e 543c 5e3e fe0a 00bd
000001e0: 7582 3bbe 6076 a8bc b6c2 b83d 24fa babc
000001f0: 51ad fb3d 6560 b3bd 9c03 f83c e154 3cbe

lstm.weight_hh_l0 f4 [128, 32]
-0.022813931 0.128946 0.123250864 0.105830535 -0.023764148 -0.15503743 0.047052767 -0.11983751
0.10012859 -0.0542486 0.09759149 0.0032460683 0.15562335 -0.0012548172 0.2861716 -0.03572281
0.075561605 0.10698505 0.035114236 -0.07925382 -0.03292874 -0.0018537948 0.06832541 0.20629911
0.08101117 -0.10995668 0.063049324 -0.17401719 0.0005526666 0.033609945 0.012714072 0.07976648
-0.051258877 0.044607576 0.15544562 0.04656572 -0.047769494 -0.035621867 -0.1315226 0.19595239
-0.16886242 0.020177335 -0.07329907 -0.15223509 0.15096018 -0.03125404 0.09986313 0.14284818
-0.17844096 0.039638016 -0.035586696 0.1536764 0.15368512 0.064046994 0.0211639 0.037209224
0.13054201 0.12627679 -0.16312003 -0.09586368 0.15535296 -0.03343002 -0.13206656 0.12757689
-0.06866195 -0.115219325 -0.08387113 0.14903635 -0.20595978 0.11447755 -0.0709665 0.02562067
-0.13235816 0.1516956 0.048890606 -0.114852756 -0.06885278 -0.042304546 0.13505518 0.009380525
0.14727032 0.11366497 0.07053485 -0.0043958053 0.06561641 -0.18122189 0.10797588 0.035594966
0.030471675 -0.034192212 -0.02447074 -0.08918216 0.17280968 0.23367675 -0.03954488 -0.10426513
0.052054293 -0.08611436 -0.0066645676 0.171516 0.13742678 -0.2584604 0.010486358 -0.00977268
-0.010199927 0.0143204415 -0.10416159 -0.06191432 0.078659095 -0.26679802 -0.2045218 0.14546147
-0.2236732 -0.29103723 -0.2681171 -0.114057474 -0.31664968 0.2160872 0.105319254 -0.028666593
-0.008656414 -0.038172442 -0.046880804 -0.11136906 -0.10506531 -0.015625192 0.124283046 0.0318519
-0.013275536 -0.06717679 0.124003336 0.07036773 -0.0844215 -0.06548439 -0.1296591 -0.052905586
0.09966933 0.1607705 -0.1745842 -0.15183508 -0.03603079 -0.11593524 0.086300746 0.09108804
-0.14003316 -0.12733184 -0.16996835 0.09290463 -0.0011846168 -0.0920355 0.03021495 0.077909365
-0.18606722 0.086536385 -0.014365518 0.15492746 -0.12430422 -0.123922765 0.08014394 0.095063016
-0.053422615 0.15691556 -0.100290775 -0.11589325 -0.21364616 -0.009704379 -0.14270741 0.0452237
0.05310355 0.13481362 0.03627856 0.04128317 0.02639969 -0.09059149 -0.10440553 0.030665291
-0.08416148 0.00983727 0.20023751 0.0107608335 -0.11461062 -0.12669025 0.058317274 -0.019054724
-0.038422823 0.008502001 0.049439307 -0.031303003 -0.08104891 -0.029404068 0.12882379 -0.008153326
0.012110439 0.1773559 0.16017024 -0.07321561 -0.07153712 0.0779296 0.116984546 0.06916971
-0.013015197 0.021863904 -0.044480518 0.111404955 0.10706268 -0.11665244 -0.095992796 -0.102387995
0.039663754 -0.028136797 0.09358263 0.066082045 0.08552921 0.15801921 0.16541025 -0.010103858
-0.04280787 -0.036412183 0.0509388 0.051994782 -0.10161377 -0.13183902 -0.022168519 -0.0063361586
0.005779213 0.059670158 0.0993442 -0.02562716 0.16106947 0.10213514 0.08295508 0.020417204
-0.005190142 0.03732325 0.038673446 -0.0037523997 -0.025400044 0.044689648 -0.21352857 -0.07815574
-0.085950285 -0.22337703 -0.12180604 -0.019189391 -0.11883384 0.026551418 -0.14780791 -0.038697626
0.07166205 0.052772753 -0.064938046 0.1641272 -0.012470563 -0.19036315 -0.11578421 0.07070364
00000000: 48e4 babc 6c0a 043e f36a fc3d aebd d83d
00000010: 08ad c2bc 22c2 1ebe 67ba 403d 5e6d f5bd
00000020: 3810 cd3d c833 5ebd 0cde c73d fdbb 543b
00000030: ba5b 1f3e ae78 a4ba 1585 923e 1552 12bd
00000040: 0bc0 9a3d fa1a db3d f2d3 0f3d d44f a2bd
00000050: 49e0 06bd 08fb f2ba 31ee 8b3d 1340 533e
00000060: 2fe9 a53d f830 e1bd 0120 813d 9031 32be
00000070: d4e0 103a 95aa 093d af4e 503c 9c5c a33d
00000080: d4f4 51bd 6fb6 363d 232d 1f3e b2bb 3e3d
00000090: f2a9 43bd 3ce8 11bd dcad 06be bea7 483e
000000a0: 45ea 2cbe f04a a53c d31d 96bd 84e3 1bbe
000000b0: 4e95 1a3e 3c04 00bd 0a85 cc3d cb46 123e
000000c0: 3ab9 36be 795b 223d 5bc3 11bd 595d 1d3e
000000d0: a25f 1d3e 122b 833d ea5f ad3c b368 183d
000000e0: ceac 053e b44e 013e f008 27be 2d54 c4bd
000000f0: d914 1f3e ebed 08bd 753c 07be 84a3 023e
00000100: a39e 8cbd 1cf8 ebbd a1c4 abbd fc9c 183e
00000110: 1fe7 52be 3573 ea3d e256 91bd 70e2 d13c
00000120: e688 07be 1756 1b3e 8441 483d ec37 ebbd
00000130: b002 8dbd 8847 2dbd e84b 0a3e c6b0 193c
00000140: 08ce 163e 2ec9 e83d 9374 903d b00a 90bb
00000150: e561 863d 3b92 39be 7522 dd3d 07cc 113d
00000160: bc9f f93c 220d 0cbd dd76 c8bc 23a5 b6bd
00000170: 05f5 303e f548 6f3e d0f9 21bd f588 d5bd
00000180: e236 553d ba5c b0bd 7262 dabb e4a1 2f3e
00000190: 9bb9 0c3e ec54 84be f9ce 2b3c 971d 20bc
000001a0: 981d 27bc 49a0 6a3c ac52 d5bd df99 7dbd
000001b0: 0518 a13d c099 88be 2a6e 51be daf3 143e
000001c0: 960a 65be d502 95be a546 89be f796 e9bd
000001d0: e81f a2be f745 5d3e 9fb1 d73d 34d6 eabc
000001e0: a2d3 0dbc b55a 1cbd 1606 40bd 7615 e4bd
000001f0: 7b2c d7bd 6700 80bc 1c88 fe3d 2377 023d
00000200: a281 59bc fc93 89bd 76f5 fd3d f51c 903d
00000210: 2ee5 acbd ae1c 86bd 5bc5 04be 87b3 58bd
00000220: 6f1f cc3d 06a1 243e 33c6 32be a87a 1bbe
00000230: 0695 13bd 756f edbd 72be b03d 5e8c ba3d
00000240: da64 0fbe 4763 02be 2f0c 2ebe c844 be3d
00000250: 2545 9bba 1c7d bcbd 5885 f73c f28e 9f3d
00000260: 6888 3ebe fd39 b13d 5a5d 6bbc 4ea5 1e3e
00000270: 3693 febd 38cb fdbd 8222 a43d 66b0 c23d
00000280: acd1 5abd 79ae 203e 4065 cdbd 7159 edbd
00000290: 0fc6 5abe 1eff 1ebc e421 12be 7d3c 393d
000002a0: 1c83 593d 950c 0a3e d498 143d 8b18 293d
000002b0: 2a44 d83c 0888 b9bd 91d2 d5bd c735 fb3c
000002c0: db5c acbd 802c 213c 100b 4d3e 354e 303c
000002d0: f9b8 eabd 17bb 01be 18de 6e3d a718 9cbc
000002e0: 4061 1dbd fa4b 0b3c df80 4a3d 9437 00bd
000002f0: f9fc a5bd cde0 f0bc 62ea 033e 8795 05bc
00000300: dd6a 463c c99c 353e ab03 243e 11f2 95bd
00000310: 0e82 92bd 8e99 9f3d 9895 ef3d d9a8 8d3d
00000320: b13d 55bc ee1b b33c 3431 36bd 4828 e43d
00000330: ae43 db3d 79e7 eebd df97 c4bd ccb0 d1bd
00000340: 7676 223d 247f e6bc 40a8 bf3d 0656 873d
00000350: f029 af3d cacf 213e 4e61 293e a78a 25bc
00000360: 4e57 2fbd f124 15bd 34a5 503d 7bf8 543d
00000370: e11a d0bd cf00 07be c19a b5bc 8d9f cfbb
00000380: 8d5f bd3b b268 743d f974 cb3d 0df0 d1bc
00000390: 65ef 243e 3a2c d13d 5ae4 a93d fb41 a73c
000003a0: 1112 aabb 44e0 183d 0c68 1e3d d2ea 75bb
000003b0: c113 d0bc 7e0c 373d 3ca7 5abe 1e10 a0bd
000003c0: b406 b0bd f3bc 64be 7275 f9bd 1233 9dbc
000003d0: 285f f3bd 5c82 d93c f55a 17be 6781 1ebd
000003e0: 8ec3 923d 3e28 583d 3dfe 84bd f610 283e
000003f0: 5551 4cbc 8fee 42be 4620 edbd 12cd 903d

lstm.bias_ih_l0 f4 [128]
-0.01556289 0.10170213 0.043936558 -0.11547758 -0.094793774 -0.119615376 -0.0066538593 0.12389309
0.24497956 -0.052656066 0.10251652 0.020666204 -0.17458561 0.20519781 0.033184215 -0.21908042
0.2091401 -0.18704051 0.18897587 -0.21397021 0.08346905 0.056112237 -0.28690994 -0.24231337
0.16747257 0.06250566 0.043514896 -0.13950205 0.11318712 -0.07733821 0.14580873 -0.09886904
0.03738221 0.107363895 -0.008297842 0.01775464 -0.0572862 -0.077414356 0.13755947 0.10992724
0.24288069 0.029441563 0.113435276 -0.06988602 0.09329868 -0.071264386 -0.18647614 -0.11256149
0.12125653 0.022116618 0.083600536 -0.14981604 0.044706896 -0.008933635 -0.020268165 -0.06228381
0.07540132 0.06798497 -0.021465683 -0.05420009 0.17403573 -0.15369232 0.11390934 -0.01567185
-0.15851109 -0.15046304 -0.1360637 0.013952598 0.062189445 0.12328832 -0.021049505 0.13129161
-0.14541505 0.086599424 0.090212606 0.1483645 -0.13684355 -0.117277704 -0.1561247 -0.026009735
0.092329815 -0.059021387 -0.026013102 -0.009385283 0.13900852 -0.021159954 -0.121413246 -0.06376978
-0.018900316 -0.079042636 0.10121551 0.026809521 0.06864644 -0.027937794 0.14417383 -0.07696305
0.01966474 -0.042047743 0.045863345 -0.16423725 -0.117137454 0.14541595 0.028165072 -0.027115202
0.23657471 -0.13237368 0.11106722 0.12277683 0.055774063 0.018340116 -0.11905029 -0.15682018
0.17808534 0.11828713 -0.02146837 -0.05305835 -0.11577354 0.0895465 -0.20379029 -0.3365305
0.16407634 0.058401775 0.053790685 -0.17250486 -0.06863908 -0.13936421 0.13253915 0.15754351
00000000: 7efb 7ebc 3549 d03d d2f6 333d 827f ecbd
00000010: 3d23 c2bd e8f8 f4bd 9e08 dabb a9bb fd3d
00000020: ecdb 7a3e e3ad 57bd 2ef4 d13d 2c4c a93c
00000030: 92c6 32be 601f 523e 2cec 073d 9e56 60be
00000040: d328 563e 8c87 3fbe e482 413e 021b 5bbe
00000050: d2f1 aa3d f2d5 653d dce5 92be ff20 78be
00000060: ee7d 2b3e f802 803d ad3c 323d a0d9 0ebe
00000070: a6ce e73d 7f63 9ebd e24e 153e da7b cabd
00000080: 171e 193d 9ae1 db3d acf3 07bc 2e72 913c
00000090: efa4 6abd 6b8b 9ebd 64dc 0c3e 8821 e13d
000000a0: b7b5 783e 6f2f f13c c150 e83d 6720 8fbd
000000b0: 6113 bf3d 10f3 91bd 9af3 3ebe a386 e6bd
000000c0: 5855 f83d e92d b53c c236 ab3d 6069 19be
000000d0: 941e 373d 625e 12bc 6c09 a6bc 4f1d 7fbd
000000e0: 026c 9a3d b43b 8b3d cdd8 afbc ea00 5ebd
000000f0: 6c36 323e 8561 1dbe 4d49 e93d 4062 80bc
00000100: bb50 22be fc12 1abe 4854 0bbe 7099 643c
00000110: 5cba 7e3d 967e fc3d 0370 acbc 4f71 063e
00000120: afe7 14be 0a5b b13d 63c1 b83d ddec 173e
00000130: b720 0cbe 4b2f f0bd 27df 1fbe 5e12 d5bc
00000140: 6a17 bd3d 69c0 71bd 6e19 d5bc bbc4 19bc
00000150: 4058 0e3e a457 adbc 82a7 f8bd bb99 82bd
00000160: d6d4 9abc 1be1 a1bd 144a cf3d a49f db3c
00000170: 8196 8c3d cddd e4bc 4ea2 133e ce9e 9dbd
00000180: f317 a13c 413a 2cbd 34db 3b3d cf2d 28be
00000190: c3e5 efbd ebe7 143e 70ba e63c b320 debc
000001a0: a440 723e f78c 07be 3677 e33d 6b72 fb3d
000001b0: 5873 643d 033e 963c a3d0 f3bd 7895 20be
000001c0: 015c 363e 8640 f23d 6fde afbc b653 59bd
000001d0: ae1a edbd 2864 b73d 67ae 50be ba4d acbe
000001e0: a103 283e b336 6f3d 9f53 5c3d 1da5 30be
000001f0: a592 8cbd 7eb5 0ebe 58b8 073e 1653 213e

lstm.bias_hh_l0 f4 [128]
-0.09911544 -0.08205872 -0.09628151 -0.22719829 -0.093465455 0.19086485 0.116129406 0.13370067
0.2024531 -0.2012765 -0.051027264 -0.20861 -0.032160457 0.031413876 -0.12815745 -0.2017009
0.10886245 -0.1655362 0.07240599 -0.25146252 -0.15322872 0.22566545 -0.12941769 -0.07242218
0.17543688 0.14718895 0.062004626 -0.06963344 -0.118168026 -0.14360528 0.18695828 -0.051082704
-0.0014055913 0.004839713 0.19531491 -0.13517661 -0.023326367 0.18856882 -0.11916239 0.03139258
0.23187445 -0.13386807 0.2271874 0.11814801 -0.021065768 0.016123109 0.05783084 0.09936745
-0.079623014 -1.1976879e-05 -0.025086587 -0.0033609616 -0.13258138 0.067660786 -0.18281955 -0.07905814
0.040534373 -0.09271165 -0.119907424 -0.06380196 -0.14975905 -0.09820139 0.17206965 0.0993282
-0.15126789 0.011875759 0.0038365987 -0.17858838 0.07236851 -0.1545963 -0.01118973 -0.05053793
-0.0002052825 0.09963156 -0.14216204 -0.047399018 -0.11977144 0.13825625 0.0073059984 -0.00802622
-0.12194541 0.026547356 -0.18695164 0.066499844 0.017998239 0.16041832 0.0316619 -0.06295814
-0.014268187 0.033415772 0.124315776 -0.03933361 -0.11695062 0.056789633 -0.06656539 -0.10650597
-0.15196677 -0.12891886 -0.0035035268 -0.16949524 -0.06203527 0.095953144 0.06744505 -0.09283137
-0.010367701 -0.13847104 0.2022841 -0.018264545 0.027086804 0.1793453 0.0059729954 -0.1116455
-0.07288331 -0.2042025 -0.016469842 -0.22363894 -0.07407846 0.035241686 -0.31021276 -0.058614053
-0.10651298 -0.10842057 -0.12085628 -0.12440976 0.1287986 -0.10823235 0.17884344 -0.119617954
00000000: 09fd cabd 670e a8bd 3e2f c5bd aba6 68be
00000010: d16a bfbd 1372 433e 41d5 ed3d d4e8 083e
00000020: de4f 4f3e 6d1b 4ebe f701 51bd dc9d 55be
00000030: afba 03bd d6ab 003d b53b 03be ae8a 4ebe
00000040: 47f3 de3d 5282 29be 9749 943d b2bf 80be
00000050: fde7 1cbe d814 673e 1286 04be 1452 94bd
00000060: baa5 333e b3b8 163e 90f8 7d3d fa9b 8ebd
00000070: 1402 f2bd 430d 13be fe71 3f3e 193c 51bd
00000080: d13b b8ba 7596 9e3b a200 483e bd6b 0abe
00000090: f016 bfbc 2f18 413e 690b f4bd 8295 003d
000000a0: 7f70 6d3e b614 09be d0a3 683e 95f7 f13d
000000b0: 1e92 acbc 9c14 843c 08e0 6c3d 2981 cb3d
000000c0: 6411 a3bd 4ef0 48b7 6382 cdbc 9443 5cbb
000000d0: 6ac3 07be bd91 8a3d 0c35 3bbe 3ce9 a1bd
000000e0: 5f07 263d 9bdf bdbd 0692 f5bd 9aaa 82bd
000000f0: 705a 19be cf1d c9bd 0733 303e 956c cb3d
00000100: f8e5 1abe 8b92 423c 726f 7b3b dfdf 36be
00000110: f135 943d 7e4e 1ebe 2155 37bc dc00 4fbd
00000120: 1a41 57b9 a20b cc3d ed92 11be 7925 42bd
00000130: bb4a f5bd 0c93 0d3e 2867 ef3b 6880 03bc
00000140: 84be f9bd d779 d93c 4070 3fbe 1231 883d
00000150: 0b71 933c b344 243e e9af 013d 33f0 80bd
00000160: 1dc5 69bc fade 083d 4599 fe3d 481c 21bd
00000170: cf83 efbd 3f9c 683d 6f53 88bd cd1f dabd
00000180: 2d9d 1bbe 4e03 04be 6d9b 65bb 2990 2dbe
00000190: b218 7ebd 1583 c43d a120 8a3d 601e bebd
000001a0: 4add 29bc 5acb 0dbe 9023 4f3e 879f 95bc
000001b0: 25e5 dd3c 4ba6 373e 1eb9 c33b 65a6 e4bd
000001c0: d843 95bd 761a 51be c3eb 86bc 9b01 65be
000001d0: 73b6 97bd 9659 103d 35d4 9ebe 4a15 70bd
000001e0: 7a23 dabd 9b0b debd 7f83 f7bd 8bca febd
000001f0: c8e3 033e eca8 ddbd bc22 373e 42fa f4bd

lstm.weight_ih_l1 f4 [128, 32]
0.23956971 -0.07843737 -0.2692435 0.10240112 0.0909356 -0.20440316 -0.14453006 -0.02320618
0.0038354106 -0.008280878 -0.0866259 -0.20616852 -0.07193729 -0.16776493 0.05969284 -0.063207544
-0.17622115 -0.20813516 -0.15465473 0.1925403 -0.13683057 0.06476078 0.0823724 0.20408243
-0.3237624 -0.12360285 -0.031881977 0.11848054 -0.18977195 -0.21309368 -0.053226113 0.005791182
0.13459699 0.10824968 -0.074161135 0.001976394 0.06445845 0.12136212 -0.14524633 -0.002418563
-0.081712276 -0.039142963 0.18002982 0.06373862 0.11057221 0.041269623 0.047269225 -0.06158153
0.14553192 0.081768915 -0.0023257493 -0.023622429 0.16208939 0.044605386 -0.03508796 -0.067842856
0.036562942 0.15129472 -0.24558237 -0.059792764 -0.0419163 -0.07736768 -0.154207 0.14634751
-0.005727226 0.04502146 0.20160992 0.032419033 -0.08580199 0.17053209 -0.02840916 -0.16402403
0.15992732 -0.058441985 -0.072642334 -0.12589912 0.052397575 0.045998916 -0.06826209 0.11163734
0.1406737 -0.07970716 -0.13417953 -0.10041776 -0.123165466 -0.09958052 0.14657553 -0.109056406
0.119971275 0.16557863 0.026253004 -0.13036163 -0.18908753 0.1373115 -0.17766604 -0.18277943
0.079812706 0.05989038 0.058889292 -0.091657765 0.20752786 0.08166365 -0.20624642 0.23491655
0.09909827 0.13043131 -0.2849763 0.026375163 0.06828554 -0.25051633 0.04437787 -0.055896286
0.021447213 0.034536846 -0.1652162 0.24188377 -0.08600975 -0.012506207 0.07013843 0.025234237
-0.12549025 -0.04549407 -0.23996314 -0.0063631576 -0.1252644 0.03128789 -0.093697585 0.14213169
-0.022706036 0.07474989 0.15945217 0.21034822 -0.07983339 -0.10679828 0.12814286 -0.039089043
-0.02653982 0.078251466 0.14568906 -0.13467827 -0.01097666 -0.10741594 0.22268261 -0.05420288
0.14262305 -0.08809689 0.2975874 -0.1606017 0.17823945 0.03292943 -0.06509522 -0.043530427
-0.02769496 -0.027265523 -0.08132713 -0.025254859 -0.045312006 0.07518787 0.02239886 -0.002566133
0.039405175 -0.04101424 0.23257367 0.0521505 0.0064661196 0.101019286 0.1976954 0.062542796
0.038120978 -0.08873475 -0.009562247 0.06032402 0.14419553 0.058368213 0.044174477 -0.15130144
0.11791782 -0.12233257 0.18545724 -0.039544705 0.18575035 -0.18665469 0.07110107 0.079798676
0.047905132 0.13433519 -0.07198991 -0.21995334 0.11767836 0.054731578 -0.07761806 0.03683393
-0.0021315147 -0.1586091 -0.13224351 -0.020928437 0.09172929 -0.16392979 -0.06748499 -0.025830751
-0.12570983 0.11392931 0.06672342 -0.22917764 0.06871919 -0.05143671 -0.14845002 0.21920416
-0.13063255 0.0679031 -0.22732861 0.15849338 0.08803012 0.04410421 -0.07382294 0.15492482
0.088890746 0.03489182 0.102203965 -0.014611733 -0.2200364 -0.14095432 -0.06291898 0.13231924
0.08282377 0.0058895163 0.08039532 0.022664115 0.057516154 0.1880029 0.1425957 -0.028334688
-0.08403136 -0.2221272 -0.11826848 0.09506453 0.14519359 0.04032905 0.22457983 0.068096705
0.1810605 0.0051179547 0.11478968 0.14519936 0.14902203 0.04317009 0.13707894 -0.07139752
-0.10804797 -0.072801255 -0.11191145 0.07341932 0.15723264 0.049011856 -0.1026486 -0.068349116
00000000: c351 753e c6a3 a0bd 49da 89be aeb7 d13d
00000010: 723c ba3d 104f 51be b0ff 13be e31a bebc
00000020: 835b 7b3b 85ac 07bc eb68 b1bd d71d 53be
00000030: dc53 93bd 92ca 2bbe 7b80 743d f572 81bd
00000040: 5173 34be 6221 55be cf5d 1ebe 4929 453e
00000050: 501d 0cbe 4da1 843d dcb2 a83d fcfa 503e
00000060: 2fc4 a5be 7e23 fdbd ad96 02bd eda5 f23d
00000070: 9453 42be 3b35 5abe a003 5abd f5c3 bd3b
00000080: cbd3 093e 02b2 dd3d cbe1 97bd 6486 013b
00000090: cb02 843d b48c f83d 74bb 14be c180 1ebb
000000a0: c458 a7bd 5f54 20bd bd59 383e 6589 823d
000000b0: af73 e23d 560a 293d 609d 413d ea3c 7cbd
000000c0: 5206 153e 7676 a73d 996b 18bb d383 c1bc
000000d0: c3fa 253e 23b4 363d 65b8 0fbd 32f1 8abd
000000e0: 06c3 153d 01ed 1a3e f279 7bbe 42e9 74bd
000000f0: 6db0 2bbd f272 9ebd 71e8 1dbe 1fdc 153e
00000100: 74ab bbbb 6c68 383d d572 4e3e d2c9 043d
00000110: f4b8 afbd f79f 2e3e 54ba e8bc eaf5 27be
00000120: fdc3 233e dd60 6fbd 81c5 94bd b3eb 00be
00000130: d79e 563d 5c69 3c3d ffcc 8bbd 1ea2 e43d
00000140: c40c 103e 823d a3bd 5c66 09be d4a7 cdbd
00000150: 2d3e fcbd dff0 cbbd e517 163e f758 dfbd
00000160: 80b3 f53d 728d 293e 8a10 d73c 857d 05be
00000170: 29a0 41be 639b 0c3e 16ee 35be 882a 3bbe
00000180: d874 a33d 9d4f 753d e635 713d 11b7 bbbd
00000190: 2f82 543e 463f a73d 4332 53be f78d 703e
000001a0: 09f4 ca3d c98f 053e 6ae8 91be ba10 d83c
000001b0: 4ad9 8b3d ad43 80be 92c5 353d 81f3 64bd
000001c0: 11b2 af3c 8276 0d3d 6f2e 29be 61b0 773e
000001d0: e125 b0bd d6e6 4cbc bda4 8f3d 08b8 ce3c
000001e0: 8480 00be fd57 3abd e6b8 75be 0982 d0bb
000001f0: 5045 00be bb27 003d 85e4 bfbd f88a 113e
00000200: 0202 babc 7816 993d 6e47 233e 8665 573e
00000210: b07f a3bd 0eb9 dabd e237 033e d51b 20bd
00000220: 096a d9bc 4e42 a03d 832f 153e 1ae9 09be
00000230: 73d7 33bc e3fc dbbd e906 643e d703 5ebd
00000240: c70b 123e 246c b4bd 605d 983e c674 24be
00000250: 6784 363e 03e1 063d a550 85bd f64c 32bd
00000260: 8ae0 e2bc f25b dfbc d78e a6bd 47e3 cebc
00000270: 1599 39bd 19fc 993d d07d b73c 912c 28bb
00000280: 5267 213d 8cfe 27bd cb27 6e3e c39b 553d
00000290: bee1 d33b 33e3 ce3d aa70 4a3e 7016 803d
000002a0: be24 1c3d 91ba b5bd f9aa 1cbc 5216 773d
000002b0: fea7 133e 8213 6f3d 4cf0 343d c4ee 1abe
000002c0: e67e f13d 8089 fabd 81e8 3d3e a1f9 21bd
000002d0: 5735 3e3e 6822 3fbe 709d 913d 7d6d a33d
000002e0: 2c38 443d 2a8f 093e 726f 93bd 733b 61be
000002f0: 5a01 f13d 382e 603d 38f6 9ebd 2ddf 163d
00000300: e2b0 0bbb 6d6a 22be d86a 07be 1d72 abbc
00000310: 91dc bb3d 36dd 27be 9235 8abd 039b d3bc
00000320: 14ba 00be c553 e93d 4aa6 883d 8bad 6abe
00000330: a6bc 8c3d 4daf 52bd 4803 18be 0e77 603e
00000340: 8ac4 05be c810 8b3d d5c8 68be 174c 223e
00000350: 2349 b43d 9ea6 343d 7b30 97bd 9da4 1e3e
00000360: 5a0c b63d baea 0e3d 5050 d13d 0d66 6fbc
00000370: 3951 61be 5456 10be abdb 80bd b27e 073e
00000380: 829f a93d d8fc c03b 4da6 a43d 18aa b93c
00000390: 0f96 6b3d d583 403e 9b04 123e 261e e8bc
000003a0: a218 acbd 5075 63be bf36 f2bd 31b1 c23d
000003b0: a1ad 143e 1330 253d 41f8 653e 4976 8b3d
000003c0: ec67 393e 84b4 a73b da16 eb3d 24af 143e
000003d0: 3b99 183e 1fd3 303d 6c5e 0c3e dd38 92bd
000003e0: 4148 ddbd d318 95bd d531 e5bd de5c 963d
000003f0: 9801 213e a8c0 483d 6e39 d2bd 9ffa 8bbd

lstm.weight_hh_l1 f4 [128, 32]
0.07729784 -0.04519067 -0.008525851 -0.21439202 -0.07329534 0.16337499 -0.19439435 -0.014274003
0.21165767 0.13302673 0.26838338 0.23616232 0.028110325 0.15743765 -0.119579464 0.010917705
-0.005940312 0.26585037 -0.276136 -0.113907896 -0.12127158 -0.09764433 0.19672747 -0.17641121
0.11434767 -0.08038425 -0.022329444 0.11088811 0.19492897 0.008819905 0.026539613 -0.21431424
0.056185175 0.005725941 -0.1028725 0.084180325 0.061213665 0.14304054 -0.15878186 0.14335819
-0.067259215 -0.07894861 -0.037667748 -0.14039753 -0.099372834 0.10133477 -0.11443801 -0.008459854
-0.101009846 -0.15692039 0.10838081 0.11956687 -0.10533078 -0.028095558 0.08352056 -0.17392126
0.029106164 -0.10718104 0.10709915 0.12200472 0.029654864 0.082364365 0.14978959 0.0008087619
-0.12027025 0.15395238 -0.01223257 0.05061064 0.037611596 -0.04504152 -0.016783472 0.060083315
-0.21440977 -0.14695035 0.08051236 -0.028093165 0.03805421 0.10737966 0.09065645 0.079475455
-0.06109952 -0.10559497 0.08669567 -0.042279895 -0.13152517 0.025938395 0.14115739 0.017260395
0.22334278 0.117742464 -0.1362032 -0.13461086 -0.13387734 0.15625583 0.0895833 -0.091762535
0.1590577 -0.086570345 -0.17247644 -0.1914259 0.0022139386 -0.077449284 -0.12707719 0.25851098
0.19873331 0.06301437 -0.17404997 0.029185915 -0.011070412 0.121000744 0.103514574 0.18243554
-0.020292731 0.028314287 -0.022529092 0.0061611603 -0.07482473 -0.17078449 0.07418373 0.091437995
-0.07704277 -0.0034447869 -0.04275885 0.14565334 0.048267066 -0.1153081 0.100820094 -0.16872713
0.039566766 -0.1311781 -0.18123765 -0.10329302 -0.04446567 0.02139708 0.031294808 -0.05652425
-0.22641367 -0.058509305 0.18985765 -0.1331691 0.18710572 -0.022648402 -0.17948793 0.007163096
-0.023435121 0.112010874 -0.100121394 -0.110471755 -0.026842996 -0.09999969 -0.052627787 -0.088049695
-0.065640695 -0.11646781 0.0010286721 -0.07041977 0.067456946 0.15043513 0.06900012 -0.051940054
-0.20343398 -0.028940141 -0.062900804 -0.06652907 -0.019212639 -0.04026389 -0.07559945 -0.11527661
0.13664943 0.09442919 0.010336976 0.11278188 0.19500095 -0.14318192 0.11163306 -0.18267882
-0.0856297 0.09479612 0.058372222 -0.09951309 0.16947886 0.14013183 0.09065076 0.04193739
0.1446608 0.032308605 0.12333329 0.028011357 -0.13366103 0.013348063 0.08012438 0.02895283
-0.07893884 -0.19729446 0.098374486 0.01717985 0.09177579 0.18923564 0.1278356 -0.061287925
0.024573132 -0.22330436 0.07304382 0.11018838 -0.050319564 -0.0055323537 0.06691754 -0.19138741
0.04858907 0.27634457 -0.04393736 0.13094963 -0.18022425 0.039862804 0.21218646 -0.202541
0.037759528 0.0005634005 0.023136929 -0.039618585 0.030728605 -0.07010348 0.13537169 -0.024836453
-0.2233127 0.07213544 0.1402224 0.06090969 -0.0084859915 -0.15012601 -0.19341794 0.1542643
-0.09811318 0.073798075 0.08144419 0.16466674 0.111194015 -0.04567893 0.06660798 -0.10830857
0.06151467 -0.18377139 0.023321737 0.107521035 -0.15931845 -0.1652949 -0.027128289 0.016585931
0.041108083 -0.109156966 -0.10728599 -0.12764017 -0.13732432 -0.059478194 0.14709975 0.02651012
00000000: 544e 9e3d da19 39bd 03b0 0bbc 9589 5bbe
00000010: de1b 96bd c64b 273e 500f 47be 82dd 69bc
00000020: cabc 583e 2938 083e 8c69 893e 89d4 713e
00000030: a047 e63c 5637 213e 14e6 f4bd 2ce0 323c
00000040: f3a6 c2bb 8a1d 883e b361 8dbe 8b48 e9bd
00000050: 3c5d f8bd c0f9 c7bd ed72 493e 24a5 34be
00000060: 1c2f ea3d 7fa0 a4bd 3dec b6bc 4e19 e33d
00000070: 769b 473e 5d81 103c 9a69 d93c 3175 5bbe
00000080: 6d22 663d ada0 bb3b d1ae d2bd bc66 ac3d
00000090: 2ebb 7a3d 3879 123e b697 22be 7dcc 123e
000000a0: 33bf 89bd cfaf a1bd 7f49 1abd 5fc4 0fbe
000000b0: fc83 cbbd 9b88 cf3d 7a5e eabd 339b 0abc
000000c0: 40de cebd bdaf 20be c2f6 dd3d 7adf f43d
000000d0: aab7 d7bd a828 e6bc d40c ab3d 6a18 32be
000000e0: 0d70 ee3c bc81 dbbd cd56 db3d 9cdd f93d
000000f0: c2ee f23c a6ae a83d 7162 193e 1803 543a
00000100: 4050 f6bd b1a5 1d3e 1e6b 48bc 1a4d 4f3d
00000110: 9e0e 1a3d 757d 38bd 7e7d 89bc ec19 763d
00000120: 3c8e 5bbe 277a 16be aae3 a43d a323 e6bc
00000130: bbde 1b3d dee9 db3d 17aa b93d 07c4 a23d
00000140: 7e43 7abd 2d42 d8bd 808d b13d af2d 2dbd
00000150: 89ae 06be c27c d43c 908b 103e ac65 8d3c
00000160: f8b3 643e f622 f13d da78 0bbe 6ed7 09be
00000170: 2417 09be 8701 203e 7377 b73d ffed bbbd
00000180: 06e0 223e cb4b b1bd aa9d 30be 2705 44be
00000190: ba17 113b bb9d 9ebd 8620 02be 8d5b 843e
000001a0: bf80 4b3e ae0d 813d 283a 32be 4d17 ef3c
000001b0: ac60 35bc 3dcf f73d 73ff d33d 62d0 3a3e
000001c0: f13c a6bc 5df3 e73c ee8e b8bc 8fe3 c93b
000001d0: b53d 99bd 21e2 2ebe a4ed 973d d843 bb3d
000001e0: 9ac8 9dbd efc1 61bb e723 2fbd 2626 153e
000001f0: b0b3 453d a726 ecbd c47a ce3d cec6 2cbe
00000200: c310 223d 8d53 06be 5d96 39be 4a8b d3bd
00000210: a221 36bd ee48 af3c fc2e 003d f985 67bd
00000220: fcd8 67be 74a7 6fbd 0b6a 423e 7b5d 08be
00000230: a498 3f3e 2489 b9bc afcb 37be 68b8 ea3b
00000240: 03fb bfbc f565 e53d 720c cdbd 043f e2bd
00000250: d8e5 dbbc a3cc ccbd 3c90 57bd 6653 b4bd
00000260: a16e 86bd ad86 eebd 82d4 863a 3e38 90bd
00000270: de26 8a3d ab0b 1a3e ef4f 8d3d 18bf 54bd
00000280: ff50 50be e013 edbc 23d2 80bd 6540 88bd
00000290: d363 9dbc c0eb 24bd e2d3 9abd 2516 ecbd
000002a0: d4ed 0b3e 1764 c13d 6b5c 293c 30fa e63d
000002b0: 54ae 473e 489e 12be e09f e43d 2810 3bbe
000002c0: a05e afbd 7824 c23d b617 6f3d 85cd cbbd
000002d0: de8b 2d3e b87e 0f3e 1ba7 b93d 8ac6 2b3d
000002e0: f621 143e 0756 043d 2a96 fc3d 1378 e53c
000002f0: 70de 08be d6b1 5a3c 4018 a43d 7c2e ed3c
00000300: b0aa a1bd 8f07 4abe 9078 c93d c2bc 8c3c
00000310: f2f4 bb3d fdc6 413e 56e7 023e 0c09 7bbd
00000320: 984d c93c e6a9 64be 0098 953d 72aa e13d
00000330: e31b 4ebd bf48 b5bb 100c 893d 10fb 43be
00000340: 5505 473d 097d 8d3e a9f7 33bd a917 063e
00000350: b58c 38be 2e47 233d 6847 593e e866 4fbe
00000360: bca9 1a3d 2bb1 133a a889 bd3c 1947 22bd
00000370: 8eba fb3c 6a92 8fbd e09e 0a3e d175 cbbc
00000380: 16ac 64be bfbb 933d 7696 0f3e 707c 793d
00000390: d408 0bbc a2ba 19be 5a0f 46be 76f7 1d3e
000003a0: 90ef c8bd 7223 973d 36cc a63d 669e 283e
000003b0: b0b9 e33d d419 3bbd c469 883d e2d0 ddbd
000003c0: cef6 7b3d 912e 3cbe 3a0d bf3c fd33 dc3d
000003d0: 6024 23be 1143 29be 253c debc 38df 873c
000003e0: f360 283d b08d dfbd c2b8 dbbd 1bb4 02be
000003f0: bf9e 0cbe 689f 73bd 51a1 163e c02b d93c

lstm.bias_ih_l1 f4 [128]
-0.014611463 -0.12832394 -0.10998119 -0.024923462 0.051665347 0.20890623 0.054963246 -0.0133936135
0.011206715 -0.0119776 -0.18731499 -0.027882397 -0.23936233 0.19874518 0.037260823 -0.07921912
-0.25889423 0.010094874 -0.020968135 -0.08231318 0.18086526 0.02173165 -0.08858697 0.23070277
0.01690495 -0.1762732 0.077263154 0.20273118 0.14376555 -0.17580159 0.115202814 0.18283175
0.088894814 0.010410357 0.097493894 -0.1763152 -0.13817735 -0.0787266 -0.15103658 0.15219711
-0.07391027 0.086364016 -0.12339467 -0.043230254 -0.031690758 -0.14081644 -0.037932977 -0.23886706
-0.21318558 0.05939045 0.029613733 -0.10049829 0.16371357 0.012230459 0.16993302 0.054029632
-0.0694298 -0.057117663 -0.17376794 0.18083829 0.024167 -0.21620081 0.147757 -0.0984934
0.09091244 -0.09830734 0.18100956 -0.019660758 -0.14780703 0.06632059 -0.012709393 -0.07548118
0.0017048217 -0.012085768 0.025899364 0.053081483 -0.11170449 0.039947145 0.07879839 0.0037697123
0.05807361 -0.048713665 0.12199715 0.12695713 0.16719131 0.02062086 -0.0783783 0.108293116
0.02071884 -0.0030215601 0.10975909 -0.09429607 -0.07064976 -0.031571563 -0.17171861 -0.034860454
-0.21478313 0.08606304 0.14702342 0.08550678 -0.18510097 0.09909695 -0.12866978 -0.16088998
-0.07326342 -0.045183398 0.11988974 -0.1602346 -0.15736507 -0.026186328 -0.19175161 -0.23978521
-0.28168282 0.18856612 0.13865827 -0.2001353 0.0016577594 -0.012416624 0.20124486 0.09027165
0.025264712 -0.04561061 0.05442456 0.042264186 -0.13401744 0.05491791 -0.0999453 0.18020992
00000000: eb64 6fbc 5a67 03be d13d e1bd 4a2c ccbc
00000010: 0b9f 533d 84eb 553e 2421 613d e370 5bbc
00000020: 5f9c 373c b23d 44bc 80cf 3fbe a069 e4bc
00000030: 661b 75be db83 4b3e ce9e 183d a23d a2bd
00000040: c98d 84be f864 253c 5ec5 abbc d093 a8bd
00000050: be34 393e 9306 b23c 166d b5bd 593d 6c3e
00000060: 407c 8a3c f680 34be 253c 9e3d c398 4f3e
00000070: 4737 133e 5505 34be 74ef eb3d 3f38 3b3e
00000080: 7c0e b63d 3490 2a3c e1aa c73d f98b 34be
00000090: 5d7e 0dbe 693b a1bd 55a9 1abe 8fd9 1b3e
000000a0: 455e 97bd 9edf b03d 58b6 fcbd 3512 31bd
000000b0: 2bce 01bd 2f32 10be 9c5f 1bbd 9199 74be
000000c0: 524d 5abe 6743 733d 8098 f23c 0cd2 cdbd
000000d0: 88a4 273e 4362 483c ec02 2e3e 2d4e 5d3d
000000e0: 3631 8ebd 36f4 69bd 39f0 31be ac2d 393e
000000f0: dff9 c53c bf63 5dbe 9c4d 173e e8b6 c9bd
00000100: 4d30 ba3d 5c55 c9bd 925a 393e 990f a1bc
00000110: ba5a 17be 17d3 873d 0f3b 50bc e095 9abd
00000120: 5374 df3a 6303 46bc e72a d43c f86b 593d
00000130: 53c5 e4bd 9e9f 233d 0d61 a13d 470d 773b
00000140: 98de 6d3d fb87 47bd a4d9 f93d 0d01 023e
00000150: 3334 2b3e 14ed a83c cd84 a0bd c8c8 dd3d
00000160: 8fba a93c 5e05 46bb 60c9 e03d 4c1e c1bd
00000170: d2b0 90bd 2f51 01bd 01d7 2fbe d6c9 0ebd
00000180: 1cf0 5bbe d241 b03d 4f8d 163e 2e1e af3d
00000190: 1c8b 3dbe 57f3 ca3d 03c2 03be 58c0 24be
000001a0: 220b 96bd 3a12 39bd c188 f53d 8a14 24be
000001b0: 4f24 21be b684 d6bc 895a 44be 418a 75be
000001c0: bb38 90be 7a17 413e 6ffc 0d3e 45f0 4cbe
000001d0: 2d49 d93a 196f 4bbc 2213 4e3e 58e0 b83d
000001e0: f1f7 ce3c 31d2 3abd 4aec 5e3d 361d 2d3d
000001f0: de3b 09be 9af1 603d 1fb0 ccbd f388 383e

lstm.bias_hh_l1 f4 [128]
-0.18747668 0.11367711 -0.09008157 -0.054026205 0.07945845 0.12542827 0.008388852 -0.1373673
-0.024350598 -0.11045204 -0.045001224 -0.041528013 -0.039166693 0.05585055 -0.085318916 -0.075496696
-0.07302042 0.1461939 0.11873788 -0.076923534 -0.041995075 -0.12572432 0.14422439 0.22668104
-0.16812414 -0.1576459 -0.06448602 -0.06944895 0.05639525 -0.052431744 0.052512523 -0.09797087
0.05001727 0.09496927 -0.006764581 -0.15466593 -0.122581206 0.13431457 0.06768963 -0.038774382
-0.0025058854 -0.08582997 -0.072254084 -0.13909025 -0.09684721 0.020239342 -0.2699243 -0.017479083
-0.37114656 0.25232756 0.048649117 -0.28857052 0.07017575 0.055602163 -0.07650352 0.08412276
-0.037570607 0.08664974 -0.093147434 0.13003495 -0.15269552 0.11768483 0.090521134 -0.05625126
-0.04555379 0.15356673 -0.00061649596 -0.046004593 -0.08365176 -0.15272689 0.050582416 -0.1776688
0.05362148 -0.009572203 -0.044391345 -0.19794953 -0.010482942 0.02364996 0.081758335 0.0051858444
-0.08437124 -0.026550254 0.009270279 -0.018118326 0.15739726 -0.08686694 -0.22230671 0.053794086
-0.07017489 0.20110665 0.06895775 -0.11213655 -0.19851112 0.02228559 -0.07461744 0.12707159
-0.058150046 0.13279057 -0.041384373 -0.057520255 0.12647825 0.070282966 -0.08188484 -0.17029218
0.015962237 0.10862431 -0.17095606 0.1235408 -0.13106667 0.07142132 -0.08689234 -0.08867585
0.006376215 0.2716122 -0.07293005 -0.060828637 0.18724611 0.15053304 0.11716569 0.055889003
0.02989834 -0.19262408 0.019989444 0.030646248 -0.14705038 -0.022966133 0.06403334 0.15277527
00000000: e3f9 3fbe 8bcf e83d b07c b8bd 954a 5dbd
00000010: 1dbb a23d 4570 003e 6571 093c 03aa 0cbe
00000020: e87a c7bc ae34 e2bd 3453 38bd 4719 2abd
00000030: 416d 20bd 8cc3 643d afbb aebd 039e 9abd
00000040: bb8b 95bd dbb3 153e d82c f33d 168a 9dbd
00000050: 0703 2cbd e0bd 00be 8faf 133e 131f 683e
00000060: bc28 2cbe ed6d 21be 3f11 84bd 403b 8ebd
00000070: b5fe 663d abc2 56bd 5f17 573d f4a4 c8bd
00000080: e9de 4c3d 407f c23d 6ba9 ddbb bf60 1ebe
00000090: db0b fbbd c289 093e dca0 8a3d e3d1 1ebd
000000a0: c839 24bb a0c7 afbd f3f9 93bd ad6d 0ebe
000000b0: d457 c6bd facc a53c 8533 8abe 4b30 8fbc
000000c0: ec06 bebe 1431 813e 4c44 473d 84bf 93be
000000d0: 4eb8 8f3d 18bf 633d e1ad 9cbd 8e48 ac3d
000000e0: a3e3 19bd 6b75 b13d 15c4 bebd e227 053e
000000f0: 375c 1cbe bf04 f13d 2563 b93d b967 66bd
00000100: 9c96 3abd 9940 1d3e 589c 21ba 506f 3cbd
00000110: 9d51 abbd 7064 1cbe 822f 4f3d cfee 35be
00000120: 32a2 5b3d bbd4 1cbc b3d3 35bd 48b3 4abe
00000130: a5c0 2bbc 90bd c13c ea70 a73d 04ee a93b
00000140: d4ca acbd eb7f d9bc 5ee2 173c e26c 94bc
00000150: bf2c 213e 4be7 b1bd 5fa4 63be 3057 5c3d
00000160: dab7 8fbd e7ee 4d3e b939 8d3d d9a7 e5bd
00000170: 8046 4bbe 4590 b63c 07d1 98bd 0e1f 023e
00000180: be2e 6ebd 40fa 073e a982 29bd 5c9a 6bbd
00000190: 8483 013e 84f0 8f3d 3db3 a7bd 1361 2ebe
000001a0: 3dc3 823c 6c76 de3d 1b0f 2fbe f502 fd3d
000001b0: 5736 06be 5745 923d 9cf4 b1bd af9b b5bd
000001c0: 91ef d03b c110 8b3e 5a5c 95bd 7327 79bd
000001d0: 72bd 3f3e 5525 1a3e 91f4 ef3d deeb 643d
000001e0: 5ded f43c 3f3f 45be e7c0 a33c d70d fb3c
000001f0: 6094 16be 7923 bcbc e923 833d 1f71 1c3e

fc.weight f4 [1, 32]
-0.13057336 -0.077252306 -0.21044561 -0.030575264 0.035681963 0.17091046 -0.08608153 0.10311696
-0.03831392 -0.20206618 0.13564815 0.12659699 0.10678402 0.06907602 0.04765784 -0.048128974
0.057901736 0.27503288 -0.091438256 -0.0029318652 -0.20333955 -0.06647218 0.22205637 -0.1933301
0.14125605 -0.043710195 -0.03680704 0.18903925 0.12109564 0.09658355 0.07260752 -0.22265425
00000000: 06b5 05be 7536 9ebd 0e7f 57be fa78 fabc
00000010: 4027 123d 2703 2f3e 834b b0bd fc2e d33d
00000020: 0fef 1cbd 70ea 4ebe 59e7 0a3e a4a2 013e
00000030: 95b1 da3d ba77 8d3d de34 433d e322 45bd
00000040: 5f2a 6d3d 1cd1 8c3e fb43 bbbd 8924 40bb
00000050: 3e38 50be 9122 88bd bf62 633e 53f8 45be
00000060: 6da5 103e 7609 33bd fbc2 16bd 8193 413e
00000070: fe00 f83d 99cd c53d 40b3 943d 7aff 63be
