backend/stocks/price/pt_models/AMT.pt (torch, 54423 bytes, 9 tensors)

lstm.weight_ih_l0 f4 [128, 1]
000000 61 8f ba bd f9 a5 d1 3e 38 5f d5 3e bb 5f 9e bd
       -0.091093786 0.4094694 0.4167421 -0.07733103
000010 eb a0 56 be 47 15 47 3d 24 18 6c 3d 7b bf 8e be
       -0.20959823 0.048604276 0.05764021 -0.27880463
000020 51 fb 8e be e5 de c9 bd 2a c4 31 3e e6 d8 84 be
       -0.27926114 -0.09856967 0.17359987 -0.2594673
000030 0b 8f 87 bd 38 01 6d be 0d 1d 13 be aa 55 08 be
       -0.0661908 -0.23144996 -0.1436655 -0.13313928
000040 3e 6a df 3d fa 7c 1f 3e 68 d7 60 be d8 0c 1e be
       0.10908936 0.15575019 -0.21957171 -0.15434587
000050 08 73 03 3e 47 7a 3a 3e bf 81 47 be f9 9a 5a be
       0.1283685 0.18210708 -0.19483088 -0.2134818
000060 97 6b 5c be c9 c0 a9 3c c3 61 fe bd d6 6d b3 be
       -0.21525417 0.02072181 -0.1242099 -0.35044736
000070 b6 a7 8f be 7e c2 8d bd e8 af f0 bc a1 a4 54 be
       -0.2805764 -0.06921862 -0.029380754 -0.20765926
000080 00 70 e3 bd 94 ab b3 3e 50 83 b7 3e d2 45 e5 bd
       -0.11105347 0.3509184 0.3584237 -0.11194958
000090 c8 db b8 be 54 25 bc bc aa a9 a6 3c 21 ed 30 be
       -0.3610518 -0.022967018 0.020344574 -0.17277957
0000a0 3a 23 63 3c 61 c0 06 ba f2 ab e8 3d 6a 82 11 be
       0.013863379 -0.0005140361 0.11360921 -0.14209905
0000b0 05 ab 20 be 53 a0 80 be be 9d e8 bd 93 26 2e bd
       -0.15690239 -0.25122318 -0.11358212 -0.042517256
0000c0 43 2c 1f be 36 94 6e 3d 64 9f a9 bc d3 90 a6 be
       -0.15544228 0.058246814 -0.020705886 -0.32532367
0000d0 9c db 29 be 11 81 b0 3d b2 05 aa 3c 4e f5 74 be
       -0.1658768 0.086183675 0.020754669 -0.23921701
0000e0 d2 d6 a4 bd c5 3e 52 be f2 10 61 3c af 72 a7 be
       -0.08048786 -0.20531757 0.01373695 -0.32704684
0000f0 ac e2 f9 bd 06 6e 06 3d e5 62 5a be ad 0c 19 be
       -0.12201437 0.03281977 -0.21326788 -0.14946242
000100 77 74 0a be b1 9e 97 be 07 ea 30 3e ac 02 b3 3d
       -0.1352099 -0.2961326 0.17276774 0.08740744
000110 da 35 8b be 32 84 6d be 8a a9 11 3d 2d fe 6f 3e
       -0.27189523 -0.2319496 0.035562076 0.23436804
000120 d4 53 a7 be 68 4a c2 be e9 11 54 3d 97 f3 b6 be
       -0.32681143 -0.37947392 0.051774893 -0.3573272
000130 df a8 d9 3d 00 0a 56 be 84 76 3b 3b d3 0b 97 3d
       0.10627913 -0.20902252 0.0028604576 0.07375302
000140 15 a2 8f be 45 12 82 bd 0c 51 38 3e df 9a 81 3e
       -0.28053346 -0.06351141 0.17999667 0.2531347
000150 e1 55 b5 bd 28 44 81 bd 05 0a 92 be 18 3a c8 bb
       -0.08854271 -0.06311828 -0.2852327 -0.006110441
000160 38 19 01 bd 9c cb a8 be 35 7d 56 3e e5 39 ab be
       -0.03151819 -0.32967842 0.209462 -0.33442608
000170 7c 51 08 3d b4 36 bb be 69 56 0c be da 3b b4 bd
       0.033280835 -0.36565173 -0.13704838 -0.08800478
000180 2e bb 25 be 26 74 c9 3e c5 93 90 3e 97 3f 58 bd
       -0.16184685 0.39346427 0.2823774 -0.05279502
000190 2b 1e a3 be 61 02 e5 3c 12 e4 7b be c5 4b ce bd
       -0.31858954 0.027955236 -0.2459872 -0.10073046
0001a0 e6 ee 9a be 93 c6 02 be 09 68 07 3e c2 be 10 be
       -0.3026039 -0.12771063 0.1322328 -0.14135268
0001b0 1f 8c 33 bd fe 55 8e be b1 69 d6 3d ec 30 ff bd
       -0.0438348 -0.27799982 0.10469378 -0.12460503
0001c0 4d 7d 69 bc 0d 97 5b bd ce d7 e2 bc 48 7a fd bd
       -0.014251065 -0.05361085 -0.027690794 -0.12376839
0001d0 93 07 ee bd fc 48 91 bd d0 78 9a bd bd 16 42 be
       -0.116225384 -0.07093999 -0.075425744 -0.18953986
0001e0 98 7f b8 bd 10 3d 40 bd 74 31 21 bd 13 d3 fa bd
       -0.090087116 -0.046933234 -0.039353803 -0.122472905
0001f0 a3 5d 75 be d3 90 52 bd 57 55 4e be 5f 6f 89 be
       -0.23961501 -0.051407646 -0.20149742 -0.26842782

lstm.weight_hh_l0 f4 [128, 32]
000000 40 63 f0 3d 98 6b 4e 3d a2 ba 09 be f4 b7 fe 3c
       0.117376804 0.05039558 -0.13450101 0.031093575
000010 ec 57 53 be 82 91 63 3d ce 05 22 3e 92 02 0d bd
       -0.20639008 0.05555869 0.15822527 -0.03442628
000020 7f 93 7c 3d d6 14 6f be 52 22 0d be c7 b3 50 be
       0.0616641 -0.23347792 -0.13782623 -0.2038108
000030 31 4b a5 3d 1a 52 f6 bc fc 4c 63 3d 6b 87 1e 3e
       0.08070982 -0.030068446 0.05549334 0.15481345
000040 83 0c 95 3d 40 b5 90 bd f8 77 d3 3d f5 8f d3 bd
       0.07277777 -0.07065821 0.103256166 -0.10330192
000050 f3 6a 60 3e 33 4c 87 3d ff 03 77 be d7 07 23 bd
       0.21915798 0.06606331 -0.24122618 -0.0398024
000060 8c 0a b9 3c ef 53 5c 3b c5 6f d8 bd f7 41 c2 bc
       0.022588037 0.0033619364 -0.10568193 -0.023713095
000070 f4 b0 fc bd 28 04 83 bc aa 48 7a be 05 e1 a9 3d
       -0.12338439 -0.015993193 -0.24441782 0.08294872
000080 22 5a 82 3c 19 8e 69 bd 8e 4f 25 3e c5 65 f9 3d
       0.01591212 -0.05702028 0.16143629 0.12177614
000090 2a a1 e8 3b 89 5f 7c be 8d eb 28 3e 22 b4 1c 3e
       0.0070992904 -0.24645819 0.16496105 0.1530309
0000a0 34 08 16 be 65 6b 99 be ad 9b ac bd 4a 3f 15 be
       -0.14651567 -0.29964748 -0.0842813 -0.14574924
0000b0 f1 9c e0 3c 85 c7 5c bc f3 92 0d 3e ac 8c aa bd
       0.027418585 -0.013475304 0.13825588 -0.08327612
0000c0 82 f9 08 be e7 bf 7b be c0 70 93 3d d1 21 c4 3d
       -0.1337643 -0.24584924 0.0719924 0.095767625
0000d0 b8 0f 82 bd 24 87 76 3d 0d a7 95 bc 53 65 36 3c
       -0.06350654 0.060187474 -0.018268133 0.011132556
0000e0 ae 22 ae bd da 0f 64 bd 48 ae 6e 3c e4 a4 b0 38
       -0.085027084 -0.05567918 0.014567919 8.423047e-05
0000f0 f0 cb fb 3c 85 9b 92 be 23 81 bf bb 28 9a 2a 3e
       0.030736893 -0.28634277 -0.0058442517 0.16660368
000100 1c e7 63 be 48 e1 35 be c7 65 09 3e 60 a6 86 3e
       -0.2225613 -0.17761719 0.13417731 0.2629881
000110 94 78 96 be 04 f3 7c be 24 b3 9d 3d c4 96 a2 3e
       -0.2938887 -0.24702078 0.07700184 0.3175565
000120 26 15 8e be 71 14 28 be ff 70 64 bd 20 2b af be
       -0.2775051 -0.16414048 -0.055771824 -0.3421259
000130 75 8a 43 3e 30 a6 db bd 74 ed 1f 3d 87 a5 88 bd
       0.19095786 -0.10725057 0.039044812 -0.06672197
000140 0f 7f dd bd 46 68 2f bd aa 62 0d 3e de 5f 81 3d
       -0.1081525 -0.042824052 0.13807169 0.06317113
000150 6f 4b 06 be 52 e6 24 be a9 12 97 bd 99 d9 4f be
       -0.13114713 -0.16103485 -0.07376606 -0.2029785
000160 07 7d 67 bd 55 a3 d5 3b 98 19 e9 3c 5c 87 33 be
       -0.05651572 0.006519715 0.028454587 -0.17532104
000170 ed 67 85 be 2a 2e 87 bd 0f d2 85 bb d8 51 57 be
       -0.26055852 -0.06600602 -0.004083879 -0.21027315
000180 d9 62 12 bd 4c f3 99 3e 5f b1 10 be ee 16 98 3d
       -0.0357388 0.30068433 -0.14130162 0.074262485
000190 d9 6a f2 bb 6e 77 f6 3d 27 56 22 3c 71 12 28 bd
       -0.007397991 0.12034498 0.009908236 -0.041033212
0001a0 85 44 dc 3d c7 56 10 be 49 2b 6f 3d 86 42 2f 3e
       0.107552566 -0.14095603 0.05839089 0.1711522
0001b0 9c 6d 01 be f1 f0 bd ba ee ef 11 3e 1d 75 01 3d
       -0.12639469 -0.0014491362 0.14251682 0.03160583
0001c0 65 13 7a 3e e4 21 1b 3e 11 f6 27 3e d6 7f 0d 3e
       0.24421461 0.15149647 0.1640246 0.13818297
0001d0 2f 8b 1a 3e 0f c1 01 3e 86 b5 c4 3d b3 a8 0a bd
       0.15092157 0.12671302 0.09604935 -0.03385229
0001e0 ce 10 34 be 6c 76 62 3d 52 2d 63 bd 22 68 a9 3d
       -0.17584535 0.055288717 -0.055463143 0.08271815
0001f0 75 05 09 bc 39 91 89 3e 21 0f b1 3d 69 3b 06 3e
       -0.008363117 0.2686861 0.08645464 0.131086
000200 a8 db 3b 3e ed 8c 52 3e 12 c6 2d be 8b 2d 1c bd
       0.18345511 0.20561571 -0.16970089 -0.03812937
000210 f7 71 86 bd c6 a1 c2 bc c9 0e e4 3c bd 03 e6 bd
       -0.06564706 -0.02375878 0.027839081 -0.11231182
000220 cf f2 a7 bc 20 65 13 bd f9 d5 3f be b6 07 22 3e
       -0.020501522 -0.035985112 -0.18733968 0.15823254
000230 0a af 19 3d 9b 05 70 bd c0 fa 53 bd 17 3a 1e 3e
       0.037520446 -0.058599096 -0.051752806 0.15451847
000240 f9 35 64 bc de fb 11 3e 33 fc bc bd 1c 52 84 bd
       -0.013928884 0.14256236 -0.09227791 -0.064609736
000250 cf b1 2c be 71 aa 15 be 22 ec 15 bd 42 0d 31 be
       -0.16864704 -0.146158 -0.036602147 -0.17290214
000260 7b 65 45 bd ec d1 fd 3d cb 18 0c be 9f 7c 02 3e
       -0.048192482 0.12393555 -0.13681333 0.12742852
000270 7b 36 b6 3d fd 8b 3e 3e 5e af 92 3d 87 af 0b be
       0.0889711 0.18608089 0.07162355 -0.13641177
000280 db d3 fd 3d e5 90 ad bd 3e 47 02 bc 64 16 00 be
       0.12393924 -0.08474902 -0.007951556 -0.12508541
000290 52 ed 5f 3d 29 39 5a be ac b4 0d 3e 96 80 b6 bd
       0.054669686 -0.21310867 0.13838452 -0.089112446
0002a0 38 0d 1f be 46 7a 09 3e 1a 3e 8c bd 77 ee 78 3c
       -0.15532386 0.1342555 -0.068477824 0.015193573
0002b0 dc b1 7f 3d a8 1c 06 be 48 1b fd bd 83 fc 70 3d
       0.06242548 -0.13096869 -0.12358719 0.058834564
0002c0 f5 d8 18 be cc 7c 4a 3e 77 a6 d6 bd 0f f7 4f 3e
       -0.14926513 0.19774169 -0.104809694 0.20309089
0002d0 b0 40 5a 3e 00 d4 a6 bd eb b1 39 be 9a cb 8e 3d
       0.21313739 -0.081459045 -0.18134277 0.06972428
0002e0 07 22 6e bc 31 d7 dc bc 43 97 22 be 3b f1 44 bc
       -0.01453448 -0.02695808 -0.15878014 -0.012020404
0002f0 e8 d3 42 be a9 f2 5b bc 9a d0 80 bd 84 12 96 bd
       -0.19026148 -0.013424554 -0.062897876 -0.0732775
000300 46 67 d8 3d 35 14 a7 3d a4 f3 27 bc e5 13 b9 bc
       0.10566573 0.08158151 -0.01025096 -0.022592494
000310 9f 52 72 bd 7c 2d f1 3d ef 47 ff 3c 46 ae 13 3c
       -0.059160825 0.117762536 0.03116223 0.009013718
000320 91 06 0b 3d 40 cb ec 3d 60 65 4e be 99 b7 e7 3d
       0.03394181 0.11562204 -0.20155859 0.11314315
000330 cf 43 38 3e b4 83 0d be 72 f9 d3 3d 7b 06 91 3d
       0.17994617 -0.13819772 0.10350312 0.07081314
000340 fd 81 c9 3c a3 a2 56 bd c9 20 0e be 4f 3c 08 3e
       0.024598116 -0.052401196 -0.13879694 0.13304256
000350 cb 85 78 3d c7 b3 60 3c 07 dd fd bd 41 7d c2 3b
       0.06067447 0.013714737 -0.12395673 0.0059353416
000360 ab d9 35 3d 00 6f 95 3c 96 7f 2d 3d 48 69 83 3d
       0.044397037 0.018241405 0.042358004 0.06416565
000370 64 fe 92 3d 7b e7 1a 3e 93 42 8c bd 3b c9 e6 3d
       0.071774274 0.15127365 -0.068486355 0.112688504
000380 99 27 d1 3d 61 e0 ae 3e 64 ae f7 bc 0f 19 54 bd
       0.10212631 0.34155563 -0.030234523 -0.05178171
000390 3e 19 ec bd 3b 17 b9 3b d5 e8 0c be 45 df 22 bd
       -0.11528252 0.0056485212 -0.13760693 -0.039763708
0003a0 25 39 ec 3c 7f 67 02 3e d9 88 54 be 40 ba 84 3e
       0.028835842 0.12734793 -0.20755328 0.25923347
0003b0 cb e8 cd bc f9 f6 56 3d 9d ff ed bc 0b b0 4e 3e
       -0.025135418 0.052481625 -0.02905255 0.20184343
0003c0 fe d9 7d 3e 95 26 bf bd 42 b6 a1 bd 1a ad 92 3d
       0.24790189 -0.09333531 -0.07896091 0.07161923
0003d0 74 3c f5 3d 06 b2 12 3c d4 af 19 3e 8c 2c 67 bd
       0.11974421 0.008953577 0.1500848 -0.056438968
0003e0 71 96 38 3c a1 85 3a 3e 33 89 0c 3e 61 c3 02 3e
       0.011266337 0.18215038 0.13724212 0.12769844
0003f0 8b a0 82 bd fd fa c7 3e 95 c7 31 3d d5 6d 33 be
       -0.063782774 0.39058676 0.043403227 -0.17522366

lstm.bias_ih_l0 f4 [128]
000000 21 b2 45 be 58 94 80 bc ae 4b 2d be 80 de df 3d
       -0.19306232 -0.015695736 -0.16923401 0.109311104
000010 de 21 ff bd 1a c6 d9 bc 6e 11 5f 3d c8 52 b8 3d
       -0.124576315 -0.02658372 0.05445998 0.09000164
000020 9e 03 0f be 93 6f 86 bd 8d a2 f0 bc 80 af 1e 3d
       -0.13966224 -0.0656425 -0.029374385 0.03874159
000030 ff 82 59 be 22 74 be 3d 04 1b 26 bd ed 1b 5c 3d
       -0.21241377 0.09299494 -0.040553108 0.05373757
000040 f3 e3 88 3c 8f c0 c7 bd 9c f3 57 bd 76 6a f3 bd
       0.016710257 -0.097535245 -0.05272256 -0.1188554
000050 2e fb 60 3d 9d b0 2a be c1 88 e7 3d 7e f0 9f 3c
       0.054927044 -0.16668935 0.113053806 0.019523855
000060 d7 d5 ae 3a a0 a9 40 3d da 2c ef 3c 11 57 2f 3e
       0.0013338876 0.047036767 0.029196192 0.17123057
000070 4b a8 4d 3d a4 5e 94 3d a0 84 00 3c cc 46 a8 bd
       0.050209325 0.07244614 0.00784412 -0.082166284
000080 46 ab 2b be a7 9a b7 3d fd f2 fb bd 6e c5 a0 bd
       -0.16764554 0.089650445 -0.12302206 -0.07850157
000090 3d dd 95 3d 73 26 eb 3c a4 5f 98 3d a5 51 c5 3d
       0.073175885 0.028704857 0.07440117 0.09634713
0000a0 e3 78 c8 3d 18 56 74 3e 8f 2e 14 be 6f 80 29 bd
       0.09788682 0.23860967 -0.14470886 -0.04138225
0000b0 0f db 54 be f2 b9 ed 3d 52 fc 51 be c4 e9 41 3d
       -0.20786689 0.11607732 -0.20506409 0.047342077
0000c0 91 f1 8a bd 3b 6c 17 bd 8c 56 57 be ad 82 88 bd
       -0.067843564 -0.03696845 -0.21029109 -0.066655494
0000d0 a0 27 22 be 86 68 eb bc 59 ed 87 3d de 67 0f be
       -0.15835428 -0.028736364 0.06637067 -0.14004466
0000e0 1d da 1b 3c 38 4b 58 bb 31 7f f4 bd e7 f7 a6 3d
       0.0095124515 -0.0033003818 -0.11938322 0.08152752
0000f0 95 56 a6 3c 73 c0 1e 3e 58 dc b6 bd 8a 11 38 be
       0.020304957 0.15503101 -0.08928746 -0.1797544
000100 a4 f7 15 bd 62 09 87 bd 13 3b 06 bd 1b fa 94 3c
       -0.03661312 -0.065935865 -0.03277118 0.018185666
000110 9f ff 92 3d 93 4b a5 bd 34 c5 20 bc fa f5 25 bd
       0.07177662 -0.08071055 -0.009812642 -0.040517785
000120 85 f5 8e 3d b1 e5 bc bc ed 90 15 3d 14 08 7f bd
       0.06980423 -0.023058744 0.036515165 -0.062263563
000130 47 a0 bc bc b6 e9 f4 3d 21 45 33 bc 21 47 ee bd
       -0.023025645 0.11958639 -0.010941775 -0.116346605
000140 3f 94 1e bb dd 0a 88 bc 7f b6 b7 bb c9 12 82 bd
       -0.0024197248 -0.016606743 -0.005606472 -0.06351239
000150 d6 9e 08 bd e4 68 43 be d8 78 99 bd 22 e8 8e 3d
       -0.033354603 -0.19082981 -0.07493752 0.069778696
000160 fd e6 a0 bd ad 2a 06 be d9 12 0c 3d 0d 7e c4 3c
       -0.078565575 -0.13102217 0.034197662 0.023985887
000170 30 6f 08 3e 1f 83 ce bd 28 16 a5 bd 29 21 20 3e
       0.13323665 -0.10083603 -0.080608666 0.1563765
000180 4e 59 5b be 01 46 fc 3c 21 95 f7 bd 55 54 e9 3d
       -0.21420786 0.0307951 -0.12088991 0.11393038
000190 7a 3c 59 bd ff 47 19 be b1 72 39 be 33 b6 3d bd
       -0.05303619 -0.1496887 -0.18110158 -0.046316337
0001a0 e2 a7 79 3d 2f 69 ea 3d b7 55 8a be 71 7e 9b bd
       0.06095112 0.114458434 -0.2701852 -0.07592476
0001b0 19 6f 80 bd 13 09 95 3d 68 d8 ec bd 56 bc d8 3c
       -0.0627119 0.072771214 -0.11564714 0.026456993
0001c0 ed 05 2f 3e 30 d6 5e be 22 aa e5 3c e3 59 27 3e
       0.17092104 -0.21761394 0.028035227 0.16342883
0001d0 e1 25 1f be 5e a9 27 be 22 f2 53 bd 67 54 16 be
       -0.15541793 -0.16373202 -0.051744588 -0.14680634
0001e0 57 33 9b 3d 57 f9 10 bd 7a 4e 95 3d 69 1b c9 3d
       0.07578152 -0.03539404 0.07290359 0.09819681
0001f0 65 b8 db bc 60 53 98 3d 4f 54 fa bc c1 22 b3 bb
       -0.026821325 0.074377775 -0.03055778 -0.0054667895

lstm.bias_hh_l0 f4 [128]
000000 44 10 2a 3d c5 12 13 bd 93 d9 b2 bd 3b 47 be bc
       0.04151942 -0.035906572 -0.08732905 -0.023227325
000010 b8 fd 02 bd 10 23 78 3d 46 c3 dc bd 79 87 49 3d
       -0.031980246 0.060580313 -0.10779433 0.049201462
000020 d5 c9 f1 3d a0 d3 5a 3d c7 c9 80 be bc f5 47 3d
       0.118060745 0.053424478 -0.25153944 0.048818335
000030 bd 39 a3 bd 11 dd 49 3d 9c 04 42 be 35 15 5a 3d
       -0.07969997 0.04928309 -0.18947071 0.05324288
000040 06 22 b9 bd c9 6c 53 bd c1 dc df 3c 3a 29 28 bd
       -0.090396926 -0.051617417 0.027326943 -0.04105494
000050 ff c6 5c 3d 2f d2 1f be d3 04 45 3e 30 04 c4 3c
       0.053900715 -0.15607522 0.19240122 0.023927778
000060 16 e8 07 be 04 47 44 3d 44 9f 2f be 73 77 6a bd
       -0.13272128 0.04791929 -0.17150599 -0.057242822
000070 bb e7 f8 ba cd 03 9f 3b 42 ad b8 3d ff 24 ae bd
       -0.001898996 0.004852748 0.09017421 -0.0850315
000080 da a7 14 be a7 8f 80 3d a1 dc 58 bc 47 91 d3 ba
       -0.14517155 0.062773995 -0.013236196 -0.0016141318
000090 ac 42 2d bd cd 7d 84 bd c0 96 38 3d c6 62 1e 3e
       -0.04229991 -0.06469307 0.04506564 0.15467367
0000a0 7a 30 0e be 24 89 e2 3d ac 43 ca bd 11 48 58 3e
       -0.1388568 0.11061314 -0.09876189 0.21121241
0000b0 ba 9b c9 bd f8 77 46 bd 11 bb 95 3d 8b 6b 7f be
       -0.098441556 -0.048454255 0.07311071 -0.24943368
0000c0 b3 f6 e5 3d 8c 9e 07 be fe 84 2a bd 85 b1 db 3c
       0.11228695 -0.13244075 -0.041630737 0.026818046
0000d0 41 70 88 bc e0 90 9b bd 58 5b 3b 3e 77 35 aa bd
       -0.01665509 -0.07595992 0.18296564 -0.08310979
0000e0 2f 01 41 be ba 31 dd bd 83 e8 21 be 77 e5 b2 3d
       -0.18848108 -0.108005 -0.15811352 0.08735173
0000f0 74 17 ac bd e3 cc 0d 3e ee 89 9c 3d d0 4e 06 be
       -0.08402911 0.1384769 0.076434955 -0.13116002
000100 5f e8 77 3d c7 51 3d bd 50 fa 3b 3e 32 0a 22 be
       0.06052434 -0.046220567 0.18357205 -0.15824202
000110 2b 3a 5f bd 5d 6e 92 3d eb 79 ee bd 56 f4 17 bd
       -0.054498833 0.071499564 -0.11644348 -0.03709825
000120 4d 1b d5 bc 02 ee b8 bd 38 79 db 3d d4 ff 0d 3d
       -0.026013995 -0.090297714 0.1071648 0.034667805
000130 6e 50 be bd 7f 41 bc bd fd 85 75 3d 76 bd 2f 3d
       -0.092926845 -0.0919218 0.059942234 0.042905293
000140 68 25 8d bc 8e 7f 14 bc e6 48 3c bd 10 08 fd bd
       -0.01722975 -0.0090636145 -0.04596796 -0.123550534
000150 4b 04 47 bd 92 25 fc 3c 08 e7 b4 3c d8 67 de 3d
       -0.04858808 0.030779634 0.02208282 0.108596504
000160 64 cf 32 3e 98 3c 74 3d 05 ee 12 bd d4 db 63 3d
       0.17461926 0.0596281 -0.035871524 0.055629566
000170 c4 dc cc 3d b7 64 d5 bd f6 c0 10 3e 94 30 9b 3d
       0.10003045 -0.104196005 0.14136109 0.07577625
000180 ba 5e f7 bd d9 d9 65 bd e0 25 2d be a9 3d 1f be
       -0.120786145 -0.05611596 -0.1690898 -0.15550865
000190 79 a2 fd bd 14 1e 9a bb 13 41 c9 bd 3d 38 1a 3d
       -0.12384505 -0.0047032926 -0.09826865 0.03765129
0001a0 ff fd e5 bd cf ef 74 3e 45 9e 0d be bb ba 55 3e
       -0.112300865 0.23919605 -0.13829906 0.20872013
0001b0 0d 92 78 be e9 55 56 be 33 e6 c7 3b 0d 3b 82 bd
       -0.24274464 -0.2093121 0.00610044 -0.06358919
0001c0 24 05 85 bb da 7b c3 bd 5f 44 14 3d 5b 62 4a 3d
       -0.0040594507 -0.09545107 0.036198016 0.049410205
0001d0 67 cc d8 bd 79 c4 9f 3a 68 e1 a2 bd 11 f1 66 be
       -0.10585862 0.0012189291 -0.07953149 -0.22552897
0001e0 e6 58 02 3e 38 53 2e 3e e7 2b 00 3e d0 33 2e 3e
       0.12729225 0.17023933 0.12516747 0.17011952
0001f0 1e 3a 64 3c ad 8c 38 3e e5 cc ff 3d d5 37 07 be
       0.013929872 0.18022414 0.124902524 -0.13204892

lstm.weight_ih_l1 f4 [128, 32]
000000 06 1b 0e 3d 1a 9c b4 3c 62 ed 43 bc 28 93 d4 bd
       0.03469374 0.022047091 -0.011958452 -0.1037963
000010 d5 14 ab 3c 7b 66 c6 3c ff 4c e6 bc d2 67 03 be
       0.020883957 0.024218788 -0.028112886 -0.12832573
000020 55 78 01 3e 01 bd 5a 3c e6 02 2f 3d df 22 ff 3d
       0.1264356 0.013350726 0.042727374 0.12457823
000030 60 99 50 be 2b ea 80 3a 5f 70 35 be 28 8e 98 bd
       -0.20371008 0.0009835412 -0.17718647 -0.07448989
000040 9e f8 4f 3e 97 22 51 3d cf 59 2f bd 00 b6 d6 3c
       0.20309684 0.051058378 -0.042810258 0.026209831
000050 0c 59 89 bc 0b 3c 21 3e 7c 68 aa 3d f6 ce 2d 3e
       -0.016766094 0.15745561 0.0832071 0.1697348
000060 f2 b6 c5 bd 45 3e 3e 3d 5d 18 9d 3d 1d 9a 8d 3c
       -0.09654035 0.046446104 0.076706626 0.017285401
000070 a3 cd 5c bd 91 b8 1a 3e 3d 98 07 bd 6b c0 c1 3a
       -0.053907048 0.15109469 -0.03310417 0.0014782076
000080 7f b4 23 3d 55 d0 4b 3e b9 55 ff bd f9 25 8f bd
       0.039967056 0.19903691 -0.12467522 -0.069896646
000090 c7 92 2d 3e 52 5a 1f bd f1 2f f4 bd eb e4 9a bc
       0.16950522 -0.038904496 -0.119232066 -0.018907985
0000a0 40 28 14 3e 84 d7 01 bd f6 46 94 3d 7d 84 f6 3d
       0.14468479 -0.031699672 0.07240097 0.12036989
0000b0 d2 67 20 be f5 9d 14 3e 25 8e d0 3d c1 d6 82 bd
       -0.15664604 0.14513381 0.10183362 -0.06388617
0000c0 b8 1b a6 3e 19 95 ba 3d cd 56 c6 3c 3e 57 60 3d
       0.32443023 0.09110469 0.024211312 0.0547707
0000d0 31 0a d0 bc c4 3b 2c be 31 2d 5c 3d 1c ce e1 3d
       -0.025395485 -0.16819674 0.053754035 0.1102564
0000e0 4b 92 89 bd 8e 6f 91 3e 5f d4 15 be 48 07 cb 3d
       -0.06717356 0.28405422 -0.14631794 0.09913498
0000f0 6d 8c 6c 3e de 72 8f 3e 5e e3 23 bd 26 84 79 3d
       0.23100443 0.28017324 -0.040011756 0.060917042
000100 cb 48 60 3c 03 11 93 3d 01 c5 1e bd d2 7d 7d bd
       0.01368923 0.07180979 -0.038762096 -0.06188757
000110 34 8c 48 3e d2 1b be bd c5 0e ee bc e7 83 75 bd
       0.19584733 -0.0928265 -0.029059777 -0.059940245
000120 e3 8a f7 3d 98 3a 6b 3d d9 d1 16 3e a9 c6 5b 3d
       0.120870374 0.057428926 0.14728488 0.053656254
000130 95 44 14 3e 22 ab 57 be ca a7 cb 3d aa 47 c1 3d
       0.14479287 -0.21061376 0.099441126 0.09437497
000140 09 ef 73 bd b8 b8 57 3d 9f 05 05 3e b1 f6 71 bd
       -0.059554134 0.052666396 0.12990426 -0.059073154
000150 5e 64 69 3e 85 de 3a bd 7a 0b 46 3e 22 06 f1 3d
       0.22792193 -0.045622367 0.19340315 0.11768748
000160 65 27 0b 3e 64 9b 80 3e 34 b6 68 be 9e 9d 6a bd
       0.13589247 0.25118554 -0.22725755 -0.05727922
000170 aa 0d 1b 3d 7e a3 65 3e 12 65 09 3e 85 69 f2 3d
       0.037854828 0.22425649 0.13417462 0.118365325
000180 4e 5d 44 3d a9 ce c0 3d 58 aa 23 be f8 88 1b be
       0.047940545 0.09414417 -0.1598295 -0.15188968
000190 9a f3 7e 3e 63 30 5b 3d d2 79 62 be a8 61 65 be
       0.24897614 0.053512942 -0.22116783 -0.22400534
0001a0 7a 6e 16 bd 41 b0 5a 3e dd bd b7 3c ee 91 1a 3e
       -0.036726452 0.21356298 0.022429401 0.1509473
0001b0 06 33 1c be b6 03 31 3d 3d 2c dc bc 7e c4 1e 3d
       -0.15253839 0.04321643 -0.026876563 0.03876161
0001c0 4b b6 5c 3e 3c c4 7d bd cb 7e fc bd d1 b2 a6 bd
       0.21553914 -0.06195472 -0.12328871 -0.08139575
0001d0 d0 3f 32 3e fe 84 16 3e 37 57 2e bd 91 55 51 bd
       0.17407155 0.1469917 -0.042563643 -0.051106993
0001e0 f7 80 a3 3d 08 91 46 3d b3 cd 30 be c8 e2 cf 3c
       0.079835825 0.048478156 -0.17265968 0.025376692
0001f0 2e 85 2e 3e 39 06 90 3e 2e 7a 9d 3d 21 bd a2 3d
       0.17042992 0.28129748 0.076893196 0.0794623
000200 8f 7b a6 bc 2d ba 08 3d a8 43 20 be 8f 64 81 bd
       -0.02032259 0.033380676 -0.15650809 -0.06318008
000210 e5 c0 fa 3d 31 c5 f8 bc ab 27 02 be 32 aa 1b 3e
       0.12243823 -0.030367466 -0.12710445 0.15201643
000220 14 ee 32 3d 4c 22 08 3e 2d 60 6f 3d fa e2 93 bc
       0.04368408 0.13294333 0.05844133 -0.018052567
000230 4e 30 cb bc 8c b7 f3 3d bc dc 54 3d ca 25 d3 ba
       -0.024803307 0.11900243 0.05196832 -0.0016109284
000240 b0 13 31 3e 55 ce 20 bd 8f b7 b1 bd 31 0b 09 3e
       0.17292666 -0.039259274 -0.08677589 0.13383175
000250 31 d3 be 3d d9 02 86 bc ce c7 de 3d 20 e4 b6 3d
       0.09317625 -0.01635878 0.108779535 0.0893023
000260 58 7c 6b bd a9 a5 7c 3d f6 e1 2f bd e3 37 d4 bc
       -0.05749163 0.061681423 -0.042940103 -0.025905555
000270 52 e1 73 3d f9 ff 91 3d f0 6a 2a 3e c8 6a cc 3c
       0.059541054 0.07128901 0.16642356 0.024953261
000280 77 2f 54 be 01 fd a9 3e 4f b0 3b be 87 c0 a5 3e
       -0.20721231 0.3320084 -0.18328975 0.3237345
000290 41 c4 5a bd ad 01 4a be 5c 94 8c bc d3 38 a4 3e
       -0.05340982 -0.19727202 -0.017160587 0.32074603
0002a0 f2 93 c4 bd 76 fc 1d be 51 8f 2e be 86 1f 6f be
       -0.09598531 -0.15428337 -0.17046858 -0.23351869
0002b0 29 c4 87 3d 81 a4 d4 3c d2 db c9 3d e6 df 05 3e
       0.066292115 0.025957348 0.098563805 0.13073692
0002c0 59 12 f6 bb 60 c8 74 ba 53 8d 85 3d a4 24 89 bc
       -0.0075095114 -0.00093377195 0.06521096 -0.016741104
0002d0 f9 cb 28 bd e8 43 89 3d 28 e5 80 be 48 a6 40 be
       -0.04121015 0.06702405 -0.25174832 -0.18813431
0002e0 80 db 41 be 10 cb 37 bd c5 6b f9 3d ae 4c 94 bc
       -0.18931389 -0.04487139 0.121787585 -0.01810297
0002f0 7d c9 d6 bd 74 b0 70 bc f4 14 51 be 90 8b 19 be
       -0.104876496 -0.014690507 -0.20418149 -0.14994645
000300 e0 5d 95 3d 16 55 3d 3d 06 a1 88 3c 02 b6 8d 3e
       0.07293296 0.046223722 0.016678344 0.27677923
000310 e5 e4 52 be d5 2c 09 3d 7d a9 66 3e 94 c5 3a 3e
       -0.20595129 0.03349002 0.22525592 0.18239433
000320 6e 49 6b be a2 aa 74 be 01 c0 05 3e 85 84 07 be
       -0.2297723 -0.23893216 0.13061525 -0.13234146
000330 45 df fc 3d 0e 98 24 be 12 df 5d 3e e8 8d c1 3d
       0.12347273 -0.1607363 0.21667126 0.094508946
000340 25 32 78 be 3a f4 0d 3e c7 eb 87 3e c7 ef 91 3d
       -0.24237879 0.13862696 0.2654707 0.07125812
000350 8f b0 2e 3e e7 cc f7 3c 85 59 40 be 21 5d 36 be
       0.1705954 0.030249072 -0.18784149 -0.17808963
000360 5b 26 0f be 3d b5 59 3d 69 05 03 be f9 a7 77 be
       -0.13979475 0.053151358 -0.12795033 -0.2418517
000370 e5 4e 1a be 13 8c a3 3d 24 10 21 be af 85 51 bb
       -0.15069158 0.079857014 -0.15728813 -0.003197055
000380 b6 59 ac bd 7f a1 dc bc 0a ce 97 bd 46 90 0c 3e
       -0.084155485 -0.026932476 -0.07412346 0.13726911
000390 5a 25 7c 3e 64 b9 35 3d be bc 49 be ca de 23 be
       0.24623623 0.044366255 -0.19700906 -0.16002956
0003a0 07 f7 9c bc ea 48 1f 3e 76 40 58 bd 2b e1 b3 bc
       -0.01916076 0.15555158 -0.05279585 -0.021957954
0003b0 24 52 63 3d ca 8f 43 3d 0b 66 7a bd 53 de c4 3d
       0.055498257 0.04774455 -0.061132472 0.096127175
0003c0 31 53 42 3e 87 96 20 3e 56 ba 29 be 47 a4 3f bb
       0.18977048 0.15682422 -0.16574988 -0.0029242204
0003d0 01 7e 09 3b a0 7e 77 bd c8 53 e9 3d 35 7c 1a be
       0.0020979645 -0.060423493 0.11392933 -0.15086444
0003e0 1d 64 04 3c 10 d8 f5 3c ea ac 71 be 3e 5e 83 3e
       0.0080805095 0.030010253 -0.23601118 0.2565784
0003f0 c5 42 8f bc 8e 07 32 3d 07 4c 6d 3e d1 62 d2 3d
       -0.017487893 0.043464236 0.23173533 0.10272754

lstm.weight_hh_l1 f4 [128, 32]
000000 14 4d 57 3d 72 ed 7a bb f3 1d 3b bd 4d 0d 39 be
       0.05256374 -0.00382885 -0.04568286 -0.1807148
000010 fc 82 17 3e 61 30 41 3e 23 69 21 3d b9 a2 1f 3e
       0.1479606 0.18866111 0.039406907 0.15589418
000020 a8 e8 a6 3d e9 28 a9 3d cb 2a b5 3d 66 0f 53 3e
       0.081498444 0.08259756 0.08846053 0.20611343
000030 1b 63 03 3e b6 68 68 3d db 66 2e bd 07 58 ed bd
       0.12830774 0.056740485 -0.04257856 -0.115890555
000040 bd cd aa 3d 27 3f 7a bd 5a 0c ce 3c d6 35 48 3e
       0.08340023 -0.061095383 0.025152374 0.19551787
000050 fe 7e 1c be 66 25 70 bd f6 68 5c be d3 a8 ea 3d
       -0.15282819 -0.058629416 -0.21524414 0.11457982
000060 d2 cd 25 be a2 a9 35 3e f6 3d 29 be 46 cf bc bd
       -0.16191795 0.17740491 -0.16527542 -0.09219222
000070 43 26 79 bd c7 7e 9c 3d f4 fa 0b 3e ca ab ff bd
       -0.060827505 0.07641368 0.1366995 -0.12483938
000080 4a 15 d1 bd 33 e7 e5 bd a9 2a 7d 3b 52 2c e5 3d
       -0.10209139 -0.112257384 0.0038630164 0.11190094
000090 ce a1 03 be ec 16 03 be 5f dd b1 bc 61 29 05 3e
       -0.12854692 -0.12801713 -0.021712003 0.13004066
0000a0 85 dd 5c 3d 5f 09 ec 3d 27 6a e7 3d c5 77 18 3e
       0.053922195 0.11525225 0.11299544 0.14889438
0000b0 13 98 be 3c 33 94 bb 3d c3 7a dd bb 0a f3 2e be
       0.023265874 0.09159126 -0.006759019 -0.170849
0000c0 8e 68 c3 3d db 48 a5 3d 13 74 28 be ca 3e f5 3d
       0.095414266 0.08070537 -0.16450529 0.11974867
0000d0 41 77 42 bd 13 3f 38 3e 5d 66 85 be 30 ca a4 3d
       -0.04747701 0.17992811 -0.2605466 0.08046377
0000e0 f2 7b c6 3d 31 85 1a 3e 71 35 ed 3c 4f b8 8d bd
       0.096916094 0.15089871 0.028956147 -0.0691992
0000f0 b4 3d 17 be 44 e1 22 be e5 22 42 be ef 91 21 3e
       -0.14769632 -0.15906245 -0.18958624 0.15778325
000100 5f 67 09 be 86 11 41 3e 4b 76 a0 bd 3a 80 49 3e
       -0.13418339 0.18854341 -0.078350626 0.19677821
000110 8e d0 6c 3c bb c0 05 be 4a 84 67 be 6a 40 79 bd
       0.01445402 -0.13061802 -0.22609058 -0.060852446
000120 8e e1 09 3e c6 a1 4b bd b6 08 0b 3e 9b cb d1 bd
       0.13464949 -0.049714826 0.13577542 -0.10243913
000130 c6 12 17 bd 57 ae a4 bd 4d 45 8b 3c 79 3d 3c bd
       -0.036883138 -0.08041065 0.017000819 -0.045957062
000140 e6 09 e8 bd fb cc 60 3e 67 b0 2f 3d 9c d4 09 be
       -0.11330013 0.21953194 0.04289284 -0.1346001
000150 61 0d b5 bd ec 9e d1 bd 1b 89 c6 bd ee c2 0a 3e
       -0.088404424 -0.1023539 -0.096941195 0.13550922
000160 b1 c8 44 3e ad 5d bc 3d 0f 03 1d 3e e7 b6 55 3e
       0.19217183 0.09197555 0.15333198 0.20870553
000170 29 7f f6 3c f3 1c 5a 3c 5b 4d 20 3e 67 dc 58 3e
       0.030089932 0.013312566 0.15654509 0.21177827
000180 17 40 85 3d ad 2c e8 3d a3 9a 50 be fc 48 88 bd
       0.06506365 0.11336646 -0.20371489 -0.06654546
000190 1a 62 a0 bd df 89 fa 3d a7 75 61 3d d2 e6 0d 3e
       -0.078312114 0.12233328 0.055043843 0.13857582
0001a0 3f 8b 1d be 82 54 1f be 3b e4 21 3c a8 11 7f bd
       -0.1538515 -0.15559581 0.009881075 -0.062272698
0001b0 19 24 32 3d b5 9b be bd 86 d2 8e bc 7e ce 08 be
       0.043491457 -0.093070425 -0.01743437 -0.1336002
0001c0 8a 84 43 bd 5e 48 2f be 76 9a 30 3e b8 1d d5 bc
       -0.04773382 -0.1711745 0.17246422 -0.026015148
0001d0 93 50 22 be 6a 31 f9 3d 7b 69 81 be 54 0a 7a 3c
       -0.15851049 0.12167628 -0.25275788 0.0152612515
0001e0 31 c1 c6 bd 81 12 b4 bd 72 ff 46 be e5 c5 a6 3d
       -0.09704817 -0.08792592 -0.19433382 0.08143214
0001f0 03 43 a4 bb f3 ff c8 3d 1b b8 b5 3d e9 c4 0d 3e
       -0.005012871 0.098144434 0.08873006 0.13844647
000200 6d 44 b0 bd 58 c4 e6 bd 53 f9 f6 bd 3a 4a 24 be
       -0.08606801 -0.11267918 -0.120592736 -0.1604394
000210 1b 0a 09 3e 04 4e b9 3d 60 90 87 bd 06 69 0c 3e
       0.13382761 0.090480834 -0.06619334 0.13711938
000220 89 0f e4 bd 9b ed 5e be 3e e1 ab 3d 74 1d ac bd
       -0.111357756 -0.21770327 0.08392571 -0.08404055
000230 fd 3f 1b be 81 9a 35 bc c4 ba 20 be 5f 71 36 bc
       -0.15161128 -0.0110842 -0.15696245 -0.011135428
000240 ae 7e 0e 3e 58 99 1a 3e 15 28 64 bd f3 81 84 bd
       0.13915512 0.15097558 -0.055702288 -0.06470098
000250 25 2a 4d 3e c9 86 1b be 24 43 0e be 2e 9c 10 3d
       0.20035608 -0.15188135 -0.138928 0.035305195
000260 9e 1b 25 be 84 43 fa bd 88 a0 0e bc 35 b5 70 3a
       -0.16123816 -0.12219909 -0.008705266 0.00091822754
000270 25 1c c7 bd 78 14 ec bc b4 5c 4b 3d 01 a0 35 3e
       -0.09722165 -0.028818354 0.049648955 0.17736818
000280 fb b6 9f be b8 05 21 3e 74 ff d2 3d a2 8f 95 3e
       -0.3119429 0.15724838 0.1030263 0.29211146
000290 25 b9 21 3d e3 f6 be bd 71 3a 18 3d 9c d0 91 be
       0.03948321 -0.09324434 0.03716511 -0.2847947
0002a0 ff a2 01 3d 26 22 7f be c8 3f 0f bd 7c 47 5e be
       0.031649586 -0.2491537 -0.034972936 -0.21706957
0002b0 5f e2 d3 3d cb 38 7b 3e 8e f5 1d be ba c4 7a bd
       0.10345911 0.24533384 -0.15425703 -0.06122277
0002c0 30 0b 5f 3e 24 a6 06 3e b7 4f 55 be 8c 56 a5 bd
       0.21781611 0.13149315 -0.2083119 -0.08073148
0002d0 b4 2a 1b bd a7 d9 f2 bd e2 62 a5 bd 56 2d 1e bb
       -0.03788252 -0.1185792 -0.08075501 -0.002413591
0002e0 d0 8c 4c 3e 81 bb 43 bc bf e5 aa bc 18 96 d6 3d
       0.1997559 -0.01194656 -0.020861505 0.10477847
0002f0 fc bd 72 3e 30 2c 54 be 33 d4 28 be 95 14 8f 3b
       0.23705286 -0.20719981 -0.16487198 0.0043664672
000300 db 2c 14 be 4d a4 21 3e 35 a6 f1 3d 89 f3 db 3d
       -0.14470236 0.15785332 0.117992796 0.1073981
000310 fd 00 92 3e 23 ef d4 3d 75 42 0b bd e2 bc 8e 3c
       0.2851638 0.10397174 -0.033998925 0.01742405
000320 95 64 81 be 3c 75 99 3d 95 25 7f 3d 2d 49 32 be
       -0.2527205 0.07493064 0.0622917 -0.17410727
000330 20 70 54 3e ca db f2 3d f7 4a 33 3e d2 04 b5 3c
       0.20745897 0.11858328 0.17509066 0.022097025
000340 15 7c be bc c4 cd 14 3e 0f 5b 80 be 01 d4 45 bd
       -0.023252526 0.14531618 -0.25069472 -0.048297886
000350 a2 f6 44 3e 50 e6 ea bd f1 5e a3 bd ff a7 bc 3b
       0.19234708 -0.1146971 -0.07977093 0.0057573314
000360 51 30 37 3e 4d 59 0c be e1 bd 63 be b2 8b 45 3e
       0.17889525 -0.1370594 -0.22240402 0.19291571
000370 ff 5b 16 bb 1e 18 8a bd e7 9b 98 bc a7 e9 b2 bb
       -0.0022943018 -0.06742881 -0.018629028 -0.0054599824
000380 2c bb 09 bd 5e 27 4f be b8 7d 3c 3d 15 fd 47 bd
       -0.033625767 -0.20229861 0.046018332 -0.048825342
000390 9c a8 cd bd e2 c7 b4 bd 77 82 a4 bc 65 d0 f6 bd
       -0.10041925 -0.08827187 -0.020081742 -0.12051467
0003a0 df 03 2c 3d 2e 4a f8 bd 01 ec 62 bb ab 90 3b bd
       0.04199588 -0.12123524 -0.0034625533 -0.045792263
0003b0 0a f5 82 bd db 2e aa bd b7 62 45 be 9c a4 88 bd
       -0.06394394 -0.08309718 -0.19275938 -0.06672022
0003c0 51 1f ec 3d 7e 22 1f 3d 22 d1 08 3e bf c9 c6 3c
       0.11529411 0.038851254 0.13361028 0.024266122
0003d0 94 4d 86 3c be 7b fb 3d e2 bc 41 3d ee 4a 85 3d
       0.016394414 0.12279461 0.047299273 0.06508432
0003e0 81 01 37 be 88 4d ce bc 73 8b 12 be 8c ca b0 bc
       -0.17871667 -0.025183454 -0.14311008 -0.021580957
0003f0 d1 4c fb 3c fc 19 80 3d c7 32 2e bc fd e6 b0 bd
       0.030676277 0.06254956 -0.010632223 -0.086378075

lstm.bias_ih_l1 f4 [128]
000000 5f 7a 0b 3e 20 9e e8 3d 11 cd 26 be 35 3a c4 3d
       0.136209 0.11358285 -0.16289164 0.095814146
000010 48 f6 28 be 71 fc 84 bd 07 92 f8 3b 7b f3 9d 3c
       -0.16500199 -0.06493462 0.007585767 0.01928114
000020 17 3e b3 3c 1b b5 7e bd 08 49 fa bd b7 fc fd bd
       0.021880193 -0.062184434 -0.12220961 -0.12401717
000030 d7 7d 51 3d 29 bd d3 3d 93 76 23 be 22 06 b8 bc
       0.0511454 0.10338814 -0.15963201 -0.022463862
000040 83 42 27 3e d3 5a a3 bc 63 84 a2 bd d0 d4 13 3e
       0.16333966 -0.01994077 -0.07935407 0.1443665
000050 3b b9 b1 bd ea 4c 34 bc e9 ed bd 3d ec 42 1b bc
       -0.08677908 -0.011004666 0.092738934 -0.009476405
000060 70 0d 6c 3d 1f 5f ca bd 58 87 13 3d b5 d4 b0 3d
       0.057630002 -0.09881424 0.036017746 0.08634321
000070 7c b9 b2 bc 14 b6 78 be d9 b2 ce 3d d2 cc e5 bd
       -0.021816961 -0.24288207 0.10092706 -0.11220707
000080 c0 58 19 3d fa 50 4b 3d ee 09 a9 bd a9 f4 c8 bd
       0.037438154 0.049637772 -0.08253847 -0.0981229
000090 37 90 3a be f4 a3 f0 3c 20 74 d9 3c 6a 77 12 bb
       -0.18219076 0.029375054 0.02654463 -0.0022349008
0000a0 fa 19 9a bd 9c bd a9 bd bd 5e 7f be 1c 66 a8 3d
       -0.07524486 -0.08288118 -0.24938484 0.08222601
0000b0 6c db 1a 3c 47 21 7d bd 99 34 c7 bd 4d bf b2 3d
       0.009451728 -0.061799314 -0.09726829 0.08727894
0000c0 7b fa 76 bd 70 f0 31 3e b6 b8 47 3d ca 22 30 bd
       -0.06029747 0.17376876 0.04876014 -0.043001927
0000d0 11 01 47 be 48 04 4f 3d 39 1b 1b be 8c 63 3d 3d
       -0.19434 0.050541192 -0.15147103 0.046237513
0000e0 63 d5 2a 3d 74 8d a8 bd e6 9f 81 3d 74 2f fa bd
       0.041707408 -0.08230105 0.06329326 -0.12216082
0000f0 eb 14 56 bd 36 42 3c 3d b0 3e 31 be 2d c2 27 3e
       -0.052266043 0.04596158 -0.1730907 0.16382666
000100 7e a2 d2 3d 90 af 6a be eb 2b ce 3c 05 7f 8b bd
       0.10284899 -0.22918534 0.025167426 -0.068113364
000110 5c 9b 03 be cc 03 0d bd 8d 0b ce bd 98 92 e7 3d
       -0.12852234 -0.03442745 -0.10060797 0.113072574
000120 03 65 a9 bd 07 bf 85 3d 8d 88 75 3d ea a1 12 3e
       -0.082712196 0.06530576 0.059944678 0.14319578
000130 87 4f 46 bd 55 fa 79 bc 9e 55 61 3c 5b 27 35 3e
       -0.048415687 -0.015257438 0.013753323 0.17690794
000140 c8 18 8f 3d 32 61 1b be c0 64 37 3e 7c 41 54 bd
       0.069871485 -0.15173796 0.17909527 -0.051820263
000150 35 5d 25 3d 5e 6b 63 3e 01 2a 4e 3d c3 0b 46 be
       0.040372092 0.22208926 0.050333027 -0.19340424
000160 08 b2 88 bd a0 92 c3 bc 1b db 9c 3b e3 a9 fd 3b
       -0.06674582 -0.023873627 0.0047868616 0.0077411993
000170 08 63 5b bd 3b f6 4f 3d 38 ee 42 bd b8 5f 84 bd
       -0.05356124 0.050771933 -0.047590464 -0.064635694
000180 4c 4b 02 3e 58 e3 6d bc 0f 5b 00 be a4 e4 8a bd
       0.12724036 -0.014519535 -0.12534736 -0.06781891
000190 a8 4c c9 bd 61 82 04 3d c4 03 87 be d6 33 eb bd
       -0.09829074 0.0323509 -0.2637006 -0.11484496
0001a0 27 29 14 3b 4c d9 d2 bd 30 bc dc bd 1f cb 3a bd
       0.0022607537 -0.10295352 -0.107780814 -0.045603868
0001b0 6a 34 fb bc 51 db 3f 3d e6 54 83 bc 42 89 21 3e
       -0.030664641 0.046840016 -0.016031694 0.15775016
0001c0 1b c3 1e 3e 76 fd 47 3c 6d 8d 79 bd a8 72 8b bd
       0.15504114 0.012206426 -0.06092589 -0.06808978
0001d0 df b1 99 bb 5a d3 32 3e 8e 0d 79 3d 7d 53 8f 3d
       -0.0046903933 0.17463437 0.060803942 0.06998346
0001e0 df 23 15 3e 1c ce 43 be 9a 5d c0 bd 1d 05 05 3e
       0.14564465 -0.19121593 -0.09392853 0.12990232
0001f0 3c 09 e3 3c c4 37 25 be cc 47 4f be 52 d6 0a bd
       0.027714364 -0.16134554 -0.20242232 -0.033895798

lstm.bias_hh_l1 f4 [128]
000000 48 d4 0f 3d 94 0d 58 3e d2 44 1c 3d 03 0e c5 3d
       0.035114557 0.2109893 0.03815157 0.09621813
000010 eb 89 27 3e 25 bf 93 be 25 49 03 bd 07 33 31 bc
       0.16361205 -0.2885677 -0.032052178 -0.0108153885
000020 67 f9 d9 3d 3b f5 99 bd 5a f0 4b be 66 31 67 bc
       0.10643273 -0.07517477 -0.19915906 -0.014110899
000030 02 08 e8 3d ec 48 fa bd 7a b5 a6 bd 73 3a 29 be
       0.11329652 -0.1222094 -0.08140083 -0.16526203
000040 d1 ba 27 bb 43 d5 01 be ed 2d 8b bd e0 c9 6c 3d
       -0.002559353 -0.12679009 -0.06795869 0.05780971
000050 e5 5c c3 bd 4e 0d 14 bd 51 d8 a4 3d 28 38 4d bd
       -0.095392026 -0.0361455 0.080490716 -0.050102383
000060 da 53 1c 3e 7b 80 e2 3d a2 fe 18 3e ad b1 a4 bd
       0.15266362 0.11059662 0.14940885 -0.080417015
000070 83 17 e6 3c 01 38 c3 3d 0c 93 fa bd c8 46 24 bb
       0.028087383 0.09532166 -0.12235078 -0.0025066603
000080 16 24 0b bd 40 bd 35 3e 2b 2d ad 3c e4 cd 93 bd
       -0.03396996 0.17747974 0.021139702 -0.07217005
000090 83 ec ec bb 2e a1 10 bd ac 3d 26 be 07 46 4b 3e
       -0.007230343 -0.035309963 -0.16234463 0.19850932
0000a0 89 2d 0d be e2 3d 4d be 89 ad 55 bc c4 2b 38 be
       -0.13786902 -0.20043138 -0.013041862 -0.17985445
0000b0 15 37 05 be 45 a1 26 bc 08 15 77 be 01 68 44 be
       -0.13009293 -0.010170286 -0.24129117 -0.191803
0000c0 da 38 22 be 97 ee ba 3d b0 54 2f bd 7b 38 17 3e
       -0.15842 0.09127539 -0.042805374 0.1476764
0000d0 c1 54 ca 3d 92 7a 99 bd 73 ae 64 3d 67 56 95 bd
       0.09879447 -0.074940816 0.05583043 -0.072918706
0000e0 a0 52 3f 3c f0 3b 6e bd e8 20 fa 3d 05 9f 11 3c
       0.011677414 -0.05816263 0.122133076 0.008888011
0000f0 33 85 0b be ff e6 dd bd bf 09 8e bd bd 23 c6 bc
       -0.1362503 -0.10835075 -0.06935453 -0.024186963
000100 ae 06 62 3e b7 eb 67 be 28 e4 36 3d d2 a3 4e be
       0.2207286 -0.22648512 0.04465118 -0.2017968
000110 05 a0 8f 3c 6c ca cf 3d 4e 85 b4 3c 05 0a 0c bc
       0.017532358 0.10146031 0.02203622 -0.008547311
000120 9f 9e 23 3e d6 2b d2 3d 3d 2e 53 3d d6 ea 40 bd
       0.15978478 0.10262267 0.051557768 -0.047098957
000130 48 ce ab bd 77 43 32 be da 26 14 3c d2 d7 68 bd
       -0.083889544 -0.17408548 0.009042466 -0.056846447
000140 a0 6d 07 be 56 ca 0a be e6 dc 0b 3e ca 23 32 3e
       -0.13225412 -0.13553748 0.13658485 0.17396465
000150 9d 86 e7 38 45 ee 89 3d 01 4b df bb 3c c7 52 be
       0.00011040012 0.067348994 -0.006814361 -0.20583814
000160 d7 d6 ac 3c ba bd 00 3e 10 52 06 3d 4b a1 fe bd
       0.021098537 0.12572375 0.032793105 -0.12433108
000170 c4 37 d1 bd 94 2e 19 3d 39 06 c2 3c ce e4 36 bd
       -0.102157146 0.037397936 0.023684608 -0.0446518
000180 72 c9 85 bd 61 86 84 3d 26 9b 07 3e 6c 88 08 3e
       -0.06532563 0.06470943 0.13242778 0.13333291
000190 34 7d 38 bd 30 20 d5 bb ea ab 4a 3d fd e5 4f bd
       -0.045041278 -0.006504081 0.049480356 -0.050756443
0001a0 d0 9b dc bc bb be 09 3e e6 54 5d bd 3d ed 48 3d
       -0.026929766 0.13451664 -0.054036044 0.049054373
0001b0 92 5b d7 bd 75 e2 fa 3c 85 ad b1 3d aa 47 24 be
       -0.105155125 0.030625561 0.08675674 -0.16042963
0001c0 77 28 1d 3d f1 0c 59 bd 46 07 2e bd 03 62 10 3e
       0.03836867 -0.052990858 -0.042487405 0.14099889
0001d0 ad b7 71 bd 43 4c 03 be 1a 0b 8a 3d 57 f8 b4 3d
       -0.059013058 -0.1282206 0.06740399 0.088364296
0001e0 68 4e 84 bd d2 dd 16 bd ae 7e 91 bb 8b b2 61 bd
       -0.06460267 -0.036832638 -0.00444015 -0.055101912
0001f0 d4 f3 f5 3d 14 58 cd 3d ad a5 41 3d 1e 01 13 3e
       0.12009397 0.10026565 0.04727714 0.14355895

fc.weight f4 [1, 32]
000000 7e 2c 1a be 65 fe d0 3d 24 bd 10 be 19 c0 db 3d
       -0.15056035 0.10204772 -0.14134651 0.10729999
000010 9e 4b 14 3d 21 0b 8a 3c 51 2d 86 3c 2f 8d 72 be
       0.036204927 0.01685101 0.01637903 -0.2368667
000020 01 e2 2e be cc 26 21 be e5 8e e4 3c 40 fe 65 3d
       -0.17078401 -0.15737456 0.027900169 0.056150675
000030 6f 55 7c 3d 51 e8 09 3e 9a 5e ae bd d9 85 24 be
       0.061604913 0.13467528 -0.085141376 -0.16066684
000040 7c 94 c2 3d 55 15 91 3d ab 15 01 be ca 4a db bd
       0.095009774 0.07084147 -0.12605922 -0.10707624
000050 d8 a1 73 3d a3 38 89 bd 5a d6 7e bd 4d 83 8c 3d
       0.059480518 -0.06700256 -0.06221614 0.06860981
000060 6c 69 c3 3d 0e 14 26 bb 0f c9 fd bd 94 6c 46 3d
       0.09541592 -0.0025341543 -0.123918645 0.048443392
000070 a2 1b 3b 3d 41 94 03 bd fe 9a ff bd 87 05 a2 3d
       0.04568065 -0.032123808 -0.12480734 0.079112105
