backend/stocks/price/pt_models/AMX.pt (torch, 54423 bytes, 9 tensors)

lstm.weight_ih_l0 f4 [128, 1]
0	0x3e025e41	0.12731268
1	0xbe15b0d8	-0.14618242
2	0x3e8673af	0.26260135
3	0xbcf8c956	-0.030369442
4	0x3d22924e	0.03969031
5	0xbe381b20	-0.17979097
6	0x3defddc5	0.11712221
7	0xbcec52d3	-0.028848087
8	0xbc9cd3c4	-0.019143946
9	0x3e0fe328	0.14051497
10	0x3da7064b	0.08155497
11	0xbddaba6b	-0.10680088
12	0x3e34aef0	0.17644858
13	0xbdeb1a9d	-0.114796855
14	0xbd269e78	-0.04067847
15	0x3e1a30b4	0.15057641
16	0xbe29da57	-0.16587196
17	0xbd73a8f8	-0.059487313
18	0xbdda9b3d	-0.106741406
19	0xbd886c23	-0.066612504
20	0x3e4f159a	0.20223084
21	0x3d498aa7	0.049204495
22	0xbe7254fc	-0.23665231
23	0xbd66405c	-0.05621372
24	0xbc8ab341	-0.016931178
25	0x3c547455	0.012967189
26	0x3e8775c2	0.2645703
27	0x3e599c77	0.21251093
28	0xbe888666	-0.26665038
29	0x3e86bb7a	0.26314908
30	0x3deec6ac	0.116589874
31	0x3d9af6d3	0.07566609
32	0xbe00059a	-0.12502137
33	0x3cedf21b	0.029046109
34	0x3e3e4527	0.18581067
35	0x3ba5afd9	0.005056363
36	0x3d4e26f8	0.050330132
37	0xbd38391b	-0.044976335
38	0xbc0df650	-0.0086646825
39	0xbc4ced6f	-0.01250778
40	0xbddca7c9	-0.1077419
41	0xbd8e7743	-0.06956341
42	0xbd811a17	-0.06303804
43	0x3b2855ac	0.002568583
44	0xbc830b21	-0.015996518
45	0x3d845a05	0.06462482
46	0xbe6bff40	-0.23046589
47	0x3d9d4523	0.076792024
48	0xbdb2f7f5	-0.087387
49	0xbc9024c4	-0.017595656
50	0xbe6a8c09	-0.22904982
51	0xbe85e768	-0.2615311
52	0x3eb9c93e	0.36286348
53	0xbe3d3faa	-0.18481317
54	0xbdd91cc6	-0.10601191
55	0xbd9f8a2b	-0.07790025
56	0x3e37bd9f	0.17943428
57	0x3e1216e2	0.14266542
58	0x3e9f3c21	0.31100562
59	0x3e56242f	0.2091224
60	0xbc8c58df	-0.01713222
61	0x3cdcbe8b	0.026946327
62	0x3e597991	0.2123778
63	0x3e74d26e	0.23908398
64	0x3e3acaf2	0.1824148
65	0xbe15f674	-0.14644796
66	0x3e322cf8	0.17399967
67	0xbe3b6572	-0.18300417
68	0x3d32a406	0.043613456
69	0x3e769e30	0.24083781
70	0xbe665899	-0.22494735
71	0xbccfd4a5	-0.025369952
72	0x3e3efc4e	0.18650934
73	0x3e5fd405	0.21858223
74	0xbd878e36	-0.066189215
75	0x3e7b6df6	0.24553666
76	0x3e39792b	0.18112628
77	0xbe26dec7	-0.1629592
78	0xbe2518d5	-0.16122754
79	0xbda9c67f	-0.08289813
80	0x3e1c83ff	0.15284728
81	0x3c36cb72	0.011156904
82	0xbe5cfa68	-0.21579897
83	0xbddb579f	-0.10710072
84	0xbe3df4ed	-0.18550463
85	0x3cd2ba82	0.0257237
86	0x3e7e82c8	0.24854577
87	0x3e1d66d1	0.15371253
88	0x3e2b09e0	0.16702986
89	0x3dc762b0	0.0973562
90	0xbe07e37d	-0.13270374
91	0x3e7d114e	0.24713632
92	0x3e5f4209	0.21802534
93	0xbdcf24b9	-0.10114426
94	0x3e580cf8	0.21098697
95	0x3e67a6da	0.22622243
96	0xbad90a6c	-0.0016558892
97	0xbd8db9d7	-0.06920212
98	0x3d17c888	0.037056476
99	0xbc21a47e	-0.009865878
100	0x3d5ee0e3	0.054413687
101	0xbe0d110c	-0.13776034
102	0x3cde0108	0.027100101
103	0xbdb20ed1	-0.08694232
104	0xbdfc84d3	-0.12330022
105	0x3e08fd92	0.1337798
106	0xbdc9f064	-0.09860304
107	0xbe54eb15	-0.20792802
108	0x3e3f3433	0.18672256
109	0xbd7557ef	-0.059898313
110	0xbdb2dfef	-0.08734118
111	0x3e945ac7	0.28975508
112	0xbc669700	-0.014074087
113	0x3da9a776	0.08283894
114	0xbe6134b0	-0.21992755
115	0xbd2c85c7	-0.042119768
116	0x3ed47ef8	0.4150312
117	0x3cddfa42	0.027096871
118	0xbe4c32c4	-0.1994124
119	0x3df2cfa9	0.11856014
120	0xbc359b7d	-0.011084435
121	0x3dccf48f	0.10007583
122	0x3eb7ab9c	0.35873115
123	0x3dce3ee3	0.100705884
124	0xbe262109	-0.1622354
125	0x3e8a4bda	0.27010995
126	0x3d0eddf7	0.03487965
127	0x3e5f5ce0	0.21812773

lstm.weight_hh_l0 f4 [128, 32]
0	0xbe19f79a	-0.15035859
1	0xbdbe9594	-0.093058735
2	0x3df673ce	0.12033807
3	0x3dd8b7c1	0.10581923
4	0xbd85608a	-0.06512554
5	0x3e104679	0.14089383
6	0xbd5368b9	-0.051613543
7	0x3dd48bf3	0.10378256
8	0x3e29d9a1	0.16586925
9	0xbd87dee1	-0.06634308
10	0x3e0cfa54	0.13767368
11	0xbdbe887a	-0.093033746
12	0xbc5d97bc	-0.013524946
13	0xbe0934a3	-0.13398986
14	0xbe30ebb6	-0.17277417
15	0x3e202030	0.15637279
16	0x3e1297b0	0.14315677
17	0xbdaa631c	-0.08319685
18	0xbda4d754	-0.08048883
19	0xbdb2a85b	-0.087235175
20	0x3d92f368	0.07175332
21	0x3d953d94	0.07287136
22	0xbbc31c82	-0.005954326
23	0x3e35357d	0.17696185
24	0xbdc36099	-0.09539909
25	0x3d95b871	0.0731057
26	0x3e1cf9a7	0.1532961
27	0x3d653c37	0.05596563
28	0x3ca93890	0.020656854
29	0x3e110519	0.14162101
30	0x3dcb678f	0.099318616
31	0xbe420751	-0.18948103
32	0x3de425a7	0.11139994
33	0x3c9e0b2e	0.01929244
34	0x3e19e5a8	0.15029013
35	0x3da053d7	0.07828491
36	0x3c2e0479	0.010621184
37	0xbd20ad34	-0.03922768
38	0x3df11724	0.11771992
39	0x3d98c4dc	0.07459423
40	0x3df8deca	0.12151869
41	0x3c1d17a7	0.009588159
42	0xbd867c8d	-0.06566725
43	0x3b2a47f2	0.0025982824
44	0x3dfb66ad	0.12275443
45	0xbd906f7a	-0.070525125
46	0x3d572e97	0.052534666
47	0xbe1fed47	-0.15617858
48	0xbdd2a123	-0.10284641
49	0xbe25089b	-0.16116564
50	0xbd7fddb1	-0.06246728
51	0x3db11957	0.08647411
52	0xbe393f22	-0.1809049
53	0x3cfb8f53	0.03070799
54	0xbd2b61e8	-0.041841418
55	0xbda22843	-0.079178356
56	0xbe0a193d	-0.1348619
57	0x3c255ccf	0.010092928
58	0xbe40148a	-0.18757835
59	0xbd9dd1d8	-0.0770604
60	0x3df17759	0.11790342
61	0xbd8605d6	-0.06544082
62	0xbe5a72c1	-0.21332838
63	0x3d9eadf3	0.07748022
64	0xbd66fbde	-0.056392543
65	0x3d9492ab	0.07254537
66	0xbdf90269	-0.12158663
67	0x3b86ae1a	0.00411011
68	0xbda8053d	-0.08204124
69	0xbcc8a0c9	-0.02449073
70	0xbdf21678	-0.11820692
71	0xbc6c890a	-0.0144369695
72	0xbe4d29a8	-0.20035422
73	0x3c069dc7	0.008216328
74	0xbd9f4396	-0.07776563
75	0xbcd9fc42	-0.026609544
76	0xbd7c7883	-0.061638366
77	0x3e1c02c5	0.15235431
78	0x3e4bc2a2	0.19898465
79	0xbd695033	-0.05696125
80	0xbdadb68b	-0.08482083
81	0x3db6dc1f	0.089287035
82	0xbe0e68bd	-0.13907142
83	0x3e3c8c37	0.18412863
84	0x3dda67a1	0.10664297
85	0x3c8d0db9	0.017218458
86	0xbd920c76	-0.07131283
87	0xbdb673eb	-0.08908828
88	0x3d8287cd	0.06373558
89	0xbe4117bc	-0.1885671
90	0xbcc12578	-0.023577437
91	0x3e2671bb	0.16254322
92	0xbe14fdf9	-0.14550008
93	0xbc8bebb6	-0.01708017
94	0x3c9342e3	0.01797623
95	0x3bb30e5a	0.0054643573
96	0x3e0207f8	0.12698352
97	0xbe130bad	-0.14359923
98	0x3d84541b	0.06461354
99	0x3d816044	0.06317189
100	0x3e0bda50	0.13657498
101	0xbda03f76	-0.07824604
102	0x3de85bfe	0.11345671
103	0xbc8e4c95	-0.017370502
104	0xbdd34834	-0.10316506
105	0xbdfa70e3	-0.12228563
106	0xbde20ba1	-0.11037374
107	0xbe0bd31f	-0.13654755
108	0x3e110f72	0.14166048
109	0xbdeb1d06	-0.11480145
110	0x3e04c318	0.12965047
111	0xbc8fa95d	-0.017536813
112	0x3cb683e5	0.02227969
113	0xbdc60454	-0.09668794
114	0xbe231fdb	-0.1593012
115	0x3d8b29eb	0.067951046
116	0x3d3a4ce1	0.045483474
117	0xbe1bd46a	-0.15217748
118	0xbe04ffeb	-0.1298825
119	0x3d9d8501	0.07691384
120	0x3e20eb2a	0.15714708
121	0x3db5d1a8	0.088778794
122	0xbcaefee9	-0.021361785
123	0xbe3ce83c	-0.18447965
124	0xbe3041d0	-0.17212605
125	0x3e43b469	0.1911179
126	0x3d8a7cc1	0.06762076
127	0xbd36c0fd	-0.04461764
128	0x3afd7c2d	0.0019339375
129	0xbb91357e	-0.0044314256
130	0xbe165db2	-0.1468418
131	0xbc655d5c	-0.013999309
132	0xbcf5d19f	-0.030007182
133	0xbd7e6cd8	-0.06211552
134	0x3dcb30fd	0.09921453
135	0x3d3b5a30	0.045740306
136	0xbdcaea50	-0.09907973
137	0x3e0c84d3	0.13722543
138	0xbe0b1209	-0.13581099
139	0x3db572e4	0.08859804
140	0xbb920fa9	-0.0044574332
141	0x3caa8c93	0.020818984
142	0xbe108d34	-0.14116365
143	0x3db56aca	0.08858259
144	0x3e3517aa	0.17684808
145	0xbd77f97f	-0.060540672
146	0x3df7baa5	0.120961465
147	0x3cf0ab8f	0.02937868
148	0x3e5a91b5	0.21344645
149	0x3d453dfc	0.048154816
150	0xbb8a0216	-0.0042116744
151	0x3c5503fb	0.013001437
152	0xbc0ab821	-0.008466751
153	0x3ca59697	0.020213408
154	0xb90614bb	-0.00012786959
155	0xbe587e5f	-0.21141957
156	0xbde573b9	-0.11203713
157	0xbd149165	-0.03627147
158	0xbb8d336e	-0.0043091094
159	0x3c5e3fcd	0.013565016
160	0x3dbea823	0.09309413
161	0x3e33403a	0.17504969
162	0x3ea7b103	0.32752237
163	0x3cca486b	0.024692735
164	0xbdf8381c	-0.12120077
165	0xbdd34153	-0.10315194
166	0xbe15d3c6	-0.14631566
167	0xbddb28b7	-0.10701125
168	0x3e12dabe	0.14341256
169	0xbe0b2fcb	-0.1359245
170	0xbe1fc6ed	-0.15603228
171	0x3e0f7c87	0.14012347
172	0x3dbe8a12	0.093036786
173	0x3e42c23c	0.19019407
174	0xbd4b6efa	-0.049666382
175	0xbe76359b	-0.24043886
176	0xbdd71dec	-0.10503754
177	0xbdb68bbe	-0.089133725
178	0xbdd2a5c5	-0.10285524
179	0xbe0ecb61	-0.1394477
180	0xbe1c894a	-0.15286747
181	0x3ad2d621	0.0016085544
182	0xbd98a550	-0.07453406
183	0xbd8cbb10	-0.06871617
184	0x3dd7869b	0.10523721
185	0x3d929967	0.071581654
186	0xbe1169cc	-0.14200515
187	0x3e3e2c90	0.18571687
188	0x3d4c6817	0.049903955
189	0xbe09b79e	-0.1344895
190	0x3e64e0c8	0.22351372
191	0x3e0d5d0a	0.13805023
192	0xbd695cee	-0.05697339
193	0xbe004269	-0.12525333
194	0x3da35326	0.07974844
195	0x3da5534a	0.08072527
196	0x3d931777	0.0718221
197	0x3d9f20ec	0.07769951
198	0x3c6f55f0	0.014607891
199	0x3dfe7396	0.1242439
200	0x3da82a53	0.08211198
201	0xbde6f06d	-0.11276326
202	0xbdc6626c	-0.09686741
203	0x3bf1cee2	0.0073793987
204	0xbbf4ab04	-0.0074666757
205	0x3de05818	0.109543025
206	0xbcedcfc2	-0.02902973
207	0x3d86fa63	0.06590726
208	0x3e1e5e64	0.15465695
209	0x3cfd3922	0.030911032
210	0x3e097428	0.13423216
211	0xbdc7a22c	-0.09747729
212	0xbe38c18b	-0.18042581
213	0x3d8c4e55	0.06850878
214	0x3dfa7d49	0.122309275
215	0x3e2fac78	0.17155635
216	0xbdcd1f3f	-0.10015725
217	0xbda41f6a	-0.08013804
218	0xbc95ecd8	-0.018301412
219	0x3dfde980	0.12398052
220	0xbe0b3476	-0.13594231
221	0x3cadc92b	0.021214088
222	0x3e1454a0	0.14485407
223	0xbdb63061	-0.08895946
224	0x3e8a6e6c	0.2703737
225	0xbc236413	-0.00997259
226	0xbe1681f3	-0.14698009
227	0xbe8601c2	-0.26173216
228	0xbe02f7c9	-0.12789835
229	0x3dd6ea30	0.104938865
230	0xbda8d7f0	-0.08244312
231	0xbe7d1251	-0.24714018
232	0xbd27bad8	-0.040949672
233	0x3d05706a	0.03257791
234	0x3ce2a3c9	0.02766599
235	0x3df0824d	0.11743603
236	0xbdfbe881	-0.12300206
237	0x3cbf41db	0.023346832
238	0xbddcfab9	-0.10790009
239	0x3e087a1b	0.1332783
240	0x3b3930d2	0.002825786
241	0x3e6a6f0b	0.22893922
242	0xbe28f485	-0.16499527
243	0xbe75f227	-0.24018155
244	0x3dfc047c	0.12305543
245	0xbe165ed0	-0.14684606
246	0xbd81343e	-0.063087925
247	0x3d415105	0.047196407
248	0xbe7a4be4	-0.24443012
249	0xbd8b329e	-0.06796764
250	0x3e1b99ac	0.1519534
251	0x3d522075	0.051300485
252	0x3dd99560	0.10624194
253	0x3e7002af	0.23438524
254	0xbd684ee6	-0.05671587
255	0xbe1a5ecc	-0.15075225

lstm.bias_ih_l0 f4 [128]
0	0x3bc02deb	0.005864849
1	0x3e28c7a1	0.16482402
2	0x3e3b3e07	0.1828538
3	0x3e1ce3c1	0.15321256
4	0x3c1cace2	0.009562703
5	0x3d35552c	0.04427068
6	0x3d83a2e6	0.06427555
7	0xbe35366d	-0.17696543
8	0x3cee1ba6	0.029065918
9	0x3e32fb40	0.17478657
10	0xbde82751	-0.11335624
11	0x3d88788a	0.06663616
12	0xbd591cde	-0.053006046
13	0xbdd62c9a	-0.10457726
14	0x3d057c34	0.032589152
15	0x3d7cdda8	0.061734825
16	0xbbd7475c	-0.006569786
17	0xbd9a4660	-0.07532954
18	0x3dc28545	0.094980754
19	0xbda5384c	-0.080673784
20	0xbdc531e7	-0.09628659
21	0xbcacca6c	-0.021092616
22	0xbe11debb	-0.14245121
23	0xbd0ea546	-0.034825586
24	0x3bfee975	0.007779295
25	0xbe0b832b	-0.13624255
26	0xbd21c66b	-0.039495867
27	0xbdfad43a	-0.1224751
28	0x3dd6ad4b	0.10482272
29	0x3c17dc2c	0.009268802
30	0x3dca1966	0.098681256
31	0xbe543060	-0.20721579
32	0x3d27d538	0.040974826
33	0xbb9a752b	-0.0047136745
34	0xbd8d37d5	-0.06895415
35	0x3d29123a	0.041277148
36	0xbc7ff1ae	-0.015621586
37	0x3d87c19a	0.066287234
38	0xbe10b480	-0.14131355
39	0xbd9b5de3	-0.07586267
40	0xbcb723ee	-0.022356
41	0xbd3dfc76	-0.046383344
42	0xbe48952e	-0.19588158
43	0x3bc6a171	0.006061726
44	0x3da35d52	0.07976784
45	0xbe3e1fff	-0.18566893
46	0xbd96921e	-0.073520884
47	0xbd8377ae	-0.064193115
48	0x3a34937c	0.0006888432
49	0xbdf3cef6	-0.11904709
50	0xbd1d259f	-0.038365956
51	0x3e2a6cd5	0.16643079
52	0xbdd9d459	-0.10636205
53	0xbdd09976	-0.1018552
54	0xbca133c3	-0.019678002
55	0xbd68cede	-0.05683791
56	0xbd6a79d6	-0.057245098
57	0xbd304164	-0.04303111
58	0x3e1a9c5b	0.15098707
59	0x3c49782d	0.012296719
60	0x3d777dcc	0.060422704
61	0xbe058eeb	-0.130428
62	0xbe47e30c	-0.19520205
63	0x3dcc9771	0.09989823
64	0xbe1eab49	-0.15495028
65	0xbd46ab21	-0.048503045
66	0x3e3f4da0	0.18681955
67	0xbc938276	-0.018006545
68	0x3e13ce55	0.14434178
69	0xbd35590b	-0.04427437
70	0xbe14e6a9	-0.14541115
71	0xbb66fd2c	-0.0035246117
72	0xbde3c6a2	-0.111218706
73	0x3dbdc00b	0.09265145
74	0xbdf68806	-0.12037663
75	0x3c9eb24e	0.019372132
76	0xbce5f9fb	-0.028073302
77	0x3e1df1ed	0.15424319
78	0x3e23055a	0.1592001
79	0xbc902c99	-0.01759939
80	0xbde34d8e	-0.11098777
81	0xbe175ad8	-0.14780748
82	0x3e0917e4	0.1338802
83	0x3de331db	0.110934936
84	0xbe2b6503	-0.16737752
85	0x3df48bf4	0.119407564
86	0xbe232130	-0.15930629
87	0x3cc295df	0.023753105
88	0x3d24f6dc	0.040274486
89	0x3e0ab18b	0.1354429
90	0xbe2f9fa5	-0.17150743
91	0x3e1285ff	0.14308928
92	0xbc8fb53f	-0.01754248
93	0xbe1d9191	-0.1538756
94	0x3d8892ef	0.0666865
95	0x3d664d41	0.05622602
96	0x3e051e5a	0.1299986
97	0x3e2ef09c	0.17083973
98	0x3e438a9f	0.19095849
99	0xbe270893	-0.16311865
100	0x3d828e01	0.06374741
101	0x3de95794	0.11393657
102	0x3dd3ed54	0.10348001
103	0xbce84dcc	-0.028357409
104	0x3e2fdeca	0.17174831
105	0xbe301ee2	-0.17199281
106	0x3ddd2431	0.107979186
107	0x3e4ff7f9	0.20309438
108	0x3e4b8ac6	0.19877157
109	0xbd7e67df	-0.062110778
110	0x3dec5e62	0.115414396
111	0xbdd9225c	-0.10602257
112	0xbd9f0514	-0.077646405
113	0xbe2f7508	-0.17134488
114	0x3c064bc4	0.008196775
115	0x3e42462d	0.18972082
116	0x3d8e3db5	0.069453634
117	0x3d9037fd	0.07041929
118	0x3e4d9170	0.20075011
119	0xbe1ce653	-0.15322237
120	0x3de71baf	0.11284577
121	0xbdbd617d	-0.0924711
122	0x3dcfadee	0.10140596
123	0xbde337ce	-0.11094628
124	0xbc278e7d	-0.010226843
125	0x3da6aa1e	0.08137916
126	0xbe048a97	-0.12943493
127	0xbe054c97	-0.13017498

lstm.bias_hh_l0 f4 [128]
0	0x3d40ecf9	0.047100995
1	0x3df4f85d	0.11961434
2	0xbd552803	-0.05204011
3	0x3d6662a3	0.05624641
4	0x3d402ccd	0.046917725
5	0x3e43a1b8	0.1910466
6	0xbcbd9a4b	-0.023144862
7	0xbe9355d4	-0.2877642
8	0xbdeb3ee7	-0.11486607
9	0x3d0b0b0f	0.033946093
10	0xbe2b9f4a	-0.16759983
11	0x3de714fc	0.11283299
12	0x3bd0ade2	0.0063683847
13	0xbe04d6ac	-0.12972516
14	0x3a397e01	0.0007075966
15	0xbdc9e36d	-0.09857831
16	0x3e0e53b4	0.13899118
17	0x3ccba02b	0.024856647
18	0x3db496b9	0.088178106
19	0x3d9f04be	0.077645764
20	0x3dd7187d	0.10502718
21	0xbda6d1b3	-0.08145466
22	0xbd41e51b	-0.047337633
23	0xbe1d167c	-0.15340608
24	0xbe67a907	-0.22623073
25	0xbe138c73	-0.14409046
26	0xbd8fae4b	-0.070156656
27	0x3dfcb380	0.123389244
28	0x3e2ed02e	0.17071602
29	0xbd2010b8	-0.039078444
30	0xbe14c593	-0.14528494
31	0xbe0696a7	-0.13143407
32	0x3d9cca1c	0.07655737
33	0xbdb59810	-0.08866894
34	0xbe035923	-0.12826972
35	0x3e2547b9	0.16140641
36	0x3dd7663f	0.10517549
37	0x3d1b1aad	0.037867237
38	0xbd7870c8	-0.06065443
39	0xbe8f51b5	-0.27992025
40	0x3d8f303f	0.06991624
41	0xbd5555de	-0.052083842
42	0xbbf69bdc	-0.007525904
43	0x3d0f4a97	0.034983244
44	0x3d0ec06c	0.034851477
45	0x3e02affc	0.12762445
46	0xbd8d49b8	-0.06898826
47	0x3b85cb56	0.0040830774
48	0xbd8974f0	-0.06711757
49	0xbe31898f	-0.1733763
50	0x3e581363	0.21101145
51	0x3d9828dd	0.07429669
52	0x3da9c795	0.082900204
53	0xbe1d36ab	-0.15352885
54	0xbde6ba1c	-0.11265966
55	0xbe12d45d	-0.14338823
56	0x3cb890a2	0.022529904
57	0xbe1b4d77	-0.15166269
58	0x3c2a40b4	0.010391403
59	0x3de8a951	0.113604195
60	0x3db39f09	0.08770568
61	0x3dc5c393	0.096564434
62	0x3dde7a45	0.10863165
63	0x3dcf67d2	0.10127224
64	0x3dd24f96	0.10269086
65	0x3dd5ab5f	0.10433077
66	0xbdc64a6d	-0.09682164
67	0x3de26fab	0.11056455
68	0x3cde2003	0.027114874
69	0xbbd4e47a	-0.006496963
70	0x3e220135	0.15820773
71	0xbca8c579	-0.020601975
72	0x39c83984	0.00038189825
73	0xbd70a301	-0.058749203
74	0x3e23b53d	0.15987106
75	0xbdfffe1b	-0.12499639
76	0x3e15cdec	0.14629334
77	0xbc86c4d4	-0.016451277
78	0x3d59590c	0.053063437
79	0xbcc85453	-0.024454271
80	0xbc30a7f8	-0.010782234
81	0x3de6bf75	0.11266986
82	0xbde680d8	-0.11255044
83	0x3ce4e623	0.027941769
84	0xbd6d27f0	-0.057899415
85	0x3dee3c4b	0.11632594
86	0xbd04c604	-0.032415405
87	0xbd1426cf	-0.036169823
88	0x3d026a5c	0.031839713
89	0xbe11e8a6	-0.14248905
90	0x3cd914fe	0.026499268
91	0x3c4182af	0.011810943
92	0xbe00f643	-0.12593941
93	0x3e05ba4c	0.13059348
94	0x3d29a333	0.041415405
95	0x3d23cb27	0.039988663
96	0xbd2372a9	-0.03990427
97	0x3e229200	0.15876007
98	0x3d2b961b	0.0418912
99	0x3d319cca	0.043362416
100	0xbc8e6e28	-0.017386511
101	0x3d0707d9	0.03296647
102	0x3cecd7f4	0.028911568
103	0xbe6891f4	-0.22711927
104	0xbdf74cf5	-0.12075225
105	0x3e15c800	0.14627075
106	0xbc6ba8d1	-0.014383511
107	0x3e00a333	0.12562256
108	0xbe04ab02	-0.1295586
109	0xbe0e39c3	-0.13889222
110	0xbd8b48c8	-0.06800991
111	0x3e34e75c	0.17666382
112	0xbe13b2f1	-0.1442373
113	0xbe3b2c78	-0.18278682
114	0xbd72994d	-0.05922823
115	0xbd8356c8	-0.064130366
116	0x3e281425	0.16413935
117	0x3d7b62f5	0.06137367
118	0x3db442bc	0.08801791
119	0x3e15543c	0.14582914
120	0xbe043efa	-0.12914649
121	0x3c9bd764	0.019023605
122	0xbce4fb01	-0.02795172
123	0xbdc7cd50	-0.09755957
124	0x3bf1fe80	0.007385075
125	0xbdc908ca	-0.098161295
126	0xbcd8b592	-0.026453767
127	0x3d918939	0.07106251

lstm.weight_ih_l1 f4 [128, 32]
0	0x3e5a650e	0.21327612
1	0xbe00f8db	-0.12594931
2	0x3c172d6d	0.009227139
3	0xbe37f2d3	-0.17963724
4	0xbe041aaf	-0.12900804
5	0x3e41a75e	0.18911502
6	0xbde8d460	-0.11368632
7	0xbd23cb03	-0.03998853
8	0x3c83eba4	0.016103573
9	0xbd9296ed	-0.07157693
10	0x3e1b5f06	0.15172967
11	0x3e36daeb	0.17856948
12	0xbdc07a07	-0.09398275
13	0xbe2d8bca	-0.16947857
14	0xbdff8337	-0.12476199
15	0x3e00a520	0.1256299
16	0x3d0adfc2	0.0339048
17	0xbcf1f36b	-0.029535016
18	0xbe387316	-0.18012652
19	0xbd7f98f0	-0.062401712
20	0xbd03bf8e	-0.032165103
21	0xbe349cfc	-0.1763801
22	0x3e87fd59	0.26560476
23	0x3e961b71	0.2931781
24	0xbdd0bfdd	-0.10192845
25	0x3e0f1de7	0.1397625
26	0x3d37dc9a	0.044888116
27	0x3d31f2e7	0.04344454
28	0x3ccea13b	0.025223365
29	0x3e596312	0.21229199
30	0xbdad4bfe	-0.0846176
31	0xbad22410	-0.0016032476
32	0x3e6e7fe0	0.23290968
33	0xbddaa3e9	-0.10675795
34	0x3db83d20	0.08996034
35	0xbe7cb470	-0.24678206
36	0xbe0ba86c	-0.13638467
37	0x3e000b89	0.125044
38	0xbc8c58ed	-0.017132247
39	0xbd0d113d	-0.034440268
40	0x3d01275a	0.03153167
41	0x3dacf815	0.084457554
42	0x3e2e5070	0.17022872
43	0x3e90eac6	0.28304118
44	0xbdee50a6	-0.11636476
45	0x3d39588a	0.045250453
46	0xbca72523	-0.02040345
47	0x3ddb402d	0.107056
48	0x3e93f4cc	0.28897703
49	0xbb3330d3	-0.0027342334
50	0xbe572ac7	-0.21012412
51	0xbe9bf686	-0.3046152
52	0xbd9a69a8	-0.075396836
53	0xbb8c0619	-0.004273188
54	0x3e67b281	0.22626688
55	0x3d693dfe	0.056943886
56	0xbdd6e2d3	-0.10492482
57	0x3e481314	0.19538528
58	0x3d3f98d7	0.04677662
59	0xbe0b06ea	-0.13576856
60	0x3e910d20	0.28330326
61	0xbd660ae1	-0.05616272
62	0x3e354df2	0.17705515
63	0x3c2ced0d	0.010554564
64	0xbe0e613b	-0.13904278
65	0xbdd4743b	-0.10373732
66	0xbbb895e4	-0.0056331027
67	0x3da84470	0.082161784
68	0xbc1ef1a9	-0.009701171
69	0xbdec0ffd	-0.11526487
70	0x3d4fad16	0.050702177
71	0xbe0c4062	-0.13696435
72	0xbe6e6319	-0.2327999
73	0xbce8bfcc	-0.028411768
74	0x3e0fda5e	0.14048144
75	0x3d14d246	0.036333345
76	0xbd8ca5c4	-0.06867555
77	0x3d13f6df	0.036124106
78	0xbdde63bc	-0.108588666
79	0x3dbee885	0.09321693
80	0xbe24a790	-0.16079545
81	0xbb939ad7	-0.0045045423
82	0xbaa6d410	-0.0012727994
83	0x3e60ed9d	0.21965642
84	0xbdcc5aaa	-0.0997823
85	0x3d2a8b17	0.041636553
86	0xbdd88050	-0.10571349
87	0xbe34cd52	-0.17656448
88	0x3c0a11f8	0.008427136
89	0xbe3283c3	-0.17433076
90	0xbe464bc7	-0.19364844
91	0x3db60223	0.08887126
92	0x3d92407e	0.07141207
93	0xbdaa14c7	-0.08304744
94	0x3cf294a1	0.029611887
95	0x3e2b775b	0.16744749
96	0x3cffde96	0.031234067
97	0x3da4988c	0.080369085
98	0xbe74e235	-0.23914416
99	0x3d0c7b93	0.034297537
100	0x3d499407	0.049213436
101	0xbc4ce7eb	-0.012506465
102	0x3d3423d2	0.043979473
103	0xbda67500	-0.08127785
104	0xbd078103	-0.03308202
105	0x3daa2bbd	0.08309124
106	0x3cbe920e	0.023263004
107	0x3d1847c6	0.037177823
108	0xbdd77ed8	-0.105222404
109	0xbdabeb26	-0.083944604
110	0xbccc3b17	-0.02493052
111	0x3e1c9bd1	0.15293814
112	0x3dcff202	0.10153581
113	0x3e29335f	0.16523503
114	0x3e0df4d4	0.13862926
115	0xbdbec700	-0.093153
116	0x3de58982	0.11207868
117	0xbe424833	-0.18972854
118	0xbe04f731	-0.12984921
119	0xbe08804f	-0.13330196
120	0xbdd44a79	-0.10365767
121	0xbe14863f	-0.14504336
122	0xbe1c7fec	-0.15283173
123	0x3dcfdc6f	0.10149466
124	0x3ceefd41	0.029173495
125	0xbd494ce2	-0.049145587
126	0xbdbfb857	-0.09361332
127	0xbddc6ecd	-0.10763321
128	0x3e198a3f	0.14994143
129	0xbd713a7e	-0.058893673
130	0x3d9cc20d	0.076542
131	0x3dafc37a	0.08582206
132	0xbc4a389c	-0.012342598
133	0xbd9a3352	-0.0752932
134	0x3c772f6b	0.015086989
135	0x3b8bf5a7	0.0042712274
136	0x3d8e63b8	0.069526136
137	0xbd285ef3	-0.041106176
138	0x3e02a74a	0.12759128
139	0xbd896da5	-0.06710366
140	0xbdd06848	-0.1017614
141	0x3cf2ae21	0.029624047
142	0xbc7674e3	-0.015042516
143	0xbe27966d	-0.16365977
144	0x3cb37a47	0.021908892
145	0xbe1217ac	-0.14266843
146	0xbe0ea5c3	-0.1393042
147	0x3cc4b21b	0.024010709
148	0xbda9dec0	-0.08294439
149	0x3e0f6fe5	0.14007528
150	0xbe07287a	-0.13199034
151	0x3d33c7ec	0.043891832
152	0x3e3d657f	0.18495749
153	0x3d854932	0.065081015
154	0xbdd4a047	-0.10382133
155	0xbc93d4e4	-0.01804585
156	0x3e2b9bfa	0.16758719
157	0xbdaf88ab	-0.08570989
158	0x3dd62aa7	0.10457354
159	0x3e2e81ee	0.17041752
160	0xbd0fa74e	-0.035071664
161	0x3e5b49ee	0.2141492
162	0x3da938e6	0.08262806
163	0x3da1a730	0.078932166
164	0xbd13a6a0	-0.036047578
165	0xbe57d607	-0.21077739
166	0x3d0c1f18	0.03420934
167	0xbe2c10c6	-0.16803274
168	0x3c6a0bd7	0.014285049
169	0xbe67e844	-0.22647196
170	0xbe278161	-0.16357948
171	0xbdd4d3cd	-0.1039196
172	0xbde4584c	-0.11149654
173	0x3c4571b0	0.012051031
174	0x3d9fecca	0.07808836
175	0x3ddbee27	0.10738783
176	0x3cc11ca9	0.023573237
177	0x3c2b58c9	0.01045818
178	0x3e24d7b8	0.16097915
179	0xbd04bb8b	-0.032405417
180	0xbdfcf86d	-0.12352071
181	0x3e4e8e08	0.20171368
182	0xbdbaea78	-0.091267526
183	0xbe02e5bf	-0.12782954
184	0x3d295fb5	0.04135104
185	0x3c88581a	0.016643573
186	0xbdfbfdaa	-0.12304242
187	0xbd917c8d	-0.07103834
188	0x3c3c8a1b	0.011507536
189	0x3d2c0fdb	0.04200731
190	0xbcaef8c6	-0.021358859
191	0x3e06e759	0.1317419
192	0x3e47761b	0.19478647
193	0xbcacff59	-0.021117853
194	0xbd7a57b6	-0.061118804
195	0xbcc6e2bc	-0.024278037
196	0x3de6feb2	0.11279048
197	0x3e1eac95	0.15495522
198	0xbe88e2f3	-0.2673565
199	0x3d9f3c83	0.077752136
200	0x3bad1a17	0.005282651
201	0x3e1ff826	0.15622005
202	0xbe1ba725	-0.1520048
203	0x3e408f92	0.18804768
204	0x3e425adf	0.18979977
205	0x3dd4b4f3	0.10386076
206	0xbd74f11f	-0.059800263
207	0xbdbba900	-0.091630936
208	0xbd870484	-0.06592658
209	0x3e111907	0.14169703
210	0xbd4390ab	-0.047745388
211	0x3d421b4c	0.047389314
212	0xbe70155a	-0.23445645
213	0x3c87cde6	0.016577672
214	0xbd82a7b9	-0.06379647
215	0xbd5e82b9	-0.054323886
216	0xbd1fa5d3	-0.0389765
217	0xbdc630be	-0.096772656
218	0x3d8ec8df	0.06971907
219	0x3e684f01	0.22686388
220	0xbc0d0538	-0.008607201
221	0x3ce702d8	0.028199598
222	0x3e0c6888	0.1371175
223	0xbd9b0705	-0.07569698
224	0xbe39673d	-0.18105789
225	0xbbdff781	-0.0068349247
226	0xbe325377	-0.17414652
227	0xbd910151	-0.07080329
228	0x3d482639	0.048864577
229	0xbbcb5909	-0.006205682
230	0x3e16be14	0.14720947
231	0xbdab156a	-0.08353694
232	0xbdeb8585	-0.11500076
233	0xbd00846d	-0.03137629
234	0x3d19614a	0.037446298
235	0xbe71a75b	-0.23598997
236	0xbe98a3c8	-0.29812455
237	0xbd206943	-0.039162885
238	0x3c3385c0	0.010957181
239	0x3e2b65ef	0.16738103
240	0xbe3860ad	-0.18005629
241	0xbe295581	-0.16536523
242	0x3e5e1a97	0.2168983
243	0x3e3e5a9c	0.18589252
244	0x3dae3cec	0.08507714
245	0x3db20eb8	0.08694214
246	0xbe0b3258	-0.13593423
247	0xbe258527	-0.16164075
248	0xbe2ef105	-0.17084129
249	0x3cda17b9	0.02662264
250	0xbc25256a	-0.010079721
251	0xbb3c949a	-0.0028775097
252	0xbd02168a	-0.031759776
253	0x3b81cfb1	0.0039615263
254	0x3d188bbe	0.037242644
255	0xbe255952	-0.16147354

lstm.weight_hh_l1 f4 [128, 32]
0	0xbe20fbcd	-0.15721054
1	0x3e41e4fb	0.18935005
2	0x3e1140a6	0.14184818
3	0x3e0eee51	0.13958098
4	0xbe6add61	-0.22936012
5	0x3d5d3143	0.054002058
6	0xbe71b1d3	-0.23602991
7	0x3dc1d50c	0.094644636
8	0x3e0dab20	0.1383481
9	0xbcf75f34	-0.030196764
10	0x3e144a55	0.1448148
11	0x3dfda48e	0.12384902
12	0x3e0aed2c	0.13567036
13	0xbe49bb94	-0.19700462
14	0xbe3924bd	-0.18080421
15	0xbdc39f6a	-0.0955189
16	0x3e086917	0.13321339
17	0xbe084bfa	-0.13310233
18	0x3c10e22a	0.008842984
19	0xbe970ae3	-0.29500493
20	0x3d9ad8b1	0.07560862
21	0x3d7af5e1	0.061269645
22	0xbe8be18b	-0.27320513
23	0xbe8115dd	-0.25211993
24	0xbe8e8b2a	-0.2784055
25	0xbc9f876e	-0.019473758
26	0xbd840254	-0.064457566
27	0x3e0274f5	0.12739928
28	0x3e83ca77	0.25740406
29	0x3d455fd6	0.0481871
30	0xbe036718	-0.12832296
31	0xbdade06a	-0.08490069
32	0xbe8145f8	-0.25248694
33	0x3df52641	0.11970187
34	0x3db54380	0.08850765
35	0xbc9db9f8	-0.019253716
36	0x3e07bc40	0.13255405
37	0x3c46d85d	0.012136546
38	0x3d99e18e	0.07513724
39	0xbd0dbad1	-0.03460199
40	0xbb4aaa98	-0.0030924436
41	0xbd2fcfbb	-0.042922717
42	0xbd186c02	-0.03721238
43	0xbd77ea7e	-0.060526364
44	0x3dd661f0	0.10467899
45	0xbcca80cf	-0.024719624
46	0xbe206237	-0.15662466
47	0x3e01d35a	0.1267828
48	0x3d9b7c08	0.075920165
49	0xbd10e328	-0.035372883
50	0xbe09e973	-0.1346796
51	0xbaa8f3e6	-0.001289007
52	0x3d088b50	0.033335984
53	0x3cbbaa7a	0.022908438
54	0x3d59aa02	0.053140648
55	0xbe28962c	-0.16463536
56	0xbe086ea9	-0.13323463
57	0x3e570c5a	0.21000805
58	0x3e0b3ca5	0.13597353
59	0x3df5b11a	0.1199667
60	0xbd5ac3c8	-0.053409368
61	0xbca40525	-0.020021984
62	0xbda1e899	-0.079056926
63	0xbd6bda83	-0.057581436
64	0xbdb7740f	-0.08957683
65	0xbd0829bb	-0.033242922
66	0xbc68fe92	-0.014220851
67	0x3d8824cd	0.06647644
68	0x3b1fc587	0.002437921
69	0xbdb567f8	-0.08857721
70	0x3a06dc7d	0.00051445497
71	0xbe579db9	-0.2105626
72	0xbcf8b458	-0.030359432
73	0xbde225f9	-0.11042399
74	0x3d7e45bc	0.062078223
75	0xbdb09b68	-0.086233914
76	0x3e23b013	0.15985136
77	0xbda86fa6	-0.0822442
78	0xbdac2ff6	-0.08407585
79	0xbd944981	-0.07240582
80	0xbdf4ccf3	-0.119531535
81	0xbd5d8249	-0.054079328
82	0xbd02baac	-0.031916305
83	0xbd819709	-0.06327636
84	0xbe4fb72a	-0.20284715
85	0xbe20c0ba	-0.1569852
86	0xbe1cef20	-0.15325594
87	0x3e4bbf45	0.19897182
88	0x3df2cd94	0.11855617
89	0xbcef2be3	-0.029195732
90	0xbd316600	-0.043310165
91	0x3dc30a83	0.09523489
92	0xbe413d5f	-0.18871067
93	0x3de340c9	0.11096341
94	0x3dda787d	0.106675126
95	0xbde04e3a	-0.109524205
96	0xbe0dc50c	-0.13844699
97	0x3dd62147	0.10455566
98	0xbe1c1d1e	-0.15245482
99	0x3e42f795	0.19039758
100	0xbd50f623	-0.051015984
101	0xbdb3d7b2	-0.08781375
102	0xbb4eb388	-0.0031540114
103	0xbd461e61	-0.048368815
104	0xba981799	-0.0011603712
105	0x3c084abe	0.008318601
106	0x3cb84596	0.022494119
107	0x3df4bb6a	0.11949809
108	0xbb49a023	-0.0030765615
109	0x3df966a7	0.121777825
110	0x3dbe64a7	0.09296542
111	0x3d4c5510	0.04988581
112	0x3da90bb8	0.08254188
113	0xbe3e281a	-0.18569985
114	0xbe28d0fb	-0.1648597
115	0xbdcb762e	-0.0993465
116	0xbd203e97	-0.03912219
117	0x3bfdb9f8	0.0077431165
118	0x3dd98aea	0.10622199
119	0xbdd54a7a	-0.10414596
120	0x3e2dd4d8	0.16975725
121	0x3da2a027	0.07940703
122	0x3c8608a3	0.01636154
123	0x3d29d7d4	0.041465595
124	0x3e38afa0	0.18035746
125	0xbe2c86bd	-0.16848274
126	0x3df4fd34	0.11962357
127	0x3d076309	0.03305343
128	0xbc753738	-0.014966778
129	0x3da7cae8	0.08192998
130	0x3ddd8ff0	0.108184695
131	0x3e2d3ac3	0.16916947
132	0x3c205f43	0.009788337
133	0x3d8dd67d	0.06925676
134	0x3db71a14	0.08940521
135	0x3ce58a2f	0.028019993
136	0xbdb57e61	-0.088619955
137	0xbd01d2a6	-0.03169503
138	0x3de3c2c5	0.11121134
139	0xbd958502	-0.0730076
140	0x3a8c896d	0.0010722108
141	0xbd20ff84	-0.03930618
142	0x3cf25cbb	0.029585233
143	0x3e22972c	0.1587798
144	0x3dde7468	0.108620465
145	0x3d9736dc	0.073835105
146	0x3db50c6c	0.0884026
147	0x3d7b64bd	0.06137537
148	0xbda0505b	-0.078278266
149	0xbdaf792f	-0.08568036
150	0xbde44a8e	-0.11147033
151	0xbd2fbaf0	-0.042902887
152	0x3e463d50	0.19359326
153	0xbdcf90ce	-0.10135041
154	0xbcf179dd	-0.029477054
155	0xbe0a28b9	-0.13492097
156	0x3dee7811	0.116439946
157	0xbe415881	-0.18881418
158	0xbe535e8e	-0.20641539
159	0x3dca3775	0.09873859
160	0xbd927797	-0.07151716
161	0xbd4347a8	-0.04767576
162	0x3bb53e8f	0.005531139
163	0xbd955a80	-0.07292652
164	0x3e3e3303	0.18574147
165	0xbe3c7527	-0.18404065
166	0x3c71104a	0.014713356
167	0xbe5bd412	-0.21467617
168	0x3d47ac71	0.048748437
169	0x3c822c91	0.015890392
170	0x3d329f0e	0.043608718
171	0xbe120305	-0.14258964
172	0x3e4e4953	0.20145158
173	0xbd51cfaf	-0.051223453
174	0xbe637f63	-0.22216563
175	0xbdc0616e	-0.09393583
176	0x3da90423	0.08252742
177	0x3daf3bb5	0.0855631
178	0x3de32f05	0.11092953
179	0x3e4e9237	0.20172964
180	0x3d2abb90	0.04168278
181	0x3ba51609	0.005038027
182	0x3e396c68	0.1810776
183	0xbd1db6c0	-0.038504362
184	0x3e14abf4	0.1451872
185	0xbddd774f	-0.10813772
186	0xbd84f758	-0.064924896
187	0x3e0e9593	0.13924246
188	0xbe174450	-0.14772153
189	0xbda23e21	-0.079220064
190	0xbcd1e70b	-0.025622865
191	0xbd3ee812	-0.04660804
192	0x3dcb67db	0.09931918
193	0xbe16fcd6	-0.14744887
194	0xbdef2173	-0.11676302
195	0x3d14e518	0.036351293
196	0xbdf80bc2	-0.121116176
197	0x3cb336d4	0.02187673
198	0x3c30d4ee	0.010792954
199	0xbdc119a6	-0.0942872
200	0x3d3c8fa7	0.046035435
201	0x3e1977bf	0.14987086
202	0xbe1a9669	-0.1509644
203	0x3e38777e	0.18014333
204	0x3c87f6fb	0.016597262
205	0x3e4037e0	0.18771315
206	0x3cc9b866	0.02462406
207	0xbe3357d9	-0.1751398
208	0xbdceeabf	-0.10103368
209	0xbdfe4ecc	-0.12417373
210	0xbcf533c8	-0.029931918
211	0xbd88c095	-0.06677357
212	0x3df6cc0d	0.12050638
213	0xbe0b9e94	-0.13634712
214	0xbe10b69f	-0.14132164
215	0xbda81f06	-0.08209042
216	0xbda75409	-0.08170325
217	0x3c7adb40	0.015311062
218	0x3e1bfa36	0.15232167
219	0x3e0cd957	0.13754784
220	0xbd579596	-0.05263289
221	0xbd978abc	-0.07399508
222	0x3e0c101b	0.13678019
223	0x3e4bb6ff	0.19894026
224	0x3d18db25	0.037318368
225	0xbd056e39	-0.03257582
226	0xbe8144bd	-0.25247756
227	0x3e73ecec	0.23820847
228	0xbe103f4f	-0.1408665
229	0xbd04a1ed	-0.032380987
230	0xbc6f0fdb	-0.014591183
231	0x3d345543	0.044026624
232	0xbde57c45	-0.11205343
233	0x3d28d0e1	0.041214827
234	0x3e11aa0b	0.14225022
235	0xbd4e39ea	-0.0503482
236	0x3cc34bf1	0.023839923
237	0xbe869018	-0.2628181
238	0x3db2bf94	0.08727947
239	0x3d7d979a	0.061912157
240	0xbe1e1d59	-0.15440883
241	0xbe547c82	-0.20750621
242	0xbdc8e92c	-0.09810099
243	0xbe20eb57	-0.15714775
244	0xbe1d71ff	-0.15375517
245	0x3dffcbc3	0.12490036
246	0xbe336cba	-0.17521945
247	0x3e326572	0.17421511
248	0xbd99dae2	-0.07512452
249	0x3db74938	0.08949512
250	0x3d877d25	0.06615666
251	0xbb9cde5b	-0.004787249
252	0x3b24fb63	0.0025174252
253	0xbd8b8425	-0.06812314
254	0x3db28f3a	0.087187245
255	0xbde88d7b	-0.1135511

lstm.bias_ih_l1 f4 [128]
0	0xbe92af26	-0.28649253
1	0xbe3c36d3	-0.18380289
2	0xbdb91e1b	-0.09038945
3	0x3d065c9c	0.032803163
4	0x3d2f74b4	0.042835906
5	0x3d7f706b	0.06236307
6	0x3d78a30f	0.06070238
7	0xbcc68107	-0.024231447
8	0xbe0cdbe8	-0.13755763
9	0x3cfea2e5	0.031083534
10	0xbdc2f953	-0.09520211
11	0xbda9492b	-0.08265909
12	0xbd993854	-0.07481447
13	0xbdcc401f	-0.09973168
14	0x3dd2c552	0.10291542
15	0x3cf3379b	0.0296896
16	0xbd998e10	-0.074977994
17	0xbdfc420a	-0.123172835
18	0xbe20b50b	-0.15694062
19	0xbe1c4e56	-0.15264258
20	0xbdaae876	-0.0834512
21	0x3dd4b7ef	0.10386645
22	0xbc5a72f8	-0.013333075
23	0xbdab571d	-0.08366225
24	0x3dd0be85	0.10192589
25	0xbd8a1904	-0.067430526
26	0xbcc2bdf5	-0.02377222
27	0xbd679af3	-0.056544255
28	0xbd9ab2ca	-0.075536326
29	0xbdb07bcd	-0.08617363
30	0xbe0b99f8	-0.13632953
31	0xbd09db1a	-0.033656217
32	0xbdc3dd00	-0.09563637
33	0xbe7f11d1	-0.2490914
34	0xbd9f1126	-0.07766943
35	0x3db1d2fd	0.08682821
36	0x3e408ff5	0.18804915
37	0xbd369869	-0.044578943
38	0x3d95a2a0	0.07306409
39	0xbda017b4	-0.07817021
40	0x3dd22700	0.10261345
41	0x3dc3a6f5	0.09553329
42	0x3c9f421a	0.0194407
43	0xbd9a5bc3	-0.075370334
44	0x3d7e6135	0.062104423
45	0x3e3652df	0.1780505
46	0x3e0c27ac	0.13687009
47	0x3e4328e2	0.19058564
48	0xbe257fa3	-0.16161971
49	0x3ce8e418	0.028429076
50	0xbd85dbf8	-0.06536096
51	0x3e10c255	0.14136632
52	0x3dc04bc7	0.093894534
53	0xbe43c4b7	-0.1911801
54	0xbcbe0de8	-0.02319999
55	0x3da25872	0.07927026
56	0xbca60e63	-0.020270532
57	0xbe4c3423	-0.19941764
58	0x3daa5e82	0.08318807
59	0xbd0fa406	-0.035068534
60	0x3d8aae61	0.067715414
61	0xbcaaa50f	-0.02083066
62	0xbe175a87	-0.14780627
63	0xbd92c098	-0.071656406
64	0x3da10c1c	0.07863638
65	0xbd52d0fd	-0.051468838
66	0xbe03eb97	-0.12882839
67	0x3c9b2af4	0.01894138
68	0x3db2aefe	0.08724783
69	0xbcf5a198	-0.02998428
70	0x3cf8dd58	0.030378982
71	0x3c25ac83	0.010111931
72	0xbe3155f6	-0.17317948
73	0x3d49fa9d	0.04931127
74	0x3e263981	0.16232873
75	0xbc8365c4	-0.016039737
76	0x3e48da15	0.19614442
77	0x3d8cb5be	0.06870602
78	0xbde9dfab	-0.114196144
79	0xbe129cae	-0.14317581
80	0xbcd3b4d6	-0.025843065
81	0x3e3f2924	0.18668038
82	0x3dfdf0d8	0.12399453
83	0x3e0a6c2e	0.1351783
84	0xbe11731c	-0.14204067
85	0xbdeabe71	-0.11462105
86	0x3d7b1833	0.061302375
87	0x3d8a99b7	0.067676
88	0x3e2c97cd	0.16854782
89	0x3cbd93bb	0.023141732
90	0x3ca9875f	0.020694433
91	0xbd2fbac2	-0.042902716
92	0xbe52efa5	-0.2059923
93	0x3c8f3aab	0.01748403
94	0x3e5be874	0.21475393
95	0xbcc3cecf	-0.023902325
96	0xbda88865	-0.0822914
97	0xbda12e13	-0.07870116
98	0x3df74192	0.120730534
99	0xbd2d5f4a	-0.042327203
100	0x3dcd4477	0.10022824
101	0xbce0602b	-0.027389606
102	0xbde03644	-0.1094785
103	0x3deeaaca	0.11653669
104	0xbd91ba38	-0.071155965
105	0x3e0815a7	0.1328951
106	0x3e3eae5d	0.18621202
107	0xbe12c082	-0.14331248
108	0xbe0312f2	-0.12800196
109	0xbd2331d1	-0.03984243
110	0xbd83e1bd	-0.064395405
111	0x3d959fe8	0.0730589
112	0xbe6474bb	-0.22310154
113	0x3d6eb036	0.058273517
114	0x3d701f15	0.058623392
115	0x3b6c6acb	0.0036074396
116	0xbdc624e2	-0.096750036
117	0xbe205dd1	-0.15660788
118	0x3dbf6149	0.093447275
119	0xbd97b14e	-0.07406865
120	0xbe01ba88	-0.12668812
121	0xbe115970	-0.14194274
122	0xbda54055	-0.08068911
123	0x3d1142c7	0.035464074
124	0xbd4e4df1	-0.0503673
125	0xbe04711c	-0.12933773
126	0x3d5aa05c	0.053375587
127	0xbd3e9140	-0.04652524

lstm.bias_hh_l1 f4 [128]
0	0x3b8e137b	0.0043358183
1	0xbe17e081	-0.14831735
2	0x3e0b85ce	0.13625261
3	0x3e213e31	0.1574638
4	0xbcccb693	-0.024989402
5	0x3d1343d2	0.03595335
6	0x3e0e6da4	0.13909012
7	0x3ac969b4	0.0015366585
8	0x3cdb9880	0.026806116
9	0x3d531db1	0.051541988
10	0x3e090b82	0.13383296
11	0x3e06e652	0.13173798
12	0x3bb785a2	0.005600647
13	0x3e21708c	0.1576559
14	0xbc84fe14	-0.016234435
15	0xbd3a42d2	-0.04547388
16	0xbe449a34	-0.19199449
17	0x3e46d434	0.19416887
18	0xbe5ae91f	-0.21377991
19	0xbd067b8c	-0.032832667
20	0x3d95b65c	0.07310173
21	0xbdd3fb23	-0.10350635
22	0x3d9ce8de	0.076616034
23	0x3e11d853	0.14242677
24	0xbe46a71e	-0.19399688
25	0xbe208dbc	-0.15679067
26	0x3e261faf	0.16223024
27	0xbdadc58d	-0.084849454
28	0xbc69221e	-0.014229326
29	0xbe0ae337	-0.13563238
30	0xbe2a74b8	-0.16646087
31	0x3e15f6ae	0.14644882
32	0xbe59ae6f	-0.21257947
33	0xbe6dc17b	-0.23218338
34	0x3c803b85	0.015653381
35	0xbd94366a	-0.07236941
36	0x3e3373af	0.17524599
37	0xbd1a4425	-0.037662644
38	0xbe050a0f	-0.12992118
39	0x3e07842c	0.13234013
40	0x3c6418ae	0.0139219
41	0xbe0f0cd1	-0.13969733
42	0xbe0b813c	-0.13623518
43	0xbe67a67d	-0.22622104
44	0x3bd1b9e1	0.0064003323
45	0x3e288e01	0.1646042
46	0x3daf0404	0.08545688
47	0xbd5d6846	-0.05405452
48	0xbe1242c5	-0.14283283
49	0xbc4fc134	-0.012680341
50	0xbe14e10d	-0.14538975
51	0x3dd9eafc	0.10640523
52	0xbdc0a339	-0.09406132
53	0xbcd4fed8	-0.026000425
54	0xbdd8341e	-0.105568156
55	0xbda46b28	-0.08028251
56	0x3b85575b	0.0040692515
57	0xbe3f864c	-0.18703574
58	0x3d2ab3f8	0.041675538
59	0xbb98fd3f	-0.004668861
60	0x3df6a1f4	0.12042609
61	0xbd80a55f	-0.06281542
62	0x3cfc89a0	0.030827343
63	0x3dc4c324	0.096075326
64	0x3b365717	0.0027822906
65	0xbe0f1c40	-0.1397562
66	0x3d94f8a0	0.07273984
67	0xbae59a1f	-0.0017517245
68	0x3e14a0cb	0.14514463
69	0xbd16d764	-0.036826506
70	0x3dfdd2fd	0.123937584
71	0xbc2c90fb	-0.010532613
72	0x3d62b0dc	0.055344447
73	0x3c8fd35c	0.017556839
74	0xbd90d512	-0.0707189
75	0x3ce06300	0.027390957
76	0x3dc23dea	0.094844654
77	0x3e08a310	0.13343453
78	0xbd9346e9	-0.071912594
79	0x3e1e40fe	0.1545448
80	0xbe11d6d9	-0.14242114
81	0x3c65bfbb	0.014022763
82	0x3d8156df	0.063153975
83	0x3dca5420	0.09879327
84	0xbd940af4	-0.07228652
85	0xbd962058	-0.07330388
86	0x3dda3466	0.106545255
87	0x3db5b9b5	0.088733114
88	0x3c6ae605	0.0143370675
89	0x3d891c09	0.066948004
90	0xbd93910f	-0.07205402
91	0x3e0213e1	0.12702896
92	0xbe2e695d	-0.1703238
93	0x3cf6bf26	0.030120444
94	0xbe09ff52	-0.13476303
95	0x3da2b0f0	0.079439044
96	0xbe90b47e	-0.28262705
97	0x3c18d8a3	0.009328994
98	0x3d8b4274	0.06799784
99	0x3d4b8153	0.04968388
100	0xbd394f51	-0.045241658
101	0x3e3cd561	0.18440773
102	0x3c846d6f	0.016165463
103	0xbe00fd80	-0.12596703
104	0xbe2c3179	-0.16815747
105	0x3dae45f2	0.08509435
106	0x3e2e71e5	0.17035635
107	0x3d9e2f85	0.077239074
108	0xbd89e4aa	-0.06733067
109	0xbcc5e718	-0.024158046
110	0xbd4170b1	-0.04722661
111	0xbc929886	-0.017894994
112	0xbe311a64	-0.17295223
113	0x3e1b1f2b	0.15148608
114	0xbe02e501	-0.1278267
115	0xbd82dbf3	-0.06389608
116	0x3cc14b58	0.023595497
117	0xbdc59dfb	-0.09649273
118	0xbb0aa4cc	-0.0021155355
119	0xbc528718	-0.012849592
120	0x3d930596	0.071788
121	0xbdd8e175	-0.105898775
122	0x3c71f9f8	0.01476907
123	0x3de59096	0.11209218
124	0x3d6bc7cb	0.057563584
125	0x3c856401	0.016283037
126	0x3d8cb1be	0.06869839
127	0x3dd3a518	0.103342235

fc.weight f4 [1, 32]
0	0xbba956f5	-0.005167837
1	0xbccadcae	-0.024763431
2	0x3e2031d3	0.15644006
3	0xbdbb168f	-0.09135162
4	0x3def5878	0.11686796
5	0x3defd21b	0.11709996
6	0x3e3e8ecf	0.18609165
7	0x3dea7168	0.11447412
8	0xbda361fa	-0.07977672
9	0x3e1926c4	0.14956194
10	0xbe486938	-0.19571388
11	0x3da4890f	0.08033954
12	0x3e0e40b8	0.13891876
13	0x3e84336c	0.25820482
14	0x3e234da1	0.15947582
15	0xbe272e67	-0.16326295
16	0xbd27fbb4	-0.041011527
17	0x3dd890ba	0.105744794
18	0x3cbaf416	0.022821467
19	0xbdc9c6f9	-0.09852404
20	0x3e4e4514	0.20143539
21	0xbe01c82d	-0.12674017
22	0xbd03a510	-0.032139838
23	0xbe81cdc2	-0.25352293
24	0xbd5df026	-0.0541841
25	0xbcf80be7	-0.030279113
26	0xbe25365e	-0.1613402
27	0xb98370ad	-0.00025070217
28	0xbe26ab59	-0.16276301
29	0x3da92544	0.08259061
30	0x3e167053	0.14691286
31	0xbe13e8ac	-0.14444226
