backend/stocks/price/pt_models/ANSS.pt (torch, 54435 bytes, 9 tensors)

lstm.weight_ih_l0 f4 [128, 1]
00000000: c0ce 29be a595 b83d fec3 b03d 933f 983e
00000010: ab62 1f3d c342 aa3d f0db 333d 611a b43d
00000020: 146a adbc 5ced 333e cd28 d13c e6ae 15bd
00000030: 1b79 b33c dbf5 3c3d 2b6a 913d 6ffd 24be
00000040: 9524 403d 9732 f93d 7ede 24be 1009 613d
00000050: aaec babc 2aec ff3d e6c4 113e c6b9 333d
00000060: 8fc0 f43d 94ed ddbd e3df 01be 610d cabd
00000070: 5a3f ac3d c627 16be 0f41 60bd 1f57 3a3e
00000080: dfed 15be 07d4 893e f6d0 21bd 6e3b 3a3e
00000090: 858e e9bd 3523 bc3d dad4 dc3d de6d 4b3e
000000a0: 22ec 45be d9db c1bd b4ee 70be 5bcd 963d
000000b0: 2d57 873e ba00 68bd cbdc ea3d 1878 b13d
000000c0: 4054 f83d 451e 33bd 78ef cf3d 2a80 1e3d
000000d0: 8503 acbe 4bb0 f1bd d740 8d3b 00bb ca3d
000000e0: 8707 08be ad02 cdbd dc66 ec3c 69d5 25bd
000000f0: 830b 043d 27e8 70be bbea cfbd d76f eb3c
00000100: 9131 803e 6eb8 003c 61ea 2d3e 85d0 ea3d
00000110: 5f0b 2b3d 87ab 1b3d b965 5bbd a819 66bd
00000120: 5b54 f63d a3a1 03be dcf5 603e 71cd c73d
00000130: 3e4e 403d 490e 77be 001c 113e 084e 573e
00000140: 18d1 2cbe c77e 6bbc 44a4 2bbd 3200 7c3d
00000150: 58a2 9b3e 7a91 e0bd b3a3 1ebe 1aaf 733d
00000160: 3488 133e 5353 0e3e f345 62bd 75fb 013e
00000170: 3969 cb3d d48a 82be 4ea3 153e 6263 1fbe
00000180: 5c96 133c b75c 6cbd 6252 993d 5381 5a3e
00000190: 7017 b3bd c709 05be 381b b33c d87f 123e
000001a0: 0fa8 13be 6833 5b3e 379b 78be ddc6 c23a
000001b0: a887 aa3e d39a 61be 102d b1bd 87fb 8fbd
000001c0: 1550 8d3d 8d18 b03c 920e 0abc 2330 fe3d
000001d0: d0dc a7bd e14c ca3d c147 833e 260a fb3d
000001e0: c683 84bc 1b47 45bd 38ba c6bd 0af4 8abd
000001f0: ed74 683c 3636 8fbd 0484 74bb 1706 813d
-0.16582775 0.090129174 0.086311325 0.29736003 0.038912456 0.08313515 0.04391092 0.08794094
-0.021168746 0.17571014 0.02553215 -0.03654375 0.021908334 0.046132904 0.07100328 -0.16112302
0.046909887 0.12167852 -0.16100499 0.054940283 -0.022817928 0.124962166 0.14235267 0.04387834
0.1195079 -0.1083633 -0.12683062 -0.09865833 0.08410521 -0.1466361 -0.054749545 0.18197297
-0.14641522 0.26919577 -0.03950592 0.18186733 -0.114041366 0.09186403 0.10782786 0.1986613
-0.19328359 -0.09465761 -0.23528558 0.07363387 0.26433697 -0.056641318 0.11467894 0.08665484
0.121254444 -0.04373004 0.10153097 0.038696446 -0.33596435 -0.11801203 0.004310708 0.09898949
-0.13284121 -0.10010276 0.02885764 -0.040486727 0.03223754 -0.23526059 -0.10152193 0.028739853
0.25037816 0.007856471 0.1698394 0.11465553 0.04175889 0.038005378 -0.053563807 -0.05617681
0.12027808 -0.12854628 0.21968788 0.09755982 0.046949618 -0.24126543 0.14170837 0.2102586
-0.16876638 -0.014373488 -0.041904703 0.061523624 0.30397296 -0.109652475 -0.15492134 0.05949316
0.14407426 0.13898973 -0.05524249 0.1269358 0.09932179 -0.25496542 0.14613077 -0.15565255
0.009008016 -0.057705607 0.074864164 0.21338396 -0.08744705 -0.12992011 0.021863565 0.14306581
-0.14419578 0.21406329 -0.2427796 0.0014860291 0.33306623 -0.22031717 -0.08651173 -0.07030397
0.0690004 0.021496082 -0.008426325 0.12411525 -0.081964135 0.09877945 0.2564068 0.12257795
-0.016176116 -0.048163515 -0.09703487 -0.06784828 0.0141880335 -0.06992762 -0.0037310133 0.0629999

lstm.weight_hh_l0 f4 [128, 32]
00000000: f8ce 333e 59c9 b7bd 665b f13c 3f84 283d
00000010: 4181 993d 3520 0dbe 1f7a aa3d 0a5d 0e3e
00000020: e382 afbc e978 283e f42f f2ba 3e2b 81bd
00000030: 9839 313e d682 09be b107 e8bd 5ad4 c5bc
00000040: f565 78bd 7478 afba 38bb 953d 04cf 9dbd
00000050: d047 14be e942 463d 66ab 4e3d 52b8 4fbd
00000060: 0c31 323e fccf b43d 6d70 7d3d eab4 80bd
00000070: d2a9 ce3d e4d0 1ebe b3b4 153e 74e0 21be
00000080: 214e 853e 7c1e 50be 8d49 1a3e 97eb 0e3e
00000090: 6b7b f93d 2179 0e3e d555 15be 1840 2d3c
000000a0: 01e0 cf3b 566e 30be e1c7 903d 397c 163e
000000b0: 0184 0d3e 61bd 90be 18f0 303e 7751 183c
000000c0: 36e9 96ba 7a3a 37be ab5c 103d 6a42 a6bd
000000d0: 5f3d 483e 94c5 8cbe 9db3 c73d 779e 753e
000000e0: 421a 523e 7464 33bd ae20 cfbd d3a5 053e
000000f0: 699b 8d3e 23a5 24bd 87fa 613e e452 b7bd
00000100: bac4 a0bd d7c1 b1bc b59f 3c3d c6ed 90be
00000110: 78b4 7e3c af56 453e 7ac9 e93c f420 1dbe
00000120: cc45 e0bd 5bd4 693d deb8 0a3d e414 3dbd
00000130: a1a7 1e3e 959b 5c3d 8309 2ebe 82ff fd3d
00000140: a8bb babd 8040 bfbd 502b a03d f5c0 053e
00000150: 20cd 0f3e 3257 cbbd b4c3 9fbd 1a1c d33d
00000160: 8fe6 fcbd 28a5 6a3d 4034 2bbe 0c74 153e
00000170: 2f84 febd c500 26be 3c1a 9ebc f926 db3d
00000180: 22bb 88bc 7e44 96bd 3756 f9bd a591 80bd
00000190: b0fd c3bc 6a60 323e aebf dd3d 8f6d 973d
000001a0: 780a 0d3e d3fb 8c3d bcc5 103d c69c 453d
000001b0: d267 e83d 0733 6a3d 27a3 57bd f1b2 113e
000001c0: 7308 10bc 32ee 69be 9810 6dbd ebc6 1bbe
000001d0: 4b30 4b3e 8686 883d 4ce1 5fbe 6eba cf3d
000001e0: 4521 c0bd 1e11 a63d de08 13bd ecea c73d
000001f0: 757d 7c3d 8198 7dbe 65fd b53d a951 e03d
00000200: 581f 9dbd 5f95 7abd 5059 643e 1029 1cbe
00000210: d1fd 623e 1bf7 a23c 51f7 6e3d 840d 27bd
00000220: dc98 103d 5b8c 8a3d 94cf e93d bba9 a63d
00000230: 079a 92bd 4ec6 5cbd 21eb 603e 656a 023e
00000240: 6c38 c2bd e92a 363d 50a3 37be e616 12bd
00000250: 614a 50bd 2d3d 70be bc59 1c3d c786 7a3c
00000260: 55ae af3d a5b2 a83c 0d4c 4cbe 09b3 e53d
00000270: 3a53 893d fd66 033a a736 9f3d 716d c7ba
00000280: a094 c33d 3eb5 643d 0b4e c03d 0843 81be
00000290: 6ce9 ecbc 5160 85bd 4ce0 ca3d 06f5 0e3e
000002a0: 0adb 1bbe 9634 2d3d 3e0c 9c3d 0e54 033e
000002b0: 5fc4 ddbd c1dc 7cbd e07a dcbd 7461 753d
000002c0: ddf6 debd 66d8 b4bd e917 96bd 979e 843d
000002d0: 5679 5c3e 5ba7 1abe f3c0 96bd f097 763d
000002e0: 15c6 8abd 5bcd fe3d c770 72bd 429c 7dbd
000002f0: c58c 393e a0fc 52bd 9825 383e 1164 98bd
00000300: 880b 88bc bc61 e9bd 079a 8ebc 7c93 a4bd
00000310: 7a31 113e 40e4 42bd 0c38 5e3c 1b06 46bd
00000320: 65b2 ac3d 11ad 463e fef0 063e 2778 6cbd
00000330: 4c8c 803d 7d5e d4bd 6780 c63d 1ba1 7a3d
00000340: cb0d 2e3c a462 5a3e 7671 2dbd eefd f3bd
00000350: ca97 373d 673c 12be bb1b 90bd eb74 813c
00000360: 03de 833d bb73 423d af08 ae3d 5eaf 1a3e
00000370: ab53 1a3d 5236 efbd e654 843c b21e 3c3d
00000380: e327 74bd 4778 b33d 1e12 2dbd d1a9 43be
00000390: eeeb cfbd 66ff de3d 1cf7 02be dfea 13bd
000003a0: 6af7 0e3e 4411 1abe 40b0 0d3e 374a 743d
000003b0: cca3 413e 8893 0c3c 2707 1d3e 65a3 073e
000003c0: ab67 2d3d 34ad 043d 3380 753d 1299 033e
000003d0: 9fa4 0f3e 97eb 43be f396 95bd ffb1 2a3e
000003e0: 96ae 463d 50aa 073e 1641 61bc 7ff8 113e
000003f0: f569 babc 2159 993d c6e8 13be d09c 39be
0.17559421 -0.08973951 0.029462527 0.041141745 0.07495356 -0.13781817 0.08324074 0.13902679
-0.021424716 0.16452374 -0.0018477426 -0.06307076 0.17307127 -0.13428816 -0.11329592 -0.024149109
-0.06064411 -0.0013387338 0.073111 -0.07705501 -0.1448052 0.048403654 0.050456427 -0.05071289
0.17401522 0.08828732 0.061874796 -0.062845066 0.100909844 -0.15509373 0.14619713 -0.15808278
0.2603617 -0.20324129 0.1506712 0.13957058 0.12181743 0.13913395 -0.14583524 0.010574363
0.006343842 -0.1722959 0.07069374 0.14695825 0.13819887 -0.28269485 0.17279088 0.0092967665
-0.0011513594 -0.17893401 0.035244625 -0.08118136 0.19554661 -0.2749449 0.097510554 0.23986231
0.20517829 -0.04379697 -0.10113655 0.13051538 0.2765763 -0.04019655 0.22068225 -0.08951357
-0.078500226 -0.021698875 0.046050746 -0.28306407 0.015545957 0.19271348 0.028538454 -0.15344602
-0.10950813 0.057087284 0.03386771 -0.0461625 0.15493633 0.053859312 -0.16995816 0.1240225
-0.09117824 -0.09338474 0.07820761 0.13061889 0.14043093 -0.099287406 -0.07800999 0.10308094
-0.12348663 0.05728641 -0.1671915 0.1459505 -0.12427556 -0.16211231 -0.019299619 0.10700793
-0.016690794 -0.073372826 -0.12174647 -0.062777795 -0.023924679 0.17419592 0.108275756 0.073939435
0.13773525 0.06883969 0.035344824 0.048245214 0.11347927 0.05717757 -0.05264583 0.14228417
-0.008791077 -0.2284477 -0.057877153 -0.152126 0.19842641 0.06666283 -0.21863288 0.101429805
-0.09381346 0.081087336 -0.03589713 0.09761605 0.061643083 -0.24765207 0.08886222 0.109530754
-0.07671994 -0.061177608 0.22299695 -0.15250039 0.22167136 0.01989322 0.058341328 -0.040784374
0.035302028 0.06765052 0.114165455 0.08137842 -0.07158285 -0.053900056 0.21964695 0.12735899
-0.09483418 0.044474516 -0.17933393 -0.03566637 -0.050852183 -0.23460837 0.038171515 0.0152909225
0.08578173 0.020592997 -0.19950886 0.11215789 0.06705327 0.00050126 0.07774096 -0.0015215111
0.09549832 0.05583691 0.093898855 -0.25246453 -0.028919898 -0.065125115 0.099060625 0.13960657
-0.15220276 0.042286478 0.076195225 0.12825033 -0.108284704 -0.061733965 -0.10765624 0.05990739
-0.10886929 -0.08830337 -0.07328779 0.06475561 0.21530661 -0.15102904 -0.07361021 0.060203493
-0.067760624 0.12441512 -0.059189584 -0.061916597 0.18120106 -0.051510453 0.17983091 -0.07440961
-0.016607061 -0.113955945 -0.01740743 -0.08035943 0.1417903 -0.047580957 0.013563167 -0.048345666
0.084324636 0.19401957 0.13177869 -0.057731774 0.062767595 -0.10369585 0.096924596 0.0611888
0.010623406 0.21326691 -0.042344533 -0.119136676 0.04482249 -0.14280854 -0.07036539 0.015802821
0.0643883 0.04747365 0.0849775 0.1510596 0.03767745 -0.11680283 0.016153764 0.04592771
-0.05960835 0.087631755 -0.042253606 -0.19107749 -0.10152422 0.10888557 -0.12789577 -0.036112662
0.13961568 -0.15045649 0.13836765 0.05964109 0.1891014 0.008580096 0.1533476 0.13245924
0.042335194 0.032391742 0.059936713 0.1285136 0.14027642 -0.19132839 -0.07304182 0.16669463
0.048506342 0.13248563 -0.013748428 0.1425495 -0.022755602 0.07487703 -0.14444265 -0.18126225

lstm.bias_ih_l0 f4 [128]
00000000: b0d0 3b3e 6222 88be 8f29 4dbc 929b 9d3c
00000010: ec7c 5ebe dc14 b53d f200 98bd a18c c23d
00000020: 3809 5e3d 31d6 95bc dace 95bd b063 333e
00000030: d16d 8fbe aa99 f9bd 884a 52be e078 a7bb
00000040: dbe9 30be 91b4 bbbe 2215 29be 60ad 7bbd
00000050: b654 bd3e ddf0 05be 6175 33be 5b56 373d
00000060: 64b3 2dbd ac22 be3d fd7c 9d3d 41f6 54be
00000070: 5a38 303e df52 773c ce81 123d 9a20 79bd
00000080: f2c3 303e 5014 fabd 9d1b f6bd ee4e 62be
00000090: e939 423d 1c75 28be 2846 193e bfa3 27be
000000a0: 168c 453e ccae 39be 216c a63c d48e 263e
000000b0: 6751 79bd 03c8 873d ebdb 37be aa1c 90bd
000000c0: 36e1 023d b9cd a7be 0708 073e 65d3 66bd
000000d0: 4f0c ca3e 58c2 163e 2e13 45be 68ff 76bc
000000e0: 2419 2dbe 0d7c 3fbe 2aa8 39be d973 023d
000000f0: 0f0a 8b3d 6893 d93d 75a4 03bd d9b5 55be
00000100: 3d83 543d 9ed1 a73d fdd0 163e ec29 b33c
00000110: c28a 8f3d 262c acbd 7b03 543d b53c 073e
00000120: 5e75 63be e5ee 68bb 228a 863c df98 49be
00000130: cf77 0f3e 908b 523e 218d a3bd f409 11bd
00000140: 5ee9 0ebe 56ae 213e 45fa 603e 0b44 15bd
00000150: af56 773d 887e 47bd 156b 08be a8a2 093e
00000160: b817 ecbd b14b eebb e8a2 c03d 64cb 2abd
00000170: 9d38 c9bd 68b0 163e 857d c0bd 89c2 29bc
00000180: a4eb df3d 309d 053c eb48 823d b5b5 65be
00000190: ea21 82bd 8cab db3d f813 183e 03a1 dd3d
000001a0: dd99 653d b59a 9c3d 1c25 6fbd 1a68 2f3c
000001b0: a87a 03be e45d 96bc 0d18 28be b14e 59bc
000001c0: 1daa 9b3d f5f4 3cbe 6870 1ebd f8a0 d9bc
000001d0: a396 cf3e 3fae 3f3c 4a97 6fbe b237 553d
000001e0: c227 04be 91d9 0e3d 5a0b 3f3d 3beb 51be
000001f0: ee64 eebb d119 16bd 7b6f 96bd 39b2 473c
0.18341327 -0.26588732 -0.012522115 0.01923922 -0.21727341 0.08841869 -0.07422055 0.09499479
0.05420801 -0.018290611 -0.073148444 0.17518497 -0.2801347 -0.12187512 -0.20536244 -0.005110845
-0.17276709 -0.366612 -0.16511968 -0.06144464 0.36978692 -0.13080163 -0.17525245 0.04476009
-0.04240741 0.09283957 0.07689855 -0.20797063 0.17208996 0.015095442 0.035768323 -0.060822107
0.17262247 -0.122109056 -0.120169856 -0.22100422 0.04741851 -0.16450924 0.14968169 -0.16371058
0.1929172 -0.18133086 0.020315232 0.16265422 -0.060868647 0.06629946 -0.17954986 -0.07036717
0.03195306 -0.3277414 0.13186656 -0.056353945 0.39462516 0.14722574 -0.19245598 -0.015075542
-0.16904122 -0.18699665 -0.18130556 0.031848762 0.06789028 0.10623819 -0.03213926 -0.2087015
0.05188297 0.08194278 0.1472816 0.021870576 0.07008888 -0.08406858 0.05176113 0.13206752
-0.22212741 -0.0035542783 0.016423289 -0.19687222 0.14010547 0.20561051 -0.079859026 -0.035409883
-0.1395621 0.1578916 0.2197047 -0.036441844 0.060385402 -0.048704654 -0.13322099 0.13440955
-0.115279615 -0.0072722067 0.09406072 -0.041697875 -0.09825251 0.14715731 -0.09398941 -0.010361322
0.10933617 0.008155152 0.06361564 -0.22432597 -0.06354125 0.10726079 0.14851367 0.10821726
0.05605494 0.076466955 -0.058385 0.010705972 -0.12839758 -0.018355317 -0.16415425 -0.01326339
0.07600806 -0.18452819 -0.038681418 -0.026566014 0.40544614 0.011699258 -0.23397556 0.05205507
-0.12905791 0.034875456 0.046641685 -0.2049989 -0.0072752154 -0.036645714 -0.07345482 0.012188488

lstm.bias_hh_l0 f4 [128]
00000000: a5c3 773d 1afb 92be 1655 533d b291 963d
00000010: bd3d 1fbe bd70 56bd f841 d3bd 42d9 1ebe
00000020: fb5c f9bc 04b5 6cbe c0f1 aabc 45f6 7dbc
00000030: 2b95 b2be 6c22 263d fe49 6fbe 3ac7 e7bd
00000040: 6b0b 4abe b119 2bbe fb64 113b a2c4 20be
00000050: d4ba be3e 49c4 553b 7605 69bc c163 0fbe
00000060: 7b6c 033e cf80 11bb 4a7d 14bc 6dd1 43bd
00000070: 4e88 2dbd 93fb 9bbd c60c 0a3e e591 9e3d
00000080: 0481 41bd 4a07 99bd 3917 30be 33ec 553c
00000090: 86ae 9d3b e066 b03d 8e85 27be 0723 98bd
000000a0: 3f82 ac3d 0c40 4abe ff71 883d bccc 9fbd
000000b0: 1141 843c 07cd d03d 2618 c83d 4bf3 c33d
000000c0: c01b e4bd 1615 debc a8e6 2cbe 7d73 3dbe
000000d0: cee4 703e b755 1abe ddd4 2bbe 7fba 963d
000000e0: 6c6e 10be 0af8 2f3d 2e14 093e 2987 aa3d
000000f0: d28a ec3c 3257 ecbd ab78 1ebe 8918 2abd
00000100: 25ac 2a3c 1e8b 853d de43 e9bd 33a6 70bd
00000110: bcc6 40bc 03e1 02be 10ca ed3c ee34 633d
00000120: 5a89 a5bd 14da 523b d9aa 2bbd bab7 16be
00000130: ddef cfbb 9fd8 5c3b e358 2d3d 1c2b 21be
00000140: 021b 17bd 3b9a 10be 8e3b 06be 3b68 9abd
00000150: 800e f33d 1218 913d 6e31 efbc 8c39 0cbe
00000160: 2bdf 563d abd8 07be a082 693d b12c 88bd
00000170: 6969 2dbe 6d41 093e c3d7 713d 3783 52bc
00000180: 1e5e bfbd 4694 373d 1ce6 e83d c400 cfbb
00000190: 8f85 e3bd 5f40 f03d c7f3 353c 1a49 d9bd
000001a0: 2671 e93d 6c34 d1bc e623 023e a18e cb3c
000001b0: f004 acbe ec32 b2bc 30f0 48be bba4 a8bd
000001c0: 0265 20bb 9927 36be f907 8bbd a52a 193d
000001d0: 6268 c33e 6c38 6ebd 148f 56be a3a7 05be
000001e0: 0268 113e 711f 073d e4e1 bdbd 40fb ba3d
000001f0: 3229 1c3e eb3c 0f3e a24d 8dbd dfeb c9bd
0.060489316 -0.287072 0.051594816 0.07352008 -0.15550895 -0.05235361 -0.10315317 -0.15512565
-0.030439844 -0.23115927 -0.020867229 -0.01550061 -0.3487943 0.04056017 -0.2336807 -0.11317296
-0.19730918 -0.16709019 0.0022185433 -0.1570001 0.37251914 0.0032618216 -0.014222493 -0.14002897
0.12834351 -0.002220202 -0.009063074 -0.047807146 -0.04236632 -0.07616343 0.13481435 0.07742671
-0.04724218 -0.074720934 -0.17196359 0.013056803 0.0048120646 0.08613372 -0.16359541 -0.07428556
0.0842328 -0.19750994 0.06662368 -0.07802722 0.016144307 0.10195356 0.09770231 0.09567889
-0.111381054 -0.027109664 -0.16884863 -0.18501087 0.23524782 -0.1507176 -0.1678042 0.0735979
-0.14104623 0.042961158 0.13386604 0.08326561 0.028874788 -0.11540069 -0.15475719 -0.041527305
0.010417019 0.06520675 -0.11389898 -0.05875225 -0.011766132 -0.12781148 0.029027015 0.0554704
-0.08082838 0.0032173442 -0.04191098 -0.14718524 -0.0063457326 0.0033698452 0.042321097 -0.15739101
-0.03689099 -0.14121334 -0.13108656 -0.07539412 0.11868 0.07084669 -0.029198375 -0.13693827
0.052458923 -0.13266246 0.05700934 -0.06649149 -0.16934742 0.13403864 0.059043657 -0.012848667
-0.09344123 0.04481914 0.11372015 -0.00631723 -0.11109459 0.11731028 0.011105484 -0.10609646
0.113985345 -0.025537692 0.12709007 0.024848284 -0.33597517 -0.021752797 -0.19622874 -0.08234545
-0.0024474268 -0.17788543 -0.0678863 0.037394185 0.38165575 -0.058159277 -0.20953017 -0.1305223
0.14199832 0.03298897 -0.09271601 0.091299534 0.1525009 0.13988082 -0.06899573 -0.09859442

lstm.weight_ih_l1 f4 [128, 32]
00000000: 47c1 0ebd e96a c83c 407f 20be 2689 da3c
00000010: b46c 6bbd 109e 16be 9310 863d f9d0 083b
00000020: 67bb 49bd cc58 253e b539 82b9 ae84 57be
00000030: 5fc5 a6bd 2254 693d 6cf8 8cbe 78d5 70be
00000040: 905d a2bc 6c86 15be 2711 373d 20a9 773d
00000050: 0602 b1be 5324 c53d 3265 913d e51b be3d
00000060: f9fc 26bd a6ee 7ebe bc22 463d 4641 edbc
00000070: f494 d5bd 4722 1e3e e775 803d 13ee f03d
00000080: 648f 20bd cd3c ab3d 111b 32be 546a 83be
00000090: 4b98 05be cd63 6f3b 5417 253e 8e6d 7cbd
000000a0: 141e 3cbe 22b2 18bd 4b34 013b c1c5 413d
000000b0: 74a5 14be 6651 593d 9c9c ffbc b5e7 46be
000000c0: 2322 733d 6263 e3bd 6475 2d3e ff78 b43a
000000d0: e305 59be c57b 7b3e 34b1 42bd 8b2e 14bb
000000e0: be94 febd d247 093d c919 523e fd1b 98bd
000000f0: cf84 5abe e483 073e 30e5 8bbd 6796 d2bc
00000100: ddde eebd 0302 303e 7f2c 54be 37f5 823d
00000110: bf76 6dbd b113 02be 1d45 2ebc 8a15 6abd
00000120: ceb2 7fbe 5b3d 623e 0719 1dbd 7b83 4bbd
00000130: 2231 803c 918d 923d 5ed4 3abe a887 72bd
00000140: e4eb 0bbe e342 00be 5403 29bd 3f1c 923c
00000150: fc77 bdbe 6a6d 75bd b5b3 583e b7b3 59be
00000160: 562b f9bc c438 2fbd a2b2 2f3d 10c0 88be
00000170: e3f2 d03d fa56 853c b91d 10bc b747 043e
00000180: c16b 5b3e 3475 b63d 4092 8abd 0748 4cbd
00000190: aa0e 263e ede0 2b3e 9a0c 0dbe 4983 4fbe
000001a0: 07bc c13c ee33 973c b131 d83d 67a9 2dbd
000001b0: b920 cbbd dc07 173d a9c4 843d 84d3 6f3e
000001c0: 3970 d43a de24 efbc f1e4 b73c f507 4d3e
000001d0: b452 0ebd 807c d9bd 05c2 923d b514 63bc
000001e0: 8f5d 8fbd 624d 223c 4055 823d 3912 6a3d
000001f0: 9c1d dbbd 771e 8dbd b560 053d ffe7 14be
00000200: 0ca7 6fbe b689 ba3d 2ead 11be d5fc eb39
00000210: 5571 26be ee75 ebbd 682c 8ebd 5e85 813c
00000220: c468 34be 8f30 223e 6032 6fbe e027 8c3d
00000230: 960d 1fbe a39a cd3c ba94 bfbd 951a d2bd
00000240: eb67 22bd 414a 1a3e 5539 f0bc 2bd0 95bd
00000250: 818f fbbe 10f1 c4bd dab8 ee3d cea5 2ebe
00000260: 8be3 25be 7a2c 2dbe e6f1 adbd cb3c 12be
00000270: a650 c53d 670c 3f3e b3e0 ed3d 6e88 debc
00000280: ec0f 45bd 2165 a8bd 09c1 423e a4af 2ebd
00000290: bb8f 43bc 5905 5cbd 999d db3d f289 efbd
000002a0: ed89 e2bd 3e66 963c 59ea fa3d 7a52 2fbd
000002b0: 77eb c1bd e9e8 e2bd db78 96bd b7c2 95bd
000002c0: 0f47 bb3d 71ee 7fbd 7718 4bbe 1f0b 873d
000002d0: 1ee6 e6bd 6b7c 023d d093 043e 72aa 693d
000002e0: 7448 e33d 3d16 e9bd 1fd3 bfbd 6d71 243e
000002f0: b28a 8bbb f5f0 7fbd 68f8 d33a 718f 30be
00000300: d16b 56bc 7261 93bd cbb7 713d a2d2 9dbd
00000310: 573c 7e3d 334c 873d 16ca 8e3c f803 aebd
00000320: 01f5 4a3d 91ad 98bd d4b0 1abe 450b 20bd
00000330: e51d 713d d2dd 8bbc eb02 57be 41b7 933c
00000340: 7261 553d a4b5 a83d d1ad fabc 6e2a eabc
00000350: 640c cabe c79a 0d3e 0616 653e 57f8 07be
00000360: f6f7 343c 3d91 90bc 5a64 1fbd 7970 58be
00000370: 03d7 cd3b d258 c4bc 03dd bebc cec9 4d3e
00000380: 59af 3f3d 7861 1dbd 4e8b cdbb 3b70 08ba
00000390: f644 f53d 6dde 613d a278 f3bc fb73 7fbe
000003a0: 758e c6bd cc6b 35be 910f a43d af5f c8bd
000003b0: f0ef 823c c326 a93d 7f42 663d 9000 643e
000003c0: c692 433e 4be0 32be 847f 0e3d a4ee 033d
000003d0: 9653 49bb 78cb b43d e5ad 083d 4e9a 353e
000003e0: 87ce 083e e715 973d 9040 303d 931f 6a3d
000003f0: 0d0a d03d 97cc 6bbd fd94 293e e804 18be
-0.034852292 0.024465041 -0.15673542 0.026676726 -0.057476714 -0.14708734 0.0654613 0.002087651
-0.049250986 0.16147155 -0.00024838527 -0.21046707 -0.08143114 0.056965 -0.2753328 -0.23518932
-0.019820005 -0.14602059 0.044694092 0.060464025 -0.34571856 0.09626069 0.070993796 0.09282664
-0.040768597 -0.24895725 0.04837297 -0.028961789 -0.10428801 0.15442763 0.06272488 0.11764159
-0.039199248 0.08361206 -0.17393138 -0.2566706 -0.13046376 0.0036527992 0.1612218 -0.061627917
-0.18370849 -0.037279256 0.0019715007 0.047307733 -0.1451624 0.053056143 -0.031202607 -0.19424327
0.059358727 -0.1110294 0.16939312 0.001376897 -0.21193652 0.24558933 -0.047532275 -0.002261075
-0.12430714 0.03351576 0.20517649 -0.07427213 -0.21339725 0.13233906 -0.068308234 -0.025706483
-0.116636015 0.17188267 -0.20720099 0.06394427 -0.057974573 -0.12702824 -0.010636595 -0.057149448
-0.24970552 0.22093718 -0.038353946 -0.049685936 0.015648428 0.07155908 -0.18245074 -0.059211403
-0.13664204 -0.12525515 -0.04126294 0.017835734 -0.37005603 -0.0599188 0.21162303 -0.21259962
-0.030416172 -0.042778745 0.042894967 -0.26709032 0.10202577 0.016276825 -0.008796149 0.12917982
0.21427824 0.089090735 -0.06766176 -0.049873378 0.16216531 0.16785021 -0.13774338 -0.20264925
0.023649229 0.01845738 0.10556353 -0.042397883 -0.09918351 0.03687273 0.064828224 0.2342053
0.0016207761 -0.029192384 0.022448035 0.20022567 -0.03474684 -0.106194496 0.071659125 -0.013859917
-0.07000267 0.009906145 0.063639164 0.057146285 -0.10699007 -0.06890576 0.03256293 -0.14541624
-0.23403567 0.091082975 -0.14226219 0.00045011067 -0.1625417 -0.11497103 -0.069420636 0.015810665
-0.1761809 0.15838836 -0.2335906 0.06843543 -0.15532526 0.02509815 -0.09354539 -0.10258976
-0.039649885 0.15067388 -0.029324213 -0.073150955 -0.49132922 -0.096162915 0.116563514 -0.17055437
-0.16200082 -0.16911498 -0.08493404 -0.14281003 0.09634523 0.18657075 0.116151236 -0.027164664
-0.048110887 -0.08222414 0.1901895 -0.042647973 -0.0119361235 -0.053716037 0.10723419 -0.11696233
-0.110614635 0.0183593 0.122517295 -0.042803265 -0.094687395 -0.1107958 -0.0734727 -0.073125295
0.09144413 -0.062483255 -0.19833551 0.06593918 -0.1127436 0.031856935 0.12947011 0.057047315
0.11097804 -0.11381195 -0.0936644 0.16058894 -0.004258477 -0.062485654 0.0016172053 -0.17242219
-0.013087229 -0.071963206 0.05901317 -0.07706191 0.062069263 0.06606331 0.017430346 -0.08496851
0.04955006 -0.0745498 -0.15106517 -0.039073247 0.0588664 -0.017073546 -0.20997207 0.018031718
0.052094884 0.0823777 -0.03060046 -0.028584685 -0.39462578 0.13828574 0.22371683 -0.13278328
0.011045447 -0.01764738 -0.038914062 -0.21136655 0.006281735 -0.023968134 -0.023298746 0.20096514
0.046798084 -0.03842303 -0.00627271 -0.0005204712 0.11976044 0.055143762 -0.029720608 -0.24946587
-0.0969514 -0.17716902 0.080107816 -0.09783875 0.015983552 0.08259346 0.05621576 0.2226584
0.19098958 -0.17468373 0.034789577 0.032210007 -0.0030719987 0.08827871 0.033368964 0.17734644
0.13360034 0.073772244 0.04303032 0.057159018 0.10158167 -0.05756816 0.16560741 -0.14845622

lstm.weight_hh_l1 f4 [128, 32]
00000000: 0f3f ca3d 01bc 0d3e 5c32 26be 7bbc edbd
00000010: 5f8f 5fbc 8945 e63d d892 553c 3f0a 0e3e
00000020: 52ee 66bd 5b82 11be 88de a43c 83e8 13be
00000030: 5221 603a af15 133d 1009 84bc 8c79 22be
00000040: d8f7 c5bd aa74 05be 1c30 04bd 03a0 ba3d
00000050: 469d 67be 6e0c d9bd 3cae da3c d708 39be
00000060: 52cd 953d 9a5f 923d d28d 8ebc 3613 f3bd
00000070: f89c a43d e45e 9e3d aaf5 e83d 47d2 cf3c
00000080: eb5b 833e a48e 4d3e 1bc0 73be 630e 623d
00000090: 097a 983d 0895 1abd 699a 69be d5dc 553d
000000a0: 32d8 50bc 20e9 25be f88b 523e c45a 463d
000000b0: 3572 b0bb c84b c03c f7b8 f2bd 8556 11be
000000c0: 1679 dd3d 8811 283e 57f1 313c 64dd fb3d
000000d0: d8dc 84be 864d 55be 9828 31bd c9cf 4ebe
000000e0: c801 193e a921 ca3d aa76 a7bd f096 0a3e
000000f0: f4c8 8bbd 3c87 aebb f9b3 9cbc e172 0d3d
00000100: 85c3 b93d c67f 553e 054c dabd a2f7 72bd
00000110: 080b 17be cd3c 043d 353a 69bd 1b0b 41be
00000120: 856e 6dbd b82d 00bd 08a9 eabc a226 033e
00000130: 93e9 7dbd 70b0 29bc ac3f 56be c7b8 abbc
00000140: f284 673c eac0 263e 3abb 793d c22d 08be
00000150: 0fda 06be a2c7 453d e3d8 43be d7a2 363d
00000160: fd27 8f3d e88a 6bbe c188 abbc ccb3 dcbd
00000170: 3fb1 f9bd 8c33 363d 1edd eebd dfec 82bd
00000180: 2c02 5e3d 4865 803d 51c0 d3bd cddd 1f3e
00000190: cd7a bb3c 6aa1 913d 3b38 1f3e cc28 a63d
000001a0: 721f a1bc 8393 953d f222 2d3e 7850 103d
000001b0: a47b 823d 5a52 cd3d 2316 933d 9398 d4bd
000001c0: bd3b 8a3d b567 c73d 18af 4d3c 7775 b53c
000001d0: f5d3 393d 384a 623c a94e 583d f106 70bd
000001e0: 6a30 82bc 5e0d 323e c8e0 d1bc 9ce9 393d
000001f0: ac8f c43d e5af a0bd c272 953d 2719 67be
00000200: 8bea 82bc ecbf 1abe 9b09 c4bc 388d a1bd
00000210: 47a7 053e 41fc 193e caf1 993c 7c58 24be
00000220: 7f7b 963d a2b1 a1bd b5ad 9f3d 3e0a 1fbd
00000230: 7479 13be 0643 44be 3e1b 2abe fed9 01be
00000240: 8d57 423e d727 65bd 8add 27bd d999 0d3e
00000250: d333 32be 3430 923c eabb ea3d 0098 003a
00000260: 529e d0bc a34d 0fbe 6721 d5bd 86ee 523d
00000270: 0a4c 80bd f8b1 073c 70e0 153c f77c c7bd
00000280: 2caa 04bd a25b 24be cd78 e63d 174b 623d
00000290: ec2b a73d 7200 eebc 47a3 fcbd fe00 ccbd
000002a0: 1afd f1bd 694a 13be 32ba 0b3e 6c2e c5bc
000002b0: b290 72bd 6f35 11bd 51c3 973d 314e 363d
000002c0: e535 8abd 51fb 5f3e 507f 143e 2e6e 74bd
000002d0: 90d0 6fbb c169 c2bd 5ad1 dc3d 3164 5b3e
000002e0: cf75 d7bc 7e3b ccbc 9256 823d 1bce 813d
000002f0: 1d04 4b3e 200c 5d3c 810b b13d 0998 643d
00000300: 7a52 3f3e 5743 6e3c 26ae 39be 9656 483e
00000310: 2fbc ed3d 587a bbbd f58f da3d e38f 043e
00000320: 95d1 acbd d6d0 18be 5c8a 13bd 4475 a7bd
00000330: 0686 593c e769 c4bd 8ed4 ccbd 4d3d de3d
00000340: 84dc 833d 1608 373e 7425 19be ec2f cabd
00000350: 4eb3 39be eaca 34be 3fe6 873c 6360 3e3e
00000360: 3bf3 273e eca9 e2bc 9abc b33d 2c65 80bd
00000370: 4de7 3a3e 425c 343e 126f 87bd 4eee 8f3d
00000380: b9a8 3bbe 14b7 0cbe ebd9 583e b35d cb3d
00000390: ce86 c23d 4a8f 443e 863b 263c 5173 97bd
000003a0: 08b4 ed3b adcd 003e 36bf 803c ab3b ebbd
000003b0: ab52 653e 7489 2abd 9ba7 303d d567 a9bd
000003c0: 3a74 303d 90bf 7d3c dc0e 253e 780e 1fbe
000003d0: d9ee d8bc b9de 883d 1527 3bbd 63f4 15be
000003e0: 7c1b 143d 6774 acbd d5fd 0ebe c7a1 393e
000003f0: 32c6 1f3e 71f8 7abd da47 f13d 5d14 1cbe
0.09875309 0.13841249 -0.16230148 -0.116082154 -0.013645022 0.112437315 0.013035499 0.13871096
-0.056379624 -0.14209883 0.020125642 -0.14444165 0.0008549887 0.03590935 -0.016117603 -0.15866679
-0.09666413 -0.13032785 -0.032272443 0.09112551 -0.22618589 -0.10598074 0.02669441 -0.18069778
0.07314552 0.07147141 -0.01740161 -0.118688986 0.08037752 0.07732943 0.11374982 0.025368823
0.25656065 0.20073944 -0.23803751 0.0551895 0.07445151 -0.037739784 -0.22812809 0.052212555
-0.0127468575 -0.16202211 0.20561206 0.048426405 -0.0053847083 0.023473635 -0.118516855 -0.14193161
0.10814111 0.16412938 0.010860763 0.12298086 -0.2594974 -0.20830354 -0.043251604 -0.20196451
0.14942086 0.098697014 -0.0817693 0.1353414 -0.06825438 -0.00532618 -0.019128786 0.034533385
0.090704955 0.20849523 -0.10659031 -0.059318192 -0.14750302 0.032284547 -0.056940276 -0.18851893
-0.057966728 -0.0312936 -0.028645054 0.12807706 -0.06199033 -0.010357007 -0.20922726 -0.020962132
0.014130818 0.16284528 0.06096957 -0.13298705 -0.1316912 0.048286088 -0.19125704 0.04458889
0.06990049 -0.23002207 -0.020939233 -0.10776481 -0.1219201 0.044482753 -0.116632685 -0.06392836
0.05420129 0.06269318 -0.10339416 0.15611954 0.022885704 0.071108654 0.15548794 0.0811325
-0.019668315 0.07303526 0.16907862 0.03523299 0.06371239 0.10025473 0.071819566 -0.10380664
0.067496754 0.097365774 0.012553953 0.022150738 0.045368154 0.01381164 0.05280939 -0.05860037
-0.015892226 0.17387912 -0.02561988 0.045388803 0.09597716 -0.07846049 0.07297279 -0.22568189
-0.01598098 -0.15112275 -0.023930361 -0.078882635 0.13052092 0.15037633 0.018792052 -0.16049379
0.07347774 -0.07895209 0.07796804 -0.038828127 -0.144018 -0.19166192 -0.16611955 -0.12680814
0.1897871 -0.055946197 -0.04098276 0.1382822 -0.17402582 0.01784525 0.11461623 0.0004905462
-0.025466118 -0.1399446 -0.104067616 0.051497005 -0.06264503 0.008282177 0.009147748 -0.09740632
-0.03238885 -0.1605058 0.1125351 0.055247393 0.08162674 -0.029052947 -0.1233583 -0.09961127
-0.118158534 -0.14383854 0.13645247 -0.024069987 -0.059220023 -0.03545135 0.074103005 0.044508163
-0.06748561 0.21873213 0.14501691 -0.059675388 -0.0036592819 -0.09492827 0.10782118 0.21424939
-0.026301293 -0.024930712 0.06364168 0.063381396 0.19825788 0.01349166 0.08644772 0.055809055
0.18683806 0.014542422 -0.18132839 0.1956428 0.11608159 -0.091541946 0.10671989 0.12945513
-0.08438412 -0.14923415 -0.03602062 -0.081766635 0.013276583 -0.09590512 -0.10001479 0.10851536
0.064385444 0.17874178 -0.14955693 -0.098724216 -0.18134806 -0.1765553 0.016589282 0.18591456
0.16401379 -0.027668916 0.08776207 -0.06269297 0.18252297 0.17613319 -0.06612982 0.07027875
-0.18326081 -0.13741714 0.21176879 0.09929981 0.09498368 0.19195285 0.010146027 -0.07395042
0.0072541274 0.12578459 0.015716176 -0.1148599 0.22394817 -0.04163499 0.04312859 -0.082717575
0.043079592 0.015487567 0.1611895 -0.15532863 -0.026481079 0.06683106 -0.04569157 -0.14644007
0.036159024 -0.084206395 -0.13964017 0.1812812 0.1560295 -0.06127209 0.11781283 -0.15242143

lstm.bias_ih_l1 f4 [128]
00000000: 9ed9 ed3d 58eb 8e3e 0d36 bb3d 9aa0 1abd
00000010: 30d3 ec3d 907f 0bbc bbc4 233e 9d34 71be
00000020: 2d3f b03c c763 d2bb dd03 afbd dfb1 ec3d
00000030: d01c b5bc f2c1 75bd 2ea5 6d3e b624 5bba
00000040: 354c 39be ebe6 1bbe 1aef 47be 515e 86bc
00000050: 35b9 f63d 0463 bdbd a2b9 0bbe fdcc 14be
00000060: e720 343e 6f00 933d 6e4a 31be ee53 67be
00000070: 4b62 373d d50d 113e f2a3 84bd 5d72 423e
00000080: cf18 de3c f16b 0f3e b7fc e83d 0fc0 0d3d
00000090: 0fbf 94bd 7b0f 0e3d 291e b4bd 813b 59be
000000a0: 8552 a13d fa1f 5fbd ff8f 673d d1fe bc3d
000000b0: fb62 863d 48ff c63d 85f9 523e e2f3 0cbe
000000c0: 441a b53d a367 79bc f941 1ebe 96a9 62bd
000000d0: d8a7 323e 02fd 31bd 8000 223c e1a1 363d
000000e0: 564c 09bc 6981 873d 7d0d a0bd 76eb 9a3d
000000f0: f6e1 1c3d 69e0 993d 6170 413e 1b9c f53d
00000100: 1386 a03d f200 663e 0fed 89be 3e5c 1c3d
00000110: 356b c63d 6098 80bd 1be7 d8bd 1740 2b3e
00000120: 3fba 12be b363 d3bc 9ea4 3c3c f8a6 ad3d
00000130: 5128 19be 4622 863c 43fa b5bd 39ea ad3d
00000140: 9849 a03d add7 04be 631f b1bd 40f7 2a3e
00000150: 172e 51be df43 eebd 8ca5 18be 9710 803d
00000160: 94b0 ab3d 7ee7 5dbd 34e9 b63c 36ae 06be
00000170: ed2e 21be 25f2 6d3e 983f 0cbe 39ee f73d
00000180: fc02 cdbd db17 c6bd ec97 c43d 9fa9 f3bd
00000190: 574a 133e 956a 3d3c dd5b 0b3e ebd5 15be
000001a0: 3940 b53d a226 d7bd b989 3cbc 62ed 003d
000001b0: 3eeb 363e a3a0 1e3e 959b f9bd c088 c7bd
000001c0: 74cb 76be 3c4c d0bd 981a 38be 4796 20be
000001d0: d329 123d fe62 94bd dcdf 02bb 3a21 f43b
000001e0: 0133 2cbc 99f4 47be fddb 76bd eb78 04be
000001f0: 56c3 9ebd f0c0 1cbd fc6b e8bd 1d58 05bc
0.11613773 0.27913928 0.09141169 -0.037750818 0.11563718 -0.0085143 0.15993015 -0.23555227
0.0215145 -0.006420586 -0.08545659 0.11557364 -0.022108465 -0.059999414 0.23207542 -0.00083596574
-0.18095477 -0.15224807 -0.19524804 -0.016402395 0.12047044 -0.09247401 -0.13645032 -0.14531322
0.17590676 0.07177817 -0.17313549 -0.2259061 0.044771474 0.14165433 -0.064765826 0.18988939
0.027111439 0.1400602 0.113763265 0.03460699 -0.07263004 0.034682732 -0.08794815 -0.21214105
0.078770675 -0.054473855 0.05653381 0.0922829 0.06561848 0.0971666 0.20602997 -0.13764909
0.088429004 -0.015222463 -0.15454854 -0.05533751 0.1744684 -0.043454178 0.0098878145 0.044587974
-0.008380016 0.0661648 -0.07815073 0.07564442 0.03830143 0.07513506 0.18890525 0.119926654
0.07838073 0.22461298 -0.26938674 0.038173907 0.09688417 -0.06279063 -0.10590955 0.16723667
-0.1432886 -0.025804376 0.011513857 0.084791124 -0.14956786 0.016373765 -0.08885624 0.0849194
0.07826537 -0.12972899 -0.08648565 0.16695881 -0.20427738 -0.11634039 -0.14906901 0.06253164
0.08383289 -0.054175846 0.022327997 -0.13152394 -0.15740557 0.23236902 -0.13696134 0.12105984
-0.10010335 -0.09672519 0.09599289 -0.11897587 0.14383827 0.011561056 0.13609262 -0.14632384
0.0885014 -0.105054155 -0.011507445 0.031476386 0.17863175 0.15490966 -0.12187878 -0.0974288
-0.24101049 -0.101707906 -0.17978895 -0.15682326 0.035684418 -0.07245444 -0.0019969856 0.00745025
-0.010510207 -0.195269 -0.06026839 -0.12936752 -0.07752101 -0.038269937 -0.113487214 -0.008138684

lstm.bias_hh_l1 f4 [128]
00000000: 5cea 113e 546b c73d 96e7 3abd e409 5bbe
00000010: 5f0f 513a 01ea ae3d f533 693e 2947 41be
00000020: 1fe2 27bb 97b5 d6bc 0dcd 7dbe dc40 e5bd
00000030: 6932 853e 4e06 793d 53ef 7abd 50eb 653d
00000040: 11e8 19be edd4 a9bc f1a2 23be 41aa 34be
00000050: dffa 733c 2921 89bd 02bc ccbb 9233 3bbe
00000060: 5a44 ae3d b8c0 33be 3b9b 243e f0ef 5bbe
00000070: 1a1a 36be 196c 643e fbc0 0c3e 50af 0f3e
00000080: db67 c83d fe2d 4c3e 541c 6ebd e464 bcbd
00000090: 17d1 91bd c85b 123e 45ae 973d e1f0 ae3b
000000a0: ed0d 003d 5bf5 60be f1df 98bd 66bd e4bc
000000b0: a9e1 e53d 87d9 69bd ad82 e63d d141 66be
000000c0: f634 cdbc e9ab 133c e991 893d 84fa 51be
000000d0: fc16 023e cfce abbd 814f ac3d 049d f1bd
000000e0: 9ece c13d 9996 87be 4946 33be c3c2 613d
000000f0: 1402 87bd a36a ddbd 9bef 543d 4e7d 03be
00000100: d4df 183e 26c9 8c3e 11c8 53be 0256 e4bd
00000110: aabb 15bc 3ccd 93bd 91fe 5fbe e940 ef3d
00000120: 03d7 82be b6a4 90bd 129a 1ebe ca58 c7bd
00000130: a8b6 62be a43d 643e f3c0 83be 6fc0 b53d
00000140: 260b 54be e764 e6bb db6d 81bd ae3c a7bd
00000150: 71cd b8bd fcb9 bfbc b83c f4bd d2de 6bbe
00000160: 3d85 723e 274e e13d 5fba 46be ad80 963c
00000170: 581f f4bc 4012 df3d 4931 8dbe df63 233d
00000180: a6e1 1a3e f24b 273e c236 76bd ce76 49bd
00000190: 528c a1bd 47d5 b63d e7a6 63bd 6d21 06be
000001a0: 9ee7 b438 df49 c33c 364f 62be aed8 3ebe
000001b0: a6c9 b03a c721 0dbe 9a34 c33c 6a67 913c
000001c0: ee9d 8dbc 4cb2 44be 9931 09be 5468 633d
000001d0: 9b4e 183d f776 3d3d 61ba 063d 0a4b 09be
000001e0: 8d39 073c 3939 a7bc d168 9a3d f68a 3c3d
000001f0: d163 0d3e 14e6 19be 67ca 473e 1063 12bd
0.14249557 0.09737268 -0.045631014 -0.21390492 0.0007975008 0.085407265 0.22773726 -0.18874802
-0.0025616956 -0.026209636 -0.24785252 -0.111940116 0.26015022 0.06079703 -0.061263394 0.056132615
-0.15029933 -0.020731414 -0.15980126 -0.17643072 0.014891355 -0.06695778 -0.006247998 -0.18281391
0.08509131 -0.17553985 0.1607484 -0.21478248 -0.17783394 0.22306861 0.13745491 0.1403172
0.09785434 0.1993942 -0.058132485 -0.09198931 -0.07119959 0.14292824 0.07406286 0.0053387736
0.03126328 -0.21968596 -0.074645884 -0.027922343 0.11224682 -0.057092216 0.11255393 -0.22486044
-0.025049668 0.009013155 0.06717283 -0.2050572 0.1270408 -0.08389055 0.08413602 -0.117975265
0.09463237 -0.26482084 -0.1750728 0.05511738 -0.06592193 -0.10811355 0.051986318 -0.12840769
0.14929134 0.27497214 -0.20681788 -0.11149217 -0.009138981 -0.0721688 -0.21874453 0.116823025
-0.25554666 -0.07062666 -0.1548846 -0.09733732 -0.2213999 0.22289139 -0.25733146 0.088745944
-0.20707378 -0.0070310715 -0.063197814 -0.081658706 -0.0902356 -0.023404114 -0.11925644 -0.23034218
0.23683639 0.110012345 -0.19407032 0.018371904 -0.029800102 0.10892153 -0.27576664 0.039890166
0.1512514 0.16337565 -0.060110815 -0.049185567 -0.07888092 0.08927398 -0.055579092 -0.13098688
8.626211e-05 0.023838935 -0.22100529 -0.18637344 0.001348783 -0.13782416 0.023828793 0.017749507
-0.01728722 -0.1920864 -0.13397826 0.055519417 0.03718434 0.04625603 0.03289259 -0.13407531
0.008253467 -0.020413028 0.075395234 0.04603096 0.13807608 -0.15029174 0.19510804 -0.035739005

fc.weight f4 [1, 32]
00000000: 3076 14be 7468 58be 68eb 853d 237c 903d
00000010: cfc7 28be 7e00 543d 18cb 503e fcd1 f6bd
00000020: 8b8d 843d 20f9 23bd 56f6 c83d fc77 43bb
00000030: e598 563e fa30 83bd 335f 9d3d 2ff1 d5bd
00000040: a1b7 b03d 34a9 2b3d 1b17 79bd ecbc 90bb
00000050: fc10 c03d 3dad 313c 9e8c bf3d bc55 293e
00000060: 86ed 69bd 5369 1bbd 9f26 063e 02d6 7bbd
00000070: ffb3 1e3e a680 fcbd 9d7d 153e f97b 30be
-0.1449821 -0.21133596 0.06539041 0.07054927 -0.16482471 0.051758282 0.20389974 -0.1205177
0.0647231 -0.040032506 0.0981261 -0.0029826155 0.20956762 -0.06405826 0.076841734 -0.10446393
0.086287744 0.04190941 -0.06081305 -0.0044170525 0.093782395 0.010844526 0.093529925 0.16536611
-0.057111286 -0.037942242 0.1310067 -0.06148339 0.1549835 -0.12329225 0.14598699 -0.17234792
