backend/stocks/price/pt_models/ARCH.pt (torch, 54435 bytes, 9 tensors)

lstm.weight_ih_l0 f4 [128, 1]
-0.053846426 -0.20330122 -0.075165145 0.18239363 -0.11767972 0.33938825 -0.0019441571 -0.22507976
-0.08061744 -0.05668356 -0.033311352 -0.014793183 0.018325992 0.01698511 0.00042521916 -0.059070352
-0.23256496 -0.029166568 -0.14120339 -0.07330667 -0.0257109 -0.0032955983 -0.022609975 0.0025867226
0.21238878 -0.047348853 -0.020969858 -0.16911255 -0.03717984 -0.038373016 -0.009770397 -0.21674058
-0.09443783 -0.19683252 -0.14135581 0.07389649 0.016281813 0.33237696 -0.2009216 -0.0010697406
0.10872927 0.021925414 0.1499701 -0.0039395494 -0.22639187 -0.26620367 0.1306641 -0.076231234
-0.12777777 -0.039332688 -0.073183686 -0.028848128 0.2626399 -0.24631095 -0.14039338 -0.09596635
0.23157081 0.20004989 -0.17564465 -0.040980298 -0.030321823 -0.02216352 -0.0713248 -0.07395238
0.24768397 -0.22595356 -0.22463927 -0.14075026 -0.13489972 0.14731775 -0.2298564 -0.2518243
0.07100564 -0.064426616 0.07366253 -0.22329843 -0.2950926 0.2246776 -0.15753013 -0.053129498
0.16066268 -0.28581437 -0.10542392 -0.29427576 0.23039672 0.28900796 -0.31381404 -0.19311002
-0.16443847 -0.05122945 -0.1551215 0.16423094 0.14312696 -0.0364364 -0.20080349 -0.288603
-0.08258335 -0.07942034 -0.012787122 -0.085160784 -0.09880234 0.36266214 -0.014926166 -0.16556947
-0.0061229966 0.086882986 -0.025263308 -0.20102485 -0.123331666 0.0024248182 0.23398747 0.06521548
-0.2390728 -0.04817405 0.14779602 0.018829936 -0.0060327603 -0.288307 -0.23305076 0.109770946
0.19144125 -0.07943628 0.048172243 -0.008933337 0.1557098 -0.062357936 -0.21256094 -0.015225267
00000000: 128e 5cbd 322e 50be 2ff0 99bd 65c5 3a3e
00000010: 1102 f1bd 4cc4 ad3e 16d3 feba 4f7b 66be
00000020: c21a a5bd 052d 68bd 7c71 08bd 1b5f 72bc
00000030: 6420 963c 5b24 8b3c f3ef de39 c1f3 71bd
00000040: 8225 6ebe baee eebc 9f97 10be cf21 96bd
00000050: aa9f d2bc f7fa 57bb 8e38 b9bc 0186 293b
00000060: 727c 593e dff0 41bd fbc8 abbc d72b 2dbe
00000070: e349 18bd 062d 1dbd 0414 20bc 3ef1 5dbe
00000080: 9f68 c1bd 778e 49be 94bf 10be 0b57 973d
00000090: 7061 853c 502d aa3e 64be 4dbe 8a36 8cba
000000a0: 74ad de3d ed9c b33c c391 193e 5617 81bb
000000b0: 45d3 67be d94b 88be cfcc 053e 1f1f 9cbd
000000c0: 2dd8 02be 501b 21bd 54e1 95bd e952 ecbc
000000d0: bd78 863e f038 7cbe 48c3 0fbe 018a c4bd
000000e0: e620 6d3e e1d9 4c3e 31dc 33be f5da 27bd
000000f0: 7965 f8bc 4590 b5bc bd12 92bd 5874 97bd
00000100: dea0 7d3e 5f60 67be d607 66be d620 10be
00000110: 2723 0abe 77da 163e 7a5f 6bbe 1def 80be
00000120: 686b 913d 1af2 83bd 61dc 963d 58a8 64be
00000130: 6116 97be e311 663e 944f 21be 519e 59bd
00000140: c284 243e 4356 92be 7fe8 d7bd 50ab 96be
00000150: 1eed 6b3e daf8 933e 3cac a0be a2be 45be
00000160: 8f62 28be f9d5 51bd 2cd8 1ebe 282c 283e
00000170: e08f 123e 563e 15bd 6e9f 4dbe c6c3 93be
00000180: 7621 a9bd 22a7 a2bd 1481 51bc c768 aebd
00000190: e258 cabd daae b93e e18c 74bc 0b8b 29be
000001a0: 6ba3 c8bb b5ef b13d fff4 cebc 75d9 4dbe
000001b0: 5095 fcbd b3e9 1e3b 699a 6f3e b28f 853d
000001c0: 80cf 74be 2752 45bd d757 173e 3d41 9a3c
000001d0: 76ae c5bb fa9c 93be dca4 6ebe 97cf e03d
000001e0: 2d09 443e 7daf a2bd 4250 453d 225d 12bc
000001f0: 6472 1f3e 096b 7fbd 93a9 59be 6673 79bc

lstm.weight_hh_l0 f4 [128, 32]
-0.045382783 0.105723456 -0.09911161 0.047818832 -0.13934879 0.24600507 0.21179092 -0.08046686
-0.055082772 -0.10558904 -0.09070021 0.01692764 0.026687432 -0.2103765 -0.1467091 -0.030420233
0.043769352 0.09855881 0.067731716 0.09688733 -0.021199107 -0.1536459 0.05606282 0.04407432
0.07810226 -0.07165104 0.12456758 0.03371 -0.050363686 0.16040254 -0.027394736 0.23961937
-0.1727354 0.12761167 0.19161043 0.042347062 -0.13664395 0.06298309 -0.066611946 0.113925174
-0.17762586 0.14389098 0.0065407264 0.008519221 -0.11564991 -0.17028056 -0.045582224 -0.036708925
0.07481503 0.13576874 -0.028339963 0.07066129 -0.019381842 0.10104768 0.1411297 0.23171282
0.042578008 0.1963352 0.17279561 -0.085986696 -0.20751634 0.009087611 0.10257042 0.21411937
-0.091227174 0.080203764 0.1212151 0.16830991 -0.18181382 0.098429635 -0.09519315 -0.0031393801
-0.09141899 0.1690533 0.023382973 0.008539648 0.13332666 -0.0026403884 0.09224572 0.15303029
-0.21555096 -0.051514585 0.091908365 0.10748232 0.14378841 -0.082127385 0.20003644 0.09078403
0.14677909 -0.13967752 -0.0030251727 -0.064787276 -0.05265884 0.0908098 -0.07296692 -0.0051601483
0.19034734 -0.18690546 -0.11358501 0.07284205 -0.083973594 0.12819624 0.0505006 0.008857884
0.06586419 -0.1884196 -0.16421424 -0.2589334 0.051816683 -0.020761585 -0.14225383 0.2601555
0.024697416 -0.13794309 -0.20332895 -0.11597081 -0.0032925769 -0.0017106537 -0.19496098 -0.038147382
0.059222057 -0.03876366 -0.19404665 0.26474702 -0.027500255 0.072228104 -0.20321399 -0.09365923
0.07508634 -0.060013745 -0.20040657 0.068493836 0.15940632 0.046562556 -0.077587694 -0.092541434
0.12625909 -0.020000579 -0.17029715 -0.081177875 0.1418105 -0.12609822 -0.04621111 -0.1643981
0.004401221 -0.123802945 0.005631994 -0.07219878 0.08232651 -0.0296173 -0.1426825 0.0028290031
0.29069197 -0.16366881 0.0030820463 0.14382479 -0.0955755 -0.10638953 -0.103813805 -0.093610585
0.25126302 -0.13190453 -0.1370067 -0.037079092 0.11911617 0.1932297 -0.13375151 -0.16910788
0.060501896 -0.19864263 -0.09575501 -0.038586788 -0.07339415 0.16523457 -0.13544805 0.07760312
0.05291851 -0.16726686 -0.24171448 -0.27662706 -0.13041033 0.11698131 -0.08284692 -0.31881312
-0.19523339 0.1473903 0.094152205 0.008427359 -0.0017593299 -0.1344331 -0.24002448 -0.16228147
-0.1588325 0.01693459 0.16915613 -0.12096412 0.057992492 -0.0035006104 -0.005388696 -0.065756634
0.10034439 0.061540004 -0.19444421 0.062122654 0.20396087 -0.025867095 -0.02146331 -0.15315591
0.13514438 -0.10712582 -0.09805335 0.027904648 -0.1255397 -0.008083571 0.06785482 0.05922769
0.2741728 0.047408864 -0.04180708 0.08370537 -0.27176175 0.11471376 0.05049373 0.11601084
0.04676363 0.15676737 -0.13716975 0.0973022 -0.042305265 -0.097122915 0.094912484 -0.011861529
-0.04834052 -0.085316785 -0.031029057 0.11733446 -0.10021632 -0.0151154855 -0.047982994 -0.071365505
0.15712851 -0.093989134 0.1286337 0.18633634 0.18775804 -0.028835487 0.089492485 0.19666153
-0.1233637 -0.14876151 0.009748959 0.11080274 0.03872146 0.101556495 -0.13859348 -0.001908093
00000000: 4ce3 39bd 8a85 d83d 07fb cabd aedd 433d
00000010: 73b1 0ebe c1e8 7b3e b8df 583e cfcb a4bd
00000020: 799e 61bd 113f d8bd 08c1 b9bd d6ab 8a3c
00000030: 9a9f da3c f06c 57be e93a 16be da33 f9bc
00000040: 7e47 333d 34d9 c93d edb6 8a3d dd6c c63d
00000050: c0a9 adbc 5a55 1dbe 21a2 653d 4687 343d
00000060: 14f4 9f3d c8bd 92bd 4a1d ff3d 7f13 0a3d
00000070: 274a 4ebd 9040 243e ed6a e0bc c85e 753e
00000080: 8ce1 30be a2ac 023e 8635 443e 1d74 2d3d
00000090: 64ec 0bbe 47fd 803d d86b 88bd 9a51 e93d
000000a0: 8ee3 35be 2858 133e 9753 d63b 3494 0b3c
000000b0: dcd9 ecbd 075e 2ebe 6db4 3abd 195c 16bd
000000c0: 9f38 993d f606 0b3e 3629 e8bc deb6 903d
000000d0: abc6 9ebc 16f2 ce3d 4e84 103e 2046 6d3e
000000e0: 4766 2e3d 180c 493e 55f1 303e cb19 b0bd
000000f0: 2a7f 54be 34e4 143c 7110 d23d 1c42 5b3e
00000100: 50d5 babd df41 a43d 9f3f f83d 6f59 2c3e
00000110: 672d 3abe 7a95 c93d a0f4 c2bd 0fbe 4dbb
00000120: e139 bbbd 4f1c 2d3e a68d bf3c e1e9 0b3c
00000130: c986 083e 5e0a 2dbb 53eb bc3d f9b3 1c3e
00000140: 64b9 5cbe f500 53bd 743a bc3d b11f dc3d
00000150: 453d 133e 6732 a8bd 5ad6 4c3e faec b93d
00000160: 424d 163e a007 0fbe fa41 46bb 31af 84bd
00000170: ccb0 57bd 7dfa b93d ae6f 95bd 7616 a9bb
00000180: 6aea 423e 2564 3fbe 429f e8bd 362e 953d
00000190: 59fa abbd e045 033e b8d9 4e3d a920 113c
000001a0: cee3 863d 11f1 40be c727 28be eb92 84be
000001b0: bb3d 543d 3314 aabc fdaa 11be 1a33 853e
000001c0: 3c52 ca3c f440 0dbe 7735 50be 1b82 edbd
000001d0: 46c8 57bb 0338 e0ba daa3 47be 6e40 1cbd
000001e0: d492 723d a5c6 1ebd 2ab4 46be ec8c 873e
000001f0: 3748 e1bc 54ec 933d 5417 50be 69d0 bfbd
00000200: dec6 993d f9d0 75bd 6137 4dbe 7f46 8c3d
00000210: 693b 233e 61b8 3e3d 4ce6 9ebd 5d86 bdbd
00000220: 104a 013e 41d8 a3bc 6062 2ebe 9640 a6bd
00000230: c636 113e e41f 01be dc47 3dbd fa57 28be
00000240: 1e38 903b 668c fdbd 978c b83b f4dc 93bd
00000250: cd9a a83d fb9f f2bc 5c1b 12be cc66 393b
00000260: 94d5 943e cc98 27be 28fc 493b ce46 133e
00000270: 16bd c3bd c1e2 d9bd 559c d4bd e8b6 bfbd
00000280: 8ca5 803e fb11 07be 7c4b 0cbe 3fe0 17bd
00000290: 2ef3 f33d 02de 453e 28f6 08be 9e2a 2dbe
000002a0: d6d0 773d f968 4bbe 341b c4bd 2e0d 1ebd
000002b0: ac4f 96bd 4033 293e e5b2 0abe 62ee 9e3d
000002c0: 14c1 583d 0148 2bbe 0084 77be 10a2 8dbe
000002d0: 498a 05be e693 ef3d a5ab a9bd 793b a3be
000002e0: 43eb 47be 7ced 163e dfd2 c03d e812 0a3c
000002f0: 5199 e6ba d5a8 09be fac8 75be 1d2d 26be
00000300: fda4 22be 69ba 8a3c 4437 2d3e 09bc f7bd
00000310: 8989 6d3d 7f6a 65bb a993 b0bb 6aab 86bd
00000320: 5c81 cd3d 5f11 7c3d 621c 47be 5374 7e3d
00000330: 1edb 503e 3be7 d3bc d3d3 afbc e7d4 1cbe
00000340: 4a63 0a3e c864 dbbd 32d0 c8bd 4a98 e43c
00000350: 7b8d 00be f470 04bc 78f7 8a3d bc98 723d
00000360: 6160 8c3e cc2f 423d e73d 2bbd b96d ab3d
00000370: 5b24 8bbe 0cef ea3d 83d2 4e3d 1797 ed3d
00000380: 388b 3f3d a087 203e 3a76 0cbe 6046 c73d
00000390: 4948 2dbd 61e8 c6bd 7a61 c23d dc56 42bc
000003a0: b600 46bd 91ba aebd a630 febc 0d4d f03d
000003b0: 373e cdbd f1a6 77bc d189 44bd 1428 92bd
000003c0: 4ce6 203e 607d c0bd 8db8 033e f4ce 3e3e
000003d0: a543 403e 6638 ecbc d647 b73d a461 493e
000003e0: 1ca6 fcbd f054 18be 19ba 1f3c 8cec e23d
000003f0: 659a 1e3d dafc cf3d 73eb 0dbe fa18 faba

lstm.bias_ih_l0 f4 [128]
0.18892166 0.18459235 0.14196463 -0.10916064 0.121867694 0.027299307 0.10347857 0.0149014685
-0.2768393 0.096849926 -0.010415824 0.09077882 0.07053986 0.092930615 0.08732968 0.025606355
-0.11746171 -0.042349365 -0.14105691 -0.06541588 0.06559061 0.1940151 0.17326464 -0.04944922
-0.0451335 -0.17466784 -0.12358559 -0.16310088 -0.15561688 -0.18497302 0.09546388 0.17888476
-0.11539347 0.17044413 0.18840155 -0.017608512 0.024313243 0.06326433 0.13666034 0.03440138
-0.2655828 -0.2284078 -0.09620908 0.05543274 0.0978508 0.0671269 -0.2063203 -0.10057052
-0.1812617 -0.029541384 -0.1737287 0.06333912 0.094088025 0.03864902 0.21146138 0.09905253
-0.1545812 -0.16941118 -0.21657297 -0.053857148 -0.20412132 0.007464083 -0.025081774 -0.006486742
-0.10837855 0.07639646 0.086732954 0.0379435 -0.13867544 0.07166717 0.03985894 0.008720569
0.0691289 0.009438993 -0.045729604 0.037448894 0.119511776 -0.037497103 -0.0045866594 0.043130107
-0.13517419 -0.057936814 0.033592932 0.011961143 0.15581568 0.06316106 0.0065837163 -0.16000515
0.012363587 0.0857203 0.037894204 0.021312453 -0.01907813 0.100148164 -0.2022338 0.042524572
0.21035327 -0.08509917 -0.1050632 -0.18949743 0.030918652 0.03484097 -0.01852644 -0.1639144
0.006737532 -0.10629214 0.04803741 -0.0054053343 -0.0833869 -0.14570768 -0.034949806 -0.075247556
-0.05868154 -0.07176738 0.0059035355 -0.1051096 -0.15703788 -0.10624061 0.22185272 -0.08155478
0.027470687 -0.036104783 0.0943915 0.013419496 -0.045212287 0.064095266 0.04324171 -0.11029532
00000000: ae74 413e c705 3d3e 2d5f 113e 9d8f dfbd
00000010: c595 f93d cca2 df3c 93ec d33d 4a25 743c
00000020: e1bd 8dbe 4159 c63d 22a7 2abc 3fea b93d
00000030: 3477 903d 6852 be3d e7d9 b23d 6bc4 d13c
00000040: c48f f0bd 8776 2dbd 3971 10be c3f8 85bd
00000050: 5f54 863d e5ab 463e 496c 313e 448b 4abd
00000060: e8dd 38bd 20dc 32be 711a fdbd eb03 27be
00000070: 085a 1fbe 9169 3dbe 9182 c33d 912d 373e
00000080: 6953 ecbd e888 2e3e 56ec 403e ba3f 90bc
00000090: 912c c73c bb90 813d b0f0 0b3e 76e8 0c3d
000000a0: 78fa 87be bce3 69be 4409 c5bd 710d 633d
000000b0: 0066 c83d d479 893d a145 53be ebf7 cdbd
000000c0: ab9c 39be c600 f2bc f0e5 31be f1b7 813d
000000d0: 39b1 c03d 6f4e 1e3d 5589 583e 0edc ca3d
000000e0: 894a 1ebe 207a 2dbe 4ec5 5dbe 5099 5cbd
000000f0: 2e05 51be 4495 f43b 4b78 cdbc bc8e d4bb
00000100: 93f5 ddbd bf75 9c3d 0ca1 b13d a56a 1b3d
00000110: ef00 0ebe 3dc6 923d 2143 233d b8e0 0e3c
00000120: 7493 8d3d 02a6 1a3c f74e 3bbd 0364 193d
00000130: 97c2 f43d 9096 19bd b04b 96bb 32a9 303d
00000140: 1a6b 0abe 274f 6dbd be98 093d acf8 433c
00000150: 258e 1f3e 965a 813d 37bc d73b 64d8 23be
00000160: a490 4a3c 208e af3d f436 1b3d 7497 ae3c
00000170: bd49 9cbc 7b1a cd3d 6116 4fbe 3f2e 2e3d
00000180: d966 573e 7948 aebd 602b d7bd 9d0b 42be
00000190: 1d49 fd3c 68b5 0e3d c3c4 97bc 2dd9 27be
000001a0: 84c6 dc3b b2af d9bd e0c2 443d 3b1f b1bb
000001b0: c0c6 aabd 6534 15be 8727 0fbd 641b 9abd
000001c0: 0e5c 70bd c7fa 92bd 7272 c13b b443 d7bd
000001d0: 8ace 20be ad94 d9bd 5c2d 633e 3106 a7bd
000001e0: 350a e13c 9ce2 13bd 5550 c13d 72dd 5b3c
000001f0: 8530 39bd 6144 833d 381e 313d 83e2 e1bd

lstm.bias_hh_l0 f4 [128]
0.16192588 0.028699929 -0.09379019 -0.14051948 0.099185616 0.11499104 -0.095601015 -0.09002912
-0.26674291 0.079880126 -0.0495947 -0.049848296 -0.01091194 0.15410468 0.04109949 -0.15863435
-0.15589535 0.15649158 0.01498438 0.14766462 0.064078316 0.034440417 0.16560124 -0.14088479
-0.07612624 -0.21664795 0.073361665 -0.04771256 0.045284867 -0.2109782 0.1336901 0.025509529
-0.066165805 -0.031604744 0.1892986 -0.26966116 -0.08552239 0.083949216 0.03517251 0.057051823
-0.006141522 -0.13803834 -0.20248947 0.1064146 -0.069580115 -0.12922636 -0.1566041 -0.2589675
-0.17386708 0.003799578 0.07748694 -0.0835325 -0.23371068 0.02666408 0.16135408 -0.136501
0.07598076 -0.07410471 -0.22102478 -0.16755286 -0.20495388 -0.19914691 -0.00055000663 0.17596245
0.13833041 -0.06700721 -0.14848976 -0.12180859 -0.023979416 0.020724159 0.10344612 0.019460151
-0.05698011 0.115712 0.036577497 -0.10380314 -0.10920285 0.048436716 -0.042313017 -0.016914006
-0.029689755 -0.06359835 -0.13063516 -0.054870326 -0.07360999 -0.008797282 -0.057844102 0.077712186
-0.09817689 -0.06271713 -0.0325964 -0.062289126 0.112373285 0.13205217 0.12044298 -0.041788243
0.012373344 -0.063563615 -0.065344244 -0.16358082 0.101225086 0.16600487 -0.03797098 -0.02499486
0.052778583 -0.22122043 0.034359764 0.10091251 0.084948 0.06277845 0.0012035709 -0.21343055
0.12735805 0.009863762 -0.15804844 0.0704837 0.10967928 0.01796067 0.11723368 0.16937965
-0.089126036 0.035713784 -0.005879504 -0.09019258 -0.20219702 0.023321996 -0.00081147434 0.031542275
00000000: e6cf 253e 1d1c eb3c 1215 c0bd 57e4 0fbe
00000010: d421 cb3d 6c80 eb3d 77ca c3bd 3061 b8bd
00000020: 8792 88be 3198 a33d d023 4bbd ba2d 4cbd
00000030: fec7 32bc 9ecd 1d3e f057 283d 0b71 22be
00000040: 08a3 1fbe 543f 203e 0c81 753c 6535 173e
00000050: 7e3b 833d 6511 0d3d 5f93 293e 1a44 10be
00000060: 13e8 9bbd f6d8 5dbe a43e 963d 3f6e 43bd
00000070: a07c 393d ab0a 58be 0fe6 083e 5cf9 d03c
00000080: f081 87bd fa73 01bd 7ed7 413e 0711 8abe
00000090: 5d26 afbd 91ed ab3d 0d11 103d 2caf 693d
000000a0: d23e c9bb ec59 0dbe 6659 4fbe e6ef d93d
000000b0: 0580 8ebd ea53 04be d35c 20be 6397 84be
000000c0: 360a 32be 5702 793b 79b1 9e3d 1613 abbd
000000d0: da51 6fbe a16e da3c 013a 253e ebc6 0bbe
000000e0: cd9b 9b3d 36c4 97bd 5254 62be fa92 2bbe
000000f0: 6edf 51be 2bed 4bbe 522e 10ba 802f 343e
00000100: 7da6 0d3e 133b 89bd b30d 18be c876 f9bd
00000110: 7b70 c4bc b6c5 a93c 8fdb d33d e56a 9f3c
00000120: fa63 69bd 6afa ec3d 49d2 153d be96 d4bd
00000130: bea5 dfbd 9465 463d 6a50 2dbd 3e8f 8abc
00000140: ee37 f3bc da3f 82bd 39c5 05be b5bf 60bd
00000150: d6c0 96bd 7a22 10bc f0ed 6cbd 9127 9f3d
00000160: f710 c9bd d771 80bd cd83 05bd e222 7fbd
00000170: f723 e63d af38 073e cfaa f63d 262a 2bbd
00000180: 91b9 4a3c a42d 82bd 34d3 85bd bb81 27be
00000190: 194f cf3d 2efd 293e 7587 1bbd 05c2 ccbc
000001a0: 5b2e 583d 9c87 62be d3bc 0c3d 38ab ce3d
000001b0: 38f9 ad3d fd91 803d 23c1 9d3a 8a8d 5abe
000001c0: 266a 023e 9e9b 213c 73d7 21be c259 903d
000001d0: 889f e03d 4122 933c 3618 f03d dc71 2d3e
000001e0: b687 b6bd 9e48 123d dba8 c0bb e3b6 b8bd
000001f0: bc0c 4fbe c50d bf3c 1fb9 54ba 7932 013d

lstm.weight_ih_l1 f4 [128, 32]
0.059069913 -0.0013163984 -0.14170218 0.28015205 0.17601486 0.0017459241 -0.09176869 0.0979652
-0.24413492 -0.07064562 -0.1957038 0.030509828 -0.01593139 -0.027438086 -0.08898938 0.05709577
-0.009165341 0.08248113 0.09925424 -0.14368583 0.12281757 -0.15178311 -0.029227309 -0.0772974
-0.1286632 0.02577004 -0.00038906583 0.039175373 0.17592552 -0.027067121 0.039462578 0.19507372
0.036949206 0.047259938 -0.01503697 0.09173476 0.15870957 -0.05330407 0.018003218 -0.07563862
-0.04562836 0.082439214 0.009101919 0.038306165 -0.027618082 0.079305544 -0.13545349 0.12025107
-0.071198136 0.16119003 0.083409175 -0.14627513 0.17027068 -0.07171425 0.0051445737 -0.078042865
0.10824851 0.108117215 0.035531685 0.11757952 0.1638903 -0.11650178 -0.17039625 -0.001832619
0.22085898 -0.0073623685 -0.1688617 -0.0722982 0.17157461 0.011041605 -0.075010225 -0.32889974
0.14799108 -0.09811873 -0.12998693 -0.32013983 -0.2890139 0.049655154 -0.19667706 -0.057945125
-0.023616128 -0.29665825 0.0040497966 -0.10757152 0.23201743 0.33463195 -0.111914165 -0.29604158
-0.065402634 -0.01209864 -0.16976468 0.23376736 0.06656081 0.072346896 -0.29101706 -0.20599483
0.12615679 -0.06888249 -0.03449984 0.1542409 0.18257502 -0.052192234 0.118329294 0.029292258
-0.19626035 0.026573846 -0.019517537 -0.017741099 0.058205415 0.012611625 -0.01772631 0.23000523
-0.009911696 0.09516401 0.13376728 0.12033296 0.1299734 0.025514074 -0.037527725 -0.0031012224
0.06789936 -0.05600904 0.13029648 -0.070105664 -0.05809728 -0.05936203 0.11612855 0.033399317
0.14830044 -0.24056336 -0.030638058 0.06333812 0.21702276 0.11410205 -0.22561206 -0.22778776
0.07021786 -0.14397912 -0.082469895 -0.21764468 -0.049932435 0.06470469 -0.22878957 -0.0056269164
0.102740906 0.17161503 -0.042205486 -0.1384426 0.14927383 -0.06250441 -0.12804598 -0.23379813
-0.011542448 -0.04142307 -0.12421263 -0.05245249 -0.08030828 -0.22918618 -0.13570888 0.040870182
0.024057603 0.13980697 0.177139 0.05979336 0.09646901 -0.16441272 0.069058955 0.106413856
-0.029180959 0.0120770605 0.1145549 0.15094663 -0.011035987 0.075323276 0.25329685 0.040405843
-0.07869799 0.13974586 0.20415549 0.1757416 0.0032239088 -0.13585491 0.019562444 0.26167178
0.19777907 0.15905976 0.19664423 -0.11719491 -0.092116065 0.026686924 0.1689869 0.001252846
-0.20717394 0.03687169 0.082686804 0.10727651 0.08207203 -0.05842817 -0.12255315 -0.055903673
-0.11069231 0.17975675 -0.045168776 0.11455625 -0.0077794474 -0.2419944 0.20111106 -0.1515896
-0.0783723 0.22052638 0.0030707098 0.09587083 0.031004634 -0.050624922 -0.016758684 0.0036884143
0.16585845 -0.05960777 -0.018441094 -0.05036402 -0.07837662 0.092395894 0.11855379 -0.0720772
-0.11216417 -0.049287196 0.02005337 0.08960708 0.053465653 0.043831 -0.084625706 -0.13295385
0.093518116 0.04855878 -0.03064564 0.14185075 -0.053388488 -0.17801602 0.17459835 0.16759886
0.08213084 0.08157612 0.15058583 -0.027062038 0.042178757 -0.23666522 0.09481276 -0.067051336
0.15144843 0.13572815 0.012105268 -0.15049303 -0.18045843 0.040344004 0.15018693 0.108184814
00000000: 4bf3 713d 008b acba 601a 11be 1770 8f3e
00000010: 3d3d 343e 7ed7 e43a 39f1 bbbd fba1 c83d
00000020: 81fe 79be a7ae 90bd 9466 48be bfef f93c
00000030: 8c82 82bc d6c5 e0bc 1040 b6bd 41dd 693d
00000040: 3a2a 16bc deeb a83d cf45 cb3d 6122 13be
00000050: c787 fb3d 086d 1bbe 1c6e efbc 194e 9ebd
00000060: 49c0 03be b11b d33c 88fb cbb9 5b76 203d
00000070: d225 343e debb ddbc 83a3 213d 68c1 473e
00000080: 0d58 173d a393 413d a05d 76bc 6fdf bb3d
00000090: c384 223e 5e55 5abd 7c7b 933c 6ce8 9abd
000000a0: cee4 3abd e4d5 a83d 3720 153c ede6 1c3d
000000b0: 513f e2bc f26a a23d 52b4 0abe 3146 f63d
000000c0: 54d0 91bd 000f 253e 6ed2 aa3d 26c9 15be
000000d0: 705b 2e3e ecde 92bd d093 a83b f0d4 9fbd
000000e0: 65b1 dd3d 8f6c dd3d ac89 113d 88cd f03d
000000f0: dcd2 273e 7c98 eebd 5b7c 2ebe 7d34 f0ba
00000100: db28 623e 0640 f1bb 15ea 2cbe 1411 94bd
00000110: 41b1 2f3e d9e7 343c f69e 99bd 8c65 a8be
00000120: f98a 173e 79f2 c8bd 4b1b 05be 5ee9 a3be
00000130: a1f9 93be 3463 4b3d b665 49be de57 6dbd
00000140: 9c76 c1bc 97e3 97be 28b4 843b 754e dcbd
00000150: fa95 6d3e e154 ab3e 4133 e5bd c392 97be
00000160: d1f1 85bd 6039 46bc cbd6 2dbe b660 6f3e
00000170: 0951 883d 9c2a 943d 3000 95be 4ff0 52be
00000180: 3f2f 013e 4312 8dbd b44f 0dbd 54f1 1d3e
00000190: f2f4 3a3e 86c7 55bd a156 f23d 51f6 ef3c
000001a0: 79f8 48be 65b1 d93c 3ee3 9fbc c855 91bc
000001b0: cd68 6e3d fda0 4e3c c436 91bc 7e86 6b3e
000001c0: ab64 22bc 59e5 c23d 4afa 083e 2071 f63d
000001d0: bf17 053e e402 d13c acb6 19bd e13d 4bbb
000001e0: d20e 8b3d bc69 65bd 716c 053e 8f93 8fbd
000001f0: 6af7 6dbd 9a25 73bd ced4 ed3d b9cd 083d
00000200: 12dc 173e 3e56 76be aafc fabc 6bb7 813d
00000210: 373b 5e3e 56ae e93d d906 67be 3241 69be
00000220: 62ce 8f3d 436f 13be fae5 a8bd 3fde 5ebe
00000230: f485 4cbd e483 843d d047 6abe ff61 b8bb
00000240: d369 d23d dabb 2f3e a9df 2cbd e6c3 0dbe
00000250: 3ddb 183e 5002 80bd 7c1e 03be c768 6fbe
00000260: 891c 3dbc 3dab 29bd 3163 febd 6cd8 56bd
00000270: ab78 a4bd c8af 6abe 45f7 0abe 7e67 273d
00000280: 7314 c53c 8f29 0f3e ed63 353e e2e9 743d
00000290: 8b91 c53d cf5b 28be c86e 8d3d 82ef d93d
000002a0: e80c efbc ddde 453c c29b ea3d c191 1a3e
000002b0: 49d0 34bc 1743 9a3d 20b0 813e 9980 253d
000002c0: 692c a1bd 8a19 0f3e 230e 513e 9bf5 333e
000002d0: 3748 533b 8d1d 0bbe 6b41 a03c d8f9 853e
000002e0: 9986 4a3e 90e0 223e 1b5d 493e e303 f0bd
000002f0: 59a7 bcbd 899e da3c e70a 2d3e 8936 a43a
00000300: 6825 54be c506 173d b357 a93d c9b3 db3d
00000310: 6115 a83d 6052 6fbd 25fd fabd 40fb 64bd
00000320: a6b2 e2bd 2712 383e e502 39bd 789c ea3d
00000330: bcea febb 61cd 77be 0ff0 4d3e 4e3a 1bbe
00000340: a881 a0bd abd1 613e f63d 493b ed57 c43d
00000350: 6efd fd3c 145c 4fbd 8249 89bc 53b9 713b
00000360: ccd6 293e 4727 74bd c711 97bc 814a 4ebd
00000370: ec83 a0bd 0f3a bd3d 54cc f23d 369d 93bd
00000380: 54b6 e5bd 5fe1 49bd f746 a43c eb83 b73d
00000390: cdfe 5a3d 2288 333d 3e50 adbd 0e25 08be
000003a0: 6d86 bf3d 92e5 463d 910c fbbc 5341 113e
000003b0: e3ad 5abd d549 36be e9c9 323e 099f 2b3e
000003c0: 3734 a83d 6111 a73d 2c33 1a3e 35b1 ddbc
000003d0: a2c3 2c3d 5e58 72be 312d c23d 3652 89bd
000003e0: 4c15 1b3e 52fc 0a3e 2d55 463c d81a 1abe
000003f0: 18ca 38be c13f 253d 9aca 193e 0090 dd3d

lstm.weight_hh_l1 f4 [128, 32]
0.019557072 -0.17228569 -0.09287185 0.14927337 0.080122605 0.072944105 -0.20669164 -0.17062984
0.06642885 -0.16611694 0.0618586 0.009638736 0.012429719 -0.17894755 -0.05890212 0.053986818
0.05424746 0.067016974 -0.07512864 0.1081171 -0.09399274 0.11071853 -0.0016210539 -0.08217862
-0.15921646 -0.20284472 0.12619741 0.008360506 -0.012734843 -0.23809358 -0.14818163 -0.093359195
-0.044897694 -0.08198155 0.026011646 -0.08887124 -0.07464574 -0.14334165 -0.08748521 0.059386708
-0.14181407 -0.25296792 0.19808719 -0.028391005 0.06408586 0.025269084 0.12427744 0.2634674
-0.08510042 0.10529633 0.05557884 -0.022874912 0.033614073 0.14334092 -0.04971007 -0.15249956
0.0629484 0.06977813 0.12732941 -0.06914777 -0.031068826 0.010355719 -0.05530341 -0.122557774
0.08136263 -0.22735548 0.013496243 0.27624983 -0.06744655 -0.14591543 0.06009475 -0.13067695
-0.032890424 -0.12804455 -0.044874582 -0.07218582 0.10137239 0.15794763 -0.07086727 0.15007712
0.16391921 -0.035927244 0.033113275 0.110228725 -0.21007177 -0.04885277 0.21594279 0.16140097
-0.061618757 -0.074285604 0.04004773 -0.01431368 -0.23874606 -0.12881364 0.042576067 -0.1364855
-0.13486208 -0.023792645 -0.034083154 0.09094037 -0.0010575085 -0.22387214 -0.047274195 0.06376269
0.047471523 -0.11407668 0.20539415 -0.09472536 0.15352322 0.1151519 0.06972391 0.19020851
0.028160222 0.11901269 -0.08518177 -0.1317915 0.058489304 0.05076318 0.05747162 0.06463814
-0.03392785 -0.16050155 0.13801791 0.12567452 -0.2046223 -0.00053503946 0.14256877 -0.043654203
-0.20019864 -0.13791057 -0.090266146 -0.021266228 0.040607497 -0.03716482 -0.23055294 -0.18819332
0.12189322 -0.11486357 0.22885165 -0.08276061 0.14325027 -0.06710882 0.19691658 0.15712036
0.020970203 0.07229299 -0.051420838 0.0053264946 -0.15830201 -0.041785195 -0.17164418 -0.15154096
-0.23229633 -0.32610753 0.082865775 -0.030132083 -0.13975784 -0.18252903 0.29085 0.050182875
0.07255287 0.06811699 0.118558176 0.1380656 0.19557312 -0.0018828178 -0.15323333 -0.14417332
0.113423534 -0.17575984 -0.09426423 -0.035962194 0.18707787 0.010466857 -0.07137105 0.031111924
0.18750902 0.13684684 -0.16996786 0.012867692 0.0888179 -0.1513011 0.0059322272 0.08340296
0.15110897 0.11319993 -0.14699784 -0.062099934 -0.062209748 0.13525988 -0.14295304 -0.1875607
0.12263432 -0.1184252 -0.1435538 -0.08248646 -0.060475465 0.15073287 -0.1651534 -0.2069085
-0.035933334 -0.17219497 -0.072346665 -0.066280775 0.19400692 -0.09530076 -0.063734196 -0.073141806
0.012297906 0.17942177 -0.11947422 0.09814789 -0.09689151 0.066061296 0.13083485 0.14218315
0.0754458 0.029481942 -0.112060115 -0.15277348 -0.14423852 0.10842108 0.1347404 0.049467295
0.07567391 0.15212719 -0.10894558 0.0067766984 0.026592603 0.13961397 0.021914437 0.011425669
-0.006091943 0.07292662 0.18821575 0.027099675 0.1944794 -0.10874667 -0.026349219 0.1171464
-0.14755328 0.07123753 -0.033568665 0.13376656 0.12986474 -0.07382543 -0.102957614 -0.10725072
-0.13660038 0.06312882 -0.17078485 0.0046699666 0.01673412 0.09222916 0.05776714 -0.13944875
00000000: 2736 a03c a96b 30be 9933 bebd 1edb 183e
00000010: 5217 a43d b863 953d f9a6 53be 97b9 2ebe
00000020: d90b 883d 8f1a 2abe 715f 7d3d caeb 1d3c
00000030: 05a6 4b3c 073e 37be 5943 71bd 4821 5d3d
00000040: 9632 5e3d 3240 893d 0bdd 99bd 806c dd3d
00000050: 447f c0bd 66c0 e23d 8b79 d4ba 444d a8bd
00000060: a409 23be 87b6 4fbe e539 013e 81fa 083c
00000070: cea5 50bc cece 73be edbc 17be 1b33 bfbd
00000080: a5e6 37bd f1e5 a7bd 6016 d53c 2002 b6bd
00000090: dedf 98bd 27c8 12be 722b b3bd 7a3f 733d
000000a0: b537 11be 0385 81be 5ed7 4a3e 4194 e8bc
000000b0: 733f 833d 1c01 cf3c 2c85 fe3d 33e5 863e
000000c0: 2149 aebd 9aa5 d73d a3a6 633d 2b64 bbbc
000000d0: e9ae 093d f6c7 123e c99c 4bbd d828 1cbe
000000e0: 17eb 803d d6e7 8e3d a462 023e 599d 8dbd
000000f0: 0d84 febc 09ab 293c d485 62bd 92ff fabd
00000100: 73a1 a63d e0cf 68be 591f 5d3c 9e70 8d3e
00000110: 6b21 8abd db6a 15be ea25 763d 2ed0 05be
00000120: 1cb8 06bd 1c1e 03be 69ce 37bd 29d6 93bd
00000130: 549c cf3d 06bd 213e dc22 91bd d1ad 193e
00000140: 70da 273e 7228 13bd c9a1 073d 99bf e13d
00000150: 0e1d 57be d819 48bd 1b20 5d3e 4c46 253e
00000160: f363 7cbd 0d23 98bd 1709 243d ed83 6abc
00000170: d979 74be b9e7 03be 3e64 2e3d dbc2 0bbe
00000180: 4919 0abe cbe8 c2bc c79a 0bbd f23e ba3d
00000190: 199c 8aba bd3e 65be 96a2 41bd 0396 823d
000001a0: 8071 423d 09a1 e9bd d852 523e 5fff c1bd
000001b0: 3135 1d3e c2d4 eb3d 69cb 8e3d 05c6 423e
000001c0: 44b0 e63c edbc f33d c873 aebd 5af4 06be
000001d0: 7b92 6f3d 0ded 4f3d 5d67 6b3d 0061 843d
000001e0: eef7 0abd 855a 24be 9154 0d3e d2b0 003e
000001f0: 8288 51be e441 0cba 8cfd 113e c0ce 32bd
00000200: df00 4dbe 6e38 0dbe 75dd b8bd 8336 aebc
00000210: 0c54 263d 233a 18bd 1216 6cbe c0b5 40be
00000220: 27a3 f93d 973d ebbd 1658 6a3e 657e a9bd
00000230: 33b0 123e 5970 89bd 80a4 493e 29e4 203e
00000240: b4c9 ab3c 590e 943d a89e 52bd e089 ae3b
00000250: ec19 22be f426 2bbd 7ec3 2fbe 8e2d 1bbe
00000260: 17df 6dbe 91f7 a6be 88b5 a93d 8fd7 f6bc
00000270: ae1c 0fbe e4e8 3abe 4bea 943e 8f8c 4d3d
00000280: 9996 943d ec80 8b3d a1ce f23d 1261 0d3e
00000290: 5244 483e e2c8 f6ba 33e9 1cbe 2ca2 13be
000002a0: 994a e83d 63fa 33be 9b0d c1bd 184d 13bd
000002b0: 5791 3f3e 2e7d 2b3c fc2a 92bd 6fde fe3c
000002c0: 5d02 403e 9421 0c3e 0e0c 2ebe 03d3 523c
000002d0: 29e6 b53d adee 1abe 2163 c23b 2ccf aa3d
000002e0: 4fbc 1a3e 5dd5 e73d 9a86 16be 805c 7ebd
000002f0: a6cf 7ebd 9181 0a3e 4862 12be ea0f 40be
00000300: b427 fb3d e988 f2bd c4ff 12be a9ee a8bd
00000310: 1fb5 77bd b859 1a3e f91d 29be d2df 53be
00000320: d52e 13bd e153 30be 7d2a 94bd 37be 87bd
00000330: c0a9 463e 0b2d c3bd 1387 82bd 5fcb 95bd
00000340: 287d 493c 57ba 373e e6ae f4bd c301 c93d
00000350: 0e6f c6bd 254b 873d 92f9 053e 7698 113e
00000360: 5483 9a3d 1d84 f13c c67f e5bd a770 1cbe
00000370: 43b3 13be df0b de3d 63f9 093e 389e 4a3d
00000380: ecfa 9a3d 3bc7 1b3e dc1e dfbd 110f de3b
00000390: bbd8 d93c f7f6 0e3e e885 b33c bb32 3b3c
000003a0: ec9e c7bb 8d5a 953d a1bb 403e 2300 de3c
000003b0: 9c25 473e 93b6 debd 51da d7bc 74ea ef3d
000003c0: 3518 17be fbe4 913d 4c7f 09bd 1afa 083e
000003d0: 43fb 043e c931 97bd 71db d2bd 44a6 dbbd
000003e0: f8e0 0bbe af49 813d 39e2 2ebe 8506 993b
000003f0: fe15 893c a4e2 bc3d 3d9d 6c3d a7cb 0ebe

lstm.bias_ih_l1 f4 [128]
-0.06501313 0.014057894 0.09765677 -0.15545923 -0.056286294 -0.010483773 -0.15866217 -0.13383158
0.020847643 0.15306093 -0.0966259 -0.046288878 0.05154817 -9.082383e-05 -0.019400755 -0.13212709
0.065689445 0.10923475 0.11619221 -0.081847474 0.055498276 -0.022124486 -0.043273304 -0.10825418
0.15342285 0.21090756 -0.021627476 0.12009762 0.11942157 0.11159263 0.19155353 -0.036787245
0.10550817 -0.2526242 -0.23582454 0.094724014 -0.21206094 -0.09686104 -0.02174707 0.020424558
-0.068012275 -0.08039968 -0.025603889 -0.18647881 -0.020184973 -0.05130545 0.040242445 -0.102117606
-0.16020867 0.027039234 -0.1369847 0.0009853673 0.020779725 -0.21273305 -0.019594688 -0.23274125
0.12305251 -0.096608415 0.022911265 0.019696305 0.14601134 -0.05017322 -0.11250244 -0.19346024
0.08422032 0.08170133 -0.17469497 -0.051847808 -0.03268543 0.15123631 0.18687609 0.068752624
-0.12509215 0.10818318 -0.08499158 -0.091078795 0.18026568 -0.16575474 -0.18599306 0.15714146
-0.07095253 -0.18413973 0.1808518 -0.082258545 0.034255095 -0.028359715 0.049697183 -0.078999326
0.012533648 0.12799919 0.14459732 0.056382418 0.01594476 0.09523346 -0.08571745 -0.077256255
-0.19242708 0.02722029 -0.16820413 0.06635897 -0.14439851 0.038015172 0.15646479 0.13143118
0.085032076 -0.055373423 0.14043409 0.043487795 -0.06740103 -0.0015215433 0.14693883 0.20232746
-0.19591679 -0.019467542 0.057467 -0.15706362 0.044113837 -0.042187843 0.003485803 -0.07490245
0.19953066 0.08444817 0.014095882 -0.12231263 -0.087921605 -0.06437575 0.18333805 -0.24366468
00000000: 9b25 85bd 1553 663c 4600 c83d b430 1fbe
00000010: 758c 66bd 22c4 2bbc 5678 22be 250b 09be
00000020: adc8 aa3c 01bc 1c3e cde3 c5bd 6899 3dbd
00000030: 2d24 533d ac78 beb8 55ee 9ebc 534c 07be
00000040: 3088 863d 78b6 df3d 2ef6 ed3d a69f a7bd
00000050: 2952 633d 693e b5bc 593f 31bd 5eb4 ddbd
00000060: e11a 1d3e 27f8 573e 1b2c b1bc bef5 f53d
00000070: 4c93 f43d ad8a e43d 9c26 443e 39ae 16bd
00000080: ab14 d83d f657 81be fd7b 71be aafe c13d
00000090: 8126 59be 155f c6bd e926 b2bc 6751 a73c
000000a0: 054a 8bbd 96a8 a4bd 3fbf d1bc 4df4 3ebe
000000b0: f55a a5bc aa25 52bd 43d5 243d 0923 d1bd
000000c0: be0d 24be 6281 dd3c b845 0cbe 7127 813a
000000d0: 3e3a aa3c b1d6 59be 0a85 a0bc b953 6ebe
000000e0: f402 fc3d a2da c5bd 68b0 bb3c 255a a13c
000000f0: ff83 153e 6f82 4dbd ae67 e6bd 711a 46be
00000100: b47b ac3d 0753 a73d 3de3 32be 5e5e 54bd
00000110: 28e1 05bd b1dd 1a3e 725c 3f3e 2dce 8c3d
00000120: 2818 00be 258f dd3d 1110 aebd 8587 babd
00000130: 9197 383e 9cbb 29be f774 3ebe b1e9 203e
00000140: 8f4f 91bd 208f 3cbe 3731 393e 2b77 a8bd
00000150: 124f 0c3d a252 e8bc 468f 4b3d 66ca a1bd
00000160: ee59 4d3c 3812 033e 5211 143e 40f1 663d
00000170: 969e 823c c309 c33d a18c afbd 8738 9ebd
00000180: 9b0b 45be 16fd de3c b43d 2cbe 36e7 873d
00000190: 34dd 13be ccb5 1b3d 4e38 203e e595 063e
000001a0: 4c25 ae3d 3ecf 62bd f4cd 0f3e 4220 323d
000001b0: 8d09 8abd 856e c7ba 2277 163e ee2e 4f3e
000001c0: 699e 48be 657a 9fbc 8462 6b3d 49d5 20be
000001d0: b6b0 343d 29cd 2cbd 1272 643b 7566 99bd
000001e0: c451 4c3e 2af3 ac3d 6af2 663c 0b7f fabd
000001f0: 3e10 b4bd 6fd7 83bd f8bc 3b3e 3c83 79be

lstm.bias_hh_l1 f4 [128]
0.06505911 -0.05738831 -0.11601073 -0.13356125 0.09064536 -0.12281181 -0.15299842 -0.17449266
-0.17534976 0.107784435 0.024107087 -0.0159311 -0.21109961 -0.229547 -0.047464028 0.08834706
0.06765499 0.14742692 -0.047825452 0.076825105 -0.17607066 -0.15726928 -0.0638568 0.08398715
0.13351597 -0.00087283703 -0.031517126 -0.030191343 0.16694318 -0.19347969 0.17391706 -0.12693316
-0.039742846 -0.23910229 -0.09250571 -0.13585824 -0.15290272 0.09110508 -0.09366846 -0.12325859
-0.10999514 0.11641294 0.06934985 0.08950555 0.033696942 -0.03994135 0.12866724 0.05378279
0.053083062 -0.05558076 0.0064804596 -0.057674203 0.045580667 -0.0071795313 -0.054411296 0.02197941
0.1409362 0.15095769 -0.08631618 0.08496439 0.1349413 -0.20880619 -0.024525423 0.04015765
-0.12542173 0.015571682 0.023540199 -0.014805278 -0.032133974 0.03204613 -0.024019398 0.023538224
0.10138541 -0.061911393 -0.06547637 0.097903565 -0.12721704 0.0808659 -0.019046884 -0.17139359
-0.057321887 0.07143491 -0.017165905 0.12645645 0.012053783 0.15526094 0.06063639 0.0058142263
0.075242475 -0.10509532 -0.14289525 -0.04799435 0.03462659 -0.051769298 -0.025893936 0.039279256
-0.17572656 -0.04721287 -0.11659318 -0.010068313 0.046212006 -0.024564322 0.11736347 0.07336824
0.14644311 -0.087459244 -0.08292121 -0.01979302 0.06333092 0.033302613 -0.022287127 0.11807919
0.011721425 0.15981007 0.10259343 0.001724625 -0.04671096 -0.23493135 -0.12671253 -0.26434594
-0.021879265 -0.13571058 0.08066261 0.04964597 -0.099638894 0.10695382 0.15812132 -0.12671302
00000000: b63d 853d 0110 6bbd 0997 edbd 48c4 08be
00000010: 46a4 b93d c284 fbbd 9eab 1cbe 34ae 32be
00000020: e38e 33be 16be dc3d 3a7c c53c f081 82bc
00000030: 7f2a 58be 5e0e 6bbe a469 42bd 4eef b43d
00000040: b38e 8a3d 15f7 163e 9fe4 43bd 7b56 9d3d
00000050: de4b 34be 330b 21be 5bc7 82bd 7401 ac3d
00000060: 69b8 083e 1acf 64ba 1a18 01bd d653 f7bc
00000070: 27f3 2a3e 8a1f 46be 5017 323e c4fa 01be
00000080: 65c9 22bd 3bd7 74be a273 bdbd 6c1e 0bbe
00000090: 8892 1cbe 4d95 ba3d 40d5 bfbd 006f fcbd
000000a0: 2245 e1bd e869 ee3d 4b07 8e3d b04e b73d
000000b0: ce05 0a3d 8b99 23bd 58c1 033e 584b 5c3d
000000c0: a06d 593d a7a8 63bd 095a d43b c93b 6cbd
000000d0: cbb2 3a3d 4642 ebbb 61de 5ebd 2a0e b43c
000000e0: 9451 103e a794 1a3e 8ac6 b0bd cf01 ae3d
000000f0: 0d2e 0a3e 4ad1 55be 8ae9 c8bc 597c 243d
00000100: 8e6e 00be 5e20 7f3c 60d7 c03c d691 72bc
00000110: ea9e 03bd ce42 033d 54c4 c4bc 3cd3 c03c
00000120: 27a3 cf3d cd96 7dbd 7a18 86bd aa81 c83d
00000130: 2f45 02be 059d a53d 3608 9cbc cd81 2fbe
00000140: 5bca 6abd 774c 923d 839f 8cbc cd7d 013e
00000150: 3b7d 453c b9fc 1e3e dd5d 783d 4485 be3b
00000160: ba18 9a3d 373c d7bd 2253 12be b995 44bd
00000170: 9cd4 0d3d 0b0c 54bd 851f d4bc 49e3 203d
00000180: aaf1 33be 4862 41bd 68c8 eebd 91f5 24bc
00000190: cd48 3d3d 1e3b c9bc 425c f03d 1642 963d
000001a0: 2ff5 153e d51d b3bd 98d2 a9bd f924 a2bc
000001b0: a4b3 813d 5268 083d 7e93 b6bc 81d3 f13d
000001c0: 380b 403c 40a5 233e 811c d23d d00c e23a
000001d0: fe53 3fbd d891 70be eec0 01be 5a58 87be
000001e0: 253c b3bc b7f7 0abe 7032 a53d 9359 4b3d
000001f0: 7a0f ccbd 9b0a db3d 8eea 213e 0fc1 01be

fc.weight f4 [1, 32]
0.110661745 -0.05900962 -0.03275878 0.10899126 -0.04913151 -0.05582029 -0.07296855 -0.14658576
-0.13948809 -0.17360257 0.1423773 -0.18727672 0.03869368 -0.071805656 0.09157147 0.21962103
0.13038322 0.12130721 -0.17868282 -0.06834736 -0.036431856 -0.06743003 0.1751072 0.07443874
-0.14137569 -0.13028957 -0.060825787 0.08028248 -0.20037387 0.07659675 0.23231149 -0.014943398
00000000: a0a2 e23d 12b4 71bd 122e 06bd cf36 df3d
00000010: 1f3e 49bd d1a3 64bd 8970 95bd 941a 16be
00000020: f7d5 0ebe dfc4 31be 5bcb 113e 78c5 3fbe
00000030: 447d 1e3d d80e 93bd d389 bb3d 56e4 603e
00000040: 2e83 053e ea6f f83d a1f8 36be b3f9 8bbd
00000050: 9239 15bd c118 8abd 4d4f 333e 5773 983d
00000060: cac4 10be a16a 05be 7624 79bd 246b a43d
00000070: cf2e 4dbe c2de 9c3d 10e3 6d3e 27d5 74bc
