backend/stocks/price/pt_models/ARCT.pt (torch, 54435 bytes, 9 tensors)

lstm.weight_ih_l0 f4 [128, 1]
000000 36 41 62 be a5 57 94 3e e7 58 e7 bc bb 45 69 be
       -0.22095188 0.28973117 -0.028240634 -0.22780506
000010 e4 39 f7 bd 31 63 a9 3d a8 ba 70 bd 95 1f 9e be
       -0.12071589 0.082708724 -0.05877176 -0.3088347
000020 53 20 86 be 1a 95 73 be 38 29 cb 3d 1d b7 0b 3e
       -0.26196536 -0.23787346 0.09919971 0.13644071
000030 d5 d7 88 bd 24 72 b8 bd 9a b8 ce 3e 94 b7 03 be
       -0.06681792 -0.090061456 0.40375215 -0.12862998
000040 86 18 1a be 29 52 1e bd 22 26 16 be 30 ce 77 be
       -0.15048417 -0.038652573 -0.14662984 -0.24199748
000050 e2 87 d5 3e 05 39 46 bd 5b 13 a3 bb 9b 82 18 3e
       0.41705233 -0.04839422 -0.0049766726 0.14893572
000060 fa e2 23 3d cc ed 06 bc b5 b9 03 3e 29 33 07 3e
       0.040011384 -0.008235406 0.1286381 0.1320311
000070 c5 20 4c 3e 7c 8e a0 3e 0e 5f b4 bd 6e 29 de ba
       0.19934376 0.31358707 -0.08807193 -0.0016949603
000080 72 cf 5f be 43 a7 6b 3d 5c 57 fd bd 5c 44 b7 bd
       -0.21856478 0.05753256 -0.12370178 -0.089485854
000090 ea 4b 3f be e2 45 5e 3d 4a 73 a8 bd 05 1c 95 be
       -0.18681303 0.054265864 -0.08225115 -0.2912294
0000a0 c9 68 93 be f2 1a 63 be f1 b0 4c 3d 7f e9 aa bc
       -0.28790882 -0.22178248 0.049973432 -0.020863293
0000b0 f8 c3 52 3e fb 3b 80 be 51 0f 09 3f 85 c9 02 be
       0.20582569 -0.2504576 0.53538996 -0.12772186
0000c0 ec 4a c4 3d c9 c4 8d bb db 14 82 be d6 5e 2c 3d
       0.09584603 -0.004326437 -0.25406536 0.04208263
0000d0 5f 71 be 3e f0 38 1f be 09 65 fa bd 5a 29 0a 3d
       0.3719587 -0.15549064 -0.12226302 0.033730842
0000e0 e1 1a 21 3e 15 8f 9a bd f5 47 c4 3d 7e 1f 0c 3e
       0.1573291 -0.07546822 0.09584037 0.13683888
0000f0 c4 ad 15 3e 5d 01 bf 3d 03 5a 6d be ac 81 47 3c
       0.14617068 0.09326432 -0.23178868 0.012176912
000100 d7 6d 36 be 12 68 11 3d 78 00 c3 bd 8a ce 17 be
       -0.17815338 0.03549964 -0.09521574 -0.14824882
000110 ce 32 50 3e dc 1e ea bd 10 5c 27 3e f2 fe 98 3e
       0.2033188 -0.11431667 0.16343713 0.29882008
000120 d6 59 3b 3e dd b4 b9 3e 11 5b fe 3b 6b 40 dd 3c
       0.18295988 0.362708 0.007762321 0.027008256
000130 a2 d3 b2 3e b2 90 26 3e be dc 8b 3e 99 3e 33 be
       0.34927088 0.16266134 0.2731685 -0.17504348
000140 ed 5a 3e 3d c8 4a 12 3d a1 05 d5 3d bc 54 b1 be
       0.046473432 0.03571585 0.10401464 -0.3463496
000150 dd bd 99 be e5 a4 87 3e 24 79 86 be 09 0b 81 3e
       -0.30027667 0.26492992 -0.26264298 0.25203732
000160 d7 8c 9a 3e c6 82 85 3e 3f 54 91 3e 38 05 b2 3d
       0.30185577 0.26076335 0.28384587 0.08692402
000170 df 1e a4 3d 5a d7 af bd 53 52 7b be 54 8b 14 be
       0.08013701 -0.08585997 -0.24543123 -0.14506274
000180 c6 dd 60 be 50 22 eb ba 18 5a 3b be f9 d8 b2 bd
       -0.219596 -0.0017939303 -0.18296087 -0.087327905
000190 ad 39 9c bd 15 3e fa bc 87 fe a1 bd 1a 62 98 be
       -0.07628188 -0.030547181 -0.07909875 -0.29762346
0001a0 a9 db 02 be 0b cb 85 be 51 2d ee bb 54 6b 40 3c
       -0.12779106 -0.26131472 -0.0072685857 0.011744339
0001b0 67 2b 21 3e 5a ba 4a be 3b c5 00 3f 17 24 a8 bd
       0.15739213 -0.1979765 0.5030095 -0.082100086
0001c0 47 29 eb bd 96 b1 db ba 3a 77 c1 3a 3f 70 6e bd
       -0.114824824 -0.0016761299 0.0014760264 -0.058212515
0001d0 64 6a fa 3e 14 40 11 be 63 1d 8a 3d 76 93 1c 3e
       0.48909295 -0.141846 0.06743886 0.15290627
0001e0 c0 6c 95 3e 29 d7 87 bd 0c 7a 7c 3e c1 d7 86 bd
       0.29184532 -0.066328354 0.24655932 -0.065841205
0001f0 e6 f8 82 3d f1 17 c0 3d 93 18 ed 3c e1 92 2b be
       0.0639513 0.093795665 0.028942382 -0.16755249

lstm.weight_hh_l0 f4 [128, 32]
000000 9b 03 d9 3d db ff d6 3d c2 a4 f0 3d 87 71 dc 3d
       0.10596391 0.10498019 0.11750175 0.10763841
000010 47 7b 23 3e 32 0e 4c 3d 06 c4 b7 bd 6b f2 f6 3c
       0.15964995 0.049818225 -0.089729354 0.03014489
000020 8e 95 0f bd 44 70 a4 bd c5 1b 0a be 5d 1b aa 3d
       -0.035054736 -0.080292255 -0.13487156 0.083060004
000030 c7 b1 5d 3d 22 08 bb 3d f7 71 ed bd 18 10 2b be
       0.05412462 0.091324106 -0.11594003 -0.16705358
000040 99 93 cb bd 1f 83 c4 ba 56 31 d7 bd 2e ac 1a be
       -0.099402614 -0.001499269 -0.10507457 -0.15104744
000050 7b 73 5d bd da 98 c4 3d 8e 79 c1 bc 04 d6 5a be
       -0.05406521 0.095994666 -0.023617532 -0.21370703
000060 f6 e0 a7 3d d3 42 28 3e 73 8f 69 bd 52 ff a7 3d
       0.08197205 0.16431741 -0.05702157 0.08202995
000070 ad 04 90 3c d6 7d ec 3c 1f 8a 01 be 4c 8e de 3d
       0.017580355 0.028868597 -0.12650345 0.10866985
000080 8d f2 91 3d 13 66 99 ba 6d e3 85 bd 22 b8 e4 bd
       0.07126341 -0.0011703394 -0.06537519 -0.11167933
000090 af 5b a0 bd 8d 30 8d 3e 34 c0 53 3c 07 66 cd 3d
       -0.07829987 0.27576104 0.012924243 0.10029226
0000a0 45 11 c1 bc f4 b1 22 3e 64 89 63 bd 1b 24 ec 3d
       -0.023567805 0.15888196 -0.055550948 0.11530324
0000b0 da 51 c2 3d 36 6c 81 3e 5c 6a ac be e2 46 2b bd
       0.09488268 0.2527787 -0.33674896 -0.041815646
0000c0 91 17 5a 3e 29 23 1e 3e 03 65 c6 3c 5f 27 0e bd
       0.21298052 0.154431 0.024218088 -0.034705516
0000d0 0e 6a b3 3d ff cd 66 3e 46 9f 41 bd 16 13 0f be
       0.08760463 0.22539519 -0.047271036 -0.13972124
0000e0 6a 8e 1d be fa d2 c8 bd 81 32 d3 bd 0f 4e ac 3d
       -0.15386358 -0.098058656 -0.10312367 0.08413326
0000f0 85 b0 10 be c6 6e 25 3e c4 e0 90 bd 4d 6d 72 bd
       -0.14129837 0.16155538 -0.07074121 -0.05918627
000100 61 84 2e bd 5b e5 af bd 44 5a 42 be 11 ae ec bd
       -0.042606715 -0.08588668 -0.18979746 -0.11556638
000110 21 f3 26 3d f5 1e af bc 6b 2f 8e bc 49 98 78 3d
       0.04075921 -0.021377066 -0.017356595 0.060692105
000120 fb e8 03 bd 79 ef 95 3d fc b8 42 3e 79 51 dc bd
       -0.03220461 0.073210664 0.19015878 -0.10757727
000130 5a bf 3b be 48 5d 55 bd ee a4 15 be 18 a0 11 be
       -0.18334714 -0.052090913 -0.14613697 -0.14221227
000140 84 51 0a bd aa a3 13 bd cd 62 9c 3d 71 b1 9c 3c
       -0.033769146 -0.036044754 0.07636032 0.01912758
000150 53 07 05 be a7 dd ff bd 4b 63 05 3e 4b 9a fc bd
       -0.12991075 -0.12493449 0.13026159 -0.123341165
000160 be 64 23 3c 9b 4a be bd d4 8a fb bd e4 b3 18 3d
       0.009972749 -0.092915736 -0.12282339 0.037280932
000170 b7 a4 f7 3d 63 db 86 bd 22 de 84 bc a3 7f 01 bd
       0.12091964 -0.065848134 -0.016219202 -0.031615864
000180 49 8a a8 3c 89 d9 56 be 59 58 34 be 4e 88 0c be
       0.020573752 -0.2098142 -0.17611827 -0.13723871
000190 f8 a5 35 3e dd 12 dd 3d d3 45 c9 bd 0d 68 bc 3b
       0.17739093 0.107946135 -0.09827771 0.0057497085
0001a0 f1 2a 96 3d 36 a1 29 be c5 f1 b9 bd 0f 3e db bd
       0.07332409 -0.16565403 -0.09079317 -0.10705196
0001b0 e0 79 c8 3c 7d 9c 20 be 4f af f4 bd 4c 11 8b 3d
       0.024472177 -0.15684696 -0.119475 0.067904085
0001c0 e6 c1 d0 b9 88 7f 35 bb 24 19 d3 3d 5c de b4 3d
       -0.00039817317 -0.0027694423 0.103075296 0.08831474
0001d0 de d9 82 bd 5e 9d 83 3d ed 26 b3 3c eb 97 06 3e
       -0.06389211 0.064265 0.021869147 0.1314389
0001e0 a7 95 13 be 37 dd c3 bd 5e 87 34 bd b2 a5 a9 bd
       -0.14412557 -0.09563678 -0.04407441 -0.08283557
0001f0 51 0f 02 3e e5 47 bb bd 7d 3b 23 3e a2 d0 53 bd
       0.12701155 -0.09144572 0.15940662 -0.05171264
000200 2e f4 30 bd 0c 4e f5 3d d1 fa 19 3e bd 18 b6 3b
       -0.043201618 0.11977777 0.15037085 0.0055571483
000210 a0 2e 1d be 7f 65 ea bc 85 79 3c be f7 cc 08 be
       -0.15349817 -0.02861285 -0.18405731 -0.13359438
000220 c9 8b ce bd a2 f4 aa bb 87 7a 75 bd 83 6a 8b 3d
       -0.10085256 -0.005217151 -0.059931304 0.06807425
000230 6f 95 be bd 3d a1 f4 bc 72 93 86 3d ac 3b 33 3e
       -0.09305846 -0.02986204 0.06571092 0.17503232
000240 2d fb eb bd 6f 5e 17 3e 02 b0 90 bd 9b 66 3c 3e
       -0.11522517 0.14782117 -0.07064821 0.18398516
000250 8c 33 36 bd 74 43 88 b9 33 93 d4 3d d0 f7 48 be
       -0.044482753 -0.00025990198 0.103796385 -0.19625783
000260 79 a1 38 be 9f 1e 26 be 12 38 63 3d 2b 58 3e bd
       -0.18030347 -0.16222619 0.055473395 -0.046470802
000270 d2 4d 3a 3e 51 49 3a bd 94 cc 57 3d e4 6d c6 bd
       0.18193749 -0.045480076 0.052685335 -0.09688929
000280 97 cc 9a bd 04 b3 90 bc e3 1b 57 be 80 ee 4b bd
       -0.07558554 -0.017663486 -0.21006732 -0.049788
000290 e1 88 d1 3d 03 ce 08 3e 6b 18 a8 3d d1 fb fc 3d
       0.10231186 0.13359837 0.08207782 0.12352718
0002a0 b5 06 75 3e 47 c0 8f 3e a8 50 ce bc df cc 36 3d
       0.2392834 0.28076383 -0.025184944 0.044628974
0002b0 35 58 9e 3d 92 6e 40 3e 0f 73 30 be 5f 1c 24 bd
       0.07731668 0.18792179 -0.17231391 -0.04006612
0002c0 59 91 6f bc 90 6d 4e 3d 92 45 74 3c cb 80 8f bd
       -0.014622056 0.050397456 0.014909165 -0.07006987
0002d0 17 24 55 3e eb 6e f5 3d 7c 33 8b bd 34 32 29 3d
       0.20814548 0.119840465 -0.06796929 0.041307643
0002e0 9e a7 fe 3c d1 ae 85 bd 0a 26 b1 bd 43 4f e8 bd
       0.031085785 -0.06527484 -0.086498335 -0.11343243
0002f0 79 9c f3 3d 67 87 3d be 87 03 31 be a0 c9 30 be
       0.11895079 -0.18508683 -0.17286502 -0.17264414
000300 f0 e8 55 3d cb 10 2c bb 79 aa 61 be 8b 1b 3b be
       0.0522241 -0.0026255127 -0.22037686 -0.18272226
000310 ab 06 23 3e 5d 78 fc 3d 2f 08 14 3a c5 5d 23 3e
       0.15920512 0.12327645 0.00056469714 0.15953739
000320 97 1a 1a 3e 53 a2 aa 3d e5 fe 99 3d 1a 24 26 be
       0.15049206 0.08331742 0.075193204 -0.16224709
000330 bc ef 09 3e 6a a1 24 3b 27 e7 3a be c8 87 04 be
       0.13470358 0.0025120624 -0.1825224 -0.12942421
000340 c3 14 4f 3e 07 38 88 3d 05 18 97 bd 53 96 3a be
       0.20222764 0.06651311 -0.07377628 -0.18221407
000350 2e 23 ae 3d fa ef 2e bd 5d 65 eb bd 84 1e 17 3d
       0.08502804 -0.04270933 -0.11493943 0.036894336
000360 b3 bb 2a 3d c8 72 c8 bd f4 a4 3c 3d b8 bd f4 bc
       0.04168291 -0.09787518 0.04605575 -0.029875621
000370 83 6c c7 3d fa 1a 27 bd 59 ed a0 bc e9 82 02 be
       0.09737494 -0.04079721 -0.019644426 -0.12745251
000380 36 a0 3c 3c 28 3c f9 3c f0 a9 f0 3c cd 68 be bc
       0.011512807 0.030424193 0.029377908 -0.023243332
000390 30 d8 85 bb 58 72 06 3e 7f ed 9a bd 09 54 6d 3d
       -0.0040846094 0.13129556 -0.0756483 0.05794147
0003a0 f0 78 e8 bd 31 62 00 be 2d 9e c8 bb 1b 50 8c 3d
       -0.11351192 -0.12537457 -0.0061223716 0.068512164
0003b0 a8 39 4e be d7 ee 90 bd e0 95 90 bc 20 2a 8a bc
       -0.20139182 -0.07076805 -0.017649591 -0.01686579
0003c0 86 46 dd 3d 84 f5 cb 3c 46 02 74 bc bd a8 ea bd
       0.10804467 0.024897344 -0.01489312 -0.114579655
0003d0 52 77 87 bd 37 be 15 bd a6 b8 87 3d 84 11 5c be
       -0.066145554 -0.036558356 0.06627016 -0.21491057
0003e0 05 04 1a be d6 89 01 be cf 4e eb bc ef 13 cd bd
       -0.15040596 -0.12650236 -0.028724102 -0.10013568
0003f0 30 43 d0 bd c7 ec 23 be 04 06 13 be da ae 02 3e
       -0.10169065 -0.16008292 -0.14357764 0.12762013

lstm.bias_ih_l0 f4 [128]
000000 3c d6 97 bc 03 77 0e be 63 ad 03 3e e1 1a ed bd
       -0.018534772 -0.13912587 0.1285911 -0.11577392
000010 e1 80 db bc b8 aa a2 bd 3a 76 a6 3d e5 0e 14 3d
       -0.026794853 -0.07942718 0.08128019 0.036147017
000020 f7 42 08 3e c4 f9 1e 3e 5c 91 9f 3d 04 da 91 be
       0.13306795 0.15524966 0.07791397 -0.28486645
000030 35 02 38 3e 91 6b 28 3e a2 da 96 3d e3 ab 08 be
       0.17969592 0.16447283 0.0736592 -0.1334682
000040 64 c3 ed 3d 33 84 3c bd a4 dc 2b be 04 a9 3b bd
       0.116095334 -0.046024512 -0.16783386 -0.045815483
000050 38 3a ef 3d 2d 68 98 3d 22 d9 07 be 66 03 8d bc
       0.11681026 0.07441745 -0.13266423 -0.017213535
000060 e8 e2 5e 3c 49 04 1d 3e ee f1 4e be d5 66 5a be
       0.013603903 0.15333666 -0.20209476 -0.2132829
000070 e7 64 98 3c 89 00 b3 3d be 28 fa 3d 24 31 2e bd
       0.018602801 0.087403364 0.12214802 -0.042527333
000080 94 7d 0b 3e 82 8b 7e be af dd 07 3e 06 74 26 be
       0.13622123 -0.24857906 0.1326816 -0.16255197
000090 1d ca c5 3d 96 ad 9e be 0b c8 07 bc 2d dc 0e 3d
       0.09657691 -0.3099181 -0.00828744 0.034877945
0000a0 af a5 a3 3d f9 55 35 3d 3b 15 41 be 9a 22 97 be
       0.07990586 0.044271443 -0.18855755 -0.29518586
0000b0 af 27 f3 3d a6 14 1d bd d4 8e 8b bd ce 0d 59 3d
       0.118728034 -0.03834977 -0.06814352 0.05299168
0000c0 5e 64 2a 3e 10 6c 9c bb be 35 a9 3b a9 dd f3 3d
       0.1663985 -0.0047736242 0.0051638773 0.11907513
0000d0 7c fd e8 bd d5 c3 2d be 67 85 5e bd 05 1c df 39
       -0.11376473 -0.16969235 -0.05432644 0.0004255475
0000e0 d9 46 72 3e fb 5c b1 bd 89 35 2d be 69 11 44 bd
       0.23659839 -0.08660313 -0.16914953 -0.047868166
0000f0 a1 90 9d bd 18 5a 6a be fe 74 8e bd 06 76 a7 bc
       -0.076936014 -0.2288593 -0.06955908 -0.02044202
000100 68 cb 34 3e 97 a2 82 bd bc 9e d0 3d 88 a2 60 bd
       0.17655718 -0.06378668 0.10186526 -0.054842502
000110 5d e7 7f bd 82 3d 29 3c 78 17 4f 3d 5d ac 22 be
       -0.062476505 0.010329606 0.05055949 -0.15886064
000120 21 da 75 3d 0e 25 35 bd b4 0a 9f 3d 40 9e b3 3b
       0.060022477 -0.04422479 0.07765713 0.0054815114
000130 d8 d5 86 3d c6 5c 0d be a9 b8 8f 3c 41 8a ad bd
       0.06583756 -0.13804922 0.017544108 -0.084736355
000140 1b a7 42 be f8 e8 62 bd 8c 1c 87 bd 17 2e 04 bd
       -0.19009058 -0.055397958 -0.06597242 -0.032270517
000150 4a 1a e6 bd 80 68 cb bd ec c5 0b 3e f7 7b 27 3d
       -0.11235483 -0.09932041 0.1364972 0.040889706
000160 c6 32 27 3d de bc b7 3d a7 c3 0b 3d 13 1a 70 bd
       0.040819906 0.089715704 0.034122135 -0.058618616
000170 95 41 99 bd 3b 4f 8e 3d b5 16 c3 3d 58 f4 e1 3d
       -0.07483212 0.06948706 0.095258154 0.11032933
000180 7f 2c 22 be 24 3c 0c be 61 c9 3e be 63 10 cf bb
       -0.15837286 -0.13694817 -0.18631507 -0.006319092
000190 fe 8d 34 3d e0 0a 2b be b8 11 56 be a3 60 24 3e
       0.044080727 -0.16703367 -0.20905197 0.16052489
0001a0 e0 f4 d0 3d 23 76 0b 3d a5 46 04 bd c6 fc 42 be
       0.10202956 0.03404821 -0.032293934 -0.19041738
0001b0 07 8f 35 3e b5 f7 16 3c fb db a3 bd d4 0d bd bd
       0.17730342 0.009214331 -0.08000942 -0.09231153
0001c0 ab b1 f3 bd a1 13 19 be c8 28 b7 bd 78 b5 0b 3e
       -0.11899122 -0.14948894 -0.08943325 0.13643444
0001d0 6f 41 83 bc 15 57 3a 3e e5 25 05 be 0b 9a 17 3e
       -0.016022412 0.18197282 -0.13002737 0.14804856
0001e0 71 08 b5 3d e5 64 2e be 0b ea 8c 3d d8 98 1e be
       0.08839501 -0.17030676 0.06880578 -0.15487993
0001f0 ed 0a 2a 3d 65 62 5d bd 1a 7d 5a bd 58 b8 10 be
       0.041514326 -0.054048914 -0.053341962 -0.14132822

lstm.bias_hh_l0 f4 [128]
000000 01 1a 8e 3d ba 24 91 be c4 73 53 bb 22 e1 a6 bd
       0.069385536 -0.28348333 -0.0032265047 -0.081484094
000010 48 48 a3 bd 65 df a3 3a 38 72 a2 bd 05 33 19 3d
       -0.07972771 0.001250249 -0.07931942 0.03740217
000020 2d 33 17 be c9 d6 64 3d 53 3a 76 be 2f e5 21 be
       -0.14765616 0.055868898 -0.24045686 -0.15810083
000030 4d c5 be 3d 6b fb 19 be 5e 41 20 be 97 d0 b3 3d
       0.09314976 -0.15037315 -0.15649936 0.0878002
000040 2e 07 30 3e 70 a3 32 be a7 18 06 be 0c a5 db 3d
       0.17190239 -0.17445159 -0.13095342 0.107248396
000050 04 27 a0 bd 29 54 8c bd 28 2c 40 3d 60 32 71 3e
       -0.07819942 -0.0685199 0.04691711 0.23554373
000060 c2 31 24 3d 16 ab 5d bd 1a 70 a0 3d aa dd 8b bc
       0.040086515 -0.05411824 0.07833882 -0.017073471
000070 c0 6f 1a be a9 c4 8c bd ae 80 11 be 87 36 82 bd
       -0.15081692 -0.068734474 -0.14209244 -0.063580565
000080 83 d2 b7 3d 0a a2 47 be b7 97 15 3e 8f b4 6c bd
       0.08975699 -0.19495407 0.14608656 -0.05778938
000090 96 4a 08 3e f5 b7 79 be 75 79 68 be 6c 0e 50 3e
       0.13309702 -0.2438658 -0.22702582 0.20318002
0000a0 f6 21 23 bc 70 8e ea bd 38 00 fb bd 55 0b 15 be
       -0.009956827 -0.11452949 -0.12255901 -0.14555104
0000b0 a8 c7 96 bc 76 b9 fc 3d 48 b8 32 be 83 c9 b5 bc
       -0.01840575 0.12340061 -0.1745311 -0.022190815
0000c0 0c cc 26 bd dc df d9 3d 14 0e d2 bd 62 69 9f 3d
       -0.040721938 0.10638401 -0.102565914 0.07783772
0000d0 1c 07 bb bd 5e 57 0b 3e d3 77 d8 3d 37 60 44 3e
       -0.091322154 0.13607547 0.1056973 0.19177328
0000e0 00 4e 5b 3e 29 ae 1d be ca 29 e6 3c 10 82 41 be
       0.21416473 -0.15398468 0.028096098 -0.18897271
0000f0 8a 37 42 be 34 0f c2 3b 6a 76 96 bd dd dc 3d be
       -0.18966499 0.0059222225 -0.073468044 -0.18541284
000100 99 a0 c3 3b 19 cb 2a 3e ae d3 a7 bd 49 bd c7 3d
       0.0059700725 0.16679038 -0.081946716 0.097529
000110 4b 95 9c bd b5 bd 67 bd 3b f2 4d 3c cc d4 35 3d
       -0.07645663 -0.056577403 0.012569959 0.044392392
000120 d9 a7 a7 bd 54 e7 24 3e 7f ab c1 bd 62 f5 53 3d
       -0.08186311 0.1610387 -0.094565384 0.051747687
000130 d5 b6 ac 3d ad fa e4 bd 9a 6d 25 3e 45 7f 3b bd
       0.0843331 -0.11180625 0.16155091 -0.04577567
000140 64 d8 67 bd c2 8d 6d 3d 9b ba 2b be 7a 93 6c bd
       -0.05660285 0.05799652 -0.16770403 -0.057757832
000150 44 cb cf bd 68 53 02 3e 94 b5 90 bc 04 ed 33 3e
       -0.10146192 0.1272713 -0.017664708 0.17570883
000160 5a 87 f7 3d 86 8a d2 3c b2 af 28 bd 61 3f 91 3d
       0.12086363 0.025700819 -0.04118318 0.07092167
000170 6c 04 ff bc f7 5e 0a 3c f4 7d a7 bd 6d 91 9d 3d
       -0.031130038 0.008445493 -0.081783205 0.076937534
000180 c3 9b ee bd cf 62 6b bd a7 73 71 3c f9 4c 22 3e
       -0.11650803 -0.057467278 0.014737046 0.15849675
000190 bf 25 89 3d 13 2b f4 bd 48 11 9a 3d 3c 1f e2 bc
       0.066966526 -0.11922278 0.075228274 -0.027602784
0001a0 d0 33 cb 3d 55 18 28 3e 6c 04 07 be bf cc 26 bd
       0.09921992 0.16415532 -0.1318528 -0.040722605
0001b0 0b 66 21 3e e2 a7 e7 3d 88 22 3b 3d a2 5a bf 3d
       0.15761583 0.11311318 0.04568723 0.09343459
0001c0 0e 44 ca bd ca d7 a8 bd 61 88 2d bd f6 9e e8 3d
       -0.09876262 -0.082442835 -0.04236639 0.113584444
0001d0 90 6d d7 3b 88 7e ae 3d 5a 03 2e be 09 d6 5b 3e
       0.00657434 0.08520228 -0.16993466 0.21468367
0001e0 72 27 7f bd 0b c9 0f be 0e f3 bb bd d6 6b 4d be
       -0.062293477 -0.14041536 -0.091772184 -0.20060667
0001f0 70 59 8a 3d dc e4 fe bd 0c a5 97 bd 3d 60 b2 bd
       0.0675534 -0.12445995 -0.07404527 -0.08709762

lstm.weight_ih_l1 f4 [128, 32]
000000 82 3f b0 bd 8a 96 4c 3d 00 33 92 bd 3d 11 f9 3d
       -0.08605863 0.049948253 -0.07138634 0.12161491
000010 e5 41 3e 3d 54 fc 77 bc 95 c6 3f be 41 37 d7 3b
       0.04644956 -0.015135843 -0.18728097 0.006567866
000020 88 f9 dd 3d b2 f7 87 bd 74 c9 f4 3d 5a d4 f3 bd
       0.1083861 -0.06639041 0.11952487 -0.11905737
000030 c9 cf 95 be e4 72 19 be 2e 40 82 3c bc c0 51 3c
       -0.2926009 -0.14985234 0.015899744 0.012802299
000040 bb 39 34 bd e6 dd 09 be c7 54 ce 3d 1c 4e 43 bc
       -0.04400037 -0.13463554 0.10074764 -0.011920478
000050 26 1f 53 3e 68 b4 18 be 76 c2 0d 3c 44 50 38 be
       0.20617351 -0.1491257 0.00865232 -0.17999369
000060 cd 0e 6e bd 70 09 27 3e c0 f8 df bc af b4 35 3a
       -0.058119584 0.16312194 -0.027340293 0.0006931526
000070 6d 60 10 be e4 63 c5 b8 08 bf 39 3e c2 da fe bd
       -0.14099284 -9.412298e-05 0.18139279 -0.124440685
000080 28 44 40 bd 73 28 01 3e 8b 12 27 be 94 39 54 be
       -0.04694 0.12613086 -0.16315667 -0.2072509
000090 c2 2b 93 3d 6c eb e4 3d 63 da 8c bd d8 0a 71 bc
       0.071860805 0.11177716 -0.068775915 -0.014712058
0000a0 f1 a4 ff bd f8 c0 80 bd e9 ed 4d 3d 3a 62 7a bd
       -0.12482632 -0.06286806 0.050275717 -0.061128832
0000b0 3d be 11 3e ab b8 85 bd 08 ce a1 3d bb b2 85 3c
       0.14232726 -0.06529363 0.079006255 0.016320577
0000c0 95 d1 dd bd 73 0e 26 3e 8e 15 74 3c cc 61 c9 3d
       -0.1083099 0.1621645 0.014897717 0.098331064
0000d0 3c e1 86 bd 20 dc 22 3e 55 62 17 bd 29 69 1c be
       -0.06585929 0.15904284 -0.03695901 -0.1527449
0000e0 f0 ed d3 3d 5c cf c4 3d 4b 46 3b be b2 26 1d be
       0.10348117 0.09609863 -0.18288533 -0.15346792
0000f0 2c 32 0a 3e ee 87 87 be a5 42 52 be fb 01 25 be
       0.13495702 -0.26470894 -0.20533235 -0.16114037
000100 cf 5d 44 be 06 4b d6 bd bd 3a 40 be 12 65 90 3c
       -0.1917641 -0.10463528 -0.18772407 0.01762632
000110 65 e5 31 3e 66 07 f2 3d c0 44 eb 3d 24 dd 00 3e
       0.17372663 0.118178174 0.114877224 0.12584358
000120 5c 3b 1a 3e 4c 12 00 3e 13 94 74 3e bb bb b9 bd
       0.15061706 0.1250698 0.23884611 -0.0906901
000130 d3 63 b7 3d 1b b7 59 3e ad ce 60 bb e1 02 a9 bd
       0.08954587 0.21261255 -0.0034302876 -0.08252502
000140 65 41 c4 3d 43 af 54 bd 3f 46 13 bd 3c b4 ef 3d
       0.095827855 -0.051924955 -0.035955664 0.11704299
000150 0c 24 33 3e 2d d7 da bd d8 e5 b7 3d 02 75 ca 3c
       0.1749422 -0.10685573 0.08979386 0.024713997
000160 68 46 1e 3e 0a 2b 33 be 21 24 96 3d 6a 0f 21 3e
       0.15456545 -0.17496887 0.0733111 0.15728536
000170 49 01 5b 3e a0 04 4c bc 29 4a ae 3d 15 9e ce 3d
       0.21387209 -0.012452275 0.08510239 0.100887455
000180 51 5e 8a bc bb 78 86 bc c9 85 e1 bc d7 cd 78 bd
       -0.016890677 -0.01641499 -0.027529614 -0.06074318
000190 51 92 7b bd d3 88 8d 3d d6 7b 4b be 37 6c c0 3d
       -0.061418835 0.06910863 -0.19871458 0.0939564
0001a0 58 31 50 3d a6 18 cd 3d a5 d2 28 3b 9a 92 f3 3d
       0.050828308 0.10014467 0.002576032 0.118931964
0001b0 3b b9 34 bd 43 b0 8d 3d 88 5c c5 bd e7 26 25 bd
       -0.044121962 0.06918385 -0.096367896 -0.040320303
0001c0 8f 5e 20 3e 3b 96 b6 bd 1f 23 f3 3d ea cf e5 bc
       0.15661071 -0.08915373 0.11871933 -0.028053243
0001d0 18 7c 42 3e 93 40 9e bd b4 52 19 3b b0 c7 7d be
       0.1899265 -0.0772716 0.0023395242 -0.24783206
0001e0 b4 fe cc bd e9 25 f4 3d 19 ce 38 be 75 c1 17 be
       -0.10009518 0.11921293 -0.1804737 -0.14819892
0001f0 41 89 7c 3d 36 4d 88 bd ec af 19 3e d3 68 e3 3c
       0.061654333 -0.06655352 0.15008515 0.027759945
000200 5c 27 17 3d 33 57 07 be bd 94 78 be 12 ac db bd
       0.03690277 -0.13216858 -0.24275489 -0.10726179
000210 88 88 3b 3e d1 33 5d 3e bb 68 9f bd f4 8d 07 3d
       0.18313801 0.21601798 -0.077836476 0.03309436
000220 d5 db 76 3d 79 17 26 3e 36 d3 cc 3d 1d 4d ba bd
       0.060268242 0.16219892 0.10001223 -0.090967394
000230 1e dd 01 3c 4b bd ab bc 7a 11 87 3d 11 f0 26 bd
       0.007926254 -0.020964285 0.0659513 -0.04075629
000240 75 10 ee bd ca d8 22 3d 90 f3 4b 3e ce 33 07 3e
       -0.11624233 0.039757527 0.1991713 0.13203356
000250 ac fb 58 be 54 a5 88 3c c5 d6 11 3c 29 64 1b be
       -0.21189755 0.016680397 0.008901303 -0.15174927
000260 21 83 1d bd 15 26 31 be 06 fb c9 3d 35 18 b9 bd
       -0.038455132 -0.17299683 0.09862332 -0.0903782
000270 1d 26 ae bc 1b 68 cf bb f5 fa 16 be 64 7e 5b 3b
       -0.021258408 -0.006329549 -0.1474417 0.0033492083
000280 58 fa 53 bc 84 95 fa 3d 52 ca 17 be 74 1d b9 bd
       -0.012938105 0.12235549 -0.14823273 -0.09038821
000290 c6 f1 b9 bd 25 11 8f 3d 9c 20 05 bd 84 a9 85 3d
       -0.09079318 0.06985692 -0.0325018 0.06526473
0002a0 6d ca 8f bc b5 81 1a be 5e 7b 42 3d 87 ac da bd
       -0.017552579 -0.15088542 0.047480933 -0.10677438
0002b0 4e 1e c3 bd 48 75 61 3d 72 2d ec 3d c3 d5 bc bd
       -0.095272645 0.05504349 0.115321055 -0.09220459
0002c0 08 37 aa 3d 79 af ec 3c 0f 49 77 bd 3b 7e b5 3d
       0.08311278 0.028892266 -0.06037241 0.08861967
0002d0 79 da 02 be 27 9a 1a 3e ac bd ef 3d df e4 df bd
       -0.12778653 0.15097867 0.11706099 -0.109323256
0002e0 98 11 b6 3d cf e9 41 be 9b ad 2e be ab f6 f9 3d
       0.088900745 -0.18936847 -0.17058413 0.12205251
0002f0 72 59 e8 bc d8 e2 3c be 95 97 84 bd 79 43 4d be
       -0.028362963 -0.18445909 -0.064742245 -0.2004527
000300 ad e3 41 3d 9f 16 58 be b5 84 c9 bd 60 94 13 3d
       0.04733627 -0.2110238 -0.09839765 0.036030173
000310 54 bf 2c be 59 91 3d 3e cd 2b e0 bd 5e ad 29 3c
       -0.16869861 0.18512477 -0.10945854 0.010356275
000320 98 6b 08 be b3 8a aa 3d b3 aa c7 3d 2b 7f 2b be
       -0.13322294 0.08327236 0.09749355 -0.1674773
000330 8c 35 54 bd 6c 18 9f bc e2 3f 87 ba 8e 24 d0 bd
       -0.05180888 -0.019420825 -0.0010318721 -0.10163222
000340 cb 52 23 3e b8 5b 1a 3e 85 9b c2 3d a4 7e 34 3e
       0.15949552 0.1507405 0.09502319 0.17626435
000350 fc c5 5b bd ca f9 ef 3d ae 5a ac 3c 2e 99 42 be
       -0.05365561 0.11717565 0.021039333 -0.19003746
000360 e9 3f b4 bd 4e 17 97 bd da a6 b8 3d ac 4a 34 be
       -0.088012524 -0.07377492 0.090161994 -0.1760661
000370 c3 5e 01 3e 48 e2 bf 3d 4d 8f f7 3d 58 db 91 bc
       0.12633805 0.093693316 0.12087879 -0.017804787
000380 4f 37 31 be 1a 3a 75 be c9 4c e4 bd 84 52 58 be
       -0.17306255 -0.23947945 -0.11147458 -0.21125227
000390 0a b2 62 3e 6b ea 0d 3d 33 4b 81 bd b2 88 21 3c
       0.22138229 0.034647387 -0.06313171 0.009859251
0003a0 7d df 2a 3d 1e 77 9d 3e 95 bb 39 3e 56 a5 ac 3d
       0.04171704 0.30754942 0.18137963 0.08429973
0003b0 47 ab 8b 3e f0 b2 90 3e 49 02 48 be ae d6 06 bd
       0.27279112 0.28261518 -0.19532122 -0.03291958
0003c0 28 1b ce 3d c8 24 86 3e 37 75 8a 3e b4 3f e9 bd
       0.100637734 0.26199937 0.27042553 -0.113891035
0003d0 50 59 8a bd 64 c3 a5 3e 4a e6 06 be 73 d9 61 3e
       -0.06755316 0.32375634 -0.13173786 0.22055607
0003e0 16 03 ab 3e 80 8f 8e be d8 40 32 3d 36 10 21 be
       0.33400792 -0.27843857 0.04351887 -0.1572884
0003f0 b3 be 3d 3e 5a 89 45 be ba ea 9b be c5 76 4c be
       0.18529777 -0.19290677 -0.3045252 -0.19967182

lstm.weight_hh_l1 f4 [128, 32]
000000 bf 43 d3 3c 07 bb 63 be 74 bf 84 bd 7d e9 a6 bd
       0.02578914 -0.22239314 -0.06481829 -0.08150003
000010 dd b1 c9 bc ca b5 dc 3d d2 f2 9b 3c 97 4d 25 be
       -0.024620945 0.10776861 0.019036684 -0.1614288
000020 a2 39 14 be 9a 99 d6 3d 19 87 82 3d d8 e3 45 3e
       -0.1447511 0.10478516 0.06373424 0.19325197
000030 99 d1 08 3e 19 9a ae bd f8 22 3d 3e 03 08 8a 3d
       0.13361205 -0.085254855 0.18470371 0.06739809
000040 63 6c 69 bd 2d 8e c8 3d 32 35 d9 3d 67 0c fc 3d
       -0.05698813 0.09792743 0.10605849 0.12307053
000050 17 5a 24 3c 04 ec 0f be 88 91 ac 3d 9a f9 bb bd
       0.010031245 -0.14054877 0.084261954 -0.09178467
000060 bf 9b 13 be c8 70 1d 3e ad 9e a4 3d c4 5c 07 3e
       -0.14414881 0.15375054 0.080380775 0.13218981
000070 57 c9 22 3e c3 c4 39 39 8e 44 12 3e 9d e9 69 bd
       0.15897118 0.00017716274 0.14283964 -0.057107557
000080 79 ed 9a 3d a9 05 28 be 4d 38 7f 3c c1 6b 45 3e
       0.075648256 -0.16408409 0.015577388 0.19279386
000090 66 ed 0a bd 34 76 c3 3b b1 a0 26 3e f5 89 36 3e
       -0.033917807 0.0059650186 0.16272236 0.17826064
0000a0 fb 57 28 bd 45 f0 92 3c 49 61 98 3d 39 48 6e bd
       -0.04109953 0.017936835 0.07440431 -0.058174346
0000b0 d3 7c dd 3d 58 d1 5e bd 26 22 19 bd 33 bf 2e be
       0.10814824 -0.054398865 -0.037386082 -0.17065124
0000c0 b6 c5 00 be b6 d7 9b bd c7 ce 01 3e 35 88 8a bd
       -0.1257542 -0.07609503 0.12676536 -0.06764261
0000d0 ad 61 cb bd a2 94 00 be 30 ab 4f bb ea 70 24 be
       -0.099307396 -0.12556699 -0.003168773 -0.16058698
0000e0 25 94 2d bc a8 14 84 3d c6 35 31 3d 04 49 f2 3d
       -0.010594402 0.06449252 0.043264173 0.11830333
0000f0 3d 74 41 bc d1 a6 15 3e 15 60 45 3d 48 22 71 3e
       -0.0118074985 0.14614417 0.048187334 0.23548234
000100 73 03 9b bd 00 06 17 be 25 0e bc bd b0 85 91 bd
       -0.07569017 -0.14748383 -0.09182385 -0.07105577
000110 46 a0 9d bd f6 33 18 3e e8 a5 d3 bd f4 48 fb bd
       -0.07696585 0.14863572 -0.103343785 -0.12269774
000120 6a 86 21 3e 21 36 31 bd 14 16 0e 3d c8 55 01 3e
       0.15773931 -0.043264512 0.034689024 0.12630379
000130 71 95 ea 3d 02 bd 9e 3c 3e c3 2a bd af ae 1e be
       0.11454285 0.019377235 -0.041690104 -0.15496324
000140 71 f4 4e 3e 8c 60 e8 bd 00 71 e4 bc 46 3e 83 bd
       0.20210434 -0.1134654 -0.027885914 -0.06408362
000150 ba a7 32 be b8 06 19 be 1c d3 c1 bd f1 dc d7 bd
       -0.17446795 -0.14943969 -0.09464094 -0.10540188
000160 b4 20 5e bd 7f 84 b0 3d 19 b2 e2 bc 02 d3 34 3d
       -0.054230407 0.086190216 -0.027672814 0.044146545
000170 7d 69 86 3d a2 9b 9b bd 2f 23 00 3e 63 99 8a bc
       0.06563089 -0.07598044 0.12513421 -0.016918844
000180 2b a3 bc bd 4c 5f 4f be e1 61 04 3d e8 b7 14 be
       -0.09210809 -0.20251197 0.032319907 -0.1452328
000190 0b cf 97 bd 26 b1 c0 bc d5 6c 14 be b6 91 2a be
       -0.07412537 -0.023521971 -0.14494641 -0.16657147
0001a0 6d 53 92 3c bf 92 69 bc 91 b3 ee 3d 08 fb f7 bb
       0.017862046 -0.014256178 0.11655343 -0.007567767
0001b0 6b 3f dc bc 0a fa cc bc 0c cb d9 3d f4 8d ab bd
       -0.026885709 -0.025021572 0.10634431 -0.08376685
0001c0 41 b2 0e be 80 c2 87 3b 4d 4c 27 be 0f 71 09 3e
       -0.13935186 0.0041430593 -0.163377 0.13422035
0001d0 d4 a5 8b bd 4b 98 59 bc b2 7a d9 bd 1e 5c bf bd
       -0.068187386 -0.013280938 -0.106191054 -0.09343742
0001e0 68 ee 0f be d7 d4 bb bd a0 33 82 bd 33 cb c0 3c
       -0.14055789 -0.09171455 -0.06357503 0.023534393
0001f0 77 5f 43 3d 4c 3d 3c bd ac 8f 63 ba d4 2c ac 3d
       0.047698464 -0.045956895 -0.00086807716 0.08406988
000200 b6 39 52 3e c9 ff d6 3d 5b 6a 0d 3e a1 eb 9b 3d
       0.20529827 0.10498006 0.13810103 0.07613302
000210 25 10 ac bd b5 be 25 be 78 9f 84 3c b5 e1 1f 3e
       -0.08401517 -0.1618603 0.016189322 0.15613444
000220 87 cc 09 3e 6a d0 01 3e fe 68 77 bd dc 63 2e be
       0.13456927 0.1267716 -0.060402863 -0.17030281
000230 23 92 7e bc 88 a4 2c 3d 37 3c 55 3e d1 6b 26 be
       -0.015537771 0.042149097 0.20823751 -0.16252066
000240 df 6e be 3d 28 fc df 3d 65 ff a4 3d 8a c1 07 3e
       0.09298491 0.10936767 0.08056525 0.13257423
000250 15 2d 9d 3d 3d 77 0a be 78 67 2e be 59 6f c4 3d
       0.07674614 -0.13522048 -0.17031658 0.095915504
000260 85 e4 d3 3d cd 0a 8b 3d c2 d5 09 be e5 c4 a2 3c
       0.10346321 0.067891695 -0.13460448 0.019869277
000270 b6 db 6c be 91 0c ed 3d 6f de d0 3d 69 d8 03 3e
       -0.23130688 0.115746625 0.10198676 0.12875523
000280 98 c2 f2 3d 35 d3 1b be cb 75 e3 3d 0a 61 c7 bd
       0.11853522 -0.15217288 0.111064516 -0.097353056
000290 de 66 8d 3d d2 27 06 be 6e 12 51 3d 9c 59 a2 bc
       0.06904386 -0.13101128 0.051042967 -0.01981812
0002a0 a5 be b8 bd 6c 73 0a 3e aa 81 0e 3d 6c 47 3c be
       -0.090207376 0.13520592 0.034791626 -0.1838662
0002b0 1b 7d 0a 3d f7 21 73 3d 09 1f 0f 3e c1 a4 50 be
       0.033810716 0.059358563 0.13976683 -0.20375349
0002c0 d9 20 29 be 1b 1f 59 3e af 4d 89 3d 36 8f 82 3c
       -0.16516437 0.21203272 0.0670427 0.015937429
0002d0 ff aa 2c be 4b b3 a1 bd 4a 22 2f 3d 8e b9 d2 3d
       -0.16862105 -0.078955255 0.04275731 0.10289298
0002e0 1b 1a 83 3d 56 0a d5 3d ed 9a 5e 3d 5e 97 29 3b
       0.064014636 0.10402362 0.054346967 0.0025877575
0002f0 df 79 c3 3d 50 69 44 bd c9 02 d4 bd b3 6c 56 3c
       0.095447294 -0.047951996 -0.10352094 0.013087439
000300 b2 d4 aa 3d 35 68 ab 3d dc 68 f9 bd 92 3c f5 3b
       0.0834135 0.08369485 -0.121782035 0.007484027
000310 42 c4 d7 bd 34 4f 10 be b3 b3 ae bd c1 96 d2 3d
       -0.1053548 -0.14092714 -0.08530369 0.1028266
000320 b2 91 05 3c f3 79 0c be b2 80 ed bd ec 4b 39 3e
       0.008152412 -0.13718395 -0.11596812 0.18095368
000330 b3 1c 90 3d 06 b9 69 3d 56 22 de bd 89 21 f3 bd
       0.07036724 0.057061218 -0.10846393 -0.11871631
000340 4c f5 14 be 77 1e c8 bd 58 38 5f 3d 90 ae f8 3d
       -0.14546698 -0.09771436 0.054497093 0.1214267
000350 fa 86 49 bd 94 24 1a 3e e6 5f 4b be bf db 44 3b
       -0.04920099 0.15053016 -0.19860801 0.0030038205
000360 0e 56 76 3d e2 fa e2 bd 4d 79 22 be 00 21 15 be
       0.060140662 -0.11083008 -0.15866585 -0.1456337
000370 fd b9 7a bc 14 69 94 bd 4a 85 9a bd 1c 6a 0e be
       -0.015303132 -0.072466046 -0.07544954 -0.13907665
000380 71 29 64 3e 1b ae f1 3d 9a 3e f1 bd f8 5d 08 3e
       0.22281434 0.11800786 -0.117795184 0.13317096
000390 10 b3 71 bd 91 c6 f5 bd 6e ba 43 3d 94 78 07 be
       -0.059008658 -0.12000764 0.047785215 -0.1322959
0003a0 81 d7 07 3d 1d 1f 8e 3c 09 36 86 bc c5 95 41 3d
       0.033164505 0.01734882 -0.016383188 0.047261972
0003b0 22 8e 96 3e 37 4d 4d 3e 01 57 a4 3c 68 c9 d0 bd
       0.29405314 0.20048986 0.020061018 -0.10194665
0003c0 c6 75 0d 3d 52 1d 6b 3e 33 b3 b5 bc fa ac 2e 3e
       0.034536146 0.22960404 -0.022180175 0.17058173
0003d0 fe 0a 96 bd 85 4d 16 3e a0 e3 2c be b8 b7 0f be
       -0.07326315 0.14678009 -0.16883707 -0.14034927
0003e0 f3 41 8a 3e a8 1a 08 be bb 64 91 3d 3d 2d cd 3d
       0.2700344 -0.13291419 0.07099291 0.10018394
0003f0 73 9b 15 be 87 01 58 bd ab 57 8f bd 66 2e 34 3d
       -0.1461008 -0.05273583 -0.06999143 0.04398956

lstm.bias_ih_l1 f4 [128]
000000 97 24 f3 bd 3b 16 97 bd e5 5c 4b be df 97 91 3d
       -0.11872213 -0.07377287 -0.19859655 0.07109045
000010 07 eb e0 3c 09 e9 1c 3d 89 8d 27 bd 07 5e f9 3c
       0.02745582 0.038308177 -0.040906463 0.030440344
000020 61 18 bc bd c5 a6 66 bd aa 2b 22 3e 8f fb 17 be
       -0.091843374 -0.056311388 0.15836969 -0.14842056
000030 b3 dc 32 3e f1 da 62 3d 3b ba aa bd c7 92 0a 3e
       0.17467003 0.05538458 -0.08336302 0.13532554
000040 a6 d8 3a 3c 60 ed ae 3a 02 44 a4 3d 04 f1 c3 3d
       0.011404192 0.001334589 0.08020784 0.095674545
000050 e9 17 86 3d ba 62 54 3e c5 75 05 3e e6 93 a4 bd
       0.06547529 0.20740786 0.13033207 -0.08036022
000060 c8 2f c8 bd 95 1e 29 3e 59 df 9d be b0 4a 62 3c
       -0.097747386 0.16515572 -0.30834463 0.013811752
000070 58 0f 58 bd fb 73 fd bd 8c 70 16 be 85 ab 94 3c
       -0.052749008 -0.12375637 -0.1469137 0.018148193
000080 52 32 a3 3c 0a be 89 3c 16 fb 62 3d cd 52 5c 3d
       0.019921456 0.01681425 0.055415235 0.053789902
000090 bf eb 76 3d b5 8a e4 3d 32 a6 94 3d 19 e0 18 be
       0.06028342 0.11159269 0.07258262 -0.14929236
0000a0 32 35 33 bd 98 7a ab 3d 8d db 2f 3d 15 5c 16 be
       -0.043751903 0.08372992 0.04293399 -0.14683564
0000b0 b2 53 f2 bc 59 b3 8b 3d a3 26 18 3e 9e 9b 82 3c
       -0.029580925 0.06821317 0.14858489 0.015943345
0000c0 fa d9 16 3d 0e 30 e1 3d e6 0f bf 3d d0 d4 e4 bd
       0.036828972 0.10995494 0.09329204 -0.11173403
0000d0 58 37 04 3e 71 2c f4 3c 3c 2d 46 3b 0f 79 3d bd
       0.12911737 0.029806348 0.0030239364 -0.04625803
0000e0 ac 37 1d bd ad 18 13 3e 04 72 b7 be 71 2b 90 3d
       -0.03838317 0.14364882 -0.35829175 0.07039536
0000f0 4e 85 45 be f9 d7 1f be fe 03 7b be e9 9f b9 3c
       -0.19289133 -0.15609731 -0.24513242 0.022659259
000100 03 6d 08 be 68 ef 14 3d 31 b2 9a 3d 5a 35 ec bd
       -0.13322835 0.036361128 0.075535186 -0.115336135
000110 f4 55 8e bd 79 15 be bd 6f 8e af bd b5 59 96 bd
       -0.06949988 -0.09281439 -0.08572089 -0.07341329
000120 67 7e dd bd f2 2a bf ba 03 c8 9e bd ea 53 fe bd
       -0.10815125 -0.0014584942 -0.07752993 -0.12418349
000130 b4 4f c3 3c d4 d4 0a be 1a 82 41 be 18 11 5a 3e
       0.023841716 -0.1355775 -0.18897286 0.21295583
000140 71 ce b6 bc fe d2 dc 3b 1e d8 c6 bd 11 83 d0 3c
       -0.022315236 0.0067390194 -0.0970919 0.025453122
000150 8c b8 0f bd 09 cd 4f be 2b 27 6c 3d 05 e9 13 3c
       -0.035088107 -0.20293058 0.05765454 0.009027724
000160 90 dd 31 3d 05 ce 2c 3e 08 61 b8 3d 9e a2 1f 3e
       0.04342419 0.16875465 0.09002882 0.15589377
000170 86 b4 16 bd 3e b0 98 3d e3 d4 81 bd a9 5f 3b be
       -0.036793254 0.074554905 -0.06339433 -0.1829821
000180 e1 1d e4 3d 49 4f f7 bd 78 52 48 be 6c dd da 3d
       0.111385114 -0.12075669 -0.1956271 0.10686764
000190 b8 d3 a1 bd d1 1f f9 3d e0 e1 f0 3d d0 ca 62 bd
       -0.0790171 0.121642716 0.11761832 -0.0553692
0001a0 8a f6 09 be 6b a9 fe 3d f9 57 34 3d 70 7d 94 bd
       -0.13472953 0.12434658 0.04402921 -0.07250488
0001b0 f7 f6 4d 3e d6 3b 32 3e d6 79 08 3e e7 a4 43 3e
       0.20113741 0.17405638 0.13327727 0.19105874
0001c0 9b d0 a6 bd 0b d6 9c bd fa 5e 62 3e 20 a4 35 3e
       -0.08145257 -0.07658013 0.22106543 0.1773839
0001d0 2c 83 84 3d 32 db 3b 3e 6d 21 8d bd 1b ea 06 be
       0.064703315 0.18345335 -0.06891141 -0.13175242
0001e0 f1 d0 b7 3c b4 a3 92 3d 16 1e a9 be 7a 15 af 3d
       0.022438498 0.0716013 -0.33030766 0.08549018
0001f0 14 10 0b bc 8c 51 91 bc c5 f6 a7 3d 88 6f 06 3e
       -0.00848772 -0.01773908 0.082013644 0.13128483

lstm.bias_hh_l1 f4 [128]
000000 e0 20 bc bd 81 5b 36 bd 41 a7 3a be 89 84 ac 3d
       -0.09185958 -0.04452086 -0.18227865 0.084237166
000010 42 e6 f8 3d 22 74 32 3d b4 08 d5 bc 99 20 43 be
       0.12153293 0.043567784 -0.026005127 -0.19055404
000020 46 e5 bc 3d f0 d4 f2 bc a2 f7 84 3b 39 1c 6b bd
       0.09223418 -0.029642552 0.0040578404 -0.057399962
000030 2a f5 ee 3d 94 85 3f bd 87 7a 06 be 20 3b 25 3e
       0.11667855 -0.04675825 -0.13132678 0.16135836
000040 4f 26 98 be e2 99 bf bd 79 b3 0a 3e ee a6 93 bc
       -0.29716727 -0.09355523 0.13545026 -0.018023934
000050 c8 fe 20 3e 52 a7 0d 3e 0a b5 20 3e 0b 47 77 3c
       0.15722191 0.13833359 0.15694061 0.015092622
000060 86 2f 3c bd 14 cb 43 bb 73 d3 59 be 27 79 6b bc
       -0.04594376 -0.0029875683 -0.21272068 -0.014372147
000070 1d e2 33 be 0d 23 12 3d 74 47 b4 bd 47 8b 30 3e
       -0.17566724 0.03567796 -0.08802691 0.1724063
000080 65 52 84 3c a5 07 07 bc cc b3 19 bd 31 73 27 be
       0.01615257 -0.008241569 -0.037524983 -0.16352536
000090 8a 35 e6 3d 41 b2 c8 3d 15 a5 01 be b4 9a 6e be
       0.112406805 0.09799624 -0.1266063 -0.23301202
0000a0 34 19 22 be 8e d1 11 3d 45 cc 79 bd 26 78 23 3b
       -0.15829927 0.035600238 -0.060985822 0.002494344
0000b0 e9 18 d6 bd 71 0e 18 3e 39 af 14 3e dd 9b fc bd
       -0.1045397 0.14849259 0.14519967 -0.12334416
0000c0 44 a2 31 be cb f8 3d 3e 05 31 93 3d dd 80 1d 3e
       -0.17347056 0.18551938 0.07187084 0.15381189
0000d0 9f 1b 62 3d 5f 35 14 3e 4c 5c 86 bc 31 9a b8 3c
       0.055202123 0.14473484 -0.016401432 0.022534462
0000e0 ac 5f 7c bd 05 d1 c3 3d 9e ca 95 be 27 eb 57 3d
       -0.061614677 0.09561352 -0.29256147 0.052714493
0000f0 2c 96 5f be 81 d6 1b 3e b9 54 02 be 22 1b 03 be
       -0.2183463 0.15218545 -0.12727632 -0.12803319
000100 0f ce 21 bd f8 1e a1 bd 8b 3d ab bd c4 f7 42 be
       -0.039503153 -0.07867235 -0.08361348 -0.19039828
000110 ca 3c c1 3d c2 4d e1 3d 49 97 e2 bd 91 9e 5f 3d
       0.09435423 0.11001159 -0.110640116 0.05459458
000120 33 ec 1a bd 09 8b c9 3d 24 ce 7c 3d 8d 50 dd 3c
       -0.037822913 0.09840972 0.06172003 0.027015949
000130 cd a3 53 be 2f e9 07 be 48 db 0c 3e 93 16 d2 bc
       -0.20667954 -0.13272546 0.13755524 -0.02564553
000140 d4 21 76 3c 64 cc 1e be 9c fd aa bd 4c fe 32 be
       0.015022714 -0.15507656 -0.083491534 -0.17479819
000150 a1 64 95 3d 42 17 57 3d fe ec 7f bd 6c 0e b8 bd
       0.07294584 0.052512415 -0.062481873 -0.08987126
000160 94 83 5c bd e3 ba 13 be b4 0e d0 bd af b2 94 bd
       -0.05383642 -0.1442676 -0.101590544 -0.07260644
000170 ea ce b3 3d f0 72 9b bd ea a5 62 3d b1 ed 97 3c
       0.087797 -0.07590282 0.05533401 0.018545957
000180 5f 2f d9 bd b3 38 cc 3d 59 78 6a 3d ad e4 78 bd
       -0.106047384 0.09971752 0.05724368 -0.060764957
000190 d3 19 be 3d f0 ac 2e 3c 08 9a 7d 3c 41 04 bd bd
       0.09282269 0.010661349 0.015478618 -0.09229327
0001a0 8a 70 40 3e d1 ab c3 bd a9 cc 1a bd 33 0e 21 be
       0.1879293 -0.09554256 -0.037792835 -0.15728073
0001b0 9b 57 ee 3d ec d4 0d 3e 89 c3 38 bd 51 fa 26 3c
       0.11637803 0.13850754 -0.04510835 0.010191516
0001c0 cb fd 5f be 77 34 f8 3d 79 bb c3 bc 77 02 00 3e
       -0.21874158 0.12119382 -0.023893105 0.1250094
0001d0 49 52 8e 3d 4c a6 9d bd 00 b6 59 bd 1e 13 80 bd
       0.069492884 -0.07697734 -0.053152084 -0.06253646
0001e0 3d e6 52 be 16 d6 27 3e 98 0a e0 bd 55 a6 9b bd
       -0.20595641 0.16390261 -0.109395206 -0.07600085
0001f0 4f 1b 6c bc 78 f6 21 be 3e f5 f5 bd 7b ce 02 be
       -0.014410808 -0.15816677 -0.12009667 -0.12774079

fc.weight f4 [1, 32]
000000 ea 19 c4 3d 28 f4 18 be 86 85 96 3d 8f 44 83 3c
       0.09575255 -0.14936888 0.07349686 0.016023902
000010 b5 d1 e6 bd 5d 57 65 bd d5 63 3f 3d 26 1f 2b bd
       -0.11270467 -0.05599152 0.046726067 -0.041777752
000020 e7 1d f8 3d c7 7c 2a be 85 3c 86 bd ec 05 69 bd
       0.121150784 -0.16649161 -0.06554512 -0.056890413
000030 b4 51 42 3e ed 8a 64 3e e7 0c 43 3e df 5c 06 be
       0.1897648 0.22318621 0.1904789 -0.13121365
000040 c7 38 b3 bd 97 13 20 3e a9 41 1f 3e a8 17 3a 3e
       -0.08751064 0.15632473 0.15552391 0.18173087
000050 b0 3a 1c be 06 1f 4b 3e 26 ab 1b be 07 4d c2 bd
       -0.15256763 0.19836053 -0.15202007 -0.09487348
000060 b6 b0 57 3d 80 97 15 be eb 89 1b bd 3a 9d f5 bd
       0.05265876 -0.14608574 -0.037973326 -0.11992879
000070 27 d0 95 3d 31 24 c2 3d 6d 00 1d be 72 71 58 3e
       0.073150925 0.09479559 -0.15332194 0.21137026
