backend/stocks/price/pt_models/AROC.pt (torch, 54435 bytes, 9 tensors)

lstm.weight_ih_l0 f4 [128, 1]
-0.05379938 0.1007083 -0.1557606 0.18829595 0.019803576 0.11032383 0.10834317 -0.2474891
0.17069612 0.3729191 0.22473362 0.27221093 0.13101594 -0.23397078 -0.03523483 0.16278486
0.009590601 0.0066265543 0.03925835 -0.24156804 -0.28820965 -0.10154832 0.09209694 0.032417815
0.21720038 0.117920466 0.0024811984 0.036356755 -0.21540521 -0.05453951 0.07462193 -0.06730054
-0.017848568 -0.09262731 -0.100949176 0.2771559 -0.17741993 0.26927152 0.3238703 -0.1992718
0.38685182 0.122087464 0.20079948 0.27281645 0.24714588 -0.33348146 0.20421544 0.33971718
-0.08441195 -0.0930289 0.27967307 0.029383866 -0.014875647 -0.114634015 -0.16898875 -0.08834655
0.37786138 0.10020788 0.046462175 0.15237275 -0.21003081 -0.16085237 0.13301872 -0.2575792
0.18334007 -0.08335078 -0.30918813 0.26773348 -0.34706524 -0.117788985 -0.25598976 -0.15131377
0.11190921 0.23417707 0.07031819 0.096655734 0.26103115 0.3078488 0.15181042 -0.21595472
0.1995942 0.27640086 0.23333459 0.0070848083 0.01314838 0.24285 -0.11380548 0.032566432
0.2322642 -0.121116556 -0.11253458 0.10177123 -0.22323641 -0.31804663 -0.32251406 0.22991255
-0.014230753 0.047960956 -0.10560416 0.13446695 -0.011658925 0.19145903 0.023384098 0.03153126
0.23177768 0.24974923 0.112615705 0.15060121 0.17428105 -0.08017311 0.13681851 0.35825568
-0.09666704 0.037471816 0.26841003 -0.00017199689 -0.0070617558 -0.066802904 0.15124638 -0.00036560273
0.15351729 0.21679127 -0.1539985 0.18796822 -0.01536072 -0.042168196 0.119875215 -0.28006357
00000000: bd5c 5cbd 2740 ce3d b57f 1fbe a7d0 403e
00000010: 1c3b a23c 76f1 e13d 06e3 dd3d c86d 7dbe
00000020: f7ca 2e3e 41ef be3e 9220 663e 3b5f 8b3e
00000030: 0b29 063e 0996 6fbe 6652 10bd 13b1 263e
00000040: e521 1d3c 9123 d93b 5dcd 203d 9d5d 77be
00000050: 3790 93be 91f8 cfbd 529d bc3d 8bc8 043d
00000060: c769 5e3e 4980 f13d 9a9b 223b d2ea 143d
00000070: 2f93 5cbe d264 5fbd 62d3 983d ded4 89bd
00000080: 2937 92bc 63b3 bdbd 71be cebd 61e7 8d3e
00000090: 92ad 35be f5dd 893e 54d2 a53e e80d 4cbe
000000a0: 7111 c63e fe08 fa3d 619e 4d3e 99ae 8b3e
000000b0: cf13 7d3e 15be aabe da1d 513e 69ef ad3e
000000c0: 2ce0 acbd f085 bebd 4f31 8f3e 6fb6 f03c
000000d0: fcb8 73bc 3dc5 eabd 630b 2dbe 09ef b4bd
000000e0: 0c77 c13e ca39 cd3d 1f4f 3e3d 9a07 1c3e
000000f0: 5112 57be 7cb6 24be 0f36 083e 6ce1 83be
00000100: 80bd 3b3e d0b3 aabd e84d 9ebe 5d14 893e
00000110: 89b2 b1be 5a3b f1bd 1711 83be fff1 1abe
00000120: a830 e53d 1dcc 6f3e fc02 903d 71f3 c53d
00000130: e0a5 853e 5c9e 9d3e 3174 1b3e 3c23 5dbe
00000140: 6c62 4c3e 6a84 8d3e 43ef 6e3e ae27 e83b
00000150: 4e6c 573c acad 783e d912 e9bd 6164 053d
00000160: abd6 6d3e f50b f8bd 8878 e6bd 6f6d d03d
00000170: 1698 64be 02d7 a2be 9020 a5be 326e 6b3e
00000180: 1b28 69bc b572 443d fe46 d8bd b4b1 093e
00000190: 1305 3fbc d60d 443e 0290 bf3c ec26 013d
000001a0: 2157 6d3e 43be 7f3e 10a3 e63d 3437 1a3e
000001b0: bb76 323e cd31 a4bd 271a 0c3e 4a6d b73e
000001c0: 5ef9 c5bd 0c7c 193d 0a6d 893e 105a 34b9
000001d0: 4d66 e7bb f6cf 88bd 55e0 1a3e 5eae bfb9
000001e0: a333 1d3e 88fe 5d3e c8b1 1dbe be7a 403e
000001f0: 88ab 7bbc 8fb8 2cbd 2381 f53d 7e64 8fbe

lstm.weight_hh_l0 f4 [128, 32]
0.060312606 -0.0018060112 0.14439355 -0.23432317 0.02117873 -0.08757723 0.17866574 -0.1525216
0.05628821 -0.14301397 0.018271964 0.19365817 -0.0831722 -0.18649764 -0.068412684 -0.14101537
-0.17286214 -0.015406749 0.11231513 0.061795983 -0.085743904 -0.18192033 0.10138226 -0.14691947
0.038103875 0.012642048 0.10652689 0.106965594 -0.029403856 0.20808206 0.17803511 0.119010605
0.019620782 0.20324601 -0.10075675 -0.12605752 -0.022143409 0.20445393 -0.09919491 -0.13201298
-0.13422866 -0.19034533 0.08580171 -0.10282953 -0.28958058 -0.04348236 0.0257682 -0.019076234
0.22738811 0.1251324 0.020493813 -0.05755097 -0.21308818 -0.1050627 -0.045318574 0.00024972262
0.08191112 0.19348307 -0.040711854 -0.073234595 0.047080267 -0.010361143 0.2389413 0.14044967
-0.18383484 0.101612434 0.1151283 -0.13321076 0.021543989 0.033414904 0.17677951 0.113110736
0.13841046 0.06605892 0.077601075 0.23374446 -0.14832737 -0.054909483 0.11255701 0.080650315
-0.14543907 -0.011921084 -0.0172171 0.11367229 0.12532064 -0.15990147 0.12618884 -0.093985714
-0.22264443 -0.0032592206 -0.0882249 -0.03828774 -0.003831337 0.08571667 0.19649926 -0.22121139
-0.044974927 -0.084775686 0.018226044 0.21480162 0.028180178 -0.047830068 -0.106197506 0.08116476
0.14561757 0.09305138 -0.113180384 0.085813224 0.18314938 -0.12098793 -0.030873694 -0.12395982
0.016929487 -0.07723796 -0.10146631 -0.050926346 0.040872443 -0.06288652 -0.040583763 0.1555492
0.049304906 -0.08365919 -0.023430096 0.03767393 0.10086949 -0.12766041 0.04401111 -0.16855854
0.10030747 -0.024612999 0.04632877 0.038535193 0.2005219 -0.12141815 -0.0010076606 -0.029706243
0.13336006 -0.08011471 -0.007724607 0.07428985 -0.09259967 0.013154777 -0.13476388 0.020837467
-0.12415763 0.053113297 -0.08376052 -0.13526636 -0.007151251 -0.058228638 0.09104991 0.006224927
-0.17839749 0.0043964176 -0.07287622 0.04731646 -0.07597306 0.07703862 -0.047325745 0.008481548
-0.1120828 -0.14066757 0.061751846 0.046865743 -0.1899346 -0.050269995 -0.029958768 -0.18357764
-0.15745814 0.019781817 -0.05354017 0.03145232 0.15695803 0.10938789 -0.040493026 -0.14254442
0.112361036 0.04592514 -0.010288958 -0.0060240766 0.11887596 0.14474112 -0.11208425 0.12080604
0.17750941 0.07676668 -0.027966492 -0.178759 -0.08466037 -0.05655732 0.01918768 0.10956093
0.09454755 -0.046773814 -0.15683216 0.13525036 -0.012832435 0.05565867 0.024042206 0.086616345
-0.0685914 0.19983995 -0.080408014 0.13990693 -0.07120893 0.14060648 -0.16042669 0.06859919
0.16917571 0.09971192 0.06449013 0.037306286 0.1196771 -0.09318867 0.0812845 -0.13905069
0.12057548 -0.042534076 0.01716155 0.0914121 0.091701776 -0.02262032 -0.056444004 0.0058161803
-0.01121899 0.20702624 0.15725489 -0.17287223 0.18428272 0.078937866 0.22886172 -0.041204568
-0.18934843 0.0080205845 0.15624076 -0.20396969 -0.13676803 -0.1211745 0.103561625 0.1392502
0.078711875 -0.18244515 -0.123038754 0.045098696 0.10917282 -0.22096801 0.2425591 0.07394977
-0.08031314 0.030353235 0.11314632 0.0354577 0.066236205 -0.11021161 -0.02582894 -0.02099567
00000000: 5a0a 773d aeb7 ecba e7db 133e 6af2 6fbe
00000010: 047f ad3c b15b b3bd 27f4 363e 9f2e 1cbe
00000020: 778e 663d 4172 12be 16af 953c 544e 463e
00000030: 3056 aabd 3df9 3ebe f31b 8cbd 5566 10be
00000040: c602 31be 976c 7cbc 7a05 e63d c91d 7d3d
00000050: 809a afbd 5349 3abe 81a1 cf3d 0f72 16be
00000060: cf12 1c3d 9820 4f3c c52a da3d c710 db3d
00000070: 5be0 f0bc 7713 553e d64e 363e d5bb f33d
00000080: c3bb a03c b91f 503e 8e59 cebd 3915 01be
00000090: 1866 b5bc 5f5c 513e b326 cbbd 692e 07be
000000a0: 3d73 09be e3e9 42be cfb8 af3d 4a98 d2bd
000000b0: e843 94be 8f1a 32bd d517 d33c c345 9cbc
000000c0: 6ed8 683e b522 003e a4e2 a73c 91ba 6bbd
000000d0: ca33 5abe 1d2b d7bd f89f 39bd 34ed 8239
000000e0: 04c1 a73d 6d20 463e 79c1 26bd 05fc 95bd
000000f0: 3dd7 403d c9c1 29bc 07ad 743e 0ad2 0f3e
00000100: 333f 3cbe 2e1a d03d 63c8 eb3d 6768 08be
00000110: 057d b03c 11de 083d b005 353e 9aa6 e73d
00000120: 79bb 0d3e e649 873d 50ed 9e3d b55a 6f3e
00000130: 21e3 17be c4e8 60bd 4a84 e63d fe2b a53d
00000140: fbed 14be a650 43bc e00a 8dbc 05cd e83d
00000150: 0e54 003e 36bd 23be a637 013e 957b c0bd
00000160: e7fc 63be a698 55bb 42af b4bd 9bd3 1cbd
00000170: 2b17 7bbb 398c af3d 1a37 493e 3d85 62be
00000180: a137 38bd e09e adbd c94e 953c f5f4 5b3e
00000190: 1eda e63c 76e9 43bd 147e d9bd b639 a63d
000001a0: c61c 153e b991 be3d 1ecb e7bd d8be af3d
000001b0: 838b 3b3e 85c8 f7bd d4ea fcbc a5de fdbd
000001c0: b5af 8a3c f02e 9ebd 92cd cfbd 2598 50bd
000001d0: dd69 273d a6ca 80bd 293b 26bd 4a48 1f3e
000001e0: f1f3 493d 8255 abbd 79f0 bfbc fb4f 1a3d
000001f0: aa94 ce3d 69b9 02be fe44 343d 9c9a 2cbe
00000200: 016e cd3d 33a1 c9bc 3dc3 3d3d 14d7 1d3d
00000210: 9d55 4d3e 14aa f8bd 7b13 84ba 825a f3bc
00000220: 8a8f 083e 2e13 a4bd b31e fdbb 4725 983d
00000230: e5a4 bdbd 2287 573c 8bff 09be 56b3 aa3c
00000240: 5b46 febd 548d 593d a38a abbd 4483 0abe
00000250: 0b55 eabb 2781 6ebd 6078 ba3d 79fa cb3b
00000260: d5ad 36be d30f 903b 2140 95bd e8ce 413d
00000270: c497 9bbd 6dc6 9d3d a4d8 41bd 31f6 0a3c
00000280: ab8b e5bd 290b 10be 81ef 7c3d 4bf6 3f3d
00000290: 377e 42be e9e7 4dbd 176c f5bc c7fb 3bbe
000002a0: b53c 21be 7a0d a23c f04c 5bbd 26d4 003d
000002b0: 9bb9 203e c206 e03d 04dc 25bd 2af7 11be
000002c0: 8b1d e63d 001c 3c3d 0593 28bc 9e65 c5bb
000002d0: 3d75 f33d 0437 143e 6d8c e5bd 2869 f73d
000002e0: 07c5 353e d937 9d3d fc19 e5bc 990c 37be
000002f0: 6b62 adbd a6a8 67bd 7b2f 9d3c 7b61 e03d
00000300: 25a2 c13d e695 3fbd 9c98 20be 127f 0a3e
00000310: 223f 52bc 58fa 633d 29f4 c43c e963 b13d
00000320: a679 8cbd d8a2 4c3e f5ac a4bd c343 0f3e
00000330: fdd5 91bd 25fb 0f3e e546 24be bb7d 8c3d
00000340: 663c 2d3e c335 cc3d 6713 843d 7ace 183d
00000350: 4419 f53d b4d9 bebd 7d78 a63d 4e63 0ebe
00000360: 47f0 f63d 3638 2ebd 6196 8c3c 4436 bb3d
00000370: 24ce bb3d 404e b9bc d431 67bd a895 be3b
00000380: dbcf 37bc b0fe 533e 6d07 213e 6b05 31be
00000390: 9cb4 3c3e 2daa a13d ba5a 6a3e 1fc6 28bd
000003a0: 8ee4 41be c568 033c 94fd 1f3e 6edd 50be
000003b0: eb0c 0cbe 562a f8bd 1e18 d43d 9b97 0e3e
000003c0: b133 a13d e7d2 3abe befb fbbd 69b9 383d
000003d0: 0096 df3d 7045 62be 6a61 783e fa72 973d
000003e0: 377b a4bd 59a7 f83c 42b9 e73d 183c 113d
000003f0: d9a6 873d a0b6 e1bd 3797 d3bc 1dff abbc

lstm.bias_ih_l0 f4 [128]
-0.07350459 -0.17624313 0.16688806 -0.15063801 0.10079714 0.137384 -0.113179706 0.119374044
-0.2578133 -0.011510052 -0.3047204 -0.24774686 0.10127021 -0.07889914 -0.14984553 0.031745
-0.0910769 -0.03767363 -0.105967395 0.053146377 -0.1279791 0.102260105 -0.18931691 0.037810557
0.20552255 -0.30632734 0.13772228 -0.2513847 0.10549571 0.05825967 -0.016973004 -0.15504052
0.05193582 -0.047628153 0.15698585 -0.0814457 0.02974585 0.04402134 0.0947734 -0.07537273
-0.24340494 0.04276364 -0.082266726 -0.060627528 0.006284497 -0.02568602 -0.07548902 -0.14802963
-0.17681953 0.14667593 0.06986023 0.10927129 -0.146048 0.021360926 0.040391896 -0.23109302
0.1242532 -0.34946024 -0.054998033 -0.25571406 -0.17424423 0.07381589 0.05841685 0.08038407
0.0061950847 -0.028889831 0.12629926 0.1014141 0.098311484 -0.13211575 -0.12859394 0.114680134
0.0032054016 -0.011003321 0.035586268 0.05744271 0.17754799 -0.06877744 -0.13243392 -0.18147784
-0.11302338 -0.00095664297 -0.00619213 0.021455184 0.17768684 0.09109369 -0.095694 -0.011279083
0.21805121 -0.12504017 0.08194686 -0.044736907 0.061661843 -0.03575495 -0.16848879 -0.10956349
0.12979348 -0.23159751 0.1382937 0.13524693 -0.09982091 -0.041700426 -0.09638282 0.05644219
-0.1530732 -0.08406857 -0.22676024 -0.044481017 -0.10621981 -0.11042122 0.017193299 -0.1321215
0.08536051 -0.14454561 -0.16685764 -0.019971551 0.10810201 0.10481714 -0.096965514 -0.23332348
0.011794021 -0.29746446 0.10341797 -0.2828725 -0.046454467 0.16189228 0.25933933 0.09423956
00000000: 9389 96bd 1479 34be b4e4 2a3e da40 1abe
00000010: bb6e ce3d 64ae 0c3e c3ca e7bd 617a f43d
00000020: 1b00 84be a894 3cbc 5004 9cbe 5ab1 7dbe
00000030: c266 cf3d df95 a1bd 1b71 19be 0c07 023d
00000040: 8786 babd aa4f 1abd 6f05 d9bd 04b0 593d
00000050: f40c 03be bf6d d13d 4bdc 41be 3edf 1a3d
00000060: 8174 523e f0d6 9cbe 1207 0d3e 7fb5 80be
00000070: 230e d83d b1a1 6e3d f80a 8bbc f1c2 1ebe
00000080: a8ba 543d bd15 43bd e6c0 203e 01cd a6bd
00000090: 92ad f33c b84f 343d 8e18 c23d 055d 9abd
000000a0: 253f 79be ed28 2f3d 757b a8bd 9254 78bd
000000b0: 2fee cd3b 7d6b d2bc fd99 9abd 1495 17be
000000c0: 2e10 35be 3732 163e e112 8f3d a0c9 df3d
000000d0: 9b8d 15be 1cfd ae3c f971 253d a6a3 6cbe
000000e0: 7678 fe3d 74ec b2be 9e45 61bd f4ec 82be
000000f0: 146d 32be c92c 973d 8246 6f3d 67a0 a43d
00000100: 2300 cb3b 5eaa ecbc 9854 013e 32b2 cf3d
00000110: 8857 c93d 5a49 07be 21ae 03be 6bdd ea3d
00000120: b711 523b 4647 34bc e8c2 113d 0c49 6b3d
00000130: 24cf 353e 30db 8cbd c29c 07be 54d5 39be
00000140: cd78 e7bd 39c7 7aba 5ae7 cabb c8c2 af3c
00000150: 8af3 353e 548f ba3d 37fb c3bd e7cb 38bc
00000160: d148 5f3e 880a 00be c1d3 a73d 0c3e 37bd
00000170: 2191 7c3d c873 12bd 5388 2cbe d362 e0bd
00000180: 95e8 043e e627 6dbe dd9c 0d3e 2c7e 0a3e
00000190: e86e ccbd 11ce 2abd 5b64 c5bd ed2f 673d
000001a0: 39bf 1cbe 242c acbd d633 68be ba31 36bd
000001b0: c689 d9bd 8524 e2bd f6d8 8c3c dc4a 07be
000001c0: 7ed1 ae3d c403 14be bbdc 2abe 619b a3bc
000001d0: 9664 dd3d 5eaa d63d db95 c6bd 5aec 6ebe
000001e0: b63b 413c 434d 98be cdcc d33d aad4 90be
000001f0: 0a47 3ebd 17c7 253e 20c8 843e ac00 c13d

lstm.bias_hh_l0 f4 [128]
-0.0498214 -0.16639563 0.16873556 0.17746408 0.21248545 -0.013793971 -0.12565213 -0.040410116
0.0021969439 0.0783783 -0.110877 0.037438184 0.013015846 -0.000271039 -0.05094009 0.16329534
-0.08600725 -0.1047998 -0.18947941 0.0070497124 0.074019045 -0.12137256 -0.23487231 0.06565025
0.20950015 -0.12405351 0.15186831 -0.13936862 -0.15023036 -0.048988987 0.27767307 0.030423773
-0.10801148 0.022840593 0.11907053 0.043202054 0.035219695 0.049678553 -0.06433721 0.07057025
0.0864018 0.030782465 -0.27741995 -0.12144869 0.19801694 0.03481058 -0.1881041 -0.007825431
0.1115686 -0.00094382395 -0.1327277 0.14526369 0.11182463 0.01442928 -0.120025456 -0.06581104
-0.06389899 -0.2936357 -0.026312502 -0.13883008 -0.08688972 -0.14175127 0.0060436362 -0.16492099
-0.10616746 -0.060870357 -0.061642278 0.08910026 -0.014664712 0.05282506 0.06256118 -0.08831031
0.1048828 0.15588865 -0.016075468 0.037321776 0.011142402 -0.12270902 0.08445513 0.040374875
-0.016892632 0.02141673 0.005984935 0.15889834 0.11909796 -0.016092861 0.02114615 -0.036829136
-0.09770426 0.07124106 0.11180019 0.05309885 0.006604742 0.082828626 0.088412814 -0.0068469415
-0.12393175 -0.2742716 0.0072093443 -0.00603496 -0.06118401 -0.12739106 0.12488373 0.1000904
-0.00066811225 0.008814767 -0.08931542 0.043476965 -0.02342197 0.04134445 -0.15867266 0.029582713
-0.13410996 -0.055927496 -0.0456041 -0.12101643 -0.17403647 -0.12595439 0.022583278 0.017033713
-0.056816023 -0.31621233 -0.032825585 -0.27766955 -0.1788439 -0.13967 0.13635734 -0.008131853
00000000: 8611 4cbd 9e63 2abe 04c9 2c3e 25b9 353e
00000010: c995 593e 1c00 62bc f4aa 00be 1485 25bd
00000020: 9afa 0f3b cd84 a03d 7b13 e3bd c858 193d
00000030: 6a40 553c 3d1a 8eb9 8ea6 50bd e536 273e
00000040: 9224 b0bd 47a1 d6bd e406 42be 4601 e73b
00000050: 4c97 973d 2d92 f8bd 5e82 70be a373 863d
00000060: 3587 563e c40f febd 5e83 1b3e a6b6 0ebe
00000070: fdd5 19be ada8 48bd 2a2b 8e3e 473b f93c
00000080: 1f35 ddbd 321c bb3c 40db f33d a3f4 303d
00000090: 8742 103d bd7b 4b3d 3ac3 83bd 2387 903d
000000a0: 6df3 b03d 822b fc3c fd09 8ebe 17ba f8bd
000000b0: f4c4 4a3e 8a95 0e3d 5c9e 40be 3d36 00bc
000000c0: 147e e43d f46a 77ba c5e9 07be 01c0 143e
000000d0: 5004 e53d c968 6c3c e8cf f5bd f0c7 86bd
000000e0: 79dd 82bd 6b57 96be 518d d7bc 7929 0ebe
000000f0: 3df3 b1bd 3f27 11be b209 c63b 0ce1 28be
00000100: 536e d9bd 3253 79bd 9d7c 7cbd 327a b63d
00000110: 4344 70bc 175f 583d 1320 803d 09dc b4bd
00000120: cbcc d63d 46a1 1f3e b3b0 83bc b8de 183d
00000130: 9f8e 363c de4e fbbd d0f6 ac3d 2060 253d
00000140: 6b62 8abc 2372 af3c 461d c43b 3fb6 223e
00000150: a2e9 f33d 2dd5 83bc b13a ad3c 26da 16bd
00000160: 2c19 c8bd d5e6 913d 7ff7 e43d 2e7e 593d
00000170: 976c d83b 0ea2 a93d c711 b53d 4f5c e0bb
00000180: eecf fdbd 546d 8cbe 5d3c ec3b eac0 c5bb
00000190: 169c 7abd cd72 02be 0bc3 ff3d 32fc cc3d
000001a0: 4124 2fba d06b 103c 01eb b6bd e714 323d
000001b0: 6edf bfbc cc58 293d 167b 22be 7257 f23c
000001c0: 1f54 09be 3b14 65bd 5dcb 3abd 76d7 f7bd
000001d0: 9e36 32be 30fa 00be 9100 b93c 498a 8b3c
000001e0: ebb7 68bd 95e6 a1be 1f74 06bd b42a 8ebe
000001f0: db22 37be a705 0fbe 42a1 0b3e 773b 05bc

lstm.weight_ih_l1 f4 [128, 32]
0.2704485 0.13095127 -0.19311188 0.039791256 -0.118340604 -0.034021992 -0.19865361 -0.09593864
0.12249847 0.18491933 -0.0091153495 0.07844078 0.008095225 0.0676463 0.017761664 -0.1506459
0.14415987 0.10720144 0.25206774 -0.12898716 -0.22664084 -0.05225479 -0.05887534 0.056986175
0.08918813 -0.2225058 -0.2945716 -0.076236345 -0.33743697 -0.27098566 -0.27870494 0.21534145
-0.06612764 0.15037093 0.19061646 0.036657054 0.19304863 -0.103764996 0.25692973 -0.032006554
-0.12576172 -0.08501494 0.115185395 0.1244788 0.034221016 0.07760829 0.12805077 -0.014758322
-0.103707545 -0.03236209 -0.003669193 -0.11087745 -0.08794621 0.0874674 -0.14117438 0.050473776
-0.07020858 0.09711514 0.015275432 0.069062024 0.17579715 0.14709254 0.1419697 -0.1632447
-0.03570816 0.10227552 -0.048101753 -0.2381261 0.08443914 -0.12244903 -0.0983065 -0.041739095
0.11442982 -0.086913675 -0.046469282 -0.09324178 -0.08472981 0.03834327 0.16716819 0.09915322
-0.021069575 0.11039915 -0.009580359 0.15391545 0.12295294 0.119070165 0.14718781 0.0029129745
0.10028905 -0.18203704 -0.16579403 0.13592677 -0.124259144 -0.094142385 0.1980989 0.0021426962
-0.20474806 -0.013650177 -0.07875141 -0.12345124 0.10531083 -0.13339043 -0.037574902 0.16297305
-0.055254497 -0.16696607 -0.09532124 0.031402986 0.0065684505 0.06766666 -0.158864 -0.06549427
-0.05188367 -0.10090327 -0.014477594 0.033683404 -0.015775822 -0.0056511355 -0.091468975 0.085581236
-0.020806346 -0.10989815 0.09842586 0.2604404 -0.06325661 -0.070958935 0.15298335 0.037649874
0.13912147 0.12958607 -0.078242555 0.15716457 -0.07441542 -0.035672132 0.048115734 -0.14915362
-0.09853131 -0.03785428 0.11615918 -0.22249672 0.12505285 0.12156239 -0.07129584 -0.19233097
0.05221336 0.2436328 0.2146216 -0.030731758 0.030987816 0.16515 -0.05107543 0.10119761
0.050189704 -0.015852768 -0.11951022 -0.015327648 -0.024397133 -0.18855822 0.06371021 0.083467744
0.105374806 0.017696729 -0.018699633 0.082338974 -0.03664596 -0.008095517 0.08526197 0.16754489
0.16599672 -0.020715516 0.0837209 0.1006694 -0.17185496 -0.02117399 -0.18609893 0.03180214
-0.18582745 -0.09759885 0.0870123 -0.10702027 -0.10404885 -0.27557138 -0.04268429 0.0750547
0.063593075 0.08515583 0.103573754 -0.09342205 -0.07931498 0.13920492 0.04940407 0.0010325034
0.016425004 0.13140777 -0.05339892 0.21098128 -0.18161522 -0.20101143 -0.030892083 -0.2467864
0.2153619 0.2776494 0.027528647 -0.13299112 0.18102416 0.22939038 0.015342666 -0.15260096
0.07560107 0.06647555 -0.08606262 -0.12734087 -0.1344129 -0.06005583 0.21848615 0.061200544
-0.044370323 -0.07797417 -0.24578281 -0.13968161 -0.20780466 -0.2316694 -0.045606136 -0.038006157
-0.038738113 -0.11174141 -0.07655359 -0.10172756 -0.06533876 -0.07474232 0.28466904 -0.06829979
0.036678094 -0.2553635 -0.13011166 0.13451695 -0.050433442 -0.113578744 0.1508992 0.16820852
-0.20583054 -0.01604467 -0.13484995 0.0891137 0.039925344 0.024414392 0.16945079 0.060107704
-0.2535049 -0.12514941 -0.027958762 0.10076575 0.19865806 0.24180357 0.17708585 -0.11077315
00000000: 3a78 8a3e 1718 063e 1fbf 45be 28fc 223d
00000010: 8f5c f2bd a55a 0bbd da6b 4bbe 7a7b c4bd
00000020: 7ae0 fa3d 7e5b 3d3e 8c58 15bc 8fa5 a03d
00000030: d6a1 043c 258a 8a3d e980 913c eb42 1abe
00000040: a59e 133e 6e8c db3d 060f 813e 3615 04be
00000050: 8914 68be 1e09 56bd 4527 71bd 566a 693d
00000060: 44a8 b63d 8fd8 63be 17d2 96be cd21 9cbd
00000070: 8ac4 acbe a2be 8abe 6ab2 8ebe 7882 5c3e
00000080: ee6d 87bd d6fa 193e f630 433e b525 163d
00000090: 8aae 453e be82 d4bd 4b8c 833e 4e19 03bd
000000a0: aec7 00be 501c aebd 52e6 eb3d beee fe3d
000000b0: 562b 0c3d 18f1 9e3d be1f 033e e4cc 71bc
000000c0: 9f64 d4bd 1c8e 04bd d876 70bb b713 e3bd
000000d0: 241d b4bd 1c22 b33d 0490 10be 97bd 4e3d
000000e0: 84c9 8fbd 4de4 c63d ce45 7a3c 6470 8d3d
000000f0: 2b04 343e 6d9f 163e 8160 113e 9e29 27be
00000100: b842 12bd d475 d13d 5806 45bd 54d7 73be
00000110: 6eee ac3d 8fc6 fabd eb54 c9bd 9df6 2abd
00000120: 2e5a ea3d ccff b1bd 9356 3ebd 8cf5 bebd
00000130: d386 adbd d50d 1d3d 232e 2b3e d810 cb3d
00000140: 1a9a acbc f318 e23d f0f6 1cbc 039c 1d3e
00000150: c0ce fb3d 0fdb f33d 67b8 163e 9ae7 3e3b
00000160: 5864 cd3d eb67 3abe e9c5 29be 6330 0b3e
00000170: 947b febd b9cd c0bd 70da 4a3e 7a6c 0c3b
00000180: 7aa9 51be fea4 5fbc 6b48 a1bd 01d4 fcbd
00000190: 34ad d73d 8097 08be 24e8 19bd 68e2 263e
000001a0: 8a52 62bd 27f9 2abe c837 c3bd 6ba0 003d
000001b0: 283c d73b d194 8a3d 3fad 22be dc21 86bd
000001c0: f983 54bd 60a6 cebd 6e33 6dbc 9cf7 093d
000001d0: 4c3c 81bc 292d b9bb 1654 bbbd 3745 af3d
000001e0: 1272 aabc 4812 e1bd 7f93 c93d 7258 853e
000001f0: ae8c 81bd eb52 91bd aba7 1c3e c136 1a3d
00000200: dc75 0e3e 36b2 043e a23d a0bd c0ef 203e
00000210: 1d67 98bd f11c 12bd 0115 453d babb 18be
00000220: c9ca c9bd 170d 1bbd dde4 ed3d 2ed6 63be
00000230: db0d 003e b4f5 f83d 8e03 92bd 69f2 44be
00000240: addd 553d e07a 793e c4c5 5b3e 2bc1 fbbc
00000250: 29da fd3c 151d 293e 7834 51bd b140 cf3d
00000260: b893 4d3d aadd 81bc c6c1 f4bd d120 7bbc
00000270: 7fdc c7bc 6815 41be 807a 823d 23f1 aa3d
00000280: bfce d73d bbf8 903c f92f 99bc 56a1 a83d
00000290: 131a 16bd 0fa3 04bc d49d ae3d e390 2b3e
000002a0: 0bfb 293e 96b3 a9bc dd75 ab3d c22b ce3d
000002b0: bffa 2fbe 1375 adbc b890 3ebe f642 023d
000002c0: 8d49 3ebe e8e1 c7bd 8133 b23d 712d dbbd
000002d0: 9017 d5bd b117 8dbe b9d5 2ebd 47b6 993d
000002e0: 163d 823d 2e66 ae3d 7a1e d43d 0f54 bfbd
000002f0: e46f a2bd bc8b 0e3e ec5b 4a3d 1155 873a
00000300: bb8d 863c c28f 063e d3b8 5abd 7a0b 583e
00000310: 57f9 39be f1d5 4dbe 6511 fdbc 93b5 7cbe
00000320: d487 5c3e 1028 8e3e c283 e13c d32e 08be
00000330: 665e 393e 50e5 6a3e ce5f 7b3c 6d43 1cbe
00000340: bcd4 9a3d 5524 883d 9941 b0bd a565 02be
00000350: 89a3 09be 1afd 75bd d5ba 5f3e 6cad 7a3d
00000360: a8bd 35bd ecb0 9fbd 7dae 7bbe b208 0fbe
00000370: bfca 54be be3a 6dbe 80cd 3abd 58ac 1bbd
00000380: dbab 1ebd aed8 e4bd 21c8 9cbd 8a56 d0bd
00000390: 54d0 85bd 8012 99bd 24c0 913e c3e0 8bbd
000003a0: c53b 163d 01bf 82be fe3b 05be d0be 093e
000003b0: 4c93 4ebd f99b e8bd 5285 1a3e db3e 2c3e
000003c0: 3ec5 52be 1d70 83bc 1b16 0abe 3e81 b63d
000003d0: c288 233d b100 c83c 8284 2d3e 7f33 763d
000003e0: 65cb 81be 2b27 00be c609 e5bc 465e ce3d
000003f0: 056d 4b3e 5b9b 773e fe55 353e 09dd e2bd

lstm.weight_hh_l1 f4 [128, 32]
-0.13830145 0.1716201 0.049224745 0.21224827 -0.11071019 -0.18388702 0.03830701 -0.047730166
-0.09714324 0.12542424 0.2185511 0.13749309 -0.1894116 -0.0084351385 -0.027393883 -0.0035921484
-0.04289878 0.023154283 -0.057188973 -0.06449544 -0.06359736 0.048127417 0.12614879 -0.21865135
0.16041787 0.105721585 -0.0926734 0.18983729 -0.00047838528 -0.17512801 0.09646774 0.010065605
-0.001653 0.09369919 -0.13804068 0.14438723 0.02516734 0.029372279 -0.110773355 -0.008792861
-0.21837378 0.18430258 -0.05376713 0.09152646 -0.08174037 -0.018433463 0.059563108 -0.25110328
-0.14497645 0.109172896 0.15170121 -0.10073195 -0.11240935 -0.14182399 0.1514773 0.092716366
0.02020854 0.0440468 -0.15097818 0.036767267 0.13879253 -0.1764865 0.022824686 -0.20710397
0.0780451 -0.16836604 -0.15180409 0.018906439 -0.018373847 -0.007403972 -0.07916083 0.0012039499
0.11014449 -0.107102856 -0.09765718 -0.075403646 -0.13961342 0.09125546 -0.24728738 -0.0006665453
-0.1391461 0.17434071 0.112726256 -0.10036546 0.07252638 -0.069540784 0.18174101 -0.007940207
0.21844506 -0.03510078 -0.013189668 0.20504627 0.11802344 -0.034086645 -0.0087373955 0.14519064
-0.2021756 0.070488706 -0.10967381 0.036182236 -0.15712096 0.024479492 -0.08848203 0.10808377
-0.01562743 -0.043088634 -0.072423 -0.1502752 -0.13579601 0.006584519 0.027447773 -0.0010025111
-0.13471839 0.082013294 0.031132607 -0.15715954 0.06829537 -0.17235973 -0.1430793 -0.011946732
-0.12551355 -0.09695192 0.117721386 0.13906458 0.13989034 0.10662886 -0.073868945 -0.12488952
0.18568778 0.12846136 0.10746093 0.14184889 0.100377515 -0.09197747 -0.025861176 0.15688193
-0.11157806 -0.04967859 0.009899959 -0.1077416 0.062191855 0.07264512 0.18981513 0.10396892
0.0454086 -0.013600386 -0.070828624 0.038765576 0.13690978 -0.114036396 0.0072647035 -0.12567644
-0.060376372 0.033430215 -0.016622001 0.026629295 -0.09697205 -0.010495487 0.20521255 0.21293238
-0.10644533 0.07434725 0.049067404 -0.16330482 0.0024430144 0.024820555 -0.18292564 -0.06565335
0.18482149 0.0015862049 -0.00097020675 0.08635873 -0.025402293 -0.01431289 -0.21596351 -0.031441692
0.05014065 -0.12297016 0.028725881 -0.0036093518 0.0969302 0.09265481 -0.08654473 -0.032121595
-0.17456667 -0.06735679 0.024551773 -0.13099125 -0.240895 0.14575742 0.094663866 -0.055747397
-0.06625835 0.13790424 0.021289326 0.25622252 -0.035741918 0.05805356 -0.06484663 0.20125115
-0.073876545 0.051258605 -0.027263302 0.054668378 -0.013031749 -0.054475367 0.1698912 -0.035759058
0.03919432 -0.015035416 0.018996693 -0.12564646 -0.04154923 0.14137441 0.04196816 0.034502506
-0.10684088 -0.027820632 0.06501285 -0.21066687 -0.20556238 -0.1110733 -0.071389794 0.15590939
-0.07363075 0.09782624 -0.016287474 0.06289588 -0.05050464 0.1169084 -0.2159911 -0.1352962
-0.034132954 -0.08592125 -0.13584974 -0.041057386 -0.08448945 -0.100289136 -0.07987125 -0.29235074
-0.023831254 0.12872687 0.17080708 -0.001021018 -0.17430395 0.038806066 -0.16025864 0.018974071
0.02682231 0.094631754 0.06744644 0.04675996 0.039656468 -0.027919797 0.06294898 0.0917056
00000000: e59e 0dbe 2ebd 2f3e e39f 493d 9c57 593e
00000010: 06bc e2bd e14c 3cbe d0e7 1c3d b580 43bd
00000020: 09f3 c6bd 366f 003e dccb 5f3e fdca 0c3e
00000030: 1df5 41be 8933 0abc 2369 e0bc 406a 6bbb
00000040: a2b6 2fbd 0dae bd3c fc3e 6abd 2f16 84bd
00000050: 553f 82bd 4121 453d 262d 013e 24e6 5fbe
00000060: 9544 243e 8f84 d83d 8dcb bdbd b564 423e
00000070: c9cf fab9 c254 33be e190 c53d 35ea 243c
00000080: 7aa9 d8ba 5ce5 bf3d 895a 0dbe 3fda 133e
00000090: bd2b ce3c 229e f03c 24dd e2bd ef0f 10bc
000000a0: 609d 5fbe d1b9 3c3e ec3a 5cbd 3a72 bb3d
000000b0: 7f67 a7bd c601 97bc 72f8 733d 9c90 80be
000000c0: b574 14be 0a96 df3d 9057 1b3e 8d4c cebd
000000d0: e036 e6bd 4f3a 11be de1c 1b3e 14e2 bd3d
000000e0: 618c a53c 6b6a 343d 069a 1abe 4699 163d
000000f0: a11f 0e3e e1b8 34be d6fa ba3c 1013 54be
00000100: 1cd6 9f3d 2668 2cbe 8872 1bbe ade1 9a3c
00000110: c084 96bc 059d f2bb 131f a2bd dbcd 9d3a
00000120: 6f93 e13d be58 dbbd 7d00 c8bd 3a6d 9abd
00000130: d2f6 0ebe 25e4 ba3d e738 7dbe 19bb 2eba
00000140: 517c 0ebe 5f86 323e 06dd e63d 688c cdbd
00000150: b688 943d 666b 8ebd 511a 3a3e a417 02bc
00000160: 10b0 5f3e d6c5 0fbd 7a19 58bc a6f7 513e
00000170: 46b6 f13d 709e 0bbd 4b27 0fbc dbac 143e
00000180: 1f07 4fbe 625c 903d aa9c e0bd d333 143d
00000190: 51e4 20be 3789 c83c 1136 b5bd 065b dd3d
000001a0: 1905 80bc b57d 30bd 8352 94bd bee1 19be
000001b0: 1c0e 0bbe f3c2 d73b 27da e03c b166 83ba
000001c0: 9ef3 09be 96f6 a73d cf09 ff3c 6eee 20be
000001d0: 71de 8b3d 127f 30be 6183 12be 3abc 43bc
000001e0: a086 00be ba8e c6bd e917 f13d f266 0e3e
000001f0: 6a3f 0f3e 3b60 da3d 9a48 97bd 14c6 ffbd
00000200: f024 3e3e 608b 033e 7a14 dc3d d640 113e
00000210: ba92 cd3d af5e bcbd d1da d3bc a8a5 203e
00000220: 0a83 e4bd c77b 4bbd 7033 223c a1a7 dcbd
00000230: e3bc 7e3d f7c6 943d e65e 423e a8ed d43d
00000240: 5efe 393d 27d4 5ebc 990e 91bd a7c8 1e3d
00000250: 1432 0c3e ea8b e9bd c00c ee3b 53b1 00be
00000260: 374d 77bd 1fee 083d dd2a 88bc ae25 da3c
00000270: 4899 c6bd 43f5 2bbc 3d23 523e f20a 5a3e
00000280: 0200 dabd 5f43 983d e7fa 483d 6139 27be
00000290: fb1a 203b 7a54 cb3c dc50 3bbe 4375 86bd
000002a0: d841 3d3e 34e8 cf3a 7955 7eba d9dc b03d
000002b0: 7818 d0bc 9d80 6abc 8a25 5dbe 01c9 00bd
000002c0: 4860 4d3d c7d7 fbbd 8a52 eb3c e08a 6cbb
000002d0: 5783 c63d cec1 bd3d 5d3e b1bd ef91 03bd
000002e0: 9bc1 32be 5bf2 89bd cd20 c93c 9222 06be
000002f0: 2ead 76be 6f41 153e 21df c13d 6257 64bd
00000300: 75b2 87bd c536 0d3e f466 ae3c 992f 833e
00000310: 1e66 12bd 92c9 6d3d 4fce 84bd c814 4e3e
00000320: 964c 97bd 8bf4 513d 4a57 dfbc f3eb 5f3d
00000330: 1e83 55bc 9021 5fbd f5f7 2d3e 1778 12bd
00000340: 398a 203d 1b57 76bc f49e 9b3c 77a9 00be
00000350: 872f 2abd 74c4 103e cee6 2b3d 8052 0d3d
00000360: 64cf dabd 18e8 e3bc 7525 853d 0eb9 57be
00000370: f27e 52be 667a e3bd d034 92bd b6a6 1f3e
00000380: b8cb 96bd 2059 c83d 4f6d 85bc 8ecf 803d
00000390: f4dd 4ebd ac6d ef3d c52c 5dbe 168b 0abe
000003a0: ffce 0bbd 7bf7 afbd 321c 0bbe ca2b 28bd
000003b0: ce08 adbd 6464 cdbd 8a93 a3bd ffae 95be
000003c0: c339 c3bc fad0 033e 0de8 2e3e aed3 85ba
000003d0: bc7c 32be 1cf3 1e3d d71a 24be 836f 9b3c
000003e0: 76ba db3c 4bce c13d 5c21 8a3d 5f87 3f3d
000003f0: d26e 223d 0fb8 e4bc 65eb 803d 25d0 bb3d

lstm.bias_ih_l1 f4 [128]
-0.15810066 0.07922577 -0.07427815 0.03916555 0.026817424 -0.16603735 -0.07623813 0.10653687
-0.06873036 -0.24607688 0.02617519 0.17047393 -0.08822167 0.032496557 0.03212646 -0.17315787
0.17454909 0.14476298 0.16135384 -0.20434135 -0.118917614 -0.0025546656 0.096547954 -0.09530211
-0.15610622 -0.21194936 0.043567274 -0.12266207 -0.1915587 -0.06469019 0.036729377 -0.051143818
0.042270474 0.13767242 0.01906422 0.11627689 -0.078637645 0.064803034 -0.17713943 0.20055395
-0.050768178 0.065047555 -0.087009214 -0.0698813 -0.042775985 0.17642978 -0.07210403 0.06371185
-0.04142416 0.11519188 -0.124111265 -0.14378512 -0.231765 -0.28597263 -0.00035984363 0.020496486
0.07195923 -0.11177655 -0.2670169 0.05843995 -0.013826785 -0.062409513 -0.19328824 0.033778172
-0.050525453 -0.0138912555 -0.15607789 0.012895215 -0.060676713 -0.02136687 0.023792082 -0.16315001
0.029256918 0.040271435 -0.08419411 0.051043577 0.21021599 -0.13215539 -0.020897804 -0.061843146
-0.18333644 -0.17676044 0.00035920035 -0.07836588 0.030908331 -0.10511691 -0.11116916 -0.0035603424
-0.10630907 0.048000753 -0.19051114 -0.018616224 0.10393117 0.14482372 -0.06538612 -0.040013857
-0.115414 0.019864852 -0.12819447 0.0010796495 -0.19657858 0.07155166 0.043585848 0.17130849
-0.031611197 -0.061960742 0.12979956 0.1670835 0.21214631 0.06417223 -0.03215261 -0.08222987
0.13153352 0.17356913 0.15566882 -0.025222793 -0.1445157 -0.0594912 0.114044145 0.096040815
0.14333692 -0.052140635 -0.0054906746 -0.14352284 0.0019725838 0.022780733 0.089786716 0.22750448
00000000: 24e5 21be 1f41 a23d 251f 98bd 0e6c 203d
00000010: 37b0 db3c b205 2abe bd22 9cbd 0130 da3d
00000020: 81c2 8cbd 94fb 7bbe 5a6d d63c b890 2e3e
00000030: 90ad b4bd 1c1b 053d 0997 033d 4c50 31be
00000040: ffbc 323e bf3c 143e f139 253e dc3e 51be
00000050: 148b f3bd 2d6c 27bb efba c53d c12d c3bd
00000060: 4fda 1fbe 4109 59be 9973 323d 4036 fbbd
00000070: f727 44be 4a7c 84bd 8b71 163d 2e7c 51bd
00000080: ce23 2d3d 00fa 0c3e 912c 9c3c 9422 ee3d
00000090: c60c a1bd 74b7 843d 0a64 35be 045e 4d3e
000000a0: 4bf2 4fbd a737 853d e331 b2bd ed1d 8fbd
000000b0: df35 2fbd 02aa 343e 47ab 93bd 5c7b 823d
000000c0: 61ac 29bd b8e9 eb3d 0c2e febd 683c 13be
000000d0: ce53 6dbe 016b 92be 65a9 bcb9 3fe8 a73c
000000e0: 5c5f 933d 1beb e4bd 70b6 88be bb5e 6f3d
000000f0: bd89 62bc 1ea1 7fbd 5aed 45be fb5a 0a3d
00000100: c7f3 4ebd 2698 63bc e2d2 1fbe 7446 533c
00000110: 2588 78bd 9309 afbc 9de7 c23c cc10 27be
00000120: 34ac ef3c a9f3 243d f66d acbd 1213 513d
00000130: dc42 573e be53 07be df31 abbc 3d4f 7dbd
00000140: 8cbc 3bbe b000 35be 0e53 bc39 4a7e a0bd
00000150: 7833 fd3c 8947 d7bd a8ac e3bd a254 69bb
00000160: 92b8 d9bd 709c 443d 5a15 43be 0d81 98bc
00000170: ded9 d43d ab4c 143e 28e9 85bd 92e5 23bd
00000180: 2d5e ecbd 9dbb a23c 6945 03be 0783 8d3a
00000190: e54b 49be ad89 923d 1387 323d 7e6b 2f3e
000001a0: be7a 01bd 8cca 7dbd 2dea 043e f017 2b3e
000001b0: e23c 593e bb6c 833d 75b2 03bd 2268 a8bd
000001c0: b9b0 063e 1bbc 313e a667 1f3e 08a0 cebc
000001d0: ecfb 13be 0bad 73bd fa8f e93d 0cb1 c43d
000001e0: eac6 123e 6b91 55bd 1eeb b3bb a7f7 12be
000001f0: 7746 013b a99e ba3c 19e2 b73d eff6 683e

lstm.bias_hh_l1 f4 [128]
-0.14054076 0.16459404 0.07442864 0.10693258 0.016032862 -0.037526857 -0.1142034 0.15358904
0.031414382 -0.19384667 0.15984634 0.053717848 0.018072477 0.038089633 -0.12485852 0.015480774
0.17383943 0.07587268 -0.06738666 -0.08939034 0.012645245 -0.06630093 -0.12669131 -0.116542205
-0.11096165 -0.27260426 -0.040179383 -0.22963147 0.0031591204 0.08544665 -0.16441254 0.21863681
-0.11098253 0.20290107 -0.14675301 0.13326989 -0.01281973 0.12261549 0.06524433 -0.0025277226
-0.063234165 -0.01221881 0.15531485 -0.052309565 0.07581885 -0.053773332 0.008711915 -0.11136852
-0.017616576 -0.11960052 0.06687181 -0.27206755 0.050816618 -0.24930303 -0.043566834 -0.14335679
-0.17456216 -0.21207744 -0.27743477 0.061616812 -0.107299365 0.02561207 -0.19454598 -0.09057654
-0.01476579 -0.20546141 0.019919265 -0.13838997 0.03316928 0.21636473 -0.062170614 -0.16946016
-0.054662596 -0.1433716 -0.12331968 -0.17574471 0.0067200316 -0.13316971 -0.0043151965 -0.0009915592
-0.010770285 0.16778402 -0.024517382 0.05315592 -0.010403053 0.095616125 0.1319402 0.14423876
-0.05405273 -0.017240873 -0.038441673 -0.055024244 -0.042741273 -0.038849797 0.1051442 -0.15925458
-0.19983791 -0.033495743 -0.14770912 0.18938756 -0.057618808 0.036133423 -0.0420405 -0.06980259
-0.18712942 -0.19155416 0.015838025 -0.11576117 0.1712378 0.10420715 -0.1365678 -0.12479051
0.1810367 0.12208931 0.046222426 -0.26855093 -0.025010882 -0.09641086 0.0022212795 0.20519368
0.15285951 0.010209679 -0.17139202 0.10214707 -0.17021243 -0.04243926 0.0001609191 -0.022317482
00000000: ebe9 0fbe 578b 283e 0b6e 983d 78ff da3d
00000010: 5957 833c c3b5 19bd 79e3 e9bd 7246 1d3e
00000020: 5eac 003d be7f 46be c2ae 233e 3f07 5c3d
00000030: bb0c 943c e003 1c3d d3b5 ffbd 13a3 7d3c
00000040: f702 323e 2363 9b3d 0402 8abd 4812 b7bd
00000050: 002e 4f3c c8c8 87bd 5ebb 01be aead eebd
00000060: dd3f e3bd c992 8bbe 2393 24bd 8324 6bbe
00000070: 3f09 4f3b a7fe ae3d c35b 28be 54e2 5f3e
00000080: cf4a e3bd 4cc5 4f3e 6c46 16be e777 083e
00000090: d809 52bc d41d fb3d d29e 853d 26a8 25bb
000000a0: ea80 81bd 6731 48bc db0a 1f3e 8e42 56bd
000000b0: ea46 9b3d 6d41 5cbd 6cbc 0e3c 2e15 e4bd
000000c0: a350 90bc 1ef1 f4bd 16f4 883d 704c 8bbe
000000d0: 1625 503d 4b49 7fbe 2373 32bd 1fcc 12be
000000e0: 6cc0 32be d42a 59be ee0b 8ebe e961 7c3d
000000f0: c5bf dbbd 67d0 d13c 1037 47be 3180 b9bd
00000100: 36ec 71bc 7a64 52be ba2d a33c 1ab6 0dbe
00000110: 83dc 073d b78e 5d3e 9da6 7ebd f786 2dbe
00000120: e3e5 5fbd 01d0 12be 078f fcbd 6cf6 33be
00000130: b633 dc3b a45d 08be 7e66 8dbb 35f7 81ba
00000140: d975 30bc 93cf 2b3e add8 c8bc 06ba 593d
00000150: 9171 2abc 63d2 c33d 551b 073e 53b3 133e
00000160: 6566 5dbd bb3c 8dbc 0475 1dbd 1a61 61bd
00000170: 7911 2fbd f720 1fbd d855 d73d a213 23be
00000180: 4fa2 4cbe d532 09bd 0f41 17be d0ee 413e
00000190: b301 6cbd a400 143d a932 2cbd a9f4 8ebd
000001a0: db9e 3fbe c626 44be bfbe 813c 3114 edbd
000001b0: f658 2f3e 8f6a d53d 6ed8 0bbe 2b92 ffbd
000001c0: af61 393e f609 fa3d ba53 3d3d 827f 89be
000001d0: 9fe3 ccbc 0f73 c5bd e392 113b 4b1e 523e
000001e0: 3487 1c3e 7f46 273c 6481 2fbe 7c32 d13d
000001f0: 2b4c 2ebe cad4 2dbd 64bc 2839 27d3 b6bc

fc.weight f4 [1, 32]
-0.14306995 0.17732757 0.10884355 0.25420815 0.06802385 -0.17523186 -0.05732017 0.22181045
-0.023307936 0.039656132 0.14302337 0.20180795 -0.21037 0.056643434 -0.06795564 -0.088722624
0.121011585 0.036190562 0.16018838 -0.016782913 -0.04388616 -0.058622852 0.08753199 -0.20850536
0.16603123 -0.0032128496 -0.0053574597 0.027660728 -0.018349512 -0.12852378 -0.123433806 0.20300736
00000000: ee80 12be 5c95 353e 5ee9 de3d 9227 823e
00000010: 1750 8b3d fb6f 33be 8ec8 6abd 4722 633e
00000020: 49f0 bebc 786e 223d b874 123e bea6 4e3e
00000030: 3c6b 57be f202 683d 542c 8bbd 35b4 b5bd
00000040: ecd4 f73d 8e3c 143d 6c08 243e 527c 89bc
00000050: f9c1 33bd 841e 70bd f943 b33d 6e82 55be
00000060: 1704 2a3e ac8e 52bb a18d afbb c098 e23c
00000070: b751 96bc bd9b 03be ddca fcbd 29e1 4f3e
