backend/stocks/price/pt_models/ARRY.pt (torch, 54435 bytes, 9 tensors)

lstm.weight_ih_l0 f4 [128, 1]
0	0xbd90851f	-0.07056641
1	0xbdbc632c	-0.09198603
2	0xbd9c7e2b	-0.07641252
3	0x3d130226	0.03589072
4	0x3e4c14a5	0.1992975
5	0xbbbe301f	-0.0058040763
6	0x3e3fe067	0.18737946
7	0x3e801327	0.25014612
8	0xbe04a30c	-0.12952822
9	0x3e6bc758	0.23025262
10	0x3ec50d1f	0.38486573
11	0xbe15bbc8	-0.14622414
12	0xbd093690	-0.0334993
13	0x3e08b12b	0.13348834
14	0x3e980423	0.29690656
15	0xbe843cd6	-0.25827664
16	0x3d2f1e8e	0.04275375
17	0xbd386f89	-0.045028243
18	0x3d1b3329	0.037890587
19	0x3e126d1e	0.14299437
20	0xbe4e10ce	-0.20123598
21	0xbc7b29a0	-0.015329748
22	0x3d36c466	0.044620894
23	0x3e81d5a4	0.25358307
24	0x3e7baeae	0.24578354
25	0x3e00220c	0.12512988
26	0xbd3e5a09	-0.046472583
27	0x3e2332a3	0.15937285
28	0x3e09333a	0.13398448
29	0x3dc3b1fd	0.09555433
30	0xbdd314c9	-0.10306699
31	0x3e317217	0.17328678
32	0xbcdac518	-0.02670531
33	0x3b666fd3	0.0035161867
34	0x3d751309	0.059832606
35	0x3e59ba3c	0.21262449
36	0x3b4cbdea	0.0031241127
37	0x3dd1ad8c	0.102381796
38	0x3db9a60b	0.09064873
39	0x3e8d1583	0.27555475
40	0xbcdbac84	-0.02681566
41	0x3dacb92b	0.084337555
42	0x3eb025ef	0.3440394
43	0x3db8b63b	0.09019133
44	0xbe37cfa6	-0.17950305
45	0x3e507c23	0.20359854
46	0x3da43308	0.08017546
47	0xbc5f40e2	-0.013626309
48	0x3e458ffd	0.19293208
49	0x3e16e628	0.14736235
50	0xbb7486d9	-0.003731182
51	0xbc016591	-0.0078977505
52	0xbd9087df	-0.07057165
53	0x3e9c019c	0.30469978
54	0x3e55584f	0.20834468
55	0xbda705c3	-0.08155396
56	0x3e1d1bb2	0.15342596
57	0x3e211b8d	0.15733166
58	0xbd97aa7b	-0.074055634
59	0x3e51cfb3	0.20489387
60	0xbdbf677b	-0.09345909
61	0x3de5717b	0.11203285
62	0xbd96c058	-0.073609054
63	0x3d3198a4	0.04335846
64	0xbe699a6d	-0.22812815
65	0xbea9ad59	-0.33140066
66	0xbc65c619	-0.014024281
67	0xbe72730c	-0.236767
68	0xbdc129c5	-0.09431795
69	0x3d9c65bd	0.076365925
70	0x3e5589fd	0.2085342
71	0xbdb1ec93	-0.08687701
72	0x3d17f27b	0.03709648
73	0x3e1b5cb2	0.15172079
74	0x3e74f4eb	0.23921554
75	0x3e4ad407	0.19807445
76	0x3e4f026e	0.2021577
77	0xbe4649c5	-0.19364078
78	0x3e2df321	0.16987278
79	0xbeaef86f	-0.34173915
80	0x3eb10e2c	0.34581125
81	0x3eaa5332	0.33266598
82	0xbde955ff	-0.113933556
83	0x3d2668dc	0.040627345
84	0x3e9b0999	0.3028076
85	0x3e72714f	0.23676036
86	0x3e7e62c2	0.2484236
87	0xbdca4a70	-0.09877479
88	0xbe8b8723	-0.2725154
89	0xbe8b1cc6	-0.2717039
90	0xbe813c66	-0.25241393
91	0xbdda377b	-0.10655113
92	0x3e866697	0.26250145
93	0xbc4215b9	-0.011845999
94	0x3e41edc7	0.18938361
95	0x3dfec37c	0.124396294
96	0xbe424486	-0.18971452
97	0x3c942a16	0.018086474
98	0x3d0fff92	0.03515584
99	0x3e16e617	0.1473621
100	0x3da26594	0.07929531
101	0x3e21597a	0.15756789
102	0x3d76ccf5	0.060254056
103	0x3eb47dc6	0.35252208
104	0xbe3ca7a4	-0.18423325
105	0x3e80ff4d	0.2519478
106	0x3e6f5048	0.23370469
107	0xbdb4795d	-0.08812211
108	0xbd559384	-0.052142635
109	0x3e6bc5b0	0.2302463
110	0x3ea826b4	0.32842028
111	0x3c62caf5	0.013842334
112	0x3e59c9ad	0.2126834
113	0xbdc8f1a6	-0.09811716
114	0xbcd26a44	-0.025685437
115	0x3e38448f	0.17994903
116	0xbd020556	-0.03174337
117	0x3e644570	0.22292113
118	0x3c9281dd	0.01788419
119	0x3e0ad947	0.13559447
120	0x3e76e2b1	0.24109913
121	0x3e74c64f	0.23903774
122	0xbd86d0fc	-0.06582829
123	0x3c060238	0.00817924
124	0x3e3593ed	0.1773221
125	0x3e171d0b	0.14757173
126	0xbe3a37f7	-0.18185411
127	0x3e933ebf	0.2875881

lstm.weight_hh_l0 f4 [128, 32]
0	0x3e2916fa	0.16512671
1	0xbd125acc	-0.035731122
2	0x3db0d969	0.08635218
3	0xbdb53a10	-0.08848965
4	0x3dad2a0e	0.08455287
5	0x3d780ace	0.06055718
6	0x3df33af6	0.1187648
7	0xbd73d9fd	-0.05953406
8	0x3d53edb3	0.05174036
9	0x3e2aa066	0.1666275
10	0x3dbf464a	0.093395784
11	0xbda319ca	-0.07963903
12	0xbd7d7348	-0.06187752
13	0xbdda6987	-0.10664659
14	0x3e1dd116	0.15411791
15	0xbe0d1b01	-0.13779832
16	0x3d2339ec	0.03985016
17	0x3d9ea19a	0.07745667
18	0xbd920078	-0.07128996
19	0x3e1813d0	0.14851308
20	0x3dd1e97f	0.10249614
21	0x3d865697	0.065594845
22	0x3e2a0a6b	0.16605537
23	0xbd2e36f7	-0.042532887
24	0x3cfb3b22	0.030667845
25	0x3d78f0b1	0.060776416
26	0xbe061f12	-0.1309779
27	0x3de170ea	0.11007865
28	0xbe21f3b9	-0.15815629
29	0xbd4851e6	-0.04890623
30	0x3db81123	0.089876436
31	0x3d86b10e	0.06576739
32	0x3df8fe4a	0.12157877
33	0xbd456a9e	-0.04819738
34	0xbe098be3	-0.13432269
35	0x3d12f017	0.0358735
36	0x3dcdf254	0.10055986
37	0xbd82dc1a	-0.06389637
38	0xbe24f389	-0.16108526
39	0x3e41b3a7	0.18916188
40	0xbe3242b7	-0.17408262
41	0x3d7eded0	0.06222421
42	0x3e29232f	0.16517328
43	0xbcd2ead9	-0.02574675
44	0x3bb02fcb	0.005376791
45	0xbd381754	-0.044944122
46	0x3dd1104e	0.10208188
47	0x3db3650a	0.08759506
48	0xbd33665b	-0.043798786
49	0xbbe5441f	-0.006996646
50	0xbc727d24	-0.014800344
51	0xbe53839b	-0.20655672
52	0xbe159808	-0.14608777
53	0xbe598068	-0.2124039
54	0x3d68aef7	0.056807484
55	0xbe27fa57	-0.16404091
56	0x3e0afb3c	0.13572401
57	0x3e1a1a29	0.15049042
58	0x3e5fd577	0.21858774
59	0xbdd495de	-0.103801474
60	0xbdfde8ad	-0.12397895
61	0xbe46fcf9	-0.19432439
62	0xbe423ae6	-0.1896778
63	0x3e6b46d6	0.2297624
64	0x3da20197	0.079104595
65	0x3e0fea26	0.14054164
66	0xbd2c436d	-0.04205649
67	0x3e5bd3e1	0.21467544
68	0x3e8b69a7	0.27229044
69	0xbdcf2a31	-0.10115469
70	0xbea77258	-0.32704425
71	0x3c5d48f0	0.013506159
72	0xbd2c069f	-0.041998502
73	0x3d08ce98	0.03340015
74	0xbe883701	-0.26604465
75	0xbd849702	-0.06474115
76	0xbd9eaa4d	-0.07747326
77	0x3d87d815	0.06633011
78	0xbda16d2c	-0.07882151
79	0x3de4ee37	0.111782484
80	0xbdf02732	-0.11726226
81	0xbe6c8b61	-0.23100044
82	0x3e915775	0.28387037
83	0xbd301b05	-0.042994518
84	0xbe069746	-0.13143644
85	0xbe44700c	-0.19183367
86	0xbe45fbe5	-0.19334371
87	0x3d0e0723	0.034674775
88	0x3e245fd8	0.16052186
89	0x3e9031e4	0.28163064
90	0x3e562d18	0.2091564
91	0x3c12e240	0.008965075
92	0xbeb30906	-0.34967822
93	0xbc9f2d40	-0.019430757
94	0xbd54322c	-0.05180566
95	0xbe0e8808	-0.1391908
96	0x3e1269d6	0.14298186
97	0xbb91e686	-0.0044525294
98	0x3e0060a1	0.12536861
99	0x3d590200	0.052980423
100	0x3d9fc141	0.07800532
101	0x3e5d6a49	0.21622576
102	0x3d58ffa1	0.05297816
103	0xbc3ff2c4	-0.011715595
104	0xbdb78309	-0.0896054
105	0x3e697f7e	0.2280254
106	0x3c09ee30	0.008418605
107	0x3d5fb258	0.05461344
108	0xbddd961e	-0.10819648
109	0x3cd19267	0.025582505
110	0x3de2248d	0.11042128
111	0x3e2cd555	0.16878255
112	0xbd9d5d54	-0.076838166
113	0xbde96573	-0.11396303
114	0xbdf77582	-0.1208296
115	0xbe42d855	-0.19027837
116	0xbe24216f	-0.16028379
117	0xbdb5ad8d	-0.08870993
118	0xbd21087f	-0.039314743
119	0xbc645982	-0.013937356
120	0x3d26cb52	0.040721245
121	0xbce50c89	-0.027960079
122	0xbd1a3291	-0.03764588
123	0xbd42d6b9	-0.047568057
124	0x3e570916	0.2099956
125	0x3de3a2e8	0.11115056
126	0x3dfd91b3	0.123813055
127	0x3d254c07	0.04035571
128	0xbe49f472	-0.19722155
129	0xbe8340be	-0.25635332
130	0x3cb743d9	0.02237122
131	0xbd41ea6b	-0.0473427
132	0xbd388245	-0.04504611
133	0xbda09e93	-0.07842746
134	0xbd8f597a	-0.06999488
135	0xbe2705d1	-0.16310813
136	0xbd5a33a2	-0.053271897
137	0xbe7bed70	-0.24602294
138	0xbe002491	-0.12513949
139	0xbe07dd49	-0.13268007
140	0xbd359f83	-0.044341575
141	0x3e4460b7	0.19177519
142	0xbc92bcc8	-0.017912284
143	0xbd925ecb	-0.071469866
144	0xbe14988f	-0.14511321
145	0x3db052b0	0.086095214
146	0x3deafdee	0.114742145
147	0x3e53b5e8	0.2067486
148	0xbd19a7d0	-0.037513554
149	0xbd783615	-0.06059845
150	0xbdc03da5	-0.09386758
151	0x3e11c43d	0.14235015
152	0x3d040505	0.03223135
153	0x3dcb78c1	0.09935141
154	0x3c2299d3	0.00992437
155	0xbda52616	-0.08063905
156	0x3e067973	0.13132267
157	0xbcb4691d	-0.022022778
158	0x3cf6380b	0.03005602
159	0xbdf5f0f1	-0.120088466
160	0x3c1c545a	0.009541595
161	0xbd31290a	-0.04325203
162	0xbe1f63ba	-0.15565386
163	0x3e6b0414	0.22950774
164	0xbcb5bb82	-0.022184137
165	0x3c3d5b67	0.011557437
166	0xbe425827	-0.1897894
167	0xbdfddda0	-0.12395787
168	0x3db3813e	0.08764885
169	0xbe05013a	-0.12988749
170	0xbdbeb414	-0.09311691
171	0xbe745fe6	-0.23864707
172	0x3a86aa4e	0.0010274143
173	0x3e0675a4	0.13130814
174	0xbdccf7d7	-0.10008209
175	0x3c87521e	0.016518649
176	0xbda57efa	-0.080808595
177	0x3b532054	0.0032215314
178	0x3e07f5d5	0.13277371
179	0x3e2f9f0f	0.1715052
180	0x3b757a55	0.0037456949
181	0xbd0f9077	-0.03504988
182	0xbcfe23af	-0.031022875
183	0x3e849776	0.25896806
184	0x3c11155d	0.008855191
185	0x3df5e4d1	0.12006534
186	0xbcc9fc95	-0.024656573
187	0x3da53aeb	0.08067878
188	0xbd3f4352	-0.04669506
189	0x3e195008	0.14971936
190	0xbe1f283b	-0.1554269
191	0x3d95ead9	0.07320184
192	0xbd9e6104	-0.07733348
193	0xbb1ef6b0	-0.0024255924
194	0x3db27c83	0.08715155
195	0xbe24a07c	-0.16076845
196	0xbe177cfe	-0.14793774
197	0x3da6d2d4	0.08145681
198	0x3e00d361	0.12580635
199	0xbe936e86	-0.2879526
200	0xbcbd7215	-0.023125688
201	0xbde1335f	-0.109961264
202	0x3d5b8a4b	0.053598683
203	0xbd4b1c05	-0.04958727
204	0x3b07f540	0.0020745546
205	0xbda93e83	-0.08263876
206	0x3e59eabd	0.21280952
207	0xbde81019	-0.113311954
208	0x3ced1dbb	0.02894484
209	0x3e0b265e	0.13588855
210	0x3ceb0525	0.028688977
211	0xbb877818	-0.0041341893
212	0x3d4242a2	0.047426827
213	0xbc24e3f6	-0.010064116
214	0x3d995c33	0.07488289
215	0x3e1f045d	0.15529008
216	0xbe098575	-0.13429816
217	0xbd3b1b7d	-0.04568051
218	0xbcf0100b	-0.029304525
219	0x3cd5be44	0.026091702
220	0xbd95b955	-0.0731074
221	0xbdaa15d2	-0.08304943
222	0xbc0c1b9e	-0.008551506
223	0x3e1c0e7e	0.15239903
224	0xbe60806d	-0.2192399
225	0xbdaa6134	-0.08319321
226	0xbe134537	-0.14381872
227	0x3d86f5c0	0.06589842
228	0x3d319628	0.04335609
229	0xbe50c0fd	-0.20386119
230	0x3da7725c	0.08176109
231	0xbd7afd4a	-0.06127671
232	0xbb53f5dc	-0.0032342589
233	0xbe8417cd	-0.2579941
234	0xbb65855a	-0.003502211
235	0xbe18a03d	-0.14904876
236	0x3d67ce5c	0.056593284
237	0xbe19ccfe	-0.15019605
238	0x3dc17abd	0.094472386
239	0xbe14e66b	-0.14541022
240	0x3d84ac4b	0.06478175
241	0x3c6f75f3	0.014615524
242	0x3ca48a96	0.020085614
243	0x3b156160	0.0022793636
244	0xbd39a84d	-0.04532652
245	0xbd2ab421	-0.04167569
246	0xbd7d3d03	-0.061825763
247	0xbdca70dd	-0.09884808
248	0x3ddf0862	0.10890271
249	0x3e1e8cab	0.15483348
250	0x3d97715b	0.07394668
251	0x3db1936c	0.086706966
252	0x3d7ddf4a	0.061980523
253	0xbd9c202d	-0.076233245
254	0x3e62d7ef	0.22152685
255	0xbcf11ff2	-0.029434178

lstm.bias_ih_l0 f4 [128]
0	0xbc8378a2	-0.016048733
1	0x3d9fd9e3	0.078052305
2	0xbd742fdd	-0.05961596
3	0x3e14e1c7	0.14539252
4	0xbe1526de	-0.14565608
5	0xbd0b3775	-0.033988435
6	0xbd09414c	-0.033509538
7	0xbd611c21	-0.054958466
8	0xbdd0e67a	-0.1020021
9	0xbdde2456	-0.10846774
10	0x3e0a2465	0.13490446
11	0x3e578aa6	0.21048984
12	0xbd0d9eee	-0.034575395
13	0xbdf1fea8	-0.1181615
14	0xbdd19e3f	-0.10235261
15	0x3e6efbf1	0.23338296
16	0xbd23846a	-0.0399212
17	0x3d345e05	0.044034977
18	0xbe1ecc46	-0.15507612
19	0xbd82d5b3	-0.06388416
20	0xbda4c7c4	-0.08045915
21	0xbdf4596a	-0.11931117
22	0x3ba872f1	0.005140655
23	0xbe50651d	-0.20351072
24	0x3dc141e6	0.09436397
25	0x3d2f7db0	0.042844474
26	0x3c343080	0.010997891
27	0xbe233e73	-0.15941791
28	0x3d4a7be0	0.049434543
29	0xbe343612	-0.17598751
30	0xba876246	-0.001032897
31	0xbe0d6dac	-0.13811368
32	0xbe0ee991	-0.13956286
33	0x3e01798d	0.12644024
34	0x3d91837b	0.07105156
35	0x3dd3aa06	0.10335164
36	0xbdca1ec2	-0.09869148
37	0x39364ec6	0.00017386218
38	0xbc86df6f	-0.016463963
39	0xbe3305d4	-0.17482692
40	0xbda0da4f	-0.07854139
41	0x3df70d36	0.12063067
42	0x3d96867d	0.0734987
43	0x3e1e31ba	0.15448657
44	0xbcc54db5	-0.024084905
45	0xbdf1c06d	-0.118042804
46	0xbc36fbb9	-0.011168414
47	0x3da6a628	0.081371605
48	0xbd1020f5	-0.03518768
49	0x3de5870b	0.11207398
50	0xbd9ed649	-0.077557154
51	0xbddb405e	-0.107056364
52	0x3de87ce2	0.113519445
53	0xbbd2119f	-0.006410792
54	0xbd3d692a	-0.04624287
55	0xbe54e393	-0.20789938
56	0xbe2a5812	-0.16635159
57	0x3e2550ac	0.16144055
58	0x3e18a99d	0.14908452
59	0xbcb750df	-0.02237743
60	0xbdca68b8	-0.09883255
61	0xbcb832ac	-0.0224851
62	0xbe19d87c	-0.15023988
63	0xbdc5c5d1	-0.09656871
64	0xbcdff0ef	-0.027336566
65	0x3bc89ac2	0.006121964
66	0x3dcf999a	0.10136719
67	0xbe17c58c	-0.14821452
68	0xb9980c49	-0.00029000852
69	0x3de6c9c5	0.11268953
70	0xbdab14bd	-0.08353565
71	0xbdb5cf2b	-0.08877405
72	0xbdaa37f8	-0.083114564
73	0xbdfe7972	-0.124255076
74	0x3da18a46	0.07887702
75	0x3dd61d48	0.10454804
76	0xbd532802	-0.051551826
77	0xbdf15e9c	-0.117856234
78	0xbd1a0c8e	-0.03760963
79	0xbcb286bc	-0.021792762
80	0x3cd1d8ea	0.025616128
81	0xbd7fbd36	-0.062436305
82	0xbdf3ff1d	-0.11913893
83	0x3cd96cdb	0.026541164
84	0x3c157996	0.009123227
85	0x3e33958e	0.1753752
86	0x3d166f4b	0.03672723
87	0x3d18477f	0.03717756
88	0xbe1076bb	-0.14107792
89	0xbdbc3b9a	-0.091910556
90	0x3db2ef3b	0.08737036
91	0xbcbcd41f	-0.023050366
92	0x3d655960	0.055993438
93	0x3ab5524b	0.0013833729
94	0x3e0894cb	0.1333801
95	0x3de19927	0.110155396
96	0x3da6cb38	0.0814423
97	0xbd58cafb	-0.052927952
98	0x3d717055	0.05894502
99	0x3e40073b	0.18752758
100	0x3da6a176	0.08136265
101	0xbdb5e35c	-0.08881256
102	0xbc9fd333	-0.019509887
103	0x3c5bf190	0.013424292
104	0xbe18f58d	-0.1493742
105	0x3d8b182c	0.0679172
106	0xbdf2ee5f	-0.11861872
107	0x3e15dbe1	0.14634658
108	0xbde9850e	-0.11402331
109	0xbdfe0623	-0.12403514
110	0xbd966462	-0.07343365
111	0x3e7f2138	0.24915016
112	0x3c0810d3	0.008304792
113	0x3e139811	0.14413477
114	0xbe7b7705	-0.24557121
115	0xbe93de54	-0.2888056
116	0x3e6c4613	0.23073606
117	0xbca9634a	-0.020677228
118	0xbcd0964a	-0.025462288
119	0xbe8205ba	-0.25394994
120	0x3e06f97b	0.13181107
121	0x3e41c801	0.18923952
122	0x3d78f621	0.0607816
123	0xbcd06a87	-0.025441421
124	0x3e2f67c4	0.17129427
125	0xbb6af9d2	-0.003585447
126	0x3beee082	0.007289947
127	0x3d834da1	0.06411291

lstm.bias_hh_l0 f4 [128]
0	0x3d82851b	0.06373044
1	0xbdae703b	-0.085175
2	0xbd8502f6	-0.064947054
3	0x3e36b1a1	0.17841198
4	0xbd032cbf	-0.032025095
5	0x3dfe8fad	0.12429748
6	0xbc0906a7	-0.008363402
7	0xbdf68f53	-0.12039056
8	0x3d4ab1ff	0.049486157
9	0x3de55a40	0.111988544
10	0xbd9df69e	-0.07713054
11	0xbd84806c	-0.06469807
12	0xbe38bb06	-0.18040094
13	0x3e078960	0.13235998
14	0x3dc329dd	0.09529469
15	0xbd42385d	-0.047417033
16	0x3e778d05	0.24174888
17	0x3e5448a0	0.20730829
18	0x3d9eeb12	0.0775968
19	0xbea13600	-0.3148651
20	0x3d0c96fd	0.03432368
21	0xbd2e09c4	-0.042489782
22	0xbd673702	-0.056448944
23	0xbe2c0c43	-0.16801552
24	0xbd1b30c0	-0.03788829
25	0xbdc678be	-0.096909985
26	0x3df61f40	0.12017679
27	0xbe1e3516	-0.15449938
28	0x3e4e43de	0.20143077
29	0xbe3fdf2e	-0.1873748
30	0x3e1130fb	0.14178841
31	0xbe2e8d00	-0.17045975
32	0x3e13690d	0.14395542
33	0xbca28c2d	-0.019842232
34	0xbdae7154	-0.085177094
35	0x3cab169f	0.02088481
36	0xbd9fa06a	-0.077942684
37	0xbe0ae0c6	-0.13562307
38	0x3ca92bab	0.020650705
39	0x3c3ba3d8	0.011452638
40	0x3dd47727	0.10374289
41	0x3c3857d5	0.01125141
42	0xbc78a0f6	-0.015175095
43	0x3e2399ea	0.15976682
44	0xbbc0c64c	-0.005883014
45	0xbdcaa7d8	-0.09895295
46	0xbb8ef74f	-0.0043629776
47	0xbd1d696c	-0.038430616
48	0xbdd7936f	-0.105261676
49	0x3df32ef8	0.11874193
50	0xbd6514bb	-0.055927973
51	0xbe1e5762	-0.15463021
52	0x3e56ea15	0.20987733
53	0x3d9f57cf	0.0778042
54	0x3deddbf8	0.11614221
55	0xbd2fe6bd	-0.04294466
56	0x3de3143f	0.11087846
57	0xbcf03693	-0.029322898
58	0x3de5920d	0.112094976
59	0x3d534e19	0.05158815
60	0xbbb1ff72	-0.005432063
61	0x3d25c68a	0.040472545
62	0x3daf094c	0.08546695
63	0xbdb1bb9a	-0.0867836
64	0x3db0990e	0.08622943
65	0x3d8e31dc	0.06943104
66	0x3d696b94	0.05698736
67	0x3da1ea30	0.07905996
68	0xbdc01e9d	-0.09380839
69	0x3d8faaa1	0.07014967
70	0x3d66a8c4	0.05631329
71	0xbdb02099	-0.085999675
72	0xbe08c173	-0.13355045
73	0x3e14a96a	0.14517751
74	0xbd85b724	-0.06529072
75	0xbe443b26	-0.19163188
76	0xbbe33c95	-0.006934712
77	0x3d061dfa	0.03274343
78	0x3da80932	0.08204879
79	0xbc1223d7	-0.008919678
80	0xbd4f204d	-0.050567914
81	0x3d602330	0.054721057
82	0xbc5f9082	-0.013645293
83	0x3d3acb9b	0.04560433
84	0xbdf682ec	-0.1203669
85	0xbbde5d4a	-0.0067860233
86	0xbce7dae8	-0.028302625
87	0xbd7378e1	-0.05944145
88	0x3da0d630	0.07853353
89	0xbd0323a8	-0.032016426
90	0xbe15110f	-0.14557289
91	0xbd67132b	-0.056414764
92	0xbd948df1	-0.07253636
93	0xbcacf628	-0.02111347
94	0xbe256a31	-0.1615379
95	0xbdaeeda9	-0.08541424
96	0x3c21544d	0.009846759
97	0x3e58c66b	0.2116944
98	0xbdc534b7	-0.09629195
99	0x3e3a612b	0.18201129
100	0x3c4f7b45	0.012663667
101	0xbd221484	-0.039570346
102	0x3e2f275d	0.1710486
103	0xbe824cbc	-0.2544917
104	0xbe3326b4	-0.17495233
105	0xbcd9a11a	-0.026566077
106	0x3e02dd92	0.12779835
107	0x3d056972	0.032571264
108	0xbbef9a62	-0.007312105
109	0x3d4a2610	0.049352705
110	0x3d24eacd	0.040262986
111	0x3d029d38	0.031888217
112	0x3dd73057	0.10507267
113	0x3e4ecd3d	0.2019548
114	0xbe28c7df	-0.16482495
115	0xbdd1dc13	-0.10247054
116	0xbdd3c8e5	-0.10341052
117	0x3e1fcba4	0.15605026
118	0x3e5d2496	0.21595988
119	0xbda8c473	-0.08240595
120	0xbda967b0	-0.0827173
121	0x3e0aae09	0.13542952
122	0x3d437e9d	0.04772817
123	0x3da5a348	0.08087784
124	0x3c787e58	0.015166841
125	0xbe46e61b	-0.19423716
126	0x3cb816e7	0.022471858
127	0xbd9b6c76	-0.07589047

lstm.weight_ih_l1 f4 [128, 32]
0	0x3e91ca8e	0.2847485
1	0x3d78c8d8	0.060738415
2	0xbc9dc62f	-0.01925954
3	0xbd874dbc	-0.066066235
4	0x3dc15599	0.094401546
5	0xbe2ce110	-0.1688273
6	0x3c826810	0.015918761
7	0xbdfad245	-0.12247137
8	0xbe3bb76a	-0.18331686
9	0x3c19c07a	0.009384269
10	0xbe127ea3	-0.1430612
11	0xbe5ae52b	-0.21376483
12	0xbd879d93	-0.06621852
13	0x3e1c9da6	0.15294513
14	0xbc02d1cf	-0.007984593
15	0x3e81061d	0.25199977
16	0xbdb31031	-0.08743323
17	0xbce6e0a6	-0.028183293
18	0x3e3e5a25	0.18589075
19	0x3d88d9f1	0.06682194
20	0xbd9ad499	-0.07560081
21	0xbe1f06c1	-0.1552992
22	0xbe4bf2ca	-0.19916835
23	0x3e7aa44a	0.24476734
24	0x3ca50335	0.02014313
25	0x3e385b0f	0.18003486
26	0xbcc24e57	-0.023718996
27	0x3ded2b8a	0.1158057
28	0xbdf953e7	-0.12174206
29	0x3e47a9ea	0.19498411
30	0x3d128309	0.035769496
31	0x3d791688	0.060812503
32	0x3e004182	0.12524989
33	0x3dcdebb7	0.10054725
34	0xbe2fc759	-0.17165889
35	0x3e5531cf	0.20819782
36	0x3e34a589	0.17641272
37	0xbe30c8df	-0.17264126
38	0x3e3c1143	0.1836596
39	0xbdd4e671	-0.10395516
40	0x3cbaaf0c	0.022788547
41	0xbe2c6cc6	-0.16838369
42	0x3e059731	0.13045956
43	0xbe30f642	-0.1728144
44	0xbd0f7154	-0.035020187
45	0xbdc5e0bf	-0.096620075
46	0xbda1ef1d	-0.07906935
47	0xbd4e2a60	-0.05033338
48	0x3ca716bb	0.02039658
49	0xbcf98841	-0.030460479
50	0x3df0c285	0.11755852
51	0x3e629d55	0.2213033
52	0x3e034150	0.12817883
53	0xbbf7b201	-0.0075590615
54	0x3d0d3e31	0.03448314
55	0xbbe358a7	-0.0069380584
56	0x3dcf18c2	0.10112144
57	0x3e3d4ae6	0.18485603
58	0x3e418362	0.18897775
59	0x3ddab711	0.106794484
60	0xbe33f83a	-0.1757516
61	0x3b803f12	0.0039137686
62	0xbd054b14	-0.032542303
63	0xbd367041	-0.044540647
64	0xbc88b8b8	-0.016689643
65	0xbd813dc0	-0.06310606
66	0x3e175218	0.1477741
67	0xbd20e33d	-0.03927921
68	0xbe1674ea	-0.14693037
69	0x3e09b3c5	0.13447483
70	0x3d9b3a00	0.07579422
71	0xbcb01b19	-0.021497296
72	0xbe01975f	-0.126554
73	0x3e18461c	0.14870495
74	0x3e4f23c0	0.20228481
75	0xbe42285d	-0.1896071
76	0x3d7fc130	0.062440097
77	0x3e3d5a3a	0.1849145
78	0xbe05d9dc	-0.13071388
79	0x3c929ec8	0.017897978
80	0xbe0b8f25	-0.13628824
81	0xbe1ee41c	-0.15516704
82	0x3d7a3379	0.061084244
83	0x3e633463	0.22187953
84	0xbcb8594b	-0.022503516
85	0xbe0fe9be	-0.1405401
86	0xbe4e7a88	-0.2016393
87	0xbb6b6866	-0.003592038
88	0x3d4f3537	0.05058786
89	0xbdae041f	-0.0849688
90	0x3d0eb8f9	0.034844372
91	0x3e27e231	0.16394879
92	0x3cd84ec0	0.026404738
93	0x3df414b4	0.11918011
94	0xbc43109f	-0.011905818
95	0x3e49a996	0.19693598
96	0xbe32e10e	-0.17468664
97	0xbde58a5f	-0.11208033
98	0xbe7cb98f	-0.2468016
99	0xbdce5b46	-0.10076003
100	0xbc52239d	-0.012825874
101	0xbdb9a3e3	-0.09064462
102	0x3e92f084	0.28699124
103	0xbdd206ce	-0.10255204
104	0xbd864e49	-0.065579005
105	0x3e14189d	0.14462514
106	0x3e328197	0.17432247
107	0x3e0871ed	0.13324709
108	0x3e26c1db	0.16284887
109	0x3ca64e37	0.020300968
110	0x3e3891a3	0.18024306
111	0xbe946c91	-0.2898908
112	0x3e4e38f3	0.20138912
113	0x3e939a1a	0.28828508
114	0x3e128847	0.14309798
115	0x3dec5057	0.11538761
116	0x3e33cbb6	0.17558178
117	0x3e7090d5	0.23492749
118	0x3e935da2	0.28782374
119	0x3dada2d8	0.084783256
120	0xbe221ad1	-0.15830542
121	0xbe027e3c	-0.12743467
122	0xbebf9fde	-0.37426656
123	0xbd936c65	-0.07198409
124	0x3eca0f16	0.39464635
125	0x3e70b738	0.23507392
126	0x3e5e9a93	0.21738653
127	0x3d7f6c61	0.062359218
128	0x3d31ca37	0.043405738
129	0x3c8c804a	0.017151017
130	0xbd72897d	-0.05921315
131	0x3da98eb1	0.08279169
132	0x3e62d4fc	0.2215156
133	0x3ba8c674	0.0051506106
134	0x3e8e7be4	0.27828896
135	0xbdc4b9c5	-0.09605745
136	0xbd047615	-0.032339174
137	0x3d9a24bc	0.07526538
138	0x3df96cb2	0.12178935
139	0x3d859f1b	0.065244876
140	0x3e7ff485	0.2499562
141	0xbb249365	-0.0025112268
142	0x3e320291	0.17383792
143	0xbe02f8b6	-0.12790188
144	0x3c210f17	0.009830258
145	0x3dd4e8bf	0.10395955
146	0xbc922ae5	-0.01784272
147	0x3dd21fe5	0.1025999
148	0x3d205f01	0.039153103
149	0x3df77cce	0.120843515
150	0xbcc8c1d9	-0.024506496
151	0x3e5c9399	0.21540679
152	0x3d083223	0.03325094
153	0x3de1489d	0.11000178
154	0x3da92b2e	0.08260189
155	0xbe264cc1	-0.16240217
156	0xbd5abf4e	-0.0534051
157	0x3d2c13ee	0.042011194
158	0xbd01c761	-0.031684283
159	0x3c0e30c0	0.008678615
160	0xbe75cc12	-0.24003628
161	0xbeacc88e	-0.3374676
162	0xbe379fa4	-0.17931992
163	0xbe7a47d1	-0.24441458
164	0x3e193421	0.14961292
165	0xbe29042d	-0.16505499
166	0x3ecab5ac	0.3959173
167	0xbddbd8f5	-0.10734741
168	0x3e23f1c9	0.16010202
169	0xbc512fb3	-0.01276772
170	0x3e3357af	0.17513917
171	0x3d172e2e	0.036909275
172	0x3dac7df7	0.084224634
173	0x3d4e0959	0.050301883
174	0x3e42cdfd	0.19023891
175	0xbee8a374	-0.45437205
176	0x3db92753	0.090407036
177	0x3e36538f	0.17805313
178	0x3c01ee10	0.007930294
179	0x3e0fff9b	0.1406235
180	0x3da57311	0.08078588
181	0x3d5bd30e	0.053668074
182	0x3e57209b	0.21008532
183	0x3e56ec50	0.20988584
184	0xbd14d828	-0.036338955
185	0xbe36a8b5	-0.17837794
186	0xbeb292c8	-0.3487761
187	0x3da09c17	0.07842272
188	0xbbf64004	-0.0075149555
189	0x3ea09470	0.3136325
190	0x3e84481d	0.25836268
191	0xbd554861	-0.05207098
192	0xbe46cb84	-0.19413573
193	0x3c086778	0.00832545
194	0x3e15e3eb	0.14637725
195	0xbd8983a3	-0.06714561
196	0xbe757b0d	-0.23972721
197	0x3e392723	0.18081336
198	0x3db39b33	0.08769836
199	0xbe8f42f9	-0.27980784
200	0x3ddc7fa6	0.107665345
201	0x3ddbc5b1	0.10731066
202	0x3c0e8580	0.008698821
203	0x3e21a740	0.15786457
204	0x3e2396ad	0.15975447
205	0xbc56af80	-0.013103366
206	0x3e7a6f19	0.24456443
207	0xbe1587ad	-0.14602537
208	0x3e12ab61	0.14323188
209	0xbcfc1003	-0.030769354
210	0xbe310af6	-0.17289338
211	0x3d3635e9	0.044485006
212	0x3e10b923	0.14133124
213	0x3e97c929	0.2964566
214	0xbd1bf107	-0.03807166
215	0xbd75cd52	-0.06001026
216	0xbe39ba1b	-0.181374
217	0xbe246ece	-0.16057894
218	0xbdada8b6	-0.08479445
219	0xbe03b57e	-0.12862203
220	0x3dd71878	0.10502714
221	0x3d413822	0.047172673
222	0x3c17b79e	0.009260086
223	0x3de74866	0.11293106
224	0x3daf1877	0.08549588
225	0x3e2d272e	0.16909477
226	0x3dcaf5fc	0.09910199
227	0x3dd255f1	0.10270298
228	0x3e2584d9	0.16163959
229	0xbe130f87	-0.14361392
230	0x3dacf6c9	0.08445508
231	0xbbe85593	-0.0070902794
232	0x3cd12b64	0.025533386
233	0xbe10709e	-0.1410546
234	0xbe3b5139	-0.18292703
235	0xbe6c6971	-0.23087098
236	0xbdee6da5	-0.11642007
237	0x3de72922	0.11287142
238	0xbcb1e5c9	-0.021716015
239	0xbca47554	-0.020075478
240	0xbdd25976	-0.102709696
241	0x3d0620b6	0.03274604
242	0x3d751095	0.059830267
243	0xbde1cc73	-0.11025324
244	0xbd65b4cb	-0.05608062
245	0x3d51e803	0.051246654
246	0xbbbe8dc7	-0.005815241
247	0xbc3ae2cd	-0.011406613
248	0x3db5d81f	0.088791125
249	0x3ddb6999	0.107135005
250	0xbd2ac77a	-0.041694142
251	0x3e035f7a	0.1282939
252	0xbe3766fa	-0.17910376
253	0x3d8f8d1f	0.070093386
254	0xbc92dc2b	-0.01792725
255	0x3e0efc9d	0.13963552

lstm.weight_hh_l1 f4 [128, 32]
0	0xbdf0743f	-0.11740922
1	0xbd6faa58	-0.05851206
2	0x3dec440e	0.11536418
3	0xbe7c7e8d	-0.2465765
4	0x3cd3f05b	0.025871446
5	0x3e85b5cd	0.26115265
6	0xbcaecab8	-0.021336898
7	0x3d1ee54a	0.038792886
8	0xbd914664	-0.07093504
9	0xbd6b1ce0	-0.057400584
10	0xbe077ed4	-0.13231975
11	0xbd4a8bce	-0.049449734
12	0x3c6ee7be	0.014581619
13	0xbd27f159	-0.04100165
14	0x3d33539c	0.043780908
15	0xbdd0afcf	-0.10189783
16	0x3de98991	0.11403192
17	0xbdf1aae8	-0.11800176
18	0x3dd301f9	0.10303111
19	0x3dd5b75d	0.104353644
20	0xbd237115	-0.039902765
21	0xbcbee3e7	-0.023302032
22	0xbbad655a	-0.005291623
23	0x3e92c649	0.28666905
24	0xbe1e7a72	-0.15476397
25	0x3cdb229e	0.026749905
26	0x3e3c5daf	0.18395112
27	0xbe38fa94	-0.18064338
28	0xbe64caa0	-0.2234292
29	0xbd3b67ef	-0.045753416
30	0xbe0a22ea	-0.13489881
31	0x3d62c676	0.05536505
32	0x3cd2bd8c	0.025725149
33	0x3d998234	0.074955374
34	0xbd9fe48c	-0.07807264
35	0xbea789aa	-0.32722217
36	0xbe0146d0	-0.12624669
37	0x3ea0551b	0.3131493
38	0x3e0698d7	0.13144241
39	0x3de64b0e	0.11244784
40	0xbe2742f5	-0.16334136
41	0xbe1643af	-0.14674257
42	0x3cb56f6e	0.02214786
43	0x3e1979e8	0.1498791
44	0xbd93c8c4	-0.072160274
45	0x39faf912	0.00047869288
46	0xbc636a22	-0.0138802845
47	0x3dc361c3	0.09540131
48	0xbc8ae840	-0.016956449
49	0x3dddfc46	0.10839133
50	0x3e14ac92	0.14518955
51	0x3dc10547	0.09424835
52	0x3e3da0d8	0.18518388
53	0xbe24b458	-0.1608442
54	0x3de40515	0.11133782
55	0xbcd8ad0d	-0.026449705
56	0xbe190522	-0.14943364
57	0x3ea64a7e	0.32478708
58	0x3d9c3142	0.07626583
59	0xbcd61bcb	-0.0261363
60	0xbe527845	-0.20553692
61	0x3e0d148d	0.13777371
62	0x3df7f192	0.12106623
63	0x3dec85d5	0.11548964
64	0x3dc66789	0.096877165
65	0xbe1be398	-0.15223539
66	0x3d46c3cc	0.04852657
67	0xbeb1d562	-0.3473311
68	0xbd0f3c6d	-0.034969736
69	0x3ebd8825	0.37017933
70	0x3e1d4dd2	0.15361717
71	0xbe429066	-0.19000396
72	0x3ca82b66	0.020528506
73	0xbe0e31e3	-0.13886218
74	0x3de715bf	0.112834446
75	0x3e078642	0.13234809
76	0x3d31a44e	0.043369584
77	0x3e42eb30	0.1903503
78	0xbac6318b	-0.0015120966
79	0x3e58bdd5	0.21166165
80	0xbdbaf4a5	-0.091286935
81	0x3d10c0a1	0.035339955
82	0xbd42cec1	-0.047560457
83	0x3d47c03c	0.048767313
84	0x3cb7c7f7	0.022434218
85	0x3e6e3b64	0.23264843
86	0x3ded5a9c	0.11589548
87	0x3e814b77	0.25252888
88	0x3e06ad37	0.13152014
89	0x3e86ec3f	0.26352116
90	0xbdcbc6b4	-0.09950009
91	0x3dbe160e	0.0928155
92	0xbda2cad0	-0.0794884
93	0xbe4e241e	-0.20130965
94	0xbe1bf321	-0.15229465
95	0x3d0b7804	0.034050003
96	0xbd405ca7	-0.04696336
97	0xbdcc9956	-0.09990184
98	0x3d8bcc11	0.06826032
99	0xbdcccdff	-0.10000228
100	0xbdcffd89	-0.1015578
101	0x3e1a7543	0.15083794
102	0x3e2758ed	0.16342516
103	0x3e068624	0.13137108
104	0xbe56a303	-0.20960622
105	0xbe8dc203	-0.27687082
106	0x3d3aeb6d	0.045634676
107	0xbc784894	-0.015154023
108	0xbe83663f	-0.25663945
109	0x3e111928	0.14169753
110	0xbe6c0baa	-0.23051324
111	0xbe5c2b78	-0.21500957
112	0x3e5c4c76	0.21513543
113	0x3e624dda	0.2210001
114	0x3e0cb914	0.13742477
115	0x3c83ea18	0.016102836
116	0x3d587bc2	0.0528524
117	0x3e547bc0	0.20750332
118	0x3b2b6524	0.0026152814
119	0x3e8a3f79	0.2700155
120	0x3c68a1f5	0.01419877
121	0x3e9e0568	0.308635
122	0xbe2acc4f	-0.166795
123	0xbe6fd01a	-0.23419228
124	0x3d0ea606	0.0348263
125	0x3d38b932	0.04509849
126	0xbce5cee6	-0.028052758
127	0x3da642e9	0.08118231
128	0x3d2442d4	0.040102795
129	0xbe22dceb	-0.15904586
130	0x3e2789e5	0.16361196
131	0xbed7855f	-0.42093942
132	0xbb462d24	-0.0030239308
133	0x3e7590ee	0.23981068
134	0xbd404e36	-0.046949588
135	0x3ce1fdbc	0.02758681
136	0xbdda83ef	-0.106696956
137	0xbe7124e3	-0.23549227
138	0x3df5e064	0.1200569
139	0x3d9ea912	0.07747091
140	0xbe449d28	-0.19200575
141	0x3e2024a9	0.15638985
142	0xbcba78c5	-0.022762666
143	0xbde147ff	-0.1100006
144	0xbd6e0387	-0.058108833
145	0xbb91dd00	-0.004451394
146	0xbcea5509	-0.028605001
147	0x3cc78129	0.02435358
148	0x3d10b3c6	0.035327695
149	0x3d5d7f18	0.054076284
150	0x3dbe3114	0.09286705
151	0x3e563b6f	0.2092111
152	0xbceb0d78	-0.028692946
153	0x3d8c22f6	0.06842606
154	0xbcea1574	-0.028574683
155	0xbdf9bc0c	-0.1219407
156	0x3ceb2b85	0.028707275
157	0x3d440e29	0.047865067
158	0x3dbd073c	0.092298955
159	0xbe3fccb9	-0.18730439
160	0xbe182ed9	-0.14861621
161	0xbd8f96e4	-0.07011202
162	0x3dd4d287	0.103917174
163	0xbef121cc	-0.47096097
164	0xbebe71d8	-0.3719623
165	0x3ed3ac63	0.41342458
166	0x3e92579f	0.28582475
167	0x3d32be41	0.04363847
168	0xbe5c1e20	-0.21495867
169	0xbed35487	-0.41275427
170	0x3e997cc5	0.29978004
171	0xbe9c6a4e	-0.30549854
172	0xbce951d0	-0.028481394
173	0x3eaa3992	0.33247048
174	0xbe9c488f	-0.30524108
175	0xbdea2bd1	-0.114341386
176	0x3dc2e558	0.095164
177	0x3e3df41c	0.18550152
178	0xbdced007	-0.10098272
179	0x3bd40ebc	0.006471483
180	0xbd26de42	-0.040739305
181	0x3e81dc65	0.2536346
182	0x3efb6b82	0.4910546
183	0x3e6f773e	0.23385331
184	0xbeed1d13	-0.46311244
185	0x3dd02bd7	0.10164612
186	0xbdd46ad3	-0.103719376
187	0xbe5d4083	-0.2160664
188	0x3ebd0d20	0.36924076
189	0xbdf96d5a	-0.1217906
190	0x3e68a371	0.22718598
191	0xbe5d5dca	-0.21617809
192	0x3da09170	0.0784024
193	0x3dfbcbca	0.12294729
194	0xbe1c77c7	-0.15280066
195	0xbe5ebfd0	-0.21752858
196	0x3dd88d07	0.10573774
197	0xbc127c1b	-0.008940722
198	0xbda2b726	-0.07945089
199	0xbda9dfce	-0.082946405
200	0x3d82342b	0.063576065
201	0x3da7b12d	0.081880905
202	0x3d490d45	0.04908492
203	0x3d34b517	0.044118013
204	0xbd30052a	-0.042973675
205	0xbe0b4b56	-0.13602957
206	0x3e21a608	0.15785992
207	0xbe09f23b	-0.1347131
208	0x3e051905	0.12997825
209	0xbdbea96b	-0.09309658
210	0xbd2aa8e0	-0.041664958
211	0x3e44d56d	0.1922204
212	0xbbf28f88	-0.007402364
213	0x3c0e5134	0.0086863525
214	0xbda37224	-0.07980755
215	0x3de46703	0.111524604
216	0x3e1113bb	0.14167683
217	0x3e2b9bad	0.16758604
218	0xbba19414	-0.0049309824
219	0xbe101f7a	-0.14074507
220	0xbded4492	-0.115853444
221	0xbd83896d	-0.06422696
222	0xbd46c1e8	-0.048524767
223	0x3d8a2cf2	0.06746854
224	0x3d168993	0.036752295
225	0x3dd49248	0.103794634
226	0xbe109527	-0.14119397
227	0xbdac4f18	-0.084135234
228	0xbdcbbdfc	-0.09948346
229	0x3d452486	0.048130535
230	0xbde27215	-0.11056916
231	0xbcfce3d1	-0.03087035
232	0xbca3b44c	-0.019983433
233	0xbe2c46f4	-0.16823941
234	0x3d7a2090	0.06106621
235	0x3e5a0b6a	0.21293417
236	0xbdff680e	-0.12471019
237	0x3dcd5a52	0.10026993
238	0xbdd49fce	-0.10382043
239	0xbd5a78bc	-0.053337798
240	0x3c9c66ca	0.019091982
241	0x3dbb40ae	0.09143196
242	0xbd8d1490	-0.068886876
243	0x3da3635f	0.07977938
244	0x3a8777b0	0.0010335352
245	0x3e05f3b9	0.13081254
246	0x3db22277	0.0869798
247	0x3e02e2bf	0.1278181
248	0xbd80c2fc	-0.0628719
249	0x3cc7b823	0.024379795
250	0x3e52f184	0.20599943
251	0xbe1034ea	-0.14082685
252	0x3dba2626	0.090893075
253	0xbe1fa3b0	-0.15589786
254	0xbdb05f2b	-0.08611902
255	0x3e43ad9f	0.191092

lstm.bias_ih_l1 f4 [128]
0	0x3cb303f9	0.02185248
1	0x3d09dc5e	0.033657424
2	0x3e4a0220	0.19727373
3	0x3dd836f2	0.10557355
4	0xbd65e1d3	-0.056123566
5	0x3d922a2f	0.07136952
6	0x3d819681	0.063275345
7	0x3c704d63	0.014666888
8	0xbbe9e8f3	-0.0071383654
9	0x3e12ed9b	0.14348452
10	0x3e490d5c	0.19634002
11	0x3e5b1365	0.21394117
12	0xbd7c50e2	-0.061600573
13	0x3e1886f4	0.1489523
14	0x3d47e724	0.048804417
15	0x3bbf6e51	0.005842008
16	0xbdab7f8c	-0.08373937
17	0x3e52129e	0.20514914
18	0x3d73b189	0.059495483
19	0xbe39ced3	-0.18145303
20	0xbe071566	-0.13191757
21	0x3e2e568d	0.17025204
22	0x3e0750ef	0.13214467
23	0x3e28efb0	0.16497684
24	0x3e8c830c	0.2744373
25	0x3bdd7d66	0.0067593334
26	0x3d9a821c	0.07544348
27	0x3d82795d	0.063708045
28	0x3e0c0dae	0.13677093
29	0x3daa905d	0.08328316
30	0x3e221a63	0.15830378
31	0x3cdd6199	0.027024077
32	0xbe4c91ae	-0.19977447
33	0xbdaa6aea	-0.083211735
34	0xbe25587b	-0.16147034
35	0xbbe3ec98	-0.0069556944
36	0xbd8b2b3c	-0.06795356
37	0xbe84c6a3	-0.25932798
38	0x3e08d759	0.13363399
39	0xbdcd9a3f	-0.10039186
40	0xbe37915e	-0.17926547
41	0x3c43d420	0.01195243
42	0xbe0ada73	-0.13559894
43	0x3cb4eb76	0.022084933
44	0xbe0516a3	-0.12996916
45	0xbd1b7a52	-0.03795845
46	0xbb46b5e9	-0.003032083
47	0x3d324dd3	0.04353125
48	0x3e441d6e	0.19151852
49	0x3dcc1591	0.09965051
50	0xbe3e76ab	-0.18599956
51	0x3ce21c43	0.027601367
52	0xbe4b6342	-0.19862083
53	0xbdc9652a	-0.09833749
54	0xbdfd7b82	-0.12377073
55	0xbd7718e1	-0.06032646
56	0x3dc71047	0.097199015
57	0x3b80b9fc	0.003928421
58	0x3dc1f838	0.09471172
59	0xbd95e3ca	-0.07318838
60	0xbdd9c8fd	-0.106340386
61	0xbd99c117	-0.07507532
62	0xbe1c9eab	-0.15294902
63	0x3cd70676	0.026248198
64	0x3e2d3898	0.1691612
65	0xbddf5ea8	-0.10906726
66	0x3d557514	0.052113608
67	0x3d382412	0.044956274
68	0x3d9b49f4	0.07582465
69	0x3de27f62	0.110594526
70	0x3d8829ff	0.06648635
71	0xbd979170	-0.07400787
72	0x3d4ce6c8	0.050024778
73	0xbd5c40c6	-0.05377271
74	0xbdcae167	-0.09906273
75	0x3d23c592	0.03998334
76	0x3e2069b3	0.15665321
77	0x3df3193b	0.11870047
78	0x3e0163d3	0.12635736
79	0x3e28e304	0.1649285
80	0xbe626b9e	-0.22111365
81	0xbce93bb5	-0.028470853
82	0xbd770774	-0.060309842
83	0xbd872026	-0.06597929
84	0xbde86479	-0.11347289
85	0x3db7f440	0.08982134
86	0xbc0cc5b5	-0.008592059
87	0xbc6bd5cf	-0.014394238
88	0x3df19e3c	0.11797759
89	0xbc47a432	-0.012185143
90	0x3e10496c	0.14090508
91	0x3dd994e7	0.10624104
92	0xbddcef12	-0.107877865
93	0xbdb13ab4	-0.08653775
94	0xbe28e7b1	-0.16494633
95	0xbccf080c	-0.025272392
96	0x3e6c1b2b	0.23057239
97	0x3dc649a3	0.09682014
98	0xbd38f687	-0.04515698
99	0xbdc3a595	-0.09553067
100	0x3ccbb670	0.024867266
101	0xbd01794a	-0.03160981
102	0x3e31313b	0.17303936
103	0x3e1f6029	0.15564026
104	0x3deaa543	0.114573024
105	0x3b157858	0.0022807326
106	0x3c3de011	0.011589066
107	0x3e7491c5	0.23883732
108	0xbca81677	-0.020518525
109	0xbdee8cfa	-0.11647983
110	0xba259e35	-0.0006317825
111	0xbe2ee1e4	-0.17078358
112	0x3dcd3409	0.100196905
113	0x3bfe7844	0.0077658016
114	0x3df7bb6b	0.12096294
115	0xbe55fc7b	-0.20897095
116	0xbdc171c5	-0.09445528
117	0x3de647c6	0.112441584
118	0x3e5bf24a	0.21479145
119	0xbca2d029	-0.01987465
120	0x3e937231	0.2879806
121	0xbdac592a	-0.08415444
122	0x3dbe78b5	0.09300367
123	0x3e1cc719	0.15310325
124	0xbdc86221	-0.097843416
125	0xbe003950	-0.12521863
126	0xbe0c99fb	-0.13730614
127	0x3e3028c0	0.17203045

lstm.bias_hh_l1 f4 [128]
0	0xbdc3c581	-0.09559155
1	0x3daa4d56	0.08315532
2	0x3e481434	0.19538957
3	0x3cf55a6a	0.02995034
4	0xbe1117cd	-0.14169236
5	0x3d800086	0.062501
6	0xbdaadb08	-0.08342558
7	0xbdb1e258	-0.0868575
8	0x3d042d89	0.03226999
9	0xbe1bddf3	-0.15221386
10	0x3c987dc6	0.018614661
11	0x3e4b5838	0.19857872
12	0x3dd9ca94	0.10634342
13	0x3e27b530	0.16377711
14	0x3e3702c3	0.17872147
15	0x3e178d4d	0.14799996
16	0xbdf90e44	-0.12160924
17	0xbdabdfcf	-0.083922975
18	0x3e088e45	0.13335522
19	0xbe5e2e01	-0.21697237
20	0xbe574e93	-0.21026067
21	0x3dfaaa11	0.12239469
22	0x3df2ddb0	0.1185869
23	0xbd8fd306	-0.070226714
24	0x3d06646e	0.03281062
25	0xbd8e96ad	-0.06962333
26	0xbdc2b130	-0.09506452
27	0xbcd159a5	-0.025555441
28	0xbd6b0789	-0.057380233
29	0xb7ae8300	-2.0803418e-05
30	0x3e33f17b	0.17572586
31	0xbd9de20c	-0.07709131
32	0xbc8b2c50	-0.016988903
33	0x3bc59881	0.006030143
34	0xbe1450ec	-0.14483994
35	0xbcf37cae	-0.029722538
36	0xbdf03cde	-0.117303595
37	0xbd927c8d	-0.071526624
38	0xbe26bb31	-0.16282345
39	0x3dc31290	0.09525025
40	0x3cbb19c0	0.022839427
41	0xbd80544d	-0.06266079
42	0xbc719ba6	-0.014746582
43	0xbd81e5a5	-0.06342629
44	0xbdf5866d	-0.1198853
45	0x3c042f8c	0.008067977
46	0x3db865f3	0.0900382
47	0x3c820fdd	0.015876705
48	0x3d20e718	0.03928289
49	0x3cd5a9ea	0.026081998
50	0xbcac5260	-0.021035373
51	0xbde02613	-0.10944762
52	0xbe198bc8	-0.14994729
53	0xbd9793c1	-0.07401229
54	0x3da877e0	0.08225989
55	0x3dfc08d1	0.12306369
56	0x3ddf10f7	0.10891908
57	0xbc15eb7e	-0.009150384
58	0xbd6918b0	-0.05690831
59	0xbe10c498	-0.14137495
60	0x3de7c6f1	0.11317242
61	0xbdfc2a9b	-0.12312814
62	0x3d56fd55	0.05248769
63	0xbe106ced	-0.14104052
64	0xbd8f8860	-0.07008433
65	0x3e298261	0.16553642
66	0xbe1b91c0	-0.15192318
67	0xbdfd63ef	-0.123725764
68	0xbe1159fd	-0.14194484
69	0xbd595b09	-0.053065334
70	0xbdf6a117	-0.12042444
71	0xbb3a36b7	-0.002841396
72	0x3d8e5d54	0.06951395
73	0x3d2578ea	0.040398516
74	0x3c90a396	0.017656129
75	0xbd5b171a	-0.05348883
76	0x3d04ed22	0.03245271
77	0xbdedc764	-0.11610296
78	0x3dde504b	0.108551584
79	0xbd1c9bfc	-0.038234696
80	0xbd02e3d5	-0.03195556
81	0x3bfe19f1	0.0077545573
82	0x3e39fe01	0.18163301
83	0x3e0c05fb	0.13674156
84	0xbdd9927b	-0.10623642
85	0x3dfc6f85	0.12325958
86	0x3dcdcdcf	0.100490205
87	0x3e164b6f	0.14677213
88	0xbe2a376a	-0.16622701
89	0xbd3800c1	-0.044922594
90	0x3da6b845	0.081406154
91	0xbd2c806d	-0.042114664
92	0x3e0a52b4	0.13508111
93	0xbc8176e7	-0.015803767
94	0x3e19f1ad	0.15033598
95	0x3dd72726	0.10505514
96	0x3e4578a5	0.19284303
97	0x3dda11f3	0.10647955
98	0x3d660c6f	0.0561642
99	0xbbb63e33	-0.005561614
100	0xbcb2c368	-0.021821693
101	0xbdae7a2e	-0.08519398
102	0x3d97d320	0.07413316
103	0xbdc5cf89	-0.09658725
104	0x3df885dd	0.121349074
105	0x3df5f1e9	0.12009031
106	0x3d741a87	0.05959561
107	0x3e7e1b2f	0.24815057
108	0x3d8b57bd	0.06803844
109	0x3b7bcad6	0.003842046
110	0x3e06cc8c	0.13163966
111	0xbdd268c8	-0.10273892
112	0x3dc5bd9d	0.096553065
113	0xbdb29a5e	-0.087208495
114	0x3e645abf	0.22300242
115	0xbe7700f6	-0.2412146
116	0x3d1d6bcd	0.038432885
117	0x3e1a7d47	0.15086852
118	0x3e44bf59	0.19213618
119	0x3d9b3a0a	0.075794294
120	0x3e014e3d	0.12627502
121	0xbde9c530	-0.11414564
122	0xbd2163b5	-0.03940173
123	0xbd6c4bf6	-0.05768963
124	0x3e0e049e	0.13868949
125	0xbde468c6	-0.111527964
126	0x3d7d844b	0.061893743
127	0xbe1c0b1a	-0.1523861

fc.weight f4 [1, 32]
0	0xbe1c4c14	-0.15263397
1	0xbdf453d5	-0.11930052
2	0x3e3933d8	0.18086183
3	0xbe016eac	-0.12639874
4	0xbdabbe87	-0.083859496
5	0x3d72dc16	0.05929192
6	0x3e5ba8e5	0.21451147
7	0x3e54d3b5	0.20783885
8	0xbe2c00bd	-0.16797157
9	0xbdd98922	-0.10621859
10	0x3e9bb798	0.30413508
11	0xbeb983ad	-0.36233273
12	0xbe51f410	-0.20503259
13	0x3db205bd	0.08692501
14	0xbe4be513	-0.19911604
15	0xbe39f0b4	-0.18158227
16	0x3e118390	0.14210343
17	0x3de7e332	0.11322631
18	0xbe2737c3	-0.16329865
19	0xbc6e184f	-0.014532163
20	0x3c69558d	0.014241588
21	0x3e3323c2	0.1749411
22	0x3e75272e	0.23940727
23	0x3e44ff7e	0.19238088
24	0xbe97b3d0	-0.29629374
25	0x3c041ee9	0.00806401
26	0xbe1fab11	-0.155926
27	0xbe0ce044	-0.13757426
28	0x3e69b2ef	0.22822164
29	0xbe22cc6d	-0.15898295
30	0x3d97a2a9	0.07404072
31	0xbdb28970	-0.087176204
