backend/stocks/price/pt_models/ASTS.pt (torch, 54435 bytes, 9 tensors)

lstm.weight_ih_l0 f4 [128, 1]
00000000: 4e00 cebd 8031 8ebe 4696 b93c 5857 833e
00000010: 4945 afbd fe63 f5bd d135 a33c a15b 8dbe
00000020: 5b54 51bd eacb ae3e a336 4dbe 8128 323e
00000030: ee1d d13e b954 be3e 0a01 8cbe 4607 213e
00000040: 77c3 183f 4b0e 053d 93f9 2cbc c36d 00bd
00000050: 3cb2 97be ed8b 47be b2f5 ad3e 191f afbe
00000060: d5f0 ea3d bf42 173e cdd3 31bd 3295 403d
00000070: 6196 51be e200 a5bd 9b7b 993c 8632 7c3e
00000080: dbae f8bd 49fd 6a3d 4bea 08be 27a3 b63d
00000090: b70b 6ebe 570c f4bd c38a b33d a3ed 7a39
000000a0: e62e aebd 446e 7bbd e76b 02be 7513 c53d
000000b0: 4a03 763e b610 883d e59a 45be 4713 83bd
000000c0: 61fb 653f 9c8e a8bd c8bf e8bd 3bd9 c33d
000000d0: 286a 59bd b82f 94be 7ac3 753e 518a 0fbd
000000e0: e4f5 903e 7adb 343e 918c 7bbe 5e59 023e
000000f0: 7821 ec3d ee04 f13d cafc a73d 99a0 0a3e
00000100: 06e5 b23e be9e 81be bfe1 0ebe 3a13 53be
00000110: 4ced c3be 67e3 adbe 73e3 77be d4e7 8cbe
00000120: c060 62be 70cf 60be 5eab 603e 8c0e 2ebc
00000130: 3f64 b83e f018 833e eee3 acbe 97cc 27be
00000140: 9c42 dfbe 6733 a53e 536d 043e 9eb3 87be
00000150: 1e34 8cbe a87e 503e f062 6cbe c09c a0be
00000160: a974 633e dbc1 a8be bbac 9dbe 0f32 853e
00000170: 99e8 82be 49a7 263d 2d7c 1d3e 4bbb 70be
00000180: 19de f33d 4067 2ebd ce8e 8f3c 0059 0a3e
00000190: c10c abbe faad 82be 1317 403e a821 bfbd
000001a0: 0fbb c7bb af7f 823e aa01 9dbe 1c3b b33c
000001b0: 990f cc3e ee33 933e a7af 33be fa50 7f3e
000001c0: 5fd6 643f 609b 223d 2acc 1cbc d907 90bd
000001d0: c1fd 81be f13b b2be 5837 8d3e 5818 74be
000001e0: 3cea bb3e f46a f73e 4b70 2ebe 911c c93b
000001f0: f320 6dbe f720 3c3e 8c70 a73c 4e4a 913e
-0.10058652 -0.2777214 0.022654664 0.25652575 -0.08558137 -0.119819626 0.019923123 -0.2760897
-0.05110584 0.3413995 -0.20040374 0.17398264 0.40843147 0.37174013 -0.27344543 0.15725431
0.59673256 0.032484334 -0.01055755 -0.031354677 -0.2962817 -0.19486971 0.33976513 -0.34203413
0.11471716 0.14771555 -0.04341488 0.047017284 -0.20467521 -0.08056809 0.018735697 0.24628648
-0.12142726 0.057370458 -0.13370626 0.089178376 -0.23246656 -0.11916416 0.08766701 0.00023930384
-0.08505039 -0.061384454 -0.12736474 0.09622852 0.24024692 0.06643812 -0.19297369 -0.06400161
0.898367 -0.082303256 -0.11364704 0.09562918 -0.053079754 -0.28942657 0.2400035 -0.03504402
0.283126 0.17661849 -0.2456534 0.12729403 0.11529821 0.117685184 0.082025126 0.13537826
0.34940356 -0.25316423 -0.13953303 -0.20612803 -0.3826698 -0.33962557 -0.24207859 -0.2752062
-0.2210722 -0.21954131 0.21940371 -0.010623585 0.36013982 0.25604963 -0.33767647 -0.16386639
-0.43605506 0.3226578 0.12932329 -0.26504225 -0.27383512 0.20360816 -0.23084617 -0.3136959
0.22212471 -0.329604 -0.30795845 0.26014754 -0.25568083 0.04068688 0.153794 -0.23508947
0.11907596 -0.042578936 0.01752415 0.13510513 -0.33408168 -0.2552336 0.18758802 -0.09332591
-0.006095297 0.2548804 -0.30665332 0.021878771 0.3985565 0.28750557 -0.17547475 0.24933234
0.89389604 0.03969896 -0.009570161 -0.07032747 -0.2538891 -0.34811357 0.27581286 -0.23837411
0.36702144 0.48323786 -0.17035024 0.0061374386 -0.231571 0.1837195 0.020439409 0.28377002

lstm.weight_hh_l0 f4 [128, 32]
00000000: efae f8bd c3e4 54be 348a 8fbe 42b6 c4be
00000010: cc38 05bd 745a a4bc aa4e 643e 8794 e4bd
00000020: 627a f33d 3556 3bbf 294c ae3d b416 b1bd
00000030: 6ad5 e63e ed52 0b3f 320c 683d 0d11 9bbc
00000040: 65e3 31bf 4643 a03e 2c39 e9be a87d de3c
00000050: 9174 253e f961 5d3d fc56 95be a082 233b
00000060: 203b 933e 2581 acbe 928f a2be 14bf 1d3e
00000070: 3e81 8c3b 6de0 e43d 9a3d e2bd c564 3bbe
00000080: b20c d7bd 2ae8 3c3e 3a74 583d 5d2c b4bd
00000090: da35 1f3e bd07 b43d a2d7 c13c 3606 b0bd
000000a0: 47ee f43d 020b babd a233 133e 029f 2cbe
000000b0: 5919 263e f6e2 0d3e e445 50bc e889 22be
000000c0: c84f 98be b6a1 1abe fc0e 1ebd 4ad0 e93c
000000d0: 1755 03be f028 943d 4d3b 95be 2f5d 82bd
000000e0: 0645 b43d 4058 26be a45f 083d a2cc 6fbb
000000f0: edc5 fe3c 4760 123e 962a 773d 8c6e 7bbe
00000100: 0ef6 74bd 8dff 09be c877 a6bd 3fa8 683e
00000110: 4e2b 45bd c3e1 1cbc 2549 2b3e 6bfd 5ebd
00000120: 0f04 a4bb 9057 1a3e dffb 8f3d e04b 023e
00000130: 3404 97bd b59b ae3c 706e b8bc e976 573d
00000140: 127b c63b 7f2f ee3c c371 e33d 8bd3 983d
00000150: a47c 95bd e2da 5b3d 350d 893c c0d3 1f3d
00000160: d0e2 96bd 3309 833d ae19 21be 3d02 973d
00000170: e043 e6bd 5a20 95bd e9e9 32bc 478f c4bc
00000180: 01fd 13bd a7bb ebbc ce4f 5a3d 5380 46be
00000190: d703 f1bc af27 7abd 6add debd e041 093e
000001a0: 5681 d5bd a110 56be fa6e 5f3e 895f ea3a
000001b0: 4190 aa3c 0cbe 05be a942 5fbe d9bf 23bc
000001c0: f63c f63d 0ae1 8dbd 9203 943e 0765 26bd
000001d0: d979 e13d 1c33 c53c ddda 2abe ddc4 7dbd
000001e0: 0e05 a6bc 29f8 68be b5af 943d a418 0bbd
000001f0: e4a1 a9bd e8b5 5c3d 2207 d3bd 6c0a 2a3c
00000200: 3bba 9cbd acf0 92bd 35be 203e 7696 22be
00000210: f4f3 27bd 5e10 56bd 6276 e9bd 3a01 303e
00000220: 5d7d ad3d adc1 0bbe 1ec5 0ebd 5fc4 48be
00000230: 13f6 55bd a843 87bd 09c9 b63d de44 7d3d
00000240: d528 f33c 5a9a b4bd f61f 0e3d 8cdf 993d
00000250: 6bae 8cbd f45e b4bd 6b5d ee3d d3a6 c43d
00000260: 68a0 443e 7922 ee3d 91d6 ed3d dea5 bd3d
00000270: 0c9b ad3c 21c5 8b3d a761 603d c3bb 69be
00000280: 0f28 cfbd a4e6 2c3d 5b14 47bd 8835 27be
00000290: b0a9 acbd dba0 d23d 059d f7bc e4cb ff3d
000002a0: d0a4 1a3d 73bb 143e 65d0 f63c 64ec 0ebe
000002b0: f0af 34bc e62f 523e b18d 8dbd 7263 acbd
000002c0: 1b1c 913d 9dbf a13c fbe0 893c cebe f6ba
000002d0: 27f1 ef3d 9434 27be 120f e0bb 0c3a 14bd
000002e0: 8f46 313e 4f05 3d3e 2bb5 b9bd 2ec1 d5bd
000002f0: 4ff2 ff3d 90c3 42bd f97b 1fbe 3221 0fbd
00000300: c1d1 243e 4fe5 5c3d 48e4 48be 7610 73bd
00000310: b5dd 53bd dc6a 59be 58af d93d 03b2 a43d
00000320: 5602 ffbc 8b6c 69be 2680 19bd db49 083e
00000330: 9171 d3bd f126 46bd c25a c73d 6ddf 69bd
00000340: 7c48 b5bb 243d 2c3d 7153 db3d 7e29 9a3c
00000350: b917 18bd ffe0 e7bd 7804 953d a494 47be
00000360: 6af5 073e a72e 0dbe be2e 1abd 6310 d93d
00000370: a448 8dbc 85ee 033e 1018 d53d 4b1e 6dbd
00000380: 56c0 1cbe 2ec3 223e 79ff 03be ff72 5ebe
00000390: f217 8e3d 16e3 ddbd a71e 4fbe 65c3 18be
000003a0: 186d e1bd c9ea 1cbe 3e95 b9bd 7642 09be
000003b0: a855 0c3e 8b48 48bd e68d a93d 1b17 c0bd
000003c0: 0861 19be f094 20be 3f16 26be bc93 72bd
000003d0: 3829 eebd 5b5f b6bd 9911 52be 41cb f63d
000003e0: 535a 353d e37f 7ebd 2da1 fe3d d61c a0bb
000003f0: b6c9 033e 00ea 903d 1171 eabc 42b0 6ebe
-0.12142741 -0.2079039 -0.28035128 -0.38420302 -0.03252487 -0.020062663 0.22295633 -0.11161142
0.11888577 -0.73178416 0.0851062 -0.086469084 0.45084697 0.5442341 0.056652255 -0.018929029
-0.694876 0.31301326 -0.4555143 0.027159527 0.16157748 0.054048512 -0.29167926 0.0024949685
0.28756046 -0.3369228 -0.3175016 0.15404922 0.004287868 0.11175618 -0.11046906 -0.1830016
-0.10500468 0.18447939 0.052845217 -0.08797524 0.15547886 0.087905385 0.023662392 -0.08594935
0.1195951 -0.09084131 0.14375165 -0.16857532 0.16220607 0.1385611 -0.012711976 -0.1587292
-0.29748368 -0.1510075 -0.03858851 0.028541703 -0.12825428 0.07234371 -0.29146805 -0.063654296
0.08802228 -0.16244602 0.033294335 -0.0036590477 0.031100238 0.1429454 0.060343347 -0.24553889
-0.05980497 -0.13476391 -0.08128315 0.22720431 -0.048137 -0.00957531 0.16727121 -0.054440897
-0.0050053666 0.15072465 0.070304625 0.12724257 -0.073738486 0.021314481 -0.022513598 0.052603636
0.0060571516 0.029075382 0.11105683 0.074622236 -0.07299164 0.05367554 0.01672993 0.0390203
-0.0736748 0.06398239 -0.15732452 0.07373474 -0.11243415 -0.07281561 -0.010920026 -0.023994101
-0.036129955 -0.028776003 0.053298764 -0.1938489 -0.029420776 -0.061073 -0.10882075 0.13404036
-0.104250595 -0.20904781 0.21819678 0.0017881255 0.020820739 -0.13060778 -0.21802773 -0.0099944705
0.12023346 -0.069276884 0.28908974 -0.04062369 0.11009569 0.024072222 -0.16685052 -0.06195532
-0.020266082 -0.22750916 0.07260076 -0.033959046 -0.08282831 0.053884417 -0.10304095 0.010378461
-0.07652708 -0.07174811 0.15697558 -0.15877709 -0.041004136 -0.052261703 -0.11399533 0.17187968
0.08471177 -0.136481 -0.034855954 -0.1960616 -0.052236628 -0.06604701 0.08925063 0.061833255
0.029682556 -0.08818503 0.03469845 0.07513341 -0.06869205 -0.08807173 0.11638912 0.09602132
0.19201815 0.11627669 0.11613191 0.09260152 0.021192096 0.06824709 0.05478063 -0.22825532
-0.101150624 0.042212144 -0.048603397 -0.16329014 -0.08430803 0.10284587 -0.03022624 0.12490061
0.037754834 0.14524631 0.030128667 -0.13957363 -0.011028275 0.20526084 -0.06911791 -0.08417405
0.07085439 0.019744689 0.016830912 -0.0018825175 0.11715918 -0.1632865 -0.006837734 -0.03618817
0.17312072 0.18459056 -0.09067758 -0.10437237 0.124973886 -0.047549784 -0.15574636 -0.034943767
0.1609564 0.053929623 -0.19618332 -0.05934187 -0.05172511 -0.2123217 0.10629147 0.080417655
-0.031129044 -0.22795312 -0.037475727 0.13309424 -0.103243954 -0.04837698 0.097341076 -0.05709784
-0.0055323225 0.042050496 0.107092746 0.018818613 -0.037132 -0.113222115 0.07276243 -0.19490296
0.13277212 -0.13787328 -0.037642233 0.10598829 -0.017246552 0.12883957 0.1040498 -0.057890218
-0.15307745 0.15894768 -0.12890424 -0.21723555 0.06938161 -0.10834329 -0.20226537 -0.14918287
-0.11007136 -0.15323938 -0.09061669 -0.13404259 0.1370455 -0.048897307 0.08279018 -0.09379407
-0.1497842 -0.15681815 -0.16219424 -0.05922292 -0.116289556 -0.08904906 -0.20514525 0.12050486
0.044275593 -0.06213368 0.124330856 -0.00488625 0.12869915 0.07075882 -0.028618367 -0.23309425

lstm.bias_ih_l0 f4 [128]
00000000: 6a1c a83e dfc3 343e 5692 94bd 3507 1cbd
00000010: 980d 0cbe 8c0c 22bc 7615 24bb dac8 483e
00000020: 2696 54bd 756c 293e e857 1bbd 34ae bfbd
00000030: 0ae8 6a3e 02da 4e3e b1a5 93bd 9882 843c
00000040: 3870 8e3e 60c4 db3c e023 25be f84a e83d
00000050: 4371 e93c 6560 23be 91ad 843d 0fff e3bd
00000060: af1a eabd 8282 333e a5a5 5a3d cb37 35be
00000070: c452 73bd 0f68 8dbe 19db 94bd 84b9 223e
00000080: e0dd 15be 6ecf 993b 2537 923c 16cd a2bb
00000090: 91cd a1bd f869 b7bd 5be2 0ebe 2eba f43b
000000a0: 7c56 ff3d add6 1cbe 9bd4 693d d700 3ebe
000000b0: 9c15 01be 15f9 aabb 78b6 cd3d b033 5a3c
000000c0: 1311 fc3d 513c 0abd 4c9f 30be 9c36 3d3d
000000d0: 94e3 70bd 6fa5 933d deac ccbc 2ef1 f93b
000000e0: dfe0 94bd 52cf 903d cb5b 2d3e 38b7 e6bd
000000f0: f0a5 13be 5b95 46bd 8199 3ebe a569 623d
00000100: 0cac d03d 198e d23c 0daa 253d e426 cfbd
00000110: 39e9 e83d 5cdc a3bd 49c8 cebd 557e c9bd
00000120: 99c5 b9bd 5f08 97bd 340c 453d f81e f5ba
00000130: a4ce 283e 7738 0d3d b59c 163d a9cb 2bbc
00000140: 1858 b3bd 7886 e8bc 4254 a33c 324d e63c
00000150: 6f33 6a3d 00d3 30bd 2ad5 65bc 56fd fd3d
00000160: 953e c73b 56fb 1dbd 3ae6 91bd 7174 63bc
00000170: e6d1 f93d 08bd e83c ea7e 713d 498b 8abd
00000180: a6c5 fd3d 017d 00be 3661 75bd 4fbf cbbd
00000190: 4d23 ebbb 2158 88bd 0734 bfbc 9734 713e
000001a0: c558 233e 34b4 2c3c f7df d5bd 56b5 8b3d
000001b0: d8f5 683b 1b99 ff3c 1e29 a7bc 3372 c3bd
000001c0: e309 123f cea9 9ebc 18e0 1dbe dfa3 b33c
000001d0: cd15 5e3c e710 70bd f667 953c ec31 1b3e
000001e0: 202b b1bd f9b9 a63d 73e7 173e 3881 c6bd
000001f0: 0f67 e13d 2907 d0bd 769d 51bc 81bb 553e
0.32834178 0.17652844 -0.07254474 -0.03809281 -0.1367706 -0.009890687 -0.0025037206 0.19607869
-0.051901005 0.1654528 -0.03792563 -0.093593985 0.22940078 0.20200351 -0.072093375 0.016175553
0.2781999 0.026827037 -0.16126966 0.11342424 0.02849639 -0.1595474 0.06478418 -0.11132633
-0.11430871 0.17530254 0.053380627 -0.17697065 -0.059405103 -0.27618453 -0.07268352 0.15891081
-0.1463542 0.004693917 0.01784856 -0.004968296 -0.07900537 -0.08955759 -0.13953535 0.0074684834
0.124676675 -0.15316267 0.057087522 -0.18555008 -0.126059 -0.005217681 0.10044569 0.013317987
0.12307944 -0.03374893 -0.17248267 0.046194658 -0.058810785 0.07209288 -0.024984773 0.007627628
-0.07269453 0.07070793 0.16929547 -0.11265415 -0.14418769 -0.04848228 -0.18613245 0.05527653
0.10189065 0.025702523 0.040445376 -0.1011484 0.11372609 -0.080010146 -0.10096795 -0.09838549
-0.09070892 -0.073746435 0.04810734 -0.0018701246 0.16485077 0.034477677 0.03677054 -0.010485568
-0.08757037 -0.028384432 0.019937638 0.028112981 0.057177957 -0.043169975 -0.014027873 0.124018356
0.0060804584 -0.03856977 -0.0712399 -0.013882742 0.12198238 0.02841045 0.058958925 -0.06764848
0.12391214 -0.12547685 -0.05990716 -0.099485986 -0.007175839 -0.06657434 -0.023340238 0.23555218
0.15951832 0.010541011 -0.104431085 0.068216965 0.0035546925 0.031200936 -0.020405348 -0.09543266
0.57046336 -0.019368079 -0.15417516 0.021928726 0.013555002 -0.05860987 0.018238049 0.15155762
-0.086508036 0.0814094 0.14834385 -0.09692615 0.11005985 -0.10157616 -0.012793889 0.20872308

lstm.bias_hh_l0 f4 [128]
00000000: 97fc 383e 781a a43c 9312 bd3d 7be2 4b3d
00000010: feb7 2c3e 5e68 7ebd 90c0 17be 2a40 b0bc
00000020: 0780 4a3d 3f47 ecbd 3de8 d0bd 679e 2dbd
00000030: 1584 0f3e 7dca 69bd 0440 86bc c9c1 803d
00000040: fdec bb3e 7965 a3bd 4d1e 57ba cbd7 3dbd
00000050: 8bcd 13be 5c20 243e 7e3d af3d 1603 0fbd
00000060: 6edf 89ba fd5f a93e 8755 653e c21f 833d
00000070: 1a27 b3bd ad31 d63c c1fa 91bd 90d7 a3bc
00000080: cd56 52be ad6a 153d f43b 37be c72e 66bd
00000090: a4cc 3fbd ccf3 e33d 1d00 dbbd 6608 e33d
000000a0: ca31 59be 4b43 e2bc a442 1f3e 7be2 7abe
000000b0: 2c95 bebd f36b 163c 338f 93bd 1a13 bd3d
000000c0: 1322 f73d 89a5 ea3d 352a aa3b a09d 6c3d
000000d0: bcc7 1f3d 0877 bcbc 1092 8d3d 50a1 a63d
000000e0: e893 55bd d3d4 62bd cf47 163e 65d3 18be
000000f0: e627 dc3d fc36 053d 4b65 0abe 01c7 fbbd
00000100: b279 bcbd bd6f 28bd e65d 293c 0809 80bd
00000110: 281b 0d3d 450d f93d b51c 19bb e546 593d
00000120: 59f1 893d aca6 0a39 bfb7 93bd b9a9 6bbc
00000130: ee2a 193e c994 963d 7b84 c5bc 9058 fabd
00000140: 90ab 55be 31c5 ad3d 40bd c53c 1aa8 e4bc
00000150: afc4 b13d 3b93 85bd 97bc 0ebe 43f4 ac3c
00000160: ee8b 0e3e 1b84 a4bd 1a1b 023d dda2 d43d
00000170: 34b8 0abe 387f ea3c 8a5d 9a3c d765 a2bd
00000180: 646f b93d d601 c73d 4239 d13d 6acd 2f3e
00000190: 7c40 8a3b e97d eebd 15bb e6bd 0162 183e
000001a0: 70de 2b3c 68b5 943d fe7b 24be a21b 0abe
000001b0: 6d4a 2d3e 464b e23b 8139 9d3d 6542 26be
000001c0: 03fb bd3e b9e6 803e 74b3 903c a2c7 6b3e
000001d0: 12fd 603d 7eea d5bc cf80 c3bd d801 213e
000001e0: 389b 133e fef0 9f3e 6633 16bd 0aa6 34be
000001f0: 6b6f 6f3d 5185 32be 32b4 7dbe 9492 233d
0.18065105 0.020032153 0.092320584 0.049776535 0.16867062 -0.06211125 -0.1481955 -0.02151497
0.049438503 -0.115370266 -0.10200546 -0.042387392 0.14015229 -0.057077873 -0.016387947 0.062869616
0.36704245 -0.07978339 -0.0008206114 -0.046348374 -0.14433877 0.16027969 0.085566506 -0.034915052
-0.0010518858 0.33081046 0.22395907 0.06402542 -0.087476924 0.026146734 -0.07127906 -0.02000025
-0.20540924 0.036478687 -0.17893964 -0.056196954 -0.04682602 0.11130485 -0.10693381 0.11085586
-0.212104 -0.027619978 0.15552765 -0.24500458 -0.09305796 0.009181011 -0.072050475 0.09232159
0.12067046 0.114573546 0.0051930198 0.05776751 0.03900884 -0.023005977 0.06912625 0.08136237
-0.052143008 -0.055378746 0.1467583 -0.1492439 0.107497975 0.03252314 -0.13515203 -0.12293816
-0.09202899 -0.041122187 0.010337329 -0.062517226 0.034449726 0.12160734 -0.0023363058 0.053046126
0.067354865 0.00013222796 -0.07212781 -0.014383727 0.14957783 0.07352597 -0.024111023 -0.12223923
-0.20866227 0.08484877 0.024138093 -0.027912188 0.086800925 -0.065222226 -0.13939129 0.021112567
0.13920566 -0.080330096 0.031764127 0.10382626 -0.1354683 0.028625116 0.018843431 -0.07929581
0.09054449 0.09717147 0.10215999 0.17168203 0.004219113 -0.11645109 -0.11266152 0.14881136
0.010490045 0.07261163 -0.16062924 -0.13487104 0.16922922 0.006905946 0.076769836 -0.16236265
0.3710557 0.25176027 0.017663695 0.23025373 0.054928847 -0.026112791 -0.09546053 0.1572336
0.1441468 0.3123855 -0.03667011 -0.17641464 0.058455866 -0.17433669 -0.2477577 0.03993471

lstm.weight_ih_l1 f4 [128, 32]
00000000: 384e 75bd 13fb 60bd 4acb 343e 776e e1bc
00000010: 28cb 3b3e db47 693e c5b9 e0bd b34e 893e
00000020: 90fe dc3c 7928 b53d 7c07 8cbe 49d6 21be
00000030: 76bf 50be af65 1cbe 4ffa 0c3e 6f70 e7bd
00000040: 08c3 08bd 61ed 8cbe 10d0 2ebe 7e05 9d3d
00000050: d8bd a03d 3991 b93c 29d3 803e 9b3f 7b3d
00000060: 3f97 bdbd f08f 3a3a fcb0 f93c 9fad 893c
00000070: cbcc 0e3e f567 bf3d 8ab8 a3bd 2c81 aabc
00000080: 988e 6c3e 9898 b8bc f437 97bc 0a4e 373d
00000090: 0a3a 733c 37d9 9fbd 05fa 103e 0fb3 4cbe
000000a0: 71a6 523d 15c4 cabd 756e b23c 299a a33d
000000b0: 4de8 3abe 7518 dbbd 27e1 40be 8452 823e
000000c0: 54eb ad3d fc57 c93c 3f49 56be c62b 23be
000000d0: a957 d13b c586 2d3e 2036 16be cba9 54be
000000e0: 0348 e33d e6f1 3d3d f8c6 88bd e4d8 2cbe
000000f0: 3112 283d 2ba3 debd 6356 ef3d 6cf9 ab3c
00000100: ef3f 523e 9cec 0bbe 45be 81be 861e 8abd
00000110: 5c2a d4bd 69d8 6cbd 7990 573e 5435 5dbe
00000120: 24b4 043d 0602 eabd 33ea e9ba 1c1f 8ebd
00000130: fd11 27be 0750 073c 6737 70be 31c1 693e
00000140: 0a43 64bd 7f02 d33b f2d0 64be a661 54be
00000150: 9818 753d d3dd d43c 29ae 09be d29d 11bd
00000160: bf56 a43c ced7 aabe 387d fdbd dcf4 c13d
00000170: 20e8 783d 3b32 1abe 8752 45bc 05db 7dbd
00000180: 6cf6 273d ada8 423e 6780 6cbd f038 853e
00000190: 0e01 99bd 5154 a33d 4479 493d 6e91 843e
000001a0: aa14 583e bfa6 1fbe e45a 74be 670f 21be
000001b0: 91d4 83be 3168 83be bb83 383e 1339 2b3e
000001c0: 9d3f e73d cbe4 15bd a012 2bbd 4c0b b83d
000001d0: 8113 5d3e 2644 e7bc 9037 9b3d 7bcc 5b3e
000001e0: e4df d6bd ab98 f73d 28bd f5bc be57 e6bb
000001f0: 8090 663e c4e1 a5bd 7e68 493d 167d 7d3e
00000200: b747 ac3e 0522 7c3d d9d3 f43d 1c0d e6be
00000210: a7dc 093e b882 d1bd 998b 863c 1d38 6ebd
00000220: fea8 9bbd 2326 fbbe fd12 08be 9d5c a9be
00000230: a9bf b93e 5bde b93e bc5a 6abd 5b87 33be
00000240: d977 22bf d297 6e3e 8d7a e2bc 4577 0abe
00000250: a74d 403e cf66 d8bd 173d ffbe 3e44 c1bd
00000260: b56a 7a3e 4775 12bf 2896 92ba b3c0 acbd
00000270: 08c2 c1bc c40c 863c 5d88 8fbd fec1 07bf
00000280: 58b0 05be e153 4e3d 80a0 62bd bfa3 fe3d
00000290: ee4d 8ebc 8237 c83c dee8 15be 88db d9bd
000002a0: a15f c03d 8cb9 81bd 46c8 9fbd e2bc 95bc
000002b0: 472b 28be bc67 2ebe bba4 153e 85af 01be
000002c0: 9fd5 fbbc 1624 f83a ef88 efbd 0956 863d
000002d0: 8e0d 1e3d 4db2 d8bd 77c0 c73d f1c9 803d
000002e0: 8bf9 283c e66a 14bd ca5a 0e3d 5cfc a43d
000002f0: ed10 223b 3ad9 3e3d 32b6 2abe 2f84 16bc
00000300: 5735 453e f85e e4bd 6936 74bd c7aa 10be
00000310: b417 f1bc bb59 17be f98d 133e df05 fa3c
00000320: e633 2c3e 5bc9 b5bd b74e 033e 802c 45be
00000330: 21f4 ba3c b650 f1bd 36b9 6ebe 3ac1 0eba
00000340: 0295 1cbe 5b88 513e c95d 4bbe e1ff 873c
00000350: 89f4 fd3c 9c97 d1bc 87d9 39be 2aef 15be
00000360: ddda 463e f053 ee3d d248 a33c d3c2 283d
00000370: afda 58bb 3b57 9a3d 0df5 5abd d145 e7bd
00000380: f7df 803d d9fb 81be a442 f2bd 4909 aebe
00000390: bd50 013e 6f7e 2bbd 8604 c43d ac5b 57be
000003a0: 274a b7bd 8a0a 9cbc d539 4f3e 9c7f 95bd
000003b0: 24d0 9d3e 5c09 af3d c931 263d 920d 85be
000003c0: b1ea 96be 5635 92bc 7a24 303d 2880 153d
000003d0: 2f29 d9bd ec3c 163e d56a 4bbe 8583 b63a
000003e0: 2326 9d3e 9d3f d7be 4b66 66be 0fe7 343e
000003f0: 1ed0 4fbd 404c a7bd e6ca a7bc d1a4 1fbe
-0.05988905 -0.054926943 0.17655674 -0.027518494 0.18339217 0.22781317 -0.10972933 0.26817855
0.026976854 0.0884561 -0.2734946 -0.158044 -0.20385537 -0.15273164 0.1376736 -0.11300742
-0.03338912 -0.27524856 -0.17071557 0.07667063 0.0784871 0.022652255 0.25161102 0.061339956
-0.092573635 0.0007116785 0.0304799 0.016806422 0.1394531 0.09346 -0.079941824 -0.020813547
0.2310127 -0.0225337 -0.018459298 0.04475216 0.014845381 -0.07805102 0.14157875 -0.1999018
0.051428262 -0.09900681 0.021781186 0.07988388 -0.18252678 -0.10698024 -0.18835889 0.2545358
0.08492151 0.024578087 -0.20926379 -0.15934667 0.0063886237 0.16945942 -0.14669085 -0.20767896
0.110977195 0.04637327 -0.06678575 -0.16879612 0.041032974 -0.108709656 0.11686399 0.020992957
0.20532201 -0.13664478 -0.25340477 -0.06744103 -0.10359642 -0.057823572 0.21051206 -0.21602374
0.032398358 -0.11426167 -0.0017846286 -0.069395274 -0.16315456 0.008258826 -0.23458634 0.22827603
-0.055727996 0.0064395065 -0.22345331 -0.20740375 0.059837908 0.02598468 -0.13445343 -0.0355509
0.020060895 -0.3336777 -0.12377399 0.09470531 0.060768247 -0.15058224 -0.012043602 -0.06197645
0.04100649 0.19009657 -0.05773964 0.26020002 -0.07470904 0.079750665 0.049187914 0.25892204
0.21101633 -0.15590952 -0.23862797 -0.15728532 -0.25748113 -0.2566543 0.18019001 0.16720991
0.1129143 -0.036595147 -0.04176581 0.0898653 0.21589471 -0.028230738 0.07578957 0.21464722
-0.104919225 0.12089666 -0.029997423 -0.0070295027 0.2251606 -0.08099702 0.049171917 0.24754748
0.33648464 0.06155588 0.11954469 -0.44931877 0.13463078 -0.10230011 0.016423987 -0.058158983
-0.07600592 -0.49052534 -0.13288493 -0.3307847 0.36279038 0.36302456 -0.057215437 -0.17532103
-0.63464123 0.23300102 -0.027646327 -0.1352206 0.18779622 -0.10566484 -0.49851295 -0.09436844
0.24454768 -0.572102 -0.0011183666 -0.08435192 -0.023652092 0.016363509 -0.07008431 -0.53030384
-0.13055551 0.050372962 -0.055328846 0.12433576 -0.017371144 0.02444053 -0.14639613 -0.106375754
0.0939324 -0.063342184 -0.07801871 -0.018278543 -0.16422759 -0.17031759 0.14613621 -0.12664612
-0.03074151 0.0018931653 -0.1169604 0.06559379 0.038587146 -0.10580883 0.09753507 0.06288517
0.010313402 -0.03623476 0.034754552 0.08055946 0.0024729327 0.046593882 -0.16671064 -0.009186788
0.19258629 -0.11150926 -0.059622202 -0.14127646 -0.029430248 -0.14780323 0.14409627 0.030520378
0.16816673 -0.08876296 0.12822996 -0.19255257 0.022821488 -0.117829725 -0.2331284 -0.0005445663
-0.15291217 0.20462172 -0.19859995 0.016601505 0.031000393 -0.025584988 -0.18149386 -0.14642015
0.19419427 0.116371036 0.019932184 0.041201424 -0.003308933 0.07536169 -0.053456355 -0.11292613
0.06292718 -0.25387457 -0.11829117 -0.3399146 0.12628455 -0.041868623 0.09571175 -0.21031064
-0.0894969 -0.019047994 0.20236905 -0.0729973 0.3082286 0.08546707 0.040574823 -0.25986916
-0.2947593 -0.017847698 0.043003537 0.036499172 -0.10603558 0.14671677 -0.19864972 0.0013924694
0.30693159 -0.4204072 -0.22499959 0.17666267 -0.050735585 -0.081688404 -0.020482492 -0.15590216

lstm.weight_hh_l1 f4 [128, 32]
00000000: e7d4 353d 0058 ce3c a401 f53d 4f2b b7bd
00000010: 6301 30be 811c 43bc c964 0b3e 1d13 f7bd
00000020: 7831 27bd 796f d7bd 6fcb 14be 4254 19be
00000030: 04d5 f4bd cc1a 033c 18cc 213b 2ae6 1b3e
00000040: a8e1 8dbc 8cf2 86bc 1445 0ebd 5b9a 0c3e
00000050: 0a7d 763d 6d17 acbd 2ba4 06be 5c3b 6bbd
00000060: 561a fdbd f3e8 a93c 86d0 bd3d 1754 eabd
00000070: 1936 0c3e 2ff2 ec3d 13bc e7bd 67fa 8e3d
00000080: 43b9 01bc 6a1a 02be 5092 2f3e 701d 21bd
00000090: 0752 1dbd 1975 ddbc 04d0 08bd b083 6c3e
000000a0: ced0 973d 99d8 48be b0bd dfbb d4fc c33c
000000b0: 732c 433e 2976 2dbe fc8b 2d3e ad07 d03b
000000c0: 6449 12be 6bc5 12be 21ab 863d 7b3c 26bc
000000d0: f66c 5ebe de7c f03d 054a 38be e705 793e
000000e0: 255a ca3d f602 a9bd 0ccf 773d 7509 5dbe
000000f0: f9db 35be 769b 9abc 7cd3 b83d 9dc2 c23b
00000100: ed53 c93d 22b3 58be 8162 693e 5818 b5bc
00000110: 8fe1 033e 18c5 c73d b629 1ebd 03ba 90bc
00000120: c14a f7bb c568 e43d 50e5 e4bd e73c 3cbe
00000130: 2112 0a3e a741 65be 56c5 333e d456 61be
00000140: 8842 863d 5dca 34bd 5bff fd3d af38 c23d
00000150: 4bfc 66bd f847 1c3e c2fc 77be a242 fabd
00000160: 80e2 0d3e 86f2 16bb 1de9 c5bd 7cd2 67be
00000170: af07 18be eea6 ff3d 575a 1dbe a9a5 e9bc
00000180: 27cf 7a3d 237e a2bd 294c 11bd b190 06bc
00000190: 4c9f 903d f3e3 f6bd c5a0 0ebd 5ebb 57be
000001a0: f71f 083e 2705 083d 8b9c fc3d 0bda aabd
000001b0: 8902 133e f563 60bd cf8e af3d 605b cabd
000001c0: c84f c63d 6073 dd3d 5233 773d 3d48 173d
000001d0: 5459 243e 0734 373e 4125 97bc c3bf 833b
000001e0: a60a 0dbd aa84 533d 4b4d 0bbe f1ba d83d
000001f0: 98db 7d3d 36ef 4a3d 43fb 103e fde7 3dbe
00000200: b650 553d 09f5 d8be d852 c53d f19e 873d
00000210: 33e4 94be ee75 e8bc 9205 6ebe 11d3 e9bd
00000220: ab61 763e bcd3 d73e 6cea 893d 8f34 01be
00000230: 5d8d 083f 374c 8dbd 8907 6bbe 2cf8 9d39
00000240: 01bb cebc 9ad8 3d3e 105b 36be ec8c 1c3d
00000250: ab82 cabd 038d 0cbe 6ab3 d6be bcd5 96bd
00000260: 91e0 a03e 7d4b 44bd b8c2 8f3e bb51 a0bd
00000270: 66f6 02bf eb9f a03e e49a b6be e7e5 b53e
00000280: 7cab fbbd a873 d0bc 9cb9 8dbd 7540 23be
00000290: 53d8 50bd 7dc3 ea3d 7c00 07bd 6245 5cbe
000002a0: 5e32 26bd bbf4 d53d 3ac6 0d3d fc15 27be
000002b0: 5c34 d1bd 2845 9bbd 3782 65be 0276 e83c
000002c0: b06d 2fbd c2d7 91bc 7ec6 90bd 8220 e33d
000002d0: 13c7 6d3d 4ddd 293e 9edc 19be 8758 2a3e
000002e0: 9e3c 373e bfa9 25bd 2ab7 9a3e 150c 873d
000002f0: be8b 0e3e c5f4 873d 9297 913d e60a f23c
00000300: 7bde 193e 223c 48be bdee 3a3d 081b dcbd
00000310: 63f6 d73d d276 1fbd 9d01 32bd 8c47 0f3e
00000320: d5c5 e73d ed0a 9dbd c64d 1f3d 43c3 5fbe
00000330: e185 0d3d a706 003d eb0f 3bbd 131e b0bd
00000340: 1996 8d3d f449 eabd 3537 483e 330a e7bd
00000350: bb6e 04be a436 793c 1d3c 3fbe 14d6 103e
00000360: 1996 fd3d 5917 dabc 59c6 1bbe 83bd 1abe
00000370: c4da 09be 84d6 6e3c d69e 483d 7fb1 e1bd
00000380: bc2e 183c 4084 b5bd 0432 e33c 4784 b5bd
00000390: 3e7b 15be 44a2 623c 93e9 823d 89ce d7bc
000003a0: 9a91 e43d f8ea 343d b342 323e 69b3 143e
000003b0: 68a9 0ebc fe01 cfbd f925 d9bd a439 403d
000003c0: 4048 0ebe 779b d5bd c02c a23c 20b7 5d3d
000003d0: 3725 b23d ed6d 093d 461a 37be cbc3 1a3d
000003e0: 3236 803e 155f ce3d 2622 a63c 1340 60bd
000003f0: c5fb b8be c93d 6b3e bbe3 6bbe f580 5c3e
0.044392493 0.025188446 0.119632035 -0.08943807 -0.17188029 -0.011908651 0.13612665 -0.120641924
-0.04081866 -0.105193086 -0.14530729 -0.14973548 -0.11954692 0.008001994 0.00246883 0.1522452
-0.017319515 -0.016473077 -0.034733847 0.13730757 0.06017784 -0.084029056 -0.13148563 -0.057429656
-0.12358539 0.020740962 0.09268288 -0.1144182 0.13692512 0.1156963 -0.11315169 0.06981354
-0.007917705 -0.12705389 0.17145658 -0.039334714 -0.038408305 -0.027033376 -0.033401504 0.2309711
0.07412873 -0.19613875 -0.0068280324 0.023924269 0.19059925 -0.16939606 0.16947931 0.0063485713
-0.14285809 -0.14333121 0.06575609 -0.010146256 -0.21721253 0.117425665 -0.17996986 0.24318658
0.09880475 -0.08252518 0.06050019 -0.21585639 -0.17759694 -0.018872958 0.090247124 0.00594361
0.09830461 -0.21162084 0.22791483 -0.022106335 0.12879013 0.097543895 -0.038613997 -0.017666822
-0.007546753 0.11152796 -0.111765504 -0.18382607 0.13483478 -0.22388326 0.17555746 -0.22005779
0.065556586 -0.0441383 0.12402221 0.09483468 -0.05639295 0.15261829 -0.24217513 -0.122197405
0.13855934 -0.0023032739 -0.096636035 -0.22638887 -0.14846681 0.12483011 -0.15366493 -0.028521376
0.061232712 -0.07934215 -0.035473023 -0.008213208 0.070616335 -0.120551966 -0.03482129 -0.21067569
0.13293444 0.03320804 0.12334546 -0.0834237 0.14356436 -0.054782826 0.085721605 -0.0988071
0.09683186 0.10813022 0.060351677 0.036934126 0.16049701 0.1789094 -0.018450381 0.0040206625
-0.034433983 0.05164019 -0.13603704 0.10582531 0.061977 0.049544536 0.14158349 -0.18545528
0.052078925 -0.42374447 0.09634942 0.066221125 -0.29080352 -0.028376546 -0.23244312 -0.11417211
0.24060695 0.42153728 0.067341655 -0.12617706 0.53340703 -0.068993025 -0.22952093 0.00030130276
-0.025235655 0.18539658 -0.17808175 0.03822033 -0.09888204 -0.13725667 -0.41933757 -0.07364985
0.3142133 -0.047923554 0.28078246 -0.07828089 -0.51157224 0.31372008 -0.35665047 0.35526964
-0.122885674 -0.025445774 -0.06920168 -0.15942557 -0.050987553 0.11463068 -0.032959446 -0.21510842
-0.040575378 0.10447069 0.03461287 -0.1631698 -0.10215065 -0.0758155 -0.22412954 0.028376583
-0.042829216 -0.017803077 -0.070691094 0.11090185 0.05805118 0.16588326 -0.15025565 0.16635333
0.17894217 -0.040445086 0.30217868 0.06594101 0.13920495 0.06638483 0.07108988 0.029546212
0.15026276 -0.19554189 0.045637835 -0.10747343 0.105450414 -0.038931675 -0.04345857 0.13992137
0.1131703 -0.076680996 0.03889253 -0.2185183 0.034551505 0.031256344 -0.045669477 -0.08599486
0.069133945 -0.11439887 0.1955231 -0.11281242 -0.12932865 0.015210781 -0.18675275 0.14144164
0.123821445 -0.026622461 -0.15212382 -0.15111355 -0.13462359 0.014577512 0.048979603 -0.11020183
0.009288486 -0.08863115 0.02773381 -0.088631205 -0.14597794 0.013832632 0.06392207 -0.0263436
0.11160584 0.044169396 0.17408256 0.14521565 -0.008707382 -0.10107802 -0.10602946 0.04692997
-0.13894749 -0.10430043 0.01979673 0.05412972 0.086985044 0.0335521 -0.17881116 0.03778438
0.25041348 0.10076729 0.020279955 -0.054748606 -0.36129585 0.22972788 -0.23036091 0.21533568

lstm.bias_ih_l1 f4 [128]
00000000: db5c e6bd 8761 90bd 0315 59be ae16 8abd
00000010: 49d4 513e bee3 a93d 1e23 323d 954d 5b3e
00000020: fd66 08bd f7d4 763d b16f 33bc ea56 1ebc
00000030: e3f9 f23d b46e 543d e9ce 2f3e 5d96 bd3c
00000040: 0ae1 233e c9f1 ac3d 19fd e43d 1f9d 10bd
00000050: 94cd 923d 7297 08be 01ae 6c3d a2b6 39bb
00000060: d311 eb3d 077c 0a3e dbee 883e 7a99 953e
00000070: 34c6 193d 40f7 e03d 284c 703d fc32 a13e
00000080: 8671 c3bc 8eb3 bebd 4dd8 c1bc fc90 26bd
00000090: a9b4 86be 11f7 11bd 2cc4 1dbb 7e61 89bc
000000a0: ea78 57bd 037f 3bbe 2139 1e3e cc44 583d
000000b0: ceef 53bd 1867 233d adbd 2abd e0f0 083e
000000c0: ff25 0abe 77aa edbd 3196 36be 096d c3bd
000000d0: fa4e 2b3e 0266 01be 7881 83bd df07 6c3d
000000e0: b4c4 3dbe 0892 083e e6e0 35be 2fa3 ab3d
000000f0: c963 adbd 49e1 14be fd38 4a3d b549 4dbd
00000100: 2437 eebd 7da6 83bc d71c bc3c 80b4 9cbd
00000110: f0dd bfbd 2ace 233e 3005 c63d d447 72bc
00000120: e1b6 d23c e694 f73d 2624 00be b360 08bb
00000130: 37e2 acbd dc59 2b3d 5146 92bd 1672 3b3e
00000140: 8124 c6bd 76cf 143d cec6 96bd fbe9 253e
00000150: 8ca8 6fbc 2e2a d539 e924 b4bd ef27 973b
00000160: be7c 6c3d f0e2 61bd c9fd 1f3e 3823 1a3e
00000170: 940e 91bd d35c c93d 3638 d7bd e471 223d
00000180: 0fa8 55bd fc47 2fbc 46eb fc3d 7532 9f3d
00000190: 2863 2a3d 706e 4dbd 6e9f 07bd fdc1 543e
000001a0: 7e83 8c3e b1cf 333e 2375 23bd c9b9 05bd
000001b0: 236c 63bd b89f 1f3c 4751 4c3e 0a82 293c
000001c0: 3f72 44bd ee77 b7bd e092 53bb f62c f43d
000001d0: 02fc 653e 20f8 45bd f03c c5bd 8349 87bc
000001e0: 02a2 a43b fcea 89bd ac52 6e3d e10b a4b9
000001f0: 8638 1fbe d0e6 ae3c c8d4 1d3e 96d9 363e
-0.112481795 -0.07049852 -0.21199422 -0.06742607 0.20491137 0.082953915 0.04349052 0.21416314
-0.033301342 0.060261693 -0.010951922 -0.009664277 0.11864068 0.051863387 0.17168774 0.023142988
0.16003814 0.08444554 0.11181087 -0.035306092 0.07168117 -0.13339022 0.05778313 -0.0028337617
0.11478009 0.13523875 0.26744732 0.29218656 0.037542537 0.10984659 0.05866638 0.3148421
-0.023857843 -0.09311591 -0.02366271 -0.04066561 -0.26309708 -0.03563601 -0.0024073226 -0.01677012
-0.052605547 -0.1831017 0.1545148 0.052799985 -0.051742367 0.03989324 -0.041684795 0.13373137
-0.13491057 -0.11604779 -0.17830731 -0.09542281 0.16729346 -0.12636569 -0.064211786 0.057624694
-0.18532068 0.13336957 -0.17761573 0.08380734 -0.08466298 -0.14539064 0.049370755 -0.05011912
-0.11631611 -0.016070599 0.02296297 -0.07651615 -0.09368503 0.15996614 0.09668958 -0.014787633
0.02572197 0.12088947 -0.1251379 -0.002080959 -0.084415846 0.041833743 -0.07142318 0.18305239
-0.09674931 0.036330663 -0.07362138 0.16202538 -0.014627587 0.00040657952 -0.087961026 0.0046129148
0.05773615 -0.055148065 0.15624155 0.15052497 -0.07082859 0.09832158 -0.10508768 0.039659396
-0.052162226 -0.010698315 0.12349562 0.07773296 0.04159847 -0.05015415 -0.03311103 0.20777126
0.2744407 0.17559697 -0.039906632 -0.03264788 -0.05552305 0.00974267 0.1995288 0.010345945
-0.047960516 -0.08958422 -0.003228359 0.11922638 0.22459415 -0.048332334 -0.096307635 -0.016514545
0.0050241956 -0.06734273 0.05818431 -0.00031289368 -0.15548906 0.021350294 0.15413201 0.1785644

lstm.bias_hh_l1 f4 [128]
00000000: 2eac 473e af92 c9bd 0b6b 02be 32d4 2f3d
00000010: b448 7a3d 306d 0f3d d6c6 11be afbc 63bd
00000020: b09a f03d 7779 253e e7ae 533e e3ef 16be
00000030: c391 153b 8f0b 543e ac38 7e3e fafd 043d
00000040: 26bb 923c cf3e cbbd d9bb e2bd 9144 5c3d
00000050: 3a07 463e 48a2 1abe 4039 5f3e 4360 673c
00000060: 113b 543d 5f0c ee3d fd55 593e b476 1e3e
00000070: 8220 15be fd49 693e 1f9d 2c3e e7c5 703e
00000080: 167b 04be 5ec4 93be 0d30 c3bd 7b1c 25be
00000090: 8564 0cbd 7917 073d 9a7e 58bd f8f8 d3bd
000000a0: a29a 8abd 84ae a6bd b66a d7bd 1746 05be
000000b0: 1b21 babd 1a80 403d 4b4b b13d 6d20 f8bd
000000c0: 82be d33c 5305 a3bd 1cd4 e0bd 9424 ed3d
000000d0: 9a6f 34bb ec8e f3bd 7080 7c3c 03c6 c23d
000000e0: a41a 5abb b614 183e 748d ddbd 9fbd 2abe
000000f0: 5614 b53d a1ed f43d a8f3 03be 12fc 4abe
00000100: 8ead cdbd c657 953b f91d 013c 594d 41be
00000110: cdb2 74bd 099d a2bd fe4d 3a3d 0cc0 08be
00000120: ba71 683d a750 5c3d 48e4 a33c be27 3d3e
00000130: bf0a 703d d8a2 123d 9e4c 57bd e228 1b3e
00000140: afea c63d 3b8a 0f3e 7d7e e03c 045d e1bd
00000150: 10bf 2b3e 77c1 21bd d316 283c 7902 48be
00000160: 1fa0 7bbd 8539 8ebd 500f d83b 2212 11bc
00000170: a239 a73d 0ebf a6bd f184 133d 4ad7 d93d
00000180: b1e4 9e3c 808b 70be 23c7 e03d 50a4 363e
00000190: 6a59 543e 018a a0bc 536c 813d d1e8 a1bb
000001a0: 943b 5bbd bd4a 8c3d cd72 b1bd eb9d 403d
000001b0: 69a4 883d e6a7 0dbd 02a3 c03e ae70 2e3e
000001c0: 3a05 81bd 2e35 d6bd 4770 64bd b666 543e
000001d0: cbe1 173e 30ea c43d 767c b4bd addd cbbd
000001e0: f0ee e63d 54f8 cfbd 3c12 853d 099d a73d
000001f0: 14e9 df3d 215e 5d3e 02a9 e0bd 9b59 843e
0.19499275 -0.09842431 -0.12736146 0.042926975 0.06110449 0.03501624 -0.14236006 -0.055599865
0.11748254 0.16159616 0.20672189 -0.14739947 0.0022822476 0.20707534 0.24826306 0.032468773
0.017911505 -0.09924089 -0.11070985 0.053776328 0.19338694 -0.15100968 0.21799183 0.014122072
0.051814143 0.11623453 0.21224208 0.15474969 -0.14563182 0.2278213 0.16856812 0.23512994
-0.12937579 -0.28860754 -0.09530649 -0.16124146 -0.03427555 0.03298137 -0.05285511 -0.103502214
-0.06767775 -0.08138755 -0.105184 -0.13015018 -0.090883456 0.046997167 0.08656939 -0.1211556
0.025847677 -0.0796 -0.10977957 0.11579242 -0.002753234 -0.118924946 0.015411481 0.09510424
-0.003328004 0.1485165 -0.10817996 -0.16673897 0.088417694 0.119593866 -0.12885916 -0.1982272
-0.100428686 0.0045575825 0.007880681 -0.18877162 -0.05974083 -0.07940108 0.045484535 -0.1335451
0.056749083 0.053787854 0.020006314 0.18472192 0.058604 0.03579983 -0.052563302 0.15152314
0.09712731 0.14017574 0.027404064 -0.110040694 0.16772103 -0.039491143 0.010259348 -0.19532193
-0.061432 -0.06944565 0.0065936223 -0.008854421 0.081652895 -0.081419095 0.036015455 0.10636766
0.019396158 -0.23490715 0.10975482 0.17836118 0.20737234 -0.019597055 0.06319489 -0.004941084
-0.053523615 0.06850193 -0.08664475 0.047025602 0.06671984 -0.03458395 0.37624365 0.17035171
-0.06299825 -0.10459362 -0.05577114 0.20742306 0.14832227 0.0961498 -0.088128015 -0.09954391
0.112760425 -0.10154787 0.064976186 0.08184249 0.10933128 0.21617939 -0.10969736 0.25849614

fc.weight f4 [1, 32]
00000000: 6f07 313e cb67 03bd 9241 b6bd 5f71 163e
00000010: 68a5 1bbe d0fc c0bd 77be 283d 692a 82be
00000020: 4f17 843e 98cc 0c3e d3b7 da3d 7119 cebd
00000030: 9984 df3d 7236 c33d cb89 88be ee85 77be
00000040: c844 a13d 04ba c8bd 1053 c9bc 9ac4 5bbe
00000050: ac41 2abe 2c25 0c3e df21 32be af63 b23d
00000060: 17ab 803d f25c bc3d bb03 8d3e d4dd 0ebe
00000070: eb47 163b 374b 0f3e ec0b 303e bf9a 7f3e
0.17287992 -0.032081407 -0.08899225 0.14691685 -0.15199816 -0.0942322 0.041197266 -0.2542298
0.25799033 0.13749921 0.10679593 -0.10063446 0.10913963 0.09531869 -0.26667628 -0.24172184
0.07874447 -0.09801105 -0.02457574 -0.21461716 -0.16626614 0.13686055 -0.17395733 0.087104194
0.06282633 0.091974154 0.2754191 -0.13951808 0.002293105 0.13993536 0.17192048 0.24961375
