backend/stocks/price/pt_models/ATIP.pt (torch, 54435 bytes, 9 tensors)

lstm.weight_ih_l0 f4 [128, 1]
00000000: e473 67be cbec 38be ef32 eabb cfc4 013d
00000010: 4d60 133c 8880 5ebd 7e4c dfbd 2b9d a9bd
00000020: 925f 333e 03b1 363e 7a53 9dbe 4dac 09be
00000030: caf8 b93d 4281 89bc dc66 a43e 5035 ab3d
00000040: 0d65 1dbd 8003 edbd 7b10 2b3d ae9b 7ebe
00000050: 0552 d03d b7c6 f33d c71d 0a3e 281a 843d
00000060: 4e1a abbd ccbf ebbc c912 19be d37f 26bd
00000070: 3ec4 34bd c2a3 1abe 4b17 59bd cf45 9b3e
00000080: 1dd8 01be 81e7 5d3c 4ef4 07be e7d9 803e
00000090: 9840 e1bd a4f8 933d 36fd 58bd 5b9b 0bbe
000000a0: f7c9 ff3d c13d 98bd 068e c1bd 5675 5fbe
000000b0: a88f 80bd 4e86 18bd 2c12 a73e ddd1 873d
000000c0: efed 85be 2013 b3bd 9e7d e6bd 7ffe de39
000000d0: 5566 a9bd d15d 243e 44fa a43d dee1 e83d
000000e0: 45ef e8bd 3000 f73d 1880 34be 6a3d cb3d
000000f0: 18f6 8bbb 3724 543d 8b33 93bd b94a 8c3d
00000100: cc5c 733e e331 0dbe 3ab0 433e 6413 96be
00000110: f785 27bd bf67 92be 0c1b 25be 80f2 91be
00000120: 7389 9fbe f4db 0a3d 226d 9a3e e9fc 9b3e
00000130: 1ef9 8e3e de00 47be 31e2 683e b9e4 9ebe
00000140: fedc 633e 2f47 87be 6a61 853c 87f5 883e
00000150: be28 913e 33a8 40be 40a6 56be e17c 42be
00000160: b2b2 983e 65d4 7bbe 26c1 0b3e 3549 013d
00000170: b09f eabd 2967 523e 81a6 75be aa1b a0be
00000180: 2529 97be f51f 12bc 4225 6dbb 756b 6d3e
00000190: d9ac 9dbc d863 533e 04ee b63d e714 0fbe
000001a0: 2211 d73d 1d7e e53d 63c2 4cbe 6df6 173d
000001b0: f21b aebd 21d0 54be 38f5 9e3e dec5 ec3d
000001c0: c393 b2bb 9e1f 87be 7f1a 8bbc accb 0dbe
000001d0: 89dc 663e bba5 d1bd eb01 dd3d 830b 143e
000001e0: 07dc 35be 5dfb fb3d c98b f3bd cb36 023e
000001f0: f76e acbd c2ad 32be 6e4d 31be 2749 5f3e
-0.22602803 -0.1805908 -0.007147185 0.031681832 0.008995128 -0.054321796 -0.109032616 -0.082819305
0.17516926 0.17840962 -0.3072775 -0.13444634 0.09080656 -0.016785268 0.32109725 0.08359778
-0.038426448 -0.11572933 0.041763764 -0.24864075 0.10171894 0.11903136 0.13487922 0.064503014
-0.083546266 -0.02877798 -0.14948572 -0.040649246 -0.044132464 -0.15101531 -0.05300073 0.30326697
-0.12680097 0.013543964 -0.13276789 0.25166246 -0.109986484 0.07225159 -0.052975856 -0.13633482
0.124896936 -0.074336536 -0.09450917 -0.21822104 -0.062774 -0.037237458 0.32631052 0.06631825
-0.2615809 -0.08743882 -0.11254428 0.00042532754 -0.082714714 0.16051413 0.08055547 0.11371206
-0.11373762 0.12060583 -0.17626989 0.09923823 -0.00427128 0.05179235 -0.071875654 0.0685019
0.23765868 -0.13788562 0.19110194 -0.2931167 -0.040899243 -0.28594777 -0.16123599 -0.28505325
-0.31159553 0.03390117 0.30161387 0.30466393 0.27924436 -0.19433925 0.22742535 -0.31033877
0.2225227 -0.26421496 0.016281802 0.26749822 0.28351396 -0.18814163 -0.20961857 -0.1899295
0.29823834 -0.24592741 0.13647899 0.031563956 -0.11456239 0.20547165 -0.23989297 -0.31271106
-0.29523578 -0.008918752 -0.0036185537 0.23185523 -0.01924746 0.20643556 0.08932117 -0.13972817
0.10501315 0.11205695 -0.19996028 0.037100244 -0.08501424 -0.2078252 0.31046462 0.11561178
-0.0054497435 -0.2639131 -0.016980408 -0.13847226 0.22545065 -0.10236689 0.107913814 0.14457516
-0.17759715 0.12303803 -0.11891896 0.12716214 -0.08419602 -0.17449096 -0.17314693 0.21805249

lstm.weight_hh_l0 f4 [128, 32]
00000000: 6d86 d03d 8199 e43d d276 1c3d ff77 e03c
00000010: 0d94 fcbd d434 ff3d 5cca b93d ca0a b33c
00000020: b59c 903d 318f 0b3e 3295 e23d 95c3 1dbd
00000030: 20df 583d 0901 143e c811 7a3d 1ad0 56bb
00000040: 35a7 173e 20b3 113d a160 2cbe 2490 163d
00000050: 415d df3d 840f f5bd 2310 20be b978 1a3e
00000060: ba95 c13b 334f 77bc e847 17bd 5445 b5bd
00000070: 6d7f c83d d3fa d03c dd73 253e 0c7e 9e3d
00000080: bbc7 49bc 7ffd 46be c1fd 8b3c ec55 063e
00000090: e3c8 2abd 4ce5 a73d 965b 293e 6ced e53d
000000a0: 1b53 04bd 62dc a73b dccd 583d d86e 81bd
000000b0: 5dcf 30be 61a4 693d 0ab7 01be ebc0 a9bd
000000c0: c25a 9a3d f21e 92bd 6f73 bb3b 623a 833d
000000d0: 45d5 cc3d e1bf 40bd fcff 373c 4c4d 543e
000000e0: 8cdb 0d3d 2f93 f2bd 3994 b8bc 04e7 88bc
000000f0: 254d 4a3e 0051 73bd 7149 ba3d 78db 2d3e
00000100: 9113 90bd bfab 86bc b823 053d 1f7a 033e
00000110: e836 103d de81 9fbc 5901 79bd 0688 a2bd
00000120: 7a6d a63d ad0f c13d bb1e 7fbd 9938 ca3d
00000130: 567f 533d fe79 9fbd 6b9a 99bd 4bf0 8d3c
00000140: e3bc 083e 6664 01be 5eba a33d 296a 2fbc
00000150: 761a 143e b7d0 c13d 4c79 71be 0813 a0bd
00000160: d3c0 d63d 5698 8d3d befd bfbb 78bc 25be
00000170: 51ee 9e3b a48a 063e bed0 26be 9035 b3bc
00000180: 27f0 e7bc 2add 013d de0e 94bd cca5 67bd
00000190: af75 e53d 0ca6 4e3d 0973 9ebd a657 11be
000001a0: 1c05 79be 516c d13b 8466 f33d b400 3e3e
000001b0: e2fe 823e 29f6 403e 68cd f83c 2340 58be
000001c0: 8bcb fabd a3ab 8f3d 82be 35be 403e b5bd
000001d0: c843 3c3e b3dd e0bd 8db5 f33d b9f9 8fbd
000001e0: 8073 d4bd ff40 fb3c a18a 6abc 0c2e 34be
000001f0: f796 ff3d 097f 863d c7cf 21be 2796 263d
00000200: 88fa fe3d 20f5 26be d47b 363e 391f ed3c
00000210: bb2c e7bd f79d d13d a2ef 233e 1bfb 4c3d
00000220: 5805 273e f7c0 7cbe 8d0d afbd 55a1 a23c
00000230: d641 b3bd 41ba dabd a8cc 8b3d 7025 833e
00000240: 4b4c 1dbe 4053 bbbd 797a 593e 5151 37be
00000250: 2413 7abd 4a8e 10be fce7 833e c553 2c3d
00000260: a80c 683d 7738 b3bd 20ff 8ebd 6405 5f3e
00000270: ab81 27bc 090b 44be 6b7c ab3b 570b d13d
00000280: 5ce8 07be 8742 973d 3222 d23d 3c80 03be
00000290: cfd8 163d 9631 2d3e fbd4 813d f7cc aabd
000002a0: fcb5 3d3d cb4a 05be 8ccd 70bd e521 293d
000002b0: deee 073d 88c6 b43d a3ac 0dbe 2ac0 3a3e
000002c0: 4966 7fbd 1276 60bd b92d c83b a9eb 06be
000002d0: ccc5 dc3c 895a 01be df76 063e 3325 2c3e
000002e0: eae3 383c bb0c d13d 4ec0 733c d477 d5bd
000002f0: db55 2abe 2c34 903d 7b84 b33d 8648 d93d
00000300: 67c9 fa3c 21b5 0f3d c119 193e 4bc7 88bd
00000310: 429a f1bc 2d8e f33d 3f3a d3bd d854 0abd
00000320: 8e88 1d3e 860a 4cbe 6d6f 45be 777f 35be
00000330: fabe 683c 662c 103e 6511 e73c dc8b d4bd
00000340: d8dc febd 1961 ca3d 4adf 73bb 45ee cf3d
00000350: ba95 073e 5261 ffbd 1cad 9d3d 0dfc 0a3e
00000360: 266d d03d a208 083e eb70 3e3d 8565 1e3e
00000370: b0fc 023e 2a6c babd 753a 313e fc92 1b3e
00000380: cda4 cabc 2d5b 053e 2ec4 bfbd df65 a23d
00000390: 6289 dcbd 95af c03d e92c 22be 7199 343e
000003a0: f8e5 d03d 7661 dc3d d85e d73d 5abe 833d
000003b0: dc40 76ba 26f6 dfbd d970 373e c69f 81bc
000003c0: 59fb 6fbd ee9f c63d f129 cbbd c780 5a3c
000003d0: 9a72 b9bd abbf a3bd b37d 02be 3776 cb3d
000003e0: e3dd d23c 5b4d 543d f473 81bb ecea 983d
000003f0: 313d 5f3d d9c7 183c 61c5 393c 3c33 973d
0.1018189 0.11162091 0.038199253 0.027400969 -0.12332926 0.12461248 0.090718 0.02185573
0.070611395 0.13628842 0.11063613 -0.0385166 0.052947164 0.1445352 0.061052114 -0.0032777847
0.14809878 0.035571218 -0.16833736 0.036758557 0.10906459 -0.1196585 -0.15631156 0.15085115
0.0059077414 -0.015094566 -0.03693381 -0.08851114 0.097899295 0.025510227 0.1615748 0.07738885
-0.012315686 -0.19432639 0.017088773 0.13118714 -0.041695487 0.08198032 0.16538844 0.11226925
-0.032305818 0.005122707 0.052930698 -0.0631997 -0.17266603 0.05704153 -0.1266748 -0.08288749
0.07536842 -0.071348086 0.005720548 0.0640762 0.100016154 -0.04705799 0.011230465 0.20732611
0.034633204 -0.11844479 -0.022531616 -0.01671172 0.19755991 -0.05940342 0.09096039 0.16978252
-0.07034982 -0.016439317 0.032504767 0.12839554 0.035208613 -0.019471105 -0.0607923 -0.07936101
0.0812635 0.09426818 -0.062285166 0.098740764 0.05163511 -0.0778694 -0.07500156 0.017326495
0.13353305 -0.12635955 0.07994531 -0.010706463 0.14463219 0.09463637 -0.23581427 -0.0781613
0.10485997 0.069138214 -0.005859106 -0.16185176 0.004850187 0.13138825 -0.16290566 -0.021876127
-0.028312756 0.03170506 -0.07229398 -0.0565546 0.11204087 0.050451323 -0.07736785 -0.14193591
-0.24318355 0.006391086 0.11884788 0.18554956 0.25585085 0.18843903 0.030371383 -0.21118216
-0.12245854 0.07015159 -0.17748454 -0.08849764 0.18385231 -0.10979786 0.118998624 -0.07030053
-0.103735924 0.030670641 -0.014315278 -0.1759569 0.12479966 0.06567199 -0.15801917 0.04067054
0.12450129 -0.16304445 0.17820674 0.028945552 -0.112878285 0.102352075 0.16009381 0.05004416
0.16310632 -0.24682985 -0.085475065 0.01985232 -0.087527916 -0.10680056 0.068261445 0.256145
-0.15361135 -0.09146738 0.21238126 -0.17902113 -0.06105341 -0.14116779 0.25762928 0.042072076
0.056652695 -0.08751004 -0.06982255 0.217794 -0.010223786 -0.19144835 0.0052333376 0.10207241
-0.13272232 0.07385736 0.102604285 -0.12841886 0.03682786 0.16913447 0.06339451 -0.08339875
0.046316132 -0.13016813 -0.058789775 0.04129209 0.033186786 0.08826929 -0.13835387 0.18237367
-0.062353406 -0.0548001 0.006108966 -0.13175835 0.026949786 -0.12632193 0.13131283 0.16811065
0.011284808 0.10207506 0.014877392 -0.10423246 -0.16634314 0.07041201 0.08765503 0.10609536
0.030613614 0.035084847 0.1495123 -0.06678637 -0.029492501 0.11892352 -0.10313844 -0.03377232
0.15384123 -0.1992589 -0.19280787 -0.17724405 0.014205689 0.14079437 0.028206537 -0.103782386
-0.12444466 0.09881801 -0.0037211948 0.10152868 0.1324071 -0.12469734 0.076990336 0.13572712
0.101770684 0.13284543 0.046494406 0.15468414 0.12791705 -0.09102662 0.17307456 0.15192789
-0.024736786 0.13023062 -0.0936359 0.079295866 -0.10768391 0.094084896 -0.15837444 0.17636658
0.10200113 0.10760777 0.10516137 0.06432791 -0.000939382 -0.10935621 0.17914142 -0.015823256
-0.058589313 0.09698473 -0.09920109 0.013336367 -0.09055062 -0.07995542 -0.12743263 0.09934657
0.02574057 0.051831584 -0.0039505903 0.07466683 0.054501716 0.009324991 0.011338563 0.07382819

lstm.bias_ih_l0 f4 [128]
00000000: c4c9 7ebc 3da5 f13d 1e7c c9b8 7e72 333e
00000010: 2d6c 68bd d033 f13d c4cb 4dbc 4e20 f6bd
00000020: 46f3 853e 86ed 5e3d 9a50 463d d6f5 81bc
00000030: 44f7 14bb 13bd b6bc 3d75 b33b d683 dcbd
00000040: b6a7 d7bd f503 bb3d 4b25 82be c842 a3bd
00000050: 1875 94bd d47c dc3c d53b aabd d61f 34be
00000060: 1e9f 593c b239 cabd 9f0d 4abe 51ea 59be
00000070: 220c e8bd 80bd 94bd f735 b3bd f362 383e
00000080: 202e c1bb 9d3a 24be 6e54 cabc 5de4 0c3e
00000090: 2084 0c39 aa02 1ebe 8880 2cbd 471d 87bd
000000a0: ecda bb3d f49a 573c ffb2 743c 5dad 6c3d
000000b0: f0ba 7abe a024 1ebe 55ef 0ebd 68a3 093e
000000c0: 6e70 033d 9264 d83c e6a4 81be be6c d23c
000000d0: 59e8 d73c c1cc 9ebd 4bf2 bd3d 7fe0 1fbe
000000e0: 2d3a 423d a278 95bd fa1e cfbd 3508 873d
000000f0: 6cd9 80bd 7ad4 253e 8086 ca3b 5922 9fbc
00000100: b7e3 b5bd 2e7c 75b9 c66a dfbd 1a38 773d
00000110: ceb8 20bd c8dd 90ba 821b 733b 7aee a53d
00000120: 31c0 d9bc 493c f13d 3dd3 d5bd 86e2 a5bd
00000130: 2829 17bd 38d8 863d f9b9 813c 361a 04be
00000140: 39a6 05be 7849 2a3d 2134 1a3e 4f68 a23c
00000150: 0283 cf3d dfb4 c7bc 3997 5b3c dfe7 83bc
00000160: 9acb 7cbd 65fd e03d 5d87 46bd c671 ebbd
00000170: 9401 1ebe 6a4f 22be 0592 f53d aae4 42be
00000180: fc52 e9bc 4f30 e5bd a1f1 ea3d fa6e c1bd
00000190: 21e3 d4bd 418b 6bbc 1ffa 27bd 38cb 413e
000001a0: 0ada da3d dd45 c6bd 796a 023d c3fe fe3c
000001b0: 44d3 1c3d 3d00 abbb 6554 763d b41d 353d
000001c0: 60fc ac3d 0d57 eebc ef04 09be 56b4 0e3e
000001d0: 5f01 683d eb96 85be 7828 923c 4b5a 39bd
000001e0: 5419 813d 47f4 93bd f612 30be 9a9e 9abd
000001f0: 4c45 00be 0909 4a3e 7dc8 853b 6005 373d
-0.015551034 0.11799095 -9.6075455e-05 0.17524144 -0.05674379 0.117774606 -0.012560789 -0.120178804
0.26162165 0.05442574 0.04841671 -0.015864294 -0.002273039 -0.022306954 0.0054766224 -0.10767333
-0.10530035 0.09131614 -0.25419077 -0.07971722 -0.07248896 0.026914991 -0.08312193 -0.1759027
0.013282565 -0.09874286 -0.19731759 -0.21280791 -0.11330439 -0.07262707 -0.08750527 0.18006496
-0.005895391 -0.16037984 -0.024698462 0.13758989 0.00013400661 -0.15430704 -0.042114764 -0.06597381
0.091726154 0.013159502 0.014935254 0.05778252 -0.24485373 -0.15443659 -0.034896214 0.13441241
0.032089643 0.026415143 -0.2532112 0.025686618 0.02635591 -0.077538975 0.09274729 -0.15612982
0.047418762 -0.072983995 -0.1011333 0.06593362 -0.0629147 0.16194335 0.0061805844 -0.019425558
-0.08881324 -0.00023411281 -0.10909037 0.060356237 -0.039238743 -0.0011052424 0.0037095253 0.081021264
-0.026580902 0.117790766 -0.10440681 -0.080998465 -0.036904484 0.06584209 0.015835749 -0.12900624
-0.1305169 0.04157397 0.15058948 0.019825129 0.1013241 -0.024378238 0.0134027535 -0.016101776
-0.061717607 0.10985831 -0.048468936 -0.1149631 -0.1543029 -0.15850607 0.11990742 -0.19032541
-0.028481953 -0.11190855 0.11471868 -0.09444995 -0.10394884 -0.014376462 -0.04101002 0.18925178
0.10686119 -0.09681294 0.03183982 0.03112734 0.038287416 -0.0052185343 0.06013908 0.04421778
0.08446574 -0.029094243 -0.13380788 0.1393598 0.056641933 -0.26091704 0.017841563 -0.045252126
0.06303659 -0.072243266 -0.17194733 -0.07549782 -0.12526435 0.19730009 0.004082738 0.04468286

lstm.bias_hh_l0 f4 [128]
00000000: 97c1 2d3e 957f 43be 9c8d 483e 2024 92bd
00000010: da2d 8abd 5adc e4bd f13a 383e 5202 e83d
00000020: 0d59 903c 5c25 90be 2462 b0bc 300e 0b3e
00000030: 372f 68bd afb5 253c 87d6 9b3d 31f6 a53d
00000040: 9f7f 083e f641 32bd 4f5a 43be d91b c53d
00000050: 07ee b53d 9edb 91be b678 1d3d ea5e fbbc
00000060: e29d 023d 2a7f dd3d ef39 74bd f7e9 47bd
00000070: b058 7cbd 2e2c eabd 574a 1d3e 79c3 91bc
00000080: 4f5e 153e b422 dc3c 9d4b 7abd ce7c ae3d
00000090: 20b3 f0bd b6fd 043d 5808 0fbd 088f babc
000000a0: b469 d8bd 3b9d 143d 3810 d2bd f402 4b38
000000b0: 6f43 c5bd 8e5e 26be 6251 c53d 4bb3 b1bc
000000c0: fa46 aabc 41a1 893d f5b9 1bbe 0049 22ba
000000d0: bfc5 063e b0ed 98be 4e64 be3c a34b e9bc
000000e0: 32a2 c4bc fcb8 3b3d 230a 953c 20e4 34bd
000000f0: aa33 bb3c e070 363e 49a7 923d b610 b7bd
00000100: 6df3 78bc b1d1 a53d c370 adbb 43b1 f7bd
00000110: 41cd 3b3d 5ee7 c53a 8a40 f53c f858 c53d
00000120: 95b4 a93d f9d4 02be 3d39 95bd d568 0fbe
00000130: db62 e03c fa5b 9b3d 56c0 b73d ee23 033e
00000140: 489d a1bd 8198 2d3c 4c27 dabb ffc3 23be
00000150: 3436 2bbe d7fb 7a3b dac1 6dbd 4212 55bd
00000160: 5f76 6abc f3ed 77bd 3c15 c83d 2bc8 5a3d
00000170: 78d8 3e3d 49f6 da3d 51d5 d6bd 83bd 173d
00000180: 3668 acbc 92bc 5b3b 3b15 033e 33b3 043e
00000190: b9ad 60bd 1b64 cb3d 72e2 193e 30cd 113e
000001a0: e366 4c3e 089d 5cbe 5ce3 1abe 2e70 2b3e
000001b0: 4743 b9bd 54f8 4a3d fe65 ee3d 3cae 32bc
000001c0: 7121 9dbb 96a3 253e d135 2fbc 8ef2 9bbd
000001d0: f285 d0bd 1db6 14be e9cb 77bd f33b 41bc
000001e0: 998f 313e 5eae de3d 322b ae3d bf01 86be
000001f0: 83ea dcbd 9a04 c7bd b661 eb3c ad81 a2bd
0.1696838 -0.19091637 0.1958527 -0.071357965 -0.06747027 -0.11174841 0.17991234 0.113285676
0.017620588 -0.28153503 -0.021531172 0.13579631 -0.056685653 0.0101141175 0.07609277 0.08103598
0.13329934 -0.043519937 -0.19077419 0.09624452 0.08883291 -0.28487867 0.038445197 -0.030684907
0.03188885 0.1081527 -0.059625562 -0.04880711 -0.061608016 -0.11434208 0.1536039 -0.017793404
0.14586757 0.026872016 -0.061107267 0.08519898 -0.117529154 0.03246852 -0.034920067 -0.02277328
-0.10567036 0.03628276 -0.10257 4.8401722e-05 -0.096320026 -0.16247007 0.09634663 -0.021691939
-0.020785797 0.0672021 -0.15207656 -0.00061906874 0.13161372 -0.2986884 0.023241188 -0.02847845
-0.024003122 0.04583071 0.01819331 -0.04416287 0.022851784 0.17816496 0.07160813 -0.08938734
-0.015194756 0.08096636 -0.0052929833 -0.12094357 0.045850042 0.001509886 0.029938001 0.0963611
0.082863964 -0.12776555 -0.07286308 -0.14004834 0.027390888 0.075859025 0.08972232 0.12806675
-0.07891327 0.010595442 -0.0066575166 -0.15992735 -0.16719896 0.003829708 -0.0580462 -0.052019365
-0.014310448 -0.06052966 0.09769675 0.05341355 0.04659316 0.106915064 -0.104899056 0.037045967
-0.021045785 0.0033529145 0.12801068 0.12958984 -0.054853175 0.09931203 0.15027788 0.14238429
0.19961123 -0.21544278 -0.15125793 0.16742012 -0.09046035 0.04955323 0.11640547 -0.0109057985
-0.0047952463 0.16175684 -0.010693983 -0.07614623 -0.10181798 -0.14522596 -0.0604972 -0.011794078
0.17339934 0.10873102 0.085043326 -0.26173207 -0.10786917 -0.097176746 0.028733116 -0.0793489

lstm.weight_ih_l1 f4 [128, 32]
00000000: ba34 0f3c 0222 10be e3ca 46be 037b 623e
00000010: f479 b83d 18e6 53bd da28 7b3e 26f2 6f3e
00000020: 4ef5 023e 7dee 2dbe a574 f03c 5bfd 503d
00000030: 826c a5bd 3ace 0ebd c4da bcbd 94f3 cd3d
00000040: a758 33be ecaf 3f3e 9c49 473e d046 87be
00000050: f13b 0ebe 134a 6bbd b72c 2cbd 3fac 2b3d
00000060: 0978 fc3c 4640 5d3c 62a2 e53d 14a5 593e
00000070: 579e 9c3d 880e 83bc 977b 883d 50a5 203e
00000080: cda9 08be 80db f2bd 3d07 d63b 1d38 ce3d
00000090: 8750 abbd 33b1 973e df06 4a3e 0330 2c3e
000000a0: b019 6c3e 3879 dfbd f64c 2fbe 2e4c d53c
000000b0: aa30 35be 852f 1ebe fcb8 d9bd e3c0 b1bc
000000c0: 3cac 583d 5226 0c3e 410f 403d 12bf 943d
000000d0: 2917 62be 866e c13c fc9c 7cbc 4907 bc3d
000000e0: ef64 3b3d 6281 193e c1b0 d8bd cc9f 2cbd
000000f0: fafc 22be b755 623d 9c72 8b3d 8432 313e
00000100: 60b9 9fbc 6777 35be 3d60 e2bc adb2 00be
00000110: 52fd 66bd 781a 803e 9f3b b3bd d305 613d
00000120: 7784 243e d6b7 30bb ce9b 32be 0652 b6bd
00000130: 0199 c0bd 0b5e 13bd 7c34 84bd 2a4b 7ebb
00000140: 4e99 fbbd 0249 553e 7331 433d 21b7 d0bc
00000150: 94cc 9dbd 3482 0abe 5c64 eb3c 12f1 9a3d
00000160: 696d 11be c819 dabd fe87 f73d 5e09 343e
00000170: 1ca3 31be 9dbb 953d 55bd 153e fb9f 813e
00000180: e9e6 1cbd 99e6 ed3d 5e9f df3d eae9 973e
00000190: 7c2e 24bd 76d1 0f3e 68bb f6bc c732 d2bc
000001a0: 11e4 aabc 02e3 21be aba7 c63d a737 6dbc
000001b0: ce20 773c 8c47 48bd 23aa 58be 801a 773e
000001c0: d75e 71bd aa9d 0a3e c244 463c ff3c 3abc
000001d0: 9a93 6cbd 115d 56bd 721b 613e 8a52 5ebd
000001e0: c033 023e 6a37 89bd d560 823c daf0 f23d
000001f0: 4d98 2bbd 8691 363d d61b 823e 0aab 083e
00000200: 43f0 c7bd 38ce a13d cd97 19be fe58 163e
00000210: 4867 123e fcbf 943d 590e d43d c103 463e
00000220: 8133 e33d c749 26be 8b1e 2a3c 5524 b63d
00000230: 85f3 a2bd 1b12 803d 0c1b 1fbe fc39 553c
00000240: 5d5f 07ba d51f 693e 9e2f 22bd 5196 503b
00000250: 2eba 17be c4c5 313e 8e4d 3e3e dc74 65bc
00000260: 4f50 78be 2d8e f13d 8baf 8bbd 4b51 163e
00000270: 8d81 3a3d 222a dbbd 549c 373d d15d 77bc
00000280: 8988 053d d1fd c4bd 505f 56bd 2461 963c
00000290: 5106 423d e335 5c3e 9e7d 6a3e 1501 fa3d
000002a0: 671e 6a3c f95a 8c3b ab93 f7bd d1c5 32bd
000002b0: 97bf 523d 3eb3 dcbd 39ca 863d a8aa 463d
000002c0: 077c d4bd db3e f5bc 8812 413e 84d4 70be
000002d0: aae5 4fbe 8cba a43d 7096 6c3e 9f51 aebc
000002e0: 6933 f43a cd6b 6b3e 94aa 023d 056b f13d
000002f0: 04df 2cbe 12be 56bc 72dd 87bc 7a08 353e
00000300: 7128 01be 28ba 3bbd 295c 90bd 8dd0 623e
00000310: 20cc c83c 8a18 9b3d 9a3b e63d fbf0 013e
00000320: 7783 8abd 36f8 77bb 267f b53d 90d2 313d
00000330: 0cc2 0b3d 50bb 643d f8cf df3d b789 7ebd
00000340: e970 93bc 8552 c9bb aed5 1b3e 7649 21be
00000350: b8fe cabd 1a97 cb3d a13d 16be 28c6 2e3d
00000360: 2152 46be 1e48 2d3e e8b7 ecba 9867 343e
00000370: 0f7b 1d3b 1cca bfbb fc61 073e 7b7e e43d
00000380: 8d3c dbba 3788 253d c5af a63a 27b4 9f3d
00000390: 0d7f a33d d561 56bd a4bb 5bbd 4c75 7fbd
000003a0: 5fb1 36be ef90 a3bd 19cd 2abe 6b9d 88bd
000003b0: bda5 853c ee08 fbbc 2191 dcbd ae40 78bd
000003c0: 6bb9 01be 6672 763d 0fca 943e 9ce4 79bb
000003d0: 489a fb3d dd51 523d 304b 01bd dbda f73d
000003e0: c41d 893c 0995 53bd db9f 233e 096b 0c3d
000003f0: 2279 91bd f8d2 cb3d 314d 0b3e f6d1 7c3d
0.008740598 -0.14075473 -0.19413333 0.22117238 0.09007636 -0.051733106 0.24527302 0.23432216
0.12788889 -0.16985507 0.029352495 0.05102287 -0.08077337 -0.03486464 -0.09221414 0.100562245
-0.17514287 0.18719453 0.19461673 -0.26421213 -0.13890053 -0.05744369 -0.04203483 0.041912314
0.030818956 0.0135040935 0.11212613 0.21254379 0.076473884 -0.01599814 0.06664198 0.15688062
-0.13346024 -0.118582726 0.0065316246 0.100692965 -0.08364969 0.2962738 0.19729184 0.1681519
0.23056674 -0.109117925 -0.17119202 0.026037302 -0.17694345 -0.15447815 -0.10630986 -0.02169842
0.05289863 0.13686493 0.046889547 0.07263006 -0.22079147 0.023612272 -0.015418287 0.09181077
0.045750555 0.14990762 -0.10580588 -0.04214458 -0.15916815 0.055257525 0.068089694 0.17304426
-0.019497573 -0.1772133 -0.02763378 -0.1256816 -0.05639393 0.25020194 -0.08751606 0.054937195
0.16066156 -0.0026965044 -0.17442247 -0.089023635 -0.09404183 -0.03597836 -0.06455323 -0.0038802125
-0.122851 0.20828632 0.04765458 -0.025477948 -0.07705036 -0.13526231 0.028734379 0.07565512
-0.14201893 -0.10649449 0.12086485 0.17581698 -0.17347378 0.07311175 0.14623006 0.25317368
-0.03830615 0.11616249 0.10919069 0.2967065 -0.040083393 0.14044747 -0.03011866 -0.025658978
-0.020860704 -0.15809253 0.09699949 -0.014478601 0.015083505 -0.048896357 -0.21158652 0.24131203
-0.058928337 0.13536707 0.012101354 -0.011367082 -0.05775795 -0.05233485 0.21983126 -0.054277934
0.12715054 -0.067000225 0.015915314 0.11862345 -0.041893292 0.044572376 0.25411862 0.13346496
-0.09762623 0.07900661 -0.14999314 0.14682385 0.14297211 0.072631806 0.10354299 0.1933737
0.11093808 -0.16239081 0.010383259 0.088936485 -0.07956604 0.06253453 -0.15537661 0.013014313
-0.00051640515 0.22766049 -0.039596193 0.0031827877 -0.14817116 0.17360598 0.18584272 -0.014004912
-0.24249385 0.11794696 -0.068205915 0.14679448 0.045533706 -0.107013956 0.04482682 -0.015098051
0.032600913 -0.09618724 -0.05233699 0.018356867 0.047369305 0.21504931 0.22899482 0.12207238
0.014289475 0.0042833057 -0.12088712 -0.043645684 0.051452246 -0.10776375 0.0658154 0.048502594
-0.10375219 -0.029937198 0.18854725 -0.23518568 -0.20302454 0.080433935 0.23104262 -0.021279154
0.0018631044 0.22990341 0.031900957 0.117879905 -0.16881949 -0.01310684 -0.016585086 0.17679015
-0.12613083 -0.04583183 -0.07048828 0.22149868 0.024511397 0.0757304 0.11241837 0.12689583
-0.06763356 -0.0037837154 0.08862142 0.0434137 0.034120604 0.055842698 0.10928339 -0.062143054
-0.017998176 -0.0061438703 0.15218231 -0.1575068 -0.09911865 0.0994093 -0.14671947 0.042669445
-0.19367267 0.16922042 -0.001806018 0.17617643 0.0024029647 -0.0058529507 0.13220972 0.11156937
-0.001672642 0.040413108 0.0012717178 0.07798033 0.079832174 -0.052339394 -0.053645745 -0.062367722
-0.17841099 -0.07986628 -0.16679801 -0.0667065 0.016314382 -0.030643906 -0.10769869 -0.06060856
-0.12668388 0.060167693 0.29060408 -0.0038130647 0.12285286 0.051347602 -0.031565845 0.1210229
0.016737826 -0.051655803 0.15978949 0.034281764 -0.071031824 0.099523485 0.13603665 0.06172367

lstm.weight_hh_l1 f4 [128, 32]
00000000: 1d8d a5bc de35 0abe 83c0 54be 6d2e ee3d
00000010: 6c9e 92bd b390 25be 9062 3ebe f51e 29be
00000020: 2953 a03d d06d 363e 1ca9 743c 52ad 76bd
00000030: 3819 98bd 28fb 61bc 5139 083e b213 3abe
00000040: 5821 f5bd 3970 d3bd 3bcd 85bd 89a3 143e
00000050: c281 333e a739 21bd 1f53 143e a268 0a3d
00000060: 28e5 bdbd ffb5 113e 86cb f1bd 3bfd 373e
00000070: 0624 d2bc 3db2 f4bd 995e 253e 8092 8e3d
00000080: 278f 45bb a981 25be 40d2 6c3d 564e abbd
00000090: 1093 fbbd 4ad9 443d f8d9 a4bd 7cdf 993d
000000a0: 977d 2d3e dd51 233e c232 033d a3b0 2f3e
000000b0: 293a 123d 2060 f5bd 497b 2fbc 7b81 67be
000000c0: a9a7 47bd 5edd 323e 2ccc 5cbe 13d3 f8bc
000000d0: c980 17be 1416 603d 4322 763e 51e5 623d
000000e0: 808b 94bd 60d6 7fbd 4db9 fabd ee2b b4bd
000000f0: 183e c0bd 9b96 1f3e d11f 5bbe 786b 903d
00000100: cea6 de3d 19f0 39be 1586 f7bd 3289 0fbe
00000110: 3873 5f3d f6f8 dbbd 05ef 203e 8c5d adbd
00000120: e028 e8bd 00c4 bbbc 0aa7 2d3e 6e3e 3b3b
00000130: b935 debc a0f6 323d 55fa 2e3d f09f d5bd
00000140: 39a9 e8bd b6ac d33d 9253 c8bc 5e69 cfbd
00000150: d5d7 90bd 6173 3cbc 7521 313e b251 59bd
00000160: f26c 96bd 6572 efbd d3c9 103d 5699 313e
00000170: c8fa 343d ba31 c83d 6763 30bd 09e0 1dbe
00000180: c72e 7d3d 893a 27be 7980 0abd de5c 673d
00000190: 49b3 6abc 60ea e93d 9270 f43d 5671 19be
000001a0: 6994 9abd 5cf0 eb3d 99bd f83d 5a90 85bd
000001b0: 450a 95bd 52ad 6e3b b95e bb3c b042 1b3a
000001c0: c9b1 1c3e 49f5 97bd 4da4 bc3d daee 213e
000001d0: 9ad4 343d b854 253c 9e2b 123e e567 e13d
000001e0: f59e 1ebd 3aba d9bd 89d9 49bd a7f5 303e
000001f0: fbbe 6dbe aeb4 21be 048f 60be 12a7 283e
00000200: 2476 9f3d 6d2c 23be c3e6 1dbc 79e8 063e
00000210: b235 f6bd e0e6 7d3c 6297 f6bc 4c46 21be
00000220: 4a35 50bd 8b33 86bd 07f8 553c da02 01bd
00000230: 3635 9a3c 1864 04be e51c 0abd 8edb b0bd
00000240: 8808 213e 0e8d 32bc 7207 703a 5076 4a3e
00000250: 85ea 19be a159 1abe 9a29 50ba 4c0b 30be
00000260: 186d aabd 72e6 53bd 6f7a 143e 0ff0 86bd
00000270: 404f 003e 5402 2cbe 16d8 3ebe 5da5 0e3d
00000280: b440 2fbe fb1b a2bd 333f fe3d ca4a a0bd
00000290: c142 1a3e fc42 0b3e d25f 0b3e dc66 a53b
000002a0: 02ef 113e 1366 803d e0dc 64bd 549a 21be
000002b0: 150e b3bd 3cc0 ba3d 6814 813d bdec 80bd
000002c0: 8804 c9bd 8b9a ca3c 2db2 4f3d 58d7 243e
000002d0: b832 913d f632 8fbd 12f1 813d bb38 613b
000002e0: d24f 51bd 27d1 103e 54af 233e 357a c8bd
000002f0: 49b9 973c 3fdf 11be 25e1 cf3d 0e2b 0dbe
00000300: c02c b0bd a67d 8dbd e18f ae3d 7559 f2bd
00000310: 59ff a9bd 1b10 fa3d ac8c 10be cd5f 0f3e
00000320: 4099 5e3e 2e14 2f3e c1e3 353e 202d 0b3e
00000330: 1f0a fe3d 3906 5c3e 2aef 2a3e 87ae 15bc
00000340: 3164 3dbe 0e79 3e3d 06e4 a4bb f392 0b3c
00000350: 3548 a03c fe93 28be 855a 093e c399 d5bb
00000360: 215f 51be 0b9a 40bd 218c 1dbe 8c76 9d3d
00000370: 696d b83c 8a16 c13d 7477 d03c e864 8e3c
00000380: 8ad4 d63d 4039 39bd f532 07be f63c 8d3d
00000390: 02e4 293e 7415 a43d 0036 2fbd d182 bfbd
000003a0: baf2 98bd 756f fd3d ca44 2d3d 5324 ea3d
000003b0: ce27 29be 5247 773d a8ea c13d c97c edbd
000003c0: 3087 00bd ad52 183d df2f 393c b3bc e8bd
000003d0: 82a0 2bbd 0d36 f73c 8229 6e3e bd79 033e
000003e0: 5ac7 c63d 8fcc 2d3e 0cf3 04bd 5ef2 45bc
000003f0: 40d6 333e 5737 16bd 1773 50bb 33c8 893d
-0.02020889 -0.13497111 -0.20776562 0.11629949 -0.07159123 -0.1616848 -0.18592286 -0.16515715
0.078283615 0.17815328 0.014932897 -0.060223885 -0.07426685 -0.0137927905 0.13303114 -0.18171576
-0.119692504 -0.10324139 -0.06533285 0.14515509 0.17529967 -0.039361622 0.14484833 0.033791192
-0.09272224 0.14229582 -0.11806397 0.17967694 -0.025651943 -0.11948059 0.16149367 0.069615364
-0.003014514 -0.16162743 0.057817698 -0.08364551 -0.12283909 0.048058785 -0.08049387 0.075133294
0.1694244 0.15949197 0.03203083 0.17157225 0.035699997 -0.11981225 -0.010710546 -0.22607987
-0.048743878 0.17467257 -0.2156226 -0.030374086 -0.14795221 0.054708555 0.24036507 0.055394474
-0.0725317 -0.062460303 -0.122423746 -0.087974414 -0.093868434 0.15584795 -0.21398856 0.07051748
0.10871659 -0.18157996 -0.12086121 -0.1401718 0.05455324 -0.10740845 0.15716179 -0.08465108
-0.11335921 -0.022920609 0.16958252 0.0028571147 -0.027125226 0.04369223 0.042719204 -0.10430896
-0.11360402 0.10335676 -0.024453912 -0.10127519 -0.07072417 -0.011502118 0.17297919 -0.053056426
-0.073449984 -0.11691741 0.035348725 0.1734365 0.044184476 0.097751096 -0.043063547 -0.15417494
0.06181219 -0.16330923 -0.033813927 0.05648505 -0.0143249715 0.114216566 0.119355336 -0.1498464
-0.07547838 0.11520454 0.12145538 -0.065216735 -0.072773494 0.0036419225 0.022872316 0.0005922718
0.15302195 -0.07419831 0.092110254 0.15813771 0.044148065 0.010090999 0.14274451 0.110061444
-0.038725812 -0.10631223 -0.049279723 0.17281209 -0.23217385 -0.1579158 -0.21929556 0.16469982
0.077862054 -0.15934916 -0.009637537 0.13174619 -0.1202196 0.015496939 -0.030101482 -0.15749472
-0.05083207 -0.065528 0.013059623 -0.03149686 0.018824201 -0.12928808 -0.033718962 -0.08635627
0.1572591 -0.010897888 0.0009156383 0.19771695 -0.15030868 -0.15073253 -0.00079407694 -0.1719181
-0.08321589 -0.05173344 0.1449983 -0.06588756 0.12530231 -0.16797763 -0.18637118 0.03482567
-0.17114526 -0.07915493 0.12414398 -0.07826765 0.15064527 0.13599771 0.13610771 0.005047662
0.1425133 0.06269469 -0.055874705 -0.15781528 -0.0874292 0.09118697 0.0630272 -0.06295154
-0.098153174 0.024731895 0.05070703 0.16097772 0.07089752 -0.06992142 0.06344809 0.003436609
-0.051101513 0.14142285 0.15984851 -0.09788934 0.018520968 -0.14245318 0.10150365 -0.13785955
-0.086022854 -0.06908731 0.085235365 -0.11833469 -0.08300657 0.12210103 -0.14116162 0.14001389
0.21738148 0.17097542 0.17762662 0.13591433 0.12404274 0.21486749 0.16692796 -0.009135849
-0.18495251 0.046502165 -0.0050320653 0.008518922 0.019565681 -0.16462705 0.13413437 -0.006518574
-0.20446445 -0.047021907 -0.15385486 0.07688627 0.022513108 0.09428127 0.025447585 0.0173821
0.10489757 -0.045220613 -0.13203032 0.06896393 0.16590884 0.08011904 -0.042776108 -0.09351123
-0.074681714 0.12374774 0.04230193 0.114327095 -0.1651909 0.06037075 0.09468585 -0.115960665
-0.031378925 0.03718822 0.011302917 -0.113641165 -0.04190112 0.03017714 0.23258021 0.12839408
0.09705992 0.16972564 -0.03245835 -0.012081711 0.17562199 -0.03667387 -0.003180688 0.06727638

lstm.bias_ih_l1 f4 [128]
00000000: 8a41 d1bd 4ec3 f1bd 5862 253e 0ec2 02be
00000010: 11a0 e1bd 69e5 19be af23 443e b82c b43d
00000020: 2323 633d 6caa 983d d486 293e f3fb 923c
00000030: 320c 9f3d 9eb6 183d 7668 133d 950d a2bd
00000040: 2c4e 243d a7fd 213e 453a 133e 2d4c 4c3d
00000050: c140 0fbe 2ced 3fbe d04e babe d0b4 a6bd
00000060: ad34 84be f595 b4bc 7d91 613d f902 6b3e
00000070: 406a 2f3e d49b e9bd 416d f1bd 7885 66be
00000080: 4042 37be 9db7 27be 66c6 063c 7465 21be
00000090: 15a2 d93d f425 e63d c8b6 2fbe 41d7 b9bc
000000a0: e358 fa3c 4df0 143e 0378 b8bd 3601 e3bd
000000b0: 80cc 333e aa7c 41be a93d f33d 4ee8 073e
000000c0: 8aed 13be f7b0 6e3d f832 f7bc 597e 973c
000000d0: 2117 1abe 0047 9ebd b48d 9abe 5015 b73d
000000e0: 5789 47be a713 fc3d 3370 d0bd 65c7 9bbd
000000f0: f01b 2e3d 12d1 1e3d 8f40 1cbe c1d2 1abe
00000100: 82fb cfbb 14ee 4b3d 3555 2abe 950f 863c
00000110: 7f58 133d 85d0 90bc ed95 c5bb aadd 9bbd
00000120: ed7e d73d 41b0 f83d ef3f 313e be92 30bd
00000130: 7831 3ebd e4f6 c43d 91c2 ae3d a300 483e
00000140: 01f6 abbc 42b5 693d bd97 d03d 0f2d 12be
00000150: 7df9 afb9 7934 c03d ca7e 0d3e d8d0 303d
00000160: f13f 9f3d 3f26 a9bd b314 4bbc 77a0 3c3d
00000170: 664a 153e 10ec 7dbd 14a8 dd3d 8e3d acbd
00000180: f752 f23d ee74 10be 42ca 0c3e 2883 11be
00000190: 23ec 90bd 7bef 163d 2a58 11bc bfc7 fc3d
000001a0: e0e2 193e 76e4 0a3d 1371 d73d 095e adbd
000001b0: 2f24 763d 8b08 ceba 590e e7bd c2d9 47be
000001c0: a853 3b3e 88f7 a5bd 5511 18be 3651 02be
000001d0: b571 0abe 0f19 44bd 99ee 11bd 1eb3 023b
000001e0: 633e 6dbe 2112 b3bd 5208 1b3e db55 d9bd
000001f0: 7072 203e e27b ef3c f4a5 cd3d 1af6 733d
-0.10217579 -0.118048295 0.16150796 -0.12769338 -0.11016858 -0.1502892 0.19154237 0.08797592
0.05545343 0.074543804 0.16555339 0.017942404 0.07765998 0.037283532 0.035988294 -0.07912747
0.040113613 0.15819417 0.14377697 0.049877334 -0.13989545 -0.18742818 -0.36388254 -0.08139956
-0.25821438 -0.022044161 0.05507039 0.22950353 0.17130375 -0.11406675 -0.11788417 -0.22511852
-0.17896366 -0.16378637 0.008226013 -0.15761358 0.10626618 0.11237708 -0.1715957 -0.022685649
0.030559963 0.14544792 -0.090072654 -0.11084215 0.1755848 -0.18895212 0.11876995 0.13272211
-0.14446083 0.058274236 -0.030175671 0.018492864 -0.15047885 -0.07728386 -0.30186236 0.08939612
-0.19485985 0.12308436 -0.1017765 -0.07606391 0.042507112 0.038773604 -0.15259002 -0.15119459
-0.0063471207 0.049787596 -0.16634066 0.016364852 0.03597307 -0.017677555 -0.0060298354 -0.076106384
0.10522256 0.12142993 0.17309545 -0.043108694 -0.046433896 0.09617403 0.08533204 0.19531493
-0.020991327 0.057057627 0.10185192 -0.14275001 -0.00033564484 0.09385008 0.13817897 0.04316792
0.07775868 -0.08259248 -0.012395072 0.04605147 0.14579162 -0.061992705 0.10823074 -0.08410178
0.118322305 -0.14107105 0.1374903 -0.14210188 -0.070762895 0.03684948 -0.008871118 0.12342786
0.15027952 0.033909284 0.10519614 -0.084652014 0.0600931 -0.0015719099 -0.112820335 -0.19516662
0.18293631 -0.081038535 -0.14850362 -0.12726292 -0.13519938 -0.04787546 -0.035627935 0.0019943188
-0.2316833 -0.08743692 0.15139893 -0.10612079 0.15668654 0.029233877 0.10041419 0.059560873

lstm.bias_hh_l1 f4 [128]
00000000: 1bc9 663d 34d8 49be 250a b33d 1e3b b4bd
00000010: 15cc bd3d ee87 f5bd 21d0 0fbe b859 573e
00000020: 5129 a4bb 283a a9bd 7145 02be 5ee6 c23c
00000030: 1068 77bd 564c ca3d 3897 fcba 1476 b4bc
00000040: 8f90 5f3c 4857 b8bc 05fb 0a3e 0efb 193e
00000050: f199 d6bd 7dfa 773d 5fd6 89be a454 b2bd
00000060: 9a8a 493d 6659 9bbd 3017 923d d6ea 273d
00000070: d89f 9a3d 924b 6abd 51d6 073e a1b1 3fbe
00000080: 22d6 23be c920 b73c b027 3cbe 6616 2abe
00000090: 8295 36be 7d68 00bb a7e0 a33d 642b 03be
000000a0: f81f 25bd 60aa 923d 55e0 46bd 5a75 18bd
000000b0: d697 ce3b 84a8 bebd 8542 db3b 92a9 403d
000000c0: 6539 43bd 29ea 053e 1125 57be a61c 2abe
000000d0: 4f0c 80be 0979 83be 8cf2 afbe b00d 983d
000000e0: 4119 04be 89f4 ccbb b184 a43d 7ec8 75bc
000000f0: 2a3b f1bd 6c8f c53d 21d0 c23d 2f7f dc3d
00000100: dcc2 4c3d 4c4c adbc 3472 023e 86e6 c9bd
00000110: d837 2f3c e797 c6bd 05d6 75bc d5f8 393d
00000120: 26c0 02be 3e0e 4dbe 9a54 46bd 85c0 b2bc
00000130: bd23 a9bd 6b87 ae3d 8bcb e83d 9be0 d7bd
00000140: 5076 86bd a42b 22bd c94f 09be 6b9c 873c
00000150: 61db 103d e555 b5bd 186c 4cbd d804 dabd
00000160: dde3 1bbd 3e78 9b3c 87d0 f8bc 6fa5 313c
00000170: b8b5 0a3e 467d 86bd 29a5 e9bb 5147 e2bb
00000180: a39b 6e3c e07d e03d 10be 0cbe ac23 6e3d
00000190: e9d3 e9bc 7705 aa3d d55d b5bd 4bf8 e73d
000001a0: dc77 dabb e48b 713e 22c1 593e 880c f0bd
000001b0: feb1 363e 868e aa3c 757c 0cbe 7525 b33b
000001c0: 719c cb3d 088e 6b3d 0fa9 6ebd 2d19 91bd
000001d0: 8775 6dbd 5b73 c4bd 1b70 0bbe e5e0 543d
000001e0: f399 98bd 18d8 0cbe 0d83 e73c 4d05 003e
000001f0: a015 f3bd 47c2 163e 0c56 fabd 0842 abbc
0.056344133 -0.19711381 0.08742169 -0.08800338 0.09267441 -0.11988817 -0.14044239 0.21030319
-0.005009808 -0.082630455 -0.12721802 0.023791488 -0.060401976 0.09877841 -0.0019271141 -0.02202896
0.013645305 -0.022502556 0.13572319 0.15037176 -0.10478581 0.06054162 -0.26921365 -0.0870755
0.049204446 -0.07585411 0.07133329 0.04099544 0.07550019 -0.057200976 0.13265349 -0.18720104
-0.15999654 0.0223545 -0.18374515 -0.16610107 -0.1783047 -0.001959353 0.080018334 -0.12809521
-0.04031369 0.07161403 -0.048553783 -0.03722129 0.0063047213 -0.093094856 0.0066912794 0.047036715
-0.047662158 0.13077606 -0.21010233 -0.16612491 -0.2500939 -0.2567828 -0.34364736 0.07424486
-0.12900259 -0.006254737 0.080331214 -0.015001414 -0.11778863 0.09646496 0.09512354 0.10766446
0.04999052 -0.021154545 0.12738878 -0.09858422 0.0106944665 -0.09696942 -0.0150046395 0.04540332
-0.12768611 -0.20024964 -0.048420526 -0.021820316 -0.0825877 0.08521923 0.11366948 -0.10540887
-0.06565535 -0.0395924 -0.13409342 0.016554078 0.035365466 -0.08854274 -0.049907774 -0.10645455
-0.038059104 0.018978234 -0.030372871 0.010842665 0.13545883 -0.06566863 -0.0071302843 -0.0069054742
0.014563474 0.10961509 -0.13744378 0.058139488 -0.02854343 0.083018236 -0.08855788 0.11326655
-0.0066671204 0.2358852 0.2126508 -0.1172114 0.17841336 0.020819914 -0.13719352 0.0054671117
0.09941948 0.0575085 -0.058266696 -0.0708488 -0.05797341 -0.09592315 -0.13616984 0.05197229
-0.074512385 -0.13754308 0.028260732 0.12502022 -0.11869359 0.14722548 -0.122234434 -0.02090551

fc.weight f4 [1, 32]
00000000: 7680 ddbd 51e1 81bd 60b4 f9bd a560 153d
00000010: 6f97 26be 042d e43d b1a5 1c3e 1b92 38be
00000020: 5f70 0c3e 2684 52be b98b 483e 8bb9 cf3d
00000030: 7ea6 42be 64e3 563e fab1 bdbd b6fc b33d
00000040: eb71 6cbe 8dcb 80be d03a cbbd a240 d53c
00000050: 7a6f 263c 1793 d73d f630 c1bc d846 443e
00000060: bed7 4f3d 4368 083d 7e0d 88be b316 0b3e
00000070: 9f27 483e bafb 6bbe 0eb0 0bbe bb11 0e3d
-0.108155176 -0.06341804 -0.12192607 0.03646912 -0.16268705 0.111413985 0.15297581 -0.18024485
0.13714741 -0.20558223 0.1958455 0.101428114 -0.19008824 0.2098518 -0.09262462 0.08788435
-0.23090331 -0.25155297 -0.09923327 0.026031796 0.010158414 0.10526102 -0.023582917 0.1916765
0.050742857 0.033302557 -0.26572794 0.13582878 0.19546364 -0.23045245 -0.13641378 0.034684878
