backend/stocks/price/pt_models/AUVI.pt (torch, 54435 bytes, 9 tensors)

lstm.weight_ih_l0 f4 [128, 1]
000000 cd e2 8f 3e a9 62 95 bc 4b 86 93 3d 48 1d 67 bd
       0.28102723 -0.018235521 0.07203349 -0.05642441
000010 ee 49 fb bd 04 4d 51 be 0c cf 9c 3e 6c 9f 33 be
       -0.1226996 -0.20439535 0.30626714 -0.17541283
000020 e5 72 26 3b b6 9a ec bd 61 62 8c 3e 08 f4 72 be
       0.0025398072 -0.11552946 0.27418807 -0.23725903
000030 ce d3 fa 3d ef ad 89 bd e1 e2 81 3e dc ee 9a bc
       0.1224743 -0.06722628 0.25368407 -0.018912725
000040 e4 81 82 3e 21 52 0b bc 03 1a 8f be bc ec 4a 3e
       0.25489724 -0.008503468 -0.27949533 0.1981687
000050 0e ea 1c bd 41 1d 3f 3d 68 63 0c be a4 d6 d9 bc
       -0.03830915 0.046658758 -0.13709795 -0.026591606
000060 3f f9 9e be 2e d2 cb bd 5e 66 51 bd 33 5c 61 be
       -0.31049535 -0.09952198 -0.051123016 -0.22007827
000070 ff bd 5d bc e9 a2 31 3e 8f 38 0a be c7 ee c5 bd
       -0.013534068 0.17347302 -0.13498138 -0.09664684
000080 f5 85 43 3e 7e 1f ad 3c 11 d1 4c bc 45 2b 21 be
       0.1909407 0.02113318 -0.012501017 -0.15739162
000090 c7 42 b9 bc c2 9c 6b 3d ac f1 a5 3e 8e ae 00 3e
       -0.02261485 0.057522543 0.32410944 0.12566587
0000a0 88 d1 eb bd 72 af 05 3e 59 a2 80 3e c5 c1 67 be
       -0.11514574 0.13055208 0.2512386 -0.22632511
0000b0 2b f9 14 bd 70 c4 b9 bd 31 a8 50 3e 7c 97 0f be
       -0.036370438 -0.090706706 0.2037666 -0.1402263
0000c0 e9 e9 e2 3e 4b da 41 bd 4a 92 4e be e5 5b dd 3d
       0.44319084 -0.04732732 -0.20172992 0.10808543
0000d0 76 68 ac bd 04 5b 38 3e be 37 8e be 4a 0a 98 be
       -0.08418362 0.1800347 -0.27776903 -0.2969535
0000e0 12 de a4 be e4 86 22 be 01 6c 08 be 92 2f ed bd
       -0.32200676 -0.15871769 -0.1332245 -0.11581339
0000f0 41 35 60 3e be 49 d2 3e 4c e0 99 3d 44 7d 30 be
       0.21895315 0.41071886 0.07513484 -0.17235285
000100 7b 42 05 be ce e9 98 be 7c 93 a0 be 02 0c b7 3e
       -0.13013642 -0.2986588 -0.31362522 0.3575135
000110 c1 82 93 3e d9 4c 7e be 96 98 96 be 13 23 0f 3c
       0.28810695 -0.24834003 -0.2941329 0.00873639
000120 bf cd 2f be c3 74 f7 bd 38 74 9c be f9 e2 c4 3e
       -0.1716833 -0.120828174 -0.30557418 0.38454416
000130 dc d0 f4 3d 07 ae b1 3d 1a f5 a4 bd 50 23 1c be
       0.11953899 0.08675771 -0.08054562 -0.15247846
000140 47 5d ac 3e 76 ca 8d 3e d3 1a 9f 3e eb c8 a2 be
       0.33664915 0.27693528 0.31075153 -0.31793913
000150 77 f2 a1 3e 7c d0 a3 3e 4b 35 b7 be bd f1 8f be
       0.31630298 0.31994998 -0.35782847 -0.2811412
000160 69 46 cd be 67 2d 76 be 50 78 94 be f5 39 21 be
       -0.4009278 -0.24040757 -0.2899804 -0.15744765
000170 38 7e fb 3d 72 a8 84 3e 78 3f b8 3c 90 2a ab be
       0.12279934 0.25909764 0.022491202 -0.3343091
000180 dd 95 1c 3e 51 43 34 be c0 40 38 be a6 be 8a be
       0.15291543 -0.17603804 -0.1799345 -0.27098578
000190 f5 1b 1a be 56 47 99 3d 0a 77 bc 3d 11 e6 6e 3d
       -0.15049727 0.074843094 0.092023924 0.058324877
0001a0 49 a9 f6 3d 8a 4a f9 bd 66 69 18 3e db 72 8b bd
       0.12044007 -0.1217242 0.14883956 -0.06809016
0001b0 c4 94 60 3d 6b 51 2a be 0b c0 ab 3c ed 5e 1b be
       0.054829374 -0.16632621 0.020965597 -0.1517293
0001c0 65 ed ee 3e 88 c0 ee bd 5e a8 c2 bd 26 b2 e4 3e
       0.46665493 -0.11657816 -0.0950477 0.44667166
0001d0 7b 5d 1d be c9 c6 b6 bc 13 7b 58 bd 85 b2 a2 be
       -0.15367691 -0.022311585 -0.052851748 -0.31776825
0001e0 be 23 41 be bd 22 64 be 87 48 61 bc aa ae 3c be
       -0.18861291 -0.22278877 -0.013750202 -0.18426004
0001f0 16 20 8e 3e 9e 8b a2 3e 74 fb ab bd 32 14 66 be
       0.27758855 0.31747144 -0.0839757 -0.22468641

lstm.weight_hh_l0 f4 [128, 32]
000000 d7 e5 00 3e e8 06 a7 3d 55 27 70 bc 05 c8 ee 3d
       0.12587677 0.08155614 -0.014657815 0.116592444
000010 49 e4 c1 3d cb c4 bc bc ae 65 4b be fc 54 01 3e
       0.0946737 -0.023043057 -0.19863006 0.12630075
000020 28 35 60 be b0 53 81 bd d3 6e 88 3d 3e 8b 8b 3e
       -0.21895278 -0.0631479 0.06661763 0.2725467
000030 47 ee 7f be ad 79 83 3e 51 dd bf 3d 44 c2 34 be
       -0.2499324 0.2567877 0.09368385 -0.17652231
000040 ad 03 a8 3d 7f 86 40 3e 29 99 92 3e a1 c0 80 bd
       0.08203826 0.18801306 0.28632477 -0.06286741
000050 1f 5e 8f 3e 95 b9 84 3d 4d fe 70 be f8 7f 5a be
       0.28001496 0.064807095 -0.23534508 -0.21337879
000060 be da 0a bd 26 26 74 bd 6f 1a 82 be 5f 18 e2 bc
       -0.033900015 -0.059606694 -0.25410792 -0.027599512
000070 37 c1 35 3e f3 26 a6 3d 50 94 d5 bd ef cf 7c be
       0.17749487 0.08112898 -0.10428679 -0.24688695
000080 d3 a3 1a bd cb 9e 1f 3e 4f 2f 0c 3e 02 35 ba bb
       -0.03775389 0.15587918 0.13689922 -0.0056825886
000090 6f 30 82 bc 25 9f b1 3d b3 39 81 bc 69 cc 1e 3d
       -0.015892236 0.086729325 -0.015774583 0.03876916
0000a0 18 4a 72 bd 3b 50 4c be 31 95 21 3e ce cd 11 bc
       -0.059152693 -0.1995248 0.15779568 -0.008899165
0000b0 85 6c 93 bd 28 8f 1b be d8 c1 7f be 20 e3 3d bc
       -0.07198433 -0.15191329 -0.2497629 -0.011589795
0000c0 5d 8a 37 3e cd a7 02 be bd a6 a7 bc 58 94 e7 bd
       0.17923875 -0.12759323 -0.02046525 -0.11307591
0000d0 55 3b 84 b9 eb c7 d5 bd 57 74 39 3e c0 dd 24 3d
       -0.00025221208 -0.10438522 0.18110786 0.04025054
0000e0 25 c1 ff bd f9 57 db 3d 79 8f 20 be 32 ff 14 be
       -0.12488011 0.10710139 -0.1567973 -0.14550474
0000f0 ed b7 dd bc 4d 64 4e 3e dd fe 21 3e f5 cd c9 3c
       -0.027065242 0.20155449 0.15819879 0.02463434
000100 94 13 32 3e 62 0d f1 3d 06 e9 33 bd d4 3e be 3d
       0.17390281 0.11770131 -0.0439234 0.09289327
000110 4e 93 59 bd 2c b1 26 be 0f 52 2a be db 9b 09 be
       -0.053118996 -0.16278523 -0.16632865 -0.1343836
000120 e6 1b df bd f9 cf bb 3d c9 98 2f bd 4f 3d 84 bd
       -0.10893993 0.09170527 -0.042870317 -0.06457006
000130 d3 f9 f4 3d c2 21 31 3e 92 c7 20 3b 92 57 31 be
       0.11961713 0.17298034 0.0024533016 -0.17318562
000140 36 47 24 3d 61 1f 0c 3d ea a8 8d bd e5 c3 cd bd
       0.040106975 0.034209613 -0.069169834 -0.100471295
000150 91 ce eb 3d 61 6e 89 3d d8 4b fe bd 67 59 a9 bc
       0.11514009 0.06710506 -0.1241681 -0.020672513
000160 89 5d 12 bd 3c d7 e2 bd e8 b3 45 3c a4 26 08 be
       -0.035733733 -0.11076209 0.012066819 -0.1329599
000170 b6 69 28 bd 88 4a 4a be 90 5e ce 3d 23 a8 fe 3c
       -0.04111644 -0.19754994 0.1007663 0.031086033
000180 e8 3d 10 3e 8e 38 37 3e 4f 96 aa 3d 74 86 b4 bc
       0.14086115 0.17892668 0.0832945 -0.022036768
000190 9e 51 56 be 0e f3 34 3e 3d 4e 79 be b6 72 20 be
       -0.20929572 0.17670843 -0.24346252 -0.15668759
0001a0 6d b5 e0 3d 4a 58 a1 bd db 85 db 3d af cd 87 bd
       0.10972104 -0.07878168 0.1071889 -0.06631028
0001b0 df ea 86 3d 83 2d c5 bd e4 23 44 3e a8 44 12 3c
       0.06587767 -0.09627821 0.19154316 0.008927502
0001c0 7d 5b 91 bd da 00 1a 3e 6b 4d 0f be 85 f2 2d bc
       -0.07097528 0.15039387 -0.13994376 -0.010616903
0001d0 fc 18 7b 3d da d7 97 be 89 4b 2e 3e fe d5 68 3d
       0.061303124 -0.2965687 0.17021002 0.056844704
0001e0 e5 58 da 3c 73 dc ac 3d d9 5b ac 3d d9 4f 14 3e
       0.026653716 0.08440485 0.08415956 0.14483584
0001f0 ac 2e 63 bd 3d 05 7a 3d 58 3a 04 3e 3a c6 91 3c
       -0.05546443 0.061040152 0.12912881 0.017794717
000200 cb 59 f7 3d 4f 90 c3 bd a6 ed bb 3d 0f a4 d2 bd
       0.120776735 -0.09549009 0.09176187 -0.10285198
000210 80 19 3f be a7 80 36 3e 1b fb ac 3d b9 4f bd 3d
       -0.18662071 0.17822514 0.08446332 0.092437215
000220 ad 3d 1d 3d d1 22 ff 3c 91 8d bb 3c 1f 42 4a bc
       0.038388897 0.031144531 0.022894653 -0.012344866
000230 06 63 37 3c 4d 99 1b 3e 13 2e 61 bd 29 ed 2b be
       0.011193043 0.15195198 -0.05497558 -0.16789688
000240 4f ae 71 3d c4 c3 72 3d 44 4f 81 bd 20 06 2a 3e
       0.059004124 0.059268728 -0.06313947 0.16603899
000250 b7 9c 6b bd 86 53 60 bd 94 47 3f 3e 8b bc f1 bd
       -0.0575225 -0.054767154 0.18679649 -0.1180354
000260 45 23 de 3d 9c 04 4c 3d fd 5c df bd d2 34 bc bd
       0.10846571 0.049809083 -0.10906408 -0.09189762
000270 bc e7 84 bd ab 5e 3a be da 47 86 3b 58 9b 6e bd
       -0.06489512 -0.18200175 0.004097921 -0.058253616
000280 33 62 1c be a8 ec 8d 3e 06 30 d4 bb 7e 80 2c be
       -0.15271835 0.27719617 -0.0064754514 -0.16845891
000290 7c a2 c3 3d 13 03 5a 3d b4 1b 43 3b 49 14 ce bc
       0.09552476 0.053225588 0.002977115 -0.025156157
0002a0 d2 06 eb bd dc 62 0d 3e 67 35 d9 3d 62 6e 08 3e
       -0.1147591 0.13807243 0.10605889 0.13323358
0002b0 2f 1b 52 be bc 79 7f 3d 37 da 77 be dd a1 70 3d
       -0.20518182 0.062371954 -0.24204336 0.058748115
0002c0 17 a1 ef 3d 49 34 c7 bb 50 db 10 3e c2 e5 bb bc
       0.11700647 -0.006079231 0.14146161 -0.022936705
0002d0 3f 5a 28 3e 32 f8 10 3e e8 26 58 3c cb 8d a7 bd
       0.16440676 0.14157179 0.01319287 -0.08181342
0002e0 90 80 1a 3e 23 e3 f0 3d d4 8b b4 3c 35 5b c5 3d
       0.15088105 0.11762073 0.022039331 0.09636537
0002f0 a2 2b 15 bd 27 77 ad 3d b4 64 8e bc c6 a7 a5 bd
       -0.036418565 0.08469992 -0.017382003 -0.08088641
000300 f7 21 0e be f8 02 0e be 19 6c bd bd ad 5c 13 3e
       -0.13880144 -0.1386832 -0.092491336 0.14390822
000310 cf 22 10 3e f4 6f 43 be 21 92 28 be c4 97 89 be
       0.14075778 -0.19085675 -0.16461994 -0.268736
000320 7b 2a aa bd dc 0f 2c be 53 68 92 3d 20 68 8a 3c
       -0.08308884 -0.16802925 0.071488045 0.016895354
000330 a5 a4 a2 3d d4 f2 28 be 6f 3d 26 3e 92 64 9c bd
       0.0794156 -0.16498882 0.16234373 -0.0763637
000340 15 56 e1 3d 1e e0 af 3d 93 d8 47 3e 55 5e 2e be
       0.11002747 0.08587669 0.1951621 -0.17028172
000350 af 59 d1 bc b7 12 eb 3d 14 fc 40 be 88 bc b3 bd
       -0.02555546 0.11478179 -0.1884616 -0.08776194
000360 7e f1 7f bc cc b2 2d 3e 03 0e 9a 3d 41 55 68 3b
       -0.015621541 0.16962737 0.07522204 0.0035451206
000370 76 8b 4e 3d 1d bc 51 bd 2d a5 40 3d e3 a3 a1 bd
       0.05042597 -0.05120479 0.047032524 -0.07892587
000380 27 dd fd bd d8 38 e4 bd 2c c7 af bd c9 ec 8c 3d
       -0.12395697 -0.111436546 -0.08582911 0.06881101
000390 f2 0e fb bb 0b b7 b6 bd 3d 9b 0e 3e 2b ee ca bd
       -0.0076616937 -0.089216314 0.13926406 -0.09908708
0003a0 2e fc 19 be 48 57 8b 3d 66 ef f8 bd 84 d0 21 3e
       -0.15037605 0.06803757 -0.12155037 0.15802199
0003b0 1c d5 b3 3c 71 0a e5 bd d7 ed 33 3d 43 92 ad bd
       0.021952204 -0.11183632 0.043927994 -0.08475163
0003c0 35 33 7e 3d 99 58 c7 bd 3b eb a7 bc a9 f4 28 3e
       0.062060554 -0.097336955 -0.020497909 0.1649958
0003d0 ef 88 8a 3d 01 69 db 3d 7a 71 fe 3d d9 8c 17 be
       0.06764399 0.10713387 0.12423988 -0.14799823
0003e0 d4 59 04 3e bc 54 22 be aa 24 ff 3d ea 72 85 bd
       0.12924892 -0.15852636 0.12458165 -0.06516059
0003f0 c5 f6 1e 3e 8f 75 d9 3d 8c e8 d0 bc 44 99 0a bd
       0.15523823 0.10618126 -0.025501512 -0.03383757

lstm.bias_ih_l0 f4 [128]
000000 be 6e 8e be bd f4 cc bd bc cf 02 3e 90 96 95 bd
       -0.27818865 -0.100076176 0.12774557 -0.07304108
000010 d0 ae 23 3e 55 cc b5 bd da fb ba bd 2f 33 e9 3d
       0.15984654 -0.08876864 -0.09130068 0.113867156
000020 76 4d 04 be 79 32 a4 3d 34 76 b3 3a f3 c3 f5 3c
       -0.12920174 0.080174394 0.0013691843 0.030000662
000030 56 3e 7f bd 97 7a fd 3d ed 51 9d be 84 0d ca bd
       -0.062315308 0.12376898 -0.30726567 -0.09865859
000040 87 b4 ff 3d 9c 1d a3 3d 79 ac ef bd 58 01 26 3e
       0.12485605 0.07964632 -0.117028184 0.1621145
000050 45 cb 17 3d 25 3b 2c be bd 9b bb 3d aa 57 6b 3e
       0.037059087 -0.16819437 0.09160564 0.2298266
000060 49 a7 31 3d 9d 5e 87 bd 70 f5 2a be 6f 22 07 be
       0.043372426 -0.06609843 -0.1669519 -0.13196729
000070 f0 d7 49 3d 09 b4 d3 3d 76 e2 30 be e6 21 8e bd
       0.0492782 0.10337073 -0.17273888 -0.06940059
000080 03 40 2f 3d 05 03 b3 3d cf ea 5b bd 3f e6 fd bd
       0.042785656 0.0874081 -0.053690728 -0.123974316
000090 b1 cc c5 3c a4 a2 fa 3d ca 78 f2 3a c1 7d 18 3d
       0.024145456 0.122380525 0.0018499133 0.037229303
0000a0 fa 40 b0 bd 8b 21 04 3d f6 2b aa 3d b5 65 26 bd
       -0.08606143 0.03225855 0.08309166 -0.04062434
0000b0 a2 53 4c bd 25 be 27 be 97 12 93 be f1 74 63 be
       -0.049884446 -0.16381128 -0.2872512 -0.22212578
0000c0 b3 c5 0b 3d 9a f5 83 3d ce a3 b0 bd d6 86 90 bd
       0.034124088 0.06443329 -0.08624993 -0.07056968
0000d0 88 a5 18 3d 6d 14 ca bc 58 a4 aa 3d 39 5c bb bd
       0.037267238 -0.024667943 0.08332127 -0.091484495
0000e0 05 97 0c be 84 f1 5c 3d 70 a0 e4 bc 07 7b dc 3c
       -0.13729484 0.053941265 -0.027908534 0.026914133
0000f0 a1 62 6a bd 22 64 01 bd 65 3d 81 3d 6a 5b db bd
       -0.057222966 -0.031589635 0.06310538 -0.10710795
000100 21 25 8d 3d 8d bb 40 3d 83 76 ec bc 91 69 52 3d
       0.068918474 0.047053862 -0.028865105 0.051370207
000110 b9 90 39 3d 1d b4 2e 3d 47 72 19 be bb ac 9e bd
       0.045304034 0.04265224 -0.14985 -0.077477895
000120 51 c4 ed ba dd ce 7e bd 53 8f 23 be b6 2b af 3d
       -0.0018140172 -0.062209 -0.15972643 0.08553259
000130 a0 e2 a7 3d 02 33 33 be f4 03 3e 3d 21 1d f8 3c
       0.08197522 -0.17499927 0.04639049 0.030287327
000140 a0 47 69 3e 51 e0 3b 3d ae e7 ff bd 82 0d 9f 3c
       0.22781229 0.04586822 -0.12495361 0.01941562
000150 93 39 c9 bb 83 e9 91 3c 38 6b 24 3d 2b b2 1e 3e
       -0.0061408966 0.017811542 0.040141314 0.15497653
000160 fd 7b 53 3d 8d 78 05 3e 58 61 71 3d 13 e5 df bd
       0.051631916 0.13034268 0.058930725 -0.10932364
000170 13 17 97 bd eb 01 43 3d 36 d5 a2 3d 02 f1 b3 3d
       -0.07377448 0.04760925 0.07950823 0.08786203
000180 d0 54 d6 bc ea ac be 3c 8e 9a 2c be 26 e8 aa bd
       -0.026163489 0.023275811 -0.16855833 -0.0834506
000190 3f bc 91 3d 5e 6f 87 3d 83 72 12 3d 38 6e b2 3d
       0.07115983 0.066130385 0.035753738 0.08712429
0001a0 45 3e c6 bd 77 1c 07 bd 53 a5 e9 bd 79 32 28 bd
       -0.09679846 -0.03298613 -0.11408486 -0.04106376
0001b0 f7 74 ce 3c e8 f5 9c bd 86 95 ac be fd 35 a8 3d
       0.025202258 -0.076640904 -0.33707827 0.082134224
0001c0 a5 26 7b bd 22 a1 d9 bd 07 47 b9 bc f2 6d 06 3e
       -0.06131615 -0.10626437 -0.022616876 0.13127878
0001d0 11 75 d9 bd ec 98 2e bd 88 e5 04 3e 43 ee 9f 3d
       -0.10618032 -0.042626306 0.12978184 0.07809117
0001e0 f6 b0 c0 bd ed 3f 86 bd 87 b2 e5 3d a7 6a 1e 3e
       -0.094087526 -0.065551616 0.11215692 0.15470372
0001f0 20 23 11 3d 76 47 10 bc 13 a6 f3 3c eb 6b 2d 3e
       0.03543389 -0.0088061 0.029742276 0.16935699

lstm.bias_hh_l0 f4 [128]
000000 31 74 37 3d 9c 8e f2 3d c9 f4 52 3c 62 d2 f0 ba
       0.044788543 0.11843607 0.012875744 -0.0018373246
000010 98 f2 e4 bd 96 37 53 be 82 a0 2b 3e b5 5e 50 3d
       -0.111790836 -0.20626673 0.16760448 0.05087157
000020 28 58 81 bd de 70 71 bd e3 9a bb bd a5 b6 ac 3d
       -0.063156426 -0.05894553 -0.09160402 0.08433274
000030 ff 45 ca 3b 91 15 e9 3d c5 23 a1 be be bc 7e be
       0.006172895 0.113810666 -0.31472602 -0.24876687
000040 cc 36 2e 3e a6 93 55 3d 05 6f 4b 3e c9 0c 41 3d
       0.17013091 0.05214276 0.1986657 0.047131334
000050 76 99 0c be 71 87 17 be 2a f9 1c 3e 61 a3 a9 bd
       -0.13730416 -0.1479776 0.15329424 -0.08283115
000060 e8 44 d4 3d e6 d7 4c bc e9 ec 43 3d f6 87 97 bb
       0.10364705 -0.012502646 0.047833357 -0.004624362
000070 54 a6 4f be 48 5b 33 3d a6 a4 2d be 20 af ce 3d
       -0.20278293 0.043788224 -0.1695734 0.10091996
000080 59 40 25 be 37 54 08 3e 7f e5 56 bd 32 67 c8 bb
       -0.16137828 0.13313375 -0.05246496 -0.0061158175
000090 fa b7 b9 bd 62 99 5a 3d c6 04 f7 bd 34 7f a1 bd
       -0.09068294 0.053368933 -0.12061457 -0.0788559
0000a0 13 99 12 3e f4 ca 08 be 33 f6 00 be b1 73 1a be
       0.14316206 -0.1335867 -0.12593918 -0.15083195
0000b0 af 61 e1 3c e0 ca 3c bd dc 44 87 bd 36 14 c3 ba
       0.0275124 -0.046091914 -0.06604931 -0.0014883343
0000c0 8f c1 aa 3d 9a 51 d0 bb 29 21 10 be a8 6d d7 bd
       0.083376996 -0.006357384 -0.1407515 -0.10518962
0000d0 ff b0 29 3d 79 5e 68 be 28 23 07 3e 31 10 0f bd
       0.041428562 -0.22692288 0.13197005 -0.03492755
0000e0 07 d8 40 3e a6 7e 12 be 7a 24 3a be 77 5d 2c be
       0.18832408 -0.14306125 -0.18177977 -0.16832529
0000f0 d8 1d 43 be 2a 9c 3a be 79 c1 40 bd 13 64 37 3e
       -0.19054353 -0.18223634 -0.04705951 0.17909269
000100 67 54 07 be 01 d9 06 be a0 33 01 3d 9e 25 a4 3d
       -0.1321579 -0.13168718 0.031543374 0.080149874
000110 1b 1f ac bd c9 20 83 3c aa 1f 92 bb d7 d2 12 3d
       -0.084043704 0.016006844 -0.004459341 0.035845604
000120 c0 e3 8e 3c 72 78 54 bd ea ba 23 bc be 75 7d bd
       0.017442584 -0.051872678 -0.009993294 -0.061879866
000130 3a 1c d8 3d 45 01 84 bd e2 14 d7 3d 92 fa 46 3c
       0.10552259 -0.06445555 0.1050203 0.012144702
000140 41 4d 3f bd 5a ff aa 3d 52 3a 8b 3d 21 14 18 be
       -0.046704534 0.08349486 0.06798233 -0.14851429
000150 9d db 9d bd 17 2d 9a 3d 60 f4 06 be 76 e4 0c be
       -0.077079035 0.075281315 -0.13179159 -0.13759026
000160 b0 72 ce bd 27 93 f4 3c ec fe 46 bd 25 a9 0f 3e
       -0.10080469 0.029855324 -0.048582956 0.14029367
000170 bb 88 aa 3d e6 b9 bc 3d d8 06 e4 3d 10 23 a4 bd
       0.083268605 0.09215145 0.11134118 -0.080145
000180 17 8d b9 bd f5 5d a6 bd 04 69 0a 3e ce ab 90 3d
       -0.09060114 -0.0812339 0.13516623 0.07064019
000190 0b e4 47 3d f1 16 12 be 6a 2b 02 3e 29 6c 89 bc
       0.048801463 -0.14266564 0.12711874 -0.016775208
0001a0 ca 82 2a 3d 2f 56 fa 3d 1b 0d 12 3b cb 04 e4 bd
       0.041628636 0.122234695 0.0022285643 -0.11133727
0001b0 7f 0b a9 3d e9 a1 5f 3d 0e 9c 31 be 0e 76 21 3d
       0.08254146 0.05459777 -0.17344686 0.039419226
0001c0 a2 e3 8a bd 04 d4 0e bd 07 37 98 bd 99 95 31 3c
       -0.06781699 -0.034870163 -0.07432371 0.0108388895
0001d0 ce 92 b1 3d fc c6 8d bd f0 64 aa 3d 5d 10 89 3d
       0.08670579 -0.06922719 0.083200336 0.06692574
0001e0 48 36 4e 3e cf cd d1 3d 97 36 66 bd 6f eb a8 bd
       0.20137894 0.10244333 -0.056204405 -0.082480304
0001f0 f1 33 86 bd dd 28 12 be 1f 12 1f 3d 77 ca 2d 3d
       -0.06552876 -0.142734 0.03883564 0.042429414

lstm.weight_ih_l1 f4 [128, 32]
000000 c2 1d 61 3c ba fe 36 3e 59 cf 0c bc 9c 4b de 3c
       0.013740005 0.17870608 -0.008594357 0.027135663
000010 08 8a 3e 3d a3 56 76 3e ed cb 1a bc b3 d2 86 bd
       0.046518356 0.24056487 -0.009448034 -0.065831564
000020 08 b0 84 bd 42 6a d4 bd f0 26 89 3e 97 b0 ee bd
       -0.06478888 -0.103718296 0.2678752 -0.116547756
000030 21 33 12 be ed 78 1a bc 85 73 18 3d 61 0d f6 3d
       -0.14277317 -0.009428245 0.037219543 0.120142706
000040 1a 40 6b bd 3e 22 90 bd da 5a 4e be 79 7d fe 3d
       -0.05743418 -0.07037781 -0.20151845 0.12426276
000050 92 24 ab bd 59 0d 45 be 7e e2 c2 ba 2f 3a b4 3c
       -0.083565846 -0.19243373 -0.0014868525 0.0220004
000060 f3 68 b0 3c c9 38 19 3d 20 e0 40 3c 60 37 87 bd
       0.021534419 0.03740767 0.011772186 -0.06602359
000070 cd b5 42 be 2e 5b 9a bd 09 5a a8 bd f1 00 1c 3e
       -0.19014664 -0.075369224 -0.08220298 0.15234734
000080 d3 0f 4b be c4 66 ab 3d 93 e7 ae bd 8b d8 ba bd
       -0.19830255 0.0836921 -0.08540263 -0.091233335
000090 bf 4d 15 3e 25 23 bb bb 5f 2f 84 be a8 37 de 3d
       0.14580439 -0.0057109767 -0.2581739 0.10850459
0000a0 65 70 99 bd 80 48 5c 3e 30 0a 3b 3e c4 46 48 bd
       -0.07492141 0.21512032 0.18265605 -0.048895612
0000b0 24 01 f1 bc b7 eb c9 3d 6b 44 71 be 66 db 1a bd
       -0.02941949 0.09859412 -0.23561256 -0.03780689
0000c0 61 e6 52 3d 5b e0 44 3d b3 ba b7 3d 55 ee 9b bd
       0.051489238 0.048065525 0.08971157 -0.076138176
0000d0 a5 8a 06 3e 3c aa 02 3e 08 0d 8b 3d 21 aa 95 bb
       0.13138826 0.12760252 0.06789595 -0.0045674
0000e0 86 77 1a be ac cb cd bd 45 ae 0d be 58 de 28 bd
       -0.15084657 -0.10048613 -0.1383601 -0.04122767
0000f0 b2 77 07 bd 7e 05 10 3e 85 c8 f1 3d d4 e2 91 3d
       -0.033073135 0.14064595 0.11805824 0.07123342
000100 68 da 0e 3e 8b 16 ad 3d 5b 3e 40 be 64 52 fb bc
       0.13950503 0.08451565 -0.18773787 -0.030678935
000110 66 80 75 3e 78 2d fb 3c e9 4d 1d 3e c0 14 03 bd
       0.23974761 0.03066133 0.15361752 -0.03200221
000120 ec 8a cb bd 20 9f 27 3e 15 0d c1 bd 75 bc 84 3c
       -0.099386066 0.16369295 -0.09426323 0.016203145
000130 43 14 dd bc 20 48 4d 3d c7 93 e7 3b da cc 15 be
       -0.0269872 0.050117612 0.007067177 -0.14628926
000140 3e c6 51 be de 02 a6 3d db 71 58 3e b3 5a 1e 3e
       -0.2048578 0.081060156 0.21137182 0.15464287
000150 51 d0 94 3e 78 30 9e bd 63 27 5f be 2f 3b aa 38
       0.29065183 -0.077240884 -0.21792369 8.1172555e-05
000160 7e 59 6a be 62 0f 44 be 77 bc 78 bd e0 96 de 3c
       -0.22885701 -0.19146493 -0.06072661 0.027171552
000170 0f c0 e8 3d eb 66 14 3e ca 00 44 bc 32 16 9d be
       0.11364757 0.14492385 -0.011963079 -0.30680996
000180 34 2b 49 ba 0c dc d8 3c 4d ee 1a be c1 5a 27 be
       -0.0007673979 0.026472114 -0.15129967 -0.16343214
000190 04 0b 60 bd b4 c4 81 bd 1c ac 82 bd 75 8a c7 bd
       -0.054698005 -0.06336346 -0.063804835 -0.097432055
0001a0 1c f7 be bd 32 1d 0f 3e 69 b1 2a 3e 60 6c 21 3e
       -0.09324476 0.13975981 0.16669239 0.15763998
0001b0 d7 75 f8 bd ec 00 89 bc 72 c4 4d be 38 31 89 3d
       -0.12131851 -0.016724072 -0.20094469 0.06698841
0001c0 48 c8 21 be 55 95 11 be 79 df 92 3d b8 fc 3b be
       -0.15799057 -0.14217122 0.0717153 -0.18358123
0001d0 80 64 49 3d 0e 94 c0 bb 3d 5c d7 bd 10 f6 25 3e
       0.04916811 -0.0058770245 -0.1051564 0.16207147
0001e0 d7 38 a7 bd 07 6b 5c bd 24 b8 cf bd f3 6a 27 be
       -0.08165138 -0.053813007 -0.10142544 -0.16349392
0001f0 73 dc ad bd ce d1 52 3c 01 d4 4f be 32 47 d6 3c
       -0.08489313 0.012867404 -0.20295717 0.026156995
000200 48 98 e6 3d 27 f4 ec 3d 88 9e 9d 3d 69 07 37 bd
       0.11259514 0.11570006 0.07696253 -0.0446848
000210 9c a1 ff bd 47 cf 14 3e 36 f8 1f 3d ce 44 10 3e
       -0.124819964 0.14532195 0.03905507 0.14088747
000220 0b a2 95 3d a1 72 d6 3c 05 aa 89 3d dc 8e 37 3d
       0.07306298 0.026177706 0.06721882 0.044813976
000230 1e 58 11 3c e9 0b 01 3e 76 8a f0 bd 79 6d 25 bd
       0.008871106 0.126022 -0.11745159 -0.040387604
000240 a8 81 39 be 36 57 59 be 7f 2d 46 be a0 b3 02 3d
       -0.18115866 -0.21224675 -0.19353293 0.031909585
000250 e6 21 a2 3c c7 c1 64 be 05 7b 8c 3e ee 3b 29 3e
       0.019791555 -0.22339545 0.27437606 0.16526768
000260 2e 13 1b b9 ad e7 a5 bc 98 11 d5 3d cb 9b 06 3e
       -0.00014789097 -0.020252073 0.10403746 0.13145368
000270 11 1c 17 be a1 2f b8 bc 6b de c2 3d 5f 6f 56 bd
       -0.147568 -0.022483649 0.09515079 -0.052352306
000280 8b 96 0d bc a5 22 a3 3d 93 64 f5 bd d8 3a 06 be
       -0.008641849 0.07965592 -0.11982074 -0.13108385
000290 96 89 00 3e 46 89 ac bd 84 18 a2 3c a6 bc 07 be
       0.12552485 -0.0842462 0.01978708 -0.13255557
0002a0 80 66 84 3d 72 5c 9a 3d b7 13 e8 bd 8f 72 2f bd
       0.06464863 0.07537164 -0.11331885 -0.04283386
0002b0 d7 11 ca bc e4 11 03 3e 59 ff 1d 3e 7b 18 1f 3d
       -0.02466671 0.12799793 0.15429439 0.038841706
0002c0 05 05 51 be fd 61 94 3c 35 d8 06 be 73 21 70 3e
       -0.20412071 0.01811313 -0.13168414 0.2345026
0002d0 82 ef 02 3e b8 b6 14 bd 87 d0 23 3a cb f7 82 3d
       0.12786677 -0.036307067 0.00062490295 0.06394919
0002e0 fa 91 0b 3e dd 83 ba bd 3b 38 9f 3d ac 74 2e 3e
       0.13629904 -0.09107182 0.07774397 0.17036694
0002f0 06 0c 2b 3e 15 f9 66 be 5b 61 0a 3e 5c 68 1f 3e
       0.16703805 -0.22555955 0.135137 0.15567154
000300 fb 50 7c bd 95 f0 4b bd e1 56 1f 3c e8 fd 01 be
       -0.061600666 -0.049789984 0.009725303 -0.12694514
000310 c4 5d e2 bd 65 3a 42 3e 07 69 71 3d 61 1a fa 3d
       -0.110530406 0.18967588 0.058938053 0.122120626
000320 24 8b d6 bd 12 00 f9 bd bf 61 dd 3d ff 95 2f bd
       -0.10475758 -0.121582165 0.10809659 -0.042867657
000330 82 a8 e9 3b f1 2a 52 bc b2 45 3f 3e 82 70 da bd
       0.0071306834 -0.012827621 0.1867893 -0.106659904
000340 e7 20 25 be fe 7f 24 bc 72 54 c9 bd 7c 14 85 bd
       -0.16125832 -0.010040281 -0.0983056 -0.06498048
000350 05 b4 85 bd c1 c1 3b be b7 ef 4b 3e 0c a0 a3 3d
       -0.065284766 -0.1833563 0.19915663 0.07989511
000360 d9 65 6c 3e d5 4b c7 3d 18 0d 19 3e ae 21 2d 3e
       0.23085727 0.09731261 0.14946401 0.16907379
000370 ea 1d 13 bd 39 e8 e8 bd 1a 4e 90 bd eb 45 2b 3d
       -0.0359172 -0.11372418 -0.07046147 0.041814726
000380 09 6c ea bd 85 d2 cf bc 79 5c 15 3c 60 c7 cc bc
       -0.11446387 -0.025368938 0.0091162855 -0.024997413
000390 ee 3e 3a 3e fa fe 31 3e 6b b2 60 3e 4b 18 1f 3e
       0.18188068 0.17382422 0.21943061 0.15536611
0003a0 b9 42 08 3e 14 dc 15 3e 1d 29 22 3e e3 2d 3b be
       0.13306703 0.14634734 0.15835996 -0.18279223
0003b0 ba 06 e5 3d bf a9 9e bc 23 e4 12 3e 30 ab ec 3d
       0.111829236 -0.01936805 0.1434484 0.11556089
0003c0 4b 1d 3b be 89 ea dc bd df d6 94 3c 02 43 ce 3c
       -0.18272893 -0.107869215 0.018168865 0.025178436
0003d0 d2 9a 22 be 0d b9 9f 3c e7 98 44 3d 3b 68 0d 3d
       -0.15879372 0.019497419 0.04799738 0.03452323
0003e0 0b d4 e8 3c 7c 83 49 3d a4 15 0c 3e a0 2e 1c 3e
       0.028421422 0.04919766 0.1368013 0.15252161
0003f0 61 cb 59 3d b1 fb 5c be 2d ff dd 3c 66 43 22 be
       0.053172473 -0.21580388 0.027099216 -0.15846023

lstm.weight_hh_l1 f4 [128, 32]
000000 8e 2d a1 bd 8c 5c 64 3e 5c 4e 02 3e 8e 8d 2e 3e
       -0.07870017 0.22300929 0.12725204 0.17046186
000010 bd 46 09 bc 0d a4 f7 3d bc d6 be 3d e1 eb 15 3e
       -0.008378682 0.12091837 0.09318301 0.14640762
000020 87 e1 1b 3d 92 7a 03 3e 58 0e e9 3d f2 2b 12 be
       0.038056877 0.12839726 0.11379689 -0.14274576
000030 de cc 0e bd 1e bc ee 3d c1 f2 02 be 4d 4c b3 bd
       -0.034863345 0.11656974 -0.12787916 -0.087547876
000040 93 5b 70 3c a8 70 0b 3b f5 36 9b bc eb b2 a7 bc
       0.0146702705 0.0021276865 -0.018947104 -0.020471057
000050 6a 1a 8f bd 3d fc 26 3e aa 9c bd bb e7 05 43 bd
       -0.0698746 0.16307159 -0.005786498 -0.04761305
000060 9b e4 42 be 99 33 32 be 64 a9 40 be 42 18 bb bd
       -0.19032519 -0.17402495 -0.18814617 -0.09135486
000070 ea e7 c5 bd 3f 8b aa 3d 45 51 3f bd 95 9b 58 3e
       -0.09663375 0.0832734 -0.046708364 0.211531
000080 6f 28 41 3e ab f4 2e be 89 48 53 bc b8 3a b4 3c
       0.1886308 -0.17085521 -0.012895712 0.022000656
000090 a1 1d 24 3d a2 0b a4 3d 79 4a 94 bd a0 40 5e be
       0.04006732 0.08010031 -0.07240767 -0.2170434
0000a0 04 3d fc 3d 38 0b f4 bc 3b 4b b6 bd 35 52 89 bd
       0.12316325 -0.029790506 -0.08901068 -0.06705133
0000b0 f6 e1 66 bd f5 e5 11 3e 52 12 4c be 20 f6 1c be
       -0.056367837 0.14247878 -0.19928864 -0.15328264
0000c0 cb ff 21 3e 19 b7 2f be 17 af d5 3d 3c 02 49 be
       0.15820234 -0.1715969 0.10433786 -0.19629759
0000d0 2e d3 51 be 95 00 69 bd a3 b3 df bd 73 47 6a bd
       -0.20490715 -0.05688532 -0.10922935 -0.057197046
0000e0 f5 97 92 3d e8 bc 77 3d 97 8b 33 3d 93 20 3e 3e
       0.0715789 0.06048289 0.043834295 0.18567114
0000f0 dc 31 13 3e fb 15 cf 3d d9 ea 46 3e 4a a7 ae 3c
       0.14374489 0.10111614 0.19425525 0.021320004
000100 9e 26 f1 3d 76 6c 0f 3e f5 30 dc 3d e3 7b 53 3e
       0.11774944 0.14006218 0.10751525 0.20652728
000110 18 fc 2f 3e ce 85 59 3d 1c 2e 75 3d e8 8f 16 be
       0.1718601 0.05310612 0.059858426 -0.14703333
000120 ad c9 4b bc b7 48 65 be 13 43 d6 3d af 61 08 3e
       -0.01243822 -0.2239102 0.10462012 0.13318513
000130 5a ef 0e bc e7 9b f7 3d da a5 35 be b6 a7 0e 3e
       -0.008724058 0.12090283 -0.17739049 0.13931164
000140 f2 00 f4 3d 83 f7 b5 3d b8 64 5f 3e 9e ef 1b 3e
       0.11914243 0.088851 0.21815765 0.15228125
000150 05 ec 8b 3d 95 e9 69 3d 56 a3 74 3e 4f 85 4c be
       0.068321265 0.057107527 0.23890433 -0.19972728
000160 94 09 6f 3d 00 aa 2e bd 20 57 c3 3d 3c 5b 20 3e
       0.058358744 -0.042642593 0.09538102 0.15659803
000170 ec ab 23 3e 17 18 a3 bd 2d 9b 46 3d 8e b8 ed bd
       0.15983552 -0.07963579 0.04848783 -0.11607467
000180 43 51 13 bd 3e cf fd 3c a1 89 aa 3d 11 c7 22 3e
       -0.03596617 0.03098261 0.08327032 0.1589625
000190 04 33 14 3c 00 cd 3e be 85 dc 78 3c ba 06 ed bc
       0.009045366 -0.18632889 0.015189295 -0.028933872
0001a0 69 86 57 3e ae ed 46 be 26 22 89 3d 66 7f 94 3d
       0.21047367 -0.19426605 0.066959664 0.07250862
0001b0 af 39 22 3c de d0 17 3d 23 1b 9e bd d4 60 df 3d
       0.009901448 0.037064426 -0.0772002 0.109071404
0001c0 cc 4b a6 3c ec 81 00 be a8 c3 f0 3d 1f db 22 3d
       0.020299815 -0.12549561 0.117560685 0.03975975
0001d0 e9 0e cf 3b 99 34 08 3d 74 87 54 3e c5 6b 7e bd
       0.006318916 0.033253286 0.20754796 -0.062114496
0001e0 00 f4 1e bd 4c a9 a6 3c a2 81 96 3d 70 9d 3e 3b
       -0.038806915 0.020344399 0.07348944 0.002908554
0001f0 1d c9 e9 bd dc 98 21 3c 1c 94 e6 3c 77 68 4b 3d
       -0.114153124 0.009863105 0.028146796 0.049660172
000200 1b 05 a2 bd 1f 26 27 3d 8a 07 17 be bf 44 78 bd
       -0.0791113 0.04080784 -0.1474897 -0.060612436
000210 a4 f6 e0 bc 1f 72 21 be 1b 69 b5 bd 9a ac 5e bd
       -0.027461357 -0.1576619 -0.08857938 -0.054363824
000220 40 ee e4 bd 62 a5 96 bd 6b aa a1 3c fc 91 68 bd
       -0.11178255 -0.07355763 0.019734582 -0.056779847
000230 b7 f1 90 bd bb ae 81 bc b3 3d 52 bd 8d ac 3a 3e
       -0.070773534 -0.015830388 -0.051328372 0.18229885
000240 d8 4f 9f bd 66 aa 36 bc 1a 68 28 be f4 c6 e4 3d
       -0.07778901 -0.011149025 -0.16445962 0.1117076
000250 f2 8d 62 bd 01 47 dc 3d a9 f7 ed 3c 5c bd 15 bb
       -0.05531115 0.107557304 0.029048758 -0.0022848463
000260 5f 69 0e be 88 ee a0 bd e4 48 61 bd 7d 01 ae 3c
       -0.13907383 -0.07857996 -0.055001155 0.021240944
000270 8c 8c 0b be ea c8 ef 3c a8 00 2f bc a6 fb 17 bd
       -0.13627833 0.029270608 -0.010681309 -0.037105225
000280 73 d1 28 3e 61 c1 48 3d 81 04 19 be a2 27 ad bd
       0.16486149 0.049012545 -0.14943124 -0.08454825
000290 22 a7 07 3e 82 06 84 3d 48 9e fa 3d ee 1b 36 be
       0.1324735 0.06446554 0.12237221 -0.17784092
0002a0 1e 8c c4 3d a5 9c 2f bd b8 04 c1 3d 37 93 07 be
       0.09597038 -0.042873997 0.09424728 -0.13239752
0002b0 08 ca 8c 3c ad 31 26 bd 05 aa 66 3d bf 7d 3a bc
       0.01718618 -0.04057472 0.056314487 -0.011382519
0002c0 cc d0 ba bd 05 49 76 3c 0b c6 cd bd 26 df 25 3e
       -0.09121856 0.015032058 -0.10047539 0.16198406
0002d0 8d 8e a7 bd fb 99 8b 3c f2 74 f4 bd 2c ba 21 3d
       -0.08181486 0.017041197 -0.11936368 0.039484188
0002e0 6c aa 34 3d 15 7c db 3d 0d fb 8a 3d cf 58 db bd
       0.04410784 0.10717026 0.067861654 -0.10710298
0002f0 e2 54 3b bd 78 f8 0a bd da a9 ae 3d a0 d5 0a 3e
       -0.045735247 -0.033928365 0.0852849 0.13558054
000300 2a 58 09 3e 16 d7 67 3e 42 ad 2a 3d a2 07 4d 3d
       0.13412538 0.22640643 0.041669138 0.050056107
000310 f0 70 74 3d 85 4c 80 bd f1 b1 f4 3d 97 2d 49 bd
       0.059678018 -0.06264595 0.11948002 -0.049115743
000320 c7 55 fe bd 09 fd 81 3d 97 03 2a 3d 4b 6c 0b bd
       -0.124187045 0.06347091 0.04150733 -0.034038823
000330 1d d6 05 3e b5 46 32 3e ce 1d aa 3c 7f ee 4b bd
       0.13069959 0.17409785 0.020766165 -0.049787994
000340 ee 3a 15 3d 5c 49 33 bd a8 8d 75 bc b2 cc 11 bb
       0.036433153 -0.043771133 -0.014987387 -0.0022247252
000350 fd 26 c7 bc f7 d4 d9 b9 15 33 c5 3c 45 6c 0c 3e
       -0.024310583 -0.00041548137 0.02407221 0.13713177
000360 67 9b a9 bc 66 3b 3a 3e dd 68 29 3e 94 ea b5 3c
       -0.020703984 0.18186721 0.16543908 0.022206582
000370 d9 ce 24 be 18 ec a7 bd 46 4f 25 3e 3e 1b 70 3e
       -0.16094531 -0.08199328 0.16143522 0.23447892
000380 bc 85 06 be 8c 2b a2 bd 41 50 94 bc e7 48 e3 3d
       -0.13136953 -0.07918462 -0.018104674 0.110978894
000390 bb 23 0b 3d e7 a6 8c bd 5a e1 cc bc a7 1f 06 bb
       0.033969622 -0.068677716 -0.0250098 -0.0020465644
0003a0 e2 1e 9b 3d d0 e9 f9 3c 71 15 df 3d 1f b2 96 bc
       0.0757425 0.030506998 0.108927615 -0.018395482
0003b0 c7 7a 5d bd 2d 93 d4 bd 9e f7 05 3e b1 fa ba 3d
       -0.054072168 -0.10379634 0.1308274 0.09129847
0003c0 ea 85 16 be af 9e d5 3d d4 f8 5c bd e2 5f a0 3d
       -0.14699522 0.10430657 -0.05394824 0.07830788
0003d0 64 92 ca 3d 6e da de bd e3 a6 4a bd b7 f6 a3 3d
       0.09891203 -0.10881506 -0.04947556 0.080060415
0003e0 df 77 34 3e 0f 7d 45 3d 20 01 0c 3e 59 b3 23 3e
       0.17623852 0.04821497 0.13672304 0.15986384
0003f0 9f 51 ee 3d e6 08 93 bd 49 4c 86 3d dc 47 15 be
       0.11636662 -0.071794316 0.06557519 -0.14578193

lstm.bias_ih_l1 f4 [128]
000000 59 b4 ad 3c a5 38 c9 3d 3f 91 72 be 54 b0 95 3d
       0.02120416 0.09825257 -0.2368822 0.073090225
000010 41 e8 0d 3e c8 d1 57 3d 14 83 aa bd 4a df 75 bd
       0.13858129 0.052690297 -0.083257824 -0.0600274
000020 97 2e 5e be e5 dd 7a bd 77 0d ac 3d 95 c1 87 bd
       -0.2169746 -0.06124677 0.08401006 -0.0662872
000030 43 32 9e 3c 8e 55 0b 3e 5a 72 90 3d 44 c2 10 3e
       0.019311076 0.13606855 0.07053061 0.14136606
000040 02 c9 f2 bc 98 8e 47 bd a6 cc f9 3c 30 62 c8 3d
       -0.029636864 -0.048719972 0.030493092 0.09784353
000050 9c fd a3 3c 70 dc 1c 3e 6d 02 64 3d 58 89 f8 3a
       0.020018391 0.15318465 0.055666376 0.001896183
000060 90 e4 59 3d de 43 99 bd a8 b1 4c 3e 0f 3a b1 3d
       0.05319649 -0.07483648 0.19989645 0.08653652
000070 37 a3 22 3d a8 d6 61 be 73 4a 7d bd 36 bf 59 be
       0.039706435 -0.22054541 -0.06183858 -0.21264347
000080 09 51 88 bd aa fd 35 be 05 fe 65 bc c5 64 00 be
       -0.06656081 -0.17772546 -0.014037614 -0.1253844
000090 f0 94 84 3d 28 29 0e 3e 73 b1 1a 3d 73 a8 61 3d
       0.0647372 0.13882887 0.037766885 0.055092286
0000a0 a7 f1 04 3d c4 4c 48 bd 13 04 69 be c3 70 7e 3c
       0.03245702 -0.048901334 -0.2275546 0.015529814
0000b0 c6 5f 02 be df be e9 3d 6f 98 1b bd 5b 2f 11 be
       -0.12731847 0.11413359 -0.03798717 -0.14178221
0000c0 1f 1a 26 3e f7 fe 02 be 41 59 29 3e 9c 34 bc bc
       0.16220902 -0.12792574 0.16537954 -0.022974305
0000d0 d6 38 43 be 04 e8 b3 3d 21 84 2f be c7 be 58 bd
       -0.1906465 0.08784488 -0.17140247 -0.052916314
0000e0 63 0b 30 3e c0 e5 8a 3d a6 a3 be 3d d1 bc 0d bc
       0.17191844 0.067821026 0.09308557 -0.008650974
0000f0 8d b9 51 be 1a b3 ab bd c6 0f 82 3d cd 54 b4 3c
       -0.20480938 -0.0838377 0.06350665 0.022013092
000100 71 d1 24 be 9d f7 f0 bd ae e7 52 3c 73 66 72 3d
       -0.1609552 -0.117659785 0.01287262 0.059179734
000110 86 ce ce bd 80 76 7e bc 81 5c 24 be 20 1a e2 3d
       -0.10097985 -0.015531182 -0.16050912 0.11040139
000120 ab c7 41 3d 2a 46 6d 3d 07 81 95 3d 79 27 1d bb
       0.04730956 0.05792824 0.07300001 -0.0023979826
000130 d1 a9 87 3d e7 4e a4 bd 8d 03 b4 3c 88 4d 05 3d
       0.06624187 -0.08022862 0.02197435 0.032544643
000140 52 14 f2 bd b3 b8 9f 3d e4 7f 04 be e7 bd 63 3c
       -0.11820282 0.077989005 -0.12939411 0.013900257
000150 5f 74 59 be a1 7a e4 bd ab a1 11 be 24 12 2c 3e
       -0.21235798 -0.11156202 -0.14221828 0.16803795
000160 b1 b3 5a be 4f 62 0f be b2 fc 3b be 0a fd 10 be
       -0.2135761 -0.14002346 -0.18358114 -0.14159027
000170 fa b4 cf 3d 3d 5b 37 bd 02 bb 9d 3b a1 40 8d bb
       0.101419404 -0.044764746 0.004813553 -0.004310683
000180 d9 20 d7 3d 2c 8d b1 bd d9 fa 2d be b4 1f c9 bd
       0.10504312 -0.086695045 -0.16990222 -0.098205
000190 51 96 a8 3d 8c 85 2f be d1 53 15 bd d6 93 e6 bd
       0.082317956 -0.17140788 -0.036456887 -0.11258666
0001a0 47 6d 4e 3d 7c 22 0a be ee 4d bd 3c 94 70 e3 3b
       0.050397184 -0.13489717 0.023108449 0.0069409106
0001b0 18 52 96 bd ef ca d9 3d e2 73 fa 38 fc af 3d be
       -0.07339877 0.1063441 0.00011942514 -0.18524164
0001c0 0a d4 49 bc c1 c7 24 3d 4b 3e 23 bd 4b a3 13 bd
       -0.01231862 0.040229563 -0.03985433 -0.0360444
0001d0 b9 bb ce bd 09 e3 49 bc 2f d9 0f 3e 08 71 32 3e
       -0.10094399 -0.012322196 0.14047693 0.1742593
0001e0 7a fe f0 3c 0a 0e 15 be ee e8 f0 bd 02 db 31 3e
       0.029418219 -0.14556137 -0.11763178 0.17368701
0001f0 49 ae 9d bd da 53 c8 3c dd 38 8b 3c 3e 44 15 be
       -0.07699258 0.024454046 0.016994888 -0.14576814

lstm.bias_hh_l1 f4 [128]
000000 6b 34 2f 3d 04 8b 43 be 0d 4a 6e be f3 c5 9e 3d
       0.0427746 -0.19095999 -0.23270436 0.077525996
000010 23 73 63 3d 5b 56 fe 3d ea 76 8b 3d 5c 89 1f be
       0.055529725 0.12418815 0.068097904 -0.15579742
000020 e3 6e 49 be a7 b4 78 3d 69 be 27 be 03 05 a5 bd
       -0.19671206 0.06071916 -0.1638123 -0.080575965
000030 bd 89 fe bc e9 52 cd bd f1 91 65 3d d6 99 b7 3d
       -0.031071538 -0.100255795 0.056047384 0.08964889
000040 a1 6b 43 3e 7e 74 53 be ff 62 2c 3e 37 e4 f4 3d
       0.19084026 -0.20649907 0.16834639 0.11957591
000050 f1 c5 fc bd bd 54 03 be 1b 85 3c 3d cb 66 bf bd
       -0.12342442 -0.12825294 0.046025377 -0.09345778
000060 7d 47 d1 bd e6 39 ce 3d f3 66 86 3d 28 ae ad 3c
       -0.102187134 0.10069637 0.06562605 0.021201208
000070 12 cf 03 be 9c 4c 5c bd 01 c0 b5 3d c4 81 a3 bc
       -0.1287196 -0.053783998 0.088745125 -0.019959338
000080 c8 01 eb 3d bb 4e f5 3c 5a 7e 98 bd 51 79 51 be
       0.11474949 0.029944768 -0.07445975 -0.20456435
000090 18 77 26 be 2f 51 38 be b2 c6 86 bd 5e 5d 11 bd
       -0.16256368 -0.17999719 -0.06580867 -0.035489433
0000a0 1c cf 6b be c4 a4 e5 bd bd 98 6b bd d1 21 1b be
       -0.23028225 -0.11213067 -0.05751871 -0.15149619
0000b0 67 45 13 be 1c d8 1f 3d 18 e2 0a be 7d a7 39 be
       -0.14381944 0.039024457 -0.1356281 -0.18130298
0000c0 e7 40 26 3e a1 74 b6 bc a2 eb 3e bd b1 d5 5e 3d
       0.16235696 -0.02227241 -0.046611436 0.05440301
0000d0 b5 6b bf bd b2 a6 54 bd 86 31 7d 3d d7 21 71 bd
       -0.09346715 -0.051916786 0.061814807 -0.058870163
0000e0 3c 80 23 bd 32 9a 25 3d e4 8f 0c be e2 1f 12 3e
       -0.039917216 0.040430255 -0.13726765 0.14269975
0000f0 97 d0 e3 bd a1 4c 68 be cc 1e 09 3e d5 7d ff bd
       -0.1112377 -0.22685482 0.13390654 -0.124751724
000100 9d 4a 3c 3d 07 d5 61 3d be 88 87 bd 98 6d 36 be
       0.045969594 0.0551348 -0.066178784 -0.17815244
000110 98 82 1a be 49 61 14 3e 38 e0 80 bd 6d bc 3d 3d
       -0.1508888 0.14490236 -0.06292766 0.046322275
000120 e1 22 5e 3d d5 79 d8 bd b3 a3 6e 3d 3b 6e f2 bc
       0.054232482 -0.105701126 0.058261584 -0.029593578
000130 12 58 ab 3c e7 f6 1d be 6d df 3d 3e 33 65 b7 bd
       0.020916019 -0.15426217 0.18542261 -0.08954849
000140 9c 41 5f bd a2 b1 07 bd 7b f6 0a be 0d bd af bd
       -0.05450593 -0.03312839 -0.13570587 -0.085809804
000150 c1 37 06 3c cf 02 18 3e 21 51 37 be 25 3f fd bd
       0.008192004 0.14844821 -0.17902042 -0.123655595
000160 23 ab 55 be 51 10 b4 ba 51 e3 1e bc 5e cf 37 be
       -0.20866065 -0.0013737773 -0.009697751 -0.17950198
000170 27 ef 29 bd 0f 54 ac 3d be 11 07 be d3 79 2e 3b
       -0.04148784 0.084144704 -0.13190362 0.0026622906
000180 a5 dc 2c 3e e2 3d 91 bd e1 52 27 be 0f 32 06 3e
       0.16881044 -0.07091881 -0.1634021 0.13105033
000190 c0 91 ee 3b dd 37 87 bd 48 96 a4 b9 22 a7 b6 3d
       0.0072805583 -0.06602452 -0.00031392486 0.08918597
0001a0 e9 10 54 be 1e 17 e9 bc 68 fe a2 bc 01 e2 51 be
       -0.20709576 -0.028453406 -0.019896701 -0.2049637
0001b0 64 37 a2 3d 11 7a d3 bd 02 3f f1 3d d6 06 b7 3d
       0.07920721 -0.10326017 0.11779596 0.08936851
0001c0 7f f8 41 bd 99 7f eb bc 20 6d 14 3e e2 51 4f be
       -0.047356125 -0.028747367 0.14494753 -0.2024608
0001d0 f6 c4 02 be c6 10 c2 3c 33 99 1b 3e 7f d0 42 3a
       -0.12770447 0.023689639 0.1519516 0.0007431581
0001e0 fd 9d 1e 3e 5c 56 25 3e 36 ed 31 3e 34 aa 4b 3e
       0.15489955 0.16146225 0.17375645 0.19889146
0001f0 42 ce 08 3b b3 19 3a be 28 90 27 be 66 d6 41 3d
       0.0020874892 -0.18173866 -0.16363585 0.047323607

fc.weight f4 [1, 32]
000000 b8 27 34 3e df 1e 0e 3e 74 15 8f 3d e0 d5 f5 3d
       0.17593277 0.13878964 0.06986514 0.12003684
000010 73 6c ef 3d 85 b5 b4 bd 0c 56 f0 3d 01 4d 37 bd
       0.11690607 -0.088236846 0.11735162 -0.04475117
000020 bc 89 d8 3d f8 7d 12 bd 39 37 bd 3d 34 da 89 3d
       0.10573146 -0.035764664 0.092390485 0.06731072
000030 2f 88 41 3d 1b 3f 29 3e f9 b2 99 bc a8 1b 1e 3e
       0.047249015 0.16527979 -0.018762099 0.15440238
000040 0f 26 0d 3e e0 26 bf 3d d2 32 3f 3e f1 59 0a 3e
       0.1378405 0.09333587 0.1867173 0.13510872
000050 eb c5 5a bc 55 eb cb bd da dc e7 3d ef 2b ad bd
       -0.013352851 -0.099569954 0.11321421 -0.08455645
000060 4f 9c 7b 3e cf 42 08 3e 5d c9 59 3e ab ed 13 3e
       0.24571346 0.13306735 0.2126822 0.14446132
000070 5f 01 ae 3b 46 7b f3 bd 70 d4 94 3d f4 75 64 3c
       0.005310222 -0.11888747 0.07267082 0.013944138
