backend/stocks/price/pt_models/AVAL.pt (torch, 54435 bytes, 9 tensors)

lstm.weight_ih_l0 f4 [128, 1]
0	0xbea50ded	-0.32237187
1	0xbe4dc148	-0.20093262
2	0xbd56b344	-0.052417055
3	0x3d326593	0.0435539
4	0xbe14f422	-0.14546254
5	0x3db60c35	0.08889047
6	0xbc90e8d5	-0.017689148
7	0x3cff14c8	0.031137839
8	0xbe657a5c	-0.22409958
9	0xbdeb1dbd	-0.114802815
10	0xbe819af7	-0.2531354
11	0x3e9810ce	0.2970032
12	0x3e761314	0.24030715
13	0x3e9ae4e5	0.30252758
14	0x3e3d5f56	0.18493399
15	0xbdc8346e	-0.09775625
16	0xbec96cf7	-0.39340946
17	0x3e6696e1	0.22518493
18	0xbd44289c	-0.04789029
19	0xbb3b411f	-0.002857275
20	0xbe66606d	-0.22497721
21	0x3e0e8220	0.13916826
22	0x3e97d8bc	0.29657543
23	0xbe9c599a	-0.3053711
24	0x3dd757fc	0.105148286
25	0x3e8ae76a	0.2712968
26	0x3e8f1866	0.27948302
27	0x3e40cc6e	0.18827984
28	0xbdfc38e8	-0.123155415
29	0xbe203e98	-0.15648878
30	0x3d817a4c	0.063221544
31	0xbc28a1fc	-0.010292526
32	0xbdc2bd02	-0.09508707
33	0xbd7f54a1	-0.062336568
34	0xbcc40ac5	-0.023930917
35	0x3e0847db	0.1330866
36	0xbe90ae20	-0.28257847
37	0x3df40fac	0.11917052
38	0x3b0c3b6c	0.0021397723
39	0x3d7da895	0.06192835
40	0xbe873337	-0.2640626
41	0x3d5fc050	0.054626763
42	0xbde871d1	-0.11349834
43	0x3e8bce4a	0.27305824
44	0x3d59a5fc	0.05313681
45	0x3eac2b87	0.3362696
46	0x3e46f96d	0.19431086
47	0xbe1d544d	-0.1536419
48	0xbecc1713	-0.39861354
49	0x3e7dc3be	0.24781701
50	0xbe280f75	-0.16412146
51	0x3d638fba	0.05555699
52	0xbe10aca2	-0.14128354
53	0x3e8a1874	0.2697178
54	0x3e1539ec	0.14572877
55	0xbd865f5b	-0.06561156
56	0x3e8a834b	0.27053294
57	0x3cc5f508	0.024164692
58	0x3ce2fef6	0.027709465
59	0x3e3950d2	0.18097237
60	0xbe340a65	-0.1758209
61	0xbe4f1178	-0.20221508
62	0x3de5ed93	0.11226954
63	0x3d9479dd	0.07249806
64	0x3e97aad9	0.29622534
65	0x3e92db5c	0.28682983
66	0xbe04bfa9	-0.12963738
67	0xbe86333f	-0.26210973
68	0xbe8c3bea	-0.2738946
69	0x3e6da2a7	0.23206578
70	0xbc474fff	-0.012165069
71	0x3e25b0d2	0.16180733
72	0x3ea325d7	0.31864807
73	0x3e6c7138	0.23090065
74	0x3da60914	0.081072
75	0x3e98c36b	0.29836592
76	0x3eb86c90	0.36020327
77	0xbe8dc8b3	-0.27692184
78	0x3e2dd622	0.16976216
79	0x3e7c0104	0.24609762
80	0xbeb0c6fc	-0.34526813
81	0xbe730f33	-0.23736267
82	0xbe4bd3a2	-0.1990495
83	0xbd08d83e	-0.03340935
84	0xbebf0383	-0.37307367
85	0x3ec57aa7	0.3857014
86	0x3e0e46c6	0.13894185
87	0xbe87307e	-0.26404184
88	0xbeada8f3	-0.3391796
89	0x3e8dfefe	0.27733606
90	0x3ea1059e	0.31449598
91	0x3eb8416a	0.35987407
92	0x3e48f2c2	0.19623855
93	0xbd9a2f3f	-0.07528543
94	0x3e7d4ee3	0.24737124
95	0x3e42f84c	0.1904003
96	0xbea6a323	-0.32546338
97	0xbd464d0e	-0.04841333
98	0xbe598f08	-0.21245968
99	0x3e4c0ac6	0.19925985
100	0xbea6b294	-0.3255812
101	0xba5972e6	-0.0008295014
102	0xbcd0b6e3	-0.025477832
103	0xbd289557	-0.041158047
104	0xbe2cb547	-0.16866027
105	0x3e20abca	0.15690532
106	0xbe3194d4	-0.1734193
107	0x3ead356a	0.33829814
108	0x3ea545f4	0.32279932
109	0x3e178bda	0.14799443
110	0x3e91965a	0.28435022
111	0x3d9e4c88	0.07729441
112	0xbe31d658	-0.17366922
113	0x3da50c6a	0.080590084
114	0xbe4214e8	-0.18953288
115	0xbe4a6e87	-0.19768725
116	0xbe519972	-0.20468691
117	0x3ecbd82d	0.39813367
118	0x3ec9376f	0.39300105
119	0xbdb3ffc0	-0.08789015
120	0x3e8e39ae	0.2777838
121	0x3e96b2cb	0.29433283
122	0x3da72da7	0.08163004
123	0x3c222507	0.009896523
124	0xbe9f6169	-0.31129006
125	0xbba4408a	-0.0050125765
126	0x3db9d008	0.09072882
127	0xbe0ddeb6	-0.13854489

lstm.weight_hh_l0 f4 [128, 32]
0	0xbc643510	-0.013928667
1	0xbd6efa35	-0.058344085
2	0x3e39fe62	0.18163446
3	0xbe013488	-0.12617695
4	0xbd084ecd	-0.033278275
5	0x3dd6fb07	0.104970984
6	0x3d8e28f8	0.06941408
7	0x3e23d9cf	0.16001056
8	0x3bc5b32a	0.006033321
9	0xbe46537e	-0.19367787
10	0x3e4f8098	0.20263898
11	0xbe8915d9	-0.2677448
12	0xbe641903	-0.22275166
13	0x3d24c39e	0.040225618
14	0xbc9a2eea	-0.018821198
15	0x3d4ae8a7	0.04953828
16	0x3e0b7dd1	0.13622214
17	0x3c8bd2ba	0.017068256
18	0x3e23b6be	0.1598768
19	0x3e03c54c	0.12868232
20	0xbdb2b014	-0.087249905
21	0xbdac28aa	-0.084061936
22	0x3c1444a5	0.009049569
23	0xbb564173	-0.003269282
24	0x3d3d1c5d	0.046169627
25	0xbd9aa1a3	-0.07550361
26	0x3dacb663	0.08433225
27	0xbe4af710	-0.1982081
28	0x3d28c4a6	0.041203164
29	0x3d764755	0.06012662
30	0xbda44e56	-0.08022754
31	0x3de6ffea	0.112792805
32	0xbe2347e5	-0.15945394
33	0xbe2c4eca	-0.1682693
34	0x3dc82c85	0.097741164
35	0x3cda42c7	0.02664317
36	0x3e0cb4f1	0.13740899
37	0x3c556d49	0.013026544
38	0x3b06b657	0.002055546
39	0xbc8a62f9	-0.016892897
40	0x3dbdd72b	0.09269556
41	0x3da67c99	0.08129234
42	0x3d556647	0.052099492
43	0x3dee2ea2	0.11629988
44	0xbdd91160	-0.10599017
45	0x3c2692ea	0.010166863
46	0x3da5bcd7	0.08092659
47	0xbe54fafb	-0.20798866
48	0xbdc9439c	-0.098273486
49	0x3dae5c50	0.08513701
50	0x3e49ce19	0.19707526
51	0xbd683ff4	-0.056701615
52	0xbd611c70	-0.05495876
53	0x3d91f89b	0.07127496
54	0xbd1219aa	-0.035669006
55	0xbd9c4d89	-0.07631976
56	0xbd1bb237	-0.038011756
57	0x3dd2c7c8	0.102920115
58	0xbdbd2a73	-0.09236612
59	0xbe598809	-0.212433
60	0xbc4f2073	-0.012642014
61	0x3b4cf366	0.0031273006
62	0x3e064df2	0.13115671
63	0xbe0737a7	-0.13204823
64	0x3d9a98ba	0.075486615
65	0xbda19f8a	-0.07891758
66	0x3dd85aed	0.10564218
67	0x3c657e53	0.014007169
68	0xbd081948	-0.033227235
69	0xbe0379dc	-0.12839454
70	0xbd3ae7c6	-0.045631193
71	0xbdcd4baa	-0.100241974
72	0x3e34fcfc	0.17674631
73	0xbdee6c52	-0.11641754
74	0x3e8be3a9	0.27322128
75	0xbd87b828	-0.06626922
76	0xbda24636	-0.07923548
77	0xbd53320d	-0.051561404
78	0x3dc5e5ff	0.09663009
79	0x3d1f2c30	0.0388605
80	0xbe612989	-0.219885
81	0x3d7ea667	0.062170412
82	0xbe0f1052	-0.1397107
83	0x3c7a3a10	0.015272632
84	0xbe1b1b9c	-0.15147251
85	0xbe6f1655	-0.23348363
86	0x3dba87ad	0.09107909
87	0xbdff2fcf	-0.12460291
88	0x3d2d3579	0.042287324
89	0xbdf772e3	-0.1208246
90	0xbdabc8a2	-0.08387877
91	0x3cb2585b	0.021770647
92	0x3d4595a9	0.04823843
93	0x3db93348	0.09042984
94	0xbd1dc634	-0.0385191
95	0xbdaf47c8	-0.08558613
96	0x3e4db9e2	0.2009044
97	0x3d977a6c	0.07396397
98	0xbcc3518d	-0.023842597
99	0xbd1cb1fc	-0.038255677
100	0x3d9c4bb1	0.076316245
101	0x3cfa92df	0.030587612
102	0x3da2327d	0.07919786
103	0x3e4da5bf	0.20082758
104	0xbd55523a	-0.05208037
105	0xbd54f0a3	-0.0519873
106	0xbdb1b027	-0.086761765
107	0xbd591fb5	-0.053008754
108	0x3d75fc9a	0.060055353
109	0xbe6a0128	-0.22852004
110	0x3d3b0521	0.04565919
111	0x3dfdb814	0.12388626
112	0xbe4ee57c	-0.20204729
113	0xbd1146e3	-0.035467993
114	0xbc9188c1	-0.017765405
115	0x3d68a0ca	0.056793965
116	0xbe8472ce	-0.2586884
117	0xbc8ff6ed	-0.017573798
118	0x3e44dc8c	0.19224757
119	0xbd489e5a	-0.04897914
120	0xbd4f5804	-0.050621048
121	0x3dccad86	0.099940345
122	0x3e30ce64	0.17266232
123	0xbd81e681	-0.06342793
124	0x3e4bdc24	0.19908196
125	0x3bc22cf4	0.005925769
126	0x3d9b8526	0.075937554
127	0x3dd9955a	0.1062419
128	0x3ddce606	0.10786061
129	0xbdd39dfc	-0.103328675
130	0xbe19aedd	-0.15008111
131	0x3cd22efc	0.02565717
132	0xbdcc7fb4	-0.09985295
133	0xbdcc80b8	-0.09985489
134	0x3c32d233	0.010914373
135	0x3ccd6abd	0.02507531
136	0xbdb20aa9	-0.086934395
137	0x3da0d1c4	0.078525096
138	0x3d33e44f	0.043918904
139	0x3de37486	0.111062095
140	0xbd907d9c	-0.07055208
141	0xbe0db878	-0.138399
142	0x3d19331f	0.03740227
143	0x3e237617	0.15963016
144	0x3e1d911d	0.15387388
145	0x3d6ac952	0.0573209
146	0x3e06a328	0.13148177
147	0x3dcc8a13	0.09987273
148	0x3d5551e0	0.052080035
149	0x3beb9fde	0.0071906885
150	0x3b802cce	0.003911591
151	0x3de26e38	0.11056179
152	0xbd73a0a5	-0.059479374
153	0xbcedb7be	-0.02901828
154	0xbcedcbff	-0.029027937
155	0xbda342c7	-0.07971721
156	0xbd8def97	-0.06930464
157	0x3d53055e	0.05151879
158	0x3e4296a6	0.1900278
159	0xbdf6a2c1	-0.120427616
160	0x3cc2edc5	0.023795018
161	0x3d87708b	0.06613263
162	0x3ddd4a1b	0.1080515
163	0x3ccad70d	0.024760747
164	0xbd3bffb0	-0.04589814
165	0xbd6e59e7	-0.058191206
166	0x3e39f0c1	0.18158247
167	0x3d96a945	0.07356504
168	0xbe0299f1	-0.12754036
169	0xbdfab7ec	-0.122421116
170	0xbdeb6efb	-0.11495777
171	0x3cece78c	0.028919004
172	0x3c0b3b8e	0.008498086
173	0x3e0ec79c	0.13943332
174	0x3cb777dc	0.02239602
175	0xbd81c0f6	-0.063356325
176	0xbe0e490c	-0.13895053
177	0xbd8f285c	-0.0699012
178	0x3e2f87ff	0.17141722
179	0xbcbb2e87	-0.022849334
180	0xbd71863b	-0.058965903
181	0x3c5c1d85	0.013434772
182	0xbe12f5a3	-0.14351515
183	0x3e078882	0.13235667
184	0x3de19401	0.11014558
185	0xbdadace9	-0.084802456
186	0x3d606911	0.0547877
187	0xbd3630a3	-0.044479977
188	0x3da6d018	0.081451595
189	0xbdd22bf1	-0.102622874
190	0xbcefe429	-0.0292836
191	0x3d5f3e29	0.05450264
192	0x3c67367a	0.014112109
193	0xbc9a4d3d	-0.018835658
194	0xbe21d3a5	-0.15803392
195	0x3dee596b	0.11638149
196	0x3db41109	0.08792312
197	0xbe2e9738	-0.17049873
198	0x3e1444d9	0.14479388
199	0x3e49cfac	0.19708127
200	0x3e889ab4	0.2668053
201	0x3ddadcce	0.106866464
202	0x3e942731	0.2893615
203	0xbd6acea9	-0.057325993
204	0x3dafaaf6	0.0857753
205	0xbd10c7ff	-0.03534698
206	0x3e4bdee9	0.19909252
207	0x3e7ab123	0.24481635
208	0xbe8aa241	-0.27076915
209	0xbde5a72c	-0.11213526
210	0xbe0a5d8c	-0.13512248
211	0xbd253e2e	-0.040342502
212	0x3cf98e6c	0.03046342
213	0xbde6f4ec	-0.11277184
214	0xbe39723e	-0.18109986
215	0xbe13c3a8	-0.14430106
216	0xbd95fe00	-0.07323837
217	0xbdb4aa22	-0.08821513
218	0xbde2247a	-0.110421136
219	0xbdf4177b	-0.11918541
220	0x3dc424bb	0.09577318
221	0x3ceb405a	0.028717209
222	0xbdfb4595	-0.12269131
223	0xbe8611d0	-0.26185465
224	0xbd999ea5	-0.07500962
225	0x3d2f5ad9	0.04281125
226	0xbe291222	-0.16510823
227	0xbe12aa96	-0.14322886
228	0xbdb7b549	-0.08970124
229	0xbe4bb3da	-0.19892827
230	0xbd76ef62	-0.060286887
231	0x3d47546e	0.048664503
232	0x3d973e03	0.07384875
233	0xbd6499b7	-0.055810656
234	0xbdee18ab	-0.11625799
235	0xbddfaab7	-0.10921233
236	0x3ca1d946	0.019756924
237	0x3b864143	0.0040971353
238	0x3e07ab30	0.13248897
239	0xbda8c1ce	-0.0824009
240	0xbe2c7059	-0.16839732
241	0x3dcf83da	0.101325706
242	0x3e2aa339	0.16663827
243	0x3e227f47	0.15868865
244	0x3e0b3abe	0.13596627
245	0xb9628796	-0.00021603549
246	0xbe0d5a1c	-0.13803905
247	0xbe0ce385	-0.13758667
248	0x3e2b1e3a	0.1671075
249	0xbe3c3f5d	-0.18383546
250	0x3c6a8866	0.0143147465
251	0xbd102d85	-0.03519966
252	0x3e28e239	0.16492547
253	0x3de06967	0.10957604
254	0xbe5168d7	-0.2045015
255	0xbe4c267d	-0.19936557

lstm.bias_ih_l0 f4 [128]
0	0x3b1ddec4	0.0024089077
1	0x3e16e464	0.14735562
2	0x3cdbc98f	0.026829509
3	0x3d945a71	0.07243813
4	0xbdb807ca	-0.08985861
5	0x3dc0f0af	0.09420907
6	0xbe29d3cb	-0.16584699
7	0xbd987a4a	-0.074452
8	0xbe097970	-0.13425231
9	0x3c540a44	0.012941901
10	0xbdd2a25e	-0.10284875
11	0xbc97d9ca	-0.018536467
12	0xbdecc0e2	-0.11560227
13	0x3e4c366e	0.19942638
14	0x3e081162	0.13287881
15	0xbcd466a7	-0.025927855
16	0x3d3acefd	0.045607556
17	0xbd11c2e2	-0.035586245
18	0xbc930273	-0.017945504
19	0xbc75a769	-0.014993527
20	0xbbd3a479	-0.0064588157
21	0xba1d2d6a	-0.0005995842
22	0xbb8f23fa	-0.0043683024
23	0x3e50ae22	0.20378926
24	0x3d7d58ad	0.061852146
25	0xbe0d2623	-0.13784079
26	0x3e094c8a	0.13408104
27	0x3d28fac7	0.041254785
28	0xbd8f5243	-0.06998112
29	0xbe0d5b1e	-0.1380429
30	0x3dae6536	0.08515398
31	0xbd87ea56	-0.06636493
32	0x3d7cfe7c	0.061766133
33	0xbc0670a0	-0.008205563
34	0x3da7d8ec	0.081956714
35	0xbce87424	-0.028375693
36	0x3e030bce	0.12797472
37	0x3c46ada9	0.012126365
38	0x3cf76145	0.030197749
39	0x3d9b7503	0.075906776
40	0xbde3433f	-0.110968105
41	0xbcd38cbf	-0.025823949
42	0xbdbb3f82	-0.091429725
43	0xbcff1e5f	-0.031142412
44	0x3dc75e89	0.09734828
45	0xbd7daa49	-0.061929975
46	0xbe47072e	-0.19436333
47	0xbe67ab4f	-0.22623943
48	0xbc935a3b	-0.017987361
49	0xbd0baae0	-0.034098506
50	0xbdf92637	-0.12165492
51	0xbe769b4a	-0.24082676
52	0xbbf7942b	-0.007555505
53	0x3d9d7336	0.0768799
54	0x3d7a1cd2	0.06106264
55	0xbe0ab7f3	-0.13546734
56	0xbc822965	-0.01588888
57	0xbdc110da	-0.09427042
58	0xbd86d394	-0.06583324
59	0x3d52ba3e	0.051447146
60	0x3d382642	0.04495836
61	0xbe6ca8f7	-0.2311133
62	0xbdc0b31b	-0.09409162
63	0xbd8709c2	-0.06593658
64	0xbd40f75a	-0.047110893
65	0xbd024fc8	-0.031814367
66	0xbd4ba268	-0.04971543
67	0x3d83b0db	0.06430217
68	0x3dccdc25	0.10002927
69	0xbd1238fc	-0.035698876
70	0x3dc7febc	0.097653836
71	0xbda6b0d2	-0.081391945
72	0xbdf884b0	-0.12134683
73	0x3df09869	0.1174782
74	0xbe12435a	-0.14283505
75	0xbdfc08d0	-0.12306368
76	0x3db51d7b	0.088435136
77	0x3d9d593d	0.076830365
78	0x3dc0ca19	0.09413547
79	0x3c6b0182	0.014343621
80	0x3e023716	0.12716326
81	0xbd927de7	-0.0715292
82	0x3d97a6dd	0.074048735
83	0xbcc2e77d	-0.023792023
84	0x3e04c512	0.12965801
85	0x3db7ab50	0.08968222
86	0xbdc96c60	-0.09835124
87	0x3dcfd990	0.10148919
88	0x3e2d2df8	0.16912067
89	0x3db29392	0.08719553
90	0xbbf1b245	-0.0073759877
91	0xbdb166eb	-0.08662208
92	0xbddade71	-0.106869586
93	0x3df0aa4d	0.11751232
94	0x3e34e10a	0.1766397
95	0xbca204c2	-0.01977766
96	0x3d1f14c6	0.03883817
97	0x3e42e91e	0.1903424
98	0x3dc21a94	0.094777256
99	0xbdef2451	-0.11676849
100	0x3e07a0fc	0.13245004
101	0xbe4a0489	-0.19728293
102	0xbe25bab3	-0.16184501
103	0xbe0a55c2	-0.13509277
104	0xbaf5fb1c	-0.0018766853
105	0xbaa85654	-0.0012843111
106	0xbdb378b1	-0.087632544
107	0x3ddde1de	0.10834096
108	0xbc47568a	-0.012166629
109	0x3e605e4d	0.21910973
110	0xbd0a1811	-0.033714358
111	0xbe32ed6c	-0.17473382
112	0x3e08acee	0.13347217
113	0xbc27a213	-0.010231513
114	0xbe0bc433	-0.13649063
115	0xbeaf3b6a	-0.34225017
116	0x3c9b2519	0.018938588
117	0x3dee887a	0.116471246
118	0xbe499af6	-0.19688019
119	0x3e26b68f	0.16280578
120	0x3ddb289a	0.107011035
121	0xbe128f5b	-0.14312498
122	0xbe078a18	-0.13236272
123	0x3e3287d3	0.17434625
124	0xbc85ac0b	-0.016317388
125	0xbd2faa8d	-0.04288726
126	0xbe1380fc	-0.14404672
127	0xbd1f2161	-0.038850192

lstm.bias_hh_l0 f4 [128]
0	0xbe08cb61	-0.13358833
1	0xbdbd85fd	-0.09254072
2	0xbb91ebe7	-0.0044531706
3	0xbe3ae7a5	-0.18252428
4	0x3d9d5da8	0.07683879
5	0xbdf5699d	-0.11983035
6	0x3c8afdbe	0.016966697
7	0xbc541ddf	-0.012946575
8	0x3da8080d	0.082046606
9	0xbcac3acc	-0.02102413
10	0xbc823f50	-0.01589933
11	0xbdeaaf01	-0.114591606
12	0xbae201ae	-0.0017242932
13	0xbbab91f4	-0.005235905
14	0xbe190d54	-0.1494649
15	0x3d39c905	0.045357723
16	0xbe06b685	-0.13155563
17	0x3e22b094	0.15887672
18	0x3cd5a35f	0.026078878
19	0xbe8d4a55	-0.27595773
20	0x3e104ac8	0.14091027
21	0x3d3e7ef8	0.046507806
22	0x3d666af3	0.05625434
23	0xbd304eb6	-0.043043815
24	0x3e1d07bf	0.15334986
25	0xbcccbfa4	-0.024993725
26	0x3e03e507	0.12880336
27	0x3e1bf65c	0.15230697
28	0xbd1eeeda	-0.038802005
29	0x3dbe1572	0.09281434
30	0x3e00e38b	0.12586801
31	0xbd355064	-0.04426612
32	0xbc3eeeb2	-0.011653589
33	0xbe14f088	-0.1454488
34	0xbe74fbeb	-0.23924224
35	0x3d624e0f	0.055250224
36	0xbe0b8c7d	-0.13627811
37	0xbd01ed3e	-0.031720392
38	0xbe26fe74	-0.16308004
39	0xbe686851	-0.22696044
40	0x3c93a585	0.018023262
41	0xbdf909f6	-0.12160103
42	0xbe625ea7	-0.2210642
43	0x3e0499ed	0.12949343
44	0xbdf49cb8	-0.11943954
45	0x3e482004	0.19543463
46	0xbe3aae17	-0.18230473
47	0xbe2f9e9a	-0.17150345
48	0xbe11811c	-0.14209408
49	0xbe2222ac	-0.15833539
50	0x3c9d93f6	0.019235592
51	0xbe58fac3	-0.21189408
52	0x3db7a8dd	0.08967755
53	0x3e2bcfbf	0.16778468
54	0xbe3c5cc0	-0.18394756
55	0x3e119881	0.14218332
56	0x3dfb66f4	0.12275496
57	0xbc265e5e	-0.010154335
58	0xbe2a67ab	-0.16641109
59	0x3e295e2c	0.1653983
60	0xbe469b2a	-0.19395128
61	0x3d985614	0.07438293
62	0xbdfd174b	-0.123579584
63	0xbe06e7b1	-0.13174321
64	0xbd9c4c0b	-0.076316915
65	0xbd6e43b8	-0.05817005
66	0x3dc54334	0.096319586
67	0xbdd48915	-0.10377709
68	0x3cc85356	0.0244538
69	0x3e10bee4	0.14135319
70	0xbddcc7b3	-0.10780277
71	0x3d31ae8b	0.043379348
72	0xbd14275b	-0.036170345
73	0xbdd3c2fa	-0.10339923
74	0x3d6945ea	0.05695144
75	0x3de2c09f	0.11071896
76	0x3de2dfe1	0.11077858
77	0xbda03fab	-0.07824644
78	0xbe03a4b6	-0.12855801
79	0xbdd67b9d	-0.10472796
80	0x3e00f613	0.1259387
81	0xbb264d70	-0.0025375746
82	0x3ca087bb	0.019595971
83	0xbe083a73	-0.13303547
84	0x3da77815	0.08177201
85	0xbae021e6	-0.0017099946
86	0x3e262490	0.16224885
87	0xbd0bc64e	-0.034124665
88	0xbde516a0	-0.11185956
89	0x3d60eb88	0.05491212
90	0x3db01f8a	0.085997656
91	0x3de51b1b	0.111868106
92	0xbdf8d05c	-0.121491164
93	0x3d694e1a	0.05695925
94	0xbd700f10	-0.058608115
95	0x3db7010c	0.089357466
96	0x3d419c22	0.04726804
97	0x3d8fef65	0.07028083
98	0xbc186d22	-0.009303363
99	0xbd35c864	-0.04438056
100	0xbba0b24e	-0.004904068
101	0xbe3906d1	-0.18069007
102	0x3c96cfbd	0.018409604
103	0x3de68a3e	0.11256836
104	0xbe165d58	-0.14684045
105	0xbc381bb6	-0.011237076
106	0xbe48b954	-0.19601947
107	0xbc709802	-0.014684679
108	0xbd85e0ab	-0.06536993
109	0xbcce8264	-0.02520866
110	0x3bcdcc8b	0.006280487
111	0x3ddedd0f	0.10882007
112	0xbdd853d4	-0.10562864
113	0xbdbf0a30	-0.09328115
114	0xbcc33db9	-0.023833143
115	0xbd842acf	-0.064534776
116	0xbcd303f1	-0.025758715
117	0x3e1ad979	0.15122022
118	0xbdd55391	-0.1041633
119	0x3e68fae8	0.22751963
120	0x3caf9a1d	0.021435792
121	0xbd47f801	-0.0488205
122	0x3d0305db	0.031988006
123	0x3e342b73	0.175947
124	0x3dd2c86f	0.10292136
125	0x3dbae1af	0.09125077
126	0xbdbfa4fb	-0.093576394
127	0x3d1e1c7b	0.03860138

lstm.weight_ih_l1 f4 [128, 32]
0	0x3e4de4d7	0.20106827
1	0x3dbbfd47	0.09179168
2	0xbcb38f19	-0.02191882
3	0xbe39f8a2	-0.18161252
4	0x3d247667	0.04015198
5	0xbde201cf	-0.11035501
6	0x3e3d51b6	0.18488201
7	0x3e22e591	0.15907885
8	0xbd59f07f	-0.05320787
9	0xbdc48410	-0.095955014
10	0xbce03a15	-0.027371446
11	0xbc91150a	-0.017710228
12	0x3e5fb8e9	0.21847881
13	0x3d0df0a0	0.034653306
14	0x3dd1e77e	0.10249232
15	0x3d33d921	0.043908242
16	0x3e068d76	0.131399
17	0x3dc9eab3	0.098592184
18	0x3e0de4e9	0.13856854
19	0xbb0610d1	-0.00204568
20	0x3d81dedc	0.06341335
21	0x3dd4ce16	0.1039087
22	0xbd8ca727	-0.06867819
23	0xbdc99a58	-0.09843892
24	0xbd4a390a	-0.049370803
25	0x3cbb2d9a	0.022848893
26	0x3e5b1772	0.21395662
27	0xbdcb5c9d	-0.09929774
28	0xbca3c481	-0.019991161
29	0x3e307702	0.17232898
30	0x3dfe4fa0	0.12417531
31	0x3d6a47fb	0.057197552
32	0x3c9728c5	0.018452058
33	0x3e412088	0.18860066
34	0x3e315fc5	0.1732169
35	0x3dba1a8c	0.09087095
36	0x3dcb1143	0.09915402
37	0xbdd6c2a0	-0.104863405
38	0x3d910bfa	0.070823625
39	0x3ded7e0a	0.11596306
40	0xbd91ab1c	-0.07112715
41	0xbe37db66	-0.17954788
42	0x3e2586cd	0.16164704
43	0xbe2dbb94	-0.16966087
44	0xbd9cd7a9	-0.076583214
45	0x3ea063e6	0.31326216
46	0xbbdeabf2	-0.0067954
47	0xbd01ff3b	-0.031737547
48	0x3d3759d7	0.044763412
49	0xbcf61ae6	-0.030042123
50	0xbd8bf056	-0.0683295
51	0xbde1e6b4	-0.11030331
52	0x3e1b5c45	0.15171917
53	0xbdbc5a8e	-0.091969594
54	0xbe90be3c	-0.28270137
55	0xbd3444d3	-0.04401095
56	0x3d193724	0.0374061
57	0xbda140da	-0.078736976
58	0xbe044add	-0.12919183
59	0xbb56ce78	-0.0032776874
60	0x3dd78eb1	0.10525263
61	0x3c45deb1	0.01207702
62	0xbd49d464	-0.049274817
63	0xbe7e567f	-0.24837683
64	0xbe50ae46	-0.2037898
65	0x3d2fbd28	0.042905003
66	0x3dae4a9e	0.08510326
67	0x3e26a0c2	0.16272262
68	0xbc1b7a01	-0.009489537
69	0xbe3876d4	-0.1801408
70	0xbc5b3f3e	-0.013381777
71	0x3d435b3e	0.047694437
72	0xbe69cbc2	-0.22831634
73	0xbdcd6189	-0.10028369
74	0x3d5e4a35	0.054269988
75	0x3d0ee720	0.034888387
76	0xbd9e19fb	-0.07719799
77	0x3c5e71c4	0.0135769285
78	0x3dd5a7f3	0.104324244
79	0xbc8fafdd	-0.017539913
80	0xbd1c2b1d	-0.038127054
81	0x3dc0479a	0.09388657
82	0x3d840c25	0.06447629
83	0xbe0e9855	-0.13925298
84	0x3e7e1f63	0.2481666
85	0xbe1b0146	-0.15137205
86	0x3deec8ce	0.11659394
87	0xbda49c1a	-0.080375865
88	0x3e8a1d0f	0.26975295
89	0x3d9b848e	0.07593642
90	0xbe2e38d6	-0.17013869
91	0xbd26fc93	-0.040768217
92	0xbe4af896	-0.1982139
93	0x3d9bc6c3	0.0760627
94	0x3d1f37e2	0.038871653
95	0x3d3db661	0.04631651
96	0x3e785fdf	0.24255322
97	0x3e825840	0.25457954
98	0x3d833f8f	0.06408607
99	0x3d49dec7	0.049284723
100	0xbe325fb1	-0.17419316
101	0xbd9440e9	-0.07238943
102	0x3e9e0152	0.30860382
103	0x3d5a574c	0.05330591
104	0x3dd9afd7	0.10629242
105	0x3e8bb876	0.2728917
106	0xbc5da5aa	-0.013528267
107	0x3e011e6b	0.1260926
108	0xbdd1485a	-0.10218878
109	0xbea29d7c	-0.31760776
110	0x3e9611a0	0.29310322
111	0x3e477de6	0.1948162
112	0xbcd9655b	-0.026537588
113	0x3b731814	0.003709321
114	0xbe598799	-0.21243133
115	0xbdb6c4ed	-0.08924279
116	0xbe2f0b35	-0.17094119
117	0x3d51956f	0.0511679
118	0x3c7f8cd0	0.015597537
119	0x3d2f3cc7	0.04278257
120	0xbd4110c1	-0.04713512
121	0x3c814d8c	0.015784048
122	0x3df31422	0.118690744
123	0x3e2aa4be	0.16664407
124	0xbcb831d0	-0.02248469
125	0xbe7a75e2	-0.24459031
126	0xbb532646	-0.0032218858
127	0xbddb4cc5	-0.10708002
128	0xbe74a0f5	-0.23889525
129	0xbdb907e5	-0.09034709
130	0x3e57e3be	0.2108297
131	0x3cd1ae93	0.025595939
132	0x3e018921	0.12649967
133	0x3ddf9acf	0.10918199
134	0x3dabf9bd	0.08397243
135	0x3e00ec90	0.12590241
136	0xbe72866a	-0.23684087
137	0xbe35833f	-0.17725848
138	0xbe07afb3	-0.13250618
139	0x3e12d17d	0.14337726
140	0x3dd8f35f	0.10593294
141	0x3d94025f	0.07227015
142	0x3e1d478e	0.15359327
143	0xbe6a3a61	-0.22873832
144	0x3e3a71a1	0.18207408
145	0xbd8241fb	-0.06360241
146	0x3b2db2d1	0.0026504288
147	0xbe080aea	-0.13285413
148	0x3d272c57	0.04081377
149	0x3d7d6891	0.0618673
150	0xbcde9117	-0.027168794
151	0x3e843058	0.25818133
152	0x3e89132d	0.26772442
153	0x3d7bb22a	0.061449207
154	0xbe202129	-0.1563765
155	0xbdbf444c	-0.093391985
156	0x3dadb1cc	0.08481178
157	0x3e19d03c	0.15020841
158	0x3e19c5fc	0.15016931
159	0x3db9b396	0.090674564
160	0x3e1dc2ef	0.15406393
161	0x3e402847	0.18765365
162	0xbcf2215f	-0.029556928
163	0x3d82c48e	0.06385146
164	0x3ddb605e	0.1071174
165	0xbd676053	-0.056488346
166	0xbdb2014d	-0.08691654
167	0xbdad1f4e	-0.084532365
168	0x3dfacb6c	0.12245831
169	0x3d971ba8	0.07378322
170	0xbd632d8b	-0.055463355
171	0xbbce3744	-0.0062932093
172	0x3d81404f	0.06311094
173	0x3c9d23ae	0.019182052
174	0xbd912176	-0.0708646
175	0xbe09eba5	-0.13468798
176	0x3c24b40a	0.01005269
177	0x3e808adf	0.2510595
178	0xbdd03964	-0.101671964
179	0x3e383567	0.17989121
180	0xbd5f9208	-0.054582626
181	0xbe08d540	-0.13362598
182	0xbe2df463	-0.16987757
183	0xbd7088a1	-0.05872405
184	0x3e16bd10	0.14720559
185	0xbe0bbebc	-0.13646978
186	0xbe92a1a4	-0.28638947
187	0xbd79619c	-0.060884103
188	0xbdd69f9b	-0.10479661
189	0x3cdf5f90	0.027267247
190	0xbe803ed6	-0.2504794
191	0xbdf4d030	-0.11953771
192	0xbc4b5d99	-0.012412452
193	0x3e233ab4	0.15940362
194	0x3d8aa9d0	0.067706704
195	0xbd81f96e	-0.06346403
196	0x3e8d1852	0.27557617
197	0xbe00ed9a	-0.12590638
198	0x3e6a79b8	0.22897995
199	0xbdafc2d4	-0.085820824
200	0xbd17606f	-0.0369572
201	0xbd16aaa7	-0.03678384
202	0x3de33edf	0.11095976
203	0x3dbaf470	0.09128654
204	0xbdb3f513	-0.087869786
205	0x3d5bb31f	0.05363762
206	0xbd43b555	-0.047780354
207	0xbcd84478	-0.026399836
208	0x3cef6148	0.029221192
209	0x3c13f323	0.009030136
210	0x3e4d3038	0.20037925
211	0x3e2398be	0.15976235
212	0xbc8614fc	-0.016367428
213	0xbdf3ae37	-0.11898463
214	0x3dff35f9	0.12461466
215	0xbdd666a6	-0.104687974
216	0x3e00a626	0.1256338
217	0x3d4ef81b	0.05052958
218	0x3be19efd	0.006885408
219	0xbe1fe4e0	-0.15614653
220	0xbdaeeca3	-0.085412286
221	0xbbfb3462	-0.0076661566
222	0xbd600a4b	-0.054697316
223	0xbc2ad32e	-0.010426326
224	0xbe094f17	-0.13409077
225	0x3d8a1d04	0.067438155
226	0xbdea4008	-0.11437994
227	0x3e108be8	0.1411587
228	0x3c0c298c	0.008554827
229	0xbd62ffc1	-0.055419687
230	0x3df4e26e	0.119572505
231	0xbdc6bad2	-0.09703602
232	0xbdb65c44	-0.08904317
233	0xbe179f5c	-0.14806885
234	0x3d806870	0.0626992
235	0x3d500d44	0.0507939
236	0xbe4830fb	-0.19549935
237	0x3e3071c6	0.17230901
238	0xbd0ef487	-0.03490117
239	0xbe135d26	-0.14391002
240	0x3bddb1a3	0.0067655607
241	0x3dba002a	0.090820625
242	0x3dcf7eb9	0.10131592
243	0x3d6f5f85	0.058440704
244	0x3e1c4b6b	0.15263145
245	0xbd1f4345	-0.038882513
246	0xbdfe16ba	-0.124066785
247	0xbc380aae	-0.011233015
248	0x3e3fa211	0.18714167
249	0x3c50be1b	0.012740637
250	0xbd73a258	-0.059480995
251	0xbe1bb502	-0.15205768
252	0x3de8ee42	0.11373569
253	0xbd9fdf35	-0.07806245
254	0xbe1a79ab	-0.15085475
255	0xbe215c45	-0.15757854

lstm.weight_hh_l1 f4 [128, 32]
0	0x3d1e4438	0.038639277
1	0x3de4107c	0.11135957
2	0x3d486665	0.048925776
3	0x3c9dcbb4	0.019262172
4	0x3c9f7ded	0.019469226
5	0x3d8bdad8	0.068288505
6	0x3da028ef	0.078203075
7	0x3e1419f5	0.14463027
8	0xbda4fe4b	-0.08056315
9	0x3df5dd23	0.12005069
10	0xbe25c898	-0.16189802
11	0x3d9e392a	0.07725747
12	0xbc83bf2c	-0.016082369
13	0x3e1497ab	0.14510982
14	0x3e291df0	0.16515326
15	0x3d6ba8b6	0.057533942
16	0x3d755dc4	0.059903875
17	0x3d07d8ec	0.033165857
18	0x3c5239b8	0.012831144
19	0xbdc2d0c6	-0.095124766
20	0xbbe898fd	-0.0070983157
21	0x3d28e775	0.04123636
22	0xbda62e80	-0.08114338
23	0xbdf07106	-0.117403075
24	0xbe38ce99	-0.18047561
25	0xb91dfb30	-0.00015066261
26	0xbd977c11	-0.07396711
27	0xbc4bbcf0	-0.012435183
28	0xbe310434	-0.1728676
29	0xbc481dd7	-0.012214146
30	0x3d830c05	0.06398777
31	0x3e02c804	0.12771612
32	0x3e213f04	0.15746695
33	0x3e4e4644	0.20143992
34	0x3d2ddbf9	0.04244611
35	0x3e54561c	0.20735973
36	0x3e161211	0.1465533
37	0x3b479dac	0.003045897
38	0xbd833d68	-0.06408197
39	0xbdeff8a6	-0.11717348
40	0x3d95bcf0	0.073114276
41	0x3e097d45	0.13426693
42	0x3daec5f7	0.085338525
43	0xbe1d3bbb	-0.15354817
44	0x3dccf736	0.10008089
45	0x3cb67949	0.02227463
46	0xbe139f97	-0.14416347
47	0x3e45bed9	0.19311084
48	0x3dd6cf15	0.104887165
49	0x3d66966b	0.056295794
50	0xbdda5a49	-0.10661752
51	0xbc876b68	-0.016530707
52	0x3df639d4	0.120227486
53	0x3c22866a	0.009919742
54	0x3d04c4e3	0.03241433
55	0x3e2c4ef1	0.16826989
56	0xbccca4ba	-0.024980891
57	0xbd7a39fc	-0.061090454
58	0x3da6b3f6	0.081397936
59	0xbe45b237	-0.19306265
60	0x3e025ca5	0.12730654
61	0xbdd25001	-0.10269166
62	0x3d8f3fae	0.06994568
63	0xbe23ef96	-0.16009364
64	0x3c7033c7	0.014660782
65	0x3d2b5bf5	0.041835744
66	0x3dc72dd4	0.09725538
67	0x3b6adc8b	0.003583702
68	0xbddb0175	-0.10693637
69	0xbe0605f5	-0.1308821
70	0xbe0480a7	-0.12939702
71	0x3e040fd4	0.12896663
72	0xbe1aee8d	-0.15130062
73	0xbdf8eaa3	-0.121541284
74	0xbdc5abb3	-0.0965189
75	0x3d46270d	0.048377085
76	0x3e4f1b1c	0.20225185
77	0xbdb8de84	-0.090268165
78	0x3db256bc	0.087079495
79	0xbcfefe56	-0.031127136
80	0x3d3aaed5	0.04557689
81	0x3d764dd8	0.06013283
82	0x3d070e93	0.032972883
83	0xbe0fdc29	-0.14048828
84	0x3d9fd707	0.07804685
85	0x3d8a3811	0.06748975
86	0xbd9cf762	-0.07664372
87	0xbdbb8aca	-0.09157331
88	0xbe1e4d61	-0.15459205
89	0xbda87ff8	-0.08227533
90	0x3c921175	0.01783059
91	0x3ca847e2	0.020542089
92	0x3dbd60c2	0.09246971
93	0x3e1663a3	0.14686446
94	0xbdbdb18a	-0.092623785
95	0x3d7deb40	0.06199193
96	0xbe57b594	-0.2106536
97	0x3db826e5	0.089917935
98	0x3d7e2b8e	0.062053256
99	0x3d7b3aa1	0.06133521
100	0x3db327a2	0.08747794
101	0xbd1412af	-0.03615063
102	0xbe2eb937	-0.17062841
103	0xbdaceadf	-0.084432356
104	0x3dd93c00	0.10607147
105	0x3d4b8b20	0.049693227
106	0xbc1b4148	-0.0094760135
107	0xbdfa2408	-0.12213904
108	0x3e4870fa	0.19574347
109	0xbd240417	-0.040042963
110	0xbe92e41b	-0.28689656
111	0x3d976185	0.07391647
112	0x3e05580a	0.13021865
113	0xbdbef008	-0.09323126
114	0xbdca284f	-0.098709695
115	0x3d1d2876	0.038368665
116	0xbe3969fb	-0.18106835
117	0xbd3c4e4d	-0.04597311
118	0x3dd591b6	0.10428183
119	0x3e8929bc	0.26789653
120	0xbdc2dcf8	-0.09514803
121	0xbd1e74cf	-0.038685616
122	0x3e3c2b78	0.18375957
123	0x3e593db3	0.21214943
124	0x3dd0f1c2	0.10202362
125	0xbd848c40	-0.06472063
126	0xbb7ffd40	-0.003906086
127	0xbdd4a256	-0.103825256
128	0xbde2f58d	-0.11081991
129	0xbe2af0dc	-0.16693443
130	0xbdf64256	-0.12024371
131	0xbd8a53a9	-0.06754238
132	0xbc01126a	-0.007877925
133	0x3d1bfd1e	0.03808319
134	0x3d65fdc1	0.0561502
135	0xbda8de30	-0.08245504
136	0xbcadec12	-0.021230731
137	0xbe41723b	-0.18891232
138	0x3e138088	0.144045
139	0x3e40daee	0.18833515
140	0x3e95ea31	0.29280236
141	0x3e4f386d	0.20236368
142	0xbdb6f1db	-0.08932849
143	0xbe30b35f	-0.17255925
144	0xbd9406fd	-0.072278954
145	0x3d247d39	0.040158484
146	0x3dba70e1	0.09103561
147	0x3bb563cb	0.005535578
148	0x3e0cef18	0.13763082
149	0x3e27f2e0	0.16401243
150	0x3d0e0dd0	0.03468114
151	0xbd344e34	-0.044019893
152	0xbc1db898	-0.00962653
153	0xbe0aed22	-0.13567021
154	0xbdea4095	-0.11438099
155	0x3dbe752b	0.09299692
156	0x3dcf65e6	0.101268575
157	0xbdfbef0b	-0.12301453
158	0xbe636f1e	-0.22210357
159	0x3d2ff9b5	0.04296275
160	0xbb9a0e4d	-0.004701412
161	0x3e23a091	0.1597922
162	0xbd82304b	-0.063568674
163	0x3e6dcb84	0.23222166
164	0x3e0f5e01	0.14000703
165	0x3d3b49be	0.045724623
166	0xbe5316ed	-0.20614214
167	0xbd068c5d	-0.032848705
168	0xbdcd7e1d	-0.1003382
169	0x3e192a52	0.1495755
170	0x3e336e72	0.175226
171	0xbe534bfa	-0.20634452
172	0x3e8c850f	0.27445266
173	0x3e485a4d	0.19565697
174	0x3dc8858f	0.09791099
175	0x3d928848	0.071549
176	0x3e187e97	0.1489204
177	0xbe33b327	-0.1754881
178	0x3dff6ecd	0.124723054
179	0xbcfa9fc6	-0.030593764
180	0xbe0cbe09	-0.13744368
181	0x3d87305b	0.0660102
182	0xbe159cb6	-0.14610562
183	0xbde47c3e	-0.1115651
184	0xbe268a6b	-0.1626374
185	0xbdb13a53	-0.086537026
186	0xbcb63b5e	-0.022245105
187	0xbe1b099d	-0.15140386
188	0x3d3254d2	0.043537922
189	0xbdd48d04	-0.10378459
190	0xbe085dc3	-0.13317017
191	0x3ceda9e0	0.029011667
192	0xbdec7fba	-0.115477994
193	0xbd576e40	-0.052595377
194	0x3e12b052	0.14325073
195	0x3c19fa99	0.009398126
196	0xbdbd252b	-0.09235605
197	0xbbb9871e	-0.005661859
198	0xbd3c40e4	-0.045960322
199	0x3e0d357d	0.13789935
200	0xbe0b86f8	-0.13625705
201	0x3dd88aac	0.105733246
202	0x3d07de5f	0.033171054
203	0x3d70bb7f	0.05877256
204	0x3e21dde4	0.15807301
205	0x3dd2c37a	0.102911904
206	0xbca22de4	-0.019797273
207	0xbcc71366	-0.024301242
208	0xbc9f44e7	-0.019442035
209	0x3dbdc29d	0.09265635
210	0xbd48300f	-0.048873957
211	0xbe3f63d5	-0.18690427
212	0x3de00860	0.109390974
213	0x3e4cd0bf	0.20001505
214	0xbe28e0c3	-0.1649199
215	0xbbd78b56	-0.0065778894
216	0xbe5bcda0	-0.21465158
217	0x3e141e4d	0.14464684
218	0xbe194dad	-0.14971037
219	0x3e17da7e	0.14829442
220	0x3de92fbb	0.11386057
221	0xbdc92c06	-0.0982285
222	0xbdaf0ab3	-0.085469626
223	0xbdd3ca40	-0.103413105
224	0x3e202703	0.15639882
225	0x3de286f7	0.11060899
226	0x3de55421	0.11197687
227	0x3e03fcd5	0.12889417
228	0xbe0aae55	-0.13543065
229	0x3dabbc83	0.08385565
230	0xbe035185	-0.12824066
231	0xbdc1b72e	-0.09458767
232	0x3cd69af8	0.026196942
233	0xbe14d8f7	-0.1453589
234	0x3cfc4a70	0.030797213
235	0x3e441034	0.19146806
236	0x3e4c90a4	0.19977051
237	0xbced5a2b	-0.02897366
238	0x3e46505a	0.19366589
239	0xbd78eb28	-0.060771137
240	0xbdd7a5f2	-0.105296984
241	0x3dcb4d80	0.09926891
242	0x3c2c075b	0.010499801
243	0x3cb77cf8	0.022398457
244	0x3d751385	0.05983307
245	0xbe048bb7	-0.12943922
246	0xbdec4df2	-0.115383044
247	0xbdf15e69	-0.117855854
248	0x3dbc4ec3	0.0919471
249	0xbe12f787	-0.14352237
250	0xbdef2062	-0.116760984
251	0x3b6c45b7	0.0036052295
252	0x3d5802b9	0.05273697
253	0x3e00429b	0.12525408
254	0xbd599eed	-0.05313008
255	0x3c1e6d43	0.009669605

lstm.bias_ih_l1 f4 [128]
0	0x3dfdbdfa	0.12389751
1	0x3dd88aa7	0.10573321
2	0xbd72b871	-0.05925793
3	0xbd48ce40	-0.04902482
4	0x3e5df584	0.21675688
5	0x3c960744	0.018314011
6	0x3c90f08e	0.01769283
7	0xbd8e7353	-0.0695559
8	0x3ddabefd	0.106809594
9	0xbe2876ab	-0.16451518
10	0xbda47ef6	-0.080320284
11	0x3e613a90	0.21994996
12	0x3d94d084	0.07266334
13	0x3d9a6af0	0.07539928
14	0x3e4bec50	0.19914365
15	0xbe20a67a	-0.15688506
16	0xbe0ccc22	-0.13749745
17	0xbe055508	-0.13020718
18	0x3e5d8b0c	0.21635073
19	0x3c3a3832	0.011365937
20	0x3d92e05c	0.071716994
21	0xbe5a24a5	-0.21303041
22	0xbe0c0b5f	-0.13676213
23	0xbe06c467	-0.13160859
24	0x3cfbec05	0.030752191
25	0x3d8587e1	0.065200575
26	0x3d6f5389	0.058429275
27	0xbdfaeec4	-0.12252572
28	0xbdc0271b	-0.09382459
29	0xbd9cc38f	-0.07654487
30	0xbc6bdcba	-0.014395887
31	0x3de5b938	0.11216968
32	0xbd55b160	-0.05217111
33	0x3c7eaad2	0.015543656
34	0xbd904f28	-0.07046348
35	0xbe70cebf	-0.23516367
36	0xbe0af1f8	-0.13568866
37	0x3d8056e6	0.062665746
38	0xbd37d04a	-0.044876374
39	0xbd21fd5c	-0.039548263
40	0xbbd5afd8	-0.0065212063
41	0xbe41cd43	-0.18925957
42	0x3df46f97	0.119353466
43	0xbdc44ff4	-0.09585562
44	0x3d64f6d5	0.05589946
45	0x3b1098fd	0.0022063844
46	0x3e1998dc	0.14999717
47	0xbdf1f1cb	-0.118136965
48	0xbe2390d6	-0.1597322
49	0x3e121afe	0.14268109
50	0xbd76741d	-0.060169328
51	0x3cb12673	0.02162478
52	0xbe45d44e	-0.19319269
53	0x3c141528	0.009038247
54	0xbe5dc21b	-0.21656077
55	0xbd154950	-0.03644687
56	0xbe34bfc9	-0.17651285
57	0xbdaf6d21	-0.085657366
58	0x3da36854	0.079788834
59	0x3c4ab25e	0.012371628
60	0xbe097a19	-0.13425483
61	0x3da88d60	0.0823009
62	0xbdab52f0	-0.083654284
63	0xbd03ef94	-0.0322109
64	0x3c26da11	0.010183827
65	0xbdb98084	-0.090577155
66	0x3da81e4e	0.08208905
67	0x3d893654	0.066998154
68	0xbdaea716	-0.08527963
69	0xbe03b24a	-0.1286098
70	0x3e1aff9e	0.15136573
71	0xbd9c3080	-0.07626438
72	0x3db329aa	0.08748181
73	0x3d8d7b43	0.06908276
74	0xbd84838c	-0.06470403
75	0x3dcc21c1	0.099673755
76	0x3bee6ada	0.0072759213
77	0xbdb018ab	-0.08598455
78	0x3d7c6ea2	0.061628945
79	0xbde86a2b	-0.11348375
80	0xbe1a44a2	-0.15065244
81	0xbddab4b7	-0.10679
82	0x3d92b7b5	0.071639456
83	0x3d98cfd7	0.07461517
84	0x3db66845	0.089066066
85	0x3e50019d	0.20313115
86	0x3e3f9a50	0.1871121
87	0x3dba651d	0.09101317
88	0xbdcdde58	-0.10052174
89	0x3e152b9b	0.14567415
90	0x3bdf3c5e	0.0068126163
91	0xbd6c16ed	-0.05763905
92	0xbd768ba4	-0.060191765
93	0xbdd9bd41	-0.106318004
94	0xbda021c1	-0.07818938
95	0x3df4a0d0	0.11944735
96	0x3e501eb7	0.20324217
97	0x3c2303dc	0.009949651
98	0x3e3b1b1e	0.18272063
99	0xbd4ca542	-0.04996229
100	0x3dc90290	0.09814942
101	0xbe26f1c9	-0.16303171
102	0x3dd4255a	0.10358687
103	0x3d5f8faa	0.054580368
104	0x3e47420e	0.19458792
105	0xbe2d62d0	-0.16932225
106	0xbd5ea0cf	-0.054352578
107	0x3e62f27a	0.2216281
108	0xbe1ed0cf	-0.15509342
109	0x3e862115	0.26197115
110	0xbd9297c8	-0.07157856
111	0xbe0805f9	-0.13283528
112	0xbd3a7c39	-0.045528624
113	0xbcb94790	-0.022617131
114	0x3e3b77a7	0.18307362
115	0x3d8548d9	0.06508035
116	0x3dd01d66	0.10161857
117	0xbe2d865c	-0.16945785
118	0xbe0f4203	-0.13990025
119	0x3e1a2e81	0.15056802
120	0x3d546266	0.051851653
121	0xbddc51cd	-0.1075779
122	0xbd291ed5	-0.04128917
123	0x3e07174c	0.13192481
124	0x3c06add2	0.008220153
125	0x3e12b6a4	0.14327484
126	0xbcbd7bf3	-0.023130393
127	0x3e533cce	0.20628664

lstm.bias_hh_l1 f4 [128]
0	0xbd4a9d8c	-0.049466655
1	0xbe6c6c5a	-0.23088208
2	0x3e0036eb	0.1252095
3	0x3c27bf96	0.010238549
4	0x3da31e62	0.079647794
5	0xbb90153c	-0.0043970626
6	0x3d811d9a	0.06304474
7	0x3bfa701e	0.00764276
8	0xbdaa1a70	-0.08305824
9	0x3d37ca79	0.044870827
10	0x3db4262e	0.08796345
11	0x3ced53e8	0.028970674
12	0xbe7312a4	-0.2373758
13	0x3e3f9eb0	0.18712878
14	0xbb059048	-0.0020380188
15	0x3c5e7cc7	0.013579554
16	0x3de4d385	0.11173157
17	0x3e4168b2	0.18887594
18	0x3dd06b79	0.10176749
19	0xbe13beea	-0.14428297
20	0x3cbc43d5	0.022981564
21	0xbe808c11	-0.25106862
22	0xbcedb99b	-0.029019168
23	0xbce7ec7b	-0.028311005
24	0x3d6920b7	0.056915965
25	0xbe0543a7	-0.13014089
26	0xbd243729	-0.040091667
27	0xbced76e1	-0.02898735
28	0x3e489417	0.19587742
29	0x3b5dc09f	0.0033836735
30	0xbe0cf7f2	-0.13766459
31	0xbda29ac0	-0.079396725
32	0x3e23c16a	0.1599175
33	0xbe4756ab	-0.19466655
34	0x3e16e38a	0.14735237
35	0xbe68ba25	-0.22727259
36	0xbe0b293f	-0.13589953
37	0xbe252e7e	-0.16131017
38	0xbd0cf0fe	-0.034409516
39	0x3c72eed5	0.01482745
40	0x3e0f8a88	0.14017689
41	0xbb9bff18	-0.004760634
42	0x3d98acbb	0.07454821
43	0x3da8f64d	0.08250103
44	0xbde9980d	-0.114059545
45	0x3dce32a3	0.10068252
46	0xbc4c852b	-0.012482922
47	0x3c191d32	0.00934534
48	0xbdd1a11e	-0.10235809
49	0xbe3c802a	-0.18408266
50	0xbd59c1b4	-0.053163245
51	0xbe48ba2e	-0.19602272
52	0xbe1db26e	-0.15400097
53	0xbe908065	-0.28222957
54	0xbdda83ce	-0.10669671
55	0x3c9f603a	0.019455064
56	0xbd74e18f	-0.059785422
57	0xbe374318	-0.17896688
58	0xbd50a7e1	-0.05094135
59	0xbd79ef50	-0.06101924
60	0x3e29c250	0.1657803
61	0xbc8ff178	-0.017571196
62	0x3cfeee16	0.031119388
63	0x3e0260aa	0.12732187
64	0x3d57aacb	0.052653115
65	0xbcf699c3	-0.030102616
66	0xbde249d2	-0.11049236
67	0xbcd22cb6	-0.025656085
68	0xbdf71c3c	-0.12065932
69	0x3d2792ad	0.040911365
70	0xbdf9fc2c	-0.12206301
71	0x3c1483c5	0.009064619
72	0xbe159ae2	-0.14609864
73	0xbde3d839	-0.111252256
74	0xbe2abd02	-0.16673663
75	0x3bb92a49	0.0056507927
76	0xbc9c6edb	-0.019095829
77	0x3d9eaa6d	0.0774735
78	0xbcefc4ad	-0.029268587
79	0x3c4858fd	0.012228248
80	0xbdf2d75b	-0.11857482
81	0x3d8d040b	0.06885537
82	0xbd886a76	-0.06660931
83	0x3dd86483	0.10566046
84	0x3dbdd441	0.09269
85	0xbdecbe09	-0.11559684
86	0xbdf76b0a	-0.12080963
87	0xbdfadeae	-0.12249504
88	0x3dae44ec	0.085092396
89	0xbddaf3a2	-0.106910005
90	0xbda2cca5	-0.07949189
91	0x3d44b793	0.048026633
92	0x3d7ee24b	0.06222753
93	0x3e203db9	0.15648545
94	0x3db08349	0.08618791
95	0xbdd2fcd7	-0.103021316
96	0xbdff656d	-0.12470517
97	0xbddfb80e	-0.109237775
98	0xbd83b820	-0.064316034
99	0xbbbac9a8	-0.005700309
100	0x3e4d7d07	0.20067225
101	0xbe5fc869	-0.21853794
102	0xbd7e9d15	-0.062161524
103	0x3e3f0a98	0.18656385
104	0xbd68f43e	-0.056873553
105	0xbd853012	-0.06503309
106	0x3e2a0577	0.16603647
107	0xbd1aafcb	-0.037765305
108	0x3a65187e	0.00087393064
109	0x3e87abda	0.264983
110	0x3de8c96c	0.11366543
111	0x3c96d5f1	0.018412562
112	0x3df530fd	0.119722344
113	0x3e01ddb1	0.12682225
114	0xbbfdde86	-0.007747474
115	0x3d5039dc	0.05083643
116	0xbcb7a244	-0.022416241
117	0xba74c6e5	-0.0009337499
118	0xbe0f16f1	-0.13973595
119	0xbd573bb0	-0.052547157
120	0xbe7f060f	-0.24904655
121	0x3bb97f0a	0.005660896
122	0xbdd6aa7c	-0.10481736
123	0x3d72487d	0.05915116
124	0x3dd0b103	0.10190012
125	0x3db3d2c8	0.08780438
126	0x3d806b9b	0.06270524
127	0x3d18fe98	0.037352175

fc.weight f4 [1, 32]
0	0xbddc4171	-0.107546695
1	0x3cab0c8b	0.020880004
2	0x3dc3dbfe	0.095634446
3	0x3df587da	0.11988802
4	0x3e68f39e	0.22749183
5	0x3d0a34fa	0.03374193
6	0xbe1aff5c	-0.15136474
7	0x3e04c220	0.12964678
8	0x3e914f57	0.28380844
9	0x3dbe4d8d	0.092921354
10	0x3dca2d7e	0.09871958
11	0xbe198fd8	-0.14996278
12	0x3df9e429	0.12201721
13	0xbe580a8c	-0.21097773
14	0xbe44ad7d	-0.19206806
15	0x3cf750d9	0.030189918
16	0x3e3fa0ff	0.18713759
17	0xbe51696d	-0.20450373
18	0xbe698478	-0.22804439
19	0xbd816f8f	-0.06320106
20	0xbd8a9b0f	-0.06767856
21	0xbd580a45	-0.05274417
22	0xbe31af1d	-0.17351957
23	0x3d97c4d1	0.074105866
24	0xbc9acd10	-0.01889661
25	0x3d2df2ec	0.042467996
26	0x3dc4b97e	0.09605692
27	0x3dcd5677	0.100262575
28	0x3e5231b0	0.20526767
29	0xbe12a657	-0.14321266
30	0x3e0a24c2	0.13490584
31	0xbe1d0bdb	-0.15336554
