backend/stocks/price/pt_models/AVY.pt (torch, 54423 bytes, 9 tensors)

lstm.weight_ih_l0 f4 [128, 1]
00000000: 6265 f93d 1b1b 6ebc 77ce b13c 7d5c 493c
00000010: 6a60 043e 1951 8e3e 4485 0ebb 4f84 be3c
00000020: fe3e 0b3e 536f 1fbd 39bc 94bc 8a58 3abe
00000030: 030c b3bd 2d91 c5bd f3c7 9dbe a98b 56bd
00000040: d722 de3d 3c2b 6abd 0116 303e 1600 3dbe
00000050: d7d5 2c3d cda5 5b3c 8d40 1a3e ad85 b43e
00000060: 8f46 2cbe bdd7 2abe 0bc8 8e3c cf60 a83d
00000070: 7dbf a9be 5e4c 83be 30a5 23bd e8f7 03bc
00000080: 2972 953e 3358 8cbd 6f46 253c 78b6 653d
00000090: c315 033d cb61 acbc 7299 a6bd e25e d6bd
000000a0: 6f40 e33d d606 29bd fae2 2abe cae3 59be
000000b0: 4c45 92bd 3b3d 043d 1bc2 12be 421e 85be
000000c0: 481d 473e 0f98 093e faa0 153e 71a1 2cbe
000000d0: 56fd 18bd 1da6 353d 2e08 bbbb 7178 193e
000000e0: 5e05 04bd 122a adbe c305 1a3b 7a1e d9bd
000000f0: 1c6f 7cbe a60b 72be f3ba 84be 2f7e ff3d
00000100: 31a7 0c3e 65fe fe3c dc7a 1c3e 98b0 863e
00000110: b6be 38be a40f c03d 5d7c 723e 1226 63be
00000120: e409 22be 3949 7b3e dbb0 163e d421 533e
00000130: 73ae 84be da44 053d e21e 913e 8787 933d
00000140: 9c98 8b3c 918b b53c 24a4 10be 10c5 4e3c
00000150: fba0 f03d fedf 8bbd 1630 5c3e c4cb bf3c
00000160: c9ae 1d3d b2df 953e 3572 dabc babf 023d
00000170: 9d5f 49be e1b5 94be d9e6 93be 22da 6d3e
00000180: 7bee 403e 6e77 d33d 7bbe 43bd 44ba 44be
00000190: 7650 713e fda4 d63d 83f3 c1bd 6bcb 53be
000001a0: 4932 d03d 5b15 063d ec15 9bbc 1e9c 89bd
000001b0: 91ce b1be 8da0 8f3d 7cac 3abd 9bd7 83be
000001c0: 5647 743c ab22 32bd c774 823e 8aaf c43d
000001d0: 6e32 7abe 8d7c f73d 19cc 3e3e 015d 5e3e
000001e0: 027d 69be 7f35 0cbe 698f 633e b26f 5abe
000001f0: 8ddf 12be 8eb7 d1bd 3616 ebbd 1715 953d
0.1217754 -0.01453283 0.021704895 0.012290117 0.12927404 0.27796248 -0.0021746913 0.023256449
0.13598248 -0.038924526 -0.018156158 -0.18197837 -0.087425254 -0.09646831 -0.30816612 -0.052379284
0.10846489 -0.057170138 0.17195894 -0.18457064 0.04219612 0.013406229 0.15063687 0.35258237
-0.16823791 -0.1668386 0.017429372 0.0822159 -0.33153906 -0.256442 -0.039952457 -0.008054711
0.2918866 -0.0685276 0.010087593 0.05608222 0.032003175 -0.021042725 -0.08134736 -0.10467316
0.11096274 -0.041266285 -0.16688147 -0.21278301 -0.071421236 0.032284956 -0.14331858 -0.25999647
0.19444764 0.13436912 0.14612189 -0.1685846 -0.037350975 0.04434787 -0.005707762 0.14987351
-0.03223168 -0.3382116 0.002350197 -0.10601516 -0.2465176 -0.23637256 -0.2592388 0.124752395
0.13735653 0.031127164 0.15281242 0.26306605 -0.180415 0.09377983 0.23680253 -0.22182491
-0.15824085 0.24539651 0.14715903 0.20618373 -0.25914344 0.032536365 0.28343874 0.07203584
0.017040543 0.022161277 -0.14125115 0.012620226 0.117494546 -0.068298325 0.21502718 0.023412593
0.038496766 0.29272228 -0.026665786 0.031921126 -0.1966538 -0.29045013 -0.2888706 0.23227742
0.18840973 0.10325514 -0.04778908 -0.1921168 0.2356585 0.10480688 -0.09470274 -0.20683067
0.10165841 0.03273521 -0.018931352 -0.0671923 -0.3472791 0.070130445 -0.04557465 -0.2575043
0.014909586 -0.043490093 0.2547972 0.09603794 -0.244333 0.12084303 0.18632545 0.21715166
-0.22801593 -0.13692282 0.22222675 -0.21331671 -0.1434309 -0.102400884 -0.11478846 0.07279413

lstm.weight_hh_l0 f4 [128, 32]
00000000: 27ef 77bd 04c2 b83e b7c4 a8bd f4e4 2e3e
00000010: e0ea 15be aaa7 963d d648 17be 0d5d e7bb
00000020: 4ed9 e4bd 5576 723e a5e8 013d 9cfa 503e
00000030: b374 20bd 7b5f 97bd aa8f 503b cef5 a43e
00000040: 100f 913d 2e0c 70be ce11 fdbc 94d9 603e
00000050: 7797 993d a290 edbb ed8c 4fbd ccae 4c3b
00000060: ae2e 213c 9f69 a0bc 5ba9 3fbd 1d99 303e
00000070: f546 b4be 38b0 07be 6c15 d5bd 1932 5b3e
00000080: 47f5 663d 749b 323e 8056 85bb 5f32 56bd
00000090: a5e2 993b 5e0a dd3c 17e8 e2bd 7369 283e
000000a0: cdc4 91bb f2d8 563e d89c a9bd b903 353d
000000b0: a5f7 17bd c85a f03d 837d 993d 4fbf babd
000000c0: b959 55be 7a93 35be 79fb 4abc 9c45 213d
000000d0: 3aaf 47bd ddb1 133e 7747 2ebd 9880 e5bd
000000e0: bfc8 acbd 2d36 0fbe e2fe a23d ad12 a93d
000000f0: d948 0abe e382 253e b321 50bd 1a90 803d
00000100: a4e1 2fbd f02a 80bd c2ba 67bd 78aa a2bd
00000110: 65e0 09be b93d a23d 8390 e7bd 5aa3 a73d
00000120: c5d1 15be b4f8 8d3d a5ed 863c c0a1 1e3e
00000130: a91d 23be dfa1 17be 89c4 03be 59a3 9c3d
00000140: 7dfc bcbd d2ee 803c 7d12 9e3c 2a10 8ebd
00000150: 1bc5 c53d 934e a1bd ca1e 033e 43cc 9e3d
00000160: 885b cb3c aecc b03d 744f bb3d 09ba 6c3a
00000170: f74e 68bd acc4 4cbc 24d4 44bc 3da0 eabd
00000180: 1567 e8bd 2508 4a3d f2fb 7abd 8276 3abe
00000190: 3de0 0abe 7c02 a1bd edc0 df3d aefb e13d
000001a0: cfbe e6bd 4b8f efbd bd90 6cbd c89e 023e
000001b0: 229a 22bd 3cde 3dbe 4167 14bd 61d3 4abe
000001c0: 4045 1cbc 1546 f43d 1869 5bbc 1ef7 1e3e
000001d0: dfb2 23be 2565 cdbd 4718 2dbe 58d1 323d
000001e0: cbbd d63c 8991 7bbe 9315 cbbc 5286 93bd
000001f0: 656d f03d ce82 0ebd 3a02 253e ed55 f5bd
00000200: 9170 96bc d178 153e 34c4 febd 8857 d43c
00000210: 76e9 213e 4ec7 853a 2b59 613d 91f1 2b3d
00000220: ecc5 45be b813 863c dc13 a3bd a29b c2bd
00000230: 2fc1 8a3d 377d 503d 994f f43d 5ffa f33d
00000240: 85dc 40bd 38a1 3ebe f02d dc3c ea64 15bd
00000250: 96e6 ec3c a9b2 39bd c396 dfbc 8fac b83d
00000260: 9163 c6bd 5cdd 573e 63ce 7f3d 5542 023d
00000270: c71e b9bd e2e5 00bd 2b91 033e e352 5ebd
00000280: 8720 2b3e aecd 4f3d c3ea 49be ed4d 69bd
00000290: 2c7f 0a3d b09e 6fbd fd8e 13be 596d 29bd
000002a0: 5795 ce3c 8836 033e 351d 873c cde4 6f3e
000002b0: 1e4c 13bd dbdc 7cbc fe12 de3d 83cb fe3d
000002c0: 7f7d 47be 861b 7abe e7a8 1cbd db02 123e
000002d0: 4546 833e b1a5 de3d 6a28 05be 1c12 1dbe
000002e0: 2973 c33c 6225 1c3e cd54 91bd 574d bc3c
000002f0: d05e 1abe f2fa 1bbd 3d7f 7fbe d82b 4e3d
00000300: ffa6 13be 637a 703e 1637 0c3d a591 0f3d
00000310: acba b7bd d4f9 c03c cba9 6bbe 5027 2bbd
00000320: 2c9e 70be 7155 81be a7d4 373e cd86 b4bd
00000330: f978 13bd a89b f4bd 1fcf 97bd 4c81 553e
00000340: e032 b43d 9381 62bd 7457 aa3d cd3b 663e
00000350: da77 9a3c 4447 3c3e 3cf1 8e3d edbf 963d
00000360: 3da6 e0bc 2671 393e 2841 293d ecab 033d
00000370: bcff 3dbe a5bc 7cbe 8752 893d 4c73 613e
00000380: 7492 ba3d 2c5c dbbd 40f9 413d dc4a 39be
00000390: 367e a6bd e732 cbbc 5303 dbbd 0547 163c
000003a0: 6ee1 99bd c538 96bd 1570 22be f209 033e
000003b0: 200d 1abd 32bb cc3d 0c5f ebbd 232f fb3d
000003c0: 7fec 7cbe fa07 49bd 0eeb 373e 8032 693d
000003d0: ac8b 9b3d 59ea 0ebc 564f 803d 8ad4 243d
000003e0: d682 343e 091a e0bd 9367 843c 3033 143e
000003f0: 690d 703c 92f0 993d 409f 35be 3983 cfbd
-0.060530808 0.36085522 -0.082406454 0.17079526 -0.14640379 0.07356198 -0.14773878 -0.007060653
-0.1117426 0.23677953 0.031716008 0.204081 -0.039173793 -0.07391258 0.0031823912 0.32218784
0.07082951 -0.23442146 -0.030892279 0.21958 0.07499593 -0.0072499076 -0.050671507 0.0031232117
0.009837789 -0.019581614 -0.04679237 0.17245908 -0.35210386 -0.13250816 -0.104044765 0.2140583
0.05638626 0.17442113 -0.0040691495 -0.05229413 0.0046962076 0.026982483 -0.11079424 0.16446476
-0.0044485093 0.20981196 -0.08281869 0.044193003 -0.037101407 0.11736065 0.074946426 -0.091185205
-0.20835008 -0.17732039 -0.012389057 0.039373025 -0.048751093 0.14423318 -0.042548623 -0.11206168
-0.08436727 -0.1398551 0.07958771 0.08255515 -0.13504352 0.1616321 -0.050813388 0.06277485
-0.042939797 -0.0625819 -0.05657459 -0.079426706 -0.13464506 0.07921929 -0.1130686 0.08185454
-0.14630802 0.06932202 0.01647074 0.1549139 -0.15929283 -0.14807843 -0.12867941 0.076483436
-0.09227846 0.015738878 0.019295925 -0.06936677 0.096567355 -0.07876315 0.12804714 0.077538036
0.024823919 0.086327896 0.09146014 0.0009030407 -0.05671593 -0.012498062 -0.012013469 -0.11456344
-0.11347786 0.049324173 -0.06127543 -0.1820927 -0.13562103 -0.07861802 0.109254695 0.11034332
-0.112668626 -0.11697253 -0.05775522 0.12755883 -0.039697774 -0.18541807 -0.036231283 -0.19807197
-0.009537995 0.119274296 -0.0133917555 0.15523955 -0.15986203 -0.100290574 -0.16903792 0.043656677
0.026213547 -0.24567236 -0.02479056 -0.07203354 0.11739615 -0.034792714 0.1611413 -0.1197928
-0.018364223 0.14596869 -0.124397665 0.025920644 0.15811715 0.0010206492 0.055016678 0.041978423
-0.19313782 0.016366825 -0.07962772 -0.09502341 0.06775128 0.050900664 0.119292445 0.11912989
-0.047085304 -0.18616188 0.026877373 -0.036473192 0.028918546 -0.0453364 -0.027293568 0.09017288
-0.096869595 0.21080536 0.062452685 0.03180154 -0.090390734 -0.031469233 0.12848346 -0.054278266
0.16711627 0.05073326 -0.1971846 -0.05695908 0.033812687 -0.058500946 -0.14410014 -0.041364048
0.025217695 0.12813771 0.01649342 0.23427124 -0.035961263 -0.015433515 0.10843466 0.124411605
-0.19481467 -0.24424562 -0.038247015 0.14258902 0.2563955 0.10871447 -0.13003698 -0.1533894
0.023858624 0.15248635 -0.070962526 0.022986097 -0.1507523 -0.038081117 -0.24950881 0.05033478
-0.14419173 0.23484187 0.03423222 0.035051007 -0.08971152 0.023556627 -0.2301399 -0.04178554
-0.23497838 -0.252605 0.17952214 -0.08814774 -0.03600404 -0.119437516 -0.07412552 0.20850104
0.08798766 -0.055299353 0.083174616 0.2248375 0.018855978 0.1838656 0.069796056 0.07360826
-0.027423019 0.18109569 0.041321903 0.03214638 -0.18554586 -0.24681337 0.06705194 0.22016639
0.09109965 -0.1071094 0.047356844 -0.18094963 -0.081295416 -0.024804546 -0.106939934 0.009172206
-0.075137004 -0.07335047 -0.15863068 0.12796763 -0.037610173 0.09996642 -0.11492738 0.1226485
-0.24699591 -0.049079873 0.1796076 0.056932926 0.07595 -0.008722865 0.06265132 0.040241756
0.17628035 -0.10942466 0.01616267 0.14472651 0.014651635 0.07516588 -0.1773653 -0.101324506

lstm.bias_ih_l0 f4 [128]
00000000: 2c9d e6bd e744 8ebd b566 e4bd 8d7a ae3d
00000010: 6446 723d ecc4 05be be91 acbd a1ae 14bd
00000020: 4758 dc3d 63e4 0a3c 666c b83d 0e03 5bbd
00000030: 4a80 adbd cc2f bebd d8ef 9e3d dabc 24be
00000040: bd19 b93c 13b1 05bd 1ab5 863d ee7c cb3b
00000050: 0ce9 ab3d fcde 9b3d 04c4 c0bd 0245 5abe
00000060: 468b 4dbe fca2 bfbd c3ba bdbd facb 13be
00000070: 6bce ae3d d22b 063e dc93 e13c 047e 083e
00000080: 79f6 94be 2b7f e03d 4897 c8bd 9ecf 16bd
00000090: 241f 19be 8f87 15be 3969 21be 47a2 ee3c
000000a0: c707 50be d685 0ebe 2136 a9bc 7a93 96bd
000000b0: d14e 13bd 3ac5 88bd f084 b7bd 8ff7 a6bd
000000c0: 3d66 c2bc e28e b6bd 143d 39be 7cb5 c13d
000000d0: a529 df3d f0b2 10be 4127 283e 2df2 c7bd
000000e0: c980 113e 14ec d9bd 5630 c1bc dfbc ea3d
000000f0: e0d3 483c 2e29 34bd 6f52 debd ac16 4d3e
00000100: 2321 88bc 0c71 ff3a 6f50 eb3d 6b37 263e
00000110: 7dba efbd 7f84 e9bc d558 ef3c 5422 f23d
00000120: a4eb d8bd bf69 8f3d 08bd 41bd 5a5a f9bd
00000130: 9f52 33be 5cc9 a4bb 9157 c6bd 177b 44be
00000140: 17c7 0f3d 712e 253e d511 80ba ccb3 743b
00000150: c0a1 40be bb91 2abe 34d8 093e 4b5d 123d
00000160: 6503 1fbd b32e 003d e921 4c3d f47d 90bd
00000170: e364 b33d bc38 e13d cdd2 edbd d6b2 333c
00000180: a69c 2fbe b076 c43c f9ad 763d 6392 0c3e
00000190: 868d 2c3b b1af 48be fc81 debd 851e 113e
000001a0: 3f95 9f3d b08a 87be 35b6 4fbd b483 fb3d
000001b0: 151c 933c 4d8b 313c 1172 9e3d f398 02be
000001c0: 0ee9 3ebe 9cf0 83bd 3ac4 d93d fe46 243e
000001d0: f2d3 cfbd 718a 97bd 97be e43d ffb6 083d
000001e0: badb f93d e615 2e3e 5a93 54be 05ea 173e
000001f0: a2d5 4b3d ff58 3e3e 3e09 763b 1be0 343e
-0.11260447 -0.06946736 -0.11152402 0.085194685 0.05914916 -0.13063401 -0.084262356 -0.03629935
0.10759025 0.008477303 0.0900505 -0.05346971 -0.08471735 -0.0928646 0.0776059 -0.16087666
0.02259528 -0.032639574 0.06577511 0.006209961 0.083940595 0.0761089 -0.09412387 -0.21315387
-0.2007266 -0.09357259 -0.092641376 -0.1443328 0.08535465 0.13102654 0.027536325 0.13329321
-0.29094294 0.10961755 -0.097944796 -0.036819093 -0.14953285 -0.14602493 -0.15762796 0.029130114
-0.20315467 -0.13918242 -0.020655693 -0.07352348 -0.035963837 -0.06678243 -0.08960903 -0.08152687
-0.023730392 -0.089139715 -0.18089706 0.094584435 0.10896615 -0.14130759 0.16421224 -0.09762988
0.14209284 -0.106407315 -0.023582619 0.114618056 0.012257546 -0.043984585 -0.10855567 0.2002818
-0.016617363 0.0019488647 0.11489951 0.16232078 -0.11705492 -0.028505562 0.029217163 0.11822954
-0.1059182 0.07002591 -0.047299415 -0.12175436 -0.17511986 -0.0050288867 -0.09684671 -0.1918758
0.035101976 0.16130997 -0.0009770939 0.0037338613 -0.18811703 -0.16657154 0.13461381 0.035733502
-0.038821597 0.031294536 0.049837027 -0.07055274 0.08759477 0.10997149 -0.11612473 0.010967931
-0.171496 0.023982376 0.060224507 0.13727717 0.0026329472 -0.19598271 -0.10864636 0.14171799
0.07792138 -0.26472998 -0.050710876 0.1228098 0.017957726 0.010836435 0.077366 -0.12753658
-0.18643591 -0.06442377 0.1063313 0.16042706 -0.10147847 -0.073994525 0.11169165 0.033377644
0.12200113 0.17000541 -0.20759335 0.14835365 0.049764283 0.18588637 0.003754213 0.17663614

lstm.bias_hh_l0 f4 [128]
00000000: 40d0 4abd f6e6 833b 0ee6 33be 3cf5 313e
00000010: 5f13 cfbd 96a1 96be 3671 d3bd 3c21 463e
00000020: 7046 44be 39a7 52be ee26 d5bd 4f95 a43d
00000030: e165 b7bd d7c0 513d faf8 25bd f23b 17be
00000040: d6be c5bc 2b1e 27be 3cec cc3c 39f7 613d
00000050: 8d19 473e 641d d23a 9c91 3cbd f864 b13d
00000060: 6c00 093e cc24 26bd 1d1f 16be df90 f8bd
00000070: 7d08 81bd 5eea a2bc 7bf3 923d d0aa 3a3e
00000080: e0a9 c3bc 4ce5 00bb e1c2 663d d858 ff3d
00000090: 1ac3 61be 259e 45be a3b8 6abd f4db 0dbe
000000a0: 0501 69be f6dd 33be 7e46 0bbe 6a31 843d
000000b0: bd9d 373d da59 52be d84f 063e 7dc6 06be
000000c0: fa89 313a a713 df3c 7e2c d4bd b152 6fbd
000000d0: 3cb6 fbbc 66e2 f2bc e416 143e 79b1 67be
000000e0: 8631 3f3d 4221 9dbd 50d0 c0bd 6a51 0cbe
000000f0: 7fcc 633c 66f7 e0bd 6505 baba 6467 94bd
00000100: 0f31 783d 8371 ffbd a0be 463d 2abc 6bbd
00000110: 75d7 99bc 860c bf3d cf15 513d c637 4fbe
00000120: 0e4f 7dbc 4b44 2d3d d9bc 16be 9263 893d
00000130: 0196 bf3d 54f6 e03d 42e5 3f3e 14d2 2abd
00000140: dd4a f73c e3f2 053e 275d 6ebe 0b6b 3cbe
00000150: 695b 603d dea1 613d e8ff e13d 1673 023e
00000160: 0cd9 f3bd d112 47bd 7dfe 2a3d afb4 a5bd
00000170: 972b 90bc 5a9e 01be a7be 2d3c 854f 063d
00000180: 5584 08be 3272 40be 3f67 043d 11a8 2b3e
00000190: 72d8 b0bd af79 11be 251e 66bc 8833 e53d
000001a0: 9c0a 343c 6446 57be 627f ea3d f3f0 6c3d
000001b0: 2c1a c4bd 7e17 4dbe 961c 033d 8035 bd3c
000001c0: d9d7 29be dda0 66bd d93d 023d 4b62 7f3d
000001d0: 835a b0bd 04d1 e0bd c5da 8ebd e84f c6bc
000001e0: a035 4dbe 9476 3c3e 0465 6fbe 6d40 07be
000001f0: aa0b d8bd 47e9 573e f186 343e e478 f63d
-0.04951501 0.0040253354 -0.17568228 0.17378706 -0.101111166 -0.29420155 -0.10324328 0.19348615
-0.19167495 -0.20571603 -0.10407816 0.08036291 -0.08954979 0.051209297 -0.040520646 -0.14768961
-0.02413885 -0.16320102 0.02501499 0.05516741 0.1944334 0.0016030488 -0.0460373 0.086618364
0.13379067 -0.040562436 -0.14660306 -0.12137007 -0.06300447 -0.019887146 0.071753465 0.18229222
-0.023884714 -0.0019667922 0.056338195 0.124681175 -0.22047082 -0.19298609 -0.05730499 -0.13853437
-0.22754295 -0.1756514 -0.1360111 0.064547375 0.044828165 -0.20542088 0.13116395 -0.13161655
0.0006772574 0.02723105 -0.10360049 -0.05842847 -0.030726545 -0.02964897 0.14461857 -0.22626294
0.04667809 -0.07672359 -0.094147325 -0.13702932 0.013903736 -0.109846875 -0.0014192282 -0.07246283
0.06059366 -0.124728225 0.048521638 -0.057552494 -0.018779496 0.093285605 0.05104619 -0.2023612
-0.015460743 0.042301457 -0.14720477 0.06708445 0.09354783 0.10984483 0.18739799 -0.041704252
0.030187065 0.13080935 -0.23277722 -0.18400209 0.054774676 0.05508601 0.11035138 0.12739214
-0.11906633 -0.04860193 0.041746605 -0.08091103 -0.01759891 -0.12658063 0.010604537 0.03279068
-0.1333173 -0.18793562 0.032325026 0.16763331 -0.08635034 -0.14206575 -0.014045273 0.111914694
0.010988858 -0.21022946 0.114500776 0.057846975 -0.095753044 -0.20028493 0.032009684 0.0230968
-0.16586246 -0.056305755 0.031797264 0.0623496 -0.08611014 -0.109773666 -0.06975321 -0.024208024
-0.20039988 0.18404609 -0.23378378 -0.1320817 -0.105491 0.21085082 0.17629601 0.12034777

lstm.weight_ih_l1 f4 [128, 32]
00000000: d42a 9fbd efeb 513d 0b96 0fbe df32 043d
00000010: 3037 e4bd 4d69 03bd 1ca5 f03c 48b9 29be
00000020: 746b 1ebe 2f4a 14be 0e70 41bd 6997 85bc
00000030: 141d 85bb 393f 5ebe ab57 f0bc 122c ce3d
00000040: 2e9e 22be 43ac 1bbe a388 f33c dbd3 cebc
00000050: 117f 9c3a efaf 9e3d ec77 883d 4098 273e
00000060: dad2 a6bd 4b5e dabd 291b 2b3e 0659 383e
00000070: 4020 e4bd ce2c 04bd 508d 41bd 269c 103d
00000080: 0f73 fe3d 2745 a53d 16d1 313c 75fb 2a3e
00000090: 8e05 95bc acb0 f33d 175d a8bc ffdf 8cbe
000000a0: 918a 08be ce84 dbbd 6ad7 4b3c 7ca9 293d
000000b0: 4fc3 b2be 24b0 873b 0ec0 853e 5cdc 933e
000000c0: a2f8 6dbe 4998 363d 2d5f 6c3d b84e 403e
000000d0: 0b58 843e 0556 d23d 778a 033e fa7e 173b
000000e0: 7a7d 623e 8518 323e 4701 933d b8df cdbc
000000f0: 9443 54be 30de 6abe a105 5fbe f2d3 ffbc
00000100: 2bd8 123e 3f7f f93d 5250 8b3d 2ff2 b53e
00000110: 431f cebd 66b1 f5bd c11f 6abc 466d 4dbe
00000120: 85a7 5ebc 9a92 763d 09ed 09bd 5fd8 b13e
00000130: 4584 30be 97f8 363d da29 8c3e 92a0 ad3d
00000140: 8417 6dbe e53b 92be c6ed d13d 152b 8a3e
00000150: e79f 7d3e 1339 193e 792c 7e3c d46c f7bd
00000160: d8c1 523e a17a cd3c 858d 20bd 1f66 693e
00000170: 87dd 74be e31d 85be 0151 babd 3207 b9bc
00000180: 55dd 963c 513b 33be 8eef 9ebd 7382 e0bd
00000190: fc15 77bd 4657 e93c 65ae e7bd af68 2dbc
000001a0: 7c2a b83d a5cc 5abd 0125 bcbc 5df5 5a3c
000001b0: 299d 853e 245d 863d 50ba 57be 9db0 e33d
000001c0: 89f9 c7bd 975f febd 6130 8c3c f76c 04be
000001d0: 4a48 733d 4058 9cbd 1c3a d2bd c34b 63be
000001e0: 1dde edbb 749c a2bd 6d20 dbbd 4b66 26be
000001f0: 15c1 863e f5de 823e c391 a03d 0a5c 91be
00000200: 431b 05be 4d0b cdbc 72ed 6dbe 9249 e03d
00000210: 9010 203e 2866 c1bd b029 0abe aba8 273e
00000220: 4fb9 70bc 1609 3dbe b266 053e a123 2fbe
00000230: 57d7 163e d48b c33d 37f9 b2bd 7cb4 61bc
00000240: b0a1 7fbe d1d7 43be 9965 263e 88b1 a7bd
00000250: b781 11be a72d 9fbd 3496 b2bc 6e21 1bbe
00000260: ffc0 d4bd a92d 59be b9fb 37be 81de 293e
00000270: a51c 5e3d 48ea 59bd 1f68 2c3e 2c3d 7cbd
00000280: edaa d6bd 7837 333e e284 0bbe fdbd 293e
00000290: 948e e5bc 6a39 dbbd 49ef 133d efc8 56be
000002a0: fa3e 0dbe 6566 bdbd 1f3a 2a3e dffb 1f3e
000002b0: ef96 9dbe 58c0 febc 5733 db3c a16e 5fbd
000002c0: 2d2b 803c 9f3f 81be f2bf 88bd dc03 2a3e
000002d0: 46b6 113e e616 2e3e b94e 753d 4efc 773e
000002e0: de23 9bbb c65a f5bc 5a1d 92bd 0006 a83e
000002f0: 1cea b2bd 753f 543b 52df 61be 85f4 703e
00000300: c061 2ebe 86a4 303e b8cd c33d 3a2a b43e
00000310: 656e 8a3d 4e1b cbbd b1c8 f4bd 2b36 c4bd
00000320: 754f 9d3d df07 92b9 1811 423d 0dee 0c3d
00000330: 6d6a f0bd ddce 493d 3300 1d3e 564d 203e
00000340: 7698 3c3d ae53 bbbc cb39 2abe e577 4d3d
00000350: 2fc3 813e e114 5bbd 936f 463e dde8 3f3e
00000360: 1115 263d 6178 4bbd 9071 253e c1fa 4d3e
00000370: 6f14 67be 3e8d 18be 2b37 9abe 7ace 1c3e
00000380: 1dde ffbd 22a1 083e 3496 ccbd ad0e ee3d
00000390: 527c 053e 55fb 6abd 780d b13c e662 87be
000003a0: dac9 18bd bd29 debc 829a e23d 964e 043e
000003b0: b791 ecbd fe47 f93d e098 5f3d 6d17 603e
000003c0: b25d a73d 31ea 27be 2157 4c3d a723 0b3e
000003d0: 3f2f 54bc e51c 023c bc5a 453e 72f3 023e
000003e0: 0857 8cbd 9a8c 3d3e 46bd 263e 6f65 533e
000003f0: 255d 2bbd 8068 8abe 4f5f c3bd e788 3e3d
-0.07771841 0.051250394 -0.1402208 0.032275077 -0.11143339 -0.032082845 0.029375605 -0.16574585
-0.15470678 -0.14481424 -0.047226004 -0.01630755 -0.0040623043 -0.21703805 -0.029338678 0.100669995
-0.15880653 -0.15202431 0.02972824 -0.025247505 0.0011939724 0.077484004 0.06663498 0.16366673
-0.081456855 -0.10662516 0.1670958 0.1800271 -0.11138964 -0.03226929 -0.047253907 0.035305165
0.124242894 0.080698304 0.010853073 0.16697486 -0.018191125 0.11898932 -0.020552201 -0.27514645
-0.13334109 -0.1071869 0.012441495 0.0414214 -0.34914634 0.0041408706 0.2612309 0.28879058
-0.23239377 0.044578824 0.057707954 0.18780029 0.2584842 0.10270313 0.12845789 0.0023116455
0.22118178 0.17392166 0.07177978 -0.025131091 -0.20728904 -0.2293632 -0.21779491 -0.031228993
0.14340274 0.121824734 0.06802429 0.35536334 -0.100645564 -0.11996727 -0.014289797 -0.20061216
-0.013589744 0.060198404 -0.03367332 0.3473539 -0.17237957 0.044670667 0.2737568 0.08477892
-0.23153502 -0.2856132 0.1025043 0.26985994 0.24768029 0.14963178 0.015513533 -0.12081304
0.20581758 0.025082888 -0.039197464 0.22792862 -0.23912631 -0.25999364 -0.090974815 -0.022586439
0.018416086 -0.17503096 -0.07760535 -0.10962381 -0.0603237 0.028483998 -0.1131256 -0.010584041
0.08992478 -0.05341782 -0.022966864 0.013364163 0.26096466 0.06560734 -0.21067166 0.11117671
-0.09764392 -0.12420576 0.017112913 -0.12932192 0.059395112 -0.0763402 -0.1026499 -0.2219687
-0.007259144 -0.07939997 -0.10699544 -0.16249959 0.26319185 0.25560728 0.07840302 -0.28390533
-0.12998681 -0.025029803 -0.2323511 0.109515324 0.15631318 -0.09443313 -0.13492465 0.16372935
-0.0146926185 -0.18460497 0.13027456 -0.17103435 0.14730583 0.095481545 -0.0873894 -0.013775941
-0.24964023 -0.19125296 0.16249694 -0.08188158 -0.14209639 -0.07772379 -0.021800138 -0.15149471
-0.103883736 -0.21208824 -0.17967118 0.16588785 0.054226536 -0.053201944 0.16836594 -0.061581776
-0.1048182 0.17501628 -0.1362491 0.16576381 -0.028022088 -0.1070431 0.036116872 -0.20975088
-0.13793555 -0.09248046 0.16623734 0.15623425 -0.30779216 -0.031097576 0.02675788 -0.054548863
0.015645588 -0.25243852 -0.06677236 0.16603035 0.14229688 0.17000923 0.05988953 0.2421734
-0.0047345003 -0.02995051 -0.071345046 0.32817078 -0.08736059 0.0032386456 -0.22057846 0.23530777
-0.17029476 0.1725026 0.09560722 0.35188466 0.06759337 -0.09917317 -0.11952341 -0.09580644
0.07681171 -0.00027853154 0.047379583 0.03440671 -0.11739049 0.049269546 0.15332107 0.15654501
0.046043836 -0.02286705 -0.16623609 0.05016317 0.25344226 -0.05348671 0.193785 0.18741174
0.040547434 -0.04967535 0.16156602 0.20115186 -0.22566389 -0.1489763 -0.30120215 0.1531314
-0.124935366 0.13342717 -0.099895865 0.11623893 0.13035706 -0.057368595 0.021612868 -0.2644264
-0.037301876 -0.027119512 0.11064626 0.12920603 -0.115512304 0.121719345 0.054589152 0.21883936
0.08172168 -0.1639793 0.04988778 0.13587819 -0.0129507175 0.007941459 0.19272894 0.1278818
-0.068525374 0.18510666 0.1628314 0.20644163 -0.041836876 -0.27032852 -0.09539663 0.04651728

lstm.weight_hh_l1 f4 [128, 32]
00000000: 00ca 0fbe 4913 94bd 59f4 43be c804 2fbe
00000010: 15e9 04bd f09e e5bd 1de0 f4bb 2518 d4bc
00000020: cb57 2c3b f723 a2bd 6430 013e 0c18 5abd
00000030: edf6 e5bd b0f2 583e 277b 0a3e dc36 1a3e
00000040: b148 b4bd a118 f33d fc4c 4a3d 8a63 783d
00000050: c539 e93d 14b6 e93d 52e7 27be 04a0 eabc
00000060: eb73 e9bc c665 563e 6009 843e c9b1 ddbc
00000070: 153d afbd 00f2 a8bd aa08 3b3d 297c 7e3e
00000080: e0e2 9d3d 2e45 403e 4fed d53d 01ee 16be
00000090: de35 09be 4e9c f23d 867a 3f3e f33c 9ebc
000000a0: c884 d93c 970b 8ebe 3758 433b fad6 8fbc
000000b0: 88ac 2a3e aa79 d33d 4b88 16be 70b1 e3bc
000000c0: 1ef7 83be 8db9 4e3e a57e 093e f725 35bd
000000d0: 7d92 ccbd 0e3f 33bd 74f9 d73d 9e4c 1cbd
000000e0: e86d 1dbc 07a6 6dbd 5591 6b3e 732e 16be
000000f0: 9c71 5e3e 25ad 84bc c802 e6bd 538a 663d
00000100: 0ade 68bd 4e6b 0c3e b654 143e 761c 87bb
00000110: a180 273d 5d37 1fbe b801 b13b 82ab 483d
00000120: 0a2b 133e cd17 82be 81b3 ba3d a5da 40bd
00000130: 967e febd 5341 e23d 3b48 05bd 523f 9f3b
00000140: b4d2 81bd e722 7c3e cad5 3cbc ef02 56be
00000150: f5c6 32bd 9f24 333d 612d 1dbe cb44 e5bd
00000160: b833 5d3e 9f61 933e 1d83 b0b9 a7c2 23bd
00000170: ddf2 34bc ac31 d3bd 27f7 5fbe c4ec 6a3d
00000180: 8ab5 60bc 6c66 a53d ac7a 0b3e 6cba 653d
00000190: b3de f7bd 79db e8bc 5d91 84bd 9648 3dbe
000001a0: d505 fdbd 6ee7 93bd 8351 33bd e46b be3d
000001b0: 6897 473d 11b0 953d aa40 47be 5ba8 213e
000001c0: 05de 043d f59c 05be ade5 af3d 04a0 ac3d
000001d0: bf05 e53d 7a06 d83d f302 dcbc 2ebf cbbc
000001e0: 8233 903d 7f4a 923d aa80 193e 5204 a33d
000001f0: dcd2 85bb 883c 8bbd 5ebe 09be e1b0 ef3d
00000200: 614c 163e 5468 0dbe c84a 8abc 5322 003e
00000210: 5313 2cbd 49e6 5ebd 2701 13be 279f c3bd
00000220: d040 d8bd a50a 82bd b417 c23d 8f98 d63c
00000230: 6083 89bd 748f 5e3e 4678 23bc 1dc8 043e
00000240: 099c 21be cd4f 5e3d c631 27be 6218 513d
00000250: 3783 fe3b 143a 303d 0907 9a3d 036d a3bd
00000260: fbba 95bd 87c7 00be c754 3c3c e008 6a3d
00000270: 4f62 493e 0711 cdbd fa22 3fbe 0bdd 263e
00000280: 3b4a bf3d c750 df3d bb11 f33c b56b 67be
00000290: bf03 e3bd fb2b 88bd cbdc 053d 9aaf 143e
000002a0: 9b3c 343c bd12 513d 98f5 24be a8c5 483c
000002b0: ed25 233c 33a8 653e 910a fa3d 2bf4 0f3e
000002c0: 6c5c 67be f4b5 6e3e c75d 3d3d ed23 31be
000002d0: 1c18 47be b6ee 743e d346 0d3e fb59 52be
000002e0: 2db0 62bd 9124 e53d 8998 c23c 6f47 963d
000002f0: c047 5c3e e592 57bd 6603 f5bd 6ae8 053e
00000300: 01c5 583e e14e 28bd 9e5f 40be bedf 58be
00000310: 42fe 083d ee0d 023b dea5 5d3e f246 9e3d
00000320: a66f d63d 15c8 193c 5377 963c 28f9 2bbe
00000330: d96c fe3d 7ce3 1f3e bca4 403e 9f85 853e
00000340: 19b9 19be a0fe 193e a24f 523d 0919 5cbe
00000350: 6b7e 013e 1281 bcbd 5456 f33d ed61 edbd
00000360: 4bcf b23d 68ac 403e e871 5b3e abb0 ffbd
00000370: 7787 803d 3701 71bd 0587 6dbe 206f fb3c
00000380: da28 863d 93a7 063c 8f5f 30be 8d25 aabd
00000390: 4d84 b63d ebd8 0bbe 98c5 cb3d 317a a4bc
000003a0: a4c6 483e f6fd 22be 9a0b 053e 4b4c f43d
000003b0: 64af 0cbe 48d3 8abd 5af2 8dbd 2412 d9bd
000003c0: 6309 0cbd 57f2 b73d b441 debd 890b d7bd
000003d0: 9c80 23be a0d3 4a3e 2ea6 90bc 5414 c13d
000003e0: f154 ffbd aa55 5e3e d60c 113e bd7e aa3d
000003f0: 9219 cb3d b75f 613e a162 8a3d e2ce 943c
-0.140419 -0.07230241 -0.1913618 -0.17091668 -0.032448847 -0.112119555 -0.0074730054 -0.02589042
0.0026297446 -0.07917016 0.12616116 -0.05324559 -0.11228738 0.21186328 0.13523541 0.1505999
-0.08802927 0.11869932 0.049389824 0.060641803 0.11387972 0.11411682 -0.16396835 -0.028640755
-0.028497657 0.20937261 0.25788403 -0.027062314 -0.08556572 -0.08249283 0.04566256 0.24852051
0.077092886 0.1877639 0.10445654 -0.14739229 -0.13399455 0.11846219 0.18699083 -0.019316172
0.026552573 -0.27743217 0.0029807219 -0.017558564 0.16667378 0.1032594 -0.14700429 -0.02779457
-0.25774473 0.2018797 0.13427217 -0.04422566 -0.09988878 -0.043761306 0.10545626 -0.038159005
-0.009608723 -0.058019664 0.23004659 -0.14666156 0.21723026 -0.016195843 -0.11230999 0.05628426
-0.056852378 0.13712808 0.1448544 -0.004123266 0.040894154 -0.15548463 0.005401816 0.048991688
0.14371887 -0.25408784 0.09116269 -0.047083516 -0.12426488 0.11047616 -0.032539587 0.0048598433
-0.063390166 0.24622689 -0.011525581 -0.20899557 -0.04364677 0.043736096 -0.15349342 -0.11194762
0.2160176 0.28785416 -0.00033667023 -0.039980557 -0.011044231 -0.103122085 -0.21871625 0.057354704
-0.013715157 0.08076176 0.13621014 0.05608599 -0.121030234 -0.028424965 -0.06473038 -0.1848472
-0.12354628 -0.07221876 -0.043778908 0.09297922 0.048728377 0.073089726 -0.19458261 0.15786879
0.032438297 -0.13048156 0.08588729 0.08428958 0.111827366 0.1054811 -0.026856875 -0.024871435
0.07041074 0.07143115 0.14990488 0.079598084 -0.0040839743 -0.06798655 -0.13451526 0.11703659
0.14677574 -0.1380933 -0.016881362 0.12513094 -0.042010617 -0.054418836 -0.14355908 -0.0955184
-0.10559237 -0.063496865 0.09477177 0.026195792 -0.06714511 0.2173441 -0.009977406 0.12966962
-0.15782179 0.054275323 -0.16327581 0.051048644 0.007767107 0.043024138 0.07520873 -0.07979777
-0.07311054 -0.12576114 0.011494822 0.05713737 0.19666408 -0.10013013 -0.18665686 0.16295259
0.0934033 0.10904079 0.02967154 -0.2259968 -0.11084699 -0.066490136 0.032681268 0.14520112
0.011000778 0.05104326 -0.16109312 0.012254156 0.009957773 0.22427444 0.12209047 0.14057986
-0.2259385 0.23311597 0.04623201 -0.17298861 -0.19442791 0.23919186 0.13796549 -0.20542137
-0.055343796 0.11188615 0.023754375 0.073378436 0.21511745 -0.052630324 -0.11963539 0.1307694
0.21168901 -0.04109085 -0.18786475 -0.21179101 0.033445604 0.0019844729 0.21645305 0.077283755
0.10470514 0.009386082 0.018367445 -0.16794264 0.12423105 0.15614122 0.18812841 0.26078507
-0.15012015 0.15038538 0.051345475 -0.21493925 0.12645881 -0.09204306 0.118817 -0.115909435
0.08730944 0.18815768 0.2143017 -0.124848686 0.06275838 -0.05883905 -0.23196037 0.030692637
0.065507606 0.008218664 -0.17223953 -0.083079435 0.08911953 -0.13656966 0.099497974 -0.020077797
0.19607025 -0.15917191 0.12992707 0.11928614 -0.13738781 -0.0677858 -0.069309905 -0.10599163
-0.03418864 0.089817695 -0.108523756 -0.10500247 -0.1596703 0.19807291 -0.017657366 0.094277054
-0.12467373 0.21712366 0.14165053 0.08324955 0.099169865 0.22009169 0.06757093 0.018165056

lstm.bias_ih_l1 f4 [128]
00000000: 8cb4 843d d9d3 2e3d 3a30 7fbd 9ecc e6bc
00000010: d3ee 32be 148a f6bd f337 903d 6c9b b63d
00000020: 6c13 01be 3700 93bb b02c b8bd 2882 5bbe
00000030: 48b6 7dbe e297 733c 8dcf 593d 3cec 8cbc
00000040: ca81 3bbd 6090 46be b0a6 7bbe cbb6 c33c
00000050: 3800 6c3d e082 a7bd 2a77 b03d 1daa 223e
00000060: baa1 db3d cd09 ed3d 60e3 273e 599c 5a3d
00000070: 29ed 833d 9eec 58be 3e0a 873d cfc3 51bd
00000080: 7153 eabd 7d36 82be c5c5 cfbd fec3 9f3d
00000090: 7d8c 21bd 1f05 3dbe aad1 2bbd 2ac6 84be
000000a0: 61ea 323e eaea b6bd a863 28be 1d1c 3a3d
000000b0: b62c b5bd ae8b c23c c11b a3bd 0c6d d33c
000000c0: 1215 243e dc12 2dbe 3224 3e3d cf3f 43be
000000d0: ade8 6dbe c2f6 51be 9160 30be 0e3c ff3d
000000e0: 7abb 833d deb9 333e d560 a7bd 1c80 0dbe
000000f0: 0d3d f4bd 6f88 1fbe 64ac 1c3e 55d4 243e
00000100: 9a9a 61bd 5484 2a3d cd13 a03b eba7 303d
00000110: e17f 063e a6fa 02be 60fd c93b 2f59 cdbd
00000120: 295e 27bd ad18 343e 276c 3ebc 9a7d 143b
00000130: 0a86 e33c 308f 59be 9ce2 8abd 1908 1abe
00000140: 6b9d d33d 1722 e93d a19c 123e 6931 19bc
00000150: fb83 253d 45bd 96bd 7059 453d 2aa6 063e
00000160: b63f 753a ecea 82bd b6cc 6ebe 6aff d43d
00000170: 8dd9 1fbc 17c5 97bd cc28 403e 1a6a d3bc
00000180: 8064 6fbe f273 75bd 69d6 04be 3f03 0d3e
00000190: 3cc9 d8bd dd14 11be de8a 493d f4ab 1a3d
000001a0: 2e83 af3d 6d21 c13d fdc5 7bbe a0aa 71be
000001b0: 678a 593d 30cc fd3d 560b 8fbd 241d 7a3d
000001c0: 1bfd 9c3d fc52 11be d8fb 583d 8f56 0bbe
000001d0: 7050 8abd cbf5 48bd 0bdf 6bbe 71ce a4bd
000001e0: 8f7c fe3c 6f0c 1c3e ea44 8a3d 4b38 f3bd
000001f0: 2bbb b83d cf6c 763d 1e84 a13d 0288 18bc
0.06479749 0.042682502 -0.06230185 -0.028173741 -0.17473917 -0.12038055 0.070419215 0.08916363
-0.12605065 -0.0044861096 -0.089928985 -0.2143637 -0.24776566 0.014867755 0.05317645 -0.01720249
-0.045778073 -0.19391012 -0.24575305 0.023890873 0.057617396 -0.08179259 0.08616479 0.15885206
0.10724206 0.11574135 0.1639533 0.05337176 0.06441719 -0.21184012 0.065937504 -0.05121213
-0.114416964 -0.25432196 -0.101451434 0.078010544 -0.03944062 -0.18458985 -0.041947998 -0.25932437
0.17472221 -0.08931525 -0.16444266 0.045436967 -0.088464186 0.023748245 -0.07964278 0.025808834
0.16023663 -0.16901726 0.046421237 -0.1906731 -0.2323329 -0.20504287 -0.17224337 0.124626264
0.06432243 0.17551371 -0.08172766 -0.13818401 -0.11925707 -0.15579389 0.15300137 0.16096623
-0.05507908 0.041630104 0.004885173 0.04312889 0.1313472 -0.12790927 0.006164238 -0.10026776
-0.040861282 0.17587538 -0.011622465 0.0022657872 0.027773876 -0.21246028 -0.067815036 -0.15042152
0.103327595 0.11383455 0.14317562 -0.009350159 0.04040907 -0.07360319 0.048180997 0.13149324
0.0009355502 -0.06392464 -0.23320279 0.10400279 -0.009756458 -0.07410639 0.18765563 -0.02580743
-0.23378181 -0.059925027 -0.12972416 0.1377077 -0.105852574 -0.14168115 0.0492047 0.037761644
0.085699424 0.094302036 -0.24587245 -0.23600245 0.053110506 0.12392461 -0.06984584 0.061062947
0.076654635 -0.14191812 0.052974552 -0.13607238 -0.067536235 -0.04906253 -0.23034303 -0.08047188
0.031065254 0.15239118 0.067514256 -0.118759714 0.090200745 0.06016236 0.078865275 -0.009309771

lstm.bias_hh_l1 f4 [128]
00000000: 0e67 eabd e93f 14bd bad0 29be 2db5 8bbd
00000010: 6709 9a3d 0a4b a53d ae7d f6bd 9f83 3c3d
00000020: 81cd c6bd d68e 88bd 4d17 a3bc 7445 083d
00000030: e858 aebd bbc3 9f3d e729 1abe 747f 013e
00000040: bea1 31bb 7cf6 eabd 8d7c 2bbe ff03 e03d
00000050: 4f83 eebd bf9d 3fbe 8a5b 06be fd0f 0bbd
00000060: fe59 05be 1b50 693b 4c30 6a3e 5fe1 aa3c
00000070: 743e 9f3c 16fe c7bc 431d 0fbe 5111 5e3d
00000080: 621a 1e3d d503 f33c 0898 49be b272 e6bb
00000090: 6196 7dbb 4484 44be b5c1 313c ef4d 6e3c
000000a0: 786c a9bc 9b9d 14be b844 84be bd9e 8e3d
000000b0: fd91 25be 54d8 13be a65a cb3c 26af 1c3e
000000c0: 34f7 b63d a655 bc3d 87f8 23be 6ca2 033c
000000d0: 0928 05be 5faa 59be f444 c7bd e234 08be
000000e0: b844 47be 63d6 28bd e1c6 493c ed96 3abe
000000f0: b31f 923d 6855 a23c 2cd9 093e 69fe b8bd
00000100: f5c4 4d3e 581d 2c3d 22a1 bebd 173d 233e
00000110: 6a17 623d 738a 943d b068 1c3c cc20 ea3d
00000120: 5661 68be 5769 2c3e b8f2 143d e4da 4cbb
00000130: 95a8 08be 4d37 32bd 2cc6 fb3d 4482 9ebc
00000140: ee29 6a3e ee38 efbd cb27 40bd aa65 fa3d
00000150: 0da3 09be 53ee 193e 4c9d c03d 5d1a f73d
00000160: 7746 24be 7eec aabd 0c75 7fbe f5b8 5fba
00000170: 63d0 17be a226 d6bc 25c2 393e 9320 11be
00000180: aeeb 8ebd a041 58be 4e9f a63d 48a6 f9bd
00000190: 95c7 e43d 8e13 69bc 063b 4b3d d0e5 85be
000001a0: 84ff f6bd 4cc3 063e 0b6a c3bd 2228 34be
000001b0: c478 56bc 1db2 233d 7059 ba3d 22f0 0fbd
000001c0: 402d 243c a5df 9bbd fe3f 9a3d ed77 07bc
000001d0: 64b3 8ebd 05d6 343d a90e 4cbd de1e f6bd
000001e0: 8c5c d5bd dbfd 243e c209 3c3e 7d05 e6bd
000001f0: 2fe0 f93c b1f4 86be 920d 2f3e 0f01 043e
-0.11445437 -0.036193762 -0.16583529 -0.06821666 0.075213246 0.08070953 -0.1203569 0.04602396
-0.097071655 -0.06667869 -0.019908572 0.03326936 -0.08513051 0.078010045 -0.15055047 0.12646276
-0.0027104462 -0.114727944 -0.16746731 0.10938262 -0.11646139 -0.18712519 -0.13120857 -0.033950794
-0.1302261 0.0035600725 0.22869986 0.020859418 0.01943896 -0.02441315 -0.13976006 0.054215733
0.03859938 0.029664913 -0.19686902 -0.0070327157 -0.003869437 -0.1919108 0.010849406 0.014544948
-0.020681605 -0.14513247 -0.25833678 0.06963871 -0.16168971 -0.14437991 0.024823498 0.15301189
0.08933869 0.09196024 -0.16012774 0.00803433 -0.13003553 -0.21256398 -0.09729949 -0.13301423
-0.19459808 -0.04122008 0.012315483 -0.18221636 0.071349524 0.019816115 0.13461751 -0.090329
0.20094664 0.042020172 -0.093080774 0.15941273 0.05519811 0.072529696 0.009546444 0.11432037
-0.2269338 0.16837059 0.036364287 -0.0031258399 -0.13345559 -0.04350977 0.12293658 -0.019349225
0.22867557 -0.1168078 -0.04691295 0.12226422 -0.13441105 0.1503232 0.09405002 0.12065575
-0.16042505 -0.083458886 -0.24946994 -0.00085343356 -0.14825587 -0.026141468 0.18140467 -0.14172582
-0.06978546 -0.21118784 0.08135854 -0.12189919 0.1117088 -0.014225854 0.049616836 -0.26151896
-0.120604545 0.13160437 -0.095417105 -0.17593434 -0.013090316 0.039964784 0.0909909 -0.035141118
0.010020554 -0.07611016 0.07531737 -0.008268339 -0.0696781 0.044149417 -0.04981867 -0.12017606
-0.104180425 0.16112463 0.18363097 -0.112315156 0.030502407 -0.2635856 0.1709502 0.12891029

fc.weight f4 [1, 32]
00000000: 439c 19bd 7958 8bbc b2d3 59bc f2fe 30be
00000010: 6a37 f8bc 3390 683b ac1f 2ebd 4261 a33c
00000020: dddc 183e ca77 41be 3689 ad39 a0d2 4b3d
00000030: cbde 7b3c f59e 443e ac74 1cbd 1c9a cb3d
00000040: 7f3b 47be 5e7b 31bd 76ae 60bd ac51 f1bd
00000050: 3a4f 543d 0ebe 9b3d e03d 98bc cb73 67bd
00000060: 983b eb3d 81f9 5b3e 0bd0 cd3d 8bf4 89bd
00000070: 2cfa 523e b751 3f3d 8996 05be 87c8 823d
-0.03750254 -0.01700996 -0.013295101 -0.17284754 -0.030299861 0.003548634 -0.042510673 0.019943837
0.14928003 -0.18893352 0.00033099361 0.049761415 0.015372942 0.19201262 -0.038197204 0.099415034
-0.1945629 -0.043330543 -0.05485388 -0.11783156 0.05183337 0.076046094 -0.018584192 -0.056506913
0.11485976 0.21481897 0.10049447 -0.06736096 0.20603245 0.04670879 -0.13045706 0.06385904
