backend/stocks/price/pt_models/AWR.pt (torch, 54423 bytes, 9 tensors)

lstm.weight_ih_l0 f4 [128, 1]
0	0x3de18909	0.110124655
1	0xbdb73864	-0.089463025
2	0x3d798bda	0.06092439
3	0x3dacfa86	0.08446221
4	0x3e23c86b	0.15994422
5	0x3cb56861	0.022144498
6	0xbdc7bf13	-0.097532414
7	0x3d6df540	0.058095217
8	0xbe85a3d1	-0.26101544
9	0xbd88e6ee	-0.06684671
10	0x3e1bd37c	0.15217394
11	0xbc075dbf	-0.008262097
12	0xbdd6b037	-0.10482829
13	0xbd996f4c	-0.07491931
14	0xbc82620f	-0.015915899
15	0xbe2deba4	-0.16984421
16	0xbe09c64e	-0.13454553
17	0xbd4c16e3	-0.049826514
18	0x3d9569e2	0.07295586
19	0xbcacfd3e	-0.021116849
20	0x3e4a2014	0.197388
21	0x3c2c97a2	0.010534199
22	0xbe1fcffb	-0.15606682
23	0x3d6e4aa5	0.058176655
24	0xbe319553	-0.17342119
25	0xbe003067	-0.12518464
26	0xbe9dbf18	-0.30809855
27	0x3e04671e	0.12929961
28	0x3e4edd9c	0.20201725
29	0x3b90bb42	0.004416854
30	0x3e787953	0.24265032
31	0x3df01c4e	0.11724149
32	0xbd0a3755	-0.033744175
33	0x3e071745	0.1319247
34	0xbc6cb699	-0.014447832
35	0xbe519b62	-0.2046943
36	0x3d880b64	0.066427976
37	0x3e147863	0.14499049
38	0xbdd8ec39	-0.10591931
39	0x3dfbde5e	0.122982726
40	0xbe4ba2f8	-0.19886386
41	0x3de27b1b	0.11058637
42	0x3d5e2cf3	0.054242086
43	0x3e104c1d	0.14091535
44	0xbdda544d	-0.1066061
45	0xbdaa2276	-0.08307354
46	0x3cd4abb9	0.02596079
47	0xbc91a7a6	-0.017780136
48	0xbd233bad	-0.039851833
49	0xbe929935	-0.28632513
50	0x3e3575ee	0.17720768
51	0xbe10dfa1	-0.14147808
52	0x3e840c15	0.25790468
53	0xbd207a32	-0.039179035
54	0x3dcfecc4	0.10152581
55	0xbd25c3ca	-0.040469922
56	0xbdce8540	-0.10084009
57	0x3d636a90	0.055521548
58	0xbdd84993	-0.10560908
59	0x3e02985c	0.12753433
60	0x3e857699	0.26067045
61	0x3d7b3373	0.061328363
62	0x3e1b5a89	0.15171255
63	0x3df05f37	0.11736911
64	0x3dc978ff	0.09837531
65	0xbdf4b8cb	-0.11949309
66	0xbd155896	-0.036461435
67	0xbe2bfc5c	-0.16795486
68	0x3d89ef03	0.06735041
69	0x3db60bf4	0.08888999
70	0xbe3922be	-0.1807966
71	0x3e6b73e9	0.22993435
72	0xbe6e5cb6	-0.23277554
73	0x3d538b12	0.0516463
74	0x3e29f833	0.16598587
75	0x3db64aa7	0.089009576
76	0xbe6c50df	-0.23077725
77	0xbd371b0f	-0.04470354
78	0xbe4903a4	-0.19630295
79	0x3e4b0161	0.19824745
80	0x3ceff66c	0.029292308
81	0xbead337f	-0.3382835
82	0xbd2b209b	-0.041779142
83	0xbe1ca5a4	-0.15297562
84	0xbd9125bf	-0.070872776
85	0xbdeea1e2	-0.116519704
86	0x3e2a3bf3	0.16624431
87	0x3e4c326b	0.19941108
88	0x3e5c01f9	0.21485128
89	0xbcec80e9	-0.028870063
90	0xbea2ae60	-0.31773663
91	0x3d459373	0.04823632
92	0x3ce0df2f	0.027450172
93	0xbd6d1b4f	-0.05788737
94	0x3df7c60d	0.12098322
95	0xbe5000d5	-0.20312817
96	0xbe362597	-0.17787777
97	0xbccdc983	-0.025120502
98	0x3c66cc16	0.014086744
99	0xbe308bbe	-0.17240807
100	0x3c8f81e8	0.017517999
101	0xbe162953	-0.14664201
102	0x3db2a108	0.087221205
103	0x3c70aa01	0.01468897
104	0xbe92f98a	-0.28706008
105	0xbbd0fe99	-0.0063780067
106	0x3e3c9b34	0.1841858
107	0x3d8392d7	0.06424492
108	0xbcc9b824	-0.024623938
109	0x3e29747b	0.1654834
110	0xbdf27bc4	-0.11840013
111	0x3c8b180e	0.016979244
112	0x3dd153eb	0.10221084
113	0xbb0d30e9	-0.0021544045
114	0x3d73d5c7	0.059530046
115	0xbcac7cde	-0.021055635
116	0x3d6328d0	0.055458844
117	0xbdfe33cb	-0.124122225
118	0xbe422390	-0.18958879
119	0x3d91d6b2	0.07121028
120	0x3d300399	0.04297218
121	0x3dcc934c	0.09989032
122	0xbe14b580	-0.14522362
123	0x3df2388f	0.11827194
124	0x3cb1958d	0.021677757
125	0x3d7ca602	0.061681755
126	0x3e7e70ad	0.2484767
127	0xbdd2078b	-0.10255345

lstm.weight_hh_l0 f4 [128, 32]
0	0x3e377ca8	0.17918646
1	0xbdabf633	-0.08396568
2	0xbdb148e2	-0.086564794
3	0xbdaa00fd	-0.0830097
4	0xbdd375e5	-0.10325221
5	0xbcd8a9e4	-0.026448198
6	0x3cc1b913	0.02364782
7	0xbdf80521	-0.12110353
8	0x3d5e7667	0.054312136
9	0xbb48501f	-0.0030565334
10	0x3d692c7f	0.0569272
11	0x3e4baeb7	0.19890867
12	0xbd347c9c	-0.04406415
13	0xbd0b765b	-0.03404842
14	0xbdab4b6b	-0.08363994
15	0x3cac76e0	0.021052778
16	0xbe163f46	-0.14672574
17	0xbde00035	-0.109375395
18	0xba2a096b	-0.0006486389
19	0x3d8c0562	0.06836964
20	0xbe503764	-0.2033363
21	0xbe0f27e6	-0.13980064
22	0x3c7dea23	0.015497717
23	0xbddec129	-0.10876686
24	0x3dd1cfe1	0.10244728
25	0xbdd7d005	-0.105377235
26	0x3dde1d96	0.10845487
27	0xbc9a6789	-0.018848198
28	0xbdc63555	-0.09678141
29	0xbe1055d4	-0.14095241
30	0xbdf675fe	-0.12034224
31	0xbe083f4e	-0.13305399
32	0x3e1f9ad2	0.15586403
33	0xbd8ab34e	-0.06772481
34	0xbe190570	-0.1494348
35	0x3dc5493f	0.09633111
36	0xbd728cc7	-0.059216287
37	0xbdbe69c4	-0.09297517
38	0xbd1c8cff	-0.0382204
39	0x3d062375	0.03274866
40	0xbd42cabf	-0.047556635
41	0x3e28fcbb	0.16502659
42	0xbe4216fc	-0.1895408
43	0x3e390d66	0.18071517
44	0xbd44aa3d	-0.048013914
45	0x3e2f30c6	0.1710845
46	0xbd72f34e	-0.059314065
47	0x3d96d4ae	0.07364784
48	0xbe1261c4	-0.14295107
49	0xbdfe8269	-0.124272175
50	0x3dc39f11	0.09551824
51	0xbdf05805	-0.117355384
52	0xbe505e9d	-0.20348592
53	0xbc911957	-0.017712278
54	0xbc9b627b	-0.018967858
55	0xbe03f0e5	-0.12884863
56	0xbe2fa6ec	-0.1715352
57	0x3d9f5e37	0.07781642
58	0x3b204015	0.0024452258
59	0x3cec2194	0.028824605
60	0xbc6d5a53	-0.014486867
61	0xbd53b739	-0.051688407
62	0xbe270a75	-0.16312583
63	0x3df9c302	0.12195398
64	0x3dbe979e	0.093062624
65	0xbe275477	-0.16340815
66	0x3b953937	0.0045539397
67	0x3daf4545	0.08558134
68	0x3e46b9f7	0.19406877
69	0xbc0c37a5	-0.008558189
70	0x3d4b0082	0.04956103
71	0x3e19f5ac	0.15035123
72	0xbd5e01ee	-0.05420106
73	0x3e10057c	0.14064592
74	0xbe91c5cf	-0.28471228
75	0xbdf29b94	-0.118460804
76	0xbd916f23	-0.07101276
77	0xbdd373f1	-0.103248484
78	0xbc9c26de	-0.019061502
79	0x3db57f2b	0.08862146
80	0x3e0d917a	0.13825026
81	0xbd518076	-0.0511479
82	0xbca7a2e6	-0.020463418
83	0x3d168f74	0.0367579
84	0xbd5c05a8	-0.05371633
85	0xbdc4b4fc	-0.096048325
86	0xbe5e171e	-0.21688506
87	0xbbf8871a	-0.0075844647
88	0xbdd02f76	-0.101653025
89	0x3dd5eaed	0.10445199
90	0x3e29905c	0.16558975
91	0xbdede064	-0.11615065
92	0x3da984ad	0.08277259
93	0x3de0178a	0.1094199
94	0xbe36f0ac	-0.17865247
95	0x3e1ca4a1	0.15297176
96	0xbd44af7f	-0.04801893
97	0xbdd5c083	-0.10437109
98	0x3dc18100	0.09448433
99	0xbe1cc550	-0.15309644
100	0x3e0c7241	0.1371546
101	0xbe23b1d1	-0.159858
102	0xbe30198d	-0.17197247
103	0x3db8e63c	0.09028289
104	0x3e745d54	0.23863727
105	0x3d034951	0.03205234
106	0x3d494f52	0.04914791
107	0x3ddf93f9	0.109168954
108	0x3d94e971	0.07271088
109	0x3e280abf	0.1641035
110	0xbde8202d	-0.11334262
111	0xbde30798	-0.11085433
112	0xbe0e486a	-0.13894811
113	0xbc84d65e	-0.0162155
114	0xbd776d44	-0.06040694
115	0x3df6e3ab	0.12055143
116	0xbe2ed168	-0.1707207
117	0xbd1c011a	-0.038086988
118	0xbcf737dd	-0.030178005
119	0x3df631cb	0.12021216
120	0x3d29f961	0.041497592
121	0x3d9d6089	0.07684428
122	0x3ebe1dab	0.3713201
123	0xbd8eaa25	-0.06966046
124	0xbdc85240	-0.09781313
125	0xbd170f02	-0.036879547
126	0xbe5e7044	-0.21722513
127	0x3dc36196	0.095400974
128	0x3d2e31e5	0.042528052
129	0x3d749755	0.059714634
130	0xbd3d7ec3	-0.046263468
131	0x3df3fdfc	0.11913678
132	0xbce373f0	-0.027765244
133	0xbdd27dac	-0.10277876
134	0xbe005f3a	-0.12536326
135	0x3e25d023	0.16192679
136	0xbdc491bf	-0.09598111
137	0x3e054352	0.13013962
138	0xbca5554a	-0.02018227
139	0x3d8e5109	0.0694905
140	0x3c051d8f	0.008124723
141	0xbceccb96	-0.028905671
142	0xbd095a27	-0.03353324
143	0x3d6b6f1f	0.05747902
144	0xbda87929	-0.082262345
145	0xbe400165	-0.18750532
146	0x3ce2db03	0.027692324
147	0x3df9afef	0.1219176
148	0x3c8bf2b2	0.0170835
149	0x3e209302	0.15681079
150	0x3df3c89c	0.119034976
151	0xbdad3693	-0.08457675
152	0xbe432607	-0.19057475
153	0xbd904652	-0.070446625
154	0x3e3d7abf	0.18503855
155	0xbe48b875	-0.19601615
156	0xbe5e5536	-0.21712193
157	0xbe410c1e	-0.18852279
158	0xbe08a948	-0.13345826
159	0xbe233434	-0.15937883
160	0x3e32cb40	0.17460346
161	0xbdd5698a	-0.104205206
162	0x3d7a906f	0.0611729
163	0xbe229444	-0.15876871
164	0xbd64d9e8	-0.055871874
165	0xbd8ab28b	-0.067723356
166	0x3c7a772f	0.015287205
167	0x3dbd3845	0.09239248
168	0x3d822a58	0.06355733
169	0x3e0f4205	0.13990028
170	0x3c8b2e21	0.01698977
171	0xbdf9ac64	-0.12191084
172	0x3a6d1dd4	0.0009045277
173	0x3de4ca96	0.11171453
174	0x3cb99271	0.022652837
175	0xbe28c503	-0.16481404
176	0xbce5ed98	-0.028067395
177	0xbd31120c	-0.0432301
178	0xbdf4fee4	-0.11962679
179	0xbcb6c9f7	-0.022313101
180	0xbb8be8b9	-0.004269686
181	0xbde74b48	-0.11293656
182	0x3dfff2a8	0.12497455
183	0x3e1a55a1	0.15071727
184	0xbe16b7e0	-0.1471858
185	0x3d56e3c5	0.05246331
186	0x3e45dd85	0.19322784
187	0x3de46404	0.11151889
188	0xbe322645	-0.17397411
189	0xbe426a18	-0.18985784
190	0xbe7128c1	-0.23550703
191	0x3e10fe2b	0.14159457
192	0xbe20bb55	-0.15696461
193	0xbd78fac3	-0.06078602
194	0xbe00770f	-0.12545417
195	0xbe1d5dc7	-0.15367804
196	0x3e41db36	0.18931279
197	0x3cc29a17	0.023755116
198	0xbdef0ec1	-0.11672736
199	0x3e249414	0.16072112
200	0xbd993ac4	-0.07481912
201	0x3dbd78a3	0.09251525
202	0xbe2adc4a	-0.16685596
203	0x3e254642	0.16140082
204	0x3dc4de2d	0.09612689
205	0xbdfeb1a5	-0.12436227
206	0xbe3a1ed4	-0.18175822
207	0xbd1a5d32	-0.037686534
208	0x3dfc921d	0.123325564
209	0xbd3ab82d	-0.0455858
210	0x3d113188	0.035447627
211	0xbe08393f	-0.13303088
212	0xbd036d1d	-0.03208648
213	0xbd7b8b1f	-0.061411973
214	0xbdc088bd	-0.09401081
215	0xbe1efc6f	-0.15525983
216	0x3d9bc30c	0.076055616
217	0xbd554394	-0.0520664
218	0x3e6f4dcc	0.23369521
219	0x3e10af62	0.14129403
220	0x3ce963e2	0.02849001
221	0xbe0f3fe5	-0.13989218
222	0x3d14df86	0.03634598
223	0x3dec12de	0.11527036
224	0xbe145772	-0.14486483
225	0x3dc17f05	0.09448055
226	0xbd2c0ae8	-0.04200259
227	0x3e233258	0.15937173
228	0xbda303b0	-0.07959688
229	0x3e070e47	0.1318904
230	0xbe206eb4	-0.1566723
231	0xbbc0bda4	-0.005881982
232	0xbdacdbe9	-0.08440382
233	0xbda605c7	-0.08106571
234	0x3bbac5c2	0.005699844
235	0xbdb4b2e7	-0.088231854
236	0x3de1d16c	0.11026272
237	0x3e261009	0.16217054
238	0x3e05d569	0.13069691
239	0xbe0c42b0	-0.13697314
240	0x3be53cae	0.006995759
241	0x3e04a02a	0.12951723
242	0xbd7eb195	-0.062181074
243	0x3d4878ab	0.048943203
244	0x3dd82138	0.10553211
245	0x3e3324e6	0.17494544
246	0x3df06d23	0.11739566
247	0xbe1f606d	-0.15564127
248	0xbbab264d	-0.0052230717
249	0x3d13d8eb	0.03609554
250	0x3ead3303	0.3382798
251	0xbd95c038	-0.073120534
252	0x3c3c8d5c	0.011508312
253	0x3df40926	0.119158074
254	0xbdcc0a5f	-0.09962916
255	0xbe028590	-0.12746263

lstm.bias_ih_l0 f4 [128]
0	0x3ad9c289	0.0016613762
1	0x3d92fd8d	0.07177267
2	0xbe33f032	-0.17572096
3	0x3df77b70	0.12084091
4	0x3c66fb4b	0.014097999
5	0x3d962b4b	0.07332476
6	0x3e2bf4f6	0.16792664
7	0xbe209fca	-0.15685955
8	0x3daaf5c3	0.083476566
9	0xbcfa4fb3	-0.030555582
10	0x3e248f22	0.16070226
11	0x3d81c4d8	0.06336373
12	0xbc72461d	-0.014787224
13	0xbe3a0ce3	-0.18168978
14	0x3ba7f7a5	0.005125957
15	0xbd1cdd4a	-0.038296975
16	0x3d5db7d2	0.054130383
17	0xbd94f5ce	-0.07273446
18	0xbc2b6a25	-0.010462319
19	0x3d575329	0.052569542
20	0xbe3a38af	-0.18185686
21	0xbdf9138e	-0.12161933
22	0xbe0439bb	-0.12912647
23	0xbe0516b8	-0.12996948
24	0xbd72f1fc	-0.059312806
25	0xbe2735de	-0.16329142
26	0x3d41bf21	0.047301415
27	0xbe19add3	-0.15007715
28	0xbe3b9320	-0.18317842
29	0xbd677225	-0.05650534
30	0x3c75eba5	0.015009795
31	0xbe1312b7	-0.14362608
32	0xbdb8d5c3	-0.09025147
33	0xbdcc6e6f	-0.09982001
34	0xbdba4db8	-0.09096855
35	0xbd4248c1	-0.047432665
36	0x3dff3d4b	0.124628626
37	0xbde906f0	-0.11378276
38	0xbd86adf6	-0.06576149
39	0x3e36c936	0.17850193
40	0xbdba23ee	-0.09088884
41	0xbcb9d581	-0.022684814
42	0xbd5a27b1	-0.05326051
43	0xbde4b991	-0.111682065
44	0x3d442044	0.047882333
45	0xbe1a86e4	-0.15090519
46	0x3de985dd	0.114024855
47	0xbe8c75e3	-0.2743369
48	0xbd9aef42	-0.07565166
49	0x3df61142	0.120150104
50	0xbe10664c	-0.14101523
51	0x3c97181d	0.018444115
52	0xbe9b5ca3	-0.30344114
53	0xbd846530	-0.064646125
54	0xbda3fe73	-0.08007517
55	0x3e0ecfdd	0.13946481
56	0x3cf2e329	0.029649334
57	0x3b41b311	0.0029556195
58	0xbd674dc2	-0.05647064
59	0x3dadd901	0.08488656
60	0xbc9d3c89	-0.019193904
61	0xbdb80e53	-0.08987107
62	0xbe445ac1	-0.19175245
63	0x3d063adc	0.032770976
64	0x3da5b452	0.08091034
65	0x3dda463d	0.10657928
66	0x3e0227a7	0.12710439
67	0x3dd583ef	0.10425555
68	0xbd29ddfc	-0.041471466
69	0x3dd76714	0.105177075
70	0x3db34b8e	0.08754645
71	0xbd29304a	-0.041305818
72	0xbdbcf1ca	-0.09225805
73	0xbdd96dc6	-0.10616641
74	0x3e057c6a	0.13035741
75	0xbe018f36	-0.12652287
76	0x3c461463	0.0120898215
77	0xbde6d798	-0.1127159
78	0x3e1a704e	0.15081903
79	0x3e22b76f	0.15890287
80	0xbe1fff82	-0.15624812
81	0x39a4d71b	0.00031440784
82	0xba0e4ad3	-0.000542802
83	0xbd8c2ad1	-0.06844104
84	0xbe2d6765	-0.16933973
85	0xbd0147e2	-0.031562693
86	0xba6a732f	-0.00089435553
87	0xbd742a8d	-0.059610892
88	0x3ddf0be4	0.1089094
89	0xbe24e333	-0.16102295
90	0xbe2f9468	-0.17146456
91	0x3db3aab9	0.08772797
92	0xbe122d26	-0.14275035
93	0xbde51ecc	-0.11187515
94	0x3e2cb561	0.16866066
95	0xbd253492	-0.040333338
96	0xbe2f8b01	-0.1714287
97	0x3e2ab883	0.16671948
98	0xbc82d8c0	-0.015972495
99	0xbdbddd6f	-0.09270751
100	0xbc99b873	-0.01876471
101	0x3d721a9e	0.059107415
102	0x3cfb34a1	0.030664744
103	0xbc2546a5	-0.010087644
104	0xbe1add73	-0.15123539
105	0x3e153cc9	0.14573969
106	0xbe051254	-0.12995273
107	0x3d7ee29c	0.06222783
108	0x3e09343b	0.1339883
109	0xbe1efd56	-0.15526327
110	0xbd054106	-0.032532714
111	0x3d8827aa	0.0664819
112	0xbdaa65d5	-0.08320204
113	0xbbe264ff	-0.0069090123
114	0xbe63370b	-0.22188966
115	0xbdd80119	-0.10547084
116	0xbe17f086	-0.14837846
117	0xbe3a1ab2	-0.18174246
118	0x3c9ffe37	0.019530399
119	0x3d83db17	0.064382724
120	0x3d16c050	0.036804497
121	0xbdac5671	-0.08414925
122	0x3e6be184	0.23035246
123	0x3e1b99f4	0.15195447
124	0xbe4759e0	-0.19467878
125	0xbde5951a	-0.112100795
126	0xbdff368b	-0.12461575
127	0xbd5acc7f	-0.05341768

lstm.bias_hh_l0 f4 [128]
0	0x3d58306d	0.052780557
1	0xbe060471	-0.13087632
2	0x3d72caa1	0.059275273
3	0x3e1334e8	0.14375651
4	0x3d58f48c	0.052967593
5	0x3d671d13	0.05642421
6	0x3d083dff	0.03326225
7	0x3c4749c1	0.01216358
8	0xbd3dc5e0	-0.046331286
9	0x3d9ee6c7	0.07758861
10	0xbde1aca6	-0.11019258
11	0x3c2e2d49	0.010630914
12	0x3e15cce8	0.14628947
13	0xbe0281b8	-0.12744796
14	0x3dfdd6d8	0.12394494
15	0xbe003348	-0.12519562
16	0xbd51a0c1	-0.051178697
17	0xbd5b75a4	-0.053578988
18	0xbe8143ab	-0.2524694
19	0xbdcd43e3	-0.10022714
20	0xbd9fe577	-0.07807439
21	0x3aff1abe	0.0019462926
22	0xbd0701a8	-0.032960564
23	0xbde6f038	-0.11276287
24	0xbda9314f	-0.08261358
25	0xbdfa1782	-0.12211515
26	0x3d7f5139	0.06233332
27	0xbdeed7ad	-0.11662231
28	0xbdb8a592	-0.09015955
29	0xbda7d810	-0.081955075
30	0x3d4857fc	0.048912033
31	0xbd1e98c0	-0.038719893
32	0x3dbc475d	0.09193299
33	0xbbfc4d57	-0.0076996493
34	0x3d36ab15	0.04459675
35	0x3d01e977	0.03171679
36	0x3de00242	0.10937931
37	0x3c73030a	0.014832268
38	0x3cbe17e9	0.02320476
39	0xbe21b694	-0.15792304
40	0xbe4acd1f	-0.1980481
41	0x3d11c2a5	0.035586018
42	0x3e192f96	0.14959559
43	0x3ba2f95c	0.0049735736
44	0x3cc76726	0.024341177
45	0xbe01b34b	-0.12666051
46	0xbd9411ff	-0.07229995
47	0xbaf5c1bc	-0.0018749754
48	0x3da87a2f	0.0822643
49	0x3e48f772	0.19625643
50	0x3d70b569	0.058766756
51	0xbc73af26	-0.014873302
52	0xbd01d9a4	-0.0317017
53	0xbdaf0011	-0.085449345
54	0xbda93abb	-0.08263155
55	0x3e23b0d1	0.15985419
56	0x3e24444b	0.16041677
57	0xbc96e294	-0.018418588
58	0xbcf1ad6e	-0.029501643
59	0xbe15c94a	-0.14627567
60	0xbe9544e0	-0.2915411
61	0x3e1adb1b	0.15122645
62	0x3be60ea8	0.00702079
63	0xbe14910e	-0.14508459
64	0xbe248108	-0.16064847
65	0xbdbb9a0c	-0.091602415
66	0xbc4cce6b	-0.012500386
67	0xbcdfbe72	-0.027312491
68	0x3c0a3145	0.008434598
69	0x3d3ab170	0.045579374
70	0xbde09345	-0.109655894
71	0x3df16c34	0.11788216
72	0xbd0ac4a3	-0.033878934
73	0xbe170a32	-0.14749983
74	0xbdb7ab5a	-0.089682296
75	0x3e04fad7	0.12986313
76	0x3ce637f9	0.028102862
77	0xbdc48ba8	-0.0959695
78	0xbd559279	-0.05214164
79	0xbcf2571c	-0.029582553
80	0x3ca8d98e	0.02061155
81	0xbe171970	-0.14755797
82	0xbc930503	-0.017946726
83	0x3da23925	0.07921056
84	0xbde930e2	-0.11386277
85	0xbe422c03	-0.18962102
86	0x3df21676	0.1182069
87	0xbd58a7d5	-0.052894432
88	0x3e0fdc65	0.14048918
89	0xbd7054c8	-0.058674604
90	0x3dbcca2e	0.0921825
91	0x3e1c663a	0.15273371
92	0xbd27a40d	-0.040927935
93	0x3dfe94a4	0.12430695
94	0x3dd7d9c4	0.10539582
95	0xbd00dd75	-0.031461198
96	0x3d72c4cd	0.059269715
97	0xbd0d24f3	-0.034459066
98	0xbdd150fc	-0.10220525
99	0x3e2e9337	0.17048346
100	0xbe16a79e	-0.14712378
101	0xbc159ffe	-0.009132383
102	0xbd0d8508	-0.034550697
103	0x3d65c59d	0.05609666
104	0x3cdcb7f8	0.026943192
105	0x3d9d2c32	0.07674445
106	0x3ce8c170	0.02841255
107	0xbd9ad3ae	-0.07559906
108	0xbcfa2c27	-0.030538632
109	0xbe222420	-0.15834093
110	0x3d6441bd	0.055726755
111	0xbd8dd624	-0.0692561
112	0xbd98c0ed	-0.07458673
113	0xbd11efb2	-0.035628982
114	0xbdb8d7e6	-0.09025554
115	0x3c92cb32	0.017919157
116	0xbe37a28f	-0.17933105
117	0x3d50cc19	0.050975893
118	0xbe1db1fc	-0.15399927
119	0x3b1ebaef	0.0024220308
120	0x3d6ebe5d	0.058287013
121	0xbd928896	-0.07154958
122	0x3e6472d1	0.22309424
123	0xbe283ad9	-0.16428699
124	0xbe205590	-0.1565764
125	0xbe34be5e	-0.17650744
126	0x3d895a1a	0.06706639
127	0xbd77363e	-0.060354464

lstm.weight_ih_l1 f4 [128, 32]
0	0x3e9f58f3	0.3112255
1	0xbdc6cdbb	-0.09707209
2	0xbe91d7e7	-0.28485033
3	0xbda9ab5b	-0.082846366
4	0x3e224a7b	0.15848725
5	0xbd2b314e	-0.041795067
6	0xbd312767	-0.043250468
7	0x3e9b9b20	0.30391788
8	0x3e16aa94	0.14713508
9	0x3e88062b	0.26567206
10	0x3e1c700a	0.15277115
11	0x3e6e4d99	0.23271789
12	0xbdffb6cc	-0.124860376
13	0x3e0233b5	0.12715037
14	0x3cad1896	0.021129888
15	0x3e03bc6c	0.12864846
16	0x3e8a5a86	0.2702219
17	0xbe9ead76	-0.30991715
18	0xbdb2418c	-0.08703908
19	0x3c370773	0.01117121
20	0x3d28b7c0	0.041190863
21	0x3de50260	0.111820936
22	0xbc929426	-0.017892908
23	0x3e8e52a6	0.2779743
24	0xbdb46b96	-0.08809583
25	0xbcaf81ac	-0.021424137
26	0xbe68e3aa	-0.22743097
27	0xbc033b28	-0.008009709
28	0x3dca5b0e	0.098806486
29	0xbe40d3ce	-0.18830797
30	0x3dbaf75f	0.091292135
31	0xbd093706	-0.03349974
32	0x3d23fdc3	0.040036928
33	0xbdafafb5	-0.08578435
34	0xbe69b570	-0.22823119
35	0xbadbfee8	-0.0016784342
36	0x3d8c8473	0.068612
37	0xbe8bad17	-0.27280495
38	0xbd861a9d	-0.06548045
39	0x3d0bac46	0.03409984
40	0xbe15e3c5	-0.14637668
41	0xbd02190d	-0.03176217
42	0x3e29c2d6	0.1657823
43	0xbd9ef136	-0.07760851
44	0xbe5529e6	-0.20816764
45	0x3d32fd7a	0.043698765
46	0xbe39070b	-0.18069093
47	0xbd8da1cd	-0.06915627
48	0x3d4ed663	0.050497424
49	0xbe49fe16	-0.19725832
50	0xbd6c3548	-0.057668
51	0xbd8233bc	-0.06357524
52	0x3d44019e	0.047853105
53	0x3e000500	0.12501907
54	0xbe2b09fd	-0.16703029
55	0x3e168dd4	0.1470254
56	0xbd602ffd	-0.054733265
57	0x3d95fae1	0.07323242
58	0xbd828b6a	-0.06374247
59	0xbe990f22	-0.29894358
60	0xbe1054a6	-0.14094791
61	0xbd6cfb9d	-0.057857145
62	0xbbebaa62	-0.007191942
63	0xbd15d50e	-0.036580138
64	0x3cf0bf68	0.029388145
65	0xbbd7191d	-0.006564273
66	0xbca0ba43	-0.019620067
67	0xbdb80d73	-0.0898694
68	0x3d6e21a9	0.05813757
69	0xbdee9ba2	-0.11650778
70	0xbd8890d3	-0.06668248
71	0xbdb9b80b	-0.090683065
72	0x3c133da9	0.008986869
73	0xbe01c6c5	-0.12673481
74	0xbc8b643b	-0.017015567
75	0x3df4b99b	0.11949464
76	0xbd3d2363	-0.046176326
77	0xbd8f3c8d	-0.06993971
78	0xbd94343b	-0.07236525
79	0x3ddd0cd0	0.107934594
80	0x3daf6380	0.085639
81	0x3db31f95	0.08746258
82	0xbe36515c	-0.17804474
83	0x3e2ac85c	0.16677994
84	0xbd2c4125	-0.042054314
85	0x3d6ea0d6	0.058258854
86	0xbe94bb99	-0.29049376
87	0xbd8dfb6d	-0.06932721
88	0xbe976e6c	-0.29576433
89	0x3e34ddb7	0.17662703
90	0x3de32be4	0.11092356
91	0xbe459218	-0.19294012
92	0x3dd24b51	0.10268272
93	0x3d17b817	0.037040796
94	0x3cc6d7e7	0.024272872
95	0x3e10e7b0	0.14150882
96	0xbe523996	-0.2052978
97	0xbdbc7c3b	-0.092033826
98	0xbd8048fb	-0.0626392
99	0x3e6d50e7	0.23175393
100	0xbe3e4cab	-0.18583934
101	0xbd7d2e25	-0.061811585
102	0xbd3c1bfe	-0.045925133
103	0x3c99e569	0.01878615
104	0x3e25fba9	0.16209282
105	0xbcdee0f5	-0.027206877
106	0xbe770080	-0.24121284
107	0xbe01783e	-0.12643525
108	0x3e789dfa	0.24279013
109	0x3d95d799	0.073165126
110	0x3df476d2	0.11936726
111	0xbe57528b	-0.21027581
112	0x3acf4f49	0.0015816475
113	0xbd830661	-0.06397701
114	0x3e693137	0.2277268
115	0x3e041efe	0.12902448
116	0x3e53736e	0.20649502
117	0x3d893b17	0.067007236
118	0xbd689c5f	-0.056789752
119	0xbe2b15d3	-0.16707544
120	0xbea40db3	-0.32041702
121	0x3e22b6fc	0.15890115
122	0x3e326352	0.174207
123	0xbd7bff2d	-0.06152265
124	0x3e2d7e62	0.16942742
125	0x3e2c9448	0.1685344
126	0xbe27175a	-0.16317502
127	0x3e25fc7b	0.16209595
128	0x3e5b6e78	0.21428859
129	0xbe1d5e63	-0.15368037
130	0xbe311c08	-0.1729585
131	0xbe064bac	-0.13114804
132	0x3e3df0d4	0.185489
133	0x3db67217	0.0890848
134	0xbde81ca5	-0.113335885
135	0x3e1ca356	0.15296683
136	0xbd1f4eb9	-0.038893435
137	0x3e30ff97	0.17285
138	0xbd99b98f	-0.075060956
139	0xbd4a8330	-0.049441516
140	0xbd47d519	-0.04878721
141	0x3e47674d	0.19473
142	0x3bd8004e	0.006591833
143	0x3d436cf9	0.047711346
144	0x3d09f479	0.033680413
145	0x3c9108d9	0.017704414
146	0x3d574d34	0.05256386
147	0x3d01669e	0.031592004
148	0xbd496c8d	-0.049175788
149	0x3dd9d253	0.10635819
150	0xbe476bf1	-0.1947477
151	0x3c8062fd	0.015672201
152	0xbba1574c	-0.0049237367
153	0x3db2cc53	0.08730378
154	0x3d67bb2f	0.056574997
155	0xbd8a8b17	-0.067648105
156	0x3bbf5514	0.0058389995
157	0xbdf16e45	-0.1178861
158	0x3d0acf73	0.033889245
159	0x3d907434	0.07053414
160	0xbe71da59	-0.2361845
161	0xbd8e9ca6	-0.06963472
162	0x3e52ab84	0.2057324
163	0x3e5267bd	0.20547386
164	0xbda1518a	-0.078768805
165	0x3e0abfd3	0.13549738
166	0xbd50ac8a	-0.050945796
167	0xbcc7eb5b	-0.024404218
168	0x3e10aa94	0.1412757
169	0xbe2299c3	-0.15878968
170	0xbe4602a0	-0.19336939
171	0xbe573130	-0.21014857
172	0x3e844f6e	0.2584185
173	0x3e28143c	0.16413969
174	0x3e5f3707	0.21798335
175	0xbe684c9c	-0.22685474
176	0xbda8eba4	-0.0824807
177	0x3d3f5054	0.046707466
178	0x3bcc9b4d	0.0062440992
179	0x3e362aca	0.1778976
180	0xbd72b9fd	-0.059259403
181	0xbd8b2c4e	-0.0679556
182	0xbead4424	-0.3384105
183	0xbd201339	-0.039080832
184	0xbdd9b9b1	-0.10631121
185	0xbe0a145b	-0.13484327
186	0x3ded656a	0.11591609
187	0xbd7d8b93	-0.061900686
188	0xbc2b9cb7	-0.010474375
189	0xbde29273	-0.11063089
190	0xbc506dcf	-0.012721493
191	0xbd9a9548	-0.075480044
192	0x3e2d6778	0.16934001
193	0xbd47fbe6	-0.048824213
194	0x3b49dd07	0.0030801909
195	0xbe3b4f74	-0.18292028
196	0x3e3fe8cf	0.18741153
197	0xbe7a53c9	-0.24446024
198	0xbe827a5e	-0.25483984
199	0x3e80c0bb	0.25147042
200	0x3e60b504	0.21944052
201	0x3e83e583	0.2576104
202	0x3db1c1d5	0.08679549
203	0x3e443684	0.19161421
204	0xbd8f2cb1	-0.06990946
205	0x3e0773e9	0.1322781
206	0x3c8fd591	0.017557891
207	0x3e1e50e5	0.15460546
208	0x3e3b3720	0.18282747
209	0xbe7bbaec	-0.24583024
210	0xbcfd415c	-0.030914955
211	0xbb92759c	-0.0044695865
212	0x3d72a5d7	0.05924019
213	0xbb3ecead	-0.0029114888
214	0xbda753f6	-0.08170311
215	0x3d935e4c	0.0719572
216	0xbe0fe048	-0.140504
217	0x3e5df01e	0.21673629
218	0x3db52b4a	0.08846147
219	0xbe4ee004	-0.20202643
220	0xbd0fe9ed	-0.0351352
221	0xbdf666b2	-0.12031306
222	0x3dc12e15	0.094326176
223	0xbddb3664	-0.107037336
224	0xbdea0258	-0.11426228
225	0x3c8e5faa	0.0173796
226	0xbe247318	-0.1605953
227	0xbdf61285	-0.12015251
228	0xbdf071df	-0.11740469
229	0x3ca7362c	0.020411573
230	0xbcc17004	-0.023612984
231	0x3d8c5402	0.06851961
232	0x3d17a29a	0.037020303
233	0xbdf57f0c	-0.11987123
234	0x3d04ae91	0.032393042
235	0xbe395265	-0.18097837
236	0x3ca7e3eb	0.020494422
237	0xbd8e44c3	-0.06946709
238	0x3e292d0e	0.16521093
239	0x3c1ecbab	0.009692113
240	0xbd9e3f1a	-0.077268794
241	0xbd94aaec	-0.07259163
242	0x3bb76f02	0.00559795
243	0xbd68c15b	-0.056825023
244	0x3cd82623	0.026385373
245	0xbd2b2422	-0.041782506
246	0xbdb6a86e	-0.08918844
247	0xbd29942d	-0.041401077
248	0xbcff7a96	-0.031186383
249	0xbd8468b4	-0.06465283
250	0x3eca732a	0.39540988
251	0xbd0d3649	-0.0344756
252	0xbe254dcc	-0.16142958
253	0xbd8ce9d6	-0.06880538
254	0xbe55658f	-0.20839523
255	0x3d2ea6f4	0.042639688

lstm.weight_hh_l1 f4 [128, 32]
0	0xbcfad01a	-0.030616809
1	0xbd816782	-0.06318571
2	0x3e6026ef	0.21889852
3	0xbe2d3edf	-0.16918515
4	0x3e2d72e4	0.16938359
5	0xbdef1faf	-0.11675965
6	0x3e5750d4	0.21026927
7	0x3cbda6b7	0.023150785
8	0x3c6031bf	0.013683735
9	0xbdd21457	-0.10257786
10	0xbc307b4d	-0.010771585
11	0x3ce6c263	0.028168863
12	0xbd122b93	-0.035686087
13	0xbccd973a	-0.025096525
14	0x3e1705c3	0.14748292
15	0xbe8a1683	-0.269703
16	0xbe21295b	-0.15738432
17	0xbd3e014b	-0.04638795
18	0xbda2c1f1	-0.07947148
19	0xbc241295	-0.010014196
20	0x3d05b646	0.032644533
21	0x3de121e4	0.10992792
22	0xbd89c1e3	-0.06726434
23	0xbd201b2a	-0.039088406
24	0x3c85bc6f	0.016325204
25	0xbe42b01f	-0.19012497
26	0x3cc6a1bd	0.024247045
27	0xbdd5c58e	-0.10438071
28	0xbdd27651	-0.10276473
29	0xbdc472f5	-0.09592239
30	0x3e22e794	0.15908653
31	0xbe84cdaf	-0.25938174
32	0x3d371716	0.04469975
33	0x3e5bfb1a	0.21482506
34	0x3e5eadb3	0.21745948
35	0xbe072867	-0.13199006
36	0xbe049743	-0.12948327
37	0xbdd40261	-0.10352016
38	0x3ccd0f5d	0.02503174
39	0x3d46f000	0.048568726
40	0xbca87a44	-0.020566113
41	0xbe2eeecf	-0.17083286
42	0xbe96b784	-0.29436886
43	0xbe683943	-0.22678094
44	0x3e154d61	0.14580299
45	0x3e32dd58	0.17467248
46	0x3e21edfb	0.15813439
47	0xbe90176f	-0.28142878
48	0x3e14f447	0.1454631
49	0x3e34baff	0.17649458
50	0xbde58b8a	-0.112082556
51	0xbe12f156	-0.14349875
52	0xbe1bd5e4	-0.15218312
53	0x3e0923d7	0.13392578
54	0x3c98a03c	0.018631093
55	0xbb622a4e	-0.003451008
56	0x3d3d8bb2	0.046275802
57	0xbc4f8ebf	-0.012668311
58	0x3e6a8fb1	0.22906376
59	0x3c5f92b3	0.013645816
60	0xbde056b2	-0.10954036
61	0xbe1123f0	-0.14173865
62	0x3d636ef4	0.055525735
63	0xbe3e807d	-0.18603702
64	0x3d2fe57f	0.042943474
65	0x3df75a46	0.12077765
66	0x3deca158	0.115542114
67	0xbd831402	-0.064003006
68	0x3d6eeb8c	0.058330104
69	0xbd81ce19	-0.06338138
70	0x3e451b91	0.19248797
71	0xbd3b70ce	-0.045761876
72	0xbd4883b0	-0.048953712
73	0xbbe0faba	-0.0068658264
74	0xbcdb1487	-0.026743187
75	0xbe037203	-0.12836461
76	0x3d580545	0.0527394
77	0x3c51d86b	0.012807946
78	0x3ca722e5	0.020402381
79	0xbcc2ea3b	-0.02379333
80	0x3d332977	0.043740716
81	0x3d3e0f50	0.046401322
82	0xbe4a0597	-0.19728695
83	0x3d5805a0	0.05273974
84	0x3d74f706	0.059805892
85	0x3e5b36d1	0.2140763
86	0xbd9a5f0e	-0.075376615
87	0xbe40b1a9	-0.18817772
88	0x3b3ebcf3	0.0029104322
89	0x3c1881cb	0.009308289
90	0xbdfee197	-0.124453716
91	0x3d34a86e	0.04410594
92	0x3cc8e201	0.02452183
93	0xbdc774fc	-0.0973911
94	0x3d60225b	0.054720264
95	0xbd0a930c	-0.03383164
96	0xbda7dc96	-0.0819637
97	0xbdf9ff42	-0.1220689
98	0x3b73d642	0.0037206565
99	0x3bb748c5	0.0055933916
100	0xbc83632b	-0.016038498
101	0x3d8855ea	0.06657012
102	0x3e08b548	0.13350403
103	0x3dfb2044	0.122620136
104	0xbe301a0a	-0.17197433
105	0x3dc5f06f	0.09665
106	0xbe3bc15e	-0.18335482
107	0x3c155106	0.009113556
108	0xbdda699a	-0.10664673
109	0xbe6899f0	-0.22714972
110	0xbe5b9ee2	-0.21447328
111	0x3c214f4c	0.009845566
112	0x3e562040	0.2091074
113	0xbdd6b78e	-0.10484229
114	0x3e1c5f88	0.15270817
115	0x3cbfde09	0.023421304
116	0xbded04fa	-0.11573215
117	0x3d929d68	0.07158929
118	0x3e2cbce0	0.16868925
119	0xbd348a0a	-0.044076957
120	0x3dc6ec28	0.09713012
121	0xbd9cd3c9	-0.07657582
122	0xbe3b7f40	-0.18310261
123	0xbe129f4e	-0.14318582
124	0xbd6985ea	-0.057012476
125	0x3de126df	0.10993742
126	0x3b8e5464	0.0043435562
127	0x3d12101f	0.035659906
128	0xbb17bbce	-0.0023152712
129	0x3d4cee54	0.050031975
130	0x3e0d5b0b	0.13804261
131	0x3d86e4c1	0.065866
132	0x3bbbc5eb	0.005730381
133	0xbdcb45c4	-0.09925416
134	0x3e1abc5f	0.1511092
135	0x3e15b95b	0.14621489
136	0x3e242010	0.16027856
137	0x3c594245	0.013260429
138	0xbdd6721e	-0.10470985
139	0xbdabb7da	-0.08384676
140	0x3e5a4fac	0.21319455
141	0xbc50d4f6	-0.012746086
142	0x3d9989bc	0.07496974
143	0xbe04e322	-0.1297727
144	0xbe099124	-0.13434273
145	0x3e2d2d0b	0.16911714
146	0xbd5b3065	-0.05351295
147	0x3befe1bf	0.007320612
148	0xbcd14146	-0.02554382
149	0x3e2cb15d	0.16864534
150	0x3db5e013	0.088806294
151	0xbdd45759	-0.10368223
152	0x3c380103	0.01123071
153	0xbe0c14b6	-0.13679776
154	0xbb6606c2	-0.0035099243
155	0x3c247a68	0.01003895
156	0xbe4a3a77	-0.19748865
157	0xbe74635d	-0.23866029
158	0xbcfbb8b8	-0.03072773
159	0xbe7086c3	-0.23488908
160	0xbe247c91	-0.16063143
161	0xbdbbc451	-0.09168304
162	0xbc3007e3	-0.010744068
163	0xbe043c17	-0.12913547
164	0x3dc24def	0.09487521
165	0x3d9cb445	0.07651571
166	0xbcb3913e	-0.021919843
167	0x3d8f4c0b	0.06996926
168	0xbdf754ff	-0.120767586
169	0xbcb2740c	-0.021783851
170	0x3e016f89	0.12640204
171	0x3e4e6143	0.2015429
172	0x3db18525	0.086679734
173	0xbdd775bc	-0.10520503
174	0x3d3329f4	0.04374118
175	0x3df54106	0.11975293
176	0x3c9557ee	0.018230405
177	0x3e34db0e	0.17661688
178	0xbda195be	-0.07889889
179	0x3e209e20	0.1568532
180	0x3e0f436f	0.13990568
181	0xbe0cc42c	-0.13746709
182	0x3d2ecfda	0.04267869
183	0x3e44638c	0.19178599
184	0xbdefc8b6	-0.117082044
185	0x3dafcbd5	0.085838
186	0x3d7de239	0.06198332
187	0x3dc6912e	0.096956596
188	0xbdbaf11a	-0.09128018
189	0x3e22aa67	0.15885316
190	0xbdd4e6f4	-0.10395613
191	0x3dd5ae12	0.10433592
192	0x3d4e9e76	0.05044409
193	0x3d8da2b1	0.069157965
194	0xbd4dd91d	-0.050255883
195	0xbcc74fc6	-0.024330031
196	0xbdd9ea6b	-0.10640415
197	0xbe5ea9d3	-0.2174447
198	0x3e652e22	0.2238088
199	0x3e5bae34	0.21453172
200	0x3e8ca843	0.27472124
201	0xbe6f6e26	-0.23381862
202	0xbd8d896c	-0.06910977
203	0xbd07c4d3	-0.03314669
204	0xbd8d4e30	-0.06899679
205	0x3d5d2e06	0.05399897
206	0xbcd7dd0a	-0.026350517
207	0xbb8f8f59	-0.004381102
208	0xbdab15c0	-0.08353758
209	0x3da9fc5e	0.08300088
210	0x3d2014d7	0.039082374
211	0x3daacee1	0.0834024
212	0xbd1a1737	-0.037619796
213	0xbc795b49	-0.015219518
214	0xbe1ecce5	-0.15507849
215	0xbe8a007a	-0.2695349
216	0xbc803baf	-0.01565346
217	0xbdc2e8ac	-0.09517035
218	0xbd817771	-0.0632161
219	0x3e02bce5	0.1276737
220	0xbd664a00	-0.056222916
221	0xbdd0f595	-0.10203091
222	0x3e30fb4d	0.17283364
223	0x3d5f6a9e	0.054545037
224	0x3d14130d	0.03615098
225	0x3a79e3ed	0.000953256
226	0xbba03440	-0.004889041
227	0xbd38f630	-0.045156658
228	0xbdccf774	-0.100081354
229	0x3e05125a	0.12995282
230	0x3c69a5c9	0.014260718
231	0x3e178b6c	0.14799279
232	0xbcbde64e	-0.023181107
233	0x3e15ae15	0.14617188
234	0xbce5c62a	-0.028048594
235	0x3e1885c8	0.14894783
236	0xbdbbdf26	-0.091734216
237	0x3df352af	0.11881005
238	0xba68726f	-0.00088671496
239	0x3dfe1910	0.12407124
240	0x3ca6fdc0	0.02038467
241	0xbcefae3d	-0.029257888
242	0xbd98ca8e	-0.07460509
243	0xbdff4b2f	-0.12465512
244	0xbc08f9ed	-0.008360368
245	0xbcfbed91	-0.030752929
246	0xbdaf4ff3	-0.08560171
247	0xbd38012c	-0.044922993
248	0xbbe16d23	-0.006879465
249	0xbdfe039c	-0.12403032
250	0x3d692c4c	0.05692701
251	0xbdad53e1	-0.08463264
252	0xbdd0ee3b	-0.10201689
253	0xbc421d74	-0.0118478425
254	0xbe19454c	-0.14967841
255	0xbe2299f7	-0.15879045

lstm.bias_ih_l1 f4 [128]
0	0xbe5e51c5	-0.2171088
1	0xbdf21850	-0.118210435
2	0x3d273a1d	0.040826906
3	0x3e473a3b	0.19455807
4	0x3c4ed252	0.012623386
5	0x3d8d2eb7	0.06893676
6	0xbd1b2769	-0.03787938
7	0x3c1ed6fc	0.009694811
8	0x3d8fd252	0.07022537
9	0xbd1e7cf4	-0.038693383
10	0x3e2f1c1e	0.1710057
11	0x3e638885	0.22220047
12	0x3d4a20a7	0.049347546
13	0xbe05d190	-0.13068223
14	0xbe9101b5	-0.28321615
15	0xbd58a13c	-0.05288814
16	0xbe7c6fbc	-0.24651998
17	0xbe1f9be2	-0.15586808
18	0xbda5a717	-0.080885105
19	0xbe76a2ae	-0.24085495
20	0x3cfbf2c5	0.03075541
21	0x3ddf4259	0.10901327
22	0x3d12c917	0.035836305
23	0x3d1fba9a	0.038996316
24	0xbdaf8572	-0.085703745
25	0xbddaa693	-0.10676303
26	0x3e5063d3	0.2035058
27	0x3c99ffa8	0.018798664
28	0xbd5dc2ef	-0.05414098
29	0x3e0b242c	0.13588017
30	0xbd81c006	-0.06335454
31	0x3e688a47	0.22708999
32	0x3d07acdb	0.033123832
33	0xbd8d022d	-0.068851806
34	0xbdb64590	-0.08899987
35	0x3dbd7c7a	0.09252258
36	0x3d491ae8	0.049097925
37	0x3db1ed8b	0.08687886
38	0x3d6d31ee	0.057908945
39	0xbe24ac60	-0.16081381
40	0x3b884d64	0.0041596163
41	0xbe3c3ab7	-0.18381773
42	0xbcb58b25	-0.022161076
43	0x3e2fa54f	0.17152904
44	0xbca85a4f	-0.020550875
45	0xbe79e8a1	-0.24405147
46	0xbe0b1947	-0.13583861
47	0xbda41fb3	-0.08013859
48	0x3c2068ac	0.009790581
49	0xbe844350	-0.25832605
50	0x3e10f342	0.14155295
51	0xbdf49514	-0.11942497
52	0x3daa678e	0.08320533
53	0xbd898715	-0.06715218
54	0x3e2a130d	0.1660883
55	0x3e149730	0.14510798
56	0x3d8bcc03	0.068260215
57	0xbe2c674c	-0.1683628
58	0xbadea679	-0.0016986869
59	0xbe26a2ae	-0.16272995
60	0x3de7c71e	0.113172755
61	0x3e5d6c32	0.21623304
62	0x3b04a2ee	0.0020238715
63	0x3e418c1b	0.18901102
64	0x3d42709e	0.04747068
65	0xbd6dc607	-0.05805018
66	0x3d8c1af4	0.068410784
67	0x3e88e2bb	0.26735482
68	0x3be8e1d3	0.0071069985
69	0x3d6770f0	0.05650419
70	0xbd4f0fb4	-0.050552085
71	0xbe6ac266	-0.2292572
72	0xbe865c16	-0.2624213
73	0x3dcbf13a	0.0995812
74	0xbcd52828	-0.026020125
75	0x3d14a010	0.03628546
76	0xbdd7a924	-0.10530308
77	0x3dd5eaf2	0.10445203
78	0xbdc0838e	-0.09400092
79	0x3e221232	0.15827253
80	0x3d22b14b	0.03971986
81	0xbcfda907	-0.030964388
82	0x3e1c5fdb	0.15270941
83	0xbd49edb1	-0.049298946
84	0x3dfb1c2f	0.12261235
85	0x3c8d6fcd	0.017265225
86	0x3e72abdc	0.23698372
87	0x3e1000bb	0.14062779
88	0x3e0aa966	0.13541183
89	0x3d50927c	0.05092095
90	0xbe8976eb	-0.2684854
91	0x3de0f20b	0.10983666
92	0x3d188da4	0.037244454
93	0x3e8d70bb	0.2762507
94	0xbd5750a3	-0.052567136
95	0x3e656e6d	0.22405405
96	0xbe542fc7	-0.2072135
97	0xbe80219e	-0.25025648
98	0x3da3a409	0.079902716
99	0xbe056006	-0.13024911
100	0x3d8cc68e	0.06873809
101	0x3d96e628	0.073681176
102	0xbe9049ee	-0.28181404
103	0xbe0e9d71	-0.13927247
104	0xbda0b26d	-0.07846532
105	0xbdb10535	-0.08643571
106	0x3d21970a	0.039450683
107	0xbdaa781a	-0.08323689
108	0xbd3b565c	-0.045736656
109	0x3d45b876	0.04827162
110	0x3c9765bc	0.018481128
111	0xbe3a36a3	-0.18184905
112	0xbe21324a	-0.1574184
113	0x3d054748	0.032538682
114	0x3e145a70	0.14487624
115	0x3c684eaf	0.014178916
116	0xbcd3705f	-0.025810419
117	0xbcc890cc	-0.024483107
118	0xbdc3e5fe	-0.09565352
119	0xbc9fd5dd	-0.019511158
120	0xbe1ec205	-0.155037
121	0x3dd36760	0.103224516
122	0x3d9c64b6	0.076363966
123	0xbe091c08	-0.133896
124	0xbc890abe	-0.016728755
125	0xbe02f5c7	-0.12789069
126	0xbbbcb7b4	-0.005759204
127	0xbe322cb1	-0.17399861

lstm.bias_hh_l1 f4 [128]
0	0xbb9885f6	-0.0046546413
1	0xbaec70d2	-0.0018038994
2	0x3d197425	0.03746428
3	0x3e32b0c7	0.17450248
4	0xbd3c5cc4	-0.045986906
5	0x3db2b4e3	0.08725908
6	0xbd415bb0	-0.04720658
7	0xbd885e96	-0.06658666
8	0x3e28798d	0.16452618
9	0xbdc0d7be	-0.094161496
10	0x3ddd7eb5	0.10815183
11	0xbce6b44f	-0.02816215
12	0xbdc71966	-0.09721641
13	0xbd9aaf4c	-0.075529665
14	0xbe2dcdca	-0.16973034
15	0x3b9f6bda	0.004865152
16	0xbdea1f96	-0.11431806
17	0x3d82a640	0.06379366
18	0x3e30e335	0.17274173
19	0xbd212d94	-0.039350107
20	0xbddf77d3	-0.109115265
21	0xbe10accb	-0.14128415
22	0x3e203a2d	0.15647192
23	0xbd454446	-0.048160814
24	0xbe456605	-0.19277199
25	0x3df46430	0.11933172
26	0x3e5969d7	0.21231781
27	0xbd6269c8	-0.055276662
28	0xbdaff3b1	-0.08591402
29	0x3e1a6095	0.15075906
30	0x3d87dda9	0.06634075
31	0x3d984a4d	0.07436047
32	0x3d0700a2	0.032959588
33	0xbd908591	-0.07056726
34	0x3de8ae7e	0.11361407
35	0xbdb8f918	-0.09031886
36	0xbe017aea	-0.12644544
37	0x3dd7822d	0.10522876
38	0x3d3a5c37	0.0454981
39	0xbdde9bf2	-0.10869588
40	0x3e26bf37	0.1628388
41	0x3d9cb5d6	0.0765187
42	0x3e0b1a18	0.13584173
43	0xbbb42fac	-0.005498847
44	0x3d8fc98d	0.07020865
45	0xbd97fec9	-0.07421643
46	0xbe099270	-0.13434768
47	0xbcc01858	-0.023449108
48	0xbe339492	-0.17537144
49	0x3d6daa00	0.058023453
50	0x3dc3e865	0.0956581
51	0xbe790c0f	-0.24321006
52	0xbdf07832	-0.117416754
53	0xbe027a2b	-0.12741916
54	0xbd32b023	-0.04362501
55	0xbe2220d4	-0.15832835
56	0x3d1b86c3	0.037970316
57	0xbd22725b	-0.03965984
58	0xbd0718d3	-0.03298266
59	0xbd8a0332	-0.06738891
60	0xbc92a8be	-0.017902728
61	0xbd92348c	-0.07138929
62	0xbd3f52a6	-0.04670968
63	0x3e52bb7d	0.20579334
64	0xbdb81d4f	-0.08989965
65	0x3dbfdf65	0.09368781
66	0xbe254d02	-0.16142657
67	0x3e37c410	0.17945886
68	0xba225144	-0.0006191919
69	0x3e8c562b	0.2740949
70	0x3c60df1f	0.013725071
71	0x3d9a4ce0	0.07534194
72	0xbe6a2a2a	-0.22867647
73	0x3ccf1102	0.025276665
74	0x3e5b3ca2	0.21409848
75	0x3dd31dee	0.10308443
76	0xbe5b9de6	-0.21446952
77	0xbcc717b5	-0.024303297
78	0xbd1a2924	-0.03763689
79	0x3de79214	0.11307159
80	0x3da7809d	0.08178828
81	0x3d4123d4	0.04715331
82	0x3e0cc073	0.13745289
83	0xbdccbe38	-0.09997219
84	0x3e7ebaab	0.24875896
85	0xbe7739fd	-0.24143215
86	0x3e156dca	0.14592662
87	0x3e1ea1c2	0.15491393
88	0x3bb2553a	0.0054422887
89	0x3d8e5b23	0.06950977
90	0xbe50dc46	-0.20396528
91	0x3da53858	0.08067387
92	0x3e1755b6	0.1477879
93	0x3e868630	0.26274252
94	0xbe2dcf4a	-0.16973606
95	0x3e0d4a1f	0.13797806
96	0xbe801b92	-0.25021034
97	0xbe2f88e1	-0.17142059
98	0x3d83be0d	0.06432734
99	0x3e2ec834	0.17068559
100	0x3c31b98f	0.010847463
101	0x3da45ec4	0.080258876
102	0x3ca72dcc	0.02040758
103	0x3e1d9a8a	0.15390983
104	0x3d440115	0.047852594
105	0xbdcdb9df	-0.10045218
106	0xbd61f190	-0.055162013
107	0xbdfeffaf	-0.124511115
108	0x3c004ffe	0.007831572
109	0xbe72d9db	-0.23715918
110	0xbdccdc1f	-0.10002922
111	0xbe2e990f	-0.17050575
112	0xbcbfe057	-0.023422403
113	0xbe7f0e9f	-0.24907921
114	0x3dfe8e05	0.12429432
115	0xbe5c1e79	-0.21496
116	0xbe1940c6	-0.14966115
117	0x3ddd18ab	0.10795721
118	0xbe3cc0a8	-0.18432868
119	0x3c1505bc	0.009095605
120	0x3d3b9379	0.045794938
121	0xbd85b95f	-0.06529497
122	0x3dd5c607	0.10438161
123	0xbe4bf568	-0.19917834
124	0xbded0844	-0.11573842
125	0xbe0b355f	-0.13594578
126	0xbdf73001	-0.12069703
127	0xbe16308f	-0.14666961

fc.weight f4 [1, 32]
0	0xbcb33d45	-0.021879802
1	0x3d4839eb	0.04888336
2	0x3e0d630a	0.13807312
3	0xbe0fbcce	-0.14036867
4	0x3d11d935	0.035607535
5	0xbe184f19	-0.14873923
6	0xbc88173f	-0.016612647
7	0x3ded2f6a	0.11581309
8	0x3dd223ae	0.102607116
9	0xbdb8f364	-0.09030798
10	0xbde8de4d	-0.113705255
11	0xbe37cf0a	-0.17950073
12	0x3dfa2ad1	0.12215198
13	0x3d9c3a8b	0.07628354
14	0xbbfedb3c	-0.0077775996
15	0xbd5f0115	-0.05444439
16	0x3c95bc2d	0.018278206
17	0x3da8536d	0.08219037
18	0xbe291717	-0.16512714
19	0x3d5c700b	0.05381779
20	0xbe317c39	-0.17332543
21	0x3de3843b	0.11109205
22	0xbd340f59	-0.04395995
23	0xbe34a854	-0.17642337
24	0xbd5f8ae8	-0.05457583
25	0xbdd32d85	-0.103114165
26	0x3e52310d	0.20526524
27	0xbdf6ca29	-0.12050278
28	0xbca5dcfd	-0.020246977
29	0xbe5a2e02	-0.21306613
30	0x3d5fa740	0.05460286
31	0xbdb3e8bb	-0.08784624
