backend/stocks/price/pt_models/MSFT.pt (torch, 54435 bytes, 9 tensors)

lstm.weight_ih_l0 f4 [128, 1]
0	0xbc6c2f7d	-0.014415619
1	0xbe07d7e5	-0.13265951
2	0xbdf4f562	-0.119608656
3	0x3d937c2b	0.072014175
4	0xbe606fe7	-0.21917687
5	0xbd56676c	-0.052344725
6	0xbe2e6794	-0.170317
7	0x3e4f7c5c	0.20262283
8	0xbdc3eec1	-0.09567023
9	0xbe018fbe	-0.1265249
10	0x3d5bd33f	0.053668257
11	0xbd9a2f3e	-0.07528542
12	0x3cd0ffb6	0.025512557
13	0xbd7bdc0e	-0.061489157
14	0x3db2b1e6	0.08725338
15	0x3d88ab9e	0.066733584
16	0x3e99799c	0.29975593
17	0xbdc9f43e	-0.098610386
18	0xbdf0e52a	-0.117624596
19	0x3cc034f2	0.023462746
20	0xbe18b857	-0.1491407
21	0xbd2a88ad	-0.04163425
22	0x3dc63415	0.096779026
23	0x3aa8def4	0.0012883828
24	0x3d0020de	0.031281345
25	0xbe0d6145	-0.13806637
26	0x3e38c63a	0.18044367
27	0xbd3da0f3	-0.04629607
28	0x3e3a6d0c	0.1820566
29	0x3d8dce30	0.06924093
30	0x3d8b97da	0.06816073
31	0x3ced7003	0.028984075
32	0x3e60112a	0.21881548
33	0xbe2f1b4a	-0.17100254
34	0x3c935455	0.017984549
35	0x3cdb5be3	0.026777213
36	0xbe92cfa2	-0.28674036
37	0x3d65c59e	0.056096666
38	0xbe162d5c	-0.1466574
39	0xbb9cbc92	-0.0047832215
40	0xbd53ec46	-0.051739
41	0x3d37fe6e	0.044920377
42	0xbd862958	-0.065508544
43	0xbcff5f39	-0.031173335
44	0x3e0ecdde	0.1394572
45	0xbdec7aab	-0.115468346
46	0x3e8b37b1	0.27190927
47	0x3d86454f	0.06556188
48	0x3e92f514	0.28702605
49	0x3e03919c	0.12848514
50	0xbde6a26d	-0.11261449
51	0x3e1bef1c	0.15227932
52	0xbbc2856d	-0.0059363157
53	0xbe4c8157	-0.19971214
54	0x3e54555f	0.20735691
55	0xbd1716f7	-0.036887135
56	0x3c72c397	0.01481714
57	0xbe120e37	-0.14263235
58	0x3e442c28	0.1915747
59	0x3dab3726	0.08360128
60	0xbdd82283	-0.105534576
61	0xbdb8a86f	-0.09016501
62	0x3d27c0d5	0.040955383
63	0xbd590d91	-0.052991454
64	0xbc33d3ec	-0.010975819
65	0x3d0ee895	0.034889776
66	0x3de0a963	0.10969808
67	0xbc08a5e7	-0.008340335
68	0x3e2a89be	0.16654107
69	0x3e1f71da	0.15570775
70	0xbcd4b4fe	-0.02596521
71	0xbe3357ab	-0.17513911
72	0x3d62e2c7	0.055392053
73	0xbe048a29	-0.12943329
74	0xbe070310	-0.13184762
75	0x3cea5d32	0.028608892
76	0xbc5eb56d	-0.01359306
77	0x3d7f4098	0.06231746
78	0x3d648aad	0.055796314
79	0xbdfe6773	-0.12422075
80	0x3dd45ec0	0.10369635
81	0xbd87e9ad	-0.06636367
82	0xbdcd79bc	-0.100329846
83	0x3d1c888e	0.038216166
84	0x3c5a045a	0.013306702
85	0xbdd4149f	-0.10355496
86	0x3e149c2c	0.145127
87	0xbdd8dae0	-0.10588622
88	0xbdb7e9a0	-0.08980107
89	0x3e7646cb	0.24050443
90	0x3dee7c69	0.11644823
91	0xbd367eae	-0.044554405
92	0xbdfc5067	-0.12320023
93	0xbe2e5249	-0.17023577
94	0x3aa4c8ea	0.0012572084
95	0xbca3470c	-0.019931339
96	0x3d01b38c	0.03166537
97	0x3d8c216c	0.06842312
98	0x3de62493	0.11237445
99	0xbc82b208	-0.015954033
100	0xbd8df873	-0.069321536
101	0x3dfbfaa2	0.12303664
102	0xbe21f3bb	-0.15815632
103	0xbd3e6245	-0.046480436
104	0xbe00a1b5	-0.12561686
105	0x3d4eb537	0.05046579
106	0x3c6216cd	0.013799381
107	0x3d3d9b6f	0.04629081
108	0x3e8eafab	0.278684
109	0x3db44c0b	0.088035665
110	0x3d76ac70	0.060223043
111	0xbd27e69e	-0.040991418
112	0xbba0e6dc	-0.004910333
113	0xbde9f039	-0.11422772
114	0x3b58b053	0.0033064082
115	0x3ddb827e	0.10718249
116	0x3dc818d8	0.097703636
117	0x3d7d2dee	0.06181138
118	0x3e3a5094	0.181948
119	0x3e4dfec4	0.20116717
120	0x3e3ace4f	0.18242763
121	0xbdc24cec	-0.09487328
122	0x3e8e063f	0.2773914
123	0x3e2547c3	0.16140656
124	0x3dfd46e6	0.123670384
125	0x3e1ffff3	0.1562498
126	0x3dd7779b	0.1052086
127	0x3db08880	0.08619785

lstm.weight_hh_l0 f4 [128, 32]
0	0xbd9f717f	-0.077853195
1	0x3e90323d	0.2816333
2	0xbe203bf5	-0.15647872
3	0xbdd08fe7	-0.10183697
4	0x3e599bcf	0.21250843
5	0xbd1f3ddd	-0.038877357
6	0x3db017b7	0.08598273
7	0x3d8cc5d2	0.06873669
8	0x3e184207	0.14868937
9	0x3d6f4c87	0.05842259
10	0xbc2ca8b6	-0.010538271
11	0x3e210a4a	0.15726581
12	0x3d7897ce	0.060691647
13	0xbe2e50f3	-0.17023067
14	0xbdcc956b	-0.09989437
15	0x3e175b08	0.1478082
16	0xbe07f5ed	-0.13277407
17	0xbe92a238	-0.28639388
18	0xbe1e1aa2	-0.15439847
19	0x3e7ab3da	0.2448267
20	0xbe12a503	-0.1432076
21	0xbe8b1891	-0.2716718
22	0x3ba11a01	0.00491643
23	0xbcf37959	-0.029720949
24	0xbda7d18b	-0.08194264
25	0x3d933311	0.071874745
26	0xbdbbb0e4	-0.091645986
27	0x3dff949b	0.12479516
28	0xbc3e1528	-0.011601724
29	0xbe859083	-0.26086816
30	0xbe866d50	-0.26255274
31	0xbe1f84b9	-0.15577973
32	0xbe5da586	-0.21645173
33	0xbe137f7d	-0.14404102
34	0x3d87fdf3	0.06640234
35	0x3e03e160	0.12878942
36	0xbd9f85d2	-0.07789196
37	0xbe05655b	-0.13026945
38	0xbd05b67a	-0.032644726
39	0x3e87e368	0.26540685
40	0x3bde1b5c	0.006778164
41	0xbd6d76e2	-0.057974704
42	0xbe378bc9	-0.17924418
43	0x3d83dadc	0.064382285
44	0x3c92f91d	0.017941052
45	0xbe3833f4	-0.17988569
46	0x3d2de170	0.042451322
47	0xbd45da32	-0.04830379
48	0xbe75f952	-0.2402089
49	0x3dce5246	0.10074286
50	0xbd9e8c70	-0.0774163
51	0xbde6e02b	-0.112732254
52	0xbe34411f	-0.17602967
53	0xbdd63c70	-0.10460746
54	0x3e3e80cf	0.18603824
55	0x3e377f30	0.17919612
56	0x3d3a078f	0.045417365
57	0x3c4a9c7c	0.01236641
58	0x3c5011d0	0.012699559
59	0x3cd67ffe	0.026184078
60	0xbdd9b776	-0.106306955
61	0x3d03763a	0.03209517
62	0x3de75f33	0.11297455
63	0x3dec6646	0.115429446
64	0xbe2097e0	-0.15682936
65	0x3e35c0b2	0.17749289
66	0xbd8d3b1a	-0.06896038
67	0x3dce5436	0.10074656
68	0x3e5873b2	0.21137884
69	0xbde07fd0	-0.10961878
70	0x39c9a932	0.00038463768
71	0xbd8da86a	-0.06916888
72	0x3de75510	0.11295521
73	0xbda990f8	-0.08279604
74	0x3dc8d998	0.09807128
75	0x3d2fdddc	0.04293619
76	0x3ca36c0b	0.01994898
77	0x3d65c1a7	0.056092884
78	0xbde2c39d	-0.110724665
79	0xbd36259b	-0.044469457
80	0xbe3f719e	-0.18695685
81	0xbd823585	-0.06357864
82	0xbe5ff7a9	-0.21871819
83	0x3e4dedf2	0.201103
84	0xbe06ade8	-0.13152277
85	0x3d0fe73e	0.03513264
86	0x3dcbd3b2	0.09952487
87	0x3d8f676f	0.0700215
88	0x3de56ac3	0.11202004
89	0x3cb20204	0.021729477
90	0xbe807dd8	-0.2509601
91	0x3dea2b43	0.11434033
92	0xbe4c3007	-0.19940196
93	0x3dc633eb	0.09677871
94	0x3d9e2ca5	0.07723359
95	0xbdd0061a	-0.10157414
96	0xbe700d8e	-0.2344267
97	0xbe285f02	-0.16442493
98	0xbe5c7f38	-0.21532905
99	0xbe2e9211	-0.17047907
100	0x3e0ecd6a	0.13945547
101	0xbe093ffa	-0.13403311
102	0xbdab6bb3	-0.08370151
103	0x3bc86ad2	0.0061162496
104	0x3d809764	0.062788755
105	0xbca8ccc9	-0.020605462
106	0x3dbac160	0.091189146
107	0xbe2c36b2	-0.1681774
108	0x3df7dfbd	0.121032216
109	0x3dc6f8ec	0.09715447
110	0x3e4a889b	0.19778673
111	0xbd792c08	-0.060833007
112	0xbe5d59cb	-0.21616285
113	0xbe304296	-0.172129
114	0x3e19573c	0.14974684
115	0x3e19651a	0.14979973
116	0xbdafd6ef	-0.08585917
117	0x3e0fb6e8	0.14034617
118	0x3dc1b65b	0.0945861
119	0xbc5c70e4	-0.01345465
120	0x3ddcc7d6	0.10780303
121	0x3e0c347a	0.13691893
122	0xbe2562d7	-0.16150986
123	0x3c8bea55	0.017079512
124	0xbdb581f9	-0.08862681
125	0x3e50fd51	0.20409133
126	0xbd82d61f	-0.063884966
127	0x3e67910d	0.22613926
128	0xbe5d6f91	-0.2162459
129	0x3d9cae0d	0.07650385
130	0xbe116415	-0.14198335
131	0xbd191078	-0.03736922
132	0xbe109153	-0.14117937
133	0xbe41fae2	-0.1894336
134	0x3b247993	0.0025096878
135	0x3e502f32	0.20330504
136	0xbd97745a	-0.07395239
137	0xbd9c4731	-0.07630766
138	0x3b85a1be	0.004078119
139	0xbe3a609c	-0.18200916
140	0xbdea339b	-0.11435624
141	0xbe1e3a45	-0.15451916
142	0xbdafe74c	-0.08589038
143	0x3e2351a9	0.1594912
144	0xbe3fabbf	-0.1871786
145	0xbd40ee7b	-0.047102433
146	0xbdb9411b	-0.09045621
147	0x3ca673e3	0.020318931
148	0xbd169b40	-0.03676915
149	0x3d9a4df5	0.075344004
150	0xbe18b507	-0.14912806
151	0xbcb71335	-0.022348026
152	0x3e3ebb07	0.18626033
153	0xbe52db57	-0.20591484
154	0xbd0e2d14	-0.03471096
155	0xbe285038	-0.16436851
156	0x3d2f8a57	0.04285654
157	0x3defbc29	0.117058106
158	0xbc633f64	-0.013870094
159	0x3e5d2bbb	0.21598713
160	0xbd4f62aa	-0.050631203
161	0xbe486edc	-0.1957354
162	0x3d352c9d	0.044232
163	0xbb5c2d12	-0.00335962
164	0xbaecd4cc	-0.001806879
165	0x3e884bb7	0.26620266
166	0x3e2ad85e	0.166841
167	0x3d816251	0.063175805
168	0xbd005fac	-0.03134124
169	0xbe071bdf	-0.13194226
170	0x3e0a7814	0.13522369
171	0x3cbebe3d	0.023284072
172	0xbdd22b5d	-0.10262177
173	0xbd8a347b	-0.06748291
174	0x3ca93daa	0.020659287
175	0xbb2f39c2	-0.0026737307
176	0x3d532662	0.051550277
177	0x3e0772e9	0.13227428
178	0x3de54f5d	0.11196778
179	0xbdc9cda2	-0.098536745
180	0x3d937943	0.07200863
181	0x3dba62bd	0.09100864
182	0xbd513dea	-0.051084436
183	0x3c96ed1b	0.018423608
184	0x3db8b007	0.090179496
185	0xbe06a228	-0.13147795
186	0xbd0314fc	-0.032002434
187	0xbdd46cee	-0.10372339
188	0x3cdaa281	0.026688816
189	0x3d028492	0.03186471
190	0x3d8f112a	0.06985696
191	0xbe1d7b8c	-0.1537916
192	0xbe7a611e	-0.2445111
193	0x3e2d31f5	0.16913588
194	0x3d42fbc6	0.04760339
195	0x3d978ebd	0.07400272
196	0x3dab0b1a	0.08351727
197	0x3e22513f	0.15851305
198	0xbdafb023	-0.08578517
199	0x3dfd57ad	0.123702385
200	0x3de14a66	0.110005185
201	0xbdd2838b	-0.10278996
202	0x3daa7a96	0.08324163
203	0x3da7d289	0.08194453
204	0xbd4747a3	-0.048652302
205	0x3d8ed006	0.06973271
206	0x3d658b43	0.056041013
207	0xbe0a070e	-0.13479254
208	0x3d50143e	0.050800554
209	0x3de40a8f	0.111348264
210	0xbc4b8979	-0.012422913
211	0x3b44b727	0.0030016394
212	0x3da57d04	0.080804855
213	0xbe0fe4ad	-0.14052077
214	0x3de7400d	0.112915136
215	0xbdbc6f42	-0.09200908
216	0x3e00bf0d	0.1257288
217	0xbe1d98f4	-0.15390378
218	0xbe461cd5	-0.19346936
219	0x3d712ebc	0.05888246
220	0xbd7ccb7c	-0.061717495
221	0xbe3d8393	-0.18507223
222	0xbd925f05	-0.0714703
223	0x3d3ff92f	0.0468685
224	0xbd579988	-0.052636653
225	0x3e36faea	0.17869154
226	0xbd4cc6df	-0.049994346
227	0xbdd168e1	-0.10225082
228	0x3e352f14	0.1769374
229	0x3e80f456	0.25186414
230	0xbe030be5	-0.12797506
231	0xbde118fa	-0.10991092
232	0xbac659d8	-0.0015132977
233	0xbe2a1f7a	-0.1661357
234	0xbccec17c	-0.025238745
235	0x3d076fcd	0.033065606
236	0xbe42358a	-0.18965736
237	0xbdfb5ea1	-0.122739084
238	0xbccc225f	-0.024918733
239	0x3b79c00b	0.0038108851
240	0x3e2b0ff5	0.16705306
241	0xbe3600cc	-0.17773741
242	0x3d6cb564	0.057790175
243	0x3da474a1	0.08030058
244	0xbe04a993	-0.12955312
245	0xbe376830	-0.17910838
246	0x3c7d9925	0.015478407
247	0x3dc24a51	0.09486831
248	0x3d702f6c	0.058638975
249	0x3e1c6f42	0.15276816
250	0x3e10a2b0	0.1412456
251	0x3c7a5a43	0.015280309
252	0xbe82a958	-0.25519824
253	0xbe284e88	-0.16436207
254	0xbe46bf2e	-0.19408867
255	0xbe4087db	-0.18801825

lstm.bias_ih_l0 f4 [128]
0	0xbe61af66	-0.22039565
1	0xbd929c06	-0.07158665
2	0x3dcb5878	0.099289834
3	0xbdf4c0ba	-0.11950822
4	0xbdb72675	-0.08942882
5	0x3e07fc75	0.13279898
6	0xbd250517	-0.040288057
7	0xbdc42d8f	-0.09579002
8	0x3da1f7b0	0.07908571
9	0x3d6af306	0.05736067
10	0x3c533ec1	0.01289338
11	0x3d9bb89b	0.0760357
12	0xbe16965f	-0.147058
13	0x3e03565e	0.12825915
14	0xbe9387ed	-0.2881464
15	0x3d3fbdd8	0.04681191
16	0xbce38962	-0.02777547
17	0xbca069cf	-0.019581703
18	0xbe363ade	-0.17795894
19	0x3dc0ebb7	0.09419959
20	0x3c23a1ba	0.009987289
21	0x3e373fc5	0.1789542
22	0xbe970770	-0.29497862
23	0xbe681691	-0.22664858
24	0x3d16ae80	0.03678751
25	0xbd44cd8a	-0.04804758
26	0xbe11b563	-0.1422935
27	0x3d256f47	0.040389325
28	0xbd7ed425	-0.062214036
29	0xbe254bc4	-0.16142184
30	0xbdab9751	-0.08378471
31	0xbde7e444	-0.11322835
32	0xbe27674a	-0.16347995
33	0x3d5c1073	0.053726625
34	0xbe00c3fb	-0.1257476
35	0x3dd6f618	0.104961574
36	0xbc4ec337	-0.012619785
37	0xbd016e63	-0.031599414
38	0x3d30c7b9	0.04315922
39	0xbe48d959	-0.19614162
40	0x3dda9bfe	0.106742844
41	0x3e16aa10	0.14713311
42	0xbe169ca7	-0.14708196
43	0xbc873118	-0.016502902
44	0xbd8d0596	-0.06885831
45	0xbd83cc52	-0.064354554
46	0xbe84b86c	-0.25921953
47	0x3de8ba9c	0.11363718
48	0xbcbd1e88	-0.023085847
49	0xbe3fddfd	-0.18737026
50	0x3cc30d8e	0.023810174
51	0xbdfc8b33	-0.12331238
52	0xbe14b032	-0.14520338
53	0x3d34fac3	0.044184458
54	0xbe37b580	-0.1794033
55	0xbdb7d177	-0.08975499
56	0xbdeb2a87	-0.11482721
57	0xbcbc1a70	-0.022961825
58	0xbc975892	-0.01847485
59	0x3d955b26	0.07292776
60	0x3c55ea14	0.013056297
61	0x3df0f6a8	0.11765796
62	0x3dd9402e	0.106079444
63	0xbe7a82c8	-0.24463952
64	0xbbeea38d	-0.0072826804
65	0xbde194ea	-0.11014731
66	0x3c1c1d5d	0.009528485
67	0x3e546632	0.2074211
68	0x3de1a1ec	0.11017212
69	0x3d0d5d08	0.03451255
70	0xbd4fd683	-0.050741684
71	0xbe57dd72	-0.21080568
72	0xbe677a32	-0.22605208
73	0xbce14784	-0.027499922
74	0x3d24d953	0.04024632
75	0xbe00ee9b	-0.12591021
76	0xbd533055	-0.051559765
77	0x3e5a043c	0.21290678
78	0xbdbf2aeb	-0.09334358
79	0xbde2d8de	-0.110765204
80	0x3e0c180f	0.13681053
81	0xbcd83b83	-0.026395565
82	0x3d4a6021	0.049408082
83	0x3dcde759	0.10053892
84	0x3e44626f	0.19178174
85	0x3e2dff24	0.1699186
86	0x3d9ca046	0.07647757
87	0xbd8c657b	-0.06855293
88	0x3d8f2bb8	0.069907606
89	0x3d6adeff	0.057341572
90	0x3e2f77d8	0.1713556
91	0x3bb282e2	0.0054477314
92	0x3d9dfbde	0.077140555
93	0xbdae35b9	-0.085063405
94	0x3d91854d	0.07105503
95	0x3c8213b9	0.015878545
96	0xbe85f032	-0.26159817
97	0xbe101a5a	-0.14072552
98	0x3d611d0e	0.05495935
99	0x3e0fdab3	0.14048271
100	0x3d612f10	0.054976523
101	0xbd27a21d	-0.040926088
102	0x3dcc6f8a	0.09982212
103	0xb9c65530	-0.00037828973
104	0x3e23fdfe	0.16014859
105	0xbd71d658	-0.059042305
106	0x3e0c2a62	0.13688043
107	0x3e113650	0.14180875
108	0xbe92835d	-0.28615847
109	0x3d4471d1	0.047960106
110	0xbd46a5ee	-0.048498087
111	0xbccd1e5c	-0.02503889
112	0x3c91ed42	0.017813329
113	0x3c8bea99	0.017079638
114	0x3b2cd4b1	0.002637189
115	0xbe4c9c15	-0.19981416
116	0x3d37ac15	0.044841845
117	0xbbd51ba9	-0.0065035415
118	0x3cd5d4d1	0.026102455
119	0x3dacabb0	0.08431184
120	0xbda842b7	-0.0821585
121	0x3df33f4e	0.11877309
122	0xbe4c1208	-0.19928753
123	0x3e281d92	0.1641753
124	0xbc1991c7	-0.009373135
125	0x3d3b6771	0.045752946
126	0x3dbce23c	0.09222838
127	0xbd9bbf02	-0.07604791

lstm.bias_hh_l0 f4 [128]
0	0x3bb427ff	0.005497932
1	0x3e00b3a6	0.1256853
2	0xbe043060	-0.12909079
3	0x3e28d7f2	0.16488627
4	0xbd53cf1a	-0.05171118
5	0x3e5bb087	0.21454059
6	0xbcf3d353	-0.029763853
7	0xbe730367	-0.23731767
8	0xbd5f490f	-0.054513033
9	0x3bebd4a3	0.007196979
10	0xbc9433a6	-0.018091034
11	0xbd0dcfba	-0.03462193
12	0xbe46f023	-0.19427542
13	0xbe0bb340	-0.13642597
14	0xbe57c60a	-0.2107164
15	0x3e16e61e	0.1473622
16	0xbc440387	-0.011963732
17	0x3d8b9dca	0.06817205
18	0x3de76816	0.1129915
19	0xbe261bbe	-0.1622152
20	0x3dce3cac	0.10070166
21	0x3da8d873	0.082444094
22	0xbe21640a	-0.15760818
23	0x3d4f1f34	0.050566867
24	0x3d30fa62	0.043207534
25	0x3dc631b5	0.096774496
26	0x3ddc6eae	0.10763298
27	0xbe0f8ead	-0.1401927
28	0xbdbad7a9	-0.09123165
29	0xbdbd1d48	-0.092341006
30	0x3e1c926b	0.15290229
31	0xbe3450b5	-0.17608912
32	0xbd4633e3	-0.048389327
33	0xbc85dea2	-0.016341511
34	0x3ce1a240	0.027543187
35	0x3d617958	0.055047363
36	0x3e3a25f8	0.18178546
37	0xbd8fe9af	-0.070269935
38	0xba3ad55a	-0.0007127129
39	0xbd8d7fb9	-0.06909127
40	0x3e514823	0.20437674
41	0xbe1d5e71	-0.15368058
42	0xbbaa0cbf	-0.0051895077
43	0x3dd5ae6b	0.10433658
44	0xbe5ecf43	-0.21758752
45	0x3e39e7ec	0.18154877
46	0xbe20b293	-0.1569312
47	0xbe2a6dd9	-0.16643466
48	0xbdd075ea	-0.1017874
49	0xbdd15ff5	-0.102233805
50	0x3d2877bc	0.041129813
51	0xbe1387da	-0.14407292
52	0xbdc01cba	-0.09380479
53	0xbe1211a5	-0.14264543
54	0xbe6d4790	-0.2317183
55	0x3c713a5f	0.014723389
56	0xbe5db1db	-0.21649878
57	0xbc86e80b	-0.016468069
58	0xbe2ecc31	-0.1707008
59	0xbe0b845b	-0.13624708
60	0x3c3f7303	0.011685136
61	0x3e1454e7	0.14485513
62	0x3e2f70a9	0.1713282
63	0xbe1c4ee4	-0.1526447
64	0xbc5cdc9c	-0.013480332
65	0xbe115eec	-0.14196366
66	0x3dd118bd	0.102097966
67	0x3e4b5f3c	0.19860548
68	0xbe6b928c	-0.23005122
69	0x3b36ba73	0.0027882128
70	0xbdda8fb6	-0.10671942
71	0x3dd709ab	0.10499891
72	0xbdc5d88e	-0.09660445
73	0x3dec6385	0.11542419
74	0x3debd1bd	0.11514614
75	0xbe17d706	-0.14828119
76	0x3cf38376	0.029725771
77	0x3d2e6061	0.042572383
78	0x3cd15452	0.025552902
79	0xbe0ff6c2	-0.14058974
80	0x3deb7ad4	0.11498037
81	0x3dae30ef	0.08505427
82	0x3c6874da	0.014188016
83	0xbdc4f3a4	-0.09616783
84	0xbc0e9907	-0.008703477
85	0x3cdcc96a	0.02695151
86	0x3dff34ce	0.124612436
87	0xbe0d8b39	-0.1382264
88	0xbda81753	-0.08207574
89	0xbdca9312	-0.09891333
90	0x3cdbad38	0.026815996
91	0xbe240dca	-0.16020885
92	0xbdb63d48	-0.08898407
93	0x3d2d2a5e	0.042276733
94	0x3e2a002e	0.16601631
95	0x3caaa61a	0.020831157
96	0x3cc36cee	0.023855653
97	0x3e33c5bc	0.17555898
98	0xbd88553b	-0.066568814
99	0x3d49a7f5	0.049232442
100	0x3de0c297	0.10974615
101	0x3d290112	0.041260786
102	0x3cc40939	0.023930179
103	0xbd70e382	-0.05881072
104	0x3cd40dbf	0.02588546
105	0x3bf8c2dc	0.0075915884
106	0x3d2b6529	0.04184452
107	0xbdd015e7	-0.101604275
108	0xbe333bff	-0.17503355
109	0xbe05d233	-0.13068466
110	0xbe86b1b1	-0.26307443
111	0xbe19c897	-0.15017925
112	0xbe499b97	-0.19688259
113	0x3e1303e9	0.1435696
114	0xbe479926	-0.19492015
115	0xbc3e674c	-0.011621308
116	0x3da53814	0.08067337
117	0xbe1b3e1b	-0.1516041
118	0x3d501824	0.050804272
119	0xbd8d74e7	-0.06907063
120	0xbe10d314	-0.1414302
121	0xbcb7a3f0	-0.022417039
122	0x3dc74808	0.09730536
123	0xbdd9aa46	-0.1062818
124	0xbb800856	-0.0039072437
125	0xbc863f3b	-0.016387573
126	0xbe09dfd3	-0.13464288
127	0xbc7e2976	-0.015512815

lstm.weight_ih_l1 f4 [128, 32]
0	0x3d7db1c0	0.061937094
1	0x3ddad35c	0.10684845
2	0x3dc3fd66	0.09569816
3	0xbdb7bfaa	-0.08972104
4	0x3a5581e4	0.00081446604
5	0xbd483b20	-0.04888451
6	0x3c8a0c2f	0.016851513
7	0xbe5642e6	-0.20923957
8	0x3dae3d57	0.085077934
9	0xbe246c66	-0.16056976
10	0xbcf19e7c	-0.029494517
11	0x3df3bf7c	0.11901757
12	0xbe4671f5	-0.19379409
13	0xbe64169c	-0.2227425
14	0xbe1669c8	-0.1468879
15	0x3da0ba23	0.07848003
16	0x3c1fbe85	0.009750013
17	0x3d0dec1a	0.034648992
18	0xbe083a6c	-0.13303536
19	0x3e20bc9a	0.15696946
20	0x3c9c7a94	0.019101419
21	0xbd48c5a8	-0.049016625
22	0x3e05d3dc	0.13069099
23	0xbd98baf8	-0.074575365
24	0xbdaa8b91	-0.083274014
25	0xbd4310f3	-0.047623586
26	0xbd7f03e4	-0.06225957
27	0x3d7aa101	0.0611887
28	0xbe43083a	-0.19046107
29	0x3c476006	0.01216889
30	0x3dac9c23	0.08428218
31	0xbe1e1294	-0.15436774
32	0xbdbb74ab	-0.09153112
33	0x3df83e33	0.121212386
34	0x3d2dfadd	0.04247557
35	0x3d3d53e9	0.0462226
36	0x3e09aad8	0.13444078
37	0xbe09df4c	-0.13464087
38	0x3e058087	0.1303731
39	0xbe203f97	-0.15649258
40	0x3e2cf650	0.16890836
41	0xbda5a65a	-0.0808837
42	0xbe2ba281	-0.16761209
43	0x3e455f48	0.19274628
44	0xbe4dfc21	-0.20115711
45	0xbcd60911	-0.02612737
46	0x3d10682b	0.035255592
47	0x3e57dbe7	0.2107998
48	0xbd969088	-0.07351786
49	0xbd1f6798	-0.038917154
50	0xbdf80932	-0.12111129
51	0x3d1f7900	0.038933754
52	0xbdda5870	-0.10661399
53	0x3deaf3cb	0.11472281
54	0xbe373e43	-0.17894845
55	0x3e42deb0	0.19030261
56	0xbde7c999	-0.113177486
57	0x3ccc19f7	0.024914725
58	0x3d871619	0.06596012
59	0x3b86a1e9	0.0041086567
60	0x3d52e341	0.051486257
61	0xbe42b5b8	-0.19014633
62	0xbe3b3303	-0.18281178
63	0x3def4b3e	0.11684273
64	0xbdc8610f	-0.097841375
65	0xbdce6fbd	-0.10079906
66	0x3d56d1c6	0.05244615
67	0x3dc32f8c	0.09530553
68	0x3d5c7e75	0.053831536
69	0x3e83a97c	0.25715244
70	0x3e136ad5	0.14396222
71	0x3e13ead0	0.14445043
72	0x3e0caf9f	0.13738869
73	0xbbe2023a	-0.006897238
74	0xbcb8388b	-0.0224879
75	0xbd37d2bf	-0.044878718
76	0xbe7e338b	-0.2482435
77	0xbe214eb3	-0.15752678
78	0xbdfd8650	-0.12379134
79	0x3d4d518c	0.050126597
80	0xbe53828b	-0.20655267
81	0x3dad7fb1	0.08471621
82	0x3d7c6e09	0.061628375
83	0x3e0ed869	0.13949741
84	0xbde52a0d	-0.11189661
85	0xbbd99b38	-0.006640818
86	0x3d899978	0.06718725
87	0xbe02e789	-0.12783636
88	0x3cca94d1	0.024729164
89	0xbdd0e65b	-0.10200187
90	0xbd053ba3	-0.032527577
91	0xbd75731a	-0.059924223
92	0xbb3e63fa	-0.002905129
93	0xbe824d62	-0.25449663
94	0xbd9fa25f	-0.07794642
95	0x3cfd1cb6	0.03089748
96	0xbe1965c9	-0.14980234
97	0x3cc408d2	0.023929987
98	0x3e145e53	0.14489107
99	0x3e4020b9	0.18762483
100	0xbcc94a2e	-0.024571504
101	0xbe9712f9	-0.29506662
102	0x3da085db	0.07838031
103	0xbbdb65b3	-0.006695473
104	0xbde1343f	-0.10996293
105	0x3ddc92f5	0.10770217
106	0x3ce3fc53	0.027830279
107	0xbe0cf6ac	-0.13765973
108	0xbdfcf900	-0.123521805
109	0x3df34aee	0.11879526
110	0x3b9f455c	0.004860563
111	0xb8828280	-6.2231906e-05
112	0xbd8c627d	-0.06854723
113	0x3e3c22aa	0.18372598
114	0xbd95fd9b	-0.07323762
115	0x3c059bf4	0.008154858
116	0x3d387892	0.04503686
117	0x3c153256	0.009106239
118	0x3e20579c	0.1565842
119	0x3d29a89e	0.04142057
120	0x3c526ce4	0.012843344
121	0xbd31c9af	-0.04340523
122	0xbe7d0ee6	-0.24712715
123	0xbe084472	-0.1330736
124	0x3e0a0543	0.1347857
125	0xbbd56d28	-0.0065132566
126	0x3c4c609b	0.012474204
127	0xbd980bb4	-0.07424107
128	0xbd0730b4	-0.03300543
129	0xbe1a7fbf	-0.15087794
130	0x3e351094	0.17682105
131	0x3e3bcc0c	0.18339556
132	0xbe8cc8f9	-0.2749708
133	0xbe6915fe	-0.22762296
134	0x3d80ee79	0.06295485
135	0x3cfbe702	0.030749802
136	0xbde684f0	-0.112558246
137	0x3e50a53d	0.20375533
138	0x3e0c135c	0.1367926
139	0xbda8e9b6	-0.08247702
140	0x3dadbe06	0.0848351
141	0x3d8c8b09	0.06862456
142	0xbd9bf34d	-0.07614765
143	0x3d5fa66c	0.05460207
144	0xbdafb37a	-0.08579154
145	0x3cd78e21	0.02631289
146	0x3e6c0f49	0.23052706
147	0x3d414b1e	0.047190778
148	0x3e5916e5	0.2120014
149	0x3e2d6ed0	0.16936803
150	0x3e046e62	0.12932733
151	0x3c93613d	0.017990703
152	0x3da890e4	0.08230761
153	0xbe2c694a	-0.1683704
154	0xbe06bdf3	-0.13158397
155	0x3dcc9361	0.09989048
156	0x3d8e5aac	0.06950888
157	0x3e7682e5	0.2407337
158	0x3ddf709e	0.10910152
159	0x3d02c461	0.031925563
160	0x3e27a91a	0.16373101
161	0x3d94c666	0.07264404
162	0x3e27dbf0	0.16392493
163	0xbe48520a	-0.19562545
164	0x3df0ccdf	0.11757826
165	0x3e72cea5	0.23711641
166	0xbd0d175f	-0.034446117
167	0xbe339b3a	-0.17539683
168	0x3e1e5e08	0.15465558
169	0xbd203270	-0.0391106
170	0xbd6d96d0	-0.058005154
171	0xbbe7f8fd	-0.0070792423
172	0xbd383422	-0.044971593
173	0x3b79726c	0.0038062586
174	0x3d5c3a32	0.053766437
175	0xbe48bf98	-0.19604337
176	0xbe03d42f	-0.1287391
177	0xbdef34c5	-0.11679987
178	0xbe47b7c0	-0.19503689
179	0xbdcb7a81	-0.09935475
180	0xbde80f58	-0.113310516
181	0x3d2531a9	0.040330563
182	0xbcdff3ae	-0.027337875
183	0xbe4bb1ad	-0.19891997
184	0xbd827ae2	-0.06371094
185	0x3dfbcfdd	0.12295506
186	0x3deecfb8	0.11660713
187	0x3d9b0040	0.07568407
188	0xbd7a4d41	-0.06110883
189	0x3dca0119	0.098634906
190	0xbe598ef6	-0.21245942
191	0xbd7a83d1	-0.061160866
192	0xbe15f51f	-0.14644288
193	0x3c69c1de	0.014267413
194	0x3e05a6fe	0.13051984
195	0x3d850f9a	0.064971164
196	0x3e7ed1f9	0.24884786
197	0x3e17fa94	0.14841682
198	0xbdf5c45a	-0.12000342
199	0xbe20e431	-0.15712048
200	0x3e051e3d	0.12999816
201	0x3d8fcc61	0.07021404
202	0xbdc65dea	-0.096858814
203	0x3e1d797b	0.15378372
204	0xbe3464f7	-0.1761664
205	0x3dea61c4	0.114444286
206	0x3e123761	0.14278938
207	0x3dcd4d8e	0.10024558
208	0x3db95298	0.09048957
209	0xbe2db61e	-0.16964003
210	0xbe485dd7	-0.19567047
211	0xbd9ea320	-0.077459574
212	0xbe42a4fa	-0.19008246
213	0xbe33b9c5	-0.17551334
214	0x3e32d23c	0.1746301
215	0xbdcdca9f	-0.100484125
216	0xbdacdfd5	-0.0844113
217	0x3e069262	0.13141778
218	0xbe1c02b1	-0.15235402
219	0xbdc54b1d	-0.09633467
220	0xb93b8c5d	-0.00017885999
221	0xbe23aee5	-0.15984686
222	0xbe5f2b0b	-0.21793763
223	0x3ce0ae0e	0.027426746
224	0xbe032fe5	-0.12811239
225	0xbe4cd977	-0.20004831
226	0x3e2cb762	0.1686683
227	0xbcba5695	-0.022746364
228	0xbdf44252	-0.11926712
229	0xbc43bd10	-0.0119469315
230	0x3ddc61ce	0.10760842
231	0x3dbbf84c	0.09178218
232	0x3c08a919	0.008341097
233	0xbbd4e4f0	-0.006497018
234	0xbc1cc74b	-0.0095689995
235	0xbe388407	-0.18019114
236	0x3dfb027f	0.122563355
237	0x3cee036a	0.029054362
238	0x3e377d8a	0.17918983
239	0x3c8ede7d	0.017440075
240	0x3e0af7e6	0.13571128
241	0x3dadc70e	0.08485232
242	0xbd6f5a87	-0.058435943
243	0x3d35e364	0.04440631
244	0x3df7a39d	0.12091754
245	0xb8308fe8	-4.2095693e-05
246	0xbc89c04f	-0.016815333
247	0x3da4575d	0.08024476
248	0x3bc39f52	0.00596992
249	0xbdb37a03	-0.08763506
250	0xbdddca33	-0.10829582
251	0x3e020763	0.1269813
252	0x3e32906f	0.1743791
253	0x3dc7fcba	0.09765001
254	0x3d2522aa	0.04031626
255	0x3e37b3ce	0.17939684

lstm.weight_hh_l1 f4 [128, 32]
0	0xbe3bd28c	-0.18342036
1	0x3d8831b3	0.066501044
2	0x3d1cf5dd	0.03832041
3	0xbc38e845	-0.011285846
4	0x3cafc069	0.021454053
5	0xbe5c0cd2	-0.21489266
6	0xbdace1b1	-0.08441485
7	0xbce9b94e	-0.028530743
8	0xbe3a8db6	-0.18218121
9	0x3c1d2778	0.00959193
10	0xbe4a2bec	-0.19743317
11	0x3cc0e1ae	0.023545112
12	0xbce95d0f	-0.028486757
13	0xbdb29d17	-0.08721369
14	0x3da6127e	0.08108996
15	0xbdafda8b	-0.08586606
16	0x3ac5df23	0.0015096407
17	0xbdf03a83	-0.1172991
18	0xbe4c411a	-0.1994671
19	0x3d8a954e	0.06766759
20	0x3e8b1aab	0.27168784
21	0xbe020693	-0.1269782
22	0x3e2f11aa	0.17096582
23	0xbddae7f2	-0.10688771
24	0x3d53531f	0.051592942
25	0x3d809ddc	0.06280109
26	0xbdd31a46	-0.10307746
27	0x3e332093	0.17492895
28	0x3bb426ac	0.005497774
29	0xbe21fc45	-0.1581889
30	0x3d1f04bb	0.03882287
31	0x3ddfb154	0.109224945
32	0xbd824880	-0.063614845
33	0x3e469584	0.19392973
34	0x3d9f43cb	0.07776602
35	0xbe3df290	-0.18549562
36	0xbd942fad	-0.07235656
37	0x3d5e3560	0.05425012
38	0xbd63541d	-0.05550014
39	0x3dad70a3	0.084687494
40	0x3a7a6905	0.00095523923
41	0x3e15f1e8	0.14643061
42	0xbd8a28b9	-0.067460485
43	0x3d4395d4	0.04775031
44	0x3e24ee15	0.16106446
45	0xbdb3fd34	-0.08788529
46	0xbccaa7a8	-0.024738148
47	0x3ca4c353	0.02011267
48	0x3e092b84	0.13395506
49	0xbc79dbd9	-0.01525017
50	0xbdb722dd	-0.089421965
51	0xbd67c380	-0.056582928
52	0xbcce80ab	-0.025207838
53	0xbd49777f	-0.049186226
54	0xbdac9c6e	-0.08428274
55	0x3d691ca5	0.056912083
56	0x3e68e881	0.22744943
57	0xbe33fe25	-0.17577417
58	0x3c91756f	0.017756192
59	0x3c8a1776	0.01685689
60	0xbddd4dcc	-0.10805854
61	0x3dc09196	0.09402768
62	0xbd447b45	-0.04796912
63	0x3e6ed032	0.23321608
64	0x3db5e4db	0.08881541
65	0xbb80b4b4	-0.0039277915
66	0x3d2b5f1c	0.04183875
67	0xbd04af9e	-0.032394044
68	0xbd727718	-0.059195608
69	0xbdb0ffd5	-0.08642546
70	0xbe261545	-0.16219051
71	0xbe42a774	-0.19009191
72	0x3d9181c9	0.07104833
73	0x3c914633	0.017733669
74	0xbe0835c8	-0.13301766
75	0xbd61bb7b	-0.055110436
76	0x3de0ecdb	0.109826766
77	0x3b8ab3b3	0.0042328476
78	0xbd4b9bd9	-0.049709175
79	0x3e23d692	0.15999821
80	0xbdaad481	-0.08341313
81	0xbd68bcfe	-0.056820862
82	0x3c19e01b	0.00939181
83	0x3df65145	0.1202722
84	0x3cbbc649	0.022921698
85	0xbc293541	-0.010327638
86	0x3e130d37	0.1436051
87	0xbcfcf67a	-0.030879248
88	0x3ded1ac6	0.11577372
89	0x3d5c9349	0.0538514
90	0x3dffd809	0.12492377
91	0x3e4215bf	0.18953608
92	0xbcc543c1	-0.02408016
93	0xbd3b9624	-0.045797482
94	0x3e42b856	0.19015631
95	0xbc11bce9	-0.008895137
96	0x3b7030e7	0.0036650242
97	0xbdf4af72	-0.11947526
98	0x3e17f1cb	0.1483833
99	0x3c84a2b6	0.016190868
100	0x3d79d3e1	0.06099308
101	0xbd3f83dd	-0.046756614
102	0x3d8c7b73	0.068594836
103	0xbc8f7ee6	-0.017516565
104	0x3d50519d	0.050859082
105	0xbcfb92fc	-0.030709736
106	0x3e1c0a31	0.15238263
107	0xbe1a93ed	-0.15095492
108	0xbdc6d7c0	-0.0970912
109	0x3d6d3392	0.05791051
110	0x3da520e0	0.08062911
111	0x3d5b69f6	0.05356785
112	0x3c10d34a	0.008839438
113	0x3e01fde9	0.12694515
114	0xbde52b90	-0.111899495
115	0x3cb88b51	0.022527369
116	0xbe43a54c	-0.19106025
117	0xbc2b528d	-0.010456693
118	0xbe019bff	-0.12657164
119	0xbdf5e410	-0.1200639
120	0xbd1e32b9	-0.03862259
121	0xbd839e08	-0.064266264
122	0x3e59d3c7	0.21272193
123	0x3e109b40	0.14121723
124	0x3df695e7	0.1204031
125	0xbe0e6048	-0.13903916
126	0xbe516b77	-0.20451151
127	0x3caeb9ed	0.02132889
128	0x3dcecf8b	0.100981794
129	0x3e2cd81b	0.16879313
130	0x3e240045	0.16015728
131	0x3bdb385c	0.006690068
132	0xbd7f403a	-0.06231711
133	0x3dfb2bd3	0.12264218
134	0xbe2ab057	-0.16668831
135	0x3dc40301	0.095708854
136	0xbdadd3a9	-0.084876366
137	0xbd833c27	-0.064079575
138	0x3e044502	0.1291695
139	0xbd61f964	-0.055169478
140	0xbe2859e1	-0.16440536
141	0xbdd73bd9	-0.10509462
142	0xbe2b7b6d	-0.16746302
143	0xbe0a4310	-0.13502145
144	0xbc3db4e4	-0.011578772
145	0xbdce65f0	-0.10078037
146	0x3e5601ef	0.20899175
147	0xbda4c7c8	-0.08045918
148	0xbdefb37b	-0.11704155
149	0xbb9efef3	-0.0048521697
150	0xbd924e07	-0.07143789
151	0x3c3283a5	0.010895644
152	0xbcaaa917	-0.020832581
153	0x3dd9beb5	0.106320776
154	0x3d9fe654	0.078076035
155	0x3dcbc13a	0.099489644
156	0x3c9c3581	0.019068481
157	0x3d582603	0.052770626
158	0xbe46c504	-0.19411093
159	0xbdf0a9eb	-0.11751159
160	0xbd4cdd61	-0.05001581
161	0x3d24bda6	0.040219925
162	0xbdeec9a6	-0.11659555
163	0x3de55582	0.1119795
164	0x3db8b7f4	0.09019461
165	0x3da8fbcc	0.082511514
166	0xbd723c85	-0.059139747
167	0xbc4045c9	-0.011735388
168	0xbe075a06	-0.13217935
169	0x3e4b37bf	0.19845484
170	0xbdccc6d7	-0.09998863
171	0xbd3d5048	-0.04621914
172	0xbe16ccb5	-0.14726527
173	0xbd2b803c	-0.04187034
174	0x3dca0f3b	0.09866186
175	0x3cf5963b	0.029978862
176	0x3ca34134	0.019928552
177	0x3ccd8669	0.025088506
178	0xbe00ae77	-0.12566553
179	0x3df4a67a	0.119458154
180	0x3df0fb9a	0.11766739
181	0x3db12c71	0.08651055
182	0x3dd066cf	0.10175859
183	0xbd53ad92	-0.0516792
184	0x3d736d8c	0.059430644
185	0xbdf6ca3b	-0.12050291
186	0x3ddd191d	0.107958056
187	0x3dd97db1	0.10619677
188	0xbded5b2d	-0.11589656
189	0xbd8e0a0f	-0.06935512
190	0x3df62e5a	0.120205596
191	0xbe139254	-0.14411288
192	0xbe16fc8c	-0.14744776
193	0x3e1d3d02	0.15355304
194	0x3e2cc3a0	0.168715
195	0xbdeb4c56	-0.11489169
196	0x3d36fe37	0.044676032
197	0x3e0d14e8	0.13777506
198	0x3db8adca	0.09017523
199	0xbe00bfd4	-0.12573177
200	0x3e0fd992	0.1404784
201	0xbd55d003	-0.05220033
202	0xbe141a0c	-0.14463061
203	0x3e4d3db6	0.20043072
204	0xbdd137cc	-0.102157205
205	0xbc6896ba	-0.014196092
206	0xbd391f01	-0.045195583
207	0x3cea7cbd	0.028623933
208	0x3d1c77a6	0.038200043
209	0xbd52057e	-0.05127477
210	0xbdc04a4b	-0.0938917
211	0x3e216975	0.15762885
212	0xbddb36b3	-0.107037924
213	0xbe359150	-0.17731214
214	0x3d3ec46d	0.046574045
215	0xbc633d38	-0.013869576
216	0x3e12da74	0.14341146
217	0x3bd9ecc4	0.006650539
218	0x3d87a624	0.06623486
219	0xbdb84be3	-0.08998849
220	0x3d64b813	0.05583961
221	0x3d975754	0.073897034
222	0xbd3650b5	-0.044510562
223	0xbd7a8758	-0.06116423
224	0xbda05aef	-0.07829844
225	0x3e0bdf88	0.13659489
226	0xbd24ec10	-0.04026419
227	0x3ddb1178	0.10696691
228	0x3e38c621	0.1804433
229	0x3dd0d4ff	0.10196876
230	0x3dbd7024	0.09249905
231	0xbc6d08eb	-0.014467458
232	0x3e3e310d	0.18573399
233	0xbd6ea48c	-0.058262393
234	0x3e1117bf	0.14169215
235	0xbe249163	-0.16071086
236	0xbdd72ec6	-0.10506968
237	0xbd94493b	-0.0724053
238	0xbe3c8bdd	-0.18412729
239	0xbcb348b2	-0.02188525
240	0xbddb2c91	-0.1070186
241	0xbd89f365	-0.06735877
242	0x3d28d833	0.04122181
243	0x3d61b1c1	0.05510116
244	0x3d57f97f	0.052728172
245	0x3dfa54a4	0.12223175
246	0x3d0adf02	0.033904083
247	0xbdd8f27b	-0.105931245
248	0xbd9a8d97	-0.07546537
249	0xbcd8da7b	-0.026471367
250	0xbd050fae	-0.032485656
251	0x3e1c01f0	0.15235114
252	0xbd1eb2d7	-0.038744774
253	0x3bb60b83	0.0055555715
254	0xbdb6f589	-0.08933551
255	0xbcc2b31c	-0.023767047

lstm.bias_ih_l1 f4 [128]
0	0xbe71691e	-0.23575255
1	0xbdb9792a	-0.09056313
2	0xbe715b52	-0.23569992
3	0xbd88be3b	-0.066769086
4	0x3dda867e	0.106701836
5	0xbe7c5801	-0.24642946
6	0xbe85e090	-0.2614789
7	0x3e0e5759	0.13900508
8	0xbd740e63	-0.059584033
9	0x3e5b5371	0.21418549
10	0xbd2145c6	-0.03937318
11	0x3e7da307	0.24769221
12	0x3d96a9a0	0.07356572
13	0x3dae1d49	0.085016795
14	0x3e3d5733	0.18490295
15	0xbe025229	-0.12726654
16	0x3d92ce63	0.071682714
17	0xbe20b13d	-0.15692611
18	0x3ca5de4e	0.020247605
19	0x3e106064	0.1409927
20	0xbb586ab9	-0.0033022596
21	0x3cd9b988	0.026577726
22	0xbe4a5174	-0.19757634
23	0xbdb739cd	-0.089465715
24	0xbdc0c264	-0.09412077
25	0x3df7177c	0.12065026
26	0x3d8a10bb	0.06741472
27	0x3d30d72a	0.043173946
28	0xbe06521f	-0.13117264
29	0xbdd747d3	-0.10511746
30	0x3e3a6c9a	0.1820549
31	0xbd9f1599	-0.07767791
32	0xbd101a61	-0.035181407
33	0xbcc5a081	-0.024124386
34	0x3d5854f1	0.05281538
35	0x3dc0a1fb	0.09405895
36	0xbdd89cb2	-0.10576762
37	0x3daa5c89	0.08318431
38	0xbe6e5d52	-0.23277786
39	0x3ddb9a4d	0.1072279
40	0xbe51495d	-0.20438142
41	0x3e1083f5	0.14112838
42	0x3bd18c2a	0.0063948827
43	0xbd381eb0	-0.04495114
44	0xbe64a72c	-0.22329396
45	0xbdf69fdb	-0.12042209
46	0x3db856d1	0.09000934
47	0xbd1f1d1f	-0.03884613
48	0xbda79fd4	-0.08184782
49	0xbe1d7152	-0.1537526
50	0xbe10c416	-0.14137301
51	0xbe06ba42	-0.13156989
52	0xbcd95f43	-0.026534682
53	0xbe133b30	-0.14378047
54	0xbe2a3794	-0.16622764
55	0xbc9fba71	-0.019498082
56	0x3cb23987	0.021755947
57	0x3e13b057	0.14422737
58	0xbc9cc3cf	-0.019136338
59	0xbd8c85d0	-0.0686146
60	0xbd94b2bb	-0.07260653
61	0x3c803fbe	0.015655395
62	0x3e38ead0	0.18058324
63	0x3defa0cf	0.11700594
64	0x3d97a998	0.07405394
65	0xbdd99f69	-0.10626108
66	0x3ded5939	0.115892835
67	0x3e884723	0.26616773
68	0x3e1c3a10	0.15256524
69	0x3b9084af	0.0044103484
70	0xbe13eb72	-0.14445284
71	0x3e3168ad	0.17325087
72	0xbe01fb7b	-0.12693588
73	0xbe40ee4f	-0.18840908
74	0x3df7bec0	0.120969296
75	0xbe8a27dd	-0.26983538
76	0xbc85809a	-0.016296674
77	0xbe16110a	-0.14654937
78	0xbe76d30f	-0.2410395
79	0xbdb62332	-0.08893432
80	0xbcf1c71c	-0.029513888
81	0x3db55b9e	0.08855365
82	0x3df5f9f9	0.12010569
83	0xbe890125	-0.26758686
84	0xbc6e6925	-0.014551436
85	0xbc262b3f	-0.010142147
86	0x3d4df02b	0.05027787
87	0xbd312000	-0.04324341
88	0xbe7770ab	-0.24164073
89	0x3e8227c7	0.25420973
90	0x3d6b8ca2	0.057507165
91	0xbe5b32e1	-0.21406128
92	0x3d830dd1	0.0639912
93	0x3e85c0c7	0.2612364
94	0xbdfccb83	-0.12343504
95	0xbd7ad77c	-0.06124066
96	0xbde672b1	-0.112523444
97	0x3d33b226	0.043871067
98	0xbd7bdfc3	-0.061492693
99	0xbe0397f1	-0.1285093
100	0x3e62fccf	0.22166751
101	0xbd97a8bf	-0.07405233
102	0xbe0964fd	-0.1341743
103	0x3e12fae2	0.14353517
104	0x3dc6235d	0.09674714
105	0xbd9e240d	-0.0772172
106	0x3df9db20	0.12199998
107	0x3dfb2997	0.12263792
108	0xbcf7a51c	-0.030230097
109	0x3cfa2e24	0.03053958
110	0x3d668593	0.05627973
111	0x3d289b6e	0.041163854
112	0xbd56ff01	-0.052489284
113	0xbe0c850a	-0.13722625
114	0x3d594e53	0.05305321
115	0xbd34f53f	-0.044179197
116	0xbcd372d2	-0.025811587
117	0x3d31c671	0.04340214
118	0xbe3c97b0	-0.18417239
119	0xbccaf523	-0.024775093
120	0x3d88a5f0	0.06672275
121	0xbe00141c	-0.12507671
122	0x3c18af29	0.009319105
123	0x3e4cd599	0.20003356
124	0xbe2e2227	-0.17005216
125	0x3c8ae871	0.01695654
126	0xbdc79904	-0.09745982
127	0x3da203b5	0.07910863

lstm.bias_hh_l1 f4 [128]
0	0x3c291e6c	0.010322195
1	0xbc678fff	-0.014133452
2	0xbd131db4	-0.035917
3	0x3e3f9c9b	0.18712084
4	0x3e6037d7	0.21896301
5	0xbde78ec6	-0.11306529
6	0xbe29a8fe	-0.16568372
7	0x3dbbf4f7	0.09177583
8	0x3d8d3752	0.06895317
9	0x3e059af5	0.13047393
10	0x3bffa03f	0.0078010852
11	0xbb70240f	-0.0036642586
12	0xbe029808	-0.12753308
13	0xbe030066	-0.1279312
14	0x3e4be9b3	0.19913368
15	0x3e364c50	0.17802548
16	0xbc00d333	-0.007862854
17	0xbb261ccc	-0.0025346754
18	0xbd284155	-0.04107793
19	0x3d9c3310	0.07626927
20	0x3cab6abf	0.020924924
21	0xbe0ab604	-0.13545996
22	0xbe1d24cd	-0.1534607
23	0xbe95928e	-0.29213375
24	0xbd5b7e3c	-0.053587183
25	0x3d35cd6e	0.044385366
26	0x3d5f36b1	0.054495517
27	0x3e004d39	0.12529458
28	0x3e09e94f	0.13467906
29	0x3e137299	0.14399184
30	0x3e29b05b	0.1657118
31	0xbe09fe00	-0.134758
32	0xbd8505be	-0.06495236
33	0xbe4ec8b2	-0.20193747
34	0xbe3c5286	-0.18390855
35	0x3e5a934b	0.2134525
36	0xbceb8681	-0.02875066
37	0xbdbbfbf5	-0.09178916
38	0x3cc93599	0.02456169
39	0x3e51892b	0.20462482
40	0x3db31063	0.0874336
41	0x3df5afbb	0.119964086
42	0xbd8fc834	-0.070206076
43	0x3e0ee0d6	0.13952956
44	0x3d496a69	0.049173746
45	0xbe014f6b	-0.12627952
46	0x3cf4adbe	0.029868003
47	0xbda5f80d	-0.081039526
48	0xbdafd13c	-0.0858483
49	0xbe82e302	-0.25563818
50	0x3d41d749	0.047324453
51	0x3d82b639	0.063824125
52	0x3e11ccf9	0.14238347
53	0xbe037fc5	-0.12841709
54	0xbd615884	-0.055016056
55	0xbe6d59d0	-0.23178792
56	0xbc8ac9e3	-0.01694197
57	0xbde99592	-0.114054814
58	0xbe7cb9f2	-0.24680308
59	0x3e0c6074	0.13708669
60	0xbdd96a6e	-0.10616003
61	0x3e34bdac	0.17650479
62	0x3cb9a5e4	0.02266211
63	0xbe4412ef	-0.19147848
64	0x3d8c37ba	0.068465665
65	0x3c25c2c3	0.010117236
66	0x3da2b11d	0.07943938
67	0x3d096621	0.033544663
68	0x3e284f44	0.16436487
69	0x3c42e9e5	0.011896585
70	0x3cfeb536	0.031092267
71	0xbc23a795	-0.009988685
72	0x3d95ac57	0.07308262
73	0xbe4882a1	-0.19581081
74	0x3e0539e5	0.13010366
75	0xbdf92ef8	-0.12167162
76	0xbe0b8489	-0.13624777
77	0xbe54d086	-0.2078267
78	0xbe049565	-0.12947614
79	0xbe2b893c	-0.1675157
80	0xbe1a8bfc	-0.15092462
81	0xbe314d5a	-0.17314664
82	0x3c829990	0.015942365
83	0x3ce2a70e	0.027667549
84	0xbe49bc8c	-0.19700831
85	0x3da8e481	0.08246709
86	0xbdb08c67	-0.086205296
87	0x3ce5c33a	0.028047193
88	0xb8deb4f8	-0.00010619493
89	0x3d969314	0.07352272
90	0x3cae9150	0.021309525
91	0xbde15204	-0.11001971
92	0x3e3a05cd	0.18166275
93	0x3e6e3bf9	0.23265065
94	0xbe749b4a	-0.23887363
95	0xbd79a6e0	-0.06095016
96	0xbc6a5d7a	-0.014304513
97	0x3c5765ae	0.013146801
98	0xbe7c276d	-0.24624415
99	0x3dabbc10	0.083854795
100	0x3e096cd9	0.13420428
101	0xbd6d63a6	-0.05795636
102	0xbe7f3a54	-0.24924594
103	0xbc91d4c0	-0.017801642
104	0x3c09a1da	0.008400405
105	0x3bc82956	0.0061084433
106	0xbdf36272	-0.11884011
107	0x3d026c3b	0.031841498
108	0xbdfdc694	-0.123913914
109	0xbd5bb7ed	-0.053642202
110	0x3c4a5ccd	0.012351227
111	0x3d8d7be3	0.06908395
112	0xbdd8aa08	-0.10579306
113	0xbe2edd03	-0.17076497
114	0xbc316a3f	-0.010828554
115	0xbe17f4c0	-0.14839458
116	0xbe08f851	-0.13375975
117	0xbe5078b9	-0.20358552
118	0xbe4416a6	-0.19149265
119	0xbe846bb0	-0.2586341
120	0xbc7c7049	-0.01540763
121	0x3d93087a	0.07179351
122	0xbe08ae91	-0.13347842
123	0xbc598740	-0.013276875
124	0xbc8e93ca	-0.017404456
125	0x3e235401	0.15950014
126	0x3e20085f	0.15628193
127	0xbd864541	-0.06556178

fc.weight f4 [1, 32]
0	0x3d849e86	0.064755484
1	0x3d8ed605	0.06974415
2	0xbdaa1c7b	-0.083062135
3	0xbe1fafc9	-0.155944
4	0xbe157a8e	-0.14597532
5	0x3ca94901	0.020664694
6	0xbcea098e	-0.02856901
7	0xbe3e3752	-0.1857579
8	0x3d83b20a	0.06430443
9	0x3e1cb072	0.15301684
10	0xbe4ccf67	-0.20000993
11	0x3e12a32d	0.14320059
12	0x3dacb62f	0.08433186
13	0x3e59abca	0.21256939
14	0x3e4069d2	0.18790367
15	0x3da23606	0.079204604
16	0x3d8ca249	0.06866891
17	0x3d254b94	0.04035528
18	0xbdf834db	-0.121194564
19	0x3e38d9dd	0.18051858
20	0x3e11496e	0.14188167
21	0x3d3f4d8d	0.046704818
22	0x3d8aac3f	0.067711346
23	0x3d16147d	0.036640633
24	0x3dcd3fcc	0.10021934
25	0xbe61c0dd	-0.22046228
26	0x3d390fd8	0.045181125
27	0x3d9d968f	0.076947324
28	0xbd4701dd	-0.04858576
29	0xbe67dff4	-0.22644025
30	0x3d8b7d27	0.0681098
31	0x3d97d01d	0.07412741
