backend/stocks/price/pt_models/ZVO.pt (torch, 54423 bytes, 9 tensors)

lstm.weight_ih_l0 f4 [128, 1]
0	0xbe969d4e	-0.2941689
1	0x3d2b723c	0.04185699
2	0x3e7ed1fb	0.24884789
3	0x3c586220	0.013206989
4	0x3d043be5	0.032283682
5	0xbe4700a4	-0.19433838
6	0x3e237f91	0.15966631
7	0xbc4a23f8	-0.012337677
8	0x3cbb0d54	0.022833504
9	0x3e3f143f	0.18660067
10	0xbbe96344	-0.007122429
11	0x3d4080e7	0.04699793
12	0x3da5c4ae	0.08094154
13	0x3e9a4e5c	0.30137908
14	0xbe1e9e63	-0.15490107
15	0x3ddb4a46	0.10707526
16	0xbe5f8e85	-0.2183171
17	0xbab3f885	-0.0013730681
18	0x3cb2035e	0.021730121
19	0xbd5f4c98	-0.054516405
20	0xbde072ab	-0.10959371
21	0x3e47527e	0.19465062
22	0xbd815e71	-0.063168414
23	0x3e6a3256	0.22870764
24	0xbe32d7b9	-0.17465104
25	0x3e49616f	0.19666074
26	0x3de7025d	0.11279748
27	0x3e785fbd	0.24255271
28	0xbddf94e8	-0.109170735
29	0xbe30d51c	-0.17268795
30	0x3e79c4cc	0.24391478
31	0xbe1c86db	-0.15285818
32	0xbe6732ee	-0.22578022
33	0x3e99f694	0.30070937
34	0x3e67b761	0.22628547
35	0x3d0252c0	0.031817198
36	0x3a98dd0c	0.0011662557
37	0xbe8562f7	-0.26052067
38	0x3e810af1	0.2520366
39	0x3d05f2fa	0.032702424
40	0xbd20bccf	-0.039242562
41	0x3ea093d8	0.31362796
42	0xbe1f623f	-0.15564822
43	0x3dc9e5ca	0.09858282
44	0x3d728668	0.05921021
45	0x3e8633a7	0.26211283
46	0x3e013a5f	0.12619923
47	0x3e947e8f	0.29002807
48	0x3d5d0d35	0.053967673
49	0x3d3e54cf	0.0464676
50	0x3b1f4ca6	0.002430716
51	0x3e2b85f0	0.16750312
52	0xbe09308a	-0.13397422
53	0x3e2e501e	0.1702275
54	0x3dcf7f69	0.101317234
55	0x3e88dd59	0.26731375
56	0xbdfc1de6	-0.1231039
57	0x3e9b6cc7	0.30356428
58	0x3e83b820	0.25726414
59	0xbd5797f9	-0.052635167
60	0x3c6242b7	0.013809851
61	0xbe11f475	-0.14253409
62	0x3da1f020	0.07907128
63	0xbe1f9b7b	-0.15586655
64	0x3eb4fdf9	0.35350016
65	0xbe4d4457	-0.20045601
66	0x3e6e8f04	0.23296744
67	0x3e0e0901	0.13870622
68	0xbe621e40	-0.22081852
69	0xbdccdae9	-0.10002691
70	0xbe97c4cf	-0.2964234
71	0xbe26cf64	-0.1629005
72	0xbe3b091d	-0.18265195
73	0xbe7578d6	-0.23971877
74	0xbe7970af	-0.24359392
75	0xbe39f390	-0.18159318
76	0xbdddb05f	-0.10824656
77	0xbe5d9261	-0.2163787
78	0xbe8cae3f	-0.2747669
79	0xbe6a890d	-0.22903843
80	0x3ea0efa0	0.3143282
81	0xbe805545	-0.25065055
82	0x3e136880	0.14395332
83	0x3e24f561	0.1610923
84	0xbdde8516	-0.10865228
85	0x3e0df492	0.13862827
86	0xbe8d5c7c	-0.27609622
87	0xbe76b04f	-0.24090694
88	0xbe63c284	-0.2224217
89	0xbe50a145	-0.2037402
90	0xbe483e4b	-0.19555013
91	0x3e262c2a	0.16227785
92	0xbea8fae2	-0.33003908
93	0xbd977b80	-0.07396603
94	0x3e8226cd	0.25420228
95	0x3e402528	0.18764174
96	0x3cd77d8b	0.02630498
97	0x3de03c50	0.10949004
98	0x3e3e7134	0.18597871
99	0x3e6a2d1c	0.2286877
100	0xbc56ab90	-0.013102427
101	0xbdb0a358	-0.08624905
102	0x3e77431d	0.24146695
103	0x3d206863	0.03916205
104	0x3d392965	0.045205493
105	0x3e6f956c	0.23396844
106	0x3c072099	0.008247518
107	0x3d3b197b	0.045678597
108	0xbd4cef66	-0.050032996
109	0x3e66317c	0.22479814
110	0x3babcb0b	0.0052427105
111	0x3da2a7d1	0.07942165
112	0xbc3213e9	-0.010869005
113	0x3d9252f6	0.0714473
114	0x3e002764	0.12515026
115	0x3dc07da3	0.09398963
116	0x3cd5943e	0.026071664
117	0x3db9fa4c	0.090809435
118	0xbd3c12d0	-0.04591638
119	0x3e2389de	0.15970561
120	0xbd92417d	-0.07141397
121	0x3ed1e2b1	0.40993264
122	0x3e148d06	0.14506921
123	0xbd1a9e98	-0.037748903
124	0x3d43bd01	0.04778767
125	0xbe437c87	-0.19090472
126	0x3e3add6e	0.18248531
127	0xbe144643	-0.14479928

lstm.weight_hh_l0 f4 [128, 32]
0	0x3deba783	0.1150656
1	0xbdd44322	-0.10364367
2	0x3de9a2ab	0.114079796
3	0x3d659134	0.05604668
4	0xbe4003dc	-0.18751472
5	0xbe0985a5	-0.13429888
6	0x3bfec70d	0.0077751935
7	0xbd771b02	-0.06032849
8	0xbd44f6a3	-0.048086774
9	0xbdb4750a	-0.08811386
10	0x3e4db078	0.20086849
11	0xbc1c8813	-0.009553927
12	0x3dd4ee86	0.10397057
13	0x3e4452aa	0.19172159
14	0xbd0c5440	-0.034260035
15	0xbd6c33dd	-0.05766665
16	0xbd299617	-0.041402902
17	0x3db972f4	0.09055129
18	0xbcf13df5	-0.029448489
19	0xbdd87070	-0.10568321
20	0xbdcd316f	-0.10019194
21	0x3d246121	0.04013169
22	0xbd69d409	-0.057086978
23	0xbc0effa4	-0.008727942
24	0xbd8ddf15	-0.06927315
25	0xbdec6f88	-0.115447104
26	0xbd8fc414	-0.07019821
27	0xbd0d288e	-0.034462504
28	0x3df17106	0.11789136
29	0xbc3fa61f	-0.011697321
30	0x3e06f152	0.13177994
31	0x3df6bcad	0.12047706
32	0xbd0bf571	-0.034169618
33	0x3cd36a90	0.025807649
34	0xbe1a7ea6	-0.15087375
35	0xbdc545b3	-0.09632435
36	0xbd9cb9bb	-0.07652613
37	0xbd0d012c	-0.034424946
38	0xbdc70c70	-0.09719169
39	0xbe1f2adf	-0.15543698
40	0xbd398308	-0.045290977
41	0xbcbab5db	-0.022791794
42	0xbcd3b64c	-0.025843762
43	0xbe2a40dc	-0.16626304
44	0x3dd92703	0.10603144
45	0xbe1da6b8	-0.1539563
46	0xbd1451d6	-0.036210857
47	0xbdc514c9	-0.09623105
48	0x3e15fce7	0.14647256
49	0xbdfef7e7	-0.12449627
50	0xbe6f49be	-0.23367974
51	0xbd8dfea4	-0.069333345
52	0xbe2be004	-0.16784674
53	0xbd48ed83	-0.049054634
54	0xbd32c020	-0.043640256
55	0x3ba2af37	0.004964735
56	0x3db14538	0.086557806
57	0x3d9d2f45	0.076750316
58	0xbdd9e3ae	-0.106391296
59	0xbd145efa	-0.03622339
60	0x3c5d6ad6	0.013514241
61	0x3e2867bb	0.1644582
62	0x3e189bea	0.14903226
63	0xbd7289ef	-0.059213575
64	0x3e22a9da	0.15885106
65	0x3d08412f	0.03326529
66	0xbd09a8be	-0.03360819
67	0x3d8d779a	0.06907578
68	0x3dbb9862	0.09159924
69	0x3d02d36c	0.03193991
70	0xbdfdf674	-0.12400523
71	0x3ddcfa92	0.1078998
72	0x3cbf15fb	0.02332591
73	0xbdc0d9a7	-0.09416514
74	0x3dfb77ac	0.12278685
75	0xbd8f0b9e	-0.06984638
76	0xbe162c47	-0.14665328
77	0xbdd3f1c6	-0.10348849
78	0x3d45a2f0	0.048251092
79	0xbda8bcbf	-0.082391255
80	0xbbc85ce1	-0.0061145877
81	0x3d14a666	0.036291502
82	0xbde64731	-0.112440474
83	0xbca7ec96	-0.020498555
84	0x3e0d4a08	0.13797772
85	0xbe40a05d	-0.18811174
86	0xbe1d9526	-0.15388927
87	0xbc3e88c6	-0.011629289
88	0xbe0d5910	-0.13803506
89	0x3d9e34cd	0.07724915
90	0x3dcbf6ce	0.09959184
91	0x3e05bb0b	0.13059632
92	0x3d8e4f99	0.06948776
93	0x3e0a7cb1	0.13524128
94	0xbd0b1139	-0.03395197
95	0xbdb5a641	-0.08869601
96	0xbd3b28ad	-0.04569309
97	0x3e5c2eba	0.215022
98	0xbd9acaf1	-0.07558239
99	0xbdac425a	-0.08411093
100	0xbca5b3c7	-0.020227326
101	0x3d912f79	0.07089133
102	0xbc5ee9b3	-0.013605523
103	0xbdabd6c8	-0.08390576
104	0xbe2076f6	-0.1567038
105	0xbda6a055	-0.0813605
106	0x3d0289e1	0.031869773
107	0x3cf12fbd	0.029441709
108	0xbda474c8	-0.08030087
109	0xbd5703f8	-0.05249402
110	0xbe33454b	-0.17506902
111	0xbdbf18bc	-0.093308896
112	0xbe125fe6	-0.14294395
113	0xbd1bb13b	-0.038010817
114	0xbdb4dd3e	-0.08831261
115	0x3d6e28a9	0.058144245
116	0x3d47a313	0.048739504
117	0x3dee501e	0.11636375
118	0xbdeaa04a	-0.11456354
119	0x3e457e82	0.1928654
120	0x3dfbf398	0.12302321
121	0xbdbed134	-0.09317246
122	0x3df36d5a	0.118860915
123	0xbdd4d680	-0.10392475
124	0xbb9dd4cb	-0.0048166267
125	0xbd8455ff	-0.06461715
126	0x3d525099	0.051346395
127	0xbe050ae0	-0.1299243
128	0x3cae7c98	0.021299645
129	0x3e296920	0.16544008
130	0xbe05d145	-0.13068111
131	0xbc606675	-0.013696303
132	0x3e47b47f	0.19502448
133	0x3bcd79ad	0.0062706084
134	0xbc6937e3	-0.014234516
135	0xbd8b436f	-0.06799971
136	0xbe135be0	-0.14390516
137	0xbe17ff98	-0.14843595
138	0xbd48edc4	-0.049054876
139	0xbdff89ad	-0.124774314
140	0x3e05666e	0.13027355
141	0xbe53b8c7	-0.20675956
142	0xbdf26c77	-0.11837094
143	0x3d8e45d4	0.069469124
144	0xbda096f7	-0.07841294
145	0xbc17aba9	-0.009257236
146	0xbc3f6396	-0.011681458
147	0x3d2c8988	0.042123348
148	0x3d88f471	0.066872485
149	0x3e57d694	0.21077949
150	0xbe43e7df	-0.1913142
151	0xbca905c6	-0.020632636
152	0x3cde3394	0.027124204
153	0xbd11351b	-0.035451036
154	0xbd79cb54	-0.060984924
155	0x3d139a95	0.036036093
156	0xbd8417a2	-0.0644982
157	0xbd4adafa	-0.04952524
158	0x3e0a6756	0.13515982
159	0x3e3b4a16	0.1828998
160	0x3dcdd946	0.10051207
161	0x3d30092d	0.0429775
162	0x3d3de1d0	0.04635793
163	0x3d5f5cfe	0.054532044
164	0x3d4ffaed	0.05077641
165	0x3e06b8e4	0.13156468
166	0x3dc72a0b	0.09724816
167	0xbd8b27ea	-0.067947224
168	0xbe2f1a0b	-0.17099778
169	0x3e705253	0.23468904
170	0xbd362f3b	-0.044478636
171	0xbe362333	-0.17786865
172	0xbd97abeb	-0.074058376
173	0x3e4c7349	0.19965853
174	0x3d98a6e1	0.074537046
175	0xbdf67c69	-0.12035448
176	0xbd6a6b35	-0.057231147
177	0xbdd6a2fe	-0.10480307
178	0xbdc6cde8	-0.09707242
179	0x3da46265	0.0802658
180	0x3e033ba9	0.12815727
181	0xbd892060	-0.06695628
182	0xbd34a982	-0.044106968
183	0x3e6aed6f	0.22942136
184	0xba7ae407	-0.0009570722
185	0x3e6b866c	0.23000497
186	0xbd611b45	-0.054957647
187	0xbd125255	-0.03572305
188	0xbd0a154d	-0.03371172
189	0xbdbb093a	-0.09132619
190	0x3d1d86a7	0.038458493
191	0xbd39b646	-0.045339845
192	0xbde349cb	-0.11098059
193	0x3d144ea6	0.036207817
194	0x3d6d3619	0.05791292
195	0x3deafa33	0.11473503
196	0xbdb05d8b	-0.08611592
197	0x3ddc81c5	0.10766939
198	0xbcaf290f	-0.021381883
199	0xbde02125	-0.10943822
200	0x3e563a82	0.20920756
201	0x3bf3e7ad	0.0074433894
202	0xbe5d41ca	-0.21607128
203	0x3d1eed6c	0.038800642
204	0x3d677ce5	0.056515593
205	0xbe2d4a16	-0.16922793
206	0x3dded68f	0.108807676
207	0x3d094915	0.033516962
208	0xbde83937	-0.11339038
209	0xbe555f6a	-0.20837179
210	0xbc2879f4	-0.010282982
211	0xbc788c73	-0.015170204
212	0xbe1a2e63	-0.15056758
213	0x3e52794a	0.2055408
214	0xbd03ec81	-0.03220797
215	0x3caedfb0	0.021346897
216	0x3cde6f6e	0.027152743
217	0x3d2584e6	0.040409945
218	0xbd5b9fbf	-0.053619143
219	0xbdaeb4ee	-0.08530603
220	0xbc4871be	-0.0122341495
221	0xbe2b5828	-0.16732848
222	0x3e3f20c2	0.1866484
223	0x3dc433cd	0.09580193
224	0x3e189072	0.14898852
225	0x3e0a8253	0.13526277
226	0xbdc7dd49	-0.09759004
227	0x3ba07918	0.004897248
228	0xbccce7a2	-0.025012795
229	0x3c7182dd	0.014740673
230	0xbc9ed999	-0.019390868
231	0x3e7725a6	0.24135455
232	0xbe15436b	-0.14576499
233	0xbd5f8f04	-0.05457975
234	0xbdfdf592	-0.124003544
235	0xbd9e3529	-0.07724983
236	0x3ddfed55	0.10933939
237	0x3ddd792b	0.108141266
238	0xbdef1801	-0.116745
239	0xbdb155f3	-0.08658972
240	0x3e8bcdb5	0.2730538
241	0xbe2d5f91	-0.16930987
242	0xbe3e266d	-0.18569346
243	0x3dc514e1	0.09623123
244	0x3e111fac	0.14172238
245	0xbdd5ae08	-0.104335845
246	0xbe0e1078	-0.1387347
247	0x3dd4425f	0.10364222
248	0x3b72005f	0.003692649
249	0xbd829ff1	-0.06378163
250	0xbdd90616	-0.10596864
251	0xbdfeaf56	-0.124357864
252	0x3da371f0	0.07980716
253	0x3e532194	0.20618278
254	0xbce0020f	-0.027344732
255	0x3e39bb44	0.18137842

lstm.bias_ih_l0 f4 [128]
0	0xbd97b0a6	-0.0740674
1	0xbe13308b	-0.14373986
2	0x3e3535ca	0.176963
3	0xbd38145e	-0.0449413
4	0xbdda91ee	-0.10672365
5	0xbda5007f	-0.08056735
6	0xbd0b7340	-0.034045458
7	0xbe0f3af5	-0.13987334
8	0xbc842972	-0.016133044
9	0xbdb71618	-0.08939761
10	0x3c9367c8	0.017993823
11	0x3daf306e	0.08554159
12	0x3d06d910	0.03292185
13	0x3dd37b79	0.10326285
14	0xbdbecd9f	-0.09316563
15	0x3df9632c	0.12177119
16	0x3e606833	0.21914749
17	0xbdf79f38	-0.120909154
18	0xbdd67381	-0.10471249
19	0xbe138af1	-0.1440847
20	0xbd0a7263	-0.033800494
21	0xbd12e7e1	-0.03586567
22	0xbdcf27ed	-0.10115037
23	0xbc122876	-0.008920779
24	0x3e3de6b9	0.18545045
25	0x3c7bbfbf	0.01536554
26	0x3d49dd53	0.049283337
27	0xbd819e68	-0.06329042
28	0xbcc43b08	-0.02395393
29	0xbda62f3b	-0.08114477
30	0x3daf2def	0.08553683
31	0xbdd116d5	-0.10209433
32	0x3dbc0763	0.091810964
33	0x3d52b805	0.051445026
34	0xbc2ebe25	-0.010665451
35	0x3dd8b686	0.105816886
36	0x3d9e1809	0.07719428
37	0x3e28950e	0.1646311
38	0x3dd3a6f1	0.10334576
39	0xbd02b410	-0.031910002
40	0x3dc2a6cb	0.095044695
41	0xbcc5d791	-0.024150642
42	0x3e492e72	0.19646624
43	0x3d88fed8	0.066892326
44	0xbda75404	-0.081703216
45	0xbe16b263	-0.14716487
46	0xbd7294dc	-0.059223995
47	0xbd47077b	-0.04859112
48	0x3e4ab452	0.19795349
49	0x3df26d81	0.118372925
50	0xbd2ae440	-0.041721582
51	0x3dba5981	0.09099103
52	0xbe04c99d	-0.12967534
53	0xbe049471	-0.12947251
54	0xbe11a482	-0.14222911
55	0x3df02ad4	0.11726919
56	0x3de9f184	0.114230186
57	0x3e375467	0.1790329
58	0x3d3a735b	0.045520168
59	0xbc0bfa42	-0.008543553
60	0x3e03d104	0.12872702
61	0xbe576671	-0.21035172
62	0xbd674d23	-0.056470048
63	0x3d52c2fb	0.05145548
64	0xbdbe116c	-0.09280667
65	0xbdcc3df7	-0.09972756
66	0x3dac2828	0.08406097
67	0x3dd0e07f	0.10199069
68	0xbd471218	-0.04860124
69	0x3dd2dd35	0.10296098
70	0xbb9fa8b6	-0.004872407
71	0xbd4bf474	-0.049793676
72	0x3dd77e52	0.105221406
73	0xbe2a3440	-0.16621494
74	0x3c71af5a	0.01475128
75	0x3e02bbf7	0.12767015
76	0x3ccd2558	0.025042221
77	0x3d0d3351	0.034472767
78	0x3d99b0ab	0.075044
79	0xbdaddfb4	-0.084899336
80	0xbdf64fbf	-0.12026929
81	0xbd0b49fc	-0.034006104
82	0xbdb5883d	-0.08863876
83	0x3d8b399d	0.06798098
84	0xbc5f8bfe	-0.013644217
85	0xbc5e9ed5	-0.013587673
86	0x3c9b313c	0.018944375
87	0xbd3c0971	-0.04590744
88	0x3dfaeb3b	0.12251898
89	0x3d452988	0.04813531
90	0x3dc92019	0.09820575
91	0x3d3a6b48	0.045512468
92	0x3dc88a78	0.09792036
93	0xbd13619b	-0.035981756
94	0xbcf8ae85	-0.030356655
95	0x3b7a1b89	0.0038163385
96	0xbdd4aac7	-0.10384136
97	0xbdd1d3e2	-0.102454916
98	0xbdcdaade	-0.10042356
99	0xbbd50d7e	-0.0065018525
100	0x3c927c94	0.01788167
101	0xbd8d541e	-0.0690081
102	0x3e4542bf	0.19263743
103	0x3da0eaee	0.07857309
104	0x3e0315e5	0.12801321
105	0x3dcc6808	0.0998078
106	0xbd4dc609	-0.05023769
107	0xbbbd517f	-0.0057775374
108	0xbcc0bfea	-0.023529012
109	0x3d79f431	0.061023895
110	0x3ddf4c5a	0.10903235
111	0xbe06f1b6	-0.13178143
112	0xbd10f7fa	-0.03539274
113	0x3d71d43c	0.059040293
114	0x3d4906fd	0.04907893
115	0xbd93d411	-0.07218183
116	0xbd4f48e3	-0.05060662
117	0x3cf68817	0.03009419
118	0xbdc13885	-0.09434608
119	0x3debc9fd	0.115131356
120	0xbdbadae2	-0.0912378
121	0x3e42bd7c	0.19017595
122	0xbd3c84da	-0.046025135
123	0x3d8c75f2	0.06858434
124	0x3ce27a0e	0.02764609
125	0x3d848cbe	0.06472157
126	0x3d044501	0.03229237
127	0x3e44d5ce	0.19222185

lstm.bias_hh_l0 f4 [128]
0	0x3d425bee	0.047450952
1	0x3e1e3b13	0.15452223
2	0xbd144402	-0.03619767
3	0xbd2454f7	-0.04012009
4	0xbdaae188	-0.08343798
5	0x3dad0160	0.08447528
6	0xbcc63f84	-0.024200208
7	0x3d9e6a9c	0.07735178
8	0x3da00ed4	0.07815328
9	0x3e6703fe	0.22560117
10	0x3e5a6927	0.21329175
11	0xbdf8ec50	-0.12154448
12	0xbe019809	-0.12655653
13	0x3b4924ec	0.0030692173
14	0x3d7a411e	0.061097257
15	0x3e0daf67	0.13836442
16	0xbc6e2614	-0.014535446
17	0xbc640b18	-0.013918661
18	0xbcff9541	-0.0311991
19	0x3de01e5d	0.10943291
20	0xbd2ff06f	-0.042953905
21	0x3db6e07b	0.08929535
22	0x3e2345f0	0.15944648
23	0xbdda5e01	-0.10662461
24	0x3d81e147	0.06341796
25	0x3e386ea4	0.18010956
26	0x3de0c52d	0.10975108
27	0xbd1818bc	-0.037132964
28	0xbd24db34	-0.04024811
29	0xbdd8b853	-0.10582032
30	0x3e1ae1c9	0.15125193
31	0x3d4ad5e3	0.049520385
32	0x3d199b7e	0.037501805
33	0xbcacc070	-0.021087855
34	0x3dd2ac61	0.10286785
35	0xbd4d2342	-0.050082453
36	0x3df8163d	0.121136166
37	0x3cefa832	0.029255006
38	0x3e02ef80	0.12786674
39	0xbdf4d19f	-0.119540446
40	0x3de5bcb7	0.11217635
41	0x3e604d64	0.21904522
42	0x3d89d158	0.06729382
43	0x3d8d55a8	0.06901103
44	0xbdda0c6d	-0.10646901
45	0xbdec5bfd	-0.11540983
46	0xbdfe13ba	-0.12406106
47	0x3da461b3	0.08026447
48	0x3d65863c	0.05603622
49	0x3d1789b5	0.036996562
50	0xbc0bc44f	-0.00853069
51	0xbdc18085	-0.09448341
52	0x3b5ac735	0.0033382897
53	0x3e112de1	0.14177658
54	0x3ddc07c3	0.10743668
55	0x3d3d2f02	0.04618741
56	0xbd8b7b73	-0.068106554
57	0x3e4d7ddf	0.20067547
58	0xbe21805f	-0.15771626
59	0x3ae48884	0.0017435704
60	0x3e281dae	0.16417572
61	0xbe3c37dd	-0.18380685
62	0xbd590e41	-0.05299211
63	0x3e479ab0	0.19492602
64	0xbe002388	-0.12513554
65	0x3d8737cd	0.0660244
66	0xbd02b998	-0.031915277
67	0x3d6a0e01	0.05714226
68	0xbd9422c1	-0.07233191
69	0x3e0a6167	0.13513719
70	0xbd094ff3	-0.03352351
71	0xbdaab5c5	-0.08335451
72	0xbcdcbce0	-0.026945531
73	0x3e05e84b	0.13076894
74	0x3c413a9d	0.01179376
75	0xbd3c0286	-0.045900844
76	0xbd2060f7	-0.039154973
77	0xbdcd8d5a	-0.10036726
78	0x3dd30385	0.10303406
79	0xbd545a7d	-0.05184411
80	0x3d020a92	0.031748362
81	0xbb2b26d7	-0.002611568
82	0x3d01947c	0.031635746
83	0xbd4c59cd	-0.04989033
84	0xbdb686a8	-0.089124024
85	0x3d11b9cc	0.03557758
86	0x3deb8e0f	0.11501705
87	0xbe17ce4f	-0.14824794
88	0x3d12c00c	0.03582768
89	0xbe3857bf	-0.18002222
90	0xbe132cb8	-0.14372528
91	0xbdfbb5c0	-0.122905254
92	0x3db51708	0.088422835
93	0xbdf84d6e	-0.121241435
94	0x3d99173b	0.07475134
95	0xbd56489d	-0.052315343
96	0x3bb25633	0.0054424047
97	0x3d5a3cd0	0.05328065
98	0xbe24de8e	-0.16100523
99	0xbdeab1e9	-0.11459715
100	0xbd02d754	-0.031943634
101	0xbdd513fa	-0.10404201
102	0x3df6c4ff	0.12049293
103	0x3d246363	0.040133845
104	0xbdd2d7ca	-0.10295065
105	0x3c66d3b8	0.014088564
106	0x3e49b127	0.19696485
107	0xbe5f3af5	-0.21799834
108	0xbe577db4	-0.21044046
109	0xbe4c6589	-0.19960608
110	0xbe03b51a	-0.12862054
111	0x3e12a1d5	0.14319547
112	0x3e56f3cf	0.20991443
113	0xbdcb42d7	-0.09924858
114	0x3d508e95	0.050917227
115	0xbe638efd	-0.22222514
116	0xbd7cf8f1	-0.061760847
117	0xbd88e753	-0.066847466
118	0xbd83c2d7	-0.06433647
119	0x3d85eaac	0.06538901
120	0x3e458e8a	0.19292656
121	0x3e55b892	0.20871189
122	0x3d3078d0	0.043083966
123	0x3d7881a9	0.06067053
124	0x3e289765	0.16464002
125	0x3df9d656	0.121990845
126	0x3dcc225d	0.09967492
127	0xbdb6b096	-0.089204

lstm.weight_ih_l1 f4 [128, 32]
0	0xbe24336f	-0.16035245
1	0xbd91f234	-0.07126275
2	0xbdc47979	-0.095934816
3	0xbdd6b114	-0.10482994
4	0x3c04bca7	0.008101619
5	0x3e79903a	0.24371424
6	0x3dec7e5b	0.11547538
7	0x3be09592	0.0068537677
8	0x3e405c45	0.18785198
9	0xbe465acb	-0.19370572
10	0x3d389e0d	0.045072604
11	0xbc6da160	-0.014503807
12	0xbd109055	-0.035293896
13	0xbde6abff	-0.112632744
14	0xbd1e8c11	-0.038707796
15	0xbe215cf5	-0.15758117
16	0xbc41b6ce	-0.011823369
17	0x3e2f357d	0.17110248
18	0x3d9e7f18	0.07739085
19	0xbdb93706	-0.09043698
20	0x3dce9e82	0.10088827
21	0xbe1199a9	-0.14218773
22	0xbd2fc0ee	-0.0429086
23	0x3b94844d	0.004532373
24	0xbdb44df1	-0.08803929
25	0xbe339461	-0.17537071
26	0x3cf13e46	0.02944864
27	0x3db033fd	0.08603666
28	0x3e19c422	0.15016225
29	0x3d56ab66	0.052409552
30	0x3e1e1e42	0.1544123
31	0xbc5c1a5a	-0.013434017
32	0x3dd01993	0.10161128
33	0x3e566f8d	0.20940991
34	0x3d7dbeea	0.061949648
35	0xbe128004	-0.14306647
36	0x3e0103f8	0.1259917
37	0x3e2dbe12	0.16967037
38	0x3e4311c9	0.19049753
39	0x3e280e50	0.1641171
40	0xbdff1a5f	-0.12456202
41	0xbd2ac934	-0.04169579
42	0x3e1d58a2	0.15365842
43	0xbd5ec0c5	-0.054383058
44	0xbd979e3c	-0.07403228
45	0x3e121116	0.1426433
46	0x3ccd89cc	0.02509012
47	0x3e135d4e	0.14391062
48	0xbe3f53dd	-0.18684335
49	0xbd35821a	-0.044313528
50	0x3d9a1d0b	0.07525071
51	0x3d947eb7	0.072507314
52	0xbdbe59c2	-0.09294464
53	0xbe05f0b7	-0.13080107
54	0x3e85fd26	0.261697
55	0xbda319b1	-0.079638846
56	0x3e0b8dec	0.13628358
57	0x3e52f087	0.20599566
58	0xbd7d432e	-0.061831646
59	0x3d433134	0.047654346
60	0x3ca03cb0	0.019560188
61	0x3dce427f	0.10071277
62	0xbdfa123f	-0.122105114
63	0xbe050ede	-0.12993953
64	0xbde002c0	-0.109380245
65	0x3a022753	0.0004964966
66	0xbe1a4d4e	-0.15068552
67	0xbde58cba	-0.11208482
68	0x3e3d4047	0.18481551
69	0x3db26bb4	0.08711949
70	0xba41dbd1	-0.0007395121
71	0xbd1ecd9d	-0.038770307
72	0x3e1c9e09	0.1529466
73	0x3e20351b	0.15645258
74	0x3d0b805c	0.03405796
75	0x3e08c124	0.13354927
76	0x3d831b33	0.06401672
77	0x3e6eee4c	0.2333309
78	0xbd72e7ef	-0.05930322
79	0xbd9a86f7	-0.07545274
80	0x3d92b8c7	0.0716415
81	0x3df1fe0f	0.11816036
82	0xbe5d160e	-0.21590444
83	0xbe6be564	-0.23036724
84	0xbe0bf8f6	-0.1366919
85	0xbd52ef8e	-0.05149799
86	0xbb772488	-0.0037710983
87	0x3dc0faf6	0.09422867
88	0xbda30e34	-0.079616934
89	0xbe06de9c	-0.13170856
90	0x3e25b19e	0.16181037
91	0x3b95d8ef	0.0045729796
92	0x3dd8492a	0.1056083
93	0x3d866499	0.06562156
94	0x3d11bb27	0.035578873
95	0xbcf1e655	-0.029528776
96	0xbe23fa01	-0.16013338
97	0xbdf18523	-0.11792972
98	0xbd8441e6	-0.06457882
99	0x3cc5d295	0.024148265
100	0xbba237f7	-0.004950519
101	0xbdc81a43	-0.09770634
102	0xbd7ae89b	-0.061256986
103	0x3de6b128	0.112642586
104	0xbe3e0772	-0.18557528
105	0x3cabb96f	0.020962445
106	0xbdee234c	-0.11627826
107	0x3d7f7246	0.06236484
108	0xbc8fbdd7	-0.017546577
109	0x3c74d387	0.01494301
110	0xbd52643a	-0.051365115
111	0x3e0de04a	0.1385509
112	0x3d8c3b08	0.06847197
113	0x3cb6d7d2	0.022319708
114	0xbd14fde1	-0.03637493
115	0x3dcfefd8	0.101531684
116	0x3d7dac8d	0.061932135
117	0x3c97a783	0.018512493
118	0x3bd36f64	0.006452488
119	0xbd6d523c	-0.057939753
120	0x3cbb0427	0.022829128
121	0x3b28121c	0.002564556
122	0xbe025b41	-0.12730123
123	0xbba9442a	-0.0051655965
124	0x3d5e9a0f	0.05434614
125	0x3e5c2411	0.21498133
126	0xbd04f440	-0.032459497
127	0x3dc41e84	0.09576133
128	0xbddaf7e6	-0.10691814
129	0xbe10305b	-0.14080946
130	0xbe07486d	-0.13211222
131	0xbdd50ffe	-0.10403441
132	0x3df9a274	0.121891886
133	0xbd948b1c	-0.072530955
134	0x3d9095eb	0.070598446
135	0x3c6047f6	0.013689032
136	0xbda97b1c	-0.082754344
137	0x3d7103ce	0.05884152
138	0xbdcf1a8c	-0.10112485
139	0x3dc313e4	0.09525278
140	0xbcc7404d	-0.024322653
141	0x3da55281	0.08072377
142	0x39137214	0.0001406151
143	0xbe0492a8	-0.1294657
144	0xbe0bb7bb	-0.13644306
145	0x3e1f95c1	0.1558447
146	0x3dfd1246	0.12357001
147	0xbda65f01	-0.08123589
148	0xbe0c88f2	-0.13724115
149	0xbcf11682	-0.029429678
150	0x3e770e6d	0.24126597
151	0x3d1b8d90	0.0379768
152	0x3c2ff9c3	0.0107407
153	0xbde5e46c	-0.11225209
154	0x3d16ef01	0.036849026
155	0xbe2687db	-0.16262762
156	0xbd37546f	-0.044758257
157	0xbdc535dc	-0.096294135
158	0x3ced25af	0.028948633
159	0xbe331aae	-0.17490646
160	0x3c4bd877	0.012441746
161	0x3d821221	0.06351114
162	0x3df3edde	0.11910604
163	0x3df8e0e5	0.1215227
164	0x3e0f0726	0.1396757
165	0x3c60d2ef	0.0137221655
166	0xbd23fcdc	-0.040036067
167	0xbde58848	-0.11207634
168	0xbe4f3a65	-0.2023712
169	0x3d1357a0	0.035972238
170	0xbdba2f9b	-0.09091111
171	0xbdea7193	-0.11447444
172	0x3e1c528e	0.15265867
173	0xbdf434b6	-0.11924116
174	0xbe7a651c	-0.24452633
175	0xbd49c75b	-0.049262386
176	0x3e687ead	0.22704573
177	0xbe918020	-0.28418064
178	0x3e6adaaf	0.22934984
179	0x3d8413fb	0.064491235
180	0x3d3b3036	0.045700274
181	0x3c9d42c1	0.01919687
182	0xbe796510	-0.24354959
183	0xbdfa49db	-0.12221118
184	0xbe7d3036	-0.24725422
185	0xbdb41928	-0.08793861
186	0xbe09c879	-0.1345538
187	0x3c2326ac	0.009957951
188	0xbe68a1d3	-0.22717981
189	0xbbab6751	-0.005230822
190	0x3e2590b5	0.16168483
191	0x3e57c355	0.21070607
192	0xbdcc1048	-0.09964043
193	0xbe0b4326	-0.13599834
194	0xbe3ef2c5	-0.18647297
195	0x3e35e62d	0.17763586
196	0x3d80e588	0.062937796
197	0x3dce3750	0.10069144
198	0xbe030fd8	-0.12799013
199	0xbced6ec1	-0.028983476
200	0x3cc2b6ff	0.0237689
201	0x3dc9911f	0.09842133
202	0x3d8146a9	0.063123055
203	0x3dfceb22	0.123495355
204	0x3e0becae	0.13664505
205	0xbd286843	-0.041115057
206	0x3d493ac6	0.049128316
207	0xbdb69a5f	-0.08916163
208	0xbc59bb0e	-0.013289226
209	0x3d709f83	0.058745872
210	0xbe25f801	-0.16207887
211	0xbc41356e	-0.011792524
212	0x3dd3c26b	0.10339817
213	0xbdfb12b8	-0.1225943
214	0x3e4fb11c	0.20282406
215	0xba8b9d22	-0.0010651688
216	0x3d40b7d7	0.047050323
217	0xbe08aa6c	-0.13346261
218	0x3c712f1b	0.0147207035
219	0xbe585cfe	-0.21129224
220	0x3d1256be	0.035727255
221	0x3dbadfcc	0.09124717
222	0xbe1b95e5	-0.15193899
223	0x3d630d10	0.05543238
224	0x3d7b2086	0.061310314
225	0x3e233126	0.15936717
226	0x3d22972a	0.039694943
227	0xbdc5ed46	-0.09664397
228	0x3e5bf350	0.21479535
229	0x3dd08874	0.10182276
230	0x3dca95de	0.09891866
231	0x3e4567fb	0.19277947
232	0xbcc3c6c5	-0.023898492
233	0xbc45e5ce	-0.0120787155
234	0x3c0ecd03	0.008715871
235	0xbd5b6abc	-0.053568587
236	0xbd01072a	-0.031500973
237	0x3e3799fc	0.17929834
238	0x3ddabdbe	0.10680722
239	0xbd584716	-0.052802168
240	0xbe6439db	-0.22287695
241	0x3e78d8f7	0.24301516
242	0xbe158970	-0.1460321
243	0xbe2cc414	-0.16871673
244	0x3dfd4c9e	0.12368129
245	0xbe4036e9	-0.18770947
246	0x3e98d13b	0.2984713
247	0x3e7e5c1e	0.24839827
248	0xbd228a92	-0.039682932
249	0x3b524dd9	0.0032089858
250	0xbc8e3f95	-0.017364303
251	0xbde5fd2d	-0.1122993
252	0x3dce2a0f	0.10066616
253	0xbd14fb5b	-0.036372524
254	0xbd3d8e33	-0.04627819
255	0xbd44c03c	-0.04803489

lstm.weight_hh_l1 f4 [128, 32]
0	0xbdc09010	-0.09402478
1	0xbbc39019	-0.0059681055
2	0x3de73530	0.112894416
3	0xbcbb1185	-0.022835502
4	0x3c89b822	0.016811434
5	0x3dcbff90	0.09960854
6	0x3d51f3a4	0.051257744
7	0xbd008062	-0.031372435
8	0x3e3ccbb1	0.18437077
9	0x3dd94154	0.106081635
10	0x3dd69dc2	0.10479309
11	0x3b9b7e9f	0.004745319
12	0xbcd9fa51	-0.026608618
13	0xbc914d0c	-0.017736934
14	0x3da03017	0.078216724
15	0xbcf26a80	-0.029591799
16	0xbd059ae1	-0.032618407
17	0x3cd8cb81	0.026464226
18	0x3e33eec7	0.17571555
19	0xbdbfc976	-0.093645975
20	0xbe60387c	-0.21896547
21	0x3e95fba1	0.2929354
22	0xbda4b64c	-0.08042583
23	0xbd406e28	-0.046980053
24	0xbd060926	-0.03272357
25	0xbcf624f6	-0.030046921
26	0xbe2c848c	-0.16847438
27	0xbe0faf50	-0.1403172
28	0xbd5ad34c	-0.053424165
29	0xbd13e29c	-0.036104783
30	0xbe54e9a0	-0.20792246
31	0xbd7d40a1	-0.061829213
32	0xbd111df9	-0.035428975
33	0xbe16922a	-0.14704195
34	0x3e16836d	0.14698572
35	0x3dc97e9a	0.098386005
36	0xbe221b59	-0.15830745
37	0x3e50a9fe	0.20377347
38	0x3dfcfb23	0.12352588
39	0x3e345346	0.17609891
40	0xbe1516a0	-0.14559412
41	0xbde1ab7f	-0.110190384
42	0x3db20c23	0.08693721
43	0xbdc27e83	-0.094967864
44	0xbe064961	-0.1311393
45	0x3ea8c407	0.32962057
46	0xbdfced70	-0.12349975
47	0xbe4671bd	-0.19379325
48	0x3dab22af	0.08356225
49	0xbe093c78	-0.13401973
50	0xbdfd74e6	-0.12375812
51	0xbc506960	-0.012720436
52	0x3ce35a9d	0.027753169
53	0x3ca4629b	0.02006655
54	0xbd8e5721	-0.06950212
55	0xbe152dfe	-0.14568326
56	0xbda8b58c	-0.08237752
57	0xbdf3a2d1	-0.11896289
58	0xbe0e7bd2	-0.13914421
59	0xbcc758d6	-0.024334352
60	0x3daf4176	0.085574076
61	0x3dfee6af	0.12446343
62	0xbd1b9e37	-0.037992682
63	0x3e0e2f00	0.13885117
64	0x3ce52271	0.027970525
65	0x3d89f67a	0.06736465
66	0x3e371a21	0.17881061
67	0x3e0ae6ea	0.13564649
68	0xbdc34e4a	-0.09536417
69	0xbd94defb	-0.07269093
70	0xbd7cb08f	-0.061691817
71	0x3dd6d42d	0.10489688
72	0x3d17178c	0.03688769
73	0x3d3d38a0	0.04619658
74	0xbdae18f9	-0.08500857
75	0xbdc91b59	-0.09819669
76	0xbe154303	-0.14576344
77	0x3bd152ce	0.006388045
78	0x3d794cf8	0.06086442
79	0xbe468f30	-0.19390559
80	0x3e184afd	0.14872356
81	0xbddcfa50	-0.10789931
82	0xbceed27f	-0.029153107
83	0xbd2e0f66	-0.042495154
84	0xbe3ebb94	-0.18626243
85	0x3e90f04d	0.28308335
86	0x3e2498cf	0.16073917
87	0xbe0e0612	-0.13869503
88	0x3e114133	0.14185028
89	0xbda73224	-0.081638604
90	0xbe502932	-0.20328215
91	0x3e0f7f61	0.14013435
92	0x3e3069be	0.17227837
93	0x3cca80c1	0.024719598
94	0xbe406f3e	-0.18792436
95	0xbd9fcc88	-0.07802683
96	0x3c8bf7a8	0.017085865
97	0xbe41494f	-0.18875621
98	0x3cd87e73	0.026427483
99	0xbe77478b	-0.24148385
100	0x3c34f14f	0.011043861
101	0x3cbc52a1	0.02298862
102	0xbe2abcfe	-0.16673657
103	0xbdbf17e0	-0.09330726
104	0xbbb6e534	-0.0055815224
105	0xbdf58a34	-0.11989251
106	0xbd08cc4a	-0.03339795
107	0x3de3ed4b	0.111292444
108	0xbd4b3807	-0.04961398
109	0xbe476e30	-0.19475627
110	0xbe46e6ff	-0.19424056
111	0xbe28b4ec	-0.16475266
112	0x3d7e99ea	0.062158503
113	0xbd457eac	-0.048216507
114	0x3e138ce1	0.1440921
115	0xbdcd40f2	-0.10022153
116	0x3df86a21	0.121296175
117	0xbd3e46d4	-0.046454266
118	0xbcad0c89	-0.021124141
119	0xbca147a7	-0.019687487
120	0x3d1fce8e	0.039015345
121	0x3c4d8042	0.012542786
122	0x3dd3fae3	0.10350587
123	0xbd66c0a5	-0.056336064
124	0x3dc00e41	0.09377719
125	0x3d1e7ab7	0.03869125
126	0x3d962c3e	0.07332657
127	0xbde08273	-0.10962381
128	0x3d1c041e	0.038089864
129	0xbe0eb9e8	-0.13938105
130	0xbdfdfcef	-0.12401759
131	0xbdc43b15	-0.095815815
132	0xb93886e5	-0.0001759786
133	0x3c37b005	0.0112114
134	0xbc3da88a	-0.011575827
135	0x3d475c49	0.048671994
136	0x3e1e1205	0.15436561
137	0x3e00b87f	0.1257038
138	0xbe4d5da3	-0.20055251
139	0x3cfb8a2f	0.03070554
140	0x3e055e2c	0.13024205
141	0xbd071407	-0.032978084
142	0x3dff7d8b	0.12475117
143	0x3b12429c	0.0022317534
144	0x3da5aaab	0.08089193
145	0x3d994d83	0.07485487
146	0x3db7b01c	0.08969137
147	0x3e15125b	0.14557783
148	0xbe3ce0cd	-0.1844513
149	0x3e839a51	0.25703672
150	0xbdf1176e	-0.11772047
151	0x3e11b34d	0.14228554
152	0xbe16547d	-0.14680667
153	0xbd0d4507	-0.034489658
154	0xbd5796ca	-0.052634038
155	0x3e20ac13	0.15690641
156	0xbd40f195	-0.04710539
157	0x3da2224b	0.07916697
158	0x3b0ffa7e	0.0021969373
159	0x3daf2f42	0.085539356
160	0x3e33af05	0.17547233
161	0xbe4a84dd	-0.19777246
162	0xbcd19506	-0.025583755
163	0xbe2db8e0	-0.16965055
164	0x3e46488c	0.19363612
165	0xbdbe2e7c	-0.0928621
166	0x3bbf2934	0.005833769
167	0xbe0e873f	-0.1391878
168	0x3d1696a2	0.03676475
169	0xbd1123ac	-0.03543441
170	0x3d24151a	0.040059187
171	0x3e08915e	0.13336703
172	0x3e466dc7	0.19377814
173	0x3dad6470	0.084664226
174	0xbd85c68f	-0.06532013
175	0x3d16df19	0.036833856
176	0xbd1c19f2	-0.03811068
177	0xbdf7505b	-0.120758735
178	0xbda9312d	-0.08261333
179	0x3de13f41	0.10998393
180	0x3c9723f8	0.018449768
181	0x3de12d00	0.10994911
182	0x3e113c71	0.14183213
183	0x3e3e9274	0.18610555
184	0x3cce3395	0.02517108
185	0x3dbc1c27	0.09185057
186	0x3dc697ec	0.096969455
187	0xbdd268c9	-0.102738924
188	0x3e4d268d	0.20034237
189	0xbe2f08be	-0.17093179
190	0x3b3d4460	0.0028879866
191	0xbce6d0ec	-0.028175794
192	0xbdce9a6c	-0.100880474
193	0x3e0aac01	0.13542177
194	0xbe1c3fd9	-0.15258731
195	0xbdf274a0	-0.11838651
196	0xbe149a2d	-0.14511938
197	0x3e2dc749	0.16970553
198	0xbdbb5988	-0.09147936
199	0xbce79f96	-0.028274339
200	0x3dfa1807	0.12211614
201	0xbdf5a981	-0.11995221
202	0xbe170709	-0.14748777
203	0xbe2ebd47	-0.17064391
204	0x3dfbf9b0	0.123034835
205	0xbc738fec	-0.014865857
206	0x3e04aaa2	0.12955716
207	0x3cd573e6	0.026056241
208	0x3e0fe2a5	0.14051302
209	0x3d0ae834	0.033912852
210	0x3d2d7e0a	0.04235653
211	0x3d850152	0.064943925
212	0x3dbde86d	0.09272847
213	0x3e8ef2ef	0.2791972
214	0x3d8657ce	0.06559716
215	0x3daa5e6a	0.08318789
216	0xbe1d9004	-0.15386969
217	0x3d55e170	0.052216947
218	0x3d4a6ab4	0.049418166
219	0xbc46788a	-0.0121137
220	0xbe303509	-0.17207731
221	0xbe2f5ea4	-0.17125946
222	0xbea1d919	-0.31610945
223	0x3dc78cf6	0.09743683
224	0x3bc7a29c	0.0060923826
225	0xbd5cc8f5	-0.053902585
226	0xbd218abf	-0.03943896
227	0x3db1eec3	0.08688118
228	0x3de35258	0.1109969
229	0xbd2c3bfa	-0.042049386
230	0x3d70c0f8	0.05877778
231	0xbd54c6c8	-0.051947385
232	0x3c1709ca	0.0092186425
233	0x3d527fef	0.05139154
234	0xbe5a935c	-0.21345276
235	0x3dc01265	0.093785085
236	0xbe208f5d	-0.15679689
237	0x3e8001a6	0.25001258
238	0x3d25d436	0.040485583
239	0xbe01b979	-0.12668408
240	0x3d7a638e	0.0611301
241	0xbe0a2883	-0.13492016
242	0x3d1752b6	0.036944114
243	0xbe190cf7	-0.14946352
244	0xbd54b122	-0.05192674
245	0x3ec764b8	0.3894403
246	0x3db57a0e	0.08861171
247	0x3d9d69ea	0.07686217
248	0xbe14622c	-0.14490575
249	0xbda68045	-0.08129934
250	0x3d90c8fb	0.07069584
251	0xbdc7c34a	-0.09754045
252	0x3e45207c	0.19250673
253	0x3dab56ba	0.08366151
254	0xbe035865	-0.12826689
255	0x3d9c4621	0.076305635

lstm.bias_ih_l1 f4 [128]
0	0x3e732f0a	0.23748413
1	0xbe0730d2	-0.13202217
2	0xbdf17837	-0.11790507
3	0xbc9e748d	-0.019342685
4	0xbcdcada7	-0.026938273
5	0x3d341323	0.043963563
6	0x3e47929c	0.19489521
7	0x3c85fe04	0.016356476
8	0xbd401669	-0.046896372
9	0x3e5979f4	0.21237928
10	0x3e16a136	0.14709935
11	0xbd837a5d	-0.06419823
12	0xbd585cf3	-0.05282302
13	0xbe4fce6d	-0.20293589
14	0x3e2b9444	0.16755778
15	0xbdaf2091	-0.085511334
16	0xbb7d98f8	-0.0038695913
17	0xbc09b27e	-0.008404372
18	0x3e5a9b6d	0.21348353
19	0x3dfa5b28	0.12224418
20	0xbc199c3d	-0.009375629
21	0xbd242123	-0.040070664
22	0xbd9604fc	-0.073251694
23	0x3daa5804	0.08317569
24	0xbd615cd7	-0.05502018
25	0x3c0e6f9f	0.008693605
26	0x3cfda792	0.030963693
27	0xbd4008b7	-0.04688331
28	0xbe20210e	-0.1563761
29	0x3ce7bc27	0.02828796
30	0x3d30083d	0.042976607
31	0xbe18dd4a	-0.14928165
32	0xbdd384de	-0.10328077
33	0xbe194fe6	-0.14971885
34	0xbd481e54	-0.04885705
35	0x3d592475	0.053013284
36	0xbc4d298c	-0.012522113
37	0x3e07600d	0.13220234
38	0x3e10b43d	0.14131255
39	0xbe0541ff	-0.13013457
40	0x3d020faa	0.03175322
41	0xbd9c2079	-0.07623381
42	0xbd4fcb3c	-0.05073093
43	0xbe10966f	-0.14119886
44	0x3ba24baa	0.0049528675
45	0xbd60bfa0	-0.054870248
46	0x3dca2f39	0.09872288
47	0xbe2af018	-0.16693151
48	0x3dbeade4	0.09310511
49	0x3e185810	0.14877343
50	0xbe275d72	-0.1634424
51	0xbdc66772	-0.096876994
52	0x3decbf89	0.1155997
53	0x39ca0242	0.00038530125
54	0xbda710cb	-0.081575
55	0xbda8f6e0	-0.08250213
56	0x3cad357a	0.021143664
57	0xbde992b7	-0.11404937
58	0x3db7a2a8	0.08966571
59	0xbe4dafca	-0.2008659
60	0x3d6604d8	0.056156963
61	0x3dbbe223	0.091739915
62	0x3ccffcfa	0.025389183
63	0xbd5ddbe9	-0.0541648
64	0x3d72772c	0.059195682
65	0x3d22dc34	0.039760783
66	0x3d19f398	0.037585825
67	0xbc99a475	-0.018755177
68	0xbddbbcd9	-0.10729379
69	0x3cec2545	0.028826365
70	0xbcda1629	-0.026621895
71	0xbdf29dad	-0.118464805
72	0xbe1a6996	-0.1507934
73	0xbdc953eb	-0.09830459
74	0xba9f4662	-0.0012151713
75	0xbc4cd2ef	-0.012501462
76	0xbd48780d	-0.048942614
77	0xbd8f90af	-0.07010018
78	0x3d277348	0.040881425
79	0x3c63ec0b	0.0139112575
80	0x3e1050e5	0.14093359
81	0x3db8ad3f	0.09017419
82	0xbdea948b	-0.114541136
83	0xbde875c0	-0.11350584
84	0xbe143076	-0.14471611
85	0x3e12c9bc	0.14334768
86	0x3b4d132e	0.003129195
87	0x3e025104	0.12726218
88	0xbd933bb6	-0.07189123
89	0x3b8d4921	0.004311696
90	0xbde9c87a	-0.11415191
91	0xbd7367c8	-0.059425145
92	0xbdbdbb15	-0.09264199
93	0xbdd88212	-0.10571684
94	0xbc4c3c67	-0.012465573
95	0x3e063ad6	0.13108382
96	0xbcd8c286	-0.026459944
97	0xbd82676c	-0.063673824
98	0x3da04e58	0.07827443
99	0xbe4c041f	-0.19923447
100	0x3d039649	0.032125745
101	0xbe273d12	-0.1633189
102	0x3e58b687	0.21163379
103	0x3a690921	0.0008889605
104	0xbc238cd4	-0.0099823065
105	0xbdc735bb	-0.09727045
106	0x3de15a26	0.110035226
107	0x3df83f9d	0.12121508
108	0xbd8d5cca	-0.06902464
109	0xbe0bc5dd	-0.13649698
110	0xbb497fd6	-0.0030746362
111	0xbdc795a5	-0.09745339
112	0xbdfb6715	-0.12275521
113	0xbdac6676	-0.084179804
114	0x3e297c24	0.16551262
115	0xbc9fa6d7	-0.019488735
116	0x3d4b4dc1	0.0496347
117	0x3e6e1931	0.23251797
118	0x3d5a573b	0.053305846
119	0xbd07741f	-0.033069726
120	0x3e094109	0.13403715
121	0xba4767e7	-0.000760673
122	0x3e67c485	0.2263356
123	0xbe7c4060	-0.24633932
124	0xbdc17c0f	-0.094474904
125	0xbc0c96f6	-0.008580914
126	0xbe2510ec	-0.16119736
127	0xbe2b51ef	-0.16730474

lstm.bias_hh_l1 f4 [128]
0	0x3e49ef3e	0.1972017
1	0x3d3383e2	0.043826945
2	0xbd2fd5bb	-0.04292844
3	0x3de668f3	0.11250486
4	0x3e33708e	0.17523405
5	0x3da7fac5	0.08202127
6	0xbd9e075c	-0.077162474
7	0x3e0a47b2	0.13503912
8	0x3e07bc77	0.13255487
9	0x3e2076db	0.1567034
10	0x3db9a21e	0.090641245
11	0xbda0a86f	-0.07844626
12	0x3ddcb3e5	0.107765
13	0x3de314d4	0.11087957
14	0xbddf489c	-0.10902521
15	0x3e122ade	0.14274165
16	0xbe18a5fe	-0.14907071
17	0x3b191680	0.0023359358
18	0x3e96b64e	0.29435962
19	0xbde28a41	-0.11061526
20	0x3e0aaa98	0.13541639
21	0x3e65fcc7	0.22459708
22	0xbdf7c49d	-0.12098048
23	0x3e554a47	0.20829116
24	0xbd825f5e	-0.06365846
25	0x3e2e85fc	0.17043298
26	0x3dd0de31	0.1019863
27	0xbd18afc3	-0.037276994
28	0x3de082e9	0.10962469
29	0xbca8aa7a	-0.020589102
30	0xbe3f8216	-0.18701968
31	0x3e1653c1	0.14680387
32	0xbcb083e3	-0.021547263
33	0x3d18cd1c	0.037304983
34	0x3b857510	0.004072793
35	0xbe82d3f5	-0.25552335
36	0xbd7b6d20	-0.061383367
37	0x3d8ae02c	0.06781039
38	0x3cf29ca2	0.029615704
39	0x3e12824a	0.14307514
40	0x3dc13fd8	0.09436005
41	0x3dd227e7	0.10261517
42	0x3e0c7218	0.13715398
43	0xbda06954	-0.0783259
44	0x3db7bf68	0.08972055
45	0x3cfdb879	0.030971752
46	0x3df56c48	0.11983544
47	0x3dec1480	0.115273476
48	0x3dae49b4	0.085101515
49	0x3dd9d1a6	0.106356904
50	0xbe2636c0	-0.16231823
51	0x3bb7ecb6	0.005612935
52	0xbdff4fa9	-0.12466366
53	0x3e0de101	0.13855363
54	0xbdf8e281	-0.12152577
55	0xbb3a5be3	-0.0028436116
56	0x3df30ded	0.118678905
57	0x3dafaee3	0.08578279
58	0xbe17d2b3	-0.14826469
59	0xbe545f62	-0.2073951
60	0xbdc3759d	-0.09543917
61	0x3e06ad36	0.13152012
62	0x3d9a870d	0.0754529
63	0xbdc792e2	-0.097448125
64	0xbd70365d	-0.058645595
65	0x3d873416	0.066017315
66	0xbe0f2a78	-0.13981044
67	0x3d5eddc8	0.054410726
68	0x3d79ad59	0.060956333
69	0x3d865fd7	0.06561249
70	0x3dde114c	0.10843143
71	0xbe01dcfd	-0.12681957
72	0x3e22b856	0.15890631
73	0x3d6e2248	0.058138162
74	0x3d974352	0.07385887
75	0xbde8d692	-0.11369051
76	0x3dbd64e7	0.09247761
77	0x3d5231d9	0.05131707
78	0x3dce8bd6	0.10085265
79	0x3d69758c	0.056996867
80	0x3d4af07e	0.049545757
81	0xbdc7db4b	-0.09758624
82	0x3d9b36d1	0.07578815
83	0x3df72702	0.12067987
84	0xbd9545fe	-0.072887406
85	0xbcbf6490	-0.023363382
86	0xbc96be5a	-0.018401314
87	0xbe180950	-0.14847302
88	0xbdd18c5a	-0.10231848
89	0x3e1f0998	0.15531003
90	0x3d988d7b	0.0744886
91	0x3dcfb5ed	0.101421215
92	0xbd57df7e	-0.052703373
93	0xbe18dbea	-0.1492764
94	0xbd9efaae	-0.07762657
95	0x3db18168	0.086672604
96	0x3e32aa39	0.17447747
97	0x3c256614	0.010095138
98	0xbe0ba313	-0.13636427
99	0xbdd4e89e	-0.10395931
100	0xbcda58f8	-0.026653752
101	0x3ded0292	0.11572756
102	0x3e2e9fa5	0.17053087
103	0xbd8036a9	-0.062604256
104	0x3ca5ea12	0.020253215
105	0x3c691af2	0.014227616
106	0xbd816b26	-0.06319265
107	0x3d24764d	0.040151883
108	0xbd47e930	-0.04880637
109	0xbdddc62a	-0.108288124
110	0x3e2e881a	0.17044106
111	0x3e1634dc	0.14668602
112	0x3c29db74	0.010367263
113	0xbd1147ef	-0.03546899
114	0x3c909d64	0.017653175
115	0xbe092bdd	-0.13395639
116	0xbd300a87	-0.04297879
117	0x3dde9aaa	0.108693436
118	0xbe064f4a	-0.13116184
119	0xbdc1d8b4	-0.09465161
120	0x3e045db3	0.12926368
121	0xbc83bbbe	-0.016080733
122	0x3e4e8c1b	0.20170633
123	0xbdef70d3	-0.116914414
124	0xbe40efba	-0.18841448
125	0xbc861a7a	-0.016370047
126	0xbe200ece	-0.15630648
127	0xbe0c4178	-0.1369685

fc.weight f4 [1, 32]
0	0x3e639114	0.22223312
1	0x3b192004	0.002336503
2	0x3dcce877	0.10005277
3	0xbd49f864	-0.04930915
4	0x3e1c74a4	0.1527887
5	0x3de077a9	0.10960323
6	0xbe5376d7	-0.20650803
7	0x3dfe4a92	0.12416567
8	0xbdc1a602	-0.094554916
9	0x3e1f5e22	0.15563253
10	0x3e885f5b	0.2663525
11	0x3e2ae44a	0.16688648
12	0xbe3857bd	-0.1800222
13	0x3e020ad8	0.12699449
14	0xbe2eeb02	-0.17081836
15	0xbd807d49	-0.06273896
16	0x3e43f92f	0.19138025
17	0x3e7f4f47	0.24932586
18	0xbe4989f1	-0.19681527
19	0x3e37191b	0.1788067
20	0xbdc0230b	-0.09381684
21	0x3e3b2c26	0.1827856
22	0x3e497915	0.19675095
23	0x3dc93134	0.09823838
24	0x3d811760	0.063032866
25	0x3e42a206	0.1900712
26	0xbe1d5951	-0.15366103
27	0xbd034600	-0.03204918
28	0xbd878a8c	-0.066182226
29	0x3d772eb8	0.06034729
30	0xbdf110ef	-0.11770808
31	0x3e0094be	0.1255674
